Assets/ML_PPO/results/headless_26/BoatAgent/BoatAgent-99978.onnx (onnx, 868044 bytes, 21 tensors)

discrete_action_output_shape f4 [1, 6]
0	0x40000000	2.0
1	0x40000000	2.0
2	0x40000000	2.0
3	0x40000000	2.0
4	0x40000000	2.0
5	0x40000000	2.0

network_body._body_endoder.seq_layers.0.weight f4 [256, 57]
0	0xbca55bd0	-0.020185381
1	0xbe0e3e71	-0.13891007
2	0xbdbacfd4	-0.09121671
3	0x3dc9d540	0.09855127
4	0x3d01a985	0.031655807
5	0xbd21eed6	-0.039534412
6	0xbe81603c	-0.25268734
7	0x3cae4b91	0.021276267
8	0x3a4cf64a	0.00078186824
9	0xbe22b3f4	-0.15888959
10	0x3dacc60e	0.084362134
11	0xbe0a7ede	-0.13524958
12	0xbc985049	-0.01859297
13	0x3e6e97b2	0.23300055
14	0xbcb89116	-0.02253012
15	0x3d6f5b12	0.05843646
16	0xbd90f6f7	-0.07078355
17	0x3d50d346	0.050982736
18	0xbda46bcd	-0.08028374
19	0xbda1b8c1	-0.07896567
20	0xbea0ae86	-0.3138315
21	0x3de3352a	0.110941246
22	0x3d7e0c69	0.062023554
23	0x3d6bcea1	0.057570104
24	0xbe12ce0c	-0.14336413
25	0x3cfce4d2	0.030870829
26	0xbdb8cd52	-0.09023537
27	0xbe4ec8f1	-0.2019384
28	0xbdb4f047	-0.08834892
29	0xbe012fc1	-0.12615873
30	0x3d7bbbdd	0.061458457
31	0xbdbb8994	-0.091571
32	0xbddde00c	-0.10833749
33	0x3d9c5bf0	0.07634723
34	0xbe140895	-0.14456399
35	0xbdf19020	-0.11795068
36	0xbd46ec40	-0.04856515
37	0x3d6b84c8	0.057499677
38	0x3e14530f	0.1448481
39	0x3d6b975e	0.057517402
40	0x3df028ab	0.11726507
41	0x3b4eeae8	0.003157312
42	0x3d94bd24	0.07262638
43	0xbc7ace13	-0.015307921
44	0xbdcb8181	-0.0993681
45	0x3e441006	0.19146737
46	0x3dba502c	0.09097323
47	0x3dc9b35e	0.09848665
48	0x3d599d4f	0.053128537
49	0x3de50be9	0.11183912
50	0x3dbca3df	0.092109434
51	0xbdbc892c	-0.09205851
52	0x3daea113	0.08526816
53	0x3dbba92e	0.09163128
54	0x3ec22278	0.37916923
55	0x3d796bf6	0.060893975
56	0x3e30638a	0.17225471
57	0xbedb4a2d	-0.4283003
58	0x3df0d175	0.11758701
59	0x3e168000	0.14697266
60	0x3e5ab251	0.21357085
61	0x3d2cfe03	0.042234432
62	0xbe92dc5a	-0.2868374
63	0x3dbcae9f	0.09212994
64	0xbe0c5e6c	-0.13707894
65	0x3e31b2d6	0.17353377
66	0x3e2c3d54	0.1682027
67	0x3e957f81	0.2919884
68	0x3de90ca3	0.113793634
69	0x3d955a45	0.07292608
70	0x3e2068f6	0.1566504
71	0xbd87064d	-0.06592999
72	0xbddd8bbb	-0.10817667
73	0xbe1fc367	-0.15601884
74	0x3e6384a0	0.22218561
75	0x3d1cab62	0.03824938
76	0xbd982e34	-0.074306875
77	0xbe50df30	-0.2039764
78	0x3d0f4582	0.034978397
79	0x3ea4db94	0.32198775
80	0xbd6c69d7	-0.057718124
81	0xbd1f2924	-0.038857594
82	0xbde59df3	-0.11211767
83	0x3d42ae49	0.047529493
84	0xbd03dd4d	-0.03219347
85	0x3b3a49a6	0.0028425246
86	0xbcb2223a	-0.021744836
87	0x3dc928cf	0.09822237
88	0xbd1b385c	-0.037895545
89	0xbe27bdd6	-0.1638101
90	0xbe8b3b24	-0.27193558
91	0xbd9740f9	-0.073854394
92	0x3e8334d4	0.25626242
93	0xbd2eec26	-0.042705677
94	0xbe330061	-0.17480613
95	0x3e489bba	0.19590655
96	0xbe17ad28	-0.14812148
97	0xbe71b81a	-0.23605385
98	0xbc6171e5	-0.013760065
99	0x3d71bd8a	0.05901865
100	0xbe5cbff9	-0.21557607
101	0x3e824ce7	0.25449297
102	0x3c8652cd	0.016396904
103	0x3bc9a287	0.006153408
104	0xbe8f553b	-0.27994713
105	0x3cc48541	0.023989322
106	0xbe157325	-0.14594705
107	0x3d750cd4	0.059826687
108	0x3e28c3cb	0.16480939
109	0xbcffd6d2	-0.031230364
110	0x3e7d18a0	0.24716425
111	0xbeca8be7	-0.39559862
112	0x3e4ce8ea	0.20010725
113	0xbd4d9799	-0.050193403
114	0x3d94b9ad	0.07261977
115	0x3d217cb3	0.039425563
116	0xbe2487b7	-0.16067396
117	0x3dafb98e	0.085803136
118	0xbdb53728	-0.08848411
119	0xba2122f2	-0.000614687
120	0xbdee8f16	-0.11648385
121	0x3e2c6938	0.16837013
122	0x3cfbb1a5	0.030724356
123	0xbde94860	-0.113907576
124	0xbd4a6875	-0.049416024
125	0x3cc51ee1	0.024062576
126	0x3b01bfd5	0.0019798179
127	0x3d94785a	0.07249518
128	0x3d2150d0	0.03938371
129	0xbd59c268	-0.053163916
130	0xb596b28c	-1.1227835e-06
131	0x3b5d65b7	0.003378255
132	0x3ba08f19	0.004899871
133	0x3af8ef17	0.0018992153
134	0x3e635a5a	0.22202435
135	0xbd3e5115	-0.046464045
136	0x3e21ebd7	0.15812622
137	0xbdef1612	-0.116741315
138	0xbdd820e9	-0.10553152
139	0x3c1a8c69	0.00943289
140	0x3be6956f	0.007036857
141	0xbdf2d304	-0.11856654
142	0x3c83dba4	0.016095944
143	0xbd95ad86	-0.073084876
144	0xbd4ecc51	-0.05048782
145	0x3d5c981e	0.053856008
146	0x3d868fa7	0.06570368
147	0xbe16564f	-0.14681362
148	0x3df27646	0.11838965
149	0xbe1a5374	-0.15070897
150	0xbdaf92bb	-0.085729085
151	0xbdec20ef	-0.11529719
152	0xbd23b582	-0.03996802
153	0x3d448a53	0.04798348
154	0xbdca109d	-0.0986645
155	0xbdd2941d	-0.102821566
156	0xbd385e5c	-0.045011863
157	0xbe527f7e	-0.20556447
158	0x3e03778d	0.12838574
159	0x3e4118db	0.18857138
160	0xbe02b23a	-0.127633
161	0x3d8dfa77	0.06932538
162	0x3d662229	0.05618492
163	0xbe45ae11	-0.19304682
164	0x3e3f204b	0.18664663
165	0x3e63446a	0.22194067
166	0x3cc33ed1	0.023833664
167	0x3e89b740	0.2689762
168	0x3cde7eba	0.027160037
169	0x3e1cdf6c	0.15319604
170	0x3e5e3a18	0.21701849
171	0x380a8d8a	3.3033582e-05
172	0xbddf56b4	-0.10905209
173	0xbdfce5e7	-0.12348538
174	0x3e3cbc44	0.18431193
175	0x3e20e8ee	0.15713856
176	0x3d3891a8	0.045060784
177	0x3e57fcfc	0.210926
178	0xbe067021	-0.13128711
179	0x3c96b860	0.018398464
180	0xbe054052	-0.13012818
181	0x3e146182	0.14490321
182	0xbe5265b2	-0.20546606
183	0xbe47e5a0	-0.19521189
184	0xb8c666c4	-9.460517e-05
185	0x3e63d561	0.22249366
186	0xbdf3e937	-0.119097166
187	0xbdd75a18	-0.10515231
188	0x3c95a873	0.0182688
189	0x3cbe7fef	0.023254363
190	0x3d50ad09	0.05094627
191	0xbd88460c	-0.066539854
192	0xbe00834f	-0.1255009
193	0x3df44a49	0.11928231
194	0x3d7b066b	0.061285418
195	0xbe0b7cea	-0.1362187
196	0xb8e3da00	-0.00010864809
197	0xbd8d744d	-0.06906948
198	0xbb7b51bc	-0.0038348278
199	0xbd9f9ef2	-0.07793988
200	0x3e2a520f	0.16632865
201	0x3d3b6a5d	0.045755733
202	0xbc1c0359	-0.0095222825
203	0x3d507227	0.050890114
204	0x3e42b44c	0.1901409
205	0xbe4d03be	-0.20020959
206	0x3d42c4d3	0.047550987
207	0x3d0923ae	0.033481292
208	0x3dca011e	0.09863494
209	0x3d039487	0.03212407
210	0xbd2d9764	-0.042380705
211	0x3e801733	0.250177
212	0xba955a23	-0.0011394661
213	0x3e0d3655	0.13790257
214	0x3e302617	0.1720203
215	0x3e26698f	0.16251205
216	0xbe26efa4	-0.16302353
217	0x3e1ff195	0.156195
218	0x3ed1a87a	0.4094885
219	0x3d54de45	0.051969785
220	0xbd973930	-0.073839545
221	0xbcf95f9b	-0.030441096
222	0xbdeb352f	-0.11484753
223	0x3d0abbdc	0.033870563
224	0xbdf7e344	-0.12103894
225	0xbddcfb75	-0.10790149
226	0x3da61dfa	0.08111186
227	0xbcc3c2c8	-0.02389659
228	0x3e93e82b	0.28888068
229	0xbd9bd2f0	-0.076085925
230	0x3dac2d05	0.08407024
231	0xbdcb32c0	-0.09921789
232	0xbd4379b5	-0.04772349
233	0xbdfb0777	-0.12257283
234	0xbe3b3828	-0.1828314
235	0x3d8327ec	0.06404099
236	0x3b9d139e	0.0047935983
237	0x3d0ec8e0	0.034859538
238	0xbc5f216d	-0.013618809
239	0x3df964e4	0.121774465
240	0xbe3ddf6a	-0.18542257
241	0x3d80a202	0.062809005
242	0xbdfeaf49	-0.12435777
243	0x3e2119c4	0.15732485
244	0x3d5b2c40	0.053508997
245	0xbdf1f146	-0.118135974
246	0x3c68c188	0.014206298
247	0xbb98566b	-0.0046489737
248	0x3d85db17	0.06535929
249	0x3eae84a0	0.3408556
250	0x3e677849	0.22604479
251	0xbdca7706	-0.09885983
252	0x3bedd2a2	0.0072577754
253	0x3dd11875	0.10209743
254	0x3c94c7ac	0.018161617
255	0x3c4758f3	0.012167203

network_body._body_endoder.seq_layers.0.bias f4 [256]
0	0x3cadb294	0.021203317
1	0x3bd9cd83	0.0066468134
2	0xbbed4571	-0.007240944
3	0xbb3ac400	-0.0028498173
4	0xba9c0b81	-0.0011905284
5	0xbc0caf50	-0.00858672
6	0xbce682ac	-0.028138481
7	0xbcb7a5c1	-0.022417905
8	0xbc9ee4fc	-0.019396298
9	0xbcedeb09	-0.029042738
10	0xbbb1a799	-0.0054215905
11	0xbc4b3303	-0.012402299
12	0xbd03551f	-0.0320636
13	0x3a3e0876	0.00072491856
14	0xbb905cb5	-0.004405583
15	0xbcc9513c	-0.024574868
16	0xbc8215a5	-0.015879462
17	0xbc6fa37a	-0.014626378
18	0x3c8057b7	0.015666826
19	0x3b1cefae	0.002394657
20	0x3b058041	0.0020370635
21	0xbcabfadd	-0.020993644
22	0x3ceec969	0.029148774
23	0x3b158feb	0.0022821377
24	0xbb546080	-0.0032406151
25	0xbc0a59fd	-0.008444306
26	0xbcb3aa2f	-0.021931736
27	0xbc8c3ed5	-0.017119804
28	0xbcaff29e	-0.021477994
29	0x3ca3cb6c	0.01999446
30	0xbb38dad3	-0.0028206601
31	0x3c6ab3c6	0.014325088
32	0xbba3966d	-0.0049922974
33	0xbc6eee4e	-0.014583183
34	0xbc9c2e2b	-0.019064983
35	0xba9fb511	-0.0012184699
36	0xbc180df2	-0.009280669
37	0xbbfc29eb	-0.0076954267
38	0xbca6495e	-0.020298656
39	0x3ced8269	0.028992848
40	0x3c1c2580	0.009530425
41	0x3c1528ae	0.009103937
42	0xbccd8843	-0.025089389
43	0x3b43892c	0.00298364
44	0xbcdd81fe	-0.027039524
45	0xbb9baede	-0.0047510704
46	0x3c7c530e	0.015400661
47	0x3bfa8fd5	0.0076465406
48	0xbc93729f	-0.017998992
49	0xba1487ec	-0.0005666006
50	0xbcc1b4f0	-0.023645848
51	0x3c00fdc5	0.007873003
52	0x3a4dd5d9	0.0007851995
53	0x3b940232	0.0045168633
54	0xbc15a0fb	-0.009132619
55	0xbcf2f3c6	-0.029657256
56	0xbc046f64	-0.008083198
57	0x3b922c64	0.004460858
58	0xbb87fe7b	-0.0041502095
59	0xbc7c84bd	-0.015412507
60	0xbafc1793	-0.00192331
61	0xb9aa3509	-0.0003246444
62	0x3c032d3b	0.008006389
63	0xbc60b562	-0.01371512
64	0x3be5e874	0.007016236
65	0xbc22baaa	-0.0099321995
66	0xbb795b69	-0.003804887
67	0xbc318a00	-0.010836124
68	0xbc922482	-0.017839674
69	0xba243b3a	-0.0006264929
70	0xbc0870ac	-0.008327644
71	0xbb990093	-0.004669258
72	0xbc8757b6	-0.016521316
73	0xbc27f8be	-0.010252176
74	0x3aa244d4	0.0012380132
75	0xbc544d39	-0.012957864
76	0x3bd074f9	0.0063616005
77	0xbb180c0a	-0.0023200535
78	0xbc01301d	-0.007885006
79	0xbb26248e	-0.0025351378
80	0xbb471639	-0.0030378236
81	0xbd01baab	-0.03167216
82	0xbc935ce4	-0.01798863
83	0xbc95f348	-0.018304482
84	0x3c76bd30	0.015059754
85	0x3affca17	0.0019515184
86	0xbb069208	-0.0020533819
87	0xbc4c947f	-0.012486576
88	0x3ae74963	0.0017645772
89	0x3bd3bfcb	0.0064620725
90	0xbcc04aae	-0.02347311
91	0xbc835c5a	-0.016035248
92	0xbc451dfe	-0.0120310765
93	0xbc8faabf	-0.017537473
94	0xbd13c5a0	-0.03607714
95	0xbb0d6ec2	-0.002158091
96	0xbc49e20e	-0.012321962
97	0xbbd5b668	-0.0065219887
98	0xbcc67558	-0.024225876
99	0xbb9d3f49	-0.004798804
100	0xbc625eba	-0.01381653
101	0xbc2014b6	-0.009770563
102	0xbc98b32f	-0.018640129
103	0xbc18bf1e	-0.00932291
104	0x3ba46118	0.0050164573
105	0xbc098a2e	-0.008394761
106	0xbc89e693	-0.01683358
107	0xbc8a71d2	-0.016899977
108	0xbb15b984	-0.0022846172
109	0x3c4813a8	0.012211718
110	0xbb9716d3	-0.004610875
111	0xbb0e3b33	-0.0021702766
112	0xbb02f41e	-0.001998193
113	0xbc912513	-0.017717874
114	0xbb8ec7ac	-0.004357299
115	0x3c1b6cfe	0.009486435
116	0x3b09fe4e	0.0021056118
117	0x3a94e4a1	0.0011359641
118	0xbc360f4e	-0.011112047
119	0x3bc456a9	0.005991776
120	0xbb81f905	-0.003966453
121	0xbc6e6673	-0.014550793
122	0xbd0ad89a	-0.033897974
123	0x3c3492a7	0.011021293
124	0x3cf27dc2	0.029600982
125	0x3bcccc8d	0.0062499703
126	0xba5cae9b	-0.0008418352
127	0xbbbae59b	-0.0057036406
128	0x3c64ea3e	0.013971863
129	0xbcc2efbf	-0.02379596
130	0xbb56353f	-0.0032685546
131	0x3c97ba08	0.018521324
132	0xbbef91dd	-0.0073110894
133	0x3b579f41	0.003290132
134	0xbbfe46ef	-0.007759921
135	0xbbfbae17	-0.0076806652
136	0xbbb3c244	-0.0054858048
137	0x3cb10026	0.021606516
138	0x3ca74961	0.020420732
139	0xbc526ea7	-0.012843764
140	0xb9c3685b	-0.0003727105
141	0xbcbafabe	-0.022824641
142	0xbcfefa39	-0.031125175
143	0xbc6d3c49	-0.014479705
144	0xbc832518	-0.016008899
145	0xb98eadc4	-0.00027213816
146	0xbb57e531	-0.0032943005
147	0x3caf8b60	0.021428764
148	0x3c101887	0.00879491
149	0xbc810a6d	-0.015752042
150	0xbc842bb3	-0.016134119
151	0xbc2a9975	-0.010412564
152	0x3c1f3600	0.009717464
153	0x3bad14f6	0.0052820398
154	0xbc1445d8	-0.009049855
155	0xbc0a6e87	-0.008449203
156	0x3c8a6e45	0.016898284
157	0xbd006083	-0.03134204
158	0xbc96908a	-0.018379468
159	0xbc18f43f	-0.009335577
160	0xbce0bc63	-0.02743358
161	0xb95d5532	-0.0002110794
162	0xbcc158e9	-0.023601966
163	0xbb2b734a	-0.0026161247
164	0xbc73696a	-0.014856676
165	0xbb3dc164	-0.002895438
166	0x398378d4	0.0002507629
167	0xbc6d7765	-0.014493798
168	0xbcc164fe	-0.023607727
169	0x3ba64a67	0.0050747874
170	0x3c14928e	0.0090681445
171	0xba037d68	-0.00050159404
172	0x3a882db3	0.0010389596
173	0x3aa5d8c6	0.0012653104
174	0xbd2fb0e0	-0.04289329
175	0xbcc8eb75	-0.024526337
176	0xbaca9295	-0.0015455062
177	0x3a09f2c2	0.0005262309
178	0x3b3db7da	0.0028948695
179	0xbc1e5d8b	-0.009665857
180	0xbc49f6f9	-0.012326949
181	0xbbaf8d83	-0.0053574457
182	0xbc8c0b35	-0.017095188
183	0xbc9a607f	-0.018844841
184	0x3c5d2fc1	0.013500155
185	0xbc38cde8	-0.011279561
186	0xbcd44255	-0.025910536
187	0xbbe5bc9a	-0.0070110084
188	0xbc6555c2	-0.013997497
189	0x388be7eb	6.6712346e-05
190	0xbbc0c912	-0.0058833444
191	0xba20d2eb	-0.0006134945
192	0x3973375b	0.00023194907
193	0xbb6f03af	-0.0036470701
194	0xbbc8857d	-0.0061194287
195	0x3c33eb53	0.010981399
196	0xbc27499e	-0.010210423
197	0x3b1ce36e	0.002393927
198	0xbb41ce4a	-0.002957242
199	0x3b89d484	0.004206242
200	0xbb847db9	-0.0040433076
201	0xbc5d5aae	-0.013510389
202	0x3c67be79	0.014144533
203	0xbbf067af	-0.007336579
204	0xbc05f302	-0.008175613
205	0x3ba69e8c	0.005084818
206	0xbcc4b7e7	-0.024013473
207	0x3b86889d	0.004105641
208	0x3d280e45	0.041029233
209	0xbc088498	-0.008332394
210	0xbcb54457	-0.022127314
211	0xbc77de00	-0.0151286125
212	0xbce3a044	-0.027786382
213	0xbb8b6491	-0.004253932
214	0xbc0cbe3c	-0.008590277
215	0xbc2c4b37	-0.0105159795
216	0xbcb2c2c8	-0.021821395
217	0xbc98ed53	-0.018667853
218	0xbbefe2b8	-0.007320728
219	0xbc2b34d5	-0.010449608
220	0xbcbb2d26	-0.022848677
221	0xba3adfa2	-0.0007128661
222	0xb9118733	-0.00013878643
223	0xbc2f3111	-0.010692851
224	0xbc8f4668	-0.017489627
225	0x3cdb49cb	0.026768586
226	0xbccd1e22	-0.025038783
227	0x3993c4d2	0.00028184667
228	0xbcdffe86	-0.027343046
229	0xbc2c4111	-0.01051356
230	0x3bdd1f6a	0.0067481296
231	0x3c377bbf	0.011198937
232	0xbccfb20d	-0.025353456
233	0xbc1d165c	-0.00958785
234	0xba9bcbb2	-0.0011886267
235	0xbb8b4187	-0.004249755
236	0xbc5f5ec5	-0.013633435
237	0xbb435fb5	-0.0029811685
238	0xbc94068f	-0.018069534
239	0xbc781b2b	-0.015143196
240	0xbc58e34a	-0.013237784
241	0x3b12d274	0.0022403272
242	0xbb795c69	-0.0038049466
243	0xbcbb9b30	-0.022901148
244	0x3b5c00fe	0.0033569927
245	0xbc331555	-0.010930379
246	0x3c166da4	0.009181414
247	0x3c3a2408	0.01136113
248	0xbc9cce0c	-0.01914122
249	0x3bd82245	0.006595882
250	0xbbb3ac4a	-0.005483185
251	0xbcbe4cea	-0.023230035
252	0xbc68307a	-0.014171714
253	0xbbb14fcd	-0.0054111243
254	0xbc1bd695	-0.00951161
255	0xbc71ef4b	-0.014766525

network_body._body_endoder.seq_layers.2.weight f4 [256, 256]
0	0x3d7bd920	0.061486363
1	0x3cdb5b55	0.026776949
2	0x3d0a8f7e	0.03382825
3	0xbcb4528d	-0.02201202
4	0xbcb9556a	-0.022623736
5	0x3e20fc01	0.15721132
6	0x3d059414	0.03261192
7	0x3cfcbd10	0.03085187
8	0x3d0cc5f9	0.03436849
9	0x3d128f1e	0.03578102
10	0xbd0b92fe	-0.03407573
11	0xbe103334	-0.14082032
12	0x3c789e10	0.015174404
13	0xbd9ba1a7	-0.07599192
14	0xbd95ec2c	-0.07320437
15	0x3c44c938	0.012010865
16	0xbcd88961	-0.026432695
17	0x3dc73f34	0.09728852
18	0x3d6bef74	0.057601407
19	0xbc44726d	-0.011990172
20	0xbdd8d918	-0.10588282
21	0xbd97fa4e	-0.07420789
22	0x3c9ea462	0.019365493
23	0x3c31ab77	0.010844103
24	0x3c9528b6	0.018207889
25	0xbd185900	-0.037194252
26	0xbca1745a	-0.019708801
27	0x3d0d2334	0.0344574
28	0x3ba20bfb	0.004945276
29	0xbd96a059	-0.07354803
30	0xbc7dba5a	-0.015486324
31	0x383b9cd5	4.4730336e-05
32	0xbda17f23	-0.078855775
33	0xbe0670db	-0.13128988
34	0x3c4cd49c	0.012501862
35	0x3c97b926	0.018520903
36	0x3c2800f3	0.010254133
37	0xbd03e434	-0.032200053
38	0xbbeb4468	-0.0071797855
39	0xbd313314	-0.043261603
40	0xbd6c1004	-0.05763246
41	0x3c8be14e	0.017075207
42	0x3d614b1e	0.055003278
43	0x3d3c75cf	0.04601079
44	0x3dc2a9c7	0.09505039
45	0x3e235dcd	0.15953751
46	0x3d5349cb	0.051584046
47	0xbe00b40f	-0.12568687
48	0x3de04e3c	0.10952422
49	0xbd1ee496	-0.038792215
50	0x3d440982	0.04786063
51	0xbdcc7b48	-0.099844515
52	0x3cd3f2a9	0.025872545
53	0xbe13440b	-0.14381425
54	0xbd69fb66	-0.057124518
55	0xbcce6ec6	-0.025199305
56	0xbdcdddc8	-0.10052067
57	0x3daf5d04	0.08562663
58	0xbd589e01	-0.05288506
59	0xbd8affb1	-0.067870505
60	0x3c97606e	0.018478598
61	0xbd387445	-0.04503276
62	0x3c4f1409	0.012639054
63	0xbc9a0b99	-0.018804358
64	0xbe0937bc	-0.13400167
65	0x3d84fc77	0.06493466
66	0xbd380a23	-0.044931542
67	0xbd5959d7	-0.053064194
68	0xbd1472c1	-0.03624225
69	0xbd49dbc2	-0.049281843
70	0xbdfc6f81	-0.12325955
71	0x3d678637	0.05652448
72	0x3e6e8faa	0.23296991
73	0x3c77b934	0.015119839
74	0xbd2b53a4	-0.041827813
75	0xbc2d3d76	-0.010573735
76	0xbbe71524	-0.0070520807
77	0xbbb590a3	-0.0055409237
78	0x3c20a6c8	0.009805389
79	0x3cc3afcc	0.023887537
80	0xbd104803	-0.035224926
81	0x3db541af	0.08850419
82	0xbd20205b	-0.039093357
83	0xbc9d575d	-0.019206697
84	0x3d87aa93	0.06624331
85	0x3d008139	0.031373236
86	0x3c3f4e52	0.011676388
87	0x3d7ed5f2	0.062215753
88	0xbd1bd70c	-0.03804688
89	0xbe20413c	-0.15649885
90	0x3dc31d73	0.09527101
91	0x3cfc59c4	0.030804522
92	0x3d2d40a1	0.042297963
93	0x3d2a59aa	0.041589417
94	0xbd492c16	-0.04911431
95	0xbd480216	-0.048830114
96	0x3ded8d58	0.11599225
97	0xbd5aeba4	-0.05344738
98	0x3bf0c996	0.0073482497
99	0xbdd046ca	-0.10169752
100	0x3cc1ea42	0.023671273
101	0xbd9ce2b5	-0.076604284
102	0x3c76979a	0.015050793
103	0x3cc0b3b1	0.023523184
104	0xbb5eb04a	-0.0033979588
105	0x3c953b8c	0.01821687
106	0x3e3e6bf8	0.18595874
107	0x3cc02f57	0.023460073
108	0xbca23654	-0.019801296
109	0x3a22a53f	0.0006204433
110	0x3ccdead7	0.025136394
111	0xbbe8084c	-0.007081067
112	0x3c90388a	0.017605085
113	0xbd545282	-0.051836498
114	0xbd8ba67e	-0.06818865
115	0xbc80f962	-0.015743915
116	0x3d91c36a	0.071173504
117	0x3dab473f	0.083631985
118	0xbda139f5	-0.078723826
119	0xbd4c41e2	-0.04986752
120	0x3d01f830	0.03173083
121	0x3d4ab147	0.04948547
122	0x3ca779e0	0.020443857
123	0xbccb0bad	-0.02478584
124	0xbdaf260e	-0.0855218
125	0x3ba50af0	0.0050367042
126	0xbd3ad313	-0.045611452
127	0x3c3a81dd	0.011383501
128	0xbdaf436e	-0.08557783
129	0x3bb7d553	0.005610147
130	0x3dbf6fdd	0.09347508
131	0x3d71a8ba	0.0589988
132	0x3d5a4e0d	0.05329709
133	0x3d071e22	0.03298772
134	0x3dec11fa	0.11526866
135	0xbda3e57e	-0.080027565
136	0xbd64b625	-0.05583777
137	0xbd29ab4d	-0.04142313
138	0xbdf139ea	-0.11778624
139	0x3d98c9c4	0.07460359
140	0xbd32ca45	-0.04364993
141	0x3db3aac8	0.08772808
142	0x3d7c4ba0	0.06159556
143	0x3e031ab4	0.12803155
144	0x3d97896e	0.073992595
145	0xbd78a577	-0.060704675
146	0x3df030eb	0.1172808
147	0xbd47fa7d	-0.04882287
148	0x3deabcfb	0.114618264
149	0xbd143a02	-0.036188133
150	0x3d563d4c	0.05230455
151	0xbcd25b67	-0.02567835
152	0xbd9b72ef	-0.07590281
153	0x3d388517	0.0450488
154	0x3cbd7851	0.02312866
155	0xbd961d90	-0.07329857
156	0xbd417209	-0.047227893
157	0xbcf749c7	-0.030186547
158	0x3d1942b4	0.03741713
159	0xbd307ff9	-0.043090794
160	0x3d557a46	0.052118562
161	0xbd40dee0	-0.04708755
162	0x3c3ee6dc	0.011651721
163	0x3cd222c5	0.025651345
164	0x3d3dcb65	0.04633655
165	0xbda80f7a	-0.08206077
166	0x3d3d3dbf	0.046201464
167	0xbb372f88	-0.0027951915
168	0xbd2dc282	-0.042421825
169	0xbd73b51b	-0.059498888
170	0x3c22facd	0.009947491
171	0x3c6874d4	0.01418801
172	0x3cca0f79	0.024665581
173	0xbc05807e	-0.008148311
174	0xbd9829a9	-0.07429821
175	0x3db57c24	0.088615686
176	0x3dc9b76c	0.09849438
177	0xbd01affe	-0.03166198
178	0xbdd35f9e	-0.10320972
179	0x3daae651	0.083447106
180	0x3cead722	0.028667036
181	0x3e01ea4f	0.12687038
182	0x3d00d098	0.03144893
183	0x3d519841	0.05117059
184	0x3c1edcd6	0.009696206
185	0x3dcecc62	0.10097577
186	0xbd0877f8	-0.033317536
187	0x3cb4050e	0.021975067
188	0x3c957d99	0.018248366
189	0xbd7ccd03	-0.061718952
190	0x3c9c64cb	0.01909103
191	0x3a8208f1	0.0009920878
192	0xbb972d2e	-0.00461354
193	0x3e11ef4e	0.14251444
194	0xbdb3429c	-0.08752939
195	0xbd09ca6c	-0.03364031
196	0xbdb19046	-0.08670096
197	0xbd9eca9a	-0.07753487
198	0x3d390864	0.045174018
199	0xbe0f43d1	-0.13990714
200	0x3cd99e79	0.026564823
201	0xbd4c724a	-0.049913682
202	0xbd4e8bcb	-0.050426286
203	0x3c9d6d77	0.019217236
204	0x3ba6884e	0.0050821668
205	0x3d94af57	0.07260006
206	0x3db41ed5	0.08794943
207	0x3cb3e665	0.021960447
208	0xbd9e6eec	-0.077360004
209	0xbb3f9447	-0.0029232667
210	0x3c3949b0	0.011309072
211	0xbd46d148	-0.04853943
212	0x3d2b1f1b	0.04177771
213	0xbddc3971	-0.107531436
214	0xbd8e118c	-0.069369406
215	0xbd2e8c88	-0.04261449
216	0x3c39d605	0.01134253
217	0x3d6643ea	0.05621711
218	0x3a8ed998	0.0010898588
219	0xbe0785c9	-0.13234629
220	0x3d2c496b	0.042062204
221	0xbcb80f81	-0.02246833
222	0x3d1f8081	0.03894091
223	0xbd507c82	-0.05089999
224	0x3c4c2183	0.012459162
225	0xbc6b28b7	-0.014352969
226	0x3bce2933	0.0062915324
227	0x3bf512ae	0.0074790334
228	0x3d97165a	0.0737731
229	0x3c83aa41	0.016072394
230	0xbd9e45f3	-0.077281855
231	0x3daa25eb	0.083080135
232	0xbd18e1b0	-0.037324607
233	0x3cc86578	0.024462447
234	0x3da4c3d2	0.08045162
235	0xbd0baeec	-0.034102365
236	0xbcce3c4f	-0.025175242
237	0xbd9b4cce	-0.07583009
238	0xbcd67261	-0.026177587
239	0x3d1ee25e	0.0387901
240	0x3ca2752f	0.019831268
241	0xbcce39a9	-0.025173979
242	0x3cadb2c2	0.021203402
243	0xbcec0c81	-0.028814556
244	0x3c6b5e8d	0.014365804
245	0xbdef8364	-0.11694983
246	0x3d93d0c3	0.072175525
247	0xbbc93e2c	-0.0061414447
248	0xbc4df45b	-0.012570466
249	0x3db4da99	0.08830757
250	0xbc4ca25e	-0.012489883
251	0x3c47ba33	0.012190389
252	0xbda68578	-0.08130926
253	0xbdb7e4a6	-0.08979158
254	0x3c63c2e5	0.013901447
255	0xbdbd0f08	-0.092313826

network_body._body_endoder.seq_layers.2.bias f4 [256]
0	0xbc6de531	-0.0145199755
1	0xbc191051	-0.009342269
2	0x3bc5a3e8	0.006031502
3	0x3b0e3ce9	0.0021703786
4	0xbc51932e	-0.012791438
5	0x3c780b03	0.015139344
6	0x3a4dca23	0.000785025
7	0x3c1d3045	0.009594028
8	0xbc378b6e	-0.011202676
9	0x3c83ac00	0.016073227
10	0x3c6e0271	0.014526949
11	0xbb6ebe18	-0.0036429223
12	0x3a93a903	0.0011265579
13	0xbc750ede	-0.014957158
14	0xbc20544d	-0.009785724
15	0xbc334dda	-0.010943854
16	0xbc073a9d	-0.008253721
17	0xbc01ff82	-0.007934453
18	0xbc7c8818	-0.015413307
19	0xbb35bb0b	-0.0027729895
20	0xbb459f52	-0.0030154777
21	0x3c5ee45b	0.013604249
22	0xbc4c8307	-0.012482411
23	0xbc332fc8	-0.010936685
24	0x3a36d95b	0.00069751375
25	0xbb828ad4	-0.0039838348
26	0xbc1710fe	-0.00922036
27	0xbae66455	-0.0017577509
28	0xbcbf05aa	-0.02331813
29	0xbcef3dc5	-0.029204259
30	0xbb6e5b98	-0.0036370512
31	0xbc053e68	-0.008132555
32	0x3b6ac9f0	0.003582593
33	0xbcbb0106	-0.022827636
34	0x3bf26fba	0.0073985728
35	0xbc8dcf0b	-0.01731064
36	0xbb347530	-0.002753567
37	0xbc3876f5	-0.01125883
38	0xba89e3a5	-0.0010520114
39	0xbc9ef766	-0.019405078
40	0x3b87e324	0.0041469503
41	0xbc8f0f13	-0.017463243
42	0xbcd1a72b	-0.025592407
43	0xbbcab5b6	-0.0061862124
44	0xbc8309c8	-0.015995875
45	0x3c8d433a	0.01724397
46	0xbb082dd3	-0.0020779266
47	0xba355dff	-0.00069186086
48	0x3c2ceeaf	0.0105549535
49	0x3c653e5a	0.013991917
50	0x3b0f8b01	0.002190292
51	0x3c2ddda0	0.010611922
52	0xbc97ff2f	-0.018554298
53	0xbb8a8d14	-0.0042282436
54	0xbc22c756	-0.009935221
55	0x3af7e8bd	0.0018913966
56	0x3a72e2ab	0.00092653435
57	0xbb2d2c6d	-0.0026424185
58	0x3bc92326	0.006138223
59	0xbb3c9b55	-0.0028779109
60	0xbc544c32	-0.0129576195
61	0xbc8ddf0d	-0.017318273
62	0xbc955441	-0.018228652
63	0xbc0d6a66	-0.008631324
64	0xbc5de9a5	-0.013544475
65	0xbcc374a8	-0.023859337
66	0x3bed42b7	0.007240619
67	0x3a9aa286	0.0011797703
68	0xbc35de92	-0.011100428
69	0xbc2c018a	-0.010498414
70	0xbb45e108	-0.0030193944
71	0xbc5c8281	-0.013458849
72	0xbb74cc47	-0.0037353204
73	0x3c158592	0.009126084
74	0x3a54e0d3	0.00081206596
75	0x3a68e408	0.0008884077
76	0xb819f582	-3.670669e-05
77	0xbb200789	-0.0024418554
78	0x3a894bcb	0.0010474859
79	0x3c70ca42	0.0146966595
80	0x3c1e0477	0.009644619
81	0xbcb9d8e1	-0.022686424
82	0xbbe18030	-0.006881736
83	0x3b529934	0.0032134773
84	0xbac822bf	-0.0015269144
85	0xbb652196	-0.0034962646
86	0x3c0aef6e	0.008479936
87	0x3a6ad413	0.0008957993
88	0xbb5f5052	-0.0034074974
89	0xbcb225b5	-0.021746496
90	0xbbe1cf8e	-0.0068911975
91	0x3c70a232	0.014687108
92	0xbbf97f7f	-0.0076140757
93	0x392d53d9	0.00016529801
94	0xbc6cad9f	-0.014445691
95	0xbbe0c72a	-0.0068596797
96	0xbc440877	-0.011964909
97	0xbcaa4b6c	-0.020787917
98	0xbc833530	-0.016016573
99	0xbbc528c6	-0.0060168235
100	0xbc3955f6	-0.011311999
101	0xbd0780b5	-0.03308173
102	0xb8fb2354	-0.00011975193
103	0xbbd5e347	-0.0065273377
104	0xbbbaf72d	-0.005705735
105	0x3bfa4e04	0.0076386947
106	0x3bbded26	0.0057960926
107	0xbc921e0f	-0.017836599
108	0xbcab0913	-0.02087835
109	0xbc97660a	-0.018481273
110	0x3c3b3cea	0.011428097
111	0xbc3585e1	-0.0110792825
112	0xbc8fcc7d	-0.017553562
113	0xbcc7a9b2	-0.02437291
114	0xbc91a168	-0.01777716
115	0xbc3f2fe2	-0.011669131
116	0xbbefdd69	-0.0073200953
117	0xbc482f31	-0.012218283
118	0x3bdad199	0.006677818
119	0xbc59e898	-0.013300084
120	0xbc84d10f	-0.016212968
121	0x3c404115	0.011734267
122	0xbc378079	-0.011200064
123	0x3bb0af1a	0.0053919675
124	0xbccc1691	-0.024913104
125	0x3c6e507a	0.014545554
126	0xbc29f757	-0.010373912
127	0xba6a96f1	-0.00089488836
128	0xbb5c8b45	-0.0033652347
129	0x3c45bfaf	0.012069627
130	0x3b0393f0	0.0020077191
131	0xbc46cf85	-0.012134437
132	0x3b48eab3	0.003065747
133	0xbc6b5034	-0.014362384
134	0xbc169c43	-0.009192529
135	0xbb3446b3	-0.002750796
136	0xbc3c72e5	-0.011502002
137	0x3b9fb447	0.0048737857
138	0xbc512410	-0.012764946
139	0xbc4cf933	-0.012510586
140	0xbccdda5b	-0.025128534
141	0xbd0f98e1	-0.035057906
142	0xbc0842d1	-0.0083167115
143	0xbab9210a	-0.0014124226
144	0xbb521255	-0.0032054384
145	0x3a3e46c4	0.00072584697
146	0xbc477886	-0.012174731
147	0xbc1f1601	-0.009709836
148	0xbbe0f9ac	-0.0068657007
149	0x3c74bb9e	0.01493731
150	0xbba95836	-0.0051679863
151	0x3b5d0f6d	0.0033731118
152	0xbc7fd9c4	-0.015615884
153	0xbc31542b	-0.01082329
154	0xbce7f926	-0.028317045
155	0xba80e193	-0.0009832851
156	0x3a4aca9b	0.0007735879
157	0xbbb369b3	-0.005475247
158	0x3c13de89	0.0090252245
159	0x3c866010	0.016403228
160	0xbc001751	-0.007818059
161	0xbabac9b6	-0.0014250788
162	0xbc35bf9e	-0.011093048
163	0xbca5b9aa	-0.020230133
164	0x3c0ae9ad	0.008478564
165	0x3b0a3db6	0.0021093911
166	0x3c799f0d	0.015235675
167	0xbba798f2	-0.005114668
168	0xbbfb3810	-0.0076665953
169	0xbba124f5	-0.0049177357
170	0xbbc2673e	-0.0059327176
171	0xbb4fdeae	-0.003171842
172	0xbc2f569a	-0.0107018
173	0xbcd4c2c6	-0.025971781
174	0x3c0bb42e	0.008526845
175	0x39f73a9f	0.00047155187
176	0xbc0b25de	-0.008492915
177	0xbbe69ff7	-0.0070381123
178	0x3a0a623a	0.0005278919
179	0xbc2acca2	-0.010424765
180	0xbc71b489	-0.014752516
181	0x3c54cfb8	0.012988977
182	0xbc80a532	-0.015703771
183	0xbaa34167	-0.0012455405
184	0x3a04ab86	0.00050609594
185	0xbaa0ed17	-0.001227769
186	0x3b4f8a2f	0.0031668057
187	0xbcac5234	-0.021035291
188	0x3c07f0b3	0.008297133
189	0x3904b815	0.00012657077
190	0xbb190651	-0.0023349712
191	0xbc826012	-0.01591495
192	0x3c383f16	0.01124551
193	0xbcc04da3	-0.02347452
194	0x3be5dd23	0.007014887
195	0xbc324e3b	-0.010882909
196	0x3ba155f7	0.004923578
197	0x3b87b1a9	0.004141052
198	0xbc44fe0b	-0.012023459
199	0xbc70090f	-0.014650597
200	0x3ca4782d	0.020076836
201	0xbc85c6a7	-0.016330076
202	0xbbb7c748	-0.005608473
203	0xbb9dd899	-0.00481708
204	0xbc979694	-0.018504418
205	0xbc73e1ab	-0.014885346
206	0x3bbec3d8	0.0058216862
207	0xbc6babd6	-0.014384231
208	0x3c8ff774	0.01757405
209	0x3c047de8	0.008086659
210	0x3c3a9868	0.011388876
211	0xbc7498ea	-0.014929036
212	0x3c6a8842	0.014314713
213	0xbcb596bd	-0.022166604
214	0xbb27da48	-0.0025612283
215	0xbb7e932d	-0.0038845048
216	0x3c908cc5	0.01764525
217	0xbcbd95af	-0.023142664
218	0xbbb188c9	-0.0054179174
219	0xbbf52dd6	-0.0074822707
220	0xbbce4f6f	-0.0062960903
221	0xbb4df510	-0.0031426586
222	0xbc18450d	-0.009293807
223	0xbcc8dcd6	-0.024519365
224	0xbbb2efc6	-0.005460712
225	0xbc6046a2	-0.013688715
226	0xbc249413	-0.010045069
227	0xbb135dcf	-0.0022486334
228	0xbcb52a85	-0.022115001
229	0xbc3a4b2c	-0.011370461
230	0xbd16a2df	-0.03677642
231	0xbcac9b6e	-0.021070208
232	0x3c608c26	0.013705289
233	0xbbdc34e6	-0.006720173
234	0x3b110f89	0.0022134504
235	0xbccb4bad	-0.024816358
236	0xbaba81a5	-0.0014229311
237	0xbc72701f	-0.01479724
238	0xba0493f7	-0.0005057449
239	0xbcd25ad0	-0.025678068
240	0xbcaab3fc	-0.020837776
241	0xbc0290ac	-0.007969063
242	0x3c450930	0.012026116
243	0xbb88ea81	-0.0041783457
244	0x3b75273f	0.0037407426
245	0x3b5d46e7	0.0033764185
246	0xbbbe01b9	-0.005798545
247	0xbc159be9	-0.00913141
248	0xbc6a1b9f	-0.014288812
249	0x3c80df81	0.015731575
250	0xbc4756c1	-0.01216668
251	0xbc3797a5	-0.0112055885
252	0xbc259486	-0.0101062115
253	0xbc90788c	-0.017635606
254	0x3bc00299	0.0058596847
255	0x3b5c8a48	0.0033651758

network_body._body_endoder.seq_layers.4.weight f4 [256, 256]
0	0x3d017f10	0.031615317
1	0x3cb854eb	0.02250143
2	0xbd3f15f3	-0.04665179
3	0x3c4a7932	0.012357997
4	0x3a9b10d5	0.0011830578
5	0xbc530cc6	-0.012881463
6	0x3d8566e2	0.06513764
7	0x3d67631d	0.056491006
8	0x3db79e71	0.08965767
9	0x3d88c4fe	0.06678198
10	0xbdd4eb06	-0.1039639
11	0xbd8738f6	-0.06602661
12	0x3d781304	0.06056501
13	0xbd5c210a	-0.053742446
14	0xbd5dbaaf	-0.054133113
15	0x3cba8d43	0.022772437
16	0xbc8ad624	-0.016947813
17	0xbe090bf8	-0.13383472
18	0x3c97328d	0.018456722
19	0x3d9662c9	0.073430605
20	0xbd8c3979	-0.068468995
21	0xbdc80c7c	-0.09768006
22	0xbb88b23d	-0.0041716383
23	0x3c9f6f7a	0.019462336
24	0xbd19093f	-0.037362333
25	0xbcfa0594	-0.030520238
26	0x3d679e70	0.056547582
27	0x3d235fc5	0.039886255
28	0xbc702fae	-0.014659805
29	0x3c659b53	0.014014083
30	0x3d118450	0.035526574
31	0x3dcef6cf	0.10105669
32	0x3bf9a0f9	0.0076180664
33	0x3d25fc79	0.04052398
34	0xbd620ec4	-0.055189863
35	0x3df18a79	0.1179399
36	0xbbc8306e	-0.006109289
37	0xbd626e03	-0.055280697
38	0x3c8d868f	0.017276077
39	0x3d0d3406	0.03447344
40	0xbd43d8b4	-0.047814086
41	0xbb0a0c31	-0.0021064396
42	0xbcaa6e84	-0.020804651
43	0xbb8fe490	-0.0043912604
44	0x3d8cdede	0.06878446
45	0xbc9fb599	-0.019495772
46	0x3b303d8e	0.0026892158
47	0x3d72c67f	0.059271332
48	0xbcf9efcc	-0.030509852
49	0x3c6d64d4	0.014489371
50	0xbdb99a62	-0.09062649
51	0x3da869b3	0.082232855
52	0x3d6a9c0c	0.057277724
53	0x3dbde392	0.09271921
54	0x3beac4e1	0.007164583
55	0x3c6fca4c	0.014635634
56	0x3d4a40dc	0.04937826
57	0x3c238222	0.009979757
58	0x3dad59a2	0.08464362
59	0x3cbfee8a	0.023429174
60	0x3d2920e3	0.04129113
61	0x3d599c88	0.053127795
62	0xbb3d9660	-0.0028928742
63	0x3d7ea26e	0.062166624
64	0x3bbb7b19	0.0057214615
65	0xbd2f836f	-0.042849954
66	0xbcc91659	-0.024546789
67	0x3d37018f	0.04467922
68	0x3c247ff4	0.010040272
69	0x3d40f5d9	0.04710946
70	0x3d87de34	0.06634179
71	0xbc9169f0	-0.01775071
72	0x3d144095	0.036194403
73	0x3d5b73c7	0.05357721
74	0xbce621b8	-0.02809225
75	0x3c6b0254	0.014343817
76	0x3c446a95	0.011988302
77	0x3e1081e4	0.1411205
78	0x3d396a0d	0.045267154
79	0xbcfaae36	-0.030600648
80	0x3da8670e	0.08222781
81	0x3db9daa0	0.090749025
82	0xbc7a52e3	-0.015278551
83	0xbd65823a	-0.056032397
84	0xbc471968	-0.012152053
85	0x3b244921	0.0025068002
86	0x3cfc65ef	0.030810324
87	0xbd3d65a6	-0.046239518
88	0xbae519fe	-0.001747906
89	0x3d2017f8	0.03908536
90	0x3c1c827f	0.009552597
91	0xbd92240b	-0.07135781
92	0xbc4d1527	-0.01251725
93	0xbc1f97bd	-0.009740767
94	0xbddfa3a6	-0.10919885
95	0x3cd42c59	0.025900053
96	0x3e0bfd57	0.1367086
97	0xbdd24705	-0.10267452
98	0xbbad5354	-0.0052894745
99	0x3e0dff7f	0.13866995
100	0xbd218765	-0.039435763
101	0x3ce3ea0f	0.027821569
102	0xbd26ceb8	-0.040724486
103	0xbd1f93dd	-0.038959373
104	0xbe33d087	-0.17560016
105	0xbd9d7322	-0.076879755
106	0x3d8c5352	0.068518296
107	0xbd07059b	-0.03296433
108	0x3d9fe5e2	0.078075185
109	0xbcf89165	-0.030342767
110	0x3dca56fe	0.09879874
111	0xbd63b1bc	-0.055589423
112	0xbd27d69a	-0.040976144
113	0x3cc77ef7	0.024352534
114	0xbdafda60	-0.085865736
115	0xbbd8159b	-0.0065943724
116	0x3c93fa94	0.01806382
117	0xbda550c0	-0.080720425
118	0xbce55065	-0.027992437
119	0x3d0ce14b	0.034394544
120	0x3d85e214	0.065372616
121	0xbcf98a3b	-0.030461421
122	0x3d8214ee	0.06351648
123	0x3d4669b4	0.04844065
124	0xbcd73c31	-0.026273819
125	0x3d6c8b87	0.05775025
126	0xbc99c7e4	-0.018772073
127	0xbd822fe6	-0.06356792
128	0xbc6db6d2	-0.01450892
129	0xbdb1dec1	-0.08685065
130	0x3d697318	0.056994528
131	0xbd380d22	-0.0449344
132	0x3da365c6	0.07978396
133	0xbd07de1a	-0.033170797
134	0x3dc5ae1d	0.0965235
135	0x3d9e62cc	0.07733688
136	0xbb2ca9bc	-0.0026346287
137	0xbc83cdda	-0.016089369
138	0xbc9b8bc3	-0.018987542
139	0xbd94871a	-0.07252331
140	0x3bba2b33	0.0056814193
141	0x3905f0b9	0.00012773545
142	0xbd764c14	-0.060131148
143	0x3d206b3d	0.03916477
144	0x3c405605	0.011739259
145	0x3cd311c1	0.025765302
146	0xbda95aaf	-0.0826925
147	0x3d36216b	0.044465464
148	0x3d0ede26	0.034879826
149	0x3c424502	0.011857273
150	0xbd558cf0	-0.05213636
151	0x3bed0339	0.00723305
152	0x3db8405b	0.0899665
153	0xbd139975	-0.03603502
154	0xbc92509c	-0.017860703
155	0x3b607111	0.003424708
156	0xbadd6676	-0.0016891498
157	0xbd6a9aa9	-0.0572764
158	0x3d450b5c	0.048106536
159	0x3dd270ab	0.10275396
160	0xbcd009e4	-0.025395341
161	0xbccceb4a	-0.025014538
162	0xbd937aa1	-0.07201124
163	0x3c5c01e0	0.013428181
164	0x3df3089a	0.11866875
165	0x3e157efb	0.1459922
166	0x3d241b41	0.040065054
167	0xbd5a0fba	-0.053237654
168	0xbda4ae2e	-0.08041035
169	0x3b82b78c	0.0039891656
170	0xb9b91c58	-0.00035307067
171	0x3c8eee5f	0.017447649
172	0xbd8c4e5d	-0.06850884
173	0xbd876b35	-0.06612245
174	0x3e100751	0.14065291
175	0xbcb4ea5d	-0.02208441
176	0xbd6933fe	-0.05693435
177	0x3d408f19	0.04701147
178	0xbd6dfad1	-0.058100525
179	0xbc6eb6ad	-0.0145699205
180	0x3ddfd812	0.10929884
181	0xbb801d90	-0.003909774
182	0xbdd76582	-0.10517408
183	0xbcc52216	-0.024064105
184	0xbc0aa6f6	-0.008462658
185	0xbd1279c8	-0.03576067
186	0x3d27f1a6	0.04100194
187	0x3c1cd323	0.009571823
188	0x3d663f1f	0.05621254
189	0x3b32e3a5	0.0027296331
190	0xbd1f7789	-0.038932357
191	0xbdb087b2	-0.08619632
192	0xbe24748e	-0.16060087
193	0x3bd76982	0.006573857
194	0x3d0b36d9	0.033987854
195	0xbc3ff32e	-0.011715693
196	0xbcafc750	-0.021457344
197	0xbbf3a01a	-0.007434857
198	0xbcfd59b6	-0.030926567
199	0x3d9db7dd	0.07701085
200	0xbc82f3da	-0.015985418
201	0xbddbfd59	-0.107416816
202	0x3d5e0aa2	0.05420936
203	0xbd1b0733	-0.037848663
204	0xbdf47c5f	-0.119377844
205	0xbdb72843	-0.08943226
206	0x3d13f65d	0.036123622
207	0x3dcc5d81	0.09978772
208	0x3e0406a2	0.12893155
209	0x3d4933be	0.04912161
210	0x3c8d1e5e	0.017226394
211	0x3d933f75	0.07189838
212	0xbd4f3eed	-0.05059712
213	0x3d79e47d	0.06100892
214	0xbd757d2d	-0.05993383
215	0xbd989936	-0.07451098
216	0x3c1bc289	0.00950683
217	0xbd2989a3	-0.041391026
218	0x3d35313a	0.0442364
219	0xbdc53c0c	-0.09630594
220	0x3dceed57	0.10103863
221	0x3d5245c7	0.051336076
222	0x3d427010	0.047470152
223	0x3d1724eb	0.036900442
224	0xbd888df2	-0.06667699
225	0x3d58e330	0.052951038
226	0xbd44c6d1	-0.04804117
227	0x3e19d022	0.15020803
228	0xbde016c3	-0.109418415
229	0x3e08b463	0.13350062
230	0xbdd7551d	-0.10514281
231	0x3d02e31f	0.03195488
232	0xbd19302c	-0.037399456
233	0x3ce69ab0	0.028149933
234	0xbd8b1569	-0.06791193
235	0x3d97c12a	0.0740989
236	0x3bd2ac89	0.006429259
237	0x3d4de5b3	0.050267886
238	0x3e0b8cfc	0.13628
239	0x3c906332	0.017625425
240	0xbe02bd4c	-0.12767524
241	0x3dca2776	0.09870808
242	0xbc97a95d	-0.018513376
243	0xbd1094cb	-0.03529815
244	0x3c717e37	0.014739565
245	0x3d85d382	0.065344825
246	0xbd3b60f3	-0.045746755
247	0xbd6b3c5e	-0.057430618
248	0x3d7adc0c	0.06124501
249	0x3d04e46d	0.032444406
250	0xbda32a47	-0.07967048
251	0xbd475779	-0.048667405
252	0xbd54bf3b	-0.051940184
253	0xbbc620f4	-0.006046409
254	0x3c175cb8	0.0092384145
255	0xbd9e52c9	-0.07730634

network_body._body_endoder.seq_layers.4.bias f4 [256]
0	0xbc02f2bf	-0.0079924455
1	0xbc6f90ca	-0.014621923
2	0xbb3bc1c3	-0.0028649427
3	0xb9cc0f69	-0.00038921394
4	0xbc466aeb	-0.012110452
5	0xbc201130	-0.009769723
6	0xbc3f39db	-0.011671509
7	0xbc064dfc	-0.008197304
8	0x3c561368	0.01306615
9	0x3c5273d4	0.012844998
10	0xbc65d99a	-0.014028931
11	0xbc7b424a	-0.015335629
12	0xbc88ed79	-0.016714798
13	0xbc7b02c1	-0.015320481
14	0xbcb1b6d1	-0.021693619
15	0xbc1e933a	-0.009678656
16	0x3cbc05e6	0.022952031
17	0xbc84c148	-0.016205445
18	0xbbea761d	-0.0071551935
19	0xbc9c21c2	-0.019059066
20	0xb9d8ba2b	-0.00041337436
21	0xbc4bb41a	-0.012433076
22	0xbc4698bf	-0.012121378
23	0x3c1fc125	0.009750639
24	0xbbbce9c0	-0.00576517
25	0xbbcab76a	-0.0061864154
26	0xbc7c92f0	-0.015415892
27	0xbbb3879f	-0.005478814
28	0xbc84fd27	-0.016233994
29	0x3a9c92ac	0.0011945567
30	0xbc148113	-0.009063977
31	0xbc2a014f	-0.010376289
32	0xbc9ee84d	-0.019397879
33	0x3711cbca	8.690122e-06
34	0x3c2fc951	0.01072915
35	0xbad6b34d	-0.001638034
36	0xbc8f5cad	-0.017500246
37	0xbb2a830c	-0.0026018051
38	0xbc6823f5	-0.014168729
39	0xbb8cd069	-0.0042973054
40	0x3c22ac6a	0.009928802
41	0xbb943681	-0.004523099
42	0xbc267c27	-0.010161436
43	0x3c34aa14	0.011026878
44	0x3ba4da9f	0.0050309445
45	0xbc4e8dd7	-0.012607059
46	0x3ba16179	0.0049249497
47	0x3ba8d246	0.0051520197
48	0x3c96de6d	0.018416608
49	0xbbbe670c	-0.005810624
50	0xbc63607d	-0.013877985
51	0xbbb9f1c5	-0.005674573
52	0xbb7b87c0	-0.0038380474
53	0xbc65e3b9	-0.014031344
54	0xbc0aa98a	-0.008463273
55	0xbcb42200	-0.021988869
56	0xbb30da0b	-0.0026985432
57	0xbb861500	-0.004091859
58	0xbc656254	-0.014000494
59	0xbc9757dd	-0.018474514
60	0xbc1e0d63	-0.009646746
61	0xbb7e61d8	-0.0038815644
62	0xbaad265f	-0.0013210288
63	0xbba4fafb	-0.005034802
64	0x39742709	0.00023284195
65	0xbca50033	-0.020141697
66	0xbc26d3f8	-0.010182373
67	0x3a14d4c8	0.0005677459
68	0xbc2c49f3	-0.010515678
69	0xbc4ca49c	-0.012490418
70	0xbc822c21	-0.015890183
71	0x3b5c681d	0.0033631392
72	0xbc434860	-0.011919111
73	0xbc1fd83b	-0.009756143
74	0x3b667e3d	0.0035170459
75	0x3c2080ff	0.00979638
76	0x3c229f77	0.009925715
77	0x3c38cb0f	0.011278882
78	0xbaedcd29	-0.0018142808
79	0x3bdcc9eb	0.0067379377
80	0xbc66c805	-0.014085774
81	0xbcad682c	-0.021167837
82	0x3c6ac330	0.014328763
83	0xbc073c7a	-0.008254165
84	0xbc487762	-0.012235494
85	0xbc42c74e	-0.011888338
86	0xbc9b123d	-0.018929595
87	0x3bd34a81	0.0064480905
88	0xbb1ac1e0	-0.0023614094
89	0xbb35241d	-0.0027639933
90	0x3b7dc391	0.0038721303
91	0xbc4d9533	-0.012547779
92	0xbcbb0c53	-0.022833025
93	0xbc85c7e6	-0.01633067
94	0xbc35454d	-0.011063886
95	0xbcbdde5d	-0.02317732
96	0xb7afa0b3	-2.0936457e-05
97	0xbc4ce081	-0.012504698
98	0xbc6ff57c	-0.01464593
99	0xbbb2226f	-0.0054362337
100	0xbb9ad1b8	-0.0047247075
101	0xbc8f9a90	-0.017529756
102	0xbc524a26	-0.012835061
103	0xbc456363	-0.012047621
104	0x3c680014	0.014160175
105	0xbb9fe4a2	-0.00487955
106	0xbc1e99df	-0.00968024
107	0xbc124298	-0.00892701
108	0x3c9706dc	0.018435888
109	0x3a501466	0.000793761
110	0xbca48243	-0.020081645
111	0x3c7fd772	0.015615331
112	0xbc1ad262	-0.009449573
113	0x39a8489d	0.00032097558
114	0xbc3e6550	-0.0116208345
115	0x3a4f037a	0.00078969414
116	0x3bd9fcd6	0.006652455
117	0xbc03daab	-0.00804774
118	0x3b98d05d	0.0046635107
119	0x3bff2726	0.0077866493
120	0xbbbb52d3	-0.0057166605
121	0xbc7d68ea	-0.015466908
122	0xbca6d639	-0.020365821
123	0x3c0c7436	0.008572629
124	0xbb969b42	-0.004596145
125	0x3b27318f	0.0025511717
126	0x3bbbd034	0.005731607
127	0x390074e2	0.00012250573
128	0xbc128d27	-0.008944786
129	0xbc9a1cb8	-0.018812522
130	0x3bdf174a	0.006808196
131	0x3cb8c970	0.02255699
132	0xbc967f8b	-0.018371364
133	0xbb3567a2	-0.0027680178
134	0x3b06b489	0.0020554385
135	0x3b5c84a3	0.0033648394
136	0xbc77a7ea	-0.015115717
137	0xbcf1418c	-0.0294502
138	0xbbea06d1	-0.007141926
139	0xb9de42be	-0.00042392866
140	0xbc3251bf	-0.010883748
141	0x3bc96253	0.0061457544
142	0xbb506e6b	-0.0031804095
143	0xbc93ab05	-0.018025884
144	0xbc325209	-0.0108838165
145	0x3bd1deff	0.006404757
146	0x3bc0273b	0.0058640516
147	0x3bcb0926	0.006196159
148	0xbbaffc20	-0.005370632
149	0x3b1a3c0a	0.0023534321
150	0x3c914898	0.01773481
151	0x3b390802	0.0028233533
152	0xbc4ba09f	-0.012428432
153	0x3abdd9f7	0.0014484514
154	0x3aec2a24	0.001801793
155	0xbc39ffd1	-0.011352495
156	0xbcd789e2	-0.026310865
157	0xbb1179fb	-0.002219795
158	0xbc03dfee	-0.0080489945
159	0xbb9f26f9	-0.004856941
160	0xbc403257	-0.011730752
161	0xbc004a0a	-0.007830152
162	0xbc7142a4	-0.014725361
163	0xbc0ca35b	-0.008583869
164	0xbbc98d41	-0.006150872
165	0x3c30919b	0.010776903
166	0xbc534319	-0.012894415
167	0xbc098620	-0.008393794
168	0x3b2d0f8d	0.0026406974
169	0x3b8869a9	0.0041629863
170	0xbb9c49bc	-0.004769532
171	0x3abdcb11	0.0014480074
172	0xbccd104a	-0.025032181
173	0xbbad5622	-0.005289809
174	0xbad7bcf2	-0.0016459508
175	0xbba22985	-0.004948797
176	0xbbcba274	-0.0062144343
177	0xbb894791	-0.0041894396
178	0x3b44ba12	0.0030018133
179	0xbb3e0075	-0.0028991972
180	0xbc6b943b	-0.014378603
181	0xbc3eb107	-0.011638886
182	0xbb1d1e66	-0.0023974418
183	0xbc8df750	-0.017329842
184	0x3c0e4c85	0.008685236
185	0xbba601c1	-0.005066127
186	0xbc88b7b8	-0.016689166
187	0xbc0f073a	-0.00872975
188	0xbac5e51b	-0.0015098186
189	0xbb9ea082	-0.0048409114
190	0xbaf46a69	-0.0018647435
191	0xbc54bbb7	-0.012984208
192	0xbbabb9e6	-0.0052406667
193	0xbc4de3b8	-0.012566499
194	0x3bdb54f3	0.0066934763
195	0xbac36fc7	-0.0014910632
196	0xbc640646	-0.013917511
197	0xbc54069e	-0.012941031
198	0xbc1fa782	-0.009744527
199	0x3b8a09d9	0.0042125997
200	0xbc534794	-0.0128954835
201	0xbb061cf1	-0.0020464028
202	0xbb97bf36	-0.0046309484
203	0xbb9db30e	-0.0048126047
204	0x3c8794bf	0.01655042
205	0xbb85a5df	-0.0040786113
206	0xbd050182	-0.03247214
207	0xbc1120d7	-0.008857927
208	0xbc390786	-0.011293298
209	0xbc44da23	-0.0120148985
210	0xbc8180d7	-0.015808506
211	0xbc2b2c49	-0.01044757
212	0x3bb76e1b	0.0055978424
213	0xbc1f0be7	-0.009707428
214	0xbbee7f1c	-0.007278336
215	0x3b6750a3	0.0035295866
216	0xbaff952e	-0.0019499415
217	0x3a93b7ca	0.0011269983
218	0xbc595f15	-0.013267298
219	0xbca1fbeb	-0.019773444
220	0x3b2c2d7f	0.0026272235
221	0xbcb2c675	-0.021823147
222	0xbbd731f8	-0.006567236
223	0x3aae7229	0.0013309169
224	0x3b16e3b8	0.0023023915
225	0xbca616d2	-0.020274553
226	0xbb98f44c	-0.0046677943
227	0x3bd02abd	0.006352751
228	0x3c390050	0.011291578
229	0x3bf4b164	0.0074674357
230	0xbc03768f	-0.008023872
231	0xbbfd8043	-0.0077362373
232	0xbca15baf	-0.019697038
233	0xbc290886	-0.010316974
234	0xbbeb4893	-0.0071802824
235	0x3c298ab9	0.010348015
236	0xbbcabc3e	-0.006186991
237	0xbc766a13	-0.0150399385
238	0xbca056ec	-0.019572698
239	0xbc034030	-0.008010909
240	0x3bafa4ac	0.0053602066
241	0xbb95390f	-0.004553921
242	0xbc56d9b9	-0.013113433
243	0x3c02afc3	0.007976475
244	0xbc8b1422	-0.016977374
245	0xbc84668f	-0.016162185
246	0x3c30661e	0.010766534
247	0xbc97f71a	-0.018550444
248	0xbc1d335a	-0.009594763
249	0x3c6c815d	0.0144351395
250	0xbaf5a825	-0.0018742128
251	0xbc2d417a	-0.010574693
252	0xbacb0c18	-0.0015491275
253	0xbc5f1af0	-0.013617262
254	0xbc03db33	-0.008047867
255	0x3d12c028	0.035827786

network_body._body_endoder.seq_layers.6.weight f4 [256, 256]
0	0x3d3cf960	0.04613626
1	0xbccd030a	-0.025025863
2	0xbdbf87b5	-0.09352056
3	0xbd5bee72	-0.053694196
4	0xbd11e31e	-0.035616986
5	0x3d004c41	0.03132272
6	0x3e075457	0.13215767
7	0x3cc07802	0.023494724
8	0x3cb3ffda	0.021972585
9	0xbd1821bc	-0.037141547
10	0xbc55b1f2	-0.013042914
11	0xbd7c7ada	-0.061640598
12	0xbd0f7ff3	-0.03503413
13	0x3d92f020	0.071747065
14	0xbd78123d	-0.06056427
15	0xbdeaee23	-0.11471202
16	0x3d9d59b2	0.07683124
17	0x3afc3271	0.0019241107
18	0xbe1b423b	-0.15161984
19	0x3d80eb2b	0.06294855
20	0xbd26ed06	-0.040753387
21	0x3e1e1390	0.1543715
22	0x3d847e16	0.064693615
23	0x3b567adb	0.0032727036
24	0xbdc3728d	-0.09543333
25	0x3d85246e	0.06501089
26	0x3c9ad922	0.018902365
27	0x3cb4abdf	0.02205461
28	0xbd3eac96	-0.04655131
29	0xbcf9a32d	-0.030473316
30	0xbd870d8e	-0.06594382
31	0xbe06aaa8	-0.13151038
32	0x3e39fb79	0.18162335
33	0xbd2adceb	-0.04171459
34	0xbbaf3cac	-0.005347809
35	0xbcd0bef4	-0.025481679
36	0x3c660134	0.014038373
37	0x3d7d6a57	0.06186899
38	0x3d89cb8d	0.06728277
39	0xbd841e6f	-0.06451117
40	0xbb622c34	-0.003451121
41	0x3dc567c2	0.09638931
42	0x3dc13354	0.09433618
43	0xbd11a1bb	-0.03555463
44	0xbc9da923	-0.01924569
45	0xbdf6b368	-0.12045938
46	0x3d7b8c19	0.061412904
47	0x3cb302c6	0.021851908
48	0x3cf490bb	0.02985417
49	0x3d099a14	0.033594206
50	0xbcc108ee	-0.023563828
51	0xbdd747a6	-0.10511713
52	0x3d478d00	0.048718452
53	0xbd311640	-0.04323411
54	0xbda7c76c	-0.081923336
55	0xbcf22b79	-0.029561745
56	0x3c887716	0.016658347
57	0xbd2a04d1	-0.0415085
58	0x3dc60c43	0.096703075
59	0xbd6839d5	-0.056695778
60	0x3cac778f	0.021053104
61	0x3cba18a7	0.022716833
62	0xbc999cee	-0.018751588
63	0xbcb98e65	-0.022650907
64	0x3e326e81	0.17424966
65	0xbd05f345	-0.032702703
66	0x3c91fcab	0.017820677
67	0x3dab9bba	0.08379312
68	0x3e065e1b	0.13121836
69	0xbdf4eebd	-0.11959598
70	0x3bb72ca9	0.0055900407
71	0xbd442a79	-0.047892068
72	0xbda608f1	-0.08107174
73	0x3e1e1b95	0.15440209
74	0x3ca885c1	0.020571591
75	0xbc3dbd2b	-0.011580746
76	0xbd8bbb9a	-0.068228915
77	0x3c887ecf	0.01666203
78	0x3e2c0fc0	0.16802883
79	0xba935669	-0.0011240962
80	0x3c136227	0.008995569
81	0x3dcbb245	0.099461116
82	0xbc570393	-0.013123411
83	0xbd9865c5	-0.07441286
84	0xbc291329	-0.01031951
85	0xbd463592	-0.048390932
86	0x3d0c7289	0.034288917
87	0x3c9ad796	0.018901628
88	0xbd83993d	-0.06425712
89	0x3e263ae0	0.16233397
90	0x3cd4caab	0.025975546
91	0x3d101e06	0.035184883
92	0x3d13e459	0.03610644
93	0x3d4957a0	0.04915583
94	0xbd8a94e3	-0.06766679
95	0xbcecd2bb	-0.028909078
96	0xbc32322b	-0.010876219
97	0x3c8ed1d4	0.017434038
98	0x3dd53bf1	0.104118235
99	0x3dd7003e	0.10498093
100	0x3d01dd68	0.03170529
101	0xbdb7ea0d	-0.089801885
102	0xbc32e794	-0.01091947
103	0x3cdc85e0	0.026919305
104	0x3d55a936	0.052163325
105	0xbd24ecee	-0.040265016
106	0x3d2277c1	0.039664987
107	0xbd35a7ec	-0.044349596
108	0x3dbf0318	0.09326762
109	0xbd2c9243	-0.042131674
110	0xbd5406a6	-0.051764153
111	0x3db25581	0.08707715
112	0x3e12b8a1	0.14328243
113	0xbdd6dffc	-0.104919404
114	0x3da1db63	0.07903173
115	0x3d39e1a5	0.045381207
116	0x3d175854	0.03694947
117	0x3e09e24c	0.13465232
118	0x3dd00dc2	0.10158874
119	0x3da880fe	0.08227728
120	0x3d0233af	0.03178757
121	0x3d110e87	0.035414245
122	0x3cfe9505	0.031076917
123	0x3d88f632	0.06687583
124	0xbd5f5608	-0.054525405
125	0x3d520a49	0.05127934
126	0x3cd15d79	0.025557267
127	0xbda1c3b9	-0.07898659
128	0x3d49a8f0	0.049233377
129	0xbc277f18	-0.010223173
130	0xbdcf0099	-0.10107536
131	0xbd474071	-0.04864544
132	0x3ba00b39	0.0048841503
133	0x3dbd9e7e	0.092587456
134	0xbd3e8c39	-0.046520445
135	0x3d0845e8	0.033269793
136	0xbd9df801	-0.077133186
137	0x3d179d2d	0.03701513
138	0xbce3f9d1	-0.027829083
139	0x3d3d5e55	0.04623254
140	0x3d82224e	0.06354199
141	0xba8a2e9b	-0.0010542454
142	0x3d161cb6	0.036648475
143	0x3d416de8	0.047223955
144	0x3cae5d98	0.021284863
145	0x3cc0ce71	0.023535939
146	0xbd19696d	-0.037454057
147	0x3dd3a3cc	0.10333976
148	0x3d866936	0.06563036
149	0xbb1c34e0	-0.0023835227
150	0xbcb379ae	-0.021908607
151	0x3c258a17	0.010103724
152	0x3d6a8b06	0.05726149
153	0x3c7d08b5	0.01544397
154	0x3d94a0d5	0.07257239
155	0xbce62fd5	-0.02809898
156	0x3d2400c9	0.04003981
157	0x3dc10153	0.09424081
158	0xbce405bb	-0.027834764
159	0xbc4e6aef	-0.012598737
160	0xbd1c8789	-0.038215194
161	0x3b78218a	0.0037861788
162	0x3d85cab6	0.06532805
163	0xbd4ced31	-0.05003089
164	0xbc8dc67f	-0.017306564
165	0xb8ea81af	-0.00011182145
166	0x3cf85428	0.030313566
167	0x3dd941b5	0.10608236
168	0xbdaa98c2	-0.083299175
169	0xbd8b6554	-0.06806436
170	0x3c92d315	0.017922917
171	0xbe0c454b	-0.13698308
172	0x3d6f5a59	0.05843577
173	0xbdde8685	-0.10865501
174	0xbd72f534	-0.059315875
175	0xbddf0c49	-0.10891015
176	0x3c226422	0.009911569
177	0x3da29030	0.07937658
178	0x3dac9fdd	0.08428929
179	0x3d5c10ff	0.053727146
180	0xbdb6fb0d	-0.08934603
181	0x3da9712c	0.08273539
182	0xbc42b107	-0.011883027
183	0x3d0bef4c	0.03416376
184	0xbce83e9d	-0.028350169
185	0x3d063811	0.032768313
186	0xbe3c7323	-0.18403296
187	0xbe1e62e4	-0.15467411
188	0xbcf8b981	-0.030361893
189	0x3d2e309f	0.042526837
190	0xbc9dcac4	-0.019261725
191	0x3da59cd2	0.08086552
192	0x3c9a4508	0.018831745
193	0xbdb7ccf6	-0.0897464
194	0x3c07d40c	0.008290302
195	0xbd856fe6	-0.065154836
196	0xbcbbb38e	-0.022912767
197	0x3d7dde15	0.061979372
198	0xbdfffa17	-0.12498873
199	0xbdbdae10	-0.092617154
200	0x3d1156e9	0.035483275
201	0x3d858d53	0.06521096
202	0xbce6c2c0	-0.028169036
203	0xbd39614d	-0.04525881
204	0x3d97905e	0.07400583
205	0xbde3aae1	-0.11116577
206	0xbce4c667	-0.027926637
207	0x3b9b1b7e	0.004733502
208	0x3d3a9977	0.04555651
209	0xbdbcba7c	-0.092152566
210	0xbd97c939	-0.07411427
211	0x3db56395	0.088568844
212	0xbd421e0e	-0.047391944
213	0xbc890721	-0.016727032
214	0xbdef48c2	-0.11683799
215	0x3c8640cf	0.016388325
216	0x3c42a606	0.011880403
217	0xbe316365	-0.17323072
218	0x3ce564ef	0.02800223
219	0xbd266f57	-0.040633526
220	0xbcfa28fc	-0.030537121
221	0x3cfbce30	0.030737966
222	0xbd8e89ee	-0.06959902
223	0x3d73c9cc	0.05951862
224	0x3c796159	0.015220963
225	0xbcb386ab	-0.0219148
226	0x3a8895d2	0.0010420626
227	0x3dc84a70	0.09779823
228	0xbd9b5f69	-0.075865574
229	0xbd5946f5	-0.053046186
230	0x3bcb4fb8	0.0062045716
231	0xbd636b5c	-0.055522308
232	0x3d6d8e0e	0.057996802
233	0xbd9f8bde	-0.077903494
234	0x3e3c3d31	0.18382718
235	0xbd3fc10e	-0.04681497
236	0xbbeb1c84	-0.00717503
237	0xbb069714	-0.0020536827
238	0xbde79e48	-0.11309487
239	0xbc372d57	-0.011180243
240	0x3d814855	0.06312624
241	0x3dc8827b	0.09790512
242	0xbcb09a19	-0.021557854
243	0x3d4958c5	0.049156923
244	0xbd34322c	-0.04399316
245	0xba055c4d	-0.0005087301
246	0xbe04e00b	-0.1297609
247	0xbd2e4fb9	-0.0425565
248	0xbe12b8cc	-0.14328307
249	0x3ba8df61	0.005153582
250	0x3d964964	0.07338217
251	0xbd8f6235	-0.070011534
252	0xbd10cac8	-0.035349637
253	0xbe1003df	-0.14063977
254	0xbcb3b788	-0.0219381
255	0xbd1d67b6	-0.038428985
