Assets/ML_PPO/results/2nd_go_1/BoatAgent.onnx (onnx, 810458 bytes, 12 tensors)

network_body._body_endoder.seq_layers.0.weight f4 [256, 13]
0	0x3e992e2e	0.29918045
1	0xbdd68f81	-0.1047659
2	0x3e2ed6e4	0.17074162
3	0xbf0ef181	-0.55837256
4	0xbe3d991f	-0.18515442
5	0x3d88ea59	0.06685323
6	0xbc673541	-0.014111818
7	0xbf372640	-0.7154274
8	0xbd2b5342	-0.041827448
9	0xbea8e90f	-0.3299031
10	0x3ef75430	0.48306417
11	0xbe287394	-0.1645034
12	0x3e04f27b	0.12983124
13	0x3f12b942	0.5731393
14	0xbe3a1091	-0.18170382
15	0xbdd30e55	-0.10305468
16	0x3ede2361	0.43386367
17	0xbe654036	-0.22387776
18	0x3eaa7637	0.33293316
19	0xbdad7913	-0.08470359
20	0xbe4aeb58	-0.19816339
21	0xbe9a632e	-0.30153793
22	0x3d4f69e7	0.050638106
23	0x3d8064ed	0.0626925
24	0x3e17cc3e	0.14824006
25	0x3c6f5f0d	0.014610064
26	0xbd57605e	-0.052582137
27	0x3e967113	0.29383144
28	0x3dd0e028	0.101990044
29	0x3e81fd01	0.2538834
30	0x3c8bc5da	0.017062116
31	0x3e89f877	0.26947376
32	0xbe4f79fc	-0.20261377
33	0x3e748f9e	0.2388291
34	0x3e3c7ea5	0.18407686
35	0x3df50d05	0.11965374
36	0xbef294dd	-0.473792
37	0xbf07892e	-0.52943695
38	0x3dbaf2aa	0.09128316
39	0x3dd36e2e	0.103237495
40	0xbe651e20	-0.22374773
41	0x3d49f1f5	0.049303014
42	0xbe655499	-0.22395553
43	0x3e83c802	0.2573853
44	0xbeca4eec	-0.39513338
45	0xbd9f1e77	-0.077694826
46	0x3df22cf3	0.1182498
47	0xbd9fa728	-0.077955544
48	0xbdab21fb	-0.08356091
49	0x3e0e8be6	0.13920555
50	0xbb1fdb19	-0.0024392067
51	0x3e4d92de	0.20075557
52	0xbf0b14e6	-0.54328763
53	0x3dcfedb4	0.1015276
54	0x3f05ba1f	0.52237123
55	0x3d8ee938	0.06978077
56	0xbe4d6bab	-0.20060603
57	0x3dfa9e30	0.12237203
58	0x3db70264	0.08936003
59	0xbf0d234c	-0.55131984
60	0xbeae2cd9	-0.3401859
61	0xbe7cc0f5	-0.24682982
62	0xbe84515a	-0.25843316
63	0x3e7d8ac7	0.2475997
64	0x3e7a29aa	0.24429956
65	0x3d9f16a1	0.07767988
66	0x3d173e83	0.03692485
67	0x3ef7f154	0.48426306
68	0x3d8c7f8f	0.06860267
69	0x3ebd6ea9	0.3699849
70	0x3e4ddd9c	0.20104069
71	0x3e95b5be	0.2924022
72	0x3e45f3ac	0.19331235
73	0x3ece5ffb	0.40307602
74	0x3cd434a6	0.025904011
75	0xbe535b11	-0.20640208
76	0x3e569967	0.20956956
77	0xbec9ea7e	-0.39436716
78	0xbdcaa379	-0.09894461
79	0xbeeac34e	-0.4585213
80	0x3e5610cc	0.20904845
81	0xbf13cbc1	-0.5773278
82	0xbebb4bf2	-0.3658138
83	0x3e38355c	0.17989105
84	0x3db41bdf	0.087943785
85	0xbdf95f04	-0.12176326
86	0xbe3efbfb	-0.1865081
87	0x3e14a417	0.1451572
88	0xbe7697d7	-0.2408136
89	0xbeab21f8	-0.33424354
90	0xbe9218a9	-0.2853444
91	0xbecba08b	-0.39770922
92	0xbf11d22a	-0.5696131
93	0xbdaf83d6	-0.085700676
94	0x3e20c054	0.15698367
95	0x3e8c50da	0.27405435
96	0xbe118803	-0.1421204
97	0x3e8ae81c	0.2713021
98	0x3e1f0c75	0.15532096
99	0xbdd30c80	-0.103051186
100	0xbeb7d012	-0.35900933
101	0x3d0d396c	0.03447859
102	0x3f11a47a	0.56891596
103	0x3ea6358f	0.32462737
104	0x39bf9516	0.00036541437
105	0xbc88cd8e	-0.016699579
106	0xbe4f7d64	-0.20262676
107	0xbe5a1249	-0.21296038
108	0x3ee8e468	0.4548676
109	0xbe9b08d0	-0.3028016
110	0xbe2f0bc1	-0.17094328
111	0xbe7a7ec8	-0.24462426
112	0xbdc679ac	-0.09691176
113	0xbf0674bc	-0.5252187
114	0x3f128201	0.5722962
115	0x3e898542	0.2685948
116	0x3c698362	0.0142525155
117	0x3e2afa90	0.16697145
118	0xbf0c58da	-0.54823077
119	0x3e54df7c	0.20788378
120	0x3ea937f0	0.3305049
121	0xbcc4d2e2	-0.024026338
122	0xbdeb3489	-0.1148463
123	0x3df7f73c	0.12107703
124	0x3ed0735c	0.40713012
125	0x3ce6afee	0.028160062
126	0x3e1c90f3	0.15289669
127	0xbe9c64e2	-0.30545717
128	0x3f285e03	0.6576845
129	0x3da2d44a	0.07950647
130	0xbd9c4443	-0.076302074
131	0xbdf3ab78	-0.118979394
132	0x3dabea58	0.08394307
133	0xbd03ca05	-0.032175083
134	0xbe4b6865	-0.19864042
135	0x3de82247	0.11334663
136	0x3eca10ff	0.39466092
137	0x3c84e491	0.01622227
138	0xbea3322c	-0.31874216
139	0xbe60b48e	-0.21943876
140	0xbd234d68	-0.039868742
141	0xbe68e976	-0.22745308
142	0x3c485252	0.012226658
143	0xbec4cbae	-0.38436645
144	0xbf0f887b	-0.5606763
145	0xbeada0af	-0.33911654
146	0xbd795819	-0.060875032
147	0x3d921244	0.0713239
148	0xbba9a779	-0.005177435
149	0x3eaf94b6	0.34293145
150	0x3dd0230c	0.10162935
151	0xbc0a4a05	-0.008440499
152	0x3de5176d	0.11186109
153	0xbddec7bb	-0.10877939
154	0xbcac6cd5	-0.021047989
155	0x3e8172ff	0.25283048
156	0xbe4aec03	-0.19816594
157	0xbea2db08	-0.31807733
158	0x3e8a9f14	0.27074492
159	0x3e8249c1	0.25446895
160	0x3dbd2a8a	0.09236629
161	0x3e0094e9	0.12556805
162	0xbe1c1c08	-0.15245068
163	0x3d065b57	0.032801952
164	0xbf0c316f	-0.5476293
165	0x3e4a13bb	0.19734089
166	0x3ea6c4d9	0.32572058
167	0xbe83bca2	-0.25729853
168	0xbd689070	-0.05677837
169	0xbd5af9b4	-0.05346079
170	0x3e4d08d8	0.20022905
171	0x3e608a5f	0.21927784
172	0xbedeafed	-0.43493596
173	0xbea37cb1	-0.3193107
174	0x3e3a02ad	0.18165083
175	0xbd8f98a2	-0.07011534
176	0xbded940d	-0.11600504
177	0x3e96b64f	0.29435965
178	0x3d3f5445	0.046711225
179	0x3c6d21be	0.014473377
180	0xbcbfb26d	-0.02340051
181	0xbe0ca2ad	-0.13733931
182	0x3e55b432	0.2086952
183	0xbe95fac5	-0.29292884
184	0xbe4cb573	-0.19991092
185	0x3e9b17a8	0.30291486
186	0xbea891f1	-0.32923844
187	0xbe5dd802	-0.21664432
188	0x3e521823	0.2051702
189	0x3ddbd967	0.107348256
190	0x3dad5e89	0.08465297
191	0x3d93fcbf	0.07225942
192	0xbe3e9d79	-0.18614759
193	0x3e7eef1c	0.248959
194	0xbdc1add3	-0.094569825
195	0xbe9fc6f6	-0.31206483
196	0xbdbaf3a5	-0.09128503
197	0x3d62fa29	0.055414353
198	0x3e19a31f	0.15003632
199	0x3da90607	0.08253103
200	0x3e4b6b5d	0.19865175
201	0xbe6d7ebb	-0.23192875
202	0x3d54402b	0.051819008
203	0xbf675e11	-0.9037791
204	0xbdc7125c	-0.09720299
205	0x3e8b808f	0.2724652
206	0x3e7b5df0	0.24547553
207	0x3e8cc6a2	0.27495295
208	0x3e8982bf	0.26857564
209	0x3e9e4db1	0.3091865
210	0x3e6c99a4	0.23105484
211	0x3d978a9b	0.07399484
212	0x3eb0fa24	0.34565842
213	0x3e956632	0.2917953
214	0xbe9f307f	-0.31091687
215	0xbda7c762	-0.08192326
216	0xbf176366	-0.59136045
217	0xbd383b1c	-0.044978246
218	0xbca6900a	-0.020332355
219	0x3ccda5f3	0.025103545
220	0x3e9aa4e7	0.30203936
221	0x3cab70d5	0.020927826
222	0xbe1dada4	-0.1539827
223	0xbf20817b	-0.6269757
224	0x3eb941f2	0.36183125
225	0xbd4d3883	-0.050102722
226	0x3f0434ff	0.51643366
227	0x3e976074	0.29565775
228	0x3f0a111f	0.53932375
229	0xbe43da6a	-0.19126287
230	0xbe889ccd	-0.2668213
231	0x3e39c44c	0.18141288
232	0x3ec9d177	0.39417621
233	0x3e1be8ff	0.152256
234	0x3e6fed3c	0.23430341
235	0xbe9422bc	-0.2893275
236	0xbd1d2778	-0.03836772
237	0xbe1c6831	-0.15274121
238	0xbe7130ab	-0.23553722
239	0x3b9c835a	0.0047764005
240	0xbd95f7f7	-0.07322686
241	0xbe0a1fe3	-0.13488726
242	0xbe74e1e5	-0.23914297
243	0xbda6083a	-0.08107038
244	0xbcb69cbc	-0.022291534
245	0xbe397d43	-0.1811419
246	0x3ed0ec98	0.40805507
247	0x3ebac782	0.36480337
248	0x3eb652f1	0.35610154
249	0x3e7275d9	0.23677768
250	0xbd416fd0	-0.047225773
251	0x3f0d1e7e	0.5512465
252	0xbde4d055	-0.11172549
253	0xbed6055a	-0.41800958
254	0xbe58b836	-0.21164021
255	0xbb4ef8b5	-0.0031581346

network_body._body_endoder.seq_layers.0.bias f4 [256]
0	0xbb0a705d	-0.0021124103
1	0xbc009179	-0.007847183
2	0xbb581a7a	-0.0032974766
3	0xbbf466f9	-0.0074585644
4	0xbcb0d972	-0.021588061
5	0xbc924f6d	-0.017860139
6	0xbced1041	-0.028938415
7	0xba22c377	-0.0006208936
8	0x3b768754	0.0037617283
9	0xbb20034e	-0.0024416032
10	0x3b54f23a	0.003249301
11	0xbb605f85	-0.0034236622
12	0xbbbe09ca	-0.005799507
13	0xbc463c73	-0.012099373
14	0xbc0b0f19	-0.008487486
15	0xbc94f38c	-0.018182538
16	0xbbff7c84	-0.007796826
17	0xbaae9b02	-0.0013321342
18	0x3c1bf731	0.009519384
19	0xb985cc3d	-0.00025519906
20	0xbc3f6789	-0.0116824
21	0xb860b0df	-5.3570486e-05
22	0xbca55def	-0.020186393
23	0x3b0e28e4	0.0021691853
24	0xbc31aef7	-0.0108449375
25	0x3bd65407	0.0065407786
26	0x3aad7b6e	0.0013235637
27	0x3a92fa33	0.0011213481
28	0xbc59e71c	-0.01329973
29	0xbb6a6831	-0.003576767
30	0x3b87340b	0.004126077
31	0xbc8c97a9	-0.017162161
32	0x3bbcc25e	0.005760475
33	0x3b8e8e36	0.004350449
34	0x3b07fe25	0.0020750847
35	0xbb29a04f	-0.0025882905
36	0xbbd43651	-0.0064762016
37	0xbcd90295	-0.026490489
38	0xbce5b68d	-0.028041149
39	0xbbe946ed	-0.0071190507
40	0x3b64fd2f	0.0034940948
41	0xbcc12421	-0.023576798
42	0xbc95257e	-0.018206354
43	0x396b7273	0.00022453982
44	0xbbb06a97	-0.0053838002
45	0xbbce2b8d	-0.0062918128
46	0xbcf82467	-0.030290795
47	0x39ce40a8	0.00039339554
48	0xbbdeb52b	-0.0067964992
49	0xbaf2129a	-0.0018468678
50	0xbc2c5d66	-0.010520315
51	0xb81952a3	-3.6555004e-05
52	0x3c650c82	0.013980033
53	0xbc2f0ddf	-0.0106844595
54	0xbc3b7dc8	-0.011443563
55	0x3b0178c9	0.0019755831
56	0xbb91fbc7	-0.004455063
57	0x3a6cf715	0.00090395036
58	0x3c121a20	0.0089173615
59	0xbc933a6d	-0.017972196
60	0xbbaece9c	-0.0053346884
61	0x3ac7e9e7	0.0015252203
62	0x3c1d9a3c	0.009619292
63	0xbbb3ac92	-0.0054832185
64	0xbb6b3f53	-0.0035895898
65	0xbc4a1b55	-0.012335618
66	0xbc35ff30	-0.011108205
67	0xb9703551	-0.00022908046
68	0x39830a86	0.00024994108
69	0xbbaf7097	-0.005353998
70	0xbb2c29fb	-0.002627014
71	0x3ba6ddd3	0.0050923615
72	0xbb758f3c	-0.0037469408
73	0xbb9a318c	-0.0047056135
74	0x3b25e524	0.002531358
75	0xbbe7d129	-0.0070744944
76	0x3b250a00	0.0025182962
77	0xbbd7a22a	-0.0065806108
78	0x3be3dddf	0.0069539393
79	0xbb6edb87	-0.0036446766
80	0xbc799a86	-0.015234595
81	0x3cbbda1f	0.022931157
82	0x3a3c41f1	0.0007181457
83	0xbc74d87a	-0.01494419
84	0xbbcc01bb	-0.006225792
85	0xbb7f76f5	-0.0038980816
86	0xbc48cc84	-0.012255792
87	0xbca7cf43	-0.020484572
88	0xb990d442	-0.00027623965
89	0xbb1d8452	-0.0024035168
90	0xbc4b77be	-0.0124186855
91	0xbb7c9135	-0.0038538699
92	0xbd0f12d7	-0.034930076
93	0xbc5c3f3e	-0.0134428125
94	0xbc56fc1d	-0.013121632
95	0xbc9bf15a	-0.019035984
96	0xbc86c790	-0.01645258
97	0xbca7e2ab	-0.020493826
98	0xba4716b1	-0.0007594629
99	0xbc8a306c	-0.016868792
100	0xbbbb6ed2	-0.005719998
101	0xbbd517d8	-0.0065030865
102	0xbbca9270	-0.0061820075
103	0xbb064a9d	-0.002049125
104	0xbb49fbcb	-0.0030820246
105	0xbad1949b	-0.0015989722
106	0xbbd01c78	-0.00635105
107	0x3b3d43b0	0.0028879456
108	0x3a9ea28f	0.001210289
109	0xbc1264a6	-0.008935129
110	0xbb7d6ee5	-0.0038670835
111	0xbc0e241b	-0.0086756
112	0xbb4d0bbf	-0.0031287519
113	0xbba24ea2	-0.0049532214
114	0xbb41c90a	-0.0029569292
115	0xbbae1c34	-0.0053134207
116	0xbb51d60d	-0.0032018453
117	0x3a8e77d6	0.0010869454
118	0xbbb90158	-0.005645912
119	0xbc05e6db	-0.008172716
120	0x3a9dd9fa	0.0012043111
121	0xbab24592	-0.0013601056
122	0xbb4f2cb0	-0.003161233
123	0xbc25114d	-0.010074926
124	0xbb00ac85	-0.001963408
125	0x3b9ca64a	0.0047805654
126	0xbc93bb6a	-0.018033702
127	0xbb1c016a	-0.0023804554
128	0x3b3003de	0.0026857774
129	0xbb863c09	-0.004096512
130	0xbc56179e	-0.013067154
131	0xb88f8328	-6.843201e-05
132	0xba1d7182	-0.00060059887
133	0xbbd0eff3	-0.0063762604
134	0xbba612cd	-0.005068159
135	0xbbb2f865	-0.00546174
136	0xba847ce0	-0.0010108016
137	0xbc62538f	-0.013813867
138	0xbc3a9826	-0.011388814
139	0xbca4d67d	-0.020121807
140	0xbb950cc0	-0.004548639
141	0xbc737a2a	-0.014860669
142	0x3c41e2f3	0.011833894
143	0xbbff26ec	-0.0077866223
144	0xbc0f3f91	-0.008743183
145	0xbc24b000	-0.010051727
146	0xbc9dbf3c	-0.019256227
147	0xbbe31fda	-0.0069312872
148	0x3ab435c5	0.0013748935
149	0x3c11414b	0.008865665
150	0x3c1ec8fe	0.009691475
151	0xbbe3fe38	-0.0069577955
152	0xbc0cd766	-0.008596277
153	0xbd180a66	-0.03711929
154	0xbb9684d2	-0.00459347
155	0xbc2fd116	-0.010731002
156	0xbb5afdc4	-0.0033415416
157	0xbc16cf41	-0.009204687
158	0xbc5740f6	-0.0131380465
159	0x3c0286dd	0.007966724
160	0xbc89948c	-0.016794465
161	0xbcdf6d5f	-0.027273832
162	0xbcbde654	-0.023181118
163	0xbb8fa9ae	-0.004384241
164	0xbbeb5fbf	-0.0071830447
165	0xbc17f858	-0.009275518
166	0xbc008324	-0.007843766
167	0xbc295020	-0.010334045
168	0xbcab18aa	-0.020885784
169	0xbb9cf645	-0.0047901
170	0xbc91f48c	-0.017816804
171	0xbbf33af3	-0.007422799
172	0xbb9620a8	-0.0045815296
173	0xbc797c1f	-0.015227347
174	0x3c287fa5	0.010284339
175	0xbb63718f	-0.0034705137
176	0x3b115031	0.0022173042
177	0xbcc94d38	-0.024572954
178	0xbb88c7e5	-0.00417422
179	0xbb3294d7	-0.002724936
180	0x3a9ce44a	0.0011969891
181	0xbc066337	-0.008202366
182	0x3bc2a33d	0.0059398697
183	0x3ab34515	0.0013677204
184	0xbca23bbe	-0.019803878
185	0xbc76dcdd	-0.015067306
186	0xbb896559	-0.00419299
187	0xbbf7ba47	-0.007560048
188	0xbaeb56bf	-0.001795493
189	0xbb262aa2	-0.0025355
190	0xbbcfe6c1	-0.0063446467
191	0xbc1dbf81	-0.009628178
192	0xbcb14b65	-0.021642396
193	0xbbea39e4	-0.0071480144
194	0xbbea19af	-0.007144175
195	0xbc7a1204	-0.015263084
196	0xbbab2e8c	-0.0052240547
197	0x3b2f7468	0.0026772264
198	0xbbd5c69a	-0.0065239193
199	0xbc4e5ce7	-0.012595392
200	0x3c2870c9	0.010280796
201	0xba88d8e0	-0.001044061
202	0xba3ffef7	-0.00073240645
203	0xb9d119e2	-0.0003988287
204	0xbb232c17	-0.0024898106
205	0xbc0fb936	-0.008772185
206	0xbc8d911b	-0.017281106
207	0xbcc573a8	-0.024103
208	0xbcd3205b	-0.025772264
209	0x3a44dccc	0.0007509708
210	0xbc08d073	-0.008350479
211	0x3aa91535	0.0012899997
212	0x3a6496c4	0.00087199756
213	0xbc749f23	-0.014930519
214	0xbc38adea	-0.011271933
215	0xbc75e983	-0.015009287
216	0xbc4317d1	-0.011907534
217	0xbb241d64	-0.0025041932
218	0x3cd1259b	0.025530627
219	0xbcddb4af	-0.027063696
220	0xbb5b1d41	-0.0033434185
221	0xbc1d5309	-0.009602317
222	0xbba89559	-0.0051447568
223	0xbb2c44fa	-0.002628623
224	0xbc69eabe	-0.014277158
225	0x3b811540	0.003939301
226	0xbb881ae1	-0.004153595
227	0xbbb1546c	-0.005411675
228	0xbbb86f09	-0.005628471
229	0xbb81b696	-0.0039585335
230	0xbc01bc83	-0.00791848
231	0xbc600784	-0.013673667
232	0xbc0a63ce	-0.008446647
233	0xbc278861	-0.010225386
234	0x3b27d29e	0.0025607715
235	0xba83cd47	-0.0010055684
236	0xbc40efe3	-0.011775943
237	0x3b7dff38	0.0038756859
238	0xbcc7e2f1	-0.024400206
239	0xbc3dadc0	-0.01157707
240	0xbb23810f	-0.002494875
241	0xbcb72519	-0.022356557
242	0x3c53b258	0.012920938
243	0xbc3a6e68	-0.011378862
244	0xba67a6aa	-0.00088367856
245	0xbbb29477	-0.0054498273
246	0x3b0a3e50	0.002109427
247	0xbba4793e	-0.005019336
248	0xba895b95	-0.0010479564
249	0x3c59a609	0.013284215
250	0x3b81a448	0.0039563514
251	0x3b1c9df3	0.0023897856
252	0xbc334a7f	-0.010943054
253	0xbce72ace	-0.028218653
254	0xba891c95	-0.0010460789
255	0xbc0966cf	-0.008386328

network_body._body_endoder.seq_layers.2.weight f4 [256, 256]
0	0xbd92c70d	-0.07166872
1	0xbd21c54d	-0.0394948
2	0xbdc9741f	-0.098366015
3	0x3d07743f	0.033069845
4	0x3dd0f244	0.102024585
5	0x3d02d6dc	0.031943187
6	0x3d9ae49b	0.07563134
7	0xbc394041	-0.011306823
8	0xbbe5c021	-0.007011429
9	0xbc839750	-0.016063362
10	0x3d270069	0.040771876
11	0xbe10c399	-0.14137115
12	0xbdaab741	-0.08335734
13	0xbd56fa6d	-0.05248492
14	0xbdcb0d23	-0.09914615
15	0x3cf42ca4	0.029806443
16	0x3e02bfa2	0.12768415
17	0x3c1d6af4	0.009608019
18	0xbda9ae0c	-0.0828515
19	0xbce46a6e	-0.02788278
20	0xbc30de1c	-0.0107951425
21	0xbd367571	-0.044545595
22	0x3b13655e	0.002249084
23	0xbd760723	-0.0600654
24	0x3d0318c7	0.03200605
25	0xbc77b637	-0.015119127
26	0x3d210aa3	0.039316785
27	0xbcd2de3c	-0.025740735
28	0x3c9f1ab2	0.019421909
29	0xba746afd	-0.0009323804
30	0x3d009a0f	0.03139692
31	0xbdfaec02	-0.12252046
32	0xbc4701ef	-0.012146457
33	0xbcd58258	-0.02606313
34	0x3ce21585	0.027598152
35	0xbcebd914	-0.028790034
36	0x3c36af84	0.011150245
37	0xbdb9fff1	-0.0908202
38	0x3dadc6b0	0.08485162
39	0xbd6f3833	-0.058403205
40	0xbde7030e	-0.112798795
41	0xbc1069b2	-0.008814262
42	0x3c7663ef	0.015038474
43	0xbd1e5d25	-0.03866305
44	0x3c828d20	0.015936434
45	0xbb007582	-0.001960129
46	0xbd0785c7	-0.033086564
47	0xbd29df84	-0.041472927
48	0x3df73bcc	0.12071952
49	0xbc686a73	-0.014185536
50	0x3b6608a4	0.0035100365
51	0x3bbf3ddd	0.005836232
52	0x3c347cc7	0.011016077
53	0x3cc491cb	0.0239953
54	0xbb5346fc	-0.0032238355
55	0xbc3e78a2	-0.011625441
56	0x3d595e35	0.05306836
57	0xbd2a3dfb	-0.041563015
58	0xbd81ef0d	-0.063444234
59	0xbd8e08d9	-0.06935281
60	0xbd80b761	-0.06284977
61	0x3cb7089b	0.02234297
62	0xbdbfca31	-0.09364737
63	0x3d89a974	0.06721774
64	0x3c10b766	0.008832788
65	0x3dee8762	0.11646916
66	0x3c129ff2	0.008949267
67	0xbd2caabd	-0.042155016
68	0x3d889adb	0.06670161
69	0x3b84efd3	0.0040569096
70	0x3d0f5ddc	0.03500162
71	0xbd29d741	-0.041465048
72	0x3c09d4f1	0.008412586
73	0x3d8b62d3	0.068059586
74	0x3bed7cbb	0.007247535
75	0x3e1fbe1a	0.15599862
76	0x3cd1176b	0.025523862
77	0xbd07c67a	-0.033148266
78	0x3d402714	0.046912268
79	0xbd6f1cb9	-0.058377
80	0x3c741683	0.014897945
81	0xbdb6e9e4	-0.0893133
82	0x3b05f745	0.0020441574
83	0x3c9d623f	0.019211886
84	0xbc700281	-0.0146490345
85	0x3d18fd03	0.037350666
86	0x3ba96c8a	0.0051704096
87	0x3d384d25	0.044995446
88	0x3dce069b	0.10059854
89	0xbdab579d	-0.0836632
90	0x3d9ec45c	0.07752296
91	0x3bcabb82	0.0061869035
92	0x3e0a93cb	0.13532941
93	0xbe096914	-0.1341899
94	0xbdd4708e	-0.103730306
95	0x3cc5feef	0.024169413
96	0x3cd5575a	0.026042629
97	0xbd9757b2	-0.073897734
98	0x3d09fe30	0.033689678
99	0x3d93231e	0.071844324
100	0x3c998a94	0.018742837
101	0xbd547091	-0.051865164
102	0xbd2306c2	-0.039801367
103	0xbdac05b6	-0.08399527
104	0x3d850919	0.06495876
105	0xbc538085	-0.012909059
106	0xbd8e7013	-0.0695497
107	0xbda8421a	-0.08215733
108	0x3ca5ae45	0.0202247
109	0xbcfee802	-0.03111649
110	0x3da2c9e6	0.07948665
111	0xbdd623d4	-0.104560524
112	0x3d3831cf	0.044969376
113	0xbc2f2ca5	-0.010691796
114	0xbd6c49b2	-0.05768747
115	0x3dae43c3	0.08509018
116	0x3db2d27b	0.08731552
117	0xbdb4f5ca	-0.08835943
118	0xbd898d31	-0.06716383
119	0xbc6861b4	-0.0141834505
120	0x3d0ad654	0.033895805
121	0xbcce4a51	-0.025181921
122	0xbd54768f	-0.05187088
123	0x3d0dd89c	0.034630403
124	0x3cbb0590	0.0228298
125	0xbb9f581f	-0.0048628
126	0x3d93766e	0.07200323
127	0x39a97209	0.00032319155
128	0xbd9e50fe	-0.07730292
129	0x3c0842b0	0.008316681
130	0x3c853db9	0.016264783
131	0xbda20825	-0.0791171
132	0x3ce77a8d	0.028256679
133	0xbde30c95	-0.11086384
134	0xbd7ea864	-0.06217231
135	0xbd188314	-0.03723438
136	0x3d1bf2f8	0.03807351
137	0x3d6dd3eb	0.05806343
138	0x3dcd77d6	0.100326225
139	0xbc8c6699	-0.017138766
140	0xbcf86878	-0.030323252
141	0xbc57a32a	-0.01316146
142	0x3d0c1cb2	0.034207053
143	0x3d61c753	0.05512173
144	0xbdc9cd17	-0.09853571
145	0x3c46314d	0.012096715
146	0x3bb528f3	0.005528563
147	0xbe009940	-0.1255846
148	0xbda044b2	-0.078256026
149	0xbc134294	-0.008988041
150	0x3d254259	0.040346477
151	0xbe080481	-0.13282968
152	0x3a80f0ff	0.0009837447
153	0xbcf3afa1	-0.029746832
154	0x3cfccb28	0.030858591
155	0xbd713bc9	-0.058894906
156	0x3d992c52	0.074791566
157	0xbd38f2bb	-0.04515336
158	0x3cd2b4ec	0.025721036
159	0xbd919f30	-0.07110441
160	0xbd89dfb3	-0.0673212
161	0x3d44ee6e	0.048078947
162	0x3d01ce4a	0.031690873
163	0x3aaf1bd1	0.001335973
164	0xbd83adb7	-0.06429618
165	0xbd8f3fcc	-0.0699459
166	0x3e300537	0.1718949
167	0x3cf78ba7	0.030217959
168	0xbc68079b	-0.01416197
169	0x3d702988	0.058633357
170	0xbd147e6e	-0.036253385
171	0x3dd1fa25	0.102527894
172	0xbd7e2247	-0.06204441
173	0x3c2f9436	0.010716489
174	0x3db89647	0.09013038
175	0xbd81ea06	-0.063434646
176	0xbd9f7e3b	-0.077877484
177	0xbe09e336	-0.1346558
178	0x3cd3a127	0.02583368
179	0x3e15fced	0.14647265
180	0xbcf8daa1	-0.030377688
181	0x3a8c02ca	0.0010681984
182	0xbd8fa492	-0.07013811
183	0xbc89f4af	-0.016840307
184	0xbbcedace	-0.0063127046
185	0xbdba3d13	-0.0909368
186	0xbd8b9d62	-0.06817128
187	0x3d7cf94b	0.06176118
188	0xbc9473fe	-0.018121716
189	0x3d5dbb60	0.054133773
190	0xbe2453b0	-0.16047549
191	0x3d202b93	0.039104056
192	0x3d018eac	0.031630203
193	0xbd690d40	-0.0568974
194	0xbdaa862d	-0.08326373
195	0x3c96d254	0.01841084
196	0x3c445114	0.011982221
197	0x3c80a68f	0.015704421
198	0xbd59b6bb	-0.05315278
199	0x3c9a7795	0.01885585
200	0xbd99d574	-0.07511416
201	0xbdb61a33	-0.08891716
202	0xbd5557b1	-0.052085582
203	0x3da98521	0.082773454
204	0x38bbe644	8.959745e-05
205	0x3d241a6d	0.040064264
206	0x3d6dbf94	0.05804403
207	0x3dc38707	0.09547239
208	0xbbbec09e	-0.0058213016
209	0x3c25f833	0.010129976
210	0xbcd52a94	-0.02602128
211	0x3cf2aee7	0.029624416
212	0xbdb0fffa	-0.08642574
213	0x3d89788d	0.06712446
214	0xbd777907	-0.060418155
215	0xbd33f40a	-0.043933906
216	0xbd5f4cd1	-0.054516617
217	0xbc8a90c7	-0.016914738
218	0x3d08e8d3	0.033425163
219	0xbe09d656	-0.13460669
220	0xbad33f65	-0.0016116916
221	0x3d4325b1	0.047643367
222	0x3d556046	0.052093767
223	0xbc51e146	-0.012810057
224	0x3b614962	0.0034376015
225	0xbcf3bd6f	-0.029753415
226	0x3d9922a4	0.0747731
227	0xbd02c025	-0.031921525
228	0x3cf95426	0.030435633
229	0x3da046b0	0.078259826
230	0x3dc18886	0.09449868
231	0x3cccd072	0.025001738
232	0xbbf8305d	-0.0075741247
233	0x3d5050f7	0.050858464
234	0xbd621c1c	-0.05520259
235	0x3d9b463e	0.07581757
236	0xbccf9f08	-0.025344387
237	0x3d5e6577	0.054295983
238	0xbd61323a	-0.05497954
239	0xbd485b2d	-0.048915077
240	0xbdc26275	-0.094914354
241	0xbdd97fa7	-0.10620051
242	0xbd5bddcc	-0.05367832
243	0xbd8d35dd	-0.06895039
244	0xbae96312	-0.0017806015
245	0xbd61be8c	-0.05511336
246	0xbdb0b12f	-0.08627545
247	0x3b52367e	0.0032075937
248	0x3e066e62	0.13128045
249	0xbcabdea2	-0.020980183
250	0xbc9883e5	-0.01861758
251	0x3d8cb007	0.06869512
252	0xbdd6aa04	-0.10481647
253	0xbc296a63	-0.010340306
254	0x3d04aa4a	0.032388963
255	0xbd75b3fd	-0.059986103

network_body._body_endoder.seq_layers.2.bias f4 [256]
0	0xbc111249	-0.008854457
1	0xbb2f592b	-0.002675603
2	0xbc8184b5	-0.01581035
3	0xbc40eeca	-0.011775682
4	0xbc2dad5d	-0.010600415
5	0xbc19c3ee	-0.009385092
6	0xbbabb440	-0.0052399933
7	0xbaeef1bd	-0.0018230003
8	0x3b9f7424	0.00486614
9	0xbb28bcd1	-0.002574731
10	0x3b02693b	0.0019899148
11	0x3bc32c0e	0.0059561795
12	0xbbcd869e	-0.006272151
13	0xbbc89159	-0.0061208424
14	0xbc0a49c5	-0.00844044
15	0xbbdd573f	-0.0067547853
16	0xbc0255f9	-0.007955068
17	0xbbea9965	-0.0071593993
18	0xbbc9d2aa	-0.0061591463
19	0xbc88ce64	-0.016699977
20	0xbc75caad	-0.015001935
21	0xbc25b519	-0.010113978
22	0xbc241ec2	-0.010017099
23	0xbb85eebc	-0.0040872972
24	0xbbe2feef	-0.006927363
25	0xbc101e95	-0.008796354
26	0xbc209926	-0.009802138
27	0xb92e9b96	-0.00016651893
28	0xbc6d8fff	-0.014499663
29	0x3a9ebf7b	0.0012111509
30	0xbc48960e	-0.012242807
31	0xbc5b7369	-0.013394215
32	0xbbec28e5	-0.0072070234
33	0xbc28d634	-0.010304976
34	0xbb8f7268	-0.004377652
35	0xbc757495	-0.014981409
36	0xbc329dc2	-0.01090187
37	0xbbdf71e5	-0.006818997
38	0xbb1490d6	-0.0022669337
39	0xbb0ea75f	-0.0021767241
40	0xbc60dea6	-0.0137249585
41	0x3c34c1ba	0.011032516
42	0xbc749dee	-0.0149302315
43	0xbca56e3f	-0.020194171
44	0xbbbd0ad3	-0.0057691126
45	0xbc4fc420	-0.012681037
46	0xbc7146e3	-0.014726373
47	0xbbae29e7	-0.0053150537
48	0xbc14aa03	-0.009073737
49	0xbc09a99d	-0.008402255
50	0xba12bafb	-0.000559732
51	0x3af69f67	0.0018815816
52	0xbb609350	-0.0034267493
53	0xbba65e79	-0.00507718
54	0xbba427b3	-0.0050096153
55	0x38adad11	8.281519e-05
56	0xbb9caf77	-0.004781659
57	0xbb8e5e63	-0.004344748
58	0xbba59c36	-0.005054022
59	0xbc35b30e	-0.011090053
60	0xbc8fe6c5	-0.017566094
61	0xbc46ae4a	-0.012126515
62	0xbb8a659c	-0.0042235386
63	0x39670d59	0.00022034849
64	0xbb19d79b	-0.0023474458
65	0xbc29dbc5	-0.010367339
66	0x3abf286c	0.001458419
67	0xbb639f40	-0.0034732372
68	0xbb49e2c8	-0.0030805338
69	0xbc12cd4e	-0.008960081
70	0xbb8666a3	-0.0041015907
71	0xbb974047	-0.0046158168
72	0xbc0d1676	-0.008611312
73	0xbc3cf2a7	-0.011532462
74	0xbb4a35bb	-0.003085478
75	0xbc2f9ac3	-0.01071805
76	0xbc148c20	-0.0090666115
77	0x3ab3e623	0.0013725202
78	0xbc429239	-0.0118756825
79	0xbb3721cb	-0.0027943726
80	0xbc724756	-0.014787516
81	0xbb9c8119	-0.004776132
82	0xbc28619b	-0.010277177
83	0xbc6e444c	-0.01454265
84	0xbb73efd2	-0.0037221801
85	0xbbb1bcee	-0.0054241335
86	0xbb3eea3c	-0.0029131314
87	0xbb48f9d6	-0.0030666492
88	0x3b069ad7	0.002053907
89	0xbba1b381	-0.0049347286
90	0xbb5dc53e	-0.003383949
91	0xbb29b33d	-0.0025894188
92	0xbb4ec521	-0.0031550603
93	0x3a308509	0.0006733691
94	0xbbb411f8	-0.005495306
95	0xbbeafa91	-0.007170983
96	0xbbeb631f	-0.007183447
97	0x3aed7836	0.0018117491
98	0xbc1098a1	-0.008825452
99	0xbb95fdd3	-0.0045773773
100	0xbc1a2989	-0.009409317
101	0xbc09df37	-0.008415035
102	0x3b157a71	0.0022808576
103	0xbc88a46d	-0.016679967
104	0x3b4d73a8	0.0031349454
105	0xbb0560c4	-0.0020351866
106	0xbb8ee5f3	-0.004360908
107	0xbbd0b6f1	-0.0063694646
108	0xbb958d25	-0.004563945
109	0xbbea3aa4	-0.007148104
110	0xbbed80a9	-0.0072480035
111	0xbc11d781	-0.008901478
112	0x3bda0144	0.006652983
113	0xbb3fd63d	-0.0029271983
114	0xbb4a3a61	-0.003085755
115	0xbb5b3bda	-0.0033452422
116	0x3bc6abc9	0.006062959
117	0x3b231088	0.002488168
118	0x39314ec1	0.00016909374
119	0xbc295dc4	-0.010337297
120	0x3aa0794d	0.0012243182
121	0xbaaa70db	-0.0013003604
122	0x390cde94	0.00013434357
123	0xbc794aa0	-0.015215546
124	0xba5afb25	-0.00083534635
125	0xbc7a5525	-0.015279089
126	0xbc155c2b	-0.009116213
127	0xbc012d4e	-0.007884337
128	0xbb724a69	-0.0036970621
129	0xbb9f87e7	-0.0048684957
130	0xbca9f07c	-0.020744555
131	0xbbb09d94	-0.0053898785
132	0x3b154c67	0.0022781135
133	0xbc71c8ea	-0.014757374
134	0xba8bd503	-0.0010668341
135	0x3988dfe9	0.00026106767
136	0xbaed3b91	-0.0018099417
137	0xbc097650	-0.008390024
138	0x3b294611	0.0025829116
139	0xbc50deae	-0.0127484035
140	0x3bcab487	0.0061860713
141	0xbb815c35	-0.0039477595
142	0xbc5f12d7	-0.013615332
143	0x3b2f82d3	0.0026780858
144	0xbb915b15	-0.0044359067
145	0xbb0f0d83	-0.0021828122
146	0x3b88b2ec	0.00417172
147	0x3bc448e7	0.005990136
148	0xbc1a9836	-0.009435704
149	0xbb7e9004	-0.0038843164
150	0xb952e3e4	-0.00020112057
151	0xbb054b61	-0.0020339119
152	0x39f834b3	0.0004734151
153	0xbb89242c	-0.00418522
154	0xbbd07cd3	-0.0063625365
155	0xbc299a2f	-0.010351702
156	0xbb943003	-0.004522325
157	0xbc7d0a75	-0.015444388
158	0xbc516e3c	-0.01278263
159	0xbb09f224	-0.0021048868
160	0xbbe35336	-0.0069374098
161	0xbb782028	-0.0037860963
162	0xbc2b82b0	-0.01046817
163	0xbc19a25c	-0.009377088
164	0x3abbaaca	0.0014317867
165	0x3c12249d	0.008919862
166	0xbc078864	-0.008272264
167	0xbc4f32d3	-0.012646395
168	0xbadfb4e1	-0.0017067456
169	0x3ac29f65	0.0014848529
170	0x3b6fe229	0.0036603308
171	0xbc2f9d39	-0.010718637
172	0xbbdfb91a	-0.0068274857
173	0xbb9f722d	-0.0048659057
174	0x3ba7471c	0.0051049124
175	0xbc090be0	-0.008364648
176	0xb9d6ca3b	-0.00040967934
177	0xbc951e83	-0.018203026
178	0x3b52ef88	0.0032186229
179	0xbc348849	-0.011018821
180	0xbbe0549b	-0.0068460233
181	0xbc671207	-0.014103419
182	0xbc83e43f	-0.016100047
183	0x37b31fd4	2.1353284e-05
184	0xbb79096e	-0.0038000005
185	0xbae70e44	-0.0017628153
186	0x39e70433	0.00044062882
187	0xbb5b6037	-0.0033474097
188	0xbc87bab1	-0.016568514
189	0xbb052914	-0.0020318674
190	0xbbaeb7ba	-0.0053319605
191	0xbbc7db6e	-0.006099156
192	0xb9eb8282	-0.0004491993
193	0xbc1c9943	-0.009558025
194	0xbc87cf04	-0.016578205
195	0xbca902d9	-0.02063124
196	0xbc919344	-0.017770417
197	0xbbe1de17	-0.0068929303
198	0xbc51da3e	-0.012808381
199	0xbc28be18	-0.010299228
200	0xbba19e4b	-0.0049322
201	0xbc0351e5	-0.008015131
202	0xbc2bec89	-0.010493406
203	0xbb81129c	-0.003938986
204	0xbbe885b4	-0.007096017
205	0xbbae40ab	-0.0053177676
206	0xbc3b581e	-0.011434583
207	0xbbcc0646	-0.006226334
208	0x3b28f991	0.0025783519
209	0xbc132a4b	-0.008982251
210	0xbb6f7d39	-0.0036543144
211	0xbc73ee50	-0.014888361
212	0xbb2e6562	-0.0026610722
213	0xbc86c5d7	-0.01645176
214	0xbb4f2925	-0.0031610217
215	0xbb34606e	-0.0027523297
216	0xbb998a01	-0.004685641
217	0x3bc9b013	0.006155023
218	0x3b82334d	0.0039734007
219	0xbc69ac5b	-0.014262284
220	0xbc01fe76	-0.007934203
221	0xbbf39fee	-0.0074348366
222	0xbbade54e	-0.0053068763
223	0xbc454fd4	-0.012042958
224	0xba9abed6	-0.0011806141
225	0xbbbd1ef1	-0.005771511
226	0xbb61be05	-0.0034445536
227	0xbc0d953a	-0.008641535
228	0xbbbf8e9b	-0.0058458573
229	0xbbdb6898	-0.006695818
230	0xbb9ae1ae	-0.00472661
231	0x3c17aa35	0.009256889
232	0xbb9d031c	-0.0047916304
233	0x3acc5298	0.001558858
234	0xbb74333e	-0.0037261988
235	0x3b3b1b3f	0.0028550175
236	0xbb4ee1f2	-0.003156778
237	0x3bf9791a	0.0076133134
238	0xbbd6c2d9	-0.0065539894
239	0xbbffeb47	-0.0078100297
240	0xbab62575	-0.0013896661
241	0xbc8adc9d	-0.0169509
242	0xbb1105f7	-0.00221288
243	0xbbbe0893	-0.005799362
244	0xbb4b7605	-0.0031045687
245	0xbc06ae1f	-0.008220225
246	0xbbbb491f	-0.005715504
247	0xbc680f84	-0.014163855
248	0x3ad27666	0.0016057014
249	0x3b994a21	0.0046780263
250	0x3995ef26	0.00028597674
251	0xbc141e4b	-0.0090404255
252	0x3b89fbdf	0.0042109336
253	0xbc1eade7	-0.009685016
254	0xbc28b8d9	-0.010297977
255	0x3b932ee1	0.0044916724

network_body._body_endoder.seq_layers.4.weight f4 [256, 256]
0	0xbd5dbd0d	-0.05413537
1	0xbcf6e768	-0.03013964
2	0x3d94fd24	0.07274845
3	0x3d00e63d	0.031469572
4	0xbd3977ee	-0.04528039
5	0x3ce4d3ff	0.027933119
6	0xbde561a1	-0.11200262
7	0x3d890b26	0.066915795
8	0x3c966205	0.018357286
9	0xbd50165c	-0.050802574
10	0x3cff5459	0.03116815
11	0x3d611460	0.05495107
12	0x3d8a1c0f	0.06743633
13	0x3c42a12c	0.011879247
14	0xbdc24b20	-0.09486985
15	0x3d30c54f	0.04315692
16	0xbc1c9927	-0.009557999
17	0xbd34a533	-0.04410286
18	0xbd0d129e	-0.034441583
19	0xbcc8f56b	-0.024531087
20	0x3c4b08f0	0.012392268
21	0xbd961012	-0.07327284
22	0xbc59d272	-0.013294803
23	0x3d860437	0.06543773
24	0xbd1390e3	-0.036026847
25	0x3c28e573	0.010308611
26	0x3d2a633f	0.041598555
27	0x3d7607f7	0.06006619
28	0x3de5a992	0.112139836
29	0xbd3fcdbb	-0.04682706
30	0xbcb4cc90	-0.0220702
31	0x3d1c4295	0.038149435
32	0xbc964cdf	-0.018347202
33	0xbcd7e237	-0.026352985
34	0xbc6ba840	-0.014383376
35	0x3c8fffaa	0.017577965
36	0x3c87d9d4	0.01658336
37	0x3c5884e8	0.013215281
38	0xbd93d6ff	-0.072187416
39	0x3da9b5c2	0.08286621
40	0x3cc92ccf	0.0245575
41	0xbd1d05ae	-0.038335495
42	0x3d89c81f	0.06727623
43	0xbc511f15	-0.012763758
44	0xbc514355	-0.012772401
45	0x3cb21246	0.02173723
46	0xbc82729e	-0.015923794
47	0x3cc45480	0.023966074
48	0xbc2d3433	-0.010571527
49	0x3b84da6d	0.0040543587
50	0x3cde6f74	0.027152754
51	0xbce734b1	-0.028223367
52	0x3c725c45	0.014792507
53	0xbd111ae0	-0.03542602
54	0xbc38a1f4	-0.011269081
55	0xbde8dcc6	-0.11370234
56	0x3d7404a4	0.05957474
57	0xbd4995f5	-0.049215276
58	0xbd5a073d	-0.05322956
59	0x3d25ed6d	0.04050963
60	0x3c4a86db	0.012361254
61	0xb9bdd8d4	-0.0003621044
62	0xbe1493fe	-0.1450958
63	0x3d9ef2d1	0.07761157
64	0xbcd6bc92	-0.026212964
65	0xb91c2097	-0.0001488946
66	0xbd0a7e66	-0.03381195
67	0xbde44182	-0.11145307
68	0xbd41aac6	-0.047282003
69	0xbca637ab	-0.020290216
70	0xbde54b76	-0.11196034
71	0xbd2581c8	-0.040406972
72	0xbd21144c	-0.039325997
73	0xbd654da1	-0.055982236
74	0xbc8aa991	-0.016926559
75	0x3d8543b6	0.065070555
76	0x392395a1	0.00015600632
77	0x3c89c632	0.01681814
78	0x3d0550b3	0.032547664
79	0xbddec2d6	-0.10877006
80	0x3d7718cc	0.060326383
81	0xbc5ace93	-0.013354915
82	0x3d41cc64	0.047314063
83	0x3c82ace3	0.01595158
84	0xbcccae01	-0.024985315
85	0xbc96ec8b	-0.01842334
86	0x3c53e2e9	0.012932518
87	0xbc875a52	-0.01652256
88	0xbd35282a	-0.044227757
89	0x3d0d1469	0.034443293
90	0x3dd7b930	0.105333686
91	0x3cf67227	0.030083729
92	0x3dfff084	0.124970466
93	0x3dc960b2	0.09832896
94	0xbc2efa3b	-0.010679777
95	0xbd58dddd	-0.05294596
96	0xbdd21cd8	-0.10259408
97	0x3d4116c7	0.047140863
98	0x3bff5491	0.0077920635
99	0xbddb0dc4	-0.10695985
100	0xbbdffa24	-0.006835239
101	0x3d8b3642	0.06797458
102	0x3d12e597	0.035863485
103	0x3df673ef	0.12033831
104	0x3c2ee017	0.010673544
105	0x3c12f924	0.008970533
106	0x3d0eeb85	0.034892578
107	0x3d96a95d	0.07356522
108	0x3d269cf9	0.040677045
109	0x3d988bf5	0.0744857
110	0xbb594e6b	-0.0033158313
111	0xbd565c9e	-0.05233442
112	0x3d404421	0.046939973
113	0xbd2f7f0a	-0.042845763
114	0xbca84e2d	-0.02054509
115	0x3ce3c884	0.027805574
116	0xbdb7b03e	-0.089691624
117	0x3d91e114	0.07123008
118	0xbe2ac003	-0.16674809
119	0xbdb76546	-0.08954863
120	0x3d72d9a0	0.059289575
121	0x3d252380	0.04031706
122	0xbc89ec4d	-0.01683631
123	0x3e118ae5	0.1421314
124	0xbd918dac	-0.071071
125	0x3e32e0e9	0.17468609
126	0x3d957c62	0.07299115
127	0xbd46db63	-0.048549067
128	0xbcd494f8	-0.02594994
129	0x3d6293d3	0.055316757
130	0xbd5f4e2a	-0.054517902
131	0xbcf9f365	-0.030511567
132	0x3d7dea9c	0.06199132
133	0x3d3acddf	0.04560649
134	0xbb9031c1	-0.0044004624
135	0x3cdc4814	0.026889838
136	0x3d2799cf	0.040918168
137	0xbd470934	-0.04859276
138	0x3c9b23c3	0.018937951
139	0x3cd1a19e	0.02558976
140	0x3cb8334f	0.022485403
141	0x3dd2dbb7	0.102958135
142	0x3d603d2e	0.054745845
143	0xbd92e81f	-0.0717318
144	0xbc2285ef	-0.009919628
145	0xbce72bd2	-0.028219137
146	0x3c876983	0.016529804
147	0xbde27759	-0.1105792
148	0xbd85e428	-0.06537658
149	0x3d9f09bf	0.07765531
150	0x3db22495	0.08698384
151	0x3c29fca8	0.010375179
152	0x3d834fe3	0.064117216
153	0xbdc31ff3	-0.09527578
154	0x3d5705d1	0.05249578
155	0xbd385ce7	-0.045010474
156	0xbd0dbcc2	-0.03460384
157	0x3c82a6c4	0.01594866
158	0xbda768f6	-0.081743166
159	0x3db670e3	0.0890825
160	0xbb3f16a7	-0.002915779
161	0x3d9d2068	0.076721966
162	0x3d23e69e	0.040014856
163	0x3c882331	0.016618343
164	0xbdc01bea	-0.09380324
165	0xbb9a7837	-0.0047140378
166	0xbd9ed77c	-0.07755944
167	0x3dcd5dde	0.10027669
168	0xbd5f6f92	-0.05454976
169	0x3d226e30	0.039655864
170	0x3d78ee15	0.060773928
171	0x3d341cf2	0.043972917
172	0x3c1425b8	0.009042196
173	0xbc771b72	-0.015082227
174	0xbd407275	-0.046984155
175	0xbda8d06c	-0.08242878
176	0x3e00121e	0.12506911
177	0x3b2f8df6	0.0026787496
178	0xbd5b39e6	-0.053522013
179	0xbca9842a	-0.020692904
180	0xbd752eff	-0.059859272
181	0xbd0614ab	-0.032734554
182	0xbc391af1	-0.011297927
183	0xbb9e92d8	-0.0048392825
184	0x3de46ce4	0.11153582
185	0x3d9da4a1	0.07697416
186	0x3e386e75	0.18010886
187	0xbdfda8e9	-0.12385733
188	0xbd91d39f	-0.07120442
189	0xbcf65f13	-0.030074632
190	0x3da63134	0.081148535
191	0x3de3a456	0.11115329
192	0x3c61ea61	0.01378879
193	0xbd9717ab	-0.07377561
194	0xbcd8cb7a	-0.026464213
195	0x3c8dde47	0.017317904
196	0x3c9cfb42	0.019162778
197	0xbb0d2085	-0.0021534276
198	0xbe07b686	-0.13253221
199	0xbdfcd396	-0.12345044
200	0x3cd0e66d	0.0255005
201	0x3d0915b2	0.033467956
202	0x3ceb86c3	0.028750783
203	0xbca66a59	-0.020314382
204	0x3c8160df	0.015793262
205	0xbcd6e244	-0.026230939
206	0xbc0f716b	-0.008755068
207	0xbbec8bd3	-0.007218817
208	0xbe3fb157	-0.18719994
209	0xbdb190df	-0.0867021
210	0x3dc3a5d1	0.09553111
211	0xbda5e709	-0.08100707
212	0x3d24f35d	0.04027115
213	0x3cc5c47b	0.02414154
214	0x3c33478c	0.010942351
215	0xbc112dd2	-0.008861022
216	0x3c5cc2f8	0.013474219
217	0x3b52fe87	0.0032195167
218	0x3c3337d3	0.0109386025
219	0xbd0dd7a5	-0.034629483
220	0xbd6e9902	-0.05825139
221	0xbe0b224f	-0.13587306
222	0xbccb8094	-0.024841584
223	0x3d2a838f	0.04162937
224	0xbbe3f35a	-0.0069565
225	0x3be3cf2d	0.0069521875
226	0xbcffc97e	-0.031224009
227	0x3d8eea1b	0.06978246
228	0xbdc581f0	-0.09643924
229	0x3ddb3b2b	0.10704645
230	0xbca5119d	-0.02015
231	0xbd6394ca	-0.05556182
232	0x3dbe4ee4	0.09292391
233	0xbd48ac2a	-0.048992313
234	0x3dd511fa	0.104038194
235	0x3a7e1249	0.0009692056
236	0x3dc00e23	0.09377696
237	0x3cd30519	0.025759267
238	0xbd93fbeb	-0.07225784
239	0xbcdf2989	-0.027241485
240	0x3d8ff3d7	0.07028931
241	0xbc8b9a9a	-0.017041493
242	0xbc9c1c6a	-0.019056518
243	0xbdc6b2c5	-0.09702066
244	0x3dbc5e0b	0.09197625
245	0xbd321c34	-0.043483928
246	0xbde2c2da	-0.11072321
247	0xbd9256e2	-0.07145478
248	0x3c621782	0.01379955
249	0x3db74306	0.089483306
250	0x3c19eabc	0.009394344
251	0x3d567da2	0.052365907
252	0x3c8de091	0.017318996
253	0x3c8c9d89	0.017164962
254	0x3db21b59	0.086966224
255	0x3d5ace51	0.053419415

network_body._body_endoder.seq_layers.4.bias f4 [256]
0	0xbae69819	-0.0017592936
1	0x3abdfd7b	0.0014495099
2	0xbb0922b6	-0.002092523
3	0xbb4bcb1a	-0.00310964
4	0xbc54f7b3	-0.012998509
5	0xbb60e3ff	-0.0034315584
6	0x3b9a1c54	0.004703084
7	0x3b7702e8	0.0037690941
8	0xbcbf15ea	-0.02332588
9	0x3b50e0fb	0.003187238
10	0xbcab4d08	-0.020910755
11	0xbc560627	-0.01306299
12	0x3ac85883	0.0015285168
13	0xbbb1563b	-0.005411891
14	0x3a7f62a5	0.0009742177
15	0xbb317e95	-0.0027083505
16	0xbb867227	-0.0041029635
17	0x3a8cf053	0.0010752775
18	0xba5c4827	-0.00084030855
19	0xbbe958c3	-0.007121177
20	0xbc3d09ff	-0.011538028
21	0x3a404713	0.00073348096
22	0xbc50db44	-0.0127475895
23	0xbb499a7f	-0.0030762253
24	0xbbefd5ab	-0.0073191724
25	0xbb906315	-0.0044063427
26	0xbc25ac7b	-0.010111923
27	0xbc8e4691	-0.017367633
28	0xbbd46f71	-0.0064830114
29	0x3c0f63b0	0.008751795
30	0xbbf58296	-0.0074923737
31	0x3bb8dff7	0.005641933
32	0xbca40b78	-0.020025
33	0xbc83542d	-0.01603135
34	0xb9e088f1	-0.0004282664
35	0xbbc38515	-0.0059667923
36	0x3ba88a0e	0.0051434105
37	0xbb7df6fb	-0.0038751948
38	0xbce82644	-0.028338559
39	0x3b7c3dc9	0.0038488975
40	0xbc9cff36	-0.019164663
41	0xbc20b978	-0.009809844
42	0xbb972c08	-0.004613403
43	0xbc576a49	-0.013147899
44	0xba011892	-0.0004924621
45	0xbbe48380	-0.006973684
46	0xbb2a48d3	-0.0025983348
47	0xbb00ddcc	-0.0019663451
48	0xbc8c873a	-0.017154325
49	0x3c049dc6	0.008094257
50	0xbb8ef785	-0.0043630027
51	0xbc2ee9c6	-0.010675853
52	0x3a99bef9	0.0011729888
53	0xbc905955	-0.017620722
54	0xbc4410a3	-0.011966857
55	0xbc76ffd2	-0.015075641
56	0xbbc77a51	-0.0060875793
57	0xbc128021	-0.008941681
58	0xbc293bee	-0.01032923
59	0x3b995026	0.004678744
60	0xbb3a1626	-0.002839455
61	0xbccf9f4c	-0.025344513
62	0x3c16559a	0.009175682
63	0xbc5b31c7	-0.013378567
64	0x3c4876c8	0.012235351
65	0x3a7c2857	0.0009619048
66	0xbb31f25e	-0.0027152519
67	0xbc4dea66	-0.012568092
68	0xba8e8d5a	-0.0010875866
69	0xb80155ff	-3.0836087e-05
70	0x3b5fe6f3	0.0034164756
71	0xbb6df119	-0.0036307035
72	0xbc0d223d	-0.00861412
73	0xbb5f27d7	-0.0034050846
74	0x3ba7bd3e	0.005118995
75	0x3b6d56f7	0.0036215165
76	0x3b59cc9c	0.003323353
77	0xbc398ad6	-0.011324605
78	0xbc941fc6	-0.018081557
79	0xbab610eb	-0.001389054
80	0xbb774077	-0.0037727633
81	0x3b14b1ee	0.0022689062
82	0xbbc6a370	-0.0060619637
83	0xbbc062b5	-0.005871142
84	0x39cc3ed2	0.00038956717
85	0xbc5dc33f	-0.01353532
86	0xbc88e1ee	-0.016709294
87	0xbc8341e2	-0.016022626
88	0xbc1c82c3	-0.00955266
89	0x3af15bfe	0.0018414257
90	0xb9e1b522	-0.000430503
91	0xbb9c6b1c	-0.0047735106
92	0x3b700c1c	0.0036628311
93	0xbbe7e9e7	-0.007077444
94	0xbc5b66d4	-0.013391215
95	0xbc04be04	-0.008101944
96	0x3bc00c0f	0.0058608125
97	0xbc0caca2	-0.008586081
98	0xbc6587d0	-0.014009431
99	0xbab32a38	-0.0013669198
100	0xbb979847	-0.004626307
101	0xbc012a02	-0.007883551
102	0xbc3be070	-0.011467084
103	0xbc066077	-0.00820171
104	0xbc1241dd	-0.008926836
105	0xbb8b6d47	-0.0042549702
106	0xbc6ace10	-0.014331356
107	0xbcc61416	-0.0241795
108	0xbc0113b2	-0.007878231
109	0xbb062563	-0.0020469062
110	0xbc4bb9ed	-0.012434465
111	0xbad0480b	-0.0015890611
112	0x3b2088fd	0.0024495714
113	0xbc5af51c	-0.013364103
114	0xbca3a061	-0.019973936
115	0x39a9eb13	0.00032409336
116	0x3badaaee	0.0052999174
117	0xbc3ed085	-0.011646395
118	0xbc9781a3	-0.018494433
119	0xbb3b1c9c	-0.0028550988
120	0xbba57601	-0.0050494676
121	0xbc785593	-0.015157121
122	0xbb952d20	-0.0045524985
123	0xbb9d9bea	-0.004809846
124	0x3bf0e9c4	0.007352086
125	0xbb2f6a2b	-0.0026766162
126	0xbc004308	-0.0078284815
127	0x3a287f3c	0.0006427651
128	0xbb162018	-0.0022907313
129	0xbb75177f	-0.0037398038
130	0x3a8f1ad9	0.0010918035
131	0xba86df5f	-0.0010289958
132	0xbc2cdb31	-0.010550306
133	0xbca74895	-0.020420352
134	0xbc6ec809	-0.014574059
135	0xbc7b33fd	-0.015332219
136	0xbc3b7113	-0.011440533
137	0xbc8f422a	-0.017487604
138	0xbc385cda	-0.011252606
139	0xbc292f02	-0.010326149
140	0xba0760e2	-0.0005164278
141	0xbb544654	-0.0032390552
142	0xbbbb81a9	-0.005722244
143	0xbc025f83	-0.007957342
144	0x3bc507ca	0.0060128914
145	0x3b8df52b	0.004332205
146	0x3c2acd3b	0.010424907
147	0x3b8e8f45	0.004350575
148	0xbc68b124	-0.01420239
149	0xbc298406	-0.010346418
150	0xbbbab95d	-0.0056983666
151	0xbc5eb1f4	-0.013592232
152	0xbc45213e	-0.012031851
153	0xbc4da350	-0.012551144
154	0xbbf7289c	-0.007542683
155	0xbc05b866	-0.00816164
156	0xbc1978d2	-0.009367185
157	0xbc62cfe0	-0.013843507
158	0xbbddd0be	-0.006769269
159	0xbc041ede	-0.008064
160	0xb9ec1ca8	-0.00045034778
161	0xbbf67f7b	-0.007522521
162	0xbc1f51a2	-0.009724053
163	0xbbe94015	-0.007118235
164	0xbc0c1e4e	-0.008552147
165	0xbc26e4bb	-0.0101863695
166	0x3b1c19c0	0.002381906
167	0x3ba77d13	0.0051113456
168	0xbb544476	-0.0032389439
169	0xbb6c8b40	-0.0036093742
170	0xbc86fd3d	-0.016478175
171	0xbbbb273a	-0.0057114633
172	0xbbf2d5ea	-0.0074107544
173	0xbbcb50d4	-0.006204704
174	0xbb85a9b8	-0.00407907
175	0xbbf2fd21	-0.007415429
176	0xbbaf1642	-0.0053432295
177	0x3b2fbd3d	0.0026815676
178	0xbbe8bacb	-0.0071023456
179	0xbb9d590a	-0.004801874
180	0x3ba69fae	0.0050849533
181	0xbc0ef81a	-0.008726144
182	0x3aa89d08	0.0012864182
183	0xba3b474d	-0.00071441085
184	0x3bc3fc7c	0.005981026
185	0xbb99d75c	-0.0046948623
186	0x3bbe488d	0.0058069886
187	0x3afcf6a5	0.001929958
188	0xbbb12651	-0.005406179
189	0xbc09e6a0	-0.008416802
190	0xba870847	-0.001030215
191	0xbcaa1307	-0.020761026
192	0x3b393260	0.0028258786
193	0xbc447ef1	-0.011993156
194	0xbc69081a	-0.014223123
195	0xbbf37746	-0.00742999
196	0xbc113e81	-0.008865
197	0xbce9be0b	-0.028533002
198	0xbb6bdfbf	-0.0035991517
199	0xbbceda75	-0.006312663
200	0xbbb3b83c	-0.005484609
201	0xbc88b524	-0.016687937
202	0xbb65ca8c	-0.0035063354
203	0xbb20f124	-0.0024557794
204	0xbc5b40b5	-0.013382127
205	0xbb94a02e	-0.0045356965
206	0xbcb5c32d	-0.022187794
207	0x3b4d4cf3	0.0031326383
208	0xba4afacf	-0.0007743062
209	0x3b142f0a	0.0022611045
210	0x3b64f2ce	0.0034934762
211	0xba8b95f2	-0.0010649546
212	0xbc02b556	-0.007977804
213	0xbb5ef09b	-0.0034017924
214	0xba9550f9	-0.001139193
215	0xba83904e	-0.0010037513
216	0x3c09854e	0.008393599
217	0xbc1f5122	-0.009723933
218	0xbb3cb085	-0.0028791737
219	0x3b9aa4b0	0.0047193393
220	0xbae318dd	-0.0017326135
221	0xbc6859f2	-0.014181601
222	0x3bf37660	0.007429883
223	0xbbf033ce	-0.0073303943
224	0x3b2366a9	0.0024933016
225	0x3b5d537c	0.0033771684
226	0xbc84a0c3	-0.016189938
227	0xbbb5ad93	-0.0055443733
228	0xbad690ad	-0.0016370021
229	0xbbf0358e	-0.007330603
230	0x3acb96ab	0.0015532573
231	0xbb125265	-0.0022326943
232	0x3736b2ab	1.0889645e-05
233	0x3bc7a065	0.0060921186
234	0x3b2b2521	0.002611466
235	0xb82c5213	-4.1084433e-05
236	0xbb4a0998	-0.0030828472
237	0xbbe89ac5	-0.007098528
238	0xbbd75ab3	-0.0065720915
239	0xbb8ad2e0	-0.004236564
240	0xbbc270f4	-0.005933875
241	0xb999d87d	-0.0002934373
242	0xbcc998fd	-0.024609083
243	0xbb1c58fc	-0.002385675
244	0xbb8d0078	-0.0043030344
245	0xbbdb5139	-0.006693032
246	0xbba2b870	-0.0049658343
247	0x39479cf9	0.00019036596
248	0xbc285590	-0.010274306
249	0xbc2c12ac	-0.010502499
250	0xbbf04287	-0.0073321494
251	0x3c2c7a21	0.010527165
252	0xbaa4b1aa	-0.0012565155
253	0xbc2338e4	-0.009962294
254	0xbb8ed424	-0.004358785
255	0xbc8bd744	-0.01707042

network_body._body_endoder.seq_layers.6.weight f4 [256, 256]
0	0xbbd20279	-0.006408986
1	0xbd6c4fc6	-0.057693265
2	0x3da60480	0.08106327
3	0xbd5a1137	-0.053239074
4	0x3ce4f513	0.027948892
5	0x3c83fa71	0.01611063
6	0x3c6e8b5c	0.014559593
7	0xbdbb15d4	-0.09135023
8	0x3aae8b4e	0.0013316663
9	0xbd10c880	-0.03534746
10	0x3d3edcb0	0.046597183
11	0x3c8a3604	0.01687146
12	0x3d46514b	0.04841737
13	0xbde300ce	-0.11084138
14	0x3d8b0c84	0.067894965
15	0x3dbf8808	0.09352118
16	0x3e1dea7f	0.15421484
17	0x3ddc149f	0.10746121
18	0x3d837069	0.06417925
19	0xbc104ed0	-0.008807853
20	0x3c993650	0.018702656
21	0xbc1b21d5	-0.009468515
22	0x3ddc3e11	0.10754026
23	0xbd918047	-0.07104545
24	0x3c3ec8e5	0.011644577
25	0xbce07515	-0.027399579
26	0xbd7bd901	-0.061486248
27	0xbd97da79	-0.07414717
28	0xbdd3816b	-0.10327419
29	0xbd65a6a6	-0.05606713
30	0x3d289452	0.041157074
31	0xbddad40c	-0.10684976
32	0x3dee8fe3	0.11648538
33	0x3cb6cbd0	0.022313982
34	0x3ceda978	0.029011473
35	0x3dcab829	0.09898407
36	0x3d879358	0.066199005
37	0xbba8518b	-0.005136674
38	0x3db8a9d4	0.09016767
39	0xbd5b2f4e	-0.05351191
40	0x3d12e301	0.03586102
41	0x3ccac02d	0.02474984
42	0x3dad49b2	0.08461322
43	0xbd0c744b	-0.034290593
44	0x3c3f54ac	0.011677902
45	0xbc1131f0	-0.008862004
46	0x3d37191a	0.044701673
47	0xbcd88c29	-0.026434021
48	0x3cccc94b	0.024998328
49	0x3d835592	0.064128056
50	0x3cb33d21	0.021879734
51	0xbd878e62	-0.06618954
52	0x3d9489c5	0.0725284
53	0xbdb8ba36	-0.09019892
54	0xbdb67f4f	-0.08911001
55	0x3d9ca10f	0.07647907
56	0x3bfe013b	0.0077516115
57	0xbd63bba5	-0.055598874
58	0xbc9b10d0	-0.018928915
59	0x3dc1076d	0.094252445
60	0x3e64fe73	0.2236269
61	0xbcb36a14	-0.021901168
62	0xbd8b1a95	-0.067921795
63	0x3d1d8e6f	0.038465913
64	0xbe5754ce	-0.21028444
65	0x3dc1f9c6	0.094714686
66	0xbc4cf040	-0.012508452
67	0xbb0eb453	-0.0021774962
68	0x3d234575	0.03986116
69	0xbd88186e	-0.066452846
70	0xbd52364e	-0.05132132
71	0xbc02fd33	-0.007994938
72	0x3d9aa8c6	0.07551722
73	0xbd2faf3b	-0.042891722
74	0xbdc81680	-0.097699165
75	0x3d98f8d1	0.07469333
76	0xbd8349b6	-0.064105436
77	0xbda19e3f	-0.07891511
78	0x3c74d541	0.014943422
79	0x3cef2c01	0.029195787
80	0xbe2d65de	-0.1693339
81	0x3dd26940	0.10273981
82	0xbcd57ee5	-0.026061485
83	0xbd1c8379	-0.03821132
84	0xbd1dc6bf	-0.038519617
85	0xbd80c4cd	-0.06287537
86	0xbc4bdf66	-0.012443399
87	0xbdacb477	-0.084328584
88	0x3d05118a	0.03248743
89	0xbda125aa	-0.07868512
90	0xbdf6cc4f	-0.120506875
91	0xbe076d14	-0.13225204
92	0x3d39f6e7	0.04540148
93	0x3c071f25	0.0082471715
94	0xbba66a79	-0.0050786105
95	0xbab08363	-0.0013466891
96	0x3dae0763	0.08497503
97	0xbd1f8e3a	-0.038953997
98	0xbc3156cc	-0.010823917
99	0xbd9e7429	-0.077369995
100	0xbb5a3b9f	-0.0033299697
101	0xbb8067f5	-0.0039186426
102	0x3d800273	0.06250467
103	0x3db03863	0.08604505
104	0x3c6fa985	0.014627819
105	0x39cabf22	0.00038670847
106	0x3d2acd1e	0.04169952
107	0xbc76d60b	-0.01506568
108	0xbdc5d94e	-0.09660588
109	0xbddd967c	-0.10819718
110	0xbd3ba0ff	-0.045807835
111	0x3daee233	0.08539238
112	0x3d81022c	0.062992424
113	0xbdbc221a	-0.09186192
114	0xbdd275f7	-0.10276406
115	0x3dd2a0ae	0.102845535
116	0x3dc4ba0f	0.096058
117	0xbd44abc8	-0.048015386
118	0xbcb6f6e5	-0.022334525
119	0x3d426115	0.047455866
120	0xbd33bfb0	-0.04388398
121	0xbbe7b285	-0.0070708417
122	0x3da78af2	0.081807986
123	0x3d57fcd9	0.05273137
124	0x3def9278	0.116978586
125	0x3d4d0626	0.05005469
126	0xbd092282	-0.033480175
127	0x3d82b4fb	0.063821755
128	0xbb6dcf4c	-0.0036286889
129	0x3d93363b	0.07188078
130	0x3dbee07d	0.093201615
131	0x3dd06b64	0.10176733
132	0xbd0a73a4	-0.03380169
133	0x3cc57e45	0.024108062
134	0x3d9a0c7a	0.07521911
135	0x3d325185	0.043534774
136	0xbdb5404d	-0.08850155
137	0xbca6e979	-0.020375
138	0xbd0974c0	-0.033558607
139	0xbdfe73eb	-0.12424453
140	0xbe14a56d	-0.1451623
141	0x3d8e7c8c	0.06957349
142	0xbce4b223	-0.027916973
143	0x3de5337f	0.11191463
144	0x3dc97b21	0.09837938
145	0x3dbf535d	0.09342072
146	0xbb0b1d53	-0.0021227195
147	0x3d17837d	0.03699063
148	0x3d19f3df	0.03758609
149	0xbd2538af	-0.04033726
150	0xbd587c4d	-0.052852917
151	0x3dc9789d	0.09837458
152	0xbdbceb5e	-0.0922458
153	0xbc6a9934	-0.014318753
154	0xbde17976	-0.11009495
155	0xbd1d22f3	-0.03836341
156	0xbde8f235	-0.11374322
157	0xbd08d3ce	-0.033405118
158	0x3d889b60	0.066702604
159	0x3d695b98	0.056972116
160	0x3dba07b5	0.09083501
161	0xbc7176f3	-0.014737832
162	0xbd005086	-0.031326793
163	0x3b4ce649	0.003126519
164	0x3ce8e201	0.02842808
165	0xbdb3d892	-0.08781542
166	0x3d7c166e	0.061544828
167	0x3d9c467f	0.076306336
168	0xbc61238f	-0.013741388
169	0x3d3cdfd4	0.046111897
170	0x3d97c200	0.074100494
171	0xbd828fa1	-0.06375051
172	0x3d55351d	0.052052606
173	0xbd3277c5	-0.043571252
174	0x3d9b787d	0.07591341
175	0x3e17a90e	0.14810583
176	0xbc172cdc	-0.009227004
177	0x3d90f01b	0.070770465
178	0x3c979938	0.018505678
179	0x3be98bb3	0.007127249
180	0xbd9e340f	-0.07724773
181	0x3d00fd8b	0.031491797
182	0xbdd3d047	-0.1034246
183	0x3d68c9cf	0.056833085
184	0x3d4d9f0d	0.05020051
185	0x3c436963	0.011926982
186	0x3daeba3b	0.085316144
187	0x3ca39063	0.01996631
188	0xbd56b9eb	-0.0524234
189	0xbca4142b	-0.020029148
190	0xbc1d97ae	-0.009618683
191	0xbdba8d86	-0.09109025
192	0x3da82378	0.0820989
193	0xbdbccf8e	-0.092192754
194	0xbd6d7243	-0.057970297
195	0x3d652401	0.05594254
196	0xbd84c571	-0.064829715
197	0xbd223e1d	-0.039610017
198	0x3d46943e	0.04848122
199	0xbb3933fe	-0.002825975
200	0xbd1284d9	-0.035771225
201	0xbd802a6e	-0.06258093
202	0xbd254034	-0.040344432
203	0xbd9c5012	-0.0763246
204	0xbdd74cf5	-0.10512725
205	0xbd5058e7	-0.050866034
206	0x3d9cfe62	0.07665707
207	0xbd34c64a	-0.044134416
208	0x3d8929f0	0.06697452
209	0x3d3883b4	0.045047477
210	0xbda0e3be	-0.078559384
211	0x3d766078	0.060150594
212	0x3d29479b	0.041328054
213	0xbe2e3622	-0.17012838
214	0xbc985015	-0.018592874
215	0xbd852944	-0.065020114
216	0xbc2f5c3a	-0.010703141
217	0xbd105790	-0.035239756
218	0xbdddfae6	-0.10838871
219	0x3ba9a44a	0.0051770555
220	0xbc6b6e94	-0.014369626
221	0x3bfba7da	0.0076799216
222	0x3bf06e1e	0.0073373457
223	0xbd8690da	-0.06570597
224	0x3d38b851	0.045097653
225	0x3c8ef987	0.017452968
226	0x3cac663e	0.021044847
227	0x3e0b210f	0.1358683
228	0xbd7a2312	-0.061068602
229	0x3c97d7c3	0.0185355
230	0x3d33c862	0.04389227
231	0x3c2c8551	0.010529832
232	0xbc34f501	-0.011044742
233	0xbd246c2b	-0.04014222
234	0x3b540004	0.0032348642
235	0xbd19f7b7	-0.037589755
236	0xbb777ab0	-0.0037762336
237	0x3dc8ee20	0.09811044
238	0x3e13bf91	0.14428546
239	0xbe21b484	-0.15791517
240	0x3be3b63d	0.0069492147
241	0xbde3bbb9	-0.1111979
242	0xbd5cc13e	-0.053895228
243	0x3b92ad06	0.0044761924
244	0x3c422685	0.011850004
245	0xbc049395	-0.008091827
246	0x3d0a3023	0.033737313
247	0xbd8aeeb7	-0.067838125
248	0xbd27fade	-0.04101073
249	0xbd8bf469	-0.06833727
250	0x3d152745	0.036414403
251	0x3ce95564	0.0284831
252	0xbdf78e65	-0.120877065
253	0xbc8807f0	-0.016605347
254	0x3da09d75	0.078425325
255	0xbd408aa2	-0.04700721
