Assets/ML_PPO/results/1stgo_nav_26/BoatAgent/BoatAgent-49967.onnx (onnx, 853217 bytes, 15 tensors)

discrete_action_output_shape f4 [1, 3]
000000 00 00 00 40 00 00 00 40 00 00 00 40
       2.0 2.0 2.0

network_body._body_endoder.seq_layers.0.weight f4 [256, 51]
000000 f1 55 1b be 43 8e f8 3c c1 6e 9b 3d bf 73 61 bb
       -0.15169503 0.030341273 0.07589484 -0.0034401265
000010 35 d5 83 be 6a e3 cf 3d c0 3a ef 3c eb d9 d3 3d
       -0.25748602 0.10150798 0.029202819 0.10344299
000020 80 80 22 3e e2 ff 46 be ae 95 57 be 6a c0 86 be
       0.15869331 -0.19433549 -0.21053192 -0.26318675
000030 46 95 2b 3e 9a 20 a6 bc 72 8a 0b be 7b a2 ba be
       0.16756162 -0.020279218 -0.13627031 -0.36452088
000040 9d 50 e5 3b 1c 14 52 3d 07 f9 b2 bd 4c a2 3f bd
       0.0069981352 0.05128871 -0.087389044 -0.046785638
000050 2c 45 07 3b e6 96 1a 3e f1 45 d3 3d 15 82 cb 3c
       0.0020640595 0.15096626 0.10316075 0.024842301
000060 28 87 45 3e ec 33 53 bc c3 a8 39 3d 9f 94 05 3e
       0.1928984 -0.012890797 0.04532696 0.13044976
000070 f5 1c 8a be 9e ac 56 be 49 61 a8 bd e7 b5 9b bd
       -0.26975217 -0.20964286 -0.08221681 -0.076030545
000080 2d b6 03 be 15 fc be bd 9e f0 be bd 54 25 8a be
       -0.12862463 -0.093254246 -0.09323238 -0.26981604
000090 d6 6b 50 3e c4 4f 95 3d 78 e1 3a be 3a 41 a2 bd
       0.20353636 0.07290605 -0.18250072 -0.07922597
0000a0 0f 70 57 3d 55 1c 2e bc 9a fd 3b be eb 99 a6 bc
       0.0525971 -0.010626872 -0.1835846 -0.020337066
0000b0 e1 32 f2 3d 88 ef 87 bd 68 3b ca bd 24 ff eb bb
       0.11826111 -0.06637484 -0.09874612 -0.007202046
0000c0 e3 27 5f 3e ff 16 2c 3e 6c 6b 02 3e 86 5f 4b 3e
       0.2179256 0.16805647 0.1273629 0.19860658
0000d0 6a df a7 bd ed 14 58 3e 92 23 26 3c d5 3a b4 bb
       -0.0819691 0.21101733 0.010140317 -0.0055001774
0000e0 46 d3 97 be 19 84 14 be ca e1 d8 3d 19 cb 54 3d
       -0.29653376 -0.14503516 0.10589941 0.0519515
0000f0 e6 d6 14 bd 57 8c 40 3d db 58 01 3d 89 1d 15 3b
       -0.036337756 0.04700884 0.03157888 0.00227532
000100 49 f4 51 bb 65 04 8c 3e b2 97 cc bd de fc 04 3e
       -0.0032036474 0.27347103 -0.09989871 0.12987086
000110 4b 7c 53 be 91 15 44 be a7 36 33 3e af 49 30 3e
       -0.20652883 -0.19148852 0.17501317 0.17215608
000120 7e ab a9 3e d9 10 dc bb 3d 98 88 3e b0 52 c9 bc
       0.3313865 -0.0067158756 0.2667865 -0.024575561
000130 ef 71 04 3d be 9a 7a 3d f3 c9 f9 3d 38 af 91 3e
       0.032335218 0.06118273 0.12196722 0.28453994
000140 a1 20 46 bd 4f fc 52 be 24 27 82 be c7 3f 96 be
       -0.04837096 -0.2060406 -0.25420487 -0.29345533
000150 21 be 96 bd 05 58 91 bd 96 e8 29 be f1 c4 9a bd
       -0.07360483 -0.070968665 -0.1659263 -0.07557095
000160 3e 02 a4 be 81 7f 81 be 4b 4a a1 bd dc c4 14 be
       -0.3203296 -0.2529259 -0.078754984 -0.14528221
000170 65 9e 0f 3e 3e 39 19 be 55 7a c0 bc 0e fa ca 3c
       0.14025266 -0.14963242 -0.023495832 0.024777438
000180 1b 61 fb bd 7d 03 6c bd 47 a7 dc 3c c4 11 7d bd
       -0.12274381 -0.057620514 0.026935233 -0.06178452
000190 8a 78 21 bd 16 7f 02 be ef 09 df bc 91 96 f0 bd
       -0.039421596 -0.12743792 -0.027226416 -0.11747468
0001a0 ee 91 4d be 98 15 ef bd b5 a8 75 3c dd 0b 51 bd
       -0.20075199 -0.116740406 0.014993836 -0.051036704
0001b0 1c 69 4c be 70 d4 28 3e 21 a1 35 3e f5 fd be be
       -0.19961971 0.16487288 0.17737247 -0.3730313
0001c0 c2 3f 56 bc ae 1b 3b 3e c7 fb 68 be 70 52 91 bd
       -0.0130767245 0.18272278 -0.22752295 -0.07095802
0001d0 2c 75 ae bd 98 83 1e bc b1 6f 86 bc 10 87 06 bd
       -0.085184425 -0.009674929 -0.01641068 -0.03284365
0001e0 ab 36 86 3e b6 20 bb 3d 57 70 c9 3d 9c b8 7f be
       0.26213583 0.091370985 0.0983588 -0.24972767
0001f0 a1 47 02 be 14 95 3c 3e 5c 4d 96 3d 4c 4c b6 be
       -0.12722637 0.18416244 0.07338974 -0.35605085
000200 37 f4 4d bd 49 ed 23 3e 48 37 9a 3b 0d de f7 3c
       -0.05028173 0.16008486 0.004706297 0.03025725
000210 52 e6 95 3d 5e 31 5f be a4 68 07 be df 74 63 3d
       0.07319321 -0.21796176 -0.13223511 0.05553138
000220 80 39 5f 3d cd f3 4d be 3b fc 69 bd b9 0a f9 bd
       0.054498196 -0.20112534 -0.05712531 -0.12160248
000230 d2 0b 8a be cf 59 36 bd 6d b4 21 3e cb 0c aa bc
       -0.26962143 -0.044519242 0.15791483 -0.020758053
000240 20 b6 d6 3c 10 a4 0c bb 2b f5 05 be 5f 19 c2 3d
       0.02620989 -0.0021460094 -0.13081805 0.094774954
000250 ed 89 cc bc 0b 01 cd bc fc 83 ca bd 0d 6f e7 bc
       -0.024968112 -0.025024911 -0.09888455 -0.028251195
000260 7c f7 98 3d 4c ab 9b 3c 19 db b1 bc 7b f5 20 3e
       0.07469079 0.01900258 -0.02171092 0.15718643
000270 00 4d 19 3e 97 bf f1 bb c1 eb a3 3c 7b 02 0e 3e
       0.1497078 -0.0073775756 0.020009877 0.13868134
000280 ed 09 ec 3d 68 9d 62 bc 28 7b 69 be 13 eb e4 bc
       0.11525331 -0.013831474 -0.22800887 -0.027944123
000290 55 d0 06 3e 48 e2 17 3e b7 c2 d0 3b 13 e3 95 3d
       0.1316541 0.14832413 0.006370868 0.073187016
0002a0 f7 cd 30 3e cc e4 45 be 6a d7 0a be 61 68 95 bd
       0.1726607 -0.1932556 -0.13558736 -0.07295299
0002b0 f5 ce 4e be 7b ed df 3d 10 c9 d2 bd f9 aa 3c bc
       -0.20196135 0.10933968 -0.10292256 -0.011515372
0002c0 4d d0 92 bc f8 0b 9f bd 99 bd 83 be 71 bf 4b bd
       -0.017921591 -0.07765955 -0.2573059 -0.04974312
0002d0 90 eb 86 3b f3 4c 90 3d 2c bc ef bd 67 85 06 be
       0.0041174367 0.07045927 -0.11705813 -0.13136826
0002e0 15 6d 58 3e 1f 48 41 3e bf 7d 05 be 54 8d f3 bd
       0.21135361 0.18875168 -0.1303625 -0.118921906
0002f0 ff ea 84 bd fa fc eb 3d 22 c9 49 3d b7 e4 57 3e
       -0.064901344 0.11522861 0.04926408 0.21083342
000300 75 2a 56 3d 2b 50 fd bd 25 4c ff bc b3 5d 1e 3d
       0.052286584 -0.123688065 -0.031164238 0.038663577
000310 b4 50 24 be 41 26 c2 bc 6a 2d c4 be 74 b6 41 bd
       -0.16046411 -0.023699882 -0.38315898 -0.04729314
000320 0f 11 b9 bc 8d 7f 2e bd 65 27 28 bb e9 42 75 3e
       -0.022591142 -0.04260211 -0.0025658247 0.23951305
000330 03 d8 08 be cf 70 da 3d 88 3f 45 bd ef f7 16 3e
       -0.13363652 0.10666048 -0.04815629 0.14743017
000340 0b 1f 6e be cc 66 75 bd b3 e4 b7 3d d0 d3 02 3e
       -0.2325403 -0.059912488 0.08979168 0.12776113
000350 54 53 20 be 03 f1 68 3e df f9 9e bc d8 0f cd 3d
       -0.15656787 0.22748189 -0.019406257 0.100127876
000360 70 2e 3b bd 0e 95 95 3c cd 29 21 be dd bc ec bd
       -0.045698583 0.018259551 -0.15738602 -0.1155946
000370 87 c4 38 bd 3c 13 2d be 73 38 51 bd 54 bf 4e 3e
       -0.045109298 -0.16901869 -0.051079225 0.20190173
000380 34 87 d8 3d e3 aa e5 3c 12 ed c1 be 44 e7 ac bd
       0.10572663 0.028035587 -0.37876183 -0.08442548
000390 da 83 f6 3d 7c e8 90 3d 0b 81 14 bc f1 ba 24 be
       0.120368674 0.07075593 -0.009063969 -0.16086937
0003a0 ac f3 d1 3d 5f 99 03 3c 8a 17 68 bc ba d6 43 3d
       0.10251555 0.008032172 -0.014165768 0.0478122
0003b0 5f 4b b7 3d fd 4f 2f 3c 28 d3 90 be 7e cb 9c bd
       0.08949923 0.010700223 -0.282861 -0.076560006
0003c0 a1 99 ba 3d ab 18 01 3e e3 0f 9f 3d 97 aa 98 3d
       0.09111334 0.12607066 0.07766702 0.074544124
0003d0 bb 02 23 bd a7 1a 81 3d 1e 75 a0 3d 6d ae 45 bd
       -0.039797526 0.06303912 0.07834838 -0.04826205
0003e0 3a 8c 2f 3e ca ae 3f be 4d 89 90 3d 1b 86 7b be
       0.17143336 -0.1871902 0.07057438 -0.24562876
0003f0 fc 84 77 bd 34 5a 88 bd 48 f4 b3 bd c4 46 50 be
       -0.06042956 -0.0665783 -0.08786827 -0.20339495

network_body._body_endoder.seq_layers.0.bias f4 [256]
000000 18 61 1a 3b 28 7b b2 bb 41 d6 93 3b 6b 33 bb 3b
       0.0023556408 -0.0054468103 0.004511625 0.0057129166
000010 fc 4a 30 bd 1d 51 18 3d 43 d3 9f 3c 25 68 18 3c
       -0.04304026 0.03718673 0.019509917 0.009302174
000020 dc da 00 3c ef c4 a3 bb 5a f4 46 3a 49 7e 9a 3c
       0.00786468 -0.0049978415 0.0007589512 0.018859046
000030 dd f0 b1 bb 28 24 1d bb ed bb 23 3d c1 ca 26 3d
       -0.0054303245 -0.002397785 0.039974142 0.040720705
000040 2a af 94 bb c9 05 36 ba 3d b0 78 3c d1 0b 77 3b
       -0.0045374827 -0.0006943611 0.015178737 0.0037696252
000050 db ba 9d bc ae f2 00 3d 4a 87 92 bb 44 6f 5a bc
       -0.019254139 0.031481437 -0.004471694 -0.013332192
000060 ff 69 ae 3c 2a 63 48 3c 41 95 f1 bc 41 79 8f 3a
       0.021290777 0.012230674 -0.029490115 0.0010946171
000070 ad 9e 2b 3a a8 6a 95 bb bf bf 82 3b d4 bc 10 bd
       0.0006546777 -0.0045598336 0.003990143 -0.03533633
000080 8f 4b 22 3c 52 89 d7 3b f3 5c fb 3b 64 99 d8 bb
       0.00990571 0.006577649 0.0076709925 -0.0066100825
000090 a2 28 1a 3c f3 ce 5f bb cc 27 d0 bb 09 ba 4f 3d
       0.009409102 -0.003415045 -0.0063524004 0.050714526
0000a0 bd c9 e6 b9 10 c7 a5 3c 72 ed 3e 3c 27 f2 fa bc
       -0.00044019325 0.020236522 0.011653291 -0.030633045
0000b0 a6 de 4c bc 2a d8 dd 3c bf f3 62 3b 97 15 f2 bc
       -0.012504255 0.027080614 0.0034630147 -0.02955131
0000c0 ff 88 0b bd cc 6f d8 3b 55 5a 5d bb 0d 9e 41 bd
       -0.034066197 0.006605124 -0.0033775766 -0.04726987
0000d0 10 66 10 bd ee 78 10 3d 2d 0d 11 bd ef a8 99 3b
       -0.035253584 0.035271578 -0.035412956 0.004689328
0000e0 a9 b6 6e ba 0e 4f 3e bd 84 fb d9 3c 71 72 d4 bc
       -0.0009106198 -0.04646211 0.02660919 -0.025933476
0000f0 03 29 c7 bb a7 97 fb bc 7d 18 9b bb d6 35 1c bd
       -0.006077887 -0.030711962 -0.004733144 -0.03813728
000100 84 29 8f 3c 3a ad 0c 3c 95 1f 1c 3d bb fe dc bb
       0.01747585 0.008586222 0.038116056 -0.0067442334
000110 78 44 96 3b b2 7e b1 bb 4f 8f 89 3c 20 24 71 bc
       0.004585799 -0.0054167146 0.016791968 -0.0147180855
000120 be 4f 82 bc b4 c9 7a bc cf 6c 24 39 65 36 dc bc
       -0.015907165 -0.015306879 0.00015680793 -0.026881406
000130 8f b2 0f bc 84 93 63 bc 86 32 65 3c 3a bd 73 3c
       -0.008770599 -0.013890151 0.0139890965 0.014876658
000140 ca cf de 3b e4 a6 f8 bc bd ac d7 bc 90 50 d3 bc
       0.0067996727 -0.030353017 -0.026327485 -0.025795251
000150 68 c1 ba 3b 91 ac 09 bd cc 1f 58 3c 55 f2 3d bd
       0.0056993254 -0.033611838 0.013191175 -0.046373684
000160 aa 67 24 3c c2 92 a4 bb b1 22 42 3d aa d4 d7 bb
       0.010034481 -0.0050223777 0.047396366 -0.006586631
000170 ef 59 76 ba 57 cf bc bb db 0d e8 3c dd fb 9f b9
       -0.00093975564 -0.0057620215 0.02832692 -0.00030514496
000180 d2 19 e1 bc 4d 4b 01 3d de 02 ca 3c ce 57 24 bd
       -0.027478132 0.031565953 0.02465957 -0.0401228
000190 a3 68 1e ba b7 f7 c7 3c c5 1d 49 bd eb 77 09 3c
       -0.0006042814 0.024410112 -0.049100656 0.008390407
0001a0 2d 33 0a 3d 11 1d 15 3c 4a 8b c0 3c 13 2b a2 b9
       0.03374021 0.009101168 0.023503918 -0.0003093114
0001b0 c9 e7 97 3c b6 94 88 3c e9 c6 81 bb 82 96 79 bc
       0.018543141 0.016672473 -0.0039604795 -0.015233638
0001c0 6d 68 49 3d 50 c3 19 bd 1f 16 95 3c 25 1e 40 bc
       0.049171854 -0.03753978 0.018199025 -0.011725937
0001d0 82 57 68 b9 da 79 0e bd be 80 e1 ba 1a 39 a0 3b
       -0.00022157843 -0.034784175 -0.0017204506 0.0048896195
0001e0 7d 59 ec bb f1 e7 25 3d 64 3e e5 3c 0c 51 48 bb
       -0.0072128163 0.0405044 0.027983852 -0.0030565886
0001f0 1f fa 73 bc b9 21 b5 bc 12 44 14 3d 64 53 14 bd
       -0.0148911765 -0.022110807 0.03619773 -0.03621234
000200 dc ca 12 bd 4e 0c 14 3b f9 a0 89 3b 62 d9 2b bd
       -0.035837993 0.0022590342 0.0042000976 -0.04195536
000210 90 cf 7e 3c 49 64 e1 bc d0 ba 93 bc eb 5a b8 3c
       0.015552416 -0.02751364 -0.018033415 0.02250429
000220 8e 5f 01 3d 40 38 2d bd a1 af 28 bd 5f 5a 3c ba
       0.03158527 -0.042289972 -0.041183118 -0.0007185097
000230 a4 0e 2c bd ff 94 a6 3c ba b3 4a bc c1 62 4c bc
       -0.04200615 0.020334719 -0.012371952 -0.012474717
000240 e2 b1 12 3b 9c 75 59 bd 6e 4c df 3c d6 b9 56 3c
       0.0022383858 -0.053090677 0.027258124 0.01310583
000250 e1 6a 08 bc b7 27 dd 3c 88 8c 39 bb 4f 79 84 3b
       -0.008326263 0.026996477 -0.0028312523 0.0040427814
000260 c3 d3 d4 bb 1a 65 28 bc 73 f8 a6 3b df a8 d4 bc
       -0.0064949705 -0.010278011 0.0050955354 -0.02595943
000270 8b 60 7a 3b 93 4a 50 bb 9d 33 80 3c 96 1e 3c ba
       0.0038204517 -0.003178273 0.015649611 -0.00071761885
000280 c0 6c a2 3c 21 de 92 3c fa 02 0b 39 3e 89 56 bd
       0.019827247 0.017928185 0.00013257182 -0.052376978
000290 0a c5 95 bb c4 51 95 bc 60 22 5d bb 84 ec ac 3b
       -0.004570608 -0.018227465 -0.0033742413 0.0052772183
0002a0 2a 39 a9 bb de 23 c9 3c cd c5 cc 3c 9c 1a d6 bb
       -0.005164285 0.024553236 0.024996663 -0.006533934
0002b0 f6 68 39 3b 7a 42 df bb a3 8a 98 bc 7e 41 16 3d
       0.0028291321 -0.0068133445 -0.018620795 0.036683552
0002c0 ef 52 ea bc 2c 82 11 3d ae 8d d3 3c 1e 78 25 bd
       -0.028603999 0.035524532 0.025824394 -0.040397756
0002d0 36 4d a4 3c d9 6b 44 3c 1b dc d4 ba f0 e8 f7 bc
       0.020056348 0.0119886035 -0.0016239913 -0.03026244
0002e0 4f 07 14 3d 82 13 df bc 8e 3d 8e bb 8f e8 ae bb
       0.036139783 -0.027230982 -0.004340834 -0.0053377817
0002f0 c0 8c 01 bd 8c 7b 07 bc ad f7 30 3c 56 3a 3a bd
       -0.03162837 -0.008269202 0.010801238 -0.04546579
000300 56 c6 f5 bc 6a b9 31 bb e6 1c b5 bb cc 25 06 3d
       -0.0300018 -0.0027118572 -0.0055271266 0.03275089
000310 35 63 35 bb 2d ad 21 bd a8 76 40 bc b9 ba d2 3b
       -0.002767754 -0.039471794 -0.01174704 0.0064309505
000320 36 0c 5f bb 21 58 13 bc f0 55 17 3d e0 f6 c1 bc
       -0.0034034378 -0.00899318 0.03694719 -0.02367729
000330 32 d3 9d bc 82 4b c0 39 6d 1c 70 3c 20 0c 6d bc
       -0.019265745 0.0003667735 0.014655215 -0.014468223
000340 b5 60 48 bb 05 a7 72 3c d9 f2 21 3d 18 08 11 bd
       -0.003057522 0.014810328 0.03953824 -0.03540811
000350 98 34 e2 bc 36 87 ea 3c 89 1e b5 bc 18 f1 6f bc
       -0.02761297 0.028628927 -0.022109287 -0.014644884
000360 0d 10 46 bd aa 90 05 bd 23 cc 62 3c 44 7d a8 3b
       -0.04835515 -0.032608666 0.013842615 0.005141886
000370 fd 18 d8 3a 4a f9 eb 39 68 a6 98 39 a5 df 64 bb
       0.0016486939 0.00045008428 0.00029115682 -0.0034923342
000380 f6 41 9c 3c 59 00 09 3d 16 d0 63 bb ed 4e 8a bb
       0.019074421 0.033447597 -0.003476148 -0.0042208345
000390 7c 4f 4e ba 10 3e 63 bc 81 43 bd bb 0d 8f 7a bc
       -0.00078701205 -0.013869777 -0.0057758694 -0.015292895
0003a0 39 cf a1 3c ce 8f 01 3c c9 20 4f 3c 3b ef 52 3c
       0.019752132 0.007907821 0.012642094 0.01287442
0003b0 68 82 43 bc 77 0c 1f bb 50 a0 1d bb a7 b7 ee bb
       -0.011932947 -0.0024268904 -0.0024051853 -0.0072850767
0003c0 58 65 91 ba cb b6 30 bd 4d 09 45 3c 4f 05 1c bb
       -0.0011092825 -0.043143075 0.012026143 -0.0023806875
0003d0 da 65 03 3c fa cc 0c bd 5c d8 a8 3c 05 0a 8c 3b
       0.008019889 -0.03437517 0.02061098 0.0042736554
0003e0 6d e6 32 3c 8b 08 64 3c 88 0b 73 3a 18 28 9c 3c
       0.010919196 0.013918052 0.00092714326 0.019062087
0003f0 a9 0e c1 3c 24 29 d5 3c cc 08 c0 3b f0 42 bb bc
       0.02356656 0.026020594 0.0058604237 -0.022859067

network_body._body_endoder.seq_layers.2.weight f4 [256, 256]
000000 8c cf 7f 3c 4c 6e 85 bc 59 28 a7 bd 13 c2 64 3d
       0.015613448 -0.016287945 -0.081619926 0.055849146
000010 ab c1 f6 bd a5 41 b2 3c f1 bb b1 bc cd a8 93 bd
       -0.12048658 0.021759817 -0.021696063 -0.072099306
000020 c7 d0 dc bc c4 0f 18 3e 80 2e 08 bc 9b 87 8e 3c
       -0.026955022 0.14849764 -0.008311868 0.017398646
000030 84 06 8e 3c b5 42 31 3d f9 23 57 bc 09 42 1a bd
       0.017337091 0.043276507 -0.013131135 -0.037660632
000040 39 01 3c bc fa 62 1c bd 82 2c d3 3d d2 69 c5 3c
       -0.011474901 -0.03818033 0.103112236 0.02409831
000050 6f ae f0 bc 8e 31 aa 3c b8 20 0c 3e 03 3e 64 3c
       -0.029380051 0.020775583 0.13684356 0.0139308
000060 5e f8 8a bd 12 e9 cd ba 9c cb 14 3c 5d 8f dd 3c
       -0.067856535 -0.0015709719 0.009081747 0.0270459
000070 63 b9 85 bc 31 69 ae 3d 40 ed ce bd 4f 81 c4 bd
       -0.01632375 0.085161574 -0.101038456 -0.09594976
000080 e8 e5 2a bd c6 53 0d be cb c3 2e bd 73 ab 20 bd
       -0.041723162 -0.13801488 -0.04266719 -0.039226007
000090 41 11 08 be db af 73 bb 1a 8f 07 bd 0d ef e7 bc
       -0.13287832 -0.0037183675 -0.033095457 -0.02831223
0000a0 b2 ea 08 bd 8c 86 3c 3d ab 4b 47 3d 2c c4 95 bd
       -0.033426948 0.04602675 0.048656147 -0.073128074
0000b0 42 c2 c0 3b 6a aa a7 3d c0 2e 3e bd a4 2d b5 3d
       0.0058825323 0.08186801 -0.046431303 0.08846596
0000c0 57 a7 98 bd 55 9f 97 bd 3b 14 0f 3d d5 ca 43 bd
       -0.074537925 -0.07403437 0.034931403 -0.047800858
0000d0 d8 c0 06 3d 65 23 da 3d b3 59 90 3c 5e a5 85 bd
       0.032898754 0.10651282 0.017620897 -0.06525682
0000e0 0b 38 57 bc ee ac e1 3d b7 c4 85 3c b8 89 3c bc
       -0.01313592 0.11019312 0.016329153 -0.011507444
0000f0 09 26 bf 3b 9b f7 64 bd 27 a6 6b bd 6a b8 78 3d
       0.0058333916 -0.055900197 -0.057531502 0.060722746
000100 96 6a 8e bd 64 93 c7 bd 33 78 0c bc 27 8b 8f bd
       -0.069539234 -0.097449094 -0.00857358 -0.07008963
000110 50 46 1c 3d bd b1 8f bd 96 ab 28 3d d4 8c 0b 3d
       0.038152993 -0.07016323 0.041179262 0.03406985
000120 db 0d d3 bc cb f5 8f 3d 0a 74 d6 3d 12 f4 b6 bd
       -0.025763443 0.07029303 0.104713514 -0.089332715
000130 15 e0 68 bc 12 4f 68 bc 7c 5f 11 3d 24 b4 03 be
       -0.014213582 -0.014179008 0.03549145 -0.12861687
000140 36 2c d3 bc a3 a4 29 bd 3b eb ab bd b4 91 f5 3b
       -0.025777917 -0.041416775 -0.08394476 0.007494176
000150 88 6e 5c 3d 1b 5a e5 bb da 1e 8d bc cc 0a 1e 3d
       0.05381635 -0.006999267 -0.017226625 0.038584515
000160 ec 82 6a 3d 51 e7 96 3c 61 af b6 bc 22 0a d9 bc
       0.057253763 0.018420847 -0.022300424 -0.02649409
000170 0b d9 83 bc 7c 0a ca 3c 37 40 7a 3d 4e 3a 6f 3d
       -0.016094705 0.024663202 0.061096396 0.058405213
000180 21 6e 85 3d 9d 96 4d bd d1 3a 15 bd 90 0b 67 bc
       0.06515146 -0.050192464 -0.036433045 -0.014101878
000190 a3 d3 85 3d 5b 24 35 3c 54 1a 34 3d e4 ad 74 3d
       0.06534507 0.011056031 0.04397042 0.059736148
0001a0 07 26 45 bd bd f0 72 3d ab e3 e3 bd 9d fc 09 3d
       -0.04813197 0.059311617 -0.111274086 0.033688176
0001b0 b9 66 1d 3d 53 c9 86 3c 07 3e 99 3d ff 95 0a 3d
       0.038428042 0.01645342 0.07482534 0.033834454
0001c0 a2 f5 94 3d 35 0c d4 3c 74 e4 70 bd 12 0d ea bc
       0.07273413 0.025884727 -0.05881162 -0.028570686
0001d0 ad 68 da 3b f9 58 43 bc eb c8 72 bc 34 01 25 3b
       0.0066653104 -0.011923068 -0.01481841 0.002517772
0001e0 dd e7 da 3c d1 e2 be bd 91 af 0b bd 8c de cd bc
       0.02672189 -0.093206055 -0.03410298 -0.025130533
0001f0 9c 0d 1c 3e eb d4 f2 bc ea b4 2d bd 24 7b 10 3e
       0.15239567 -0.029642543 -0.04240886 0.14109474
000200 a0 ce a1 3c 4c 72 1b bd 4d 37 31 bd 98 be 20 bd
       0.019751847 -0.0379508 -0.04326563 -0.039244264
000210 b0 d6 4c bd 6d f1 7a 3c 15 d0 23 be e0 39 6b 3c
       -0.05000943 0.015316349 -0.15997346 0.01435706
000220 45 12 1e 3c b8 3a bf bc 19 fe a0 3d e6 02 ba 3d
       0.0096479105 -0.023343429 0.07860965 0.09082584
000230 c0 25 fd 3c b8 41 e2 3c 86 f7 01 bb 52 af b7 3c
       0.03090179 0.027619228 -0.0019831373 0.022422466
000240 3b 22 95 bd 1f ac 27 bc a4 12 9c 3d f7 21 66 3b
       -0.072819196 -0.010233908 0.07620743 0.003511546
000250 7c 20 4b 3d 18 65 cd 3d c2 75 68 bd 15 ad 24 bd
       0.049591526 0.10029048 -0.056752928 -0.040204126
000260 1b a1 d5 bd 4e bf 29 bd dd 18 3f bd cb 6c 56 3d
       -0.10431119 -0.041442208 -0.04665457 0.052349847
000270 6f 01 c4 3d df cb bd 3c 1d a3 e2 bd 8c d3 45 3d
       0.09570586 0.023168502 -0.11066268 0.04829745
000280 aa 62 e9 bc 24 55 e1 bb 24 62 86 bd 53 02 dc bc
       -0.02848943 -0.0068766046 -0.065616876 -0.026856577
000290 ef 6f 9f bb d1 c1 3c 3c 51 d1 e5 3d e4 8a 38 3c
       -0.0048656384 0.011520819 0.112215646 0.011263583
0002a0 95 3a 8a 3d dd d0 1f 3d bd 65 ab bd c5 f0 4e 3d
       0.06749455 0.039017547 -0.083690144 0.050522584
0002b0 42 86 01 bd 3a 8e 41 3c d5 31 e2 3c 8e 4a 06 3d
       -0.03162218 0.011813695 0.027611652 0.032785945
0002c0 ed d1 22 ba 32 22 95 bd fd 7e 88 3c b9 09 b5 3d
       -0.0006211091 -0.07281913 0.016662115 0.08839745
0002d0 c0 8a 8b bd 5e 64 c3 3c 90 ac 1f 3d c1 bd a2 bd
       -0.06813574 0.02385157 0.038982928 -0.07946349
0002e0 b1 83 b6 bd 69 9a d0 bd e9 42 f4 3c 38 ec dc 3c
       -0.08911837 -0.101857014 0.029817061 0.026968107
0002f0 e2 c2 04 3d 6f ce 02 3c 50 55 b6 3c 63 90 1a 3b
       0.032412417 0.007983788 0.022257477 0.0023584596
000300 f9 4d 9d bd 9c b8 c3 3c eb 6c f6 3d 8f 16 06 3e
       -0.07680888 0.02389174 0.12032493 0.13094543
000310 b9 ed 5c bd 86 8e 0f 3b 51 20 47 bc 85 f2 7c 39
       -0.053937647 0.002190502 -0.012153701 0.00024122938
000320 86 d1 b3 3d 05 24 81 3d f4 15 2b bd f8 43 c1 bd
       0.08780198 0.06305698 -0.041768983 -0.09436792
000330 5a 94 c2 bd ef b9 18 bd b4 69 df 3d 8f 12 7f 3d
       -0.09500952 -0.037286695 0.10908833 0.06227356
000340 e3 60 d0 bd bc 30 0b be 0c ba dd 3c 58 86 5e 3c
       -0.1017473 -0.1359281 0.027066253 0.013581835
000350 8f c1 98 bc 12 5a 21 3d ef f8 99 3c 57 04 43 3d
       -0.018646983 0.03939254 0.018795459 0.04761156
000360 b7 4f ad bc c3 22 ba bc f3 c6 51 bd 9e 96 3c bd
       -0.021156175 -0.022721654 -0.051215123 -0.046042077
000370 41 37 04 be fb 99 e7 bd a7 85 6f 3d 33 60 b1 3b
       -0.12911703 -0.11308666 0.05847707 0.005413079
000380 61 e8 ac bc 32 1f 39 bd 80 4e 74 3b ac 35 13 3e
       -0.0211069 -0.045195766 0.0037278235 0.14375943
000390 43 d1 5e bd 39 0a 99 3c fe 3e cb 3d e9 ba eb bc
       -0.054398786 0.018681632 0.09924124 -0.02877565
0003a0 4b 58 a7 3a be 3c 0b 3d 24 aa dd 3c e6 04 97 3d
       0.0012767402 0.033993475 0.027058668 0.07373981
0003b0 fa c6 c4 3c 67 a7 00 be fb c5 24 bd d8 8e 82 b9
       0.02402066 -0.12563859 -0.04022787 -0.0002490196
0003c0 03 c1 f1 3d 79 f4 bb bd 07 06 40 bd e5 2f bc 3d
       0.11804392 -0.09177489 -0.046880748 0.09188823
0003d0 eb d1 1f 3d fa f0 aa 3c 63 a0 cd bd e8 cf 78 3d
       0.039018553 0.02086686 -0.10040357 0.06074515
0003e0 ce 02 e4 3c d4 59 c3 3d c8 88 f2 3d 38 d2 ff bc
       0.027833369 0.09538618 0.11842495 -0.03122817
0003f0 02 45 f7 bd 5b da 09 3d aa c9 a5 3c d0 c4 3d 3b
       -0.12073709 0.033655506 0.020237762 0.002895642

network_body._body_endoder.seq_layers.2.bias f4 [256]
000000 9f c9 b7 bb ba 62 75 3b 15 09 6a bb 9c e0 73 39
       -0.005608752 0.0037442879 -0.003571098 0.0002325796
000010 08 64 43 bb 63 0d 63 bc dc 13 10 3d 6a 4d 39 bb
       -0.0029814262 -0.013858172 0.03517519 -0.0028274902
000020 ae 3d 0d bd 85 05 dc 3c 0e 94 26 bb de 2c d4 ba
       -0.03448265 0.0268581 -0.0025417837 -0.0016187688
000030 89 06 70 bb d9 e2 5b bb a9 01 ce bc 36 2a 03 3d
       -0.003662499 -0.003355196 -0.025147276 0.032022677
000040 9b 9f ba bb f1 57 2c bb f9 9e 62 3c 0e 6e 16 3c
       -0.005695296 -0.0026297534 0.013831847 0.0091815125
000050 0a 51 0f bb 2d 1a a5 ba 07 94 1f bc ef ac b4 bc
       -0.0021868371 -0.0012596302 -0.009739882 -0.022055117
000060 c6 d0 52 3c 6f 8c 91 3c eb c6 91 bb f7 c0 eb b9
       0.012867158 0.01776716 -0.0044487617 -0.00044966463
000070 dc 75 6d 3c 80 84 02 bc 65 cf c2 bb ee e5 12 bb
       0.014493432 -0.007966161 -0.0059451335 -0.002241488
000080 8e 9c a9 3c fc 3e 24 bc 12 a5 1f 3c 23 50 0a 3d
       0.020704534 -0.010024782 0.009743946 0.03376783
000090 63 6c f0 ba a0 cc 9f bb cf 67 b9 bb a5 63 5f bb
       -0.0018342849 -0.004876688 -0.005658127 -0.0034086492
0000a0 42 86 cd bc de 66 05 bc ae a7 96 bb 66 b6 06 3d
       -0.025088433 -0.008142201 -0.0045976257 0.032888792
0000b0 04 f1 2b bc 1f bb 14 bb c4 fc c3 bb 73 27 36 3c
       -0.010494474 -0.002269454 -0.0059810597 0.011117804
0000c0 1b b3 0d bc da 09 4c 3b b5 aa a9 bb ed f4 43 3a
       -0.008648659 0.0031133802 -0.0051778206 0.00074751565
0000d0 1f 5a 8c 3b 5b 0f c1 bb 83 7f f0 bb c9 19 8b ba
       0.004283204 -0.005891723 -0.0073394193 -0.0010612543
0000e0 e0 e3 87 bc b1 1c cb 3b be e2 46 3c d4 9f d6 3c
       -0.016588151 0.0061984886 0.0121390205 0.026199259
0000f0 08 9f d6 bb 9c 3a 2a 3b c3 f3 9c ba 3e 1f f4 3c
       -0.0065497197 0.0025974875 -0.0011974502 0.029800054
000100 74 92 aa 3c ca 5c 20 bb c3 32 10 3d 4a 4f 07 bc
       0.020821787 -0.002446937 0.03520466 -0.00825865
000110 d8 a1 58 bc a8 7a 13 bc c5 10 b9 ba 02 17 b0 3b
       -0.01322218 -0.0090014115 -0.0014119378 0.0053738365
000120 c8 95 1e bd aa 82 e0 ba c1 ef 10 bd 7a 3c f1 3c
       -0.03871706 -0.0017128785 -0.035384897 0.029447783
000130 47 2b 0f 3d 9e 8b 55 bc 45 36 23 bc 30 f1 f9 3c
       0.034953382 -0.013033776 -0.009961669 0.030510515
000140 9f e1 58 bb a0 59 1e 39 34 b7 ca bb 70 32 8d bb
       -0.0033093465 0.00015101442 -0.0061863903 -0.004308991
000150 f1 c9 cd bb ab ca 58 3c 23 d4 3e ba cb 10 43 bc
       -0.006280177 0.013231914 -0.00072795356 -0.011905859
000160 05 47 a4 ba 31 31 a5 bb 42 78 32 3d 18 25 79 3c
       -0.0012533373 -0.0050412645 0.043571718 0.015206598
000170 5b 2a 28 bb df 69 8e bb 0f 1e 26 bb df a6 a2 3a
       -0.0025660011 -0.004346117 -0.0025347506 0.0012409351
000180 a6 68 a9 bb ba d9 93 ba 7a 78 a2 3b 47 41 46 b9
       -0.005169946 -0.0011280098 0.0049582096 -0.00018907069
000190 98 fa 27 bc 85 2c 65 3c 90 d3 bc 3c e5 81 3c 3d
       -0.010252617 0.013987665 0.0230501 0.046022315
0001a0 dc b9 6e 3b 1e c1 cd 3a 70 65 bd ba 66 39 78 3b
       0.0036426699 0.0015697812 -0.0014449786 0.003787601
0001b0 fb da ef ba bf 8f e1 ba 33 8f 88 bb f1 c2 8f bb
       -0.0018299514 -0.0017208977 -0.0041674613 -0.0043872525
0001c0 09 1a 39 3d f8 a8 82 3b 24 b5 9b ba 74 ef fc bc
       0.045190845 0.003987428 -0.0011879546 -0.030875899
0001d0 79 f5 84 ba f8 00 3d 3d 99 ae 17 ba 9a c7 eb bc
       -0.0010143957 0.046143502 -0.000578621 -0.0287817
0001e0 16 d4 c0 bc 1c 0f 81 ba 81 91 c4 bb 82 02 57 3b
       -0.02353863 -0.0009846422 -0.0059987907 0.0032807891
0001f0 84 33 58 bc 2d c5 31 3d 51 4a 18 3a 7c 23 e3 bb
       -0.013195876 0.043400932 0.0005809414 -0.0069317203
000200 0a 88 92 3c d2 1c 7d bb 06 6a 07 bb 7a 11 02 bc
       0.017887134 -0.0038621915 -0.002066256 -0.007938737
000210 60 55 b9 bb 66 d5 35 bb 57 c2 f5 3a e7 c9 b7 bc
       -0.0056559294 -0.0027745604 0.0018749934 -0.022435142
000220 da 2a 53 ba 6e d2 18 3d 3a 6e be bc b2 34 67 3b
       -0.00080553966 0.037310056 -0.02324592 0.0035279212
000230 c6 64 36 3c f0 eb d5 bb ce 02 8b b9 f5 05 87 3c
       0.011132425 -0.00652837 -0.00026514236 0.016482333
000240 76 3f 1a 3d 3f 6b 3f bb 85 a7 2e 3b af bc af 3c
       0.037658177 -0.002920821 0.0026650142 0.021452276
000250 26 f2 29 bb 48 88 09 bc 78 0c c6 ba d2 e8 1c bc
       -0.0025931685 -0.008394308 -0.0015109917 -0.009576993
000260 38 fb a2 ba 80 c0 4e bc b5 c5 15 3d 8d e6 ff bb
       -0.0012434488 -0.012619138 0.0365655 -0.007809466
000270 7c b4 4a 38 d0 b8 d7 3b 63 b6 9f bb 45 c1 8d 3b
       4.8328642e-05 0.0065833107 -0.004874037 0.004326018
000280 bc 8a 66 bb d2 3f 03 39 62 98 04 bb ec 9b 42 3c
       -0.0035177907 0.00012516908 -0.0020232429 0.011877995
000290 88 44 97 3a 78 50 2b bb 6c 5f be bb 78 13 82 bb
       0.001154081 -0.0026140492 -0.005809715 -0.003969606
0002a0 b1 b4 49 3c d4 9a ff bb 25 55 14 bc 69 ed 24 bb
       0.012311147 -0.0078004394 -0.009053503 -0.0025165922
0002b0 59 a7 0e bb 19 a3 eb bb 8f 91 f5 bb e6 65 cb bb
       -0.0021767227 -0.0071910736 -0.0074941586 -0.0062072156
0002c0 a9 fa a6 bb a0 0a 97 3b 8a 5a a0 3c b0 a1 f8 bb
       -0.005095799 0.004609421 0.019574422 -0.007587634
0002d0 98 71 4f 3c ce 16 c2 bb 1f 17 32 bc 24 c7 14 bc
       0.01266136 -0.0059231287 -0.01086977 -0.009080682
0002e0 5d 32 7f bb 2c f7 eb ba 91 7b d5 3c 5e b0 06 3b
       -0.003893993 -0.001800274 0.026059898 0.00205519
0002f0 e2 45 cc bb b8 d4 13 3c a3 2e a7 3b 1d c6 64 bb
       -0.0062339166 0.009022884 0.005101995 -0.0034908124
000300 83 c4 af 3b c9 a0 0a bb a6 d7 8d bb f3 42 c2 3c
       0.005364002 -0.0021152964 -0.004328686 0.023713565
000310 a4 21 2f bb f0 8f d1 bc c0 2f 8b bb af 42 16 bb
       -0.0026722932 -0.02558133 -0.0042476356 -0.002292793
000320 d3 46 cf bb 13 31 3f bc 9d 25 a2 ba 3b e6 79 bb
       -0.0063255816 -0.011669415 -0.0012370829 -0.0038131613
000330 2c be d0 ba 29 eb b2 bc c6 29 9a 3b 99 dc 87 3c
       -0.0015925816 -0.021840649 0.004704687 0.016584681
000340 49 e0 93 3b ec 1a 19 3d 33 d4 8c bc fc 67 ac bb
       0.004512821 0.03737919 -0.017191028 -0.0052614193
000350 24 9c a7 3b 97 4e 08 3d e7 63 b4 39 db 37 03 3b
       0.005115049 0.033278074 0.00034406708 0.0020022306
000360 b3 4d b0 bb 42 6e 1d bc 9f 84 1a 3b fc 6c 1c 3d
       -0.005380356 -0.009608807 0.0023577583 0.038189873
000370 9a 24 01 bb d6 76 f2 3b 88 64 8f bb 74 14 00 3b
       -0.0019705654 0.0073994203 -0.004375998 0.001954344
000380 fa 29 7c 3c d4 f4 12 bd 91 f7 83 bc 64 e7 18 3c
       0.015390867 -0.035878018 -0.01610926 0.009332512
000390 93 7e fd b9 2d f5 24 bb 92 2a 9e 3b d8 dd d2 3b
       -0.00048350226 -0.002517055 0.004826852 0.0064351372
0003a0 40 b1 05 bc 5b c2 c2 bc 9e ab 9b 3c d1 32 48 bb
       -0.0081599355 -0.023774317 0.019002732 -0.0030547867
0003b0 60 6a 00 bd 1f 4a 92 ba 46 15 b9 bb 9e 01 76 bb
       -0.031351447 -0.0011161006 -0.005648288 -0.0037537585
0003c0 01 72 c4 3b 55 55 10 3a f6 63 8c bb d1 05 73 3c
       0.0059950356 0.00055058795 -0.004284377 0.01483293
0003d0 88 61 9a 3c dd 8d 45 bb fd d9 49 3b 6a a9 c7 3b
       0.018845335 -0.0030144372 0.0030800097 0.006093194
0003e0 98 d5 27 bc d8 11 20 bc 9f 5f d9 3a 78 d9 83 bb
       -0.010243796 -0.009769879 0.0016584283 -0.004023727
0003f0 a2 1c 53 3a af 5d e1 3c 6b e3 43 bc ab 40 82 bb
       0.0008053278 0.027510492 -0.011956076 -0.003974994

network_body._body_endoder.seq_layers.4.weight f4 [256, 256]
000000 a0 8f 04 bd ae c8 1f 3d bb ae c4 3d 83 73 2e b9
       -0.032363534 0.039009742 0.0960364 -0.00016636965
000010 b4 33 95 bd 1f 87 03 be a7 68 a3 bc 6a b4 9c 3b
       -0.07285252 -0.12844513 -0.019947363 0.004782249
000020 fa 1b 67 3d a3 42 35 3d 50 7e 12 be fe 98 62 bc
       0.056423165 0.044253003 -0.14305997 -0.0138304215
000030 16 e6 e1 3c 08 81 e7 3c c7 6b 55 bd 61 ba 2b 3c
       0.027575534 0.02825977 -0.052104738 0.010481448
000040 15 be 46 bc 32 43 56 bc ed a9 f1 bd f5 1b 87 3c
       -0.01213028 -0.013077544 -0.11799989 0.016492823
000050 ed 78 e5 bd 4a 2e 48 bd 6b 56 8b 3d b0 ba a7 bd
       -0.112047054 -0.04887227 0.06803592 -0.08189905
000060 7d b9 a1 3d 76 72 48 3d 0b a6 7d bd 83 b3 1d 3d
       0.07896707 0.048937283 -0.06192593 0.038501274
000070 a2 74 ef bd ca 80 92 bd 87 b3 b0 bd 62 eb 02 bd
       -0.11692168 -0.07153471 -0.08627992 -0.03196276
000080 8f 35 6b bd 56 81 2a bd ce ec 98 bc 00 84 0c 3d
       -0.057424124 -0.04162725 -0.018667605 0.034305573
000090 5c f3 36 bd e5 d8 41 bd f1 c0 5f bd f8 75 1e 3c
       -0.04466568 -0.047325987 -0.054627363 0.009671681
0000a0 27 1a 16 bd d0 49 25 3d 94 a8 c0 3b 35 ed 94 3c
       -0.036646035 0.040353596 0.005879471 0.018179515
0000b0 c4 6f 72 bc f1 7c 8a 3d 9b 08 71 3d c2 f1 87 bc
       -0.014797155 0.06762112 0.058846097 -0.016594771
0000c0 07 0b 11 be a7 9e 13 be 32 a1 ba 3b 6a 96 88 bc
       -0.14164363 -0.1441599 0.0056954855 -0.016673286
0000d0 9a 6c 60 3d e7 cd ab 3c 13 db a5 bd ec ed 94 bc
       0.05479107 0.020972205 -0.08098426 -0.018179856
0000e0 19 fe e2 bc bf 96 cf 3c aa d7 67 bc 0e 7d 19 3d
       -0.027709054 0.025340436 -0.014150539 0.037472777
0000f0 29 25 26 bd 0c d7 04 3e cf 59 3c 3d 32 07 93 bc
       -0.040562782 0.12972659 0.045984086 -0.017947767
000100 93 9d a0 bc fc 12 79 3d dc 15 ac 3d 30 e7 f6 3d
       -0.019606387 0.06080912 0.08402607 0.12055814
000110 e3 d3 9d bd 63 07 09 3d 21 9a ae bd c0 31 6a 3d
       -0.0770643 0.03345431 -0.085254915 0.05717635
000120 49 ba 90 3d 58 0b dc 3d 37 86 84 bd 1b 67 b5 3b
       0.07066781 0.10744351 -0.06470912 0.005535973
000130 4e ad 38 bb 09 b3 b0 bd db 3f 85 3d 33 25 86 3d
       -0.002817947 -0.08627898 0.0650632 0.06550064
000140 6f 3d 89 bb 4f 91 47 bd 4a 02 a0 bc b4 95 d0 bd
       -0.0041882317 -0.04872256 -0.019532342 -0.101848036
000150 c7 82 15 3c 07 35 d9 3c ff 90 87 bd 98 23 52 bc
       0.009125418 0.026514543 -0.06619453 -0.012825869
000160 e1 10 0d bd 0b ba fe bc d2 16 3a 3d a0 d5 08 3d
       -0.034439925 -0.031094572 0.04543192 0.033406854
000170 af c2 ff 3c dd 00 85 bc 28 b5 80 bd dc 8f 29 bd
       0.031220762 -0.016235763 -0.06284553 -0.04139696
000180 e5 44 86 3d d3 23 f3 bc 97 e1 f3 bd e8 d1 6a bd
       0.06556109 -0.029680168 -0.11908262 -0.05732909
000190 80 fc 70 3d 51 4c 78 3d 50 54 b2 39 7b e5 78 bc
       0.058834553 0.060619656 0.00034013623 -0.015191431
0001a0 b6 b5 3a 3d e9 75 6d 3d bc 1b ea 3c 0f 19 28 3d
       0.04558345 0.057973776 0.028577678 0.041039523
0001b0 3f 01 94 bc 5e 92 10 3d 66 c0 ba 3d 8e fe 91 3d
       -0.018067 0.035295837 0.09118728 0.071286306
0001c0 e0 13 ca 3d e5 9c ba 3d 5a 3c 21 3d 9a 60 bd bd
       0.09867072 0.091119565 0.039364196 -0.09246941
0001d0 3d d2 63 bd aa 54 7f bb 95 7a 10 bd 64 b5 ca bc
       -0.05562042 -0.0038960376 -0.035273153 -0.024744697
0001e0 ac 64 e5 bb fb f9 f2 3c a0 d0 0f bd ed 57 de bd
       -0.0070005264 0.029660216 -0.03511107 -0.10856614
0001f0 d5 1d c2 3c 31 1c b6 3d 0e 77 33 3c e9 68 81 3d
       0.023695866 0.08892096 0.010953678 0.06318838
000200 8f 8f f7 bc 01 93 32 bd 72 6f 22 bd 8d 4e 45 3d
       -0.030219821 -0.043597225 -0.039657064 0.048170615
000210 97 94 08 bd 0b c9 52 bc ed 2c 07 be 92 77 69 bd
       -0.03334483 -0.012865315 -0.13200732 -0.056998797
000220 5f de c3 3d 88 aa b2 3c 14 ce f3 3a 9b 98 37 bc
       0.09563898 0.021809831 0.0018600845 -0.011205818
000230 9f f3 98 3c 91 05 17 bd 21 ff c2 3d 08 15 76 bc
       0.018670855 -0.036870543 0.09521318 -0.015019663
000240 05 52 3b 3d 66 b0 d1 3c 96 9f 14 3b 59 ff 8e bd
       0.045732517 0.025596809 0.0022678128 -0.069822975
000250 ee be 5a be 98 63 0c 3e 11 dc 37 3d fd ee 10 3c
       -0.21361896 0.13709867 0.044887606 0.008846042
000260 9b d7 01 ba 59 19 12 bd 2a ed d2 3d f3 1c b0 3c
       -0.0004953087 -0.035668705 0.10299142 0.021498179
000270 94 73 04 3d da 7b 2b 3d a5 7f c1 3c 4a c7 82 bd
       0.032336786 0.04186616 0.023620436 -0.063856676
000280 ff 66 86 bb 2b 9d 48 bd 1c cc 09 3d fe 08 c2 3c
       -0.0041016336 -0.048978012 0.03364192 0.023685928
000290 8c a8 b8 bc 90 9d 95 bd 34 39 87 3c 5f 58 04 3d
       -0.022541307 -0.07305443 0.016506769 0.03231084
0002a0 8d ec 9a bd 45 41 d8 3c 72 a1 a4 bd 4f d4 95 3c
       -0.0756465 0.02639831 -0.08038606 0.018289713
0002b0 22 6d b5 bd 1d 57 c9 39 1f 26 b2 bb f6 2d 5b 3d
       -0.08858706 0.00038402612 -0.0054366733 0.05351063
0002c0 3a a4 9b 3d 46 a3 f5 3d 9e 12 a8 ba 11 48 1b 3d
       0.07599683 0.119940326 -0.0012822931 0.037910525
0002d0 0d b5 1e bd b3 06 59 3c 2b 75 8e bd 89 ab 61 3d
       -0.038746882 0.013246226 -0.06955942 0.05509523
0002e0 fa 66 8e bc 43 e0 4f 3d 79 98 3b bd 39 43 3d 3e
       -0.017383087 0.050750982 -0.045799706 0.18482675
0002f0 3e f4 a0 bb b9 a3 3e 3d fc 53 81 bd db da 3d be
       -0.0049119284 0.046542857 -0.06314847 -0.18540518
000300 27 c5 7a bd 26 ca 9b 3d f5 b8 27 3d eb 4a 52 3d
       -0.061223175 0.07606916 0.040947873 0.05134098
000310 71 ea 8c 3d e8 27 f7 bd fe 43 e9 bc ed 0d c1 3b
       0.06880654 -0.120681584 -0.028474804 0.0058915527
000320 85 a4 b0 bc 6e a1 ae 3d f5 0a fe bd cc 1d ba bd
       -0.021562824 0.08526884 -0.12404434 -0.090877146
000330 95 8d 86 3c 7f 59 8c 3d b8 bf 4a 3d 96 96 3f 3d
       0.016424933 0.068530075 0.049499243 0.04677447
000340 90 b5 ab 3d 9a 3b 21 3e 7d 74 31 3d 2c 78 1b bd
       0.0838424 0.15745392 0.043323983 -0.0379564
000350 b3 bb 94 3d c7 6e 25 3d 91 81 5b 3d ed a7 30 bd
       0.07262363 0.04038885 0.05359036 -0.043128897
000360 8d 40 3d bd 97 7b 51 3d 5b e9 82 3d a9 e9 70 3d
       -0.04620414 0.051143255 0.06392165 0.058816586
000370 8c 69 df bd 7b 26 0f 3c 25 fb 04 bc ab d3 11 3c
       -0.10908803 0.008737202 -0.008116518 0.008900563
000380 7b d9 db bc e3 f3 f1 3c 5e 43 92 bd f5 54 bd bd
       -0.026837101 0.02953524 -0.071417555 -0.0924472
000390 ce 42 14 3d 9e 1c 2f be c3 59 83 bc 24 d4 27 3c
       0.036196522 -0.1710076 -0.016034013 0.010243449
0003a0 49 df 90 3c 15 d7 9a bb 36 f8 ad 3d a5 9e c2 bc
       0.017684596 -0.004725347 0.08494608 -0.023757288
0003b0 4f 7a 0f bd 0c 69 d4 3b 34 c1 99 bd ab 4d 36 3d
       -0.035028752 0.006482249 -0.07507554 0.044507664
0003c0 33 ec 29 3d af b4 96 bc 67 9a 30 3d d7 37 de bb
       0.041485023 -0.018396704 0.043116 -0.006781559
0003d0 26 59 df bd af 1c e1 3d ba 88 bb bc c6 8f 61 3d
       -0.109056756 0.10991799 -0.022892345 0.055068754
0003e0 d4 ab 34 3c ca 33 9e 3c b1 a2 2a bc 9d 92 9f bc
       0.011027295 0.019311804 -0.010414765 -0.01947909
0003f0 79 5d 80 3c c7 dc 0b 3b b6 7d 3b bd 19 d0 91 bd
       0.015669571 0.002134131 -0.045774184 -0.071197696

network_body._body_endoder.seq_layers.4.bias f4 [256]
000000 a0 4d 2d 3d cc 67 18 3d e4 ea 22 3b 4a 59 22 3b
       0.042310357 0.037208363 0.0024859244 0.0024772459
000010 1b 92 64 bc 7b 71 94 3c e8 93 60 bb b5 1c f8 bb
       -0.01395085 0.018120518 -0.0034267846 -0.0075717815
000020 44 f9 8f bb 94 75 1b ba 41 d2 02 bb ff 78 84 bc
       -0.0043937284 -0.0005930301 -0.0019961747 -0.016170977
000030 23 b8 a6 bb 3c 9e e4 bb ef 2d 96 bb 23 e7 b1 bc
       -0.005087869 -0.006976871 -0.0045831124 -0.02171666
000040 fe 9c 2f 3d 70 f2 8f bb c5 d1 51 bb 88 46 2b bd
       0.04287433 -0.0043929145 -0.0032015902 -0.04181531
000050 50 02 d1 ba 23 11 ec b8 b4 22 da bb 96 a5 f6 3b
       -0.0015946124 -0.00011256549 -0.006656969 0.0075270636
000060 6b 90 07 3c a8 55 47 3b f2 e8 5b bb 6b 58 d7 bb
       0.008274178 0.0030416045 -0.0033555594 -0.0065718195
000070 b2 ab c8 bb 72 33 da bb 20 33 dd 3b 2d b3 04 bc
       -0.0061239833 -0.006658965 0.0067504793 -0.008099359
000080 7e ec 28 bc f7 77 65 bb ea 00 df 3b 41 0a b1 3c
       -0.01031029 -0.0035014132 0.006805529 0.021611335
000090 1d 50 c6 3c 46 23 23 bc 50 09 92 3b 6a 1b 42 bc
       0.024208123 -0.00995714 0.0044566765 -0.011847356
0000a0 d1 57 30 3c d2 01 a5 bb f1 8e 96 bc 34 ab 34 bc
       0.010763125 -0.0050356174 -0.018378707 -0.011027146
0000b0 7f 0d 41 bb ef d1 1c 3a 40 12 88 bb 4e a9 17 bb
       -0.0029457507 0.000598221 -0.004152566 -0.0023141685
0000c0 eb f1 97 bb 99 f8 43 bc 1a 7b 22 3c 66 41 a1 ba
       -0.004636993 -0.011961126 0.009917045 -0.0012302815
0000d0 cc bc 9e 3a d6 7f 89 bb fe 63 2d ba 49 d6 99 ba
       0.0012110709 -0.0041961474 -0.0006614326 -0.0011736836
0000e0 48 f4 12 bc 61 75 3e 3b da c8 16 3d ff 8b 46 bb
       -0.008969374 0.0029061662 0.03681264 -0.0030295847
0000f0 39 55 37 bc 07 af 0e bb 2e f9 c0 bb 14 09 ae bb
       -0.011189752 -0.0021771805 -0.0058890795 -0.005311141
000100 e4 96 18 bc 92 6d 04 3d da d3 eb 3b b0 56 6c bb
       -0.009313319 0.032331057 0.0071968855 -0.0036062412
000110 9b 60 0e bc ab 72 a7 bb cd 19 29 bc 7f 70 0b bb
       -0.008690025 -0.005110105 -0.010321093 -0.002127677
000120 0f 00 db bc 8a 75 95 ba 43 94 4f 3c 35 15 b9 3b
       -0.026733426 -0.0011402827 0.012669626 0.00564828
000130 91 44 b6 3b a6 5a ad 3c b9 88 29 bb be b8 06 3b
       0.005562373 0.021161389 -0.0025868847 0.0020556892
000140 e1 d3 cd bc 40 a2 11 bb 06 f9 c8 bb 41 51 de 3b
       -0.025125446 -0.0022221953 -0.0061332015 0.0067845886
000150 dc 8b c5 3b 39 6c 30 3a 2f 95 52 3c d5 2d 5c 3c
       0.0060286354 0.00067299936 0.012852951 0.013438662
000160 f2 eb 43 bb 93 ef 95 bb 14 77 63 3b 52 bd 0d bc
       -0.0029895273 -0.0045756786 0.0034708427 -0.0086510945
000170 ad 90 82 bc f3 46 96 3c e7 22 6b bc 08 66 14 3c
       -0.015938127 0.018344378 -0.014351583 0.009057529
000180 75 7c 1c bb 94 0b 07 bc 75 54 c0 3a 8f 04 17 3b
       -0.0023877893 -0.0082425065 0.0014673608 0.0023043489
000190 f1 6b 43 3b af d1 c6 bb 7e c2 75 3a 92 02 94 3a
       0.0029818977 -0.0060674767 0.000937499 0.001129227
0001a0 dc f0 93 bb 53 d6 77 3c da be f4 bb f3 6e 4b 3c
       -0.0045147967 0.0151267825 -0.0074690403 0.012416589
0001b0 04 f4 b0 bb fa d6 82 3c 4e 9f 0c bc 05 79 d5 bb
       -0.0054001827 0.01597165 -0.008582903 -0.006514671
0001c0 7d a9 d4 ba fc 27 15 bb 69 40 03 bd 52 d4 10 bc
       -0.0016224828 -0.0022759428 -0.03204385 -0.008839684
0001d0 52 68 81 3c 41 a5 1c 3b 6a f5 fe bb 7e b4 24 3d
       0.015796814 0.002390221 -0.0077807205 0.040211193
0001e0 eb 20 9a bb b0 ed 10 bb cb 77 cc 3c 67 56 45 3b
       -0.004703631 -0.002211433 0.024959465 0.0030111314
0001f0 4f 4c 83 bb 63 7a 55 3b f8 02 5f bb 15 a6 4f bb
       -0.0040068994 0.003257417 -0.003402887 -0.0031684686
000200 b0 f4 b5 ba f3 ab 9f bb b2 60 9d bb 70 4d 76 bb
       -0.0013882127 -0.004872793 -0.0048027867 -0.0037582777
000210 50 95 53 bc 0d 34 59 bb a7 5c a9 bb 44 30 52 ba
       -0.012914017 -0.0033142597 -0.0051685157 -0.00080180564
000220 48 c8 79 3c 80 b0 93 ba 2f a2 9f 3a f7 e0 b8 ba
       0.015245505 -0.0011267811 0.0012179072 -0.0014105131
000230 33 c8 a5 bc 82 d0 41 3b b3 2d 7d bb d0 fb d7 ba
       -0.020237064 0.0029573743 -0.0038631975 -0.0016478244
000240 e7 92 b4 bb b1 fe 02 bd 9d 94 65 ba c1 ba 2c 3c
       -0.005510676 -0.031981174 -0.0008757802 0.0105425725
000250 83 e5 a5 3c e6 4b 8f 3c ea d2 82 bb c2 3f 05 3c
       0.020251041 0.017492246 -0.003992428 0.008132877
000260 5d d7 4c 3c 95 b9 04 bc c3 ec 71 b9 fd b1 4a bc
       0.0125025185 -0.008100887 -0.00023071752 -0.012371537
000270 cf c2 04 3d b2 c8 6c 3b 72 13 ce bb b0 3e 26 bc
       0.032412346 0.0036130366 -0.006288939 -0.010146782
000280 e2 ba 92 3c a4 a6 96 3c 61 74 9e 3b 23 23 20 bc
       0.017911378 0.018390007 0.004835651 -0.009774002
000290 bd 30 1d bb 75 61 d2 bb d5 4f cf bb 5c 21 c0 bb
       -0.002398535 -0.006420309 -0.0063266554 -0.0058633517
0002a0 80 dc 9c bb 90 6d f2 3c 65 c7 08 bc 82 33 c5 bb
       -0.004787028 0.02959326 -0.008348321 -0.006018103
0002b0 42 85 c8 39 fa d6 1c bb ab db 53 bb 6c fb df 3c
       0.00038246257 -0.0023931847 -0.0032326977 0.027341567
0002c0 fa c3 a7 3c e5 93 8e 3b 12 88 4c 3a 7a 73 6d 3d
       0.020479191 0.0043511265 0.00078022585 0.057971455
0002d0 30 ff e4 bb a0 bc e8 3a d8 7d 32 3b c1 bb 4b bc
       -0.0069884285 0.001775641 0.0027235653 -0.012434901
0002e0 a0 f9 aa bb 86 96 ae bb 41 a1 91 ba e6 3e 36 bb
       -0.005217746 -0.0053280024 -0.001111068 -0.0027808486
0002f0 4c 70 03 3c a8 02 35 bc f4 95 c5 3c db 57 7e bb
       0.008022379 -0.011047997 0.024119355 -0.003880969
000300 f2 e2 af 3b f1 c0 c8 bb 92 29 09 3b 91 af b2 bb
       0.00536763 -0.006126516 0.002092932 -0.005453058
000310 9f cb 39 bc 2e 4a 13 3c 03 06 c6 bb e2 20 3a b9
       -0.011340051 0.008989854 -0.006043197 -0.00017750592
000320 77 e5 2d ba 96 4f 14 bb 9e 47 86 bb f5 18 a2 bc
       -0.0006633619 -0.0022630445 -0.004097893 -0.019787291
000330 47 a9 a5 bb f0 68 8c bc 5d 05 c7 bb 47 1c 77 bc
       -0.00505558 -0.017139882 -0.0060736374 -0.015082425
000340 f7 71 f8 bb d1 77 28 bc f7 c5 33 bc 80 52 21 bb
       -0.007581945 -0.010282473 -0.010972491 -0.0024615824
000350 80 08 71 3c 91 69 93 3c d1 56 91 3c 3c 5f 88 3a
       0.014711499 0.017994674 0.017741593 0.0010404359
000360 02 65 82 bc ea f7 dc bb 95 a4 df bb cf fa a1 3c
       -0.015917305 -0.006743421 -0.0068250396 0.019772915
000370 92 4b c6 bb bf fe 72 ba 8b 7b d5 bb c2 b7 af bb
       -0.006051489 -0.00092695275 -0.0065149716 -0.005362482
000380 78 c7 db bb b6 db 11 bc 82 1e 67 bc a3 12 ae ba
       -0.006707128 -0.008902481 -0.014106395 -0.0013280701
000390 df 62 ac bb 6e fd ae bc dc 23 b3 3c 28 53 3b 3c
       -0.00526081 -0.021361079 0.021867685 0.0114334
0003a0 ff ce 92 3c 65 4a 0b bc 40 66 b2 3c 05 2b f7 bb
       0.017920969 -0.008501624 0.021777272 -0.00754297
0003b0 ea af 10 ba 80 3e 38 bc c8 fa 84 bb 20 72 a8 bb
       -0.00055193773 -0.01124537 -0.0040582158 -0.005140558
0003c0 93 8e c2 37 fb 72 9e bb 52 cc 00 bc a9 8f 15 3b
       2.3192993e-05 -0.004835484 -0.007861214 0.0022821224
0003d0 b6 34 b0 bb 0a 88 4f 3b c3 cc 46 bb 39 5f 7c 3d
       -0.0053773774 0.003166678 -0.003033445 0.06161425
0003e0 8d f9 fb 3c 68 f4 a6 3c fd 81 82 3a ee 53 c9 3a
       0.030758644 0.020380214 0.0009956952 0.0015360096
0003f0 cf 0d dc bb dd 2b c5 bb 5c 59 dd 3b 47 4c 96 bb
       -0.0067155133 -0.006017192 0.0067550372 -0.0045867297
