Assets/ML_PPO/results/1stgo_nav_26/BoatAgent/BoatAgent-452019.onnx (onnx, 853217 bytes, 15 tensors)

discrete_action_output_shape f4 [1, 3]
2.0 2.0 2.0
00000000: 0000 0040 0000 0040 0000 0040

network_body._body_endoder.seq_layers.0.weight f4 [256, 51]
-0.17730983 0.00971856 0.09333609 -0.028380014 -0.27810213 0.118802756 0.003667484 0.08281222
0.17630994 -0.21940748 -0.23116182 -0.24620569 0.14309025 -0.040759537 -0.118996054 -0.39112094
-0.013832871 0.067730844 -0.09878999 -0.06138517 0.028641893 0.12993039 0.07868331 0.03688047
0.16869044 -0.039317284 0.057108022 0.10639119 -0.29618284 -0.19803357 -0.10667178 -0.102636926
-0.11644416 -0.1160399 -0.11862184 -0.25747487 0.18608595 0.06388245 -0.16448045 -0.10495757
0.016197132 0.0050080013 -0.18846662 -0.021118186 0.1462374 -0.07341951 -0.107654 0.02204665
0.2146673 0.16468602 0.16185008 0.1601219 -0.113114774 0.19910952 -0.02726948 -0.036645982
-0.30506003 -0.18349685 0.07475349 0.04694472 -0.07459206 0.015863432 0.021774488 -0.035165787
-0.03349394 0.2622316 -0.1383731 0.09958091 -0.21417701 -0.23110601 0.14475106 0.15987283
0.2927789 -0.03804581 0.25472462 -0.065237924 0.0010053152 0.05334865 0.0823648 0.25320947
-0.062655754 -0.24507837 -0.28553534 -0.30451092 -0.11301063 -0.10229794 -0.1768496 -0.11400138
-0.35166535 -0.2678294 -0.11624135 -0.17204897 0.13060308 -0.18776675 -0.05422328 0.0053095347
-0.16480061 -0.09570811 0.0037319267 -0.09356217 -0.0675473 -0.13315657 -0.037343226 -0.13191922
-0.19192143 -0.12664016 0.00054916745 -0.04222786 -0.20992704 0.15041731 0.18617806 -0.38304782
-0.027546193 0.19143377 -0.23744813 -0.0852417 -0.07669824 -0.020638771 -0.03139112 -0.024713412
0.24432719 0.06258211 0.10199595 -0.2680512 -0.15589833 0.18909328 0.05457564 -0.38486677
-0.045475107 0.1412609 -0.024112051 0.034934565 0.054484565 -0.24678124 -0.1275853 0.036770426
0.025681868 -0.19639967 -0.076048866 -0.1505574 -0.26487058 -0.06372707 0.12775166 -0.015638517
0.009058893 -0.029759135 -0.12377853 0.068746984 -0.06391872 -0.02548574 -0.12780131 -0.06695024
0.074405 -0.0035703834 -0.03011447 0.15756814 0.12774937 -0.015742136 0.018590694 0.116412625
0.10692996 -0.0143326465 -0.2500025 -0.03610157 0.13060023 0.12620708 -0.0018491443 0.071752846
0.15026176 -0.2014744 -0.13767524 -0.09544378 -0.21019007 0.107564405 -0.12483782 -0.019751968
-0.019445755 -0.10020124 -0.26552746 -0.050505947 -0.01830343 0.062200233 -0.11859254 -0.15335785
0.20335132 0.18783264 -0.15215491 -0.12689987 -0.06548585 0.08806161 0.034897838 0.20112233
0.024361001 -0.13802184 -0.039309684 0.010234628 -0.17486715 -0.03274729 -0.41153985 -0.061888274
-0.032377686 -0.07234918 -0.017496089 0.22824854 -0.13827167 0.09654932 -0.046079144 0.14281331
-0.2427535 -0.057417165 0.08548775 0.11737398 -0.1549752 0.22305837 -0.029785238 0.10236551
-0.049888887 0.007880514 -0.15488765 -0.11963032 -0.05549605 -0.16678381 -0.055542473 0.19141547
0.10836143 0.023411367 -0.3895159 -0.08145759 0.11563524 0.060148764 -0.0066386955 -0.1657927
0.0919671 0.011570591 -0.019339839 0.036773853 0.08953788 0.0057133907 -0.29382646 -0.07641898
0.08530099 0.11020123 0.07348555 0.068819314 -0.05556333 0.060889695 0.072775826 -0.06409485
0.16813013 -0.19271621 0.054741416 -0.24828051 -0.065819755 -0.08226632 -0.08902814 -0.2205626
00000000: b590 35be 983a 1f3c fe26 bf3d 347d e8bc
00000010: 6763 8ebe dc4e f33d 2c5a 703b 7499 a93d
00000020: 988a 343e 5bac 60be afb5 6cbe 581d 7cbe
00000030: 4086 123e 79f3 26bd 34b4 f3bd 0141 c8be
00000040: 44a3 62bc 78b6 8a3d 6852 cabd 046f 7bbd
00000050: 67a2 ea3c 790c 053e b724 a13d fa0f 173d
00000060: 30bd 2c3e 290b 21bd 1aea 693d a0e3 d93d
00000070: 47a5 97be 50c9 4abe bc76 dabd 4f33 d2bd
00000080: 477a eebd 54a6 edbd 02f0 f2bd bfd3 83be
00000090: 518d 3e3e cdd4 823d 906d 28be fff3 d6bd
000000a0: d9af 843c 291a a43b 65fd 40be 0c00 adbc
000000b0: 42bf 153e f85c 96bd b379 dcbd 2d9b b43c
000000c0: bfd1 5b3e 74a3 283e 07bc 253e fff6 233e
000000d0: b8a8 e7bd 5ee3 4b3e 3f64 dfbc 191a 16bd
000000e0: d430 9cbe 99e6 3bbe 5c18 993d 1b49 403d
000000f0: b9c3 98bd 07f4 813c 6960 b23c 000a 10bd
00000100: f130 09bd 3843 863e aeb1 0dbe 13f1 cb3d
00000110: 3851 5bbe 0ea7 6cbe 9f39 143e b4b5 233e
00000120: 1ee7 953e ecd5 1bbd 446b 823e 769b 85bd
00000130: c8c4 833a 1d84 5a3d e0ae a83d aca4 813e
00000140: a951 80bd d3f5 7abe b031 92be dbe8 9bbe
00000150: 1e72 e7bd 9581 d1bd 1018 35be 8e79 e9bd
00000160: 7b0d b4be ef20 89be f20f eebd 9b2d 30be
00000170: d0bc 053e ed45 40be 3b19 5ebd 9bfb ad3b
00000180: 7ec1 28be 9d02 c4bd 5793 743b 869d bfbd
00000190: 3d56 8abd 325a 08be 36f5 18bd d515 07be
000001a0: 0d87 44be f5ad 01be 01f6 0f3a 1ff7 2cbd
000001b0: 1df7 56be ff06 1a3e 76a5 3e3e d81e c4be
000001c0: 8ea8 e1bc 3707 443e 9a25 73be 3393 aebd
000001d0: f813 9dbd a412 a9bc fa93 00bd c873 cabc
000001e0: e830 7a3e 0d2b 803d 41e3 d03d 023e 89be
000001f0: d0a3 1fbe aba1 413e b58a 5f3d 420d c5be
00000200: 1b44 3abd b3a6 103e a386 c5bc 8c17 0f3d
00000210: 352b 5f3d 39b4 7cbe b9a5 02be 969c 163d
00000220: c862 d23c ff1c 49be 82bf 9bbd b82b 1abe
00000230: 1e9d 87be 5783 82bd 55d1 023e 591c 80bc
00000240: c06b 143c 6ec9 f3bc 997f fdbd 38cb 8c3d
00000250: d1e7 82bd 78c7 d0bc 59de 02be 351d 89bd
00000260: a661 983d 18fd 69bb 9fb2 f6bc 8b59 213e
00000270: bbd0 023e a7f5 80bc 834b 983c be69 ee3d
00000280: 18fe da3d 7ad3 6abc 5400 80be 3ddf 13bd
00000290: 11bc 053e 6e3c 013e fd5e f2ba 28f3 923d
000002a0: 38de 193e 4e4f 4ebe bdfa 0cbe 0778 c3bd
000002b0: 113c 57be ba4a dc3d f9aa ffbd e1ce a1bc
000002c0: b44c 9fbc 4f36 cdbd 37f3 87be 53df 4ebd
000002d0: 13f1 95bc acc5 7e3d a5e0 f2bd d709 1dbe
000002e0: 543b 503e 3357 403e 7fce 1bbe 0af2 01be
000002f0: 721d 86bd a559 b43d 09f1 0e3d 03f3 4d3e
00000300: b990 c73c 9955 0dbe 3103 21bd 24af 273c
00000310: 6010 33be 0622 06bd 5ab5 d2be 8f7e 7dbd
00000320: 779e 04bd cf2b 94bd f553 8fbc fcb9 693e
00000330: 1797 0dbe a6bb c53d 7cbd 3cbd a73d 123e
00000340: 6094 78be 432e 6bbd 3414 af3d c561 f03d
00000350: d2b1 1ebe 6a69 643e 2c00 f4bc 02a5 d13d
00000360: 4a58 4cbd 451d 013c de9a 1ebe be00 f5bd
00000370: d34f 63bd 60c9 2abe 8180 63bd 6b02 443e
00000380: 99ec dd3d 32c9 bf3c a16e c7be 3dd3 a6bd
00000390: 2bd2 ec3d 8d5e 763d 6a89 d9bb 90c5 29be
000003a0: 3f59 bc3d 9392 3d3c 956e 9ebc 2ea0 163d
000003b0: a35f b73d 6537 bb3b 6c70 96be 8e81 9cbd
000003c0: 49b2 ae3d 2fb1 e13d 987f 963d 24f1 8c3d
000003d0: 6096 63bd 7967 793d 7e0b 953d 2944 83bd
000003e0: 4e2a 2c3e 6657 45be 8938 603d 3f3d 7ebe
000003f0: 82cc 86bd 3f7b a8bd 6354 b6bd 2adb 61be

network_body._body_endoder.seq_layers.0.bias f4 [256]
-0.0010119225 -0.03357172 -0.03418949 -0.009218823 -0.05872891 0.030218268 0.01930014 0.05482664
0.031985953 -0.024943767 0.0070444946 0.011326506 0.011005744 -0.022659993 0.023360886 0.038673982
-0.009050018 -0.009275683 -0.025732249 -0.039363932 -0.027825914 0.028445743 0.023643853 -0.035610065
0.007978689 -0.04169037 -0.057219528 0.006777835 0.004601555 -0.028921956 0.029359246 -0.07209522
0.012162621 0.020330725 0.010567471 -0.019200604 -0.023550356 -0.019902688 -0.02844513 0.04107413
-0.003962315 0.015606128 -0.007465747 -0.05778698 -0.06449257 0.02703545 0.0036619492 -0.040945582
-0.044724815 -0.013449117 0.027676342 -0.05993772 -0.07714685 0.04168087 -0.09512538 -0.01530471
-0.013042113 -0.08189386 0.04580219 -0.0031452843 0.032181587 -0.047128033 -0.06726287 -0.076862305
-0.011436019 0.018698797 0.03963026 0.015594079 -0.016650459 -0.019821355 0.022936037 -0.028212683
-0.022017013 -0.03370211 -0.0036462182 -0.038564265 0.047501326 -0.04023651 0.03151532 -0.014101291
0.0076468377 -0.07796061 -0.045595143 -0.03978274 -0.04378293 -0.06387092 -0.023423439 -0.08461737
-0.017035963 -0.033453 0.045869917 0.022037473 -0.020336814 -0.03254707 0.014495644 -0.02210848
-0.051741175 0.03431055 0.022385452 -0.058186628 -0.0031484636 0.019201165 -0.0540685 -0.03331281
0.049560342 -0.020446131 0.024380194 -0.0039180736 0.026521053 0.024735605 -0.0088013755 -0.03836946
0.04811039 -0.08455334 -0.0056559592 -0.012441644 -0.012824794 -0.08372093 0.0017429466 -0.03265285
-0.019387485 0.04708437 0.02586001 -0.026305864 -0.019719576 -0.030918432 0.026655272 -0.05050124
-0.08244644 0.0075249393 0.022729108 -0.0639369 -0.004647144 -0.0543752 -0.0017249539 0.010397486
0.019024087 -0.06844505 -0.07329094 -0.008749182 -0.079042636 0.04406992 -0.017328234 -0.03883381
-0.021906342 -0.041557282 0.023687055 0.058602877 -0.02236438 0.012863852 -0.010058046 -0.012220335
-0.022653015 -0.03806553 -0.0041432995 -0.046807457 -0.015804408 -0.00720951 0.013827944 -0.0031303347
-0.0061684325 -0.006287608 0.01025589 -0.06397001 -0.0070161438 -0.07092237 -0.011002618 -0.015137094
-0.04405108 0.023036934 0.02663049 -0.025888937 -0.019416125 0.01577705 -0.029395955 0.027011536
-0.042565037 0.014458284 0.0071070916 -0.07295031 -0.019518847 0.0053343596 -0.011439459 -0.05791463
0.027140947 -0.04566105 0.009246521 -0.042729955 -0.0654291 -0.00509558 -0.007938562 -0.06699149
-0.046003044 -0.046399925 -0.007332465 0.026708629 0.004129294 -0.08327411 -0.011476125 0.055604823
-0.032375343 -0.030521676 0.0023913488 -0.07225427 -0.05275793 -0.0077108913 0.0024033166 -0.04509765
-0.029820295 -0.019642068 0.046221666 -0.063777894 -0.047529288 0.006012709 -0.074760534 -0.06356815
-0.08703131 -0.065709755 -0.01663176 0.014897605 -0.008045832 -0.013119707 -0.011300671 -0.029391611
0.038151167 0.011624228 -0.078574106 0.05818659 -0.022239305 -0.020682577 -0.012998862 -0.049752712
-0.03998613 -0.045468852 -0.017443689 0.008336569 -0.009756156 0.040591802 -0.0059523135 -0.0020486417
-0.020741358 -0.08987132 -0.03299963 -0.019236801 -0.0034758437 -0.020813249 0.00021771864 -0.004100736
0.026536549 -0.001783459 -0.012600667 0.038076047 -0.014917454 0.035756364 -0.010338774 -0.05112606
00000000: 7ca2 84ba 8082 09bd 470a 0cbd 8c0a 17bc
00000010: ba8d 70bd 4d8c f73c 541b 9e3c e691 603d
00000020: b403 033d df56 ccbc 81d5 e63b cf92 393c
00000030: 7051 343c 73a1 b9bc 545f bf3c 9c68 1e3d
00000040: 8746 14bc 09f9 17bc 70cc d2bc 133c 21bd
00000050: 2cf3 e3bc 0c07 e93c c1b0 c13c dcdb 11bd
00000060: 0cb9 023c 85c3 2abd 065f 6abd 9a18 de3b
00000070: a4c8 963b bded ecbc cd82 f03c a9a6 93bd
00000080: bb45 473c 9f8c a63c 3023 2d3c 964a 9dbc
00000090: adec c0bc f60a a3bc c305 e9bc 593d 283d
000000a0: 4fd6 81bb d8b0 7f3c 3aa3 f4bb 0ab2 6cbd
000000b0: ae14 84bd 7379 dd3c 50fd 6f3b 8eb6 27bd
000000c0: 5e31 37bd af59 5cbc 7fb9 e23c 4181 75bd
000000d0: 2bff 9dbd 8fb9 2a3d 18d1 c2bd 9bc0 7abc
000000e0: 96ae 55bc f8b7 a7bd 149b 3b3d 1d21 4ebb
000000f0: d7d0 033d 5309 41bd 1ec1 89bd fc69 9dbd
00000100: 245e 3bbc 382e 993c 5753 223d 4f7e 7f3c
00000110: 8b66 88bc 6560 a2bc 5be4 bb3c 491e e7bc
00000120: 065d b4bc 390b 0abd 64f5 6ebb 90f5 1dbd
00000130: c090 423d 0acf 24bd 3516 013d 1a09 67bc
00000140: 5392 fa3b d0a9 9fbd f9c1 3abd 3af3 22bd
00000150: bb55 33bd c2ce 82bd 83e2 bfbc df4b adbd
00000160: 018f 8bbc 0306 09bd 18e2 3b3d ee87 b43c
00000170: 6499 a6bc 1450 05bd 237f 6d3c d81c b5bc
00000180: 8eee 53bd 3889 0c3d b261 b73c 1a55 6ebd
00000190: 7456 4ebb c34b 9d3c ee76 5dbd 0373 08bd
000001a0: c9ff 4a3d a57e a7bc f9b8 c73c 2f63 80bb
000001b0: ae42 d93c 53a2 ca3c a533 10bc 4b29 1dbd
000001c0: 660f 453d 4d2a adbd a055 b9bb 0ad8 4bbc
000001d0: 161f 52bc e175 abbd 9573 e43a ffbe 05bd
000001e0: 81d2 9ebc 8adb 403d 5fd8 d33c 657f d7bc
000001f0: f38a a1bc a748 fdbc 285c da3c 63da 4ebd
00000200: aed9 a8bd c493 f63b 6532 ba3c 59f1 82bd
00000210: 1247 98bb 88b8 5ebd d917 e2ba 385a 2a3c
00000220: 67d8 9b3c eb2c 8cbd 8f19 96bd bb58 0fbc
00000230: 1be1 a1bd a982 343d f1f3 8dbc 3310 1fbd
00000240: ee74 b3bc f837 2abd 5b0b c23c 9209 703d
00000250: 8135 b7bc e8c2 523c 81ca 24bc cd37 48bc
00000260: d192 b9bc 9aea 1bbd 84c4 87bb 2db9 3fbd
00000270: 3f78 81bc c13d ecbb 9a8e 623c 4d26 4dbb
00000280: 9020 cabb 4708 cebb 5208 283c b502 83bd
00000290: aee7 e5bb bf3f 91bd 5344 34bc 9301 78bc
000002a0: e86e 34bd f4b7 bc3c 2f28 da3c 0915 d4bc
000002b0: 910e 9fbc df3e 813c c9cf f0bc 4c47 dd3c
000002c0: ad58 2ebd 70e2 6c3c 9be2 e83b f966 95bd
000002d0: fde5 9fbc dacb ae3b 926c 3bbc e437 6dbd
000002e0: b156 de3c 1507 3bbd b87e 173c 9b05 2fbd
000002f0: b1ff 85bd d3f8 a6bb be10 02bc d632 89bd
00000300: b06d 3cbd d90d 3ebd 2d45 f0bb 0ecc da3c
00000310: 074f 873b 9e8b aabd 5b06 3cbc e2c1 633d
00000320: 029c 04bd 9808 fabc 2db8 1c3b 0cfa 93bd
00000330: b318 58bd a5ab fcbb f680 1d3b 50b8 38bd
00000340: b149 f4bc 67e8 a0bc ee52 3d3d fc9d 82bd
00000350: 12ae 42bd 4206 c53b 0d1c 99bd 0530 82bd
00000360: 793d b2bd d692 86bd 543f 88bc 1615 743c
00000370: aad2 03bc 0af4 56bc 7326 39bc adc6 f0bc
00000380: 6644 1c3d 8c73 3e3c 76eb a0bd 1055 6e3d
00000390: 342f b6bc 826e a9bc 2ef9 54bc 80c9 4bbd
000003a0: 7fc8 23bd 8c3d 3abd 11e6 8ebc 1b96 083c
000003b0: 49d8 1fbc 9743 263d a00b c3bb 8142 06bb
000003c0: c8e9 a9bc 740e b8bd 9f2a 07bd 7f96 9dbc
000003d0: fbca 63bb 8c80 aabc 674b 6439 785f 86bb
000003e0: 2d63 d93c f4c2 e9ba 0773 4ebc a1f5 1b3d
000003f0: 5668 74bc 4475 123d f663 29bc 8f69 51bd

network_body._body_endoder.seq_layers.2.weight f4 [256, 256]
0.010485836 -0.023107575 -0.08135902 0.050542828 -0.09136611 -0.01260864 -0.0127995 -0.00032860434
-0.0022086748 0.19717336 -0.0021673134 -0.005141151 0.04060254 0.058042284 -0.036404606 -0.07473703
0.0018527657 -0.04268135 0.10008695 -0.0026780018 -0.0405582 0.01906544 0.11413833 -0.012608479
-0.059318535 -0.008747327 -0.014287728 0.02689707 0.006668684 0.074459195 -0.06847884 -0.09280688
-0.018463694 -0.14233318 -0.040352844 -0.036326945 -0.15387905 0.006552231 -0.023815224 -0.0645531
-0.011873184 0.046470392 0.047741808 -0.075254954 0.009519106 0.044623997 -0.026214862 0.06310749
-0.10218639 -0.06278964 0.050182268 -0.06690258 0.035081793 0.08690497 0.017878603 -0.0651552
0.01171077 0.11172285 0.026205722 -0.014255928 0.01937981 -0.046764024 -0.06568303 0.06826042
-0.07511887 -0.111474976 -0.04323023 -0.0693174 0.05902579 -0.06928366 0.049758367 0.017529309
-0.043175206 0.041760013 0.122680776 -0.116669774 -0.003260258 -0.013613638 0.04761642 -0.14718127
-0.023130123 -0.032548707 -0.10538848 -0.020543672 0.055277906 -0.029448992 -0.015717668 0.042680323
0.04131033 0.018907528 -0.059646312 -0.034615185 -0.020829847 0.019939458 0.06705668 0.059819654
0.054244272 -0.0753788 -0.06665385 -0.00992587 0.07922542 3.997792e-05 0.033430096 0.046668384
-0.03182387 0.03346477 -0.1432179 0.0360906 0.11957719 0.042034365 0.08132945 0.011124333
0.035988566 0.030091764 -0.08730034 -0.057505596 0.013621109 -0.008799437 0.012807695 -0.0049141576
0.031017981 -0.12901476 -0.045067664 -0.03556814 0.14104398 -0.03012358 -0.073879644 0.12285005
0.021763895 -0.020401714 -0.024255779 -0.037531275 -0.057760086 -0.011806288 -0.16760959 0.015416088
-0.023395885 -0.051103413 0.08220439 0.10899209 0.03144177 0.030301271 -0.024808116 0.018311558
-0.07547204 -0.028427945 0.042527236 -0.008571512 0.051264007 0.07480405 -0.055029802 -0.062112294
-0.12777115 -0.0074229427 -0.05049072 0.037910663 0.122282706 0.01745105 -0.119626276 0.039492153
-0.027177233 -0.015270257 -0.044622526 -0.045224234 -0.010851516 0.0056787804 0.10578104 0.0040379977
0.06526597 0.051671784 -0.11037081 0.035042435 -0.033663098 -0.003428434 0.011197202 0.0020808084
0.010213526 -0.10654994 0.024935436 0.06234527 -0.09605368 0.046714604 0.039774653 -0.103519045
-0.12221853 -0.12314533 0.06139967 0.012679671 0.0057937857 -0.01111961 0.0023432984 -0.01131329
-0.09400386 0.018209973 0.12877321 0.107272126 -0.037540354 0.0056887013 0.0048988243 0.051557098
0.09300042 0.05684156 -0.07439809 -0.08878037 -0.10479033 -0.03779471 0.07724204 0.057733815
-0.07965138 -0.15451936 0.005778347 -0.0151240295 -0.026006013 0.012627753 0.018473856 0.04227372
-0.0215035 -0.0018882573 -0.062081415 -0.061660085 -0.13765661 -0.09764872 0.069119014 0.005985879
-0.017890662 -0.07647615 0.012947374 0.1559295 -0.0670577 0.008627516 0.0939592 -0.05277258
0.016759397 0.03842964 -0.0043699206 0.083718285 0.033519484 -0.09797512 -0.006374937 0.02340989
0.11332677 -0.07328131 -0.046214208 0.100520946 0.054312136 -0.00067950535 -0.05824598 0.059596937
0.03991336 0.092248544 0.11387549 -0.01972392 -0.15746959 0.054585412 0.018879015 -0.0026658722
00000000: c9cc 2b3c 194c bdbc 8f9f a6bd ff05 4f3d
00000010: 281e bbbd 7894 4ebc feb4 51bc 8748 acb9
00000020: 6abf 10bb d0e7 493e 7c09 0ebb 1a77 a8bb
00000030: d94e 263d bfbd 6d3d ff1c 15bd ba0f 99bd
00000040: 80d8 f23a a4d2 2ebd 63fa cc3d 6a81 2fbb
00000050: 5b20 26bd 202f 9c3c 5bc1 e93d cb93 4ebc
00000060: fef7 72bd f350 0fbc 1317 6abc 3f57 dc3c
00000070: fa84 da3b 107e 983d a23e 8cbd 8911 bebd
00000080: 2c41 97bc cabf 11be 0649 25bd 90cb 14bd
00000090: 7892 1dbe 19b4 d63b 2518 c3bc 6a34 84bd
000000a0: be87 42bc bd57 3e3d ea8c 433d 451f 9abd
000000b0: 06f6 1b3c a7c7 363d 8dc0 d6bc 803e 813d
000000c0: 1947 d1bd db97 80bd ec8b 4d3d 3804 89bd
000000d0: edb1 0f3d 3cfb b13d 2676 923c 1770 85bd
000000e0: 88de 3f3c f3ce e43d 62ad d63c b291 69bc
000000f0: 68c2 9e3c a28b 3fbd d384 86bd 1ecc 8b3d
00000100: ecd7 99bd fe4c e4bd 2f12 31bd 48f6 8dbd
00000110: 07c5 713d 97e4 8dbd 6ecf 4b3d a099 8f3c
00000120: 7cd8 30bd 8c0c 2b3d 0f40 fb3d 90f0 eebd
00000130: 0daa 55bb bc0b 5fbc 6f09 433d b0b6 16be
00000140: 627b bdbc cb51 05bd ead5 d7bd 344b a8bc
00000150: 166b 623d 033f f1bc 57c2 80bc 90d1 2e3d
00000160: 0535 293d f6e3 9a3c b14f 74bd a7c8 0dbd
00000170: 5ba3 aabc 1358 a33c 0355 893d 7405 753d
00000180: 3e2f 5e3d 3360 9abd d081 88bd 1ea0 22bc
00000190: f040 a23d f7ad 2738 ffed 083d 5927 3f3d
000001a0: bf59 02bd 5b12 093d b7a7 12be bdd3 133d
000001b0: e3e4 f43d 3a2c 2c3d 0e90 a63d d642 363c
000001c0: bf68 133d 0183 f63c 85ca b2bd fd8a 6bbd
000001d0: 122b 5f3c 842b 10bc 5ed7 513c f106 a1bb
000001e0: 6c19 fe3c 721c 04be df98 38bd e6af 11bd
000001f0: d56d 103e bac5 f6bc 364e 97bd cf98 fb3d
00000200: 324a b23c 7f21 a7bc 0eb4 c6bc 65ba 19bd
00000210: d795 6cbd 296f 41bc d9a1 2bbe c293 7c3c
00000220: baa8 bfbc d051 51bd c65a a83d 3f37 df3d
00000230: 16c9 003d 5f3a f83c 643a cbbc 1f02 963c
00000240: 1691 9abd b9e1 e8bc 0a31 2e3d 876f 0cbc
00000250: 35fa 513d de32 993d ee66 61bd 7669 7ebd
00000260: 71d6 02be 283c f3bb 5bcf 4ebd 3648 1b3d
00000270: 5b6f fa3d 81f5 8e3c 9ffe f4bd 86c2 213d
00000280: caa2 debc 1a30 7abc 1cc6 36bd 0c3d 39bd
00000290: 8fca 31bc 1015 ba3b bba3 d83d 2e51 843b
000002a0: 2aaa 853d cba5 533d 170a e2bd a888 0f3d
000002b0: 51e2 09bd 94af 60bb 7874 373c 2c5e 083b
000002c0: a256 273c db36 dabd 6645 cc3c c15d 7f3d
000002d0: cbb7 c4bd d057 3f3d bfea 223d cb01 d4bd
000002e0: b54d fabd 9e33 fcbd 387e 7b3d 65be 4f3c
000002f0: ccd9 bd3b 062f 36bc 0692 193b 615b 39bc
00000300: 1985 c0bd 152d 953c 20dd 033e 7db1 db3d
00000310: eac3 19bd 4968 ba3b 5186 a03b 892d 533d
00000320: 0177 be3d b2d2 683d 075e 98bd 7cd2 b5bd
00000330: 509c d6bd a0ce 1abd 1331 9e3d 4b7a 6c3d
00000340: 4320 a3bd 533a 1ebe 4a58 bd3b c7ca 77bc
00000350: 900a d5bc a3e4 4e3c 7c56 973c 3527 2d3d
00000360: 1c28 b0bc 677f f7ba 1549 7ebd 498f 7cbd
00000370: dbf5 0cbe 0dfc c7bd 458e 8d3d 3125 c43b
00000380: 708f 92bc 879f 9cbd 3921 543c fcab 1f3e
00000390: 8c55 89bd 6d5a 0d3c ae6d c03d 1028 58bd
000003a0: 014b 893c 6668 1d3d 8d31 8fbb 7e74 ab3d
000003b0: ba4b 093d 2ea7 c8bd d9e4 d0bb 19c6 bf3c
000003c0: de17 e83d 8314 96bd 1c4b 3dbd eddd cd3d
000003d0: 6776 5e3d d520 32ba 5693 6ebd eb1b 743d
000003e0: 317c 233d ceec bc3d 8e37 e93d 0f94 a1bc
000003f0: b53f 21be f494 5f3d 2aa8 9a3c eab5 2ebb

network_body._body_endoder.seq_layers.2.bias f4 [256]
-0.062717155 0.008478695 -0.019373924 -0.04634985 -0.022234984 -0.013626397 0.03512268 -0.018268153
-0.038223423 0.044570513 -0.054069687 0.018911034 0.014876693 -0.037842233 -0.075683445 0.052680083
-0.07031957 -0.0018951468 -0.0068507157 0.024386624 -0.002392885 -0.019922618 -0.026200369 -0.06506386
0.0016258667 0.024221148 1.5255798e-05 0.031090036 -0.026718173 -0.021901617 0.00940278 -0.03731046
0.021488307 -0.021446742 -0.027399905 0.046903603 0.040128473 -0.031389322 -0.02803046 -0.0684762
-0.06403727 -0.03207439 -0.046660546 0.036947757 -0.020212516 -0.041951176 -0.0026293697 0.029206485
-0.010339155 -0.03251173 -0.058158632 -0.06729869 -0.011694732 -0.010886934 0.0043657646 -0.0072337715
-0.03291855 -0.01177357 -0.0019935346 0.025516223 -0.030744927 -0.0041511534 -0.041530225 0.016803935
0.013898469 -0.02966787 0.018544517 -0.044765472 -0.027665978 -0.04221708 -0.057100866 0.0028794776
-0.06494687 -0.002249936 -0.07411172 0.041475948 0.05072598 -0.010558057 -0.04685261 0.05642418
-0.061015856 -0.037897065 -0.006482945 -0.025372552 -0.043564852 -0.0072716624 -0.06206856 -0.011443682
0.013228614 0.0025873408 0.053491212 0.021442251 -0.024972744 -0.0058231866 -0.014538978 -0.031364337
-0.059937797 -0.044394027 0.0073864106 -0.0292363 -0.05267357 0.021225832 0.013590012 0.0520493
0.026849313 -0.0019591015 0.004744156 -0.010609582 -0.014584781 -0.046972558 0.01282832 0.022905078
0.04767126 -0.041468374 -0.0029621462 -0.06679808 -0.020131644 0.04852396 -0.005341577 -0.05686141
-0.03481053 -0.0049201017 -0.050318796 -0.014402145 -0.049763225 0.06518177 -0.023386193 -0.023811188
0.027173663 0.0064817243 -0.019924272 -0.030609692 -0.0498605 -0.057011414 -0.05050603 -0.04464601
0.015260472 0.049583714 -0.0526577 -0.014593143 0.02408708 -0.03226445 -0.04510767 0.02628565
0.039125375 0.00047713396 -0.041531645 0.029309513 -0.011097679 0.035595413 -0.018085686 0.0054728403
0.019403731 -0.009985919 0.059068598 -0.03494904 -0.014325947 -0.0305303 -0.022383135 -0.026167026
-0.00091237796 -0.025598167 -0.062744655 0.017273229 -0.029506052 -0.006050506 -0.044348553 -0.015983583
0.01829202 -0.05399435 -0.028444426 -0.04420878 -0.03930185 -0.044876687 -0.026036324 0.0020882639
-0.039425302 -0.04257285 0.032303076 -0.016314289 0.028183386 -0.035586726 -0.00727677 -0.012864036
0.003752162 -0.019800903 0.0429391 0.0033237266 -0.025318338 -0.017714657 0.0070653385 -0.040899754
-0.021223828 -0.019559313 -0.016058799 0.00861887 -0.03785248 -0.022201817 -0.0048427354 0.017179143
0.007006763 -0.004390185 -0.042120617 -0.033016436 -0.052835733 -0.061463017 0.013727252 0.027048374
-0.028311508 0.055754874 -0.018253919 -0.041478924 -0.0072427834 0.036012303 0.007796435 0.0074034403
-0.031890567 -0.048951905 -0.03289235 0.044075456 -0.010991623 0.004480366 -0.03473621 0.011393512
0.017969312 -0.06005029 -0.05371334 0.02748066 -0.021919861 -0.031118909 -0.0039309678 -0.020185867
-0.007231138 -0.032443833 0.035349075 -0.03680142 -0.03135876 -0.028588088 -0.045024972 -0.01169915
0.027915534 0.0057544373 -0.038061004 0.017536836 0.004848939 -0.026951412 -0.023536352 -0.040524196
-0.04283368 -0.015382147 -0.04748038 -0.01294431 -0.011300605 0.029892256 -0.00153136 -0.051197216
00000000: da71 80bd 39ea 0a3c 10b6 9ebc 57d9 3dbd
00000010: 2426 b6bc 4041 5fbc cddc 0f3d 18a7 95bc
00000020: 2a90 1cbd 928f 363d 2d78 5dbd 50eb 9a3c
00000030: 5fbd 733c 7500 1bbd ecff 9abd 12c7 573d
00000040: b503 90bd 9366 f8ba f87b e0bb 75c6 c73c
00000050: f3d1 1cbb c234 a3bc 28a2 d6bc 3340 85bd
00000060: 091b d53a 6e6b c63c 27f3 7f37 88b0 fe3c
00000070: 12e0 dabc 056b b3bc 1e0e 1a3c dad2 18bd
00000080: 3f08 b03c 14b1 afbc c475 e0bc fe1d 403d
00000090: c15d 243d 1792 00bd 23a0 e5bc 403d 8cbd
000000a0: f925 83bd 7060 03bd 211f 3fbd 8856 173d
000000b0: b894 a5bc ffd4 2bbd 8151 2cbb 7042 ef3c
000000c0: 8f65 29bc 052b 05bd bf37 6ebd e5d3 89bd
000000d0: 439b 3fbc 1c5f 32bc b00e 8f3b 4609 edbb
000000e0: 9ad5 06bd efe5 40bc f6a5 02bb 6607 d13c
000000f0: c9dc fbbc 6606 88bb 991b 2abd 68a8 893c
00000100: 67b6 633c 080a f3bc acea 973c 005c 37bd
00000110: c3a3 e2bc d1eb 2cbd 99e2 69bd 9eb5 3c3b
00000120: dd02 85bd aa73 13bb e3c7 97bd afe2 293d
00000130: 0cc6 4f3d b3fb 2cbc 86e8 3fbd 0a1d 673d
00000140: c3eb 79bd f439 1bbd e26e d4bb 19da cfbc
00000150: 0f71 32bd 2047 eebb 9a3b 7ebd 487e 3bbc
00000160: d4bc 583c 6090 293b 9a19 5b3d a9a7 af3c
00000170: a493 ccbc 6ed0 bebb e534 6ebc e477 00bd
00000180: 5681 75bd 83d6 35bd b409 f23b f780 efbc
00000190: 3ec0 57bd cce1 ad3c a4a8 5e3c a631 553d
000001a0: 17f3 db3c 4564 00bb dd74 9b3b d0d3 2dbc
000001b0: 01f5 6ebc 4c66 40bd e02d 523c 6ea3 bb3c
000001c0: f042 433d beda 29bd 9120 42bb 6fcd 88bd
000001d0: 1eeb a4bc 0fc1 463d 6508 afbb 83e7 68bd
000001e0: 7c95 0ebd ce38 a1bb 151b 4ebd f9f6 6bbc
000001f0: 86d4 4bbd 057e 853d 6794 bfbc ae0f c3bc
00000200: 4d9b de3c a564 d43b 3a38 a3bc 2dc1 fabc
00000210: 863a 4cbd cd84 69bd 69df 4ebd bcde 36bd
00000220: 0f07 7a3c 4b18 4b3d 9aaf 57bd 1418 6fbc
00000230: 4552 c53c ba27 04bd d2c2 38bd 0155 d73c
00000240: ee41 203d d627 fa39 161d 2abd 811a f03c
00000250: 0ad3 35bc 7fcc 113d 6f28 94bc 8355 b33b
00000260: 93f4 9e3c fb9b 23bc eaf1 713d b926 0fbd
00000270: 60b7 6abc ae1a fabc d65c b7bc 3b5c d6bc
00000280: a62c 6fba 3fb3 d1bc 4580 80bd 9680 8d3c
00000290: adb6 f1bc 5343 c6bb d4a6 35bd 01f0 82bc
000002a0: 25d9 953c 2e29 5dbd 4904 e9bc 4414 35bd
000002b0: fafa 20bd 9ed0 37bd 214a d5bc 41db 083b
000002c0: 6d7c 21bd de60 2ebd 3b50 043d 8ba5 85bc
000002d0: d8e0 e63c 63c3 11bd f971 eebb adc3 52bc
000002e0: d5e6 753b 8135 a2bc e9e0 2f3d e1d2 593b
000002f0: 6768 cfbc 541e 91bc 5b84 e73b 8086 27bd
00000300: 98dd adbc da3a a0bc be8d 83bc 2936 0d3c
00000310: 340b 1bbd 96e0 b5bc cfaf 9ebb 46bb 8c3c
00000320: fd98 e53b 8adb 8fbb ab86 2cbd 3e3c 07bd
00000330: 486a 58bd a5c0 7bbd 45e8 603c 8d94 dd3c
00000340: 89ed e7bc 395f 643d 3e89 95bc cee5 29bd
00000350: df54 edbb a381 133d 3d79 ff3b 8f98 f23b
00000360: af9f 02bd cb81 48bd 21ba 06bd 7788 343d
00000370: 3516 34bc 09d0 923b 8e47 0ebd daab 3a3c
00000380: 6134 933c 4bf7 75bd 8502 5cbd 1f1f e13c
00000390: 4891 b3bc 15ed febc 59cf 80bb d55c a5bc
000003a0: 2ff3 ecbb d3e3 04bd 31ca 103d 16bd 16bd
000003b0: 0b72 00bd 9131 eabc 1b6c 38bd cbad 3fbc
000003c0: 1eaf e43c b88f bc3b dbe5 1bbd 69a9 8f3c
000003d0: d9e3 9e3b 35c9 dcbc 4fcf c0bc b3fc 25bd
000003e0: 5e72 2fbd 6705 7cbc c97a 42bd 5f14 54bc
000003f0: 2c26 39bc 9be0 f43c eab7 c8ba 2cb4 51bd

network_body._body_endoder.seq_layers.4.weight f4 [256, 256]
-0.017717412 -0.012186694 0.056237202 0.016850961 -0.08985488 -0.14768231 -0.009370329 0.0062681427
0.045022883 0.035095863 -0.14513946 0.01603513 0.034453563 0.014120395 -0.049282394 0.022959232
-0.02924288 0.0039487286 -0.12600875 0.005373504 -0.12043186 -0.026016235 0.06967017 -0.07074818
0.06951892 0.040460017 -0.086663745 0.039733764 -0.10681161 -0.08057009 -0.12566952 -0.01971125
-0.056480862 -0.05273968 -0.01842478 0.046499792 -0.06563164 -0.041261625 -0.040188376 -0.023563318
-0.03979149 0.038722083 0.01405132 0.021139903 -0.0044145747 0.057902135 0.06563349 -0.031697568
-0.14376226 -0.14787374 0.0031215947 -0.02920149 0.054540597 0.022139486 -0.07891378 -0.0008269069
-0.03973402 0.026461184 -0.017083712 0.03570034 -0.04419418 0.13044831 0.056932826 -0.02477242
-0.028850997 0.06432354 0.07452461 0.1121843 -0.07464047 0.036347598 -0.0782157 0.10011427
0.057315204 0.1118924 -0.06326584 -0.01880245 -0.013638087 -0.08729744 0.050295033 0.059052132
-0.0026928459 -0.0283266 -0.013761896 -0.10386888 0.008469071 0.02271389 -0.06977387 -0.02254898
-0.025111614 -0.012165198 0.044121675 0.03542174 0.013955312 -0.027921079 -0.111374035 -0.05702558
0.063143395 -0.04202666 -0.12926848 -0.059797097 0.07186984 0.0570112 0.0058379513 -0.013560984
0.035878327 0.05594176 0.03934982 0.042846948 -0.048346322 0.008982853 0.06382814 0.06989359
0.09432391 0.09761879 0.024272617 -0.09332819 -0.049347095 2.92229e-05 -0.017040387 -0.022073641
-0.007239727 0.045614988 -0.06567282 -0.11153571 0.022150706 0.07990145 -0.015291038 0.064342335
-0.038509745 -0.05405418 -0.022384781 0.051203623 -0.041520327 -0.009281847 -0.114385754 -0.066251434
0.107747994 0.015746139 -0.0031939724 -0.063568175 0.021495588 -0.020908866 0.09316255 -0.026008565
0.03169022 0.038673583 -0.00026842052 -0.08286551 -0.20692356 0.14921194 0.054034658 0.011718105
0.034199372 -0.030893318 0.11910915 0.026186075 0.037823454 0.0286994 0.00881729 -0.041429676
0.0109562725 -0.10630407 -0.0077998163 0.039235223 -0.029881792 -0.07770343 0.013048865 0.049423657
-0.076430626 0.04193889 -0.094960436 0.016449604 -0.083711974 0.011231271 -0.007989121 0.060466804
0.08811247 0.07284628 -0.008563749 0.039185118 -0.03540428 -0.0037955907 -0.060593437 0.031894725
-0.019848919 0.027994595 -0.055417012 0.17885688 -0.010168144 0.04473614 -0.064253256 -0.17963654
-0.038196396 0.040191475 0.038525686 0.033330124 0.049445875 -0.13835657 -0.03543702 0.01296186
-0.024696775 0.10047694 -0.17870006 -0.08749073 0.0070370967 0.067820564 0.0635355 0.0287024
0.064325415 0.14976601 0.04322723 -0.053429104 0.04238554 0.03813387 0.059712242 -0.03850969
-0.034351394 0.051810022 0.03319684 0.048290223 -0.1119976 0.009112509 -0.015607714 0.007569727
-0.03796755 0.028608376 -0.06402243 -0.08970554 0.028848395 -0.20254453 0.013105198 0.016994482
0.021959461 -0.01155251 0.0896432 -0.019688776 -0.043496877 -0.025277065 -0.08440388 0.05049411
0.045390453 -0.0685997 0.035352804 -0.03578715 -0.1123179 0.07124549 -0.021222865 0.057858292
0.001951075 0.016896086 -0.016538389 -0.06830103 0.012575108 -0.005785362 -0.03746173 -0.09371356
00000000: 1b24 91bc b3aa 47bc fb58 663d 070b 8a3c
00000010: d605 b8bd 083a 17be 0286 19bc fe64 cd3b
00000020: ea69 383d aec0 0f3d 709f 14be 1b5c 833c
00000030: 2e1f 0d3d 3b59 673c 56dc 49bd 0015 bc3c
00000040: c48e efbc 5664 813b 7008 01be 3814 b03b
00000050: fba4 f6bd 0020 d5bc 3caf 8e3d 6ce4 90bd
00000060: ef5f 8e3d 67b9 253d c37c b1bd dfbf 223d
00000070: 0cc0 dabd ee01 a5bd 83af 00be 7d79 a1bc
00000080: 7a58 67bd 9005 58bd 90ef 96bc 9176 3e3d
00000090: e269 86bd f301 29bd 919c 24bd dc07 c1bc
000000a0: 67fc 22bd 0c9b 1e3d 8237 663c 972d ad3c
000000b0: 23a8 90bb ca2a 6d3d da6a 863d 4fd5 01bd
000000c0: 6a36 13be 376c 17be ab93 4c3b f737 efbc
000000d0: f665 5f3d de5d b53c 8c9d a1bd c8c4 58ba
000000e0: 24c0 22bd 20c5 d83c 24f3 8bbc 853a 123d
000000f0: f504 35bd 3e94 053e 6532 693d 88ef cabc
00000100: ed58 ecbc 0fbc 833d 5ca0 983d e2c0 e53d
00000110: 1add 98bd 38e1 143d 8e2f a0bd b608 cd3d
00000120: 59c3 6a3d d827 e53d 8591 81bd 9807 9abc
00000130: 4872 5fbc 00c9 b2bd 2a02 4e3d a6e0 713d
00000140: 757a 30bb 300d e8bc 9379 61bc 35b9 d4bd
00000150: dcc1 0a3c 7b12 ba3c 9ae5 8ebd a3b8 b8bc
00000160: dfb6 cdbc 8a50 47bc eeb8 343d 6316 113d
00000170: d2a4 643c bfba e4bc 1218 e4bd a893 69bd
00000180: 5351 813d 2624 2cbd f55e 04be cded 74bd
00000190: 7f30 933d 9384 693d 494c bf3b e42e 5ebc
000001a0: 27f5 123d 3023 653d 472d 213d 4880 2f3d
000001b0: cb06 46bd d12c 133c 54b8 823d 5f24 8f3d
000001c0: e52c c13d 5cec c73d 5ed7 c63c da22 bfbd
000001d0: 2e20 4abd b323 f537 4898 8bbc c8d3 b4bc
000001e0: 3b3b edbb c8d6 3a3d 797f 86bd d66c e4bd
000001f0: 6675 b53c 5fa3 a33d 4387 7abc eac5 833d
00000200: 65bc 1dbd ea67 5dbd 4a60 b7bc e4ba 513d
00000210: 3811 2abd e312 18bc 1443 eabd d5ae 87bd
00000220: fbaa dc3d 0cfe 803c f751 51bb 0830 82bd
00000230: 8417 b03c 1249 abbc 02cc be3d ea0f d5bc
00000240: 9bcd 013d 3168 1e3d cbba 8cb9 64b5 a9bd
00000250: c5e3 53be 04cb 183e 7253 5d3d 4bfd 3f3c
00000260: a414 0c3d fc13 fdbc 7fef f33d 2e84 d63c
00000270: c4ec 1a3d 011b eb3c 6576 103c 2ab2 29bd
00000280: f081 333c f3b5 d9bd 9a95 ffbb 1db5 203d
00000290: a9ca f4bc fa22 9fbd e8ca 553c 7670 4a3d
000002a0: a987 9cbd 1dc8 2b3d 9e7a c2bd 52c1 863c
000002b0: 2f71 abbd 5d03 383c cde4 02bc 0aac 773d
000002c0: 5074 b43d 6e30 953d f74e 0cbc 9380 203d
000002d0: 1404 11bd 72bf 78bb d330 78bd 0ba4 023d
000002e0: 339a a2bc ec54 e53c f3fc 62bd 4226 373e
000002f0: 4998 26bc 3e3d 373d 3697 83bd a4f2 37be
00000300: d373 1cbd d19f 243d 1ccd 1d3d 2b85 083d
00000310: c287 4a3d 58ad 0dbe 6926 11bd fb5d 543c
00000320: e450 cabc dbc6 cd3d 26fd 36be 572e b3bd
00000330: 7297 e63b 82e5 8a3d e61e 823d 4c21 eb3c
00000340: 0bbd 833d 435c 193e 090f 313d 7ad8 5abd
00000350: 769c 2d3d 4332 1c3d d394 743d 56bc 1dbd
00000360: 0cb4 0cbd bf36 543d 69f9 073d f8cb 453d
00000370: ff5e e5bd a24c 153c 7fb7 7fbc 790b f83b
00000380: dd83 1bbd 1d5c ea3c 311e 83bd 8ab7 b7bd
00000390: 7853 ec3c d567 4fbe 2fb7 563c 0338 8b3c
000003a0: 54e4 b33c bd46 3dbc db96 b73d 5b4a a1bc
000003b0: c829 32bd d911 cfbc f1db acbd e9d2 4e3d
000003c0: 57eb 393d 007e 8cbd 1ace 103d 8c95 12bd
000003d0: ed06 e6bd 28e9 913d 93db adbc d1fc 6c3d
000003e0: 37bb ff3a a969 8a3c 847b 87bc 69e1 8bbd
000003f0: d307 4e3c 2293 bdbb 7971 19bd e5ec bfbd

network_body._body_endoder.seq_layers.4.bias f4 [256]
0.0425504 0.042966034 -0.059414044 -0.0067048557 -0.053421456 0.04662459 -0.033060804 0.017270854
0.00079950487 -0.006086383 -0.0081491945 -0.043434512 -0.034371972 -0.08523186 -0.0034333244 -0.03810257
0.02682059 -0.0052619064 -0.03440941 -0.108678706 -0.0020390307 -0.02370833 -0.0009819961 -0.032885015
-0.008110598 -0.025042154 -0.035857 -0.032345563 -0.00723413 -0.04779926 -0.024518292 -0.021042908
0.029735947 -0.03302511 -0.012063383 0.01503908 0.02340595 -0.00027301974 -0.0057662074 -0.055521462
0.0011393205 -0.021598347 0.0015752126 -0.043786988 -0.016579563 -0.04817453 -0.00828372 -0.030790709
-0.02034282 0.00011339716 0.022734804 0.026966242 -0.05150975 -0.054207224 -0.035115756 -0.018496275
-0.038128275 -0.03008478 0.053609643 -0.011382454 -0.045947198 0.012553314 0.011101891 -0.009070087
0.027031472 0.04240676 0.005938314 -0.013449663 -0.027753945 0.0043491162 -0.025778849 -0.014810981
-0.05380483 -0.028687855 -0.0070416895 -0.008893859 0.030426454 -0.0049311086 -0.042825516 0.011705277
-0.020902028 -0.008283108 -0.013790172 0.006184927 -0.0011418315 0.0049883593 -0.03095309 0.0145580685
-0.04009937 0.039599072 -0.0058627413 -0.022520969 -0.013322769 -0.0085187545 0.061948374 -0.045632485
-0.017383711 -0.061454255 -0.010100296 -0.03151321 -0.012224641 0.0017910873 -0.020297358 -0.029216276
-0.047952108 -0.043139663 0.005658069 0.014965687 -0.030219715 0.0014028108 -0.03929139 -0.04680136
-0.024359256 -0.022444285 -0.052044004 -0.04076459 0.014107425 0.0066767666 0.005013859 0.05027261
-0.016220063 -0.047605 0.07589771 -0.04516401 0.003545278 -0.041639235 -0.03224903 -0.03256016
-0.02272495 -0.01825952 -0.04486942 0.0005419342 -0.05029826 -0.035410654 -0.03580124 -0.017750025
0.03480996 0.005522314 -0.014389807 -0.0025070065 -0.050399274 0.004021042 -0.01791224 -0.038344283
-0.025342137 -0.09501391 -0.006398637 0.025597101 0.017168881 0.013105004 -0.036908586 -0.00078242575
0.005668412 -0.05331984 -0.043062136 -0.07629957 0.069813065 -0.02900844 -0.0021463903 -0.055569522
0.012327284 0.043063063 0.015716301 -0.021642327 -0.026001412 -0.061677724 -0.020845244 0.0028590222
-0.031858705 0.03933205 -0.0091226 -0.026593085 0.046037138 -0.014882591 0.011613611 0.035236523
0.0369223 0.006184848 0.014898301 0.05703038 -0.0198843 0.0012412375 -0.013976041 -0.038454376
-0.043203115 -0.082969196 -0.044612262 -0.045855932 0.028105957 -0.0357194 0.0072639645 -0.003905984
-0.019737447 -0.022780754 0.030608648 -0.04066 -0.0029427877 0.0144828465 -0.010291796 -0.0027134318
-0.036589816 -0.047650475 -0.07701748 -0.026323603 -0.05414332 -0.0097135585 0.0063446066 -0.03841682
-0.030164344 -0.06944088 -0.06066657 -0.0043769632 -0.0063673626 -0.032105938 0.06775824 -0.028039185
-0.013750598 -0.009363211 0.033292476 0.068086974 -0.022339737 0.015730469 0.001483615 -0.064859696
-0.04672852 0.046577472 0.010243225 -0.009089693 -0.021527102 -0.03799468 0.032821566 -0.0078101214
0.053229302 0.012358025 0.043473106 -0.0153946355 -0.009920075 -0.027696345 -0.0049996777 -0.028729144
-0.038085174 -0.060335506 -0.01630903 0.012730141 -0.06637928 0.008242375 0.0087082395 0.051744863
0.031749222 0.048314817 0.010415526 0.008810679 -0.031786762 -0.0023369847 -0.0039563044 0.013737398
00000000: 5449 2e3d 27fd 2f3d 245c 73bd 68b4 dbbb
00000010: 75d0 5abd 6df9 3e3d c46a 07bd 9b7b 8d3c
00000020: dd95 513a 4870 c7bb 3384 05bc 63e8 31bd
00000030: a0c9 0cbd 0b8e aebd a001 61bb 7111 1cbd
00000040: dbb6 db3c 126c acbb e2f0 0cbd f192 debd
00000050: 42a1 05bb f937 c2bc 52b6 80ba 70b2 06bd
00000060: 50e2 04bc 3425 cdbc cade 12bd c87c 04bd
00000070: 480c edbb 28c9 43bd 96da c8bc 2d62 acbc
00000080: cd98 f33c 5645 07bd 7fa5 45bc 7966 763c
00000090: d6bd bf3c 1724 8fb9 74f2 bcbb 796a 63bd
000000a0: 4155 953a 04ef b0bc 5d77 ce3a fc59 33bd
000000b0: ddd1 87bc a852 45bd 71b8 07bc cc3c fcbc
000000c0: fca5 a6bc a3cf ed38 573e ba3c 4fe8 dc3c
000000d0: e3fb 52bd 6508 5ebd 8ad5 0fbd 8085 97bc
000000e0: 652c 1cbd 5b74 f6bc c995 5b3d 797d 3abc
000000f0: 2133 3cbd 6aac 4d3c b5e4 353c b49a 14bc
00000100: 1b71 dd3c b6b2 2d3d 3096 c23b fa5b 5cbc
00000110: 3e5c e3bc 0883 8e3b 2a2e d3bc c2a9 72bc
00000120: 7462 5cbd cb02 ebbc f9bd e6bb 8cb7 11bc
00000130: e640 f93c 2395 a1bb cf69 2fbd 7dc7 3f3c
00000140: bb3a abbc dfb5 07bc 2cf0 61bc eeaa ca3b
00000150: 82a9 95ba 6475 a33b 5691 fdbc f784 6e3c
00000160: 3d3f 24bd a332 223d 3d1c c0bb e57d b8bc
00000170: be47 5abc 3f92 0bbc 94bd 7d3d 21e9 3abd
00000180: 4968 8ebc 75b7 7bbd b67b 25bc ff13 01bd
00000190: dc49 48bc ebc2 ea3a a546 a6bc f956 efbc
000001a0: 6e69 44bd 37b3 30bd 5367 b93b a432 753c
000001b0: 568f f7bc 85de b73a 02f0 20bd c8b2 3fbd
000001c0: 108d c7bc 14dd b7bc 182c 55bd c5f8 26bd
000001d0: d422 673c c7c8 da3b 4c4b a43b a7ea 4d3d
000001e0: f0df 84bc 76fd 42bd 4270 9b3d e6fd 38bd
000001f0: e557 683b e78d 2abd 8f17 04bd cd5d 05bd
00000200: ad29 babc fd94 95bc ffc8 37bd 9710 0e3a
00000210: 8c05 4ebd c30a 11bd 52a4 12bd 8068 91bc
00000220: e394 0e3d 87f4 b43b 3ac3 6bbc 974c 24bb
00000230: 786f 4ebd f2c2 833b b1bc 92bc e50e 1dbd
00000240: 509a cfbc a796 c2bd a8ab d1bb 03b1 d13c
00000250: c1a5 8c3c 5fb6 563c 752d 17bd b41b 4dba
00000260: 16be b93b e865 5abd ec61 30bd f342 9cbd
00000270: 27fa 8e3d 1ca3 edbc 74aa 0cbb de9c 63bd
00000280: 60f8 493c e562 303d 79bf 803c 404b b1bc
00000290: ea00 d5bc c8a1 7cbd a5c3 aabc 6f5e 3b3b
000002a0: 467e 02bd a51a 213d f576 15bc bed9 d9bc
000002b0: 7091 3c3d 1cd6 73bc 0447 3e3c 2c54 103d
000002c0: d63b 173d 44aa ca3b 0118 743c b098 693d
000002d0: 66e4 a2bc 05b1 a23a c4fb 64bc 5682 1dbd
000002e0: c0f5 30bd c1eb a9bd 59bb 36bd 6ed3 3bbd
000002f0: 773e e63c 814e 12bd 8d06 ee3b 8afb 7fbb
00000300: 6db0 a1bc b49e babc fdbe fa3c 1a8b 26bd
00000310: c9db 40bb 7649 6d3c ec9e 28bc d5d3 31bb
00000320: 34df 15bd 252d 43bd 57bb 9dbd 99a4 d7bc
00000330: 63c5 5dbd 9e25 1fbc 6be6 cf3b f55a 1dbd
00000340: 371b f7bc 0537 8ebd 827d 78bd a16c 8fbb
00000350: 4fa5 d0bb 8481 03bd d5c4 8a3d 6fb2 e5bc
00000360: 304a 61bc 2768 19bc b15d 083d 2f71 8b3d
00000370: d301 b7bc 2fdd 803c dc75 c23a 29d5 84bd
00000380: 6866 3fbd 05c8 3e3d 33d3 273c f0ec 14bc
00000390: 9b59 b0bc 4fa0 1bbd e86f 063d 0cec ffbb
000003a0: f806 5a3d 5079 4a3c db10 323d c839 7cbc
000003b0: cf87 22bc 72e3 e2bc 56d4 a3bb 6259 ebbc
000003c0: 33ff 1bbd 5d22 77bd 849a 85bc 1592 503c
000003d0: dcf1 87bd 070b 073c 01ad 0e3c 6cf2 533d
000003e0: 790b 023d c2e5 453d e2a5 2a3c ab5a 103c
000003f0: d632 02bd 1928 19bb e3a3 81bb d312 613c

network_body._body_endoder.seq_layers.6.weight f4 [256, 256]
0.007681218 -0.0376124 -0.07292219 -0.009795268 0.015185628 -0.06371828 -0.07207917 0.072274394
-0.0011879136 -0.048272725 0.0072577335 0.021423869 -0.01378648 -0.008569193 0.028436523 -0.04600715
-0.026133554 -0.001993644 -0.029644018 0.119227454 0.077926256 0.07610025 -0.051127564 0.09164336
-0.029616727 -0.07682201 -0.01274871 -0.025767904 -0.0841141 -0.014770782 -0.039170835 0.010615502
-0.03174759 -0.04364954 0.07434319 0.08501978 -0.01819453 -0.028938318 0.03285621 -0.0030914077
-0.10527159 -0.0419387 -0.05872745 0.033847496 -0.07256457 -0.021518687 -0.051864985 0.09671824
-0.03156447 0.05904382 0.020804599 -0.089422375 -0.012845216 0.024383832 -0.004923788 0.062363274
-0.08449958 0.0034640701 0.01817321 0.11214494 -0.0055598365 -0.16545852 -0.0213882 -0.0509428
-0.10594746 -0.0128295375 -0.070752196 0.0046699285 -0.098046325 -0.08733351 0.12645239 -0.010539811
0.09662349 -0.017133605 -0.09977323 -0.045040935 -0.11461204 -0.03929207 0.008376118 -0.03719346
0.099194646 -0.039533842 0.059382968 -0.048001736 -0.045364216 0.06535399 0.009826396 -0.020037089
0.083420075 0.039358187 -0.09684736 -0.008175424 -0.073233046 -0.09979077 0.04444834 -0.075322345
-0.05217599 0.024389653 -0.1105663 -0.018260587 -0.082811 -0.027940542 -0.029567964 -0.12728064
0.011738819 -0.0334178 -0.10445338 -0.015973005 -0.0029850402 0.036807407 -0.019885799 0.039972614
0.022149652 -0.013644151 0.1626955 -0.14479958 -0.00019844832 0.02163686 -0.13567589 0.005892516
0.034323774 -0.05141302 0.004238616 -0.047078602 -0.041016992 -0.00908407 0.008165087 0.0360374
0.0037993954 -0.07944852 -0.051461987 -0.10078557 -0.02617031 -0.1364921 0.018102642 -0.030851765
-0.063920304 -0.034609538 -0.046520952 -0.0029528048 -0.060406487 0.049128406 0.055639375 0.055570547
0.07975523 0.041484136 -0.080002815 -0.07983988 -0.062524915 0.078397095 -0.019497333 -0.001377486
0.07499026 -0.1042723 -0.05862518 0.0026143526 0.092273034 -0.038148418 -0.083080664 0.05382137
0.011725476 -0.08784994 -0.081527375 -0.0013904237 -0.037406553 -0.01511549 -0.12429189 -0.03388285
0.00480468 -0.054725636 -0.05044391 -0.0053977915 -0.083993286 -0.10361318 -0.005344089 0.018367568
0.066627465 0.110024706 0.01610465 0.021607826 -0.049766663 0.08843058 -0.08440558 0.07442416
0.06919235 0.019215588 -0.027459495 0.044731457 0.051241346 -0.1277754 -0.016565291 -0.03176042
-0.07197672 -0.0043285913 0.06479141 0.00069535733 -0.108373776 -0.009683594 -0.07609932 0.04614295
0.087528534 -0.034621026 -0.042617783 -0.025379697 0.042212013 0.07688395 -0.029363552 -0.08458447
0.022822963 -0.03704232 0.03611112 -0.05054673 0.015856197 -0.004763474 -0.031215567 -0.106710956
-0.03377448 0.0712267 0.096045166 -0.045434427 -0.06086955 0.11140015 -0.004119656 0.0012110276
0.029862465 0.010559684 0.09286737 -0.09551669 -0.0113334125 -0.08286455 -0.06867032 0.10860312
-0.025813412 -0.10164161 -0.11658727 -0.051423147 -0.057895664 -0.18190524 -0.026649542 -0.040186707
-0.08864053 -0.01662498 -0.042034354 -0.045759264 -0.019966878 0.041876517 -0.10715258 -0.03585103
-0.019484818 0.035351966 0.012142382 -0.1147763 -0.1023799 0.027607398 0.0064014667 -0.02736445
00000000: bab2 fb3b 760f 1abd 3b58 95bd 557c 20bc
00000010: 24cd 783c bb7e 82bd 3e9e 93bd 9904 943d
00000020: c4b3 9bba 9fb9 45bd 48d2 ed3b 1c81 af3c
00000030: b0e0 61bc cd65 0cbc b6f3 e83c fe71 3cbd
00000040: 0916 d6bc cca7 02bb 03d8 f2bc 862d f43d
00000050: cd97 9f3d 73da 9b3d 236b 51bd 84af bb3d
00000060: c79e f2bc dc54 9dbd f7df 50bc 3617 d3bc
00000070: 0344 acbd 2601 72bc 9971 20bd a4ec 2d3c
00000080: c309 02bd dcc9 32bd 3e41 983d da1e ae3d
00000090: b20c 95bc 0d10 edbc 3c94 063d 3799 4abb
000000a0: a298 d7bd eac7 2bbd 328c 70bd aca3 0a3d
000000b0: bc9c 94bd f547 b0bc 6170 54bd 3614 c63d
000000c0: bf49 01bd efd7 713d 686e aa3c 1423 b7bd
000000d0: be74 52bc 9ac0 c73c ba57 a1bb a270 7f3d
000000e0: 1e0e adbd 7405 633b fcdf 943c 3fac e53d
000000f0: 4a2f b6bb f56d 29be 4e36 afbc 66a9 50bd
00000100: fbfa d8bd fb32 52bc 87e6 90bd 3306 993b
00000110: 83cc c8bd e9db b2bd bc7c 013e 2caf 2cbc
00000120: 89e2 c53d c65b 8cbc e855 ccbd d87c 38bd
00000130: b8b9 eabd b9f0 20bd fc3b 093c 2b58 18bd
00000140: 9026 cb3d 3dee 21bd 8e3b 733d 789d 44bd
00000150: d4cf 39bd 50d8 853d e4fe 203c d224 a4bc
00000160: 25d8 aa3d 0d36 213d e957 c6bd 37f2 05bc
00000170: 35fb 95bd 1a5f ccbd 760f 363d 9a42 9abd
00000180: 7eb6 55bd cfcc c73c 9670 e2bd 3a97 95bc
00000190: d098 a9bd 90e3 e4bc 8438 f2bc db55 02be
000001a0: 2d54 403c 1ae1 08bd a7eb d5bd d2d9 82bc
000001b0: aaa0 43bb 5dc3 163d 8be7 a2bc 53ba 233d
000001c0: 3073 b53c b88b 5fbc a699 263e 5746 14be
000001d0: 9116 50b9 c93f b13c 9fee 0abe 0216 c13b
000001e0: 1697 0c3d 7596 52bd 17e4 8a3b 7ed5 40bd
000001f0: 6f01 28bd 5ad5 14bc dbc6 053c f49b 133d
00000200: 47ff 783b e8b5 a2bd cec9 52bd aa68 cebd
00000210: 1e63 d6bc 96c4 0bbe fe4b 943c d7bc fcbc
00000220: a6e8 82bd bbc2 0dbd c18c 3ebd d883 41bb
00000230: cb6c 77bd de3a 493d 1de6 633d f19d 633d
00000240: b656 a33d 45eb 293d 84d8 a3bd 1783 a3bd
00000250: 100d 80bd a88e a03d dfb8 9fbc c38c b4ba
00000260: 7e94 993d b78c d5bd f520 70bd 8f55 2b3b
00000270: a5f9 bc3d 8441 1cbd 3226 aabd cc73 5c3d
00000280: 361c 403c abea b3bd d3f7 a6bd e13e b6ba
00000290: 9d37 19bd f6a6 77bc bf8c febd bec8 0abd
000002a0: 9470 9d3b fd27 60bd 469e 4ebd f5df b0bb
000002b0: ac04 acbd 2633 d4bd 781d afbb 9577 963c
000002c0: fb73 883d a254 e13d e6ed 833c e502 b13c
000002d0: 21d8 4bbd 181b b53d d5dc acbd b26b 983d
000002e0: b8b4 8d3d 026a 9d3c bcf2 e0bc 5538 373d
000002f0: 72e2 513d 8ed7 02be efb3 87bc 3717 02bd
00000300: 8868 93bd dbd6 8dbb 5cb1 843d a448 363a
00000310: 12f3 ddbd f0a7 1ebc f6d9 9bbd 6400 3d3d
00000320: 2942 b33d c7ce 0dbd fc8f 2ebd 15e9 cfbc
00000330: 81e6 2c3d 5575 9d3d d58b f0bc 9f3a adbd
00000340: 39f7 ba3c b0b9 17bd 41e9 133d 170a 4fbd
00000350: dbe4 813c eb16 9cbb cab7 ffbc 468b dabd
00000360: 1c57 0abd 4edf 913d 54b3 c43d 7319 3abd
00000370: 5952 79bd c325 e43d 2efe 86bb 58bb 9e3a
00000380: 21a2 f43c 8602 2d3c 3f31 be3d 419e c3bd
00000390: c7af 39bc e4b4 a9bd 06a3 8cbd 506b de3d
000003a0: a676 d3bc 7a29 d0bd 4ec5 eebd 14a1 52bd
000003b0: 0124 6dbd 5e45 3abe 2450 dabc d19a 24bd
000003c0: 2b89 b5bd 1c31 88bc 372c 2cbd 116e 3bbd
000003d0: 9491 a3bc b686 2b3d d072 dbbd 88d8 12bd
000003e0: a09e 9fbc 39cd 103d d7f0 463c d60f ebbd
000003f0: 8eac d1bd e928 e23c 65c3 d13b 692b e0bc
