Assets/ML_PPO/results/headless_1/BoatAgent/BoatAgent-99983.onnx (onnx, 868044 bytes, 21 tensors)

discrete_action_output_shape f4 [1, 6]
00000000: 0000 0040 0000 0040 0000 0040 0000 0040
00000010: 0000 0040 0000 0040
2.0 2.0 2.0 2.0 2.0 2.0

network_body._body_endoder.seq_layers.0.weight f4 [256, 57]
00000000: 0234 803e fb42 a3bd e2c3 91be afcd 8ebd
00000010: 153e 3a3d 2ce2 893d 0b47 9abe 0c27 993d
00000020: ba12 433e e471 3bbd b5e2 01be ef21 43bd
00000030: 6f9c f3bd 40d9 babd 5451 acbd 6f1a 8e3e
00000040: 0ef4 e03d 91d2 fcbd 28e3 2dbe 9862 60bd
00000050: 7480 e1bd 52b8 9e3d 6cc0 363d c2e3 1abe
00000060: 1c78 f5bd 4718 713d 50f7 47bc 7396 b93d
00000070: 2bd8 373e f85a b93d 1a63 a7bd 69a0 3ebc
00000080: c772 3bbe 254a a03d 0756 463d ac01 533d
00000090: be27 b9bd 6bd4 213e c2a6 ca3d aa53 81bc
000000a0: e703 3abe 750a 9fbe 4df3 87bc 1372 74be
000000b0: 3611 a3bd 4c11 b3bc 1da0 5c3c 7a0b efbd
000000c0: 826b 21be db47 c23d 59ae 713d f6cf cc3d
000000d0: 8e0d a13c e63b 53bd f4b2 903c fca5 223d
000000e0: 5db1 20bd 9bf5 08bd a058 983d 085c c9bd
000000f0: 8889 8dbe ed80 0b3e 2946 833e 201a f2bd
00000100: a9a0 883d 656d b8bd 71d7 c43d eac2 963d
00000110: 73d6 45be ebf3 433e fe52 683d 29ea 813c
00000120: 1e51 4cbc 45f4 e3bc ec6a ebbd d895 5b3e
00000130: f684 46bd 52eb 08bd 368b 5fbe dd50 37be
00000140: 7616 823d 58dc 5cbe ae37 863d 7804 d23b
00000150: c3b8 1fbd 17c7 d0bd 1884 98bd 3215 bb3d
00000160: 6a9e 3f3d 58f0 51be 4775 a5bd 2cda 453c
00000170: c266 bf3c 91dc a3ba 6717 0c3e a9ae 7f3e
00000180: 25e0 453d dca8 85bd d887 dd3d 715f c3bc
00000190: e1cb 073e f3f2 a33d 0b8e 6a3e 7252 223e
000001a0: ca71 42bc 9fab f83c dc0c 42be b170 60be
000001b0: 692a 903d cf1e 30bd a2d4 b43c 5b36 a13d
000001c0: 851b e43d ca62 8fbc 79d8 60bd f33f 2dbe
000001d0: 5f31 34bd 8978 873e 034e 2dbe 3de0 b5bd
000001e0: d78a 6a3d 3040 8c3d 123e 5a3e 6a1b b63d
000001f0: 82dc f3bd d93b 873d 23e7 28bd e57d 0cbe
00000200: bcc5 9fbe dfb4 59bc 025b 11bd 14fd 91bd
00000210: f133 ac3d 14c6 87bd 9305 793d 8801 103d
00000220: a8d3 edbd e3f2 c6bd a4f6 723b 8ae0 d53d
00000230: e5d1 073e 9ff2 2cbd 51da 3b3d d697 07be
00000240: 7f56 e9bd 7550 6bbd e528 dc3d e45e 94bc
00000250: 5246 a43d e9d4 a73d 5006 4c3e 6306 0b3e
00000260: f11b b4bd 26ff afbd a95d 7a3e 1a68 7e3e
00000270: 34cd 3c3b 9106 323e 47c4 f1bd edc6 d7bd
00000280: 50c0 233d ddbf 593e 36e7 263e 3165 f4bd
00000290: 3bce 45bd 8879 8dbd 0701 80be b558 b33c
000002a0: 415b ecbd de79 283e 92cf 3ebd bd15 1c3e
000002b0: 827a c13d 209d 1c3e c5a8 7abd 91b6 c73d
000002c0: fe30 2c3e 5418 f8bd 9f08 37be d5ea cbbb
000002d0: 74d6 a03e 7eb1 293d 14c3 98bd 818b 9b3d
000002e0: b4da 623c 55e3 06bc 8587 b0be a877 733d
000002f0: 8b3b 29be 9a13 d63a 6b2b 633e dfc4 fbbd
00000300: 976a 9dbd 21ff 993d d8ca af3d f62b a7bd
00000310: deaa 94bd 19cf b03d 328f 953c 9d28 fcbd
00000320: 3bbf 353e 8e87 f9bd 634c db3c 4516 39bd
00000330: 4dc9 503e 9204 933d 3882 c53d 0acc e13d
00000340: c2af aabc 154c bd3d da3e 3f3d 0b72 53bd
00000350: 8ccf 92bd 240e 91bc c336 66be cbba b7be
00000360: 9ef5 9abd c210 34bd e5de 923c 8683 df3c
00000370: 2f14 14bd efd5 d6bc 9896 5d3d b35d cd3d
00000380: 0b68 09bd dfbf 01be a513 b8bd c9f7 433d
00000390: a865 65be 4c7c 43bd 35d2 febc 1a17 163e
000003a0: 356d 65be 6b35 56be 2d10 903d 0e67 dd3d
000003b0: 5826 343d 86bd 8abd 0095 a93b 8dc5 18be
000003c0: 18af 65be 9630 6a3d e6a4 9abe f1f3 493e
000003d0: 2891 bb3d b5bc 753e 4a7f 2abd d877 1dbe
000003e0: 8796 43be 768e b0bc 072a 3e3c 0744 7ebe
000003f0: d9c7 423d a386 4bbd c7c4 453e 9518 23be
0.2503968 -0.0797176 -0.2846976 -0.06972825 0.045469362 0.06732592 -0.30132326 0.07478151
0.19050112 -0.04576291 -0.12684138 -0.047639783 -0.11895072 -0.091234684 -0.084139496 0.27754542
0.1098405 -0.1234485 -0.16981184 -0.054781526 -0.110108286 0.0775 0.0446171 -0.15125945
-0.119858 0.058861043 -0.01220496 0.09061899 0.17953555 0.09050554 -0.08173199 -0.011634924
-0.18305503 0.07826642 0.048421886 0.051515266 -0.09040783 0.15803687 0.09895088 -0.015786964
-0.18165551 -0.31062666 -0.016595507 -0.23871641 -0.07962267 -0.021858834 0.013465908 -0.11672111
-0.15763667 0.094863616 0.05900416 0.10000603 0.019659784 -0.051570795 0.017663456 0.039709076
-0.039231647 -0.033437353 0.07438779 -0.09832007 -0.2764399 0.136234 0.25639465 -0.11821389
0.066712685 -0.0900524 0.09611405 0.07361396 -0.19320087 0.19136016 0.056719773 0.015858727
-0.012470512 -0.027826438 -0.11495003 0.2144388 -0.048466645 -0.033427544 -0.21830449 -0.1790194
0.0635194 -0.2156843 0.06553589 0.006409224 -0.038994562 -0.101942234 -0.0744707 0.09134902
0.046781935 -0.2050184 -0.080790095 0.012075942 0.023364428 -0.0012501647 0.13680802 0.24968971
0.048309464 -0.06526348 0.10816926 -0.023849221 0.13261367 0.08005323 0.22905748 0.15851763
-0.01186795 0.030355273 -0.18950218 -0.21917988 0.07039339 -0.04299813 0.022074047 0.078716956
0.111380614 -0.017503161 -0.054893944 -0.16918926 -0.043992396 0.2645915 -0.1692429 -0.08880661
0.057261314 0.0684818 0.2131274 0.088919476 -0.11907293 0.06603212 -0.041236054 -0.137199
-0.31205547 -0.013287752 -0.035487182 -0.07128349 0.084083445 -0.06629577 0.06079633 0.03515771
-0.11612636 -0.09714296 0.0037073279 0.10443218 0.13263662 -0.04222357 0.0458625 -0.13241515
-0.11393451 -0.057449777 0.107499875 -0.018111654 0.08021225 0.08194906 0.19924283 0.13576655
-0.08794392 -0.085935876 0.24449791 0.24844399 0.0028808834 0.17385317 -0.11805015 -0.10535989
0.039978325 0.21264596 0.16299137 -0.11933363 -0.04829238 -0.06907946 -0.25000784 0.021892885
-0.11540843 0.16452739 -0.046584673 0.15242667 0.09447195 0.15294313 -0.061196107 0.09751619
0.16815564 -0.12114015 -0.17874382 -0.0062230625 0.31413615 0.041429035 -0.07459083 0.07594968
0.013846088 -0.008232911 -0.34478393 0.059440285 -0.1652662 0.0016332746 0.22184531 -0.122934096
-0.07686346 0.07519365 0.08583611 -0.08162682 -0.07259153 0.08633251 0.018256757 -0.12312434
0.1774873 -0.12184058 0.026769822 -0.045187254 0.2038929 0.07178606 0.09643978 0.110252455
-0.020835761 0.09243027 0.0466908 -0.05162243 -0.07168493 -0.017706938 -0.22481827 -0.358847
-0.07566379 -0.043961294 0.01792855 0.027284395 -0.03615206 -0.026225058 0.054098696 0.10027637
-0.03354649 -0.1267085 -0.08988122 0.04784373 -0.2240206 -0.04772596 -0.031106094 0.1465725
-0.2240494 -0.20918815 0.07034335 0.10810672 0.04398188 -0.0677443 0.005175233 -0.1491911
-0.22430074 0.05717524 -0.30203933 0.19721963 0.09158546 0.23997767 -0.0416253 -0.15377748
-0.1910039 -0.021552306 0.0116067 -0.24830638 0.04755387 -0.049688946 0.19313346 -0.15927346

network_body._body_endoder.seq_layers.0.bias f4 [256]
00000000: f403 3539 258d 6d3b 1a91 0bbb 614d ab3b
00000010: 03d7 aebb ae5b 29bb 74b7 633a b91a 183b
00000020: 1f6d fabb 2144 983a cf53 1bbc cd0e 673c
00000030: 03c1 8b3c cc23 d839 729c 4cbb 0e71 bb3b
00000040: 79a1 20bb 936d 773b 8ad5 8e3a e21b 5fbb
00000050: c59e 26bb 4246 a3bb 2a31 b7bb 7aeb c1bb
00000060: 1128 41bb 2e29 1539 93a6 8fbb 1ca2 873a
00000070: 6288 623b d860 d3bb 3105 7c3c bd0c 9dbb
00000080: 1a13 bbbb cbb8 ed3a f279 a5bb 35da 86ba
00000090: f5e2 633c bd7d 233b fb46 82ba 8e70 7bba
000000a0: bc9e f23a 1a08 5cbb 6a29 1938 b548 0f3c
000000b0: 75e1 663c 1986 d13b 30fb efbb afd4 bc38
000000c0: f841 9fbb 39fc 593b 50af 23bc db4f 9d3b
000000d0: bc3f c53a bb39 e839 c6c2 a5b9 9bbb f538
000000e0: 4413 1e3c d9bf 3d3a 8530 75ba 1e22 e03b
000000f0: ab6f ba3b caee e23b b151 57ba 2404 c8bb
00000100: 79a7 2aba 334d 15bb 5a8b d33b ada0 8bba
00000110: f1cd ecbb 6e21 9d3a a2ff 7b3b 9d3d c3bb
00000120: d9a6 713b 81c0 553a a626 d6bb e3c5 a1bb
00000130: e451 123c a0a9 683b 58cb 5b3c 656e 39bb
00000140: e00f 103b 0f1d b439 d3aa 85bb f4e0 6e3b
00000150: 7084 b73c e062 eb3b a944 82bb c219 2cbb
00000160: 389d 6ebb 9c92 18bc 6a36 813b 0da3 3bbb
00000170: edda 72bb 5a32 90bb 4b16 caba 01e3 4d3c
00000180: a2a5 233c b0dc 1b3a c01c 60ba 5173 f83a
00000190: 3c57 9ebb 6dac 4eba 996f c3bb 54b0 66bb
000001a0: e224 62bb b9df 203b e8a9 65bb 94b8 e23b
000001b0: 804a cdb9 0685 c93a 783f 383b 1a2e b7bb
000001c0: efa3 353b 4093 843c 39db f8ba dea5 d1ba
000001d0: 093a 853b f6f5 b0bb 3715 6dbb 3c7b 50bb
000001e0: f085 8abb e8b5 20bc 08b2 aebb 95ba 37bb
000001f0: 996c e9bb 17df 863b c69a 06bc 54cc 98b8
00000200: bccb 7bbb 76fa 7e3b c90e debb 20ec efbb
00000210: 6717 493a 1086 e93a f5d4 9e3a eaab 35bb
00000220: 8e80 52bc 8b01 12bb b94d bbba 189f 5d3c
00000230: 9256 29bb 534a c93b 330c c4ba fb26 81ba
00000240: 0a4e 09bc d1a9 e23a e34c baba b9e9 93ba
00000250: ec0d 48bb 829d adbb 045b dabb d3b2 41bb
00000260: fafb eab7 a966 053b 4b94 a53a 3316 3bbb
00000270: e03d 21bb 9505 373c bc6a 80bb 1305 523a
00000280: e222 003c a4e8 48bb 2140 1e3a 9e31 0abb
00000290: b384 03bb c4f0 253b e788 ff3a 15f5 b2ba
000002a0: e26c 55bb afeb e139 c9cf f4b7 aed7 ce39
000002b0: 7384 c13b e918 5b3b 6f85 bc3a d7c3 343a
000002c0: 434d 203c 4318 99bb a8cf 973a 8e26 5bb9
000002d0: cd03 4aba 62f8 45bc fe29 c33a e66c 00bc
000002e0: 9dfa 29bc e9bb ff3b 5c94 4cbb 9da7 86bb
000002f0: 8cd3 84bb 4d69 b3ba b0f9 4c3b 38fc 463c
00000300: b701 15bb 4057 bebb 41a6 cf3b 2c17 fc3b
00000310: 699b 073b 2988 5bba 88fd eb3b 5414 b6bb
00000320: a7f9 ca3b 020d e83a 34b3 01bb 3232 973b
00000330: 479f 09bb 0bd0 e739 2183 ebba 4338 063a
00000340: 2354 babb 2c1a 673a f2d9 5239 1148 fa3a
00000350: 7076 1cba f324 863c b30e 37b9 873c a6ba
00000360: f5b0 aa3b cdc7 803b 82e8 a1bb 2164 a9bb
00000370: 78d8 fdbb 6594 fe3a 346f 3d3a 8754 a0bb
00000380: 9f56 16bb 00d6 b93b bbd7 4b3a e2d4 b7bb
00000390: a86b ed3b 61fe 8cb9 f989 79bb cd28 87bb
000003a0: 9fda 753a 19b9 05bc 8643 01bb c848 2d3b
000003b0: 91a5 dcbb 8bd2 27bc 11cd 87bb 7e1b 1d3a
000003c0: 24bf 6d3b 707b d6ba 36c9 4dbb 214a da3b
000003d0: 07ff a8bb 6ffc 563c 7a90 acba 4bcd e1bb
000003e0: 0583 6537 601b eebb 3e62 00bc 2599 8cb9
000003f0: 1069 6d3b a171 90bb fb54 2cbb e8a8 8cba
0.00017262978 0.0036247459 -0.0021296204 0.00522773 -0.00533569 -0.0025842 0.00086866994 0.0023209287
-0.007642403 0.0011616984 -0.009480431 0.01410265 0.017059809 0.000412254 -0.0031221178 0.0057202643
-0.0024510308 0.003775452 0.001089738 -0.003404372 -0.0025424224 -0.0049827406 -0.0055905776 -0.0059179636
-0.0029473344 0.00014225088 -0.004383871 0.0010347995 0.0034566154 -0.0064507537 0.015382097 -0.0047927783
-0.005709064 0.0018136738 -0.0050499374 -0.001028842 0.013909091 0.0024946772 -0.0009939367 -0.0009591662
0.0018510441 -0.0033574165 3.6516612e-05 0.008745362 0.014091839 0.0063941595 -0.007323645 9.004154e-05
-0.004860159 0.0033261909 -0.009990528 0.0048007793 0.0015048902 0.000442935 -0.0003161637 0.000117174546
0.009648148 0.00072383654 -0.0009353238 0.0068400046 0.0056895814 0.0069254385 -0.0008213772 -0.006104009
-0.0006509941 -0.002278161 0.006455821 -0.0010652744 -0.0072266986 0.0011988112 0.003845193 -0.0059582726
0.003687313 0.00081539905 -0.006535369 -0.00493692 0.008930657 0.0035501495 0.01341518 -0.002829456
0.0021982118 0.00034353926 -0.0040792017 0.003645 0.022402018 0.0071834177 -0.00397547 -0.002626047
-0.0036409628 -0.009312298 0.0039432542 -0.0028631121 -0.003705676 -0.0044005336 -0.0015418021 0.012566329
0.00998822 0.0005945666 -0.0008549206 0.0018955265 -0.0048321765 -0.000788397 -0.005964231 -0.0035200315
-0.0034506847 0.0024547412 -0.00350439 0.006918976 -0.00039156154 0.0015374727 0.0028114002 -0.0055902125
0.002771612 0.016183496 -0.0018986232 -0.0015994867 0.004065756 -0.0054004146 -0.0036175975 -0.0031811735
-0.0042273924 -0.009808995 -0.0053312816 -0.0028034796 -0.0071235416 0.00411595 -0.008215612 -7.285984e-05
-0.0038420996 0.003890661 -0.006776665 -0.0073218495 0.0007671029 0.0017816443 0.001211791 -0.0027720877
-0.012848033 -0.0022278752 -0.0014290131 0.0135267 -0.0025838953 0.0061428933 -0.0014957249 -0.0009853536
-0.008380422 0.0017293041 -0.0014213588 -0.0011284865 -0.0030525876 -0.0052983174 -0.006663682 -0.002955605
-2.801231e-05 0.002035538 0.0012632696 -0.0028547167 -0.002460353 0.011170764 -0.0039189737 0.00080116204
0.007820817 -0.0030656243 0.00060367776 -0.0021086703 -0.0020068109 0.002532051 0.0019495756 -0.0013653362
-0.003256612 0.00043090942 -2.9183824e-05 0.00039452076 0.0059056818 0.0033431596 0.0014383028 0.00068956375
0.009784046 -0.0046720817 0.0011582272 -0.0002089983 -0.0007706255 -0.012083145 0.0014889834 -0.007838463
-0.010374692 0.007804383 -0.0031216359 -0.0041093365 -0.0040535387 -0.0013687998 0.0031276755 0.012145095
-0.0022736618 -0.005808741 0.0063369577 0.007693192 0.0020691997 -0.00083744765 0.007201854 -0.0055566225
0.0061943117 0.0017704072 -0.0019790651 0.004614138 -0.0020999478 0.00044214758 -0.0017968157 0.0005120078
-0.0056862994 0.00088158506 0.00020108352 0.0019094964 -0.00059685763 0.01637504 -0.00017457716 -0.0012682833
0.005209083 0.003930068 -0.004941047 -0.005169407 -0.0077467524 0.0019422887 0.00072263484 -0.004892889
-0.0022939814 0.0056712627 0.0007775982 -0.0056100944 0.0072454996 -0.00026892408 -0.0038076623 -0.004124737
0.00093785854 -0.0081618065 -0.0019724085 0.0026441086 -0.0067336042 -0.010243068 -0.004144319 0.00059931714
0.0036277259 -0.0016363692 -0.0031400449 0.006661669 -0.0051573548 0.013121708 -0.0013165616 -0.006890928
1.3679969e-05 -0.007266447 -0.007835923 -0.00026816982 0.0036225952 -0.004408077 -0.002629577 -0.001073149

network_body._body_endoder.seq_layers.2.weight f4 [256, 256]
00000000: 4007 bcbc 3f2d d33d 6a9e 973d 3d0f c8bc
00000010: afeb 983d 3f61 9f3c d4d4 373c 0112 d5bc
00000020: ea53 a73a e38b 463d 74d9 683d 27ad 8fbc
00000030: 6f14 3fbd 7915 bdbd cbeb 6cbc 487f 47bd
00000040: 9592 ffbc 25a3 073e 4dc9 63bd 6f82 963a
00000050: cdf6 aabc b61b 613c b734 04bc c60f a83d
00000060: 1e35 9e3c 5bf9 1b3e 6c28 d23d a543 d6bc
00000070: abc2 1abd da0d 1d3d 3aaf 9abd e273 d2bc
00000080: df2c 28bd f5d4 ecbc 0ae7 d8bd d969 833d
00000090: dc09 75bc 149d fe3c c9c6 82bc 218a cabc
000000a0: 59bd 80bc bc79 143d 963c 3d3d efaa e2bc
000000b0: 51c3 d63d 86aa 163d 8563 9abd 6732 c1bd
000000c0: 1406 5a3c 1b99 2b3d 66c6 8f3c 71bc e63b
000000d0: c4af dcbc 5b9e 87bc f07c 1e3c fd54 2a3d
000000e0: a7ba 423d 5c60 a9bc 0ac8 82bc 56e1 803d
000000f0: bc88 bb3d 317c 583d 0902 a53d 47ac 82bd
00000100: 0e29 0c3d f2e8 7c3d eba2 883d 8726 3cbd
00000110: 00ef c83c e1fc e13b 38a0 b53d d06b a7bc
00000120: 4594 9cbc f374 9ebc 7beb 983d a37c 95bd
00000130: ee29 b8bd 4235 2bbd acb7 3bbd c4a4 073b
00000140: 8e9d 12be dbce 71bc 5f59 1b3c a95d 92bd
00000150: 2f70 a0bd 7721 993d 4033 cc3d 1d09 d13c
00000160: bf4b 4ebc 4179 863d 88a8 c3bd df55 4dbd
00000170: a1ad 4a3d e0da 2e3d b0c6 2d3b 4195 e9bd
00000180: e217 36bd b143 09bb 3fd4 dcbc 15cd 87bd
00000190: 228a 8cbd aa8a c33d b612 88bd d54d 2c3c
000001a0: 15f4 e53a cd39 3c3c 4c02 233e f282 773d
000001b0: c776 19be a26b f6bb 641b 7dbd 1185 b83b
000001c0: e6d7 0b3d 0f1b ad3d d817 38bc 8624 36bd
000001d0: 741d acbd 3c3c ce3d c424 22bd 993e 14bc
000001e0: ee9d d1bd f98e f3bd 8ed8 97bc 46bb 9bbb
000001f0: 5d95 413c 4087 8fbc f9f3 63bc d74a 1ebd
00000200: cddd 9ebc 45b8 b03c 6699 633d 2b1b 5cbd
00000210: e227 82bd 7419 ea3d be43 9bbd 6ab2 fb3d
00000220: c657 03be 2d2e 923c 70f3 0f3e 4636 5c3d
00000230: a53d babc e876 da3d a597 13bd 5891 c8bd
00000240: fe17 88bd 34ae 81bd 14df f93d d990 cebd
00000250: ca4d 483d 41b8 23bd bada ddbd 0257 b1bc
00000260: 9d89 afbc 0a3f bb3d 4a2b ab3c 7eed 4e3d
00000270: 9ff0 8d3c e679 be3c 0ffc d0bb afae c6bc
00000280: ea0f 5d39 8129 013d e40c de3d 18ad 453b
00000290: cb19 8abd cbd0 46bb 9b92 263d 85cc a03d
000002a0: 1ba0 b1bc 07bf 193c 13ee e4bc 9848 753d
000002b0: 131c 8fbc 8230 51bd 227d d1bd 3414 6ebd
000002c0: 889e 76bd 1718 45bd 07a9 1abb 158e cb3b
000002d0: 80c5 de3b a5ac bfbd e4f1 dd3d b044 cfbc
000002e0: 8b1d babc e338 1e3d 6d7f bbbd 4997 bc3d
000002f0: c7a5 523d ff25 b0bd 4b72 083d 16ef 83bd
00000300: 6667 01bd c7b5 0b3d 87c4 9abb 2876 6abd
00000310: 6bae d73d fcd7 ceba 530c ed3c e657 2d3d
00000320: b3fa 933d 8262 91bb 372b 04bd 887e f23d
00000330: b7ca b2bb d87d aebd 6f26 bfbc a738 b9bd
00000340: ef53 a13d fce7 3a3c e0e9 a53a b3ee 293d
00000350: 20a9 52bc b240 b0bb 5337 f73c 86fc 2cbc
00000360: 4f99 923d e8da f13d a35b e6bc 016a 8b3d
00000370: 6167 073e 3e7a 63bd eeff f5bc e296 72bd
00000380: 7d38 a03b 25ab 5e3c f791 0cbe c14e ad3d
00000390: c3a7 9d3d c9d5 eebc 1bd8 50bc fc5c 863c
000003a0: b937 7bbb 880c 363c 7315 01bd b512 6b3d
000003b0: 0903 003e e3ef 493d 1fd8 903d 17dd b13d
000003c0: 64c2 dd3d 23bb f53d daed 8c3d f51b 873c
000003d0: dc62 04bd 88ee f93c cd4e a03d 1bff f33c
000003e0: 795c 9abc f462 3cbc 3d26 0e3d ce5a 1abc
000003f0: 217d fbbb 303a e23c e565 7fbc 5ee8 d43d
-0.022952676 0.103113644 0.07403262 -0.024421329 0.07466828 0.01945555 0.011220176 -0.026009561
0.0012766097 0.04847325 0.056848004 -0.01753862 -0.046650346 -0.09232611 -0.014460514 -0.04870537
-0.031197825 0.13245828 -0.055611897 0.0011482964 -0.020869637 0.013739517 -0.008069209 0.082061335
0.019312438 0.1523184 0.10261616 -0.026155302 -0.037783306 0.038343288 -0.07552953 -0.025690023
-0.041058417 -0.02891014 -0.10590942 0.06416673 -0.014955964 0.03108076 -0.015963929 -0.024724068
-0.015715288 0.036248907 0.046200357 -0.027669398 0.104864724 0.036783718 -0.07538513 -0.094334416
0.013307113 0.04189406 0.017550658 0.007041507 -0.02693928 -0.016555002 0.009673342 0.041584957
0.047541287 -0.02067583 -0.015964527 0.062929794 0.091569394 0.052852813 0.08057029 -0.063805155
0.03421884 0.06174559 0.06671699 -0.04593518 0.024528027 0.0068966006 0.0886845 -0.020437151
-0.01911367 -0.019342875 0.07466789 -0.07299163 -0.089923725 -0.041798837 -0.04582946 0.0020697573
-0.14317915 -0.014758791 0.009481757 -0.071467705 -0.07833897 0.07477086 0.09970713 0.02551704
-0.012591301 0.06566096 -0.09553629 -0.05013072 0.04948199 0.042689204 0.0026516132 -0.11405421
-0.04445637 -0.0020944888 -0.026956676 -0.06630913 -0.06862284 0.095479324 -0.06644194 0.0105166035
0.0017544056 0.01148839 0.15918845 0.060427614 -0.14986716 -0.007520155 -0.0617937 0.005631097
0.034141444 0.08452427 -0.011236154 -0.044468425 -0.08404055 0.100700825 -0.039585844 -0.009048128
-0.10235201 -0.11892504 -0.018535879 -0.0047525493 0.011815396 -0.017520547 -0.013913148 -0.03864559
-0.019392872 0.021572242 0.055566214 -0.053736847 -0.06355263 0.11430636 -0.0758128 0.12289889
-0.12826452 0.017844284 0.14057708 0.053762697 -0.022734473 0.10667211 -0.03603329 -0.09793347
-0.06645201 -0.06332055 0.12200752 -0.10086221 0.04890231 -0.03997064 -0.108327344 -0.021647934
-0.021427924 0.09142883 0.020894665 0.05051946 0.017326651 0.023251485 -0.006377704 -0.024253218
0.00021082131 0.03153372 0.108423024 0.0030162986 -0.06743201 -0.0030336853 0.040667158 0.07851509
-0.02168279 0.009383923 -0.027945554 0.059883684 -0.017469442 -0.05107165 -0.10228945 -0.058124736
-0.06020978 -0.048118677 -0.0023599283 0.006212006 0.006798446 -0.09359101 0.108371526 -0.025301307
-0.022719165 0.03862847 -0.09155164 0.09208543 0.05142763 -0.08600997 0.033312123 -0.064420864
-0.03159275 0.034108903 -0.004723135 -0.05724159 0.105313145 -0.0015780921 0.02893654 0.042320155
0.072255515 -0.004436792 -0.032267775 0.1184054 -0.0054562944 -0.085200965 -0.023333756 -0.09044009
0.07877337 0.011407848 0.0012658201 0.041487407 -0.012857705 -0.005378806 0.030177748 -0.010558253
0.071581475 0.11809331 -0.028119868 0.06807328 0.1322303 -0.0555365 -0.030029263 -0.059225924
0.0048895464 0.013590609 -0.13727556 0.08462287 0.07698014 -0.029154675 -0.012746836 0.01640176
-0.0038332774 0.011111386 -0.031514596 0.057390887 0.12501158 0.04930104 0.07072472 0.08684748
0.10828093 0.11998584 0.06881304 0.016492823 -0.032320842 0.030509248 0.0782753 0.02978473
-0.018842923 -0.011498202 0.034704436 -0.009421064 -0.0076748286 0.027615637 -0.015588258 0.10395883

network_body._body_endoder.seq_layers.2.bias f4 [256]
00000000: 290a 1cbb 9984 4fbb 9c75 43ba 2405 2e3c
00000010: 2a8a ccbb 5a21 d53c fabf fdb9 62f0 ceba
00000020: af87 08bb a603 003c 996c b0b7 e07b a2ba
00000030: 461b c03a 2ddf 5dbb a23c 8f3a 16eb 263b
00000040: e72a 0c3b 0b1d 3abb 470f e1ba 04db cb3a
00000050: 9cad 2dbb ac58 6fba 5b3f 863c 25fe ffba
00000060: 042f 713b daa5 6cbb 66bc 253b 3329 f3ba
00000070: 8aa9 30ba ed2d 1f3b 54e8 0e3b 3372 a23b
00000080: 6aa0 92ba 4abf 573c eeed b9bb a4ab 5dbb
00000090: ab23 bf39 64e8 a1bb 100c a2bb 7dc3 373a
000000a0: 725f 683a 102e 34bb b479 64ba e024 11bb
000000b0: 3ecb c0bb 3b95 973c 6d9c 4e3b 4b91 95ba
000000c0: ee7f 3039 caf6 de3b 9fe5 e4ba 3541 53bb
000000d0: 158d f6ba e7a4 4f39 b10f 34bb 8b53 98ba
000000e0: 7cc8 9ebb 7b90 df3a aefc 2cbb 58fd 783a
000000f0: 4fc7 e13a 456a 32bb fde0 2aba 623a 5aba
00000100: 16c4 01bc ca40 c63b 3455 bfbb 63f0 2dbb
00000110: f8ae 40ba 4123 ccba 5337 a3bb a9d1 edba
00000120: e721 b2bb e667 53bb b417 8fbb b30c 323b
00000130: d03e 5139 3a36 2eba b3fc 13bb da14 96ba
00000140: 7fb6 81bb 5a6f e7bb f7db 013c 5fd4 e9b9
00000150: 3bea 65ba 1c0c 003b 9a2a 873b e6b7 c9bb
00000160: e8db e13c b737 86bb 48c0 e139 f238 c03a
00000170: 5ff9 5dba aa1c 0f3a caeb a63a 6ae0 9fbb
00000180: 01e9 8139 2e1e a0bb f2ba 00ba 725b 07bc
00000190: 4543 013a 43f8 493b 0db8 003b f80b 6839
000001a0: b50d a83b c64b e23b fd0b 4abb acb0 d3ba
000001b0: a0b4 03bc 73f2 40ba 9909 013a e0c0 313b
000001c0: b125 3cba d78d 0dbb 0929 31ba f87b b43a
000001d0: 63a3 ad3b 29fb 9bba 2e7b 46bb 2d1c a63b
000001e0: 00d0 093b d007 39bb a2d7 f93a 93f3 8bbb
000001f0: 2275 b1bb af95 ebbb 7dfa 20bb 84bc d7bb
00000200: 471a 84bb fbda c63a b1f0 9e3b c1e1 a1bb
00000210: 94df 6d3b 93be 9fbb 72f4 a3bb 7363 36bb
00000220: 97c0 5fb9 f1c2 82bb a9cd 833c 8fcf 87bb
00000230: 5979 34bb 4688 853b 08e2 223c 137b b73b
00000240: e25f 27ba c0f7 2abb b2b0 c1ba adce 993b
00000250: 7291 02bc e53a 73bb ee49 893a 5274 0139
00000260: c534 41bb 7136 ad3b bf1a 803c 94e9 8fbb
00000270: 3543 763a e30e db3b 099a f73b a10a 68ba
00000280: 5227 22b9 b1b8 87bb 2027 c1bb a983 47bb
00000290: cc70 f2ba d41e 603b 17c9 d4bb 0a9a 26ba
000002a0: 633b 893a 2b84 a3ba ba8d e33a eed6 183a
000002b0: 96aa 9e3b ade4 fdba 6783 81bb 7415 80bb
000002c0: 040a 7e39 75a6 9e3a 555b 53bb cf62 ecba
000002d0: 810a 393b 8b95 42ba ec78 51bb 7a47 6a3c
000002e0: f576 39bb f012 8eb9 86dc 7dbb ef54 90bb
000002f0: 8845 d5bb 6e43 5cba ae3a 68ba 1a8d da3b
00000300: 0cdb 98bb 42cb 88bb cc30 3b3b 21f5 153b
00000310: cca1 363b ead7 5b3c 37f5 b0bb 495e 9dbb
00000320: aae1 973a 96de 98ba fb45 0bbb b5c6 d0bb
00000330: 1e68 87bb 2932 84bb ec04 2abb 315c 503c
00000340: 40a2 5c3b 4cfe 133b 5928 a73a ef3b c838
00000350: a2ae ad3b c98c 7eba a3bf 4c3a 1b94 933b
00000360: 7d0d d83a deb4 46bb f357 aaba bc6f 253c
00000370: 4ec2 163c 4880 ecb8 c5e8 273c b0f3 b6bb
00000380: 51a1 5abb 8e3f dd3a b8e6 15bb 43d5 b4bb
00000390: 47d1 f1ba 3139 72b9 d90e 09bb 3387 2cbb
000003a0: c1e6 b23a 83c8 19bc 4849 96bb 3063 9aba
000003b0: 9e7f acbb a3af beba 7b95 9bbb b733 56bb
000003c0: 0987 213a 8878 993c 4f8f ddbb 4f78 2fb9
000003d0: 562a 72bb 186e 12bb 9a2f e7bb 73b7 41b8
000003e0: ae85 14bb d88c 7a3b 8317 cd3b d35e 373b
000003f0: 9f06 03ba 7c9d 0abb 6e9b 3fbb 0bdb c1ba
-0.0023809767 -0.0031664728 -0.0007456185 0.010621343 -0.0062420564 0.02601688 -0.00048398954 -0.0015788192
-0.0020832827 0.00781337 -2.1031405e-05 -0.0012396537 0.0014656566 -0.0033854947 0.0010928104 0.0025469712
0.0021387876 -0.0028398659 -0.0017170691 0.0015552943 -0.0026501184 -0.00091303396 0.016387632 -0.0019530697
0.0036801705 -0.0036109597 0.0025289296 -0.0018551707 -0.00067391305 0.0024288849 0.0021805959 0.0049574613
-0.0011186723 0.013168165 -0.0056741154 -0.003382423 0.00036456934 -0.004941033 -0.0049452856 0.0007010026
0.000886432 -0.0027493276 -0.0008715645 -0.0022147223 -0.0058836034 0.018503776 0.0031526343 -0.0011411099
0.00016832325 0.006804322 -0.0017463452 -0.0032234911 -0.0018810356 0.00019802489 -0.0027475173 -0.0011621577
-0.004845677 0.0017056608 -0.0026395726 0.00094982004 0.0017225536 -0.0027223986 -0.0006518511 -0.000832474
-0.007920286 0.006050204 -0.0058390144 -0.0026540987 -0.0007350291 -0.0015574471 -0.0049809604 -0.0018144149
-0.0054361704 -0.0032257973 -0.0043668393 0.0027168214 0.00019955193 -0.00066456536 -0.002258104 -0.0011450306
-0.003958523 -0.0070628347 0.007925979 -0.00044599452 -0.000877056 0.0019538468 0.0041249515 -0.0061559556
0.02757068 -0.004095997 0.00043058605 0.0014665409 -0.000846764 0.00054592884 0.0012735066 -0.004879047
0.000247784 -0.00488641 -0.00049106695 -0.008261548 0.00049309834 0.0030818142 0.0019640953 0.00022129703
0.005128587 0.0069060056 -0.00308299 -0.0016150675 -0.00803867 -0.00073603465 0.00049223896 0.002712302
-0.00071772473 -0.0021599436 -0.0006758129 0.0013769856 0.005299018 -0.0011900413 -0.0030285823 0.005069277
0.0021028519 -0.0028233416 0.0019061456 -0.0042709797 -0.0054155746 -0.0071894745 -0.0024563365 -0.006583752
-0.004031453 0.0015171462 0.00485047 -0.004940242 0.0036296593 -0.004875013 -0.0050035054 -0.0027830272
-0.00021338683 -0.003990524 0.016089277 -0.004144616 -0.002753815 0.004075083 0.009941585 0.0055993884
-0.0006384832 -0.0026087612 -0.0014777391 0.004693827 -0.007969247 -0.0037113961 0.0010474303 0.00012345731
-0.0029480916 0.005286031 0.015637754 -0.0043918584 0.000939417 0.0066851242 0.007556204 -0.00088516815
-0.00015464172 -0.00414189 -0.0058945566 -0.0030443466 -0.0018496751 0.0034198062 -0.0064936983 -0.0006355351
0.0010469969 -0.0012475302 0.0017360963 0.0005830367 0.004842113 -0.0019370519 -0.003952432 -0.0039088074
0.00024227059 0.0012104051 -0.0032250483 -0.0018034818 0.002823502 -0.00074227963 -0.0031962944 0.014299268
-0.0028299664 -0.0002709846 -0.0038736179 -0.004404656 -0.006508533 -0.0008402382 -0.00088588416 0.0066696526
-0.0046647843 -0.004174621 0.002856302 0.0022881704 0.0027867435 0.013418177 -0.0054003256 -0.0048024994
0.0011587639 -0.0011663015 -0.0021251428 -0.006371344 -0.004132285 -0.0040343 -0.0025942875 0.012717293
0.0033666044 0.0022581993 0.0012753113 9.547907e-05 0.005300359 -0.00097103097 0.00078105385 0.0045037395
0.0016483512 -0.0030320208 -0.0012996182 0.01009744 0.009201599 -0.00011277251 0.010248368 -0.005583249
-0.0033360312 0.0016879903 -0.0022873115 -0.005518587 -0.001844921 -0.00023100224 -0.002091339 -0.0026325702
0.0013649092 -0.009386185 -0.0045863725 -0.0011778828 -0.0052642366 -0.0014548193 -0.004748044 -0.0032684633
0.00061617844 0.018734232 -0.0067614685 -0.00016734119 -0.0036951504 -0.0022343453 -0.007055235 -4.6185636e-05
-0.0022662687 0.0038230922 0.0062589063 0.0027980104 -0.000499824 -0.0021150997 -0.002923693 -0.0014790011

network_body._body_endoder.seq_layers.4.weight f4 [256, 256]
00000000: 004c 2abd bc24 5b3c 010a 82bc 233b 123e
00000010: 5da0 543c 4465 5c3d 2073 253d 95bd 823d
00000020: 2090 773d 7b48 40bd 8979 7a3d b438 dbbc
00000030: 4ed7 a43c aa8f c93d ee5c 04bd 0895 ad3d
00000040: a3f7 82bd 6d00 78bd 203b 55bd 8b6e 0e3b
00000050: 3439 883c f035 82bd 2bc1 10bc 3330 23bd
00000060: 983e 063e b7b8 bebc a5b1 9ebc e375 8b3d
00000070: ba97 cf3b a3b5 873d db0c 3d3d 5897 e3bc
00000080: 2fd3 08bd fe09 923d 80c1 61bd 98bc 46bd
00000090: 1a3b d5bd a089 913d b520 2abc 4b76 4fbd
000000a0: bf90 833c a60a 33bd b9fb 83bc 1f35 753d
000000b0: be7d ecbd d446 39bd 5224 153d 8f3f b23c
000000c0: 7512 923d 7bc7 dc3c 1e8f 9e3d 3d8d 873c
000000d0: 96ba 00bd fc5b 96bc 9097 2fbc 0005 983d
000000e0: a8c3 813d 852e d2bd fb01 bbbd 7dce b73d
000000f0: 33ca 743d 3e43 213c 781f 003d de9f b73d
00000100: ba3c ac3d 11a7 bb3c 25ef d8bd 615b 423d
00000110: 113c bd3d 9310 083e aaab 8f3d 143e acbc
00000120: d838 1fbd 04a4 7b3d 0588 c3bd 8fbe cc3d
00000130: 8b90 9ebd 2e34 06bd 6b3e 733a c0ef 7d3d
00000140: ecf5 283c b962 88bd 3ad0 bf3c 04bc dbbc
00000150: df8d a0bd b107 fdbd 358c 2dbd f3b1 7abd
00000160: 63e6 6a3c 8004 e5bb 838b 813d 657d 143d
00000170: a151 f73b efa7 b03a f65e 72bc 04ee f8bc
00000180: 3860 3e3d a58a 523c 809d 38bc fb3b a33d
00000190: 3880 d7bd 8a64 c1bd a3e4 10bd 2479 803d
000001a0: b34f 3d3d a9e4 083e c1dd a4bc fc24 dabc
000001b0: 638b 9c3d bc74 e43d b702 323e c32c 1fbd
000001c0: 5daa 743d 4998 51bd 870e 6b3c 20c4 d0bc
000001d0: 2ffc a0bc 8677 8dbd b9dc 153d 3570 623c
000001e0: 2401 e03a 1683 74bd 7d2a ad3c 09d3 9fbd
000001f0: 0fe5 9fbd cc65 f53c 5084 f0bd d335 04bd
00000200: 81a9 be3d 6860 7dbc 8f92 cdbc 0b58 f43b
00000210: 5e3c 05be fc66 92bc d4e6 753b ef0f 8a3d
00000220: dc3d 093e 01b9 8fbc 209b 21bc cbb2 c23b
00000230: 99ae a4bc ba92 75bd 79f3 29bc ed0d 87bc
00000240: fd6d 1ebd 8705 c3bd 757e bd3c 3db0 7d3d
00000250: b228 183d ee34 0ebe df8c 8c3d 475f 9b3d
00000260: 2273 e2bc 1a7d 1a3d f6bf 823c 5eb0 443d
00000270: 13f0 fc3c 5c5d 113d e7f6 ac3d 2de8 ec3c
00000280: 1381 db3d aabb 103c 3ce1 f23c c902 b93c
00000290: 1cd0 8f3d 1de0 e73d e0e2 f0bd d8bb 62bd
000002a0: c45d ab3c eb99 093e 886a 83bd ab4c 8f3d
000002b0: 5deb 3abd aad7 92bd 9942 80bd b92a bbbc
000002c0: d262 3d3d 0550 02bd c848 003e 5edc 0d3d
000002d0: edad 303d 1ca6 c13b ba6e ac3d 54e1 66bc
000002e0: 4c30 1ebd eb38 da3c af8c 24bd f7e7 8cbd
000002f0: ecca 9abb 9e5f 1fbb bec1 6fbd 8d3b be3c
00000300: a737 ea3d fa7a febd 28de 1ebd 94ad 59bd
00000310: ac2a 853d 81b3 793c 436b 94bc def1 2a3d
00000320: c6b9 b53d 6b02 f53d edbe 323d 0001 073b
00000330: 57da 91bd b2d2 53bb 4323 fa3d 6ed0 4939
00000340: 641a 663d 0f4d d2bd c223 303d 991b f8bb
00000350: df84 23bd 9d88 8bbd c6fd ac3d f1a6 893c
00000360: b237 aabd 7bcd 7c3d a562 f1ba e35b b73c
00000370: e60f 753c 4a95 ccbc f1a8 0d3c 1dde 163d
00000380: f2c3 233e 4dc2 a2bd b389 5bbd dfdf c4bc
00000390: 4381 05bd 3577 c0bd 5615 903d 532d edbb
000003a0: ba52 b5bd 437f 133e c5ba c83d c7b5 78bd
000003b0: 00b6 f4bc 82a1 653c af65 823c 5561 a33d
000003c0: edfa 093d 1e9e 9fbc 10e2 a1bd 462b 7abd
000003d0: fc87 753c 8578 cdbc e707 1e3e f6c3 fe3d
000003e0: 2326 d1bd 9fe5 683d 46f0 c33b 7798 5bbc
000003f0: e20d 9c3b 520e 6e3b 6dfc 073e d9b5 48be
-0.041576385 0.013375457 -0.01587391 0.14280371 0.012977687 0.053807512 0.040392995 0.06383816
0.060440183 -0.046944123 0.06115106 -0.026760437 0.020122197 0.09841855 -0.032315187 0.08475691
-0.06394889 -0.06054728 -0.05205834 0.002173337 0.01662884 -0.06357944 -0.008835117 -0.03984089
0.13109815 -0.023281438 -0.019371817 0.068095945 0.006335226 0.06626441 0.046154838 -0.027782127
-0.033404525 0.07130812 -0.055116177 -0.0485197 -0.10411663 0.07106328 -0.0103837745 -0.050649922
0.016060231 -0.043711327 -0.016111242 0.059865113 -0.11547421 -0.045233563 0.03641159 0.021758823
0.07132427 0.026950588 0.07742141 0.01654684 -0.031427942 -0.018354408 -0.010717288 0.07422829
0.063361466 -0.10262779 -0.09131237 0.089749314 0.059763145 0.009842692 0.03128001 0.08966039
0.0841002 0.022906812 -0.10592488 0.047450427 0.092399724 0.13287573 0.07015164 -0.021025695
-0.03887257 0.061435714 -0.09547428 0.09997284 -0.07742413 -0.032764606 0.00092790154 0.06199622
0.010312539 -0.06659455 0.02341472 -0.026823051 -0.0783956 -0.12354983 -0.04237004 -0.06120486
0.014337155 -0.006989062 0.06325438 0.036252398 0.0075475727 0.0013477782 -0.014793148 -0.030386932
0.04647848 0.012850438 -0.01126802 0.07970425 -0.10522503 -0.094430044 -0.035374295 0.06273106
0.046218585 0.13368477 -0.020125272 -0.026628964 0.076437734 0.11155078 0.17383848 -0.038861047
0.059732784 -0.05117062 0.014346725 -0.025484145 -0.0196515 -0.06907563 0.03658745 0.013820698
0.0017090184 -0.059695326 0.021138424 -0.07803924 -0.07807361 0.029955767 -0.117439866 -0.032277893
0.09309674 -0.01546488 -0.025094299 0.0074567846 -0.1301131 -0.017871372 0.0037521617 0.0674132
0.13402504 -0.017544271 -0.009863645 0.005941724 -0.020102786 -0.059954382 -0.01037299 -0.016486133
-0.03867911 -0.09522539 0.023131588 0.061935652 0.037148185 -0.13887379 0.068628065 0.07586532
-0.02764279 0.037716962 0.015960675 0.04801976 0.030876195 0.035489425 0.084455304 0.028919304
0.10717978 0.008833805 0.029648416 0.022584336 0.070221156 0.11322043 -0.11762023 -0.055354923
0.020918734 0.13437621 -0.064168036 0.06997045 -0.045634616 -0.07170041 -0.062627025 -0.02284752
0.04623682 -0.031814594 0.12527764 0.034633987 0.04313462 0.0059096944 0.08419557 -0.014091808
-0.03862028 0.026638469 -0.04017323 -0.06880181 -0.004723897 -0.0024318467 -0.058534376 0.023221755
0.11436396 -0.124258 -0.038786083 -0.053144053 0.0650228 0.015240551 -0.018117553 0.04173457
0.08873324 0.11963352 0.043639112 0.0020599961 -0.07121723 -0.003232163 0.12213757 0.000192465
0.05617751 -0.10268604 0.04300285 -0.0075716493 -0.039921638 -0.06813166 0.08446841 0.016803237
-0.08311404 0.0617194 -0.0018416239 0.022382682 0.014957404 -0.02497353 0.008646236 0.036832917
0.15992716 -0.07947216 -0.053598117 -0.024032531 -0.032593977 -0.09397737 0.070353195 -0.007238069
-0.088536695 0.14404015 0.098012485 -0.06072023 -0.02987194 0.014015557 0.015917627 0.07977549
0.033686567 -0.019484576 -0.07904446 -0.061076425 0.0149860345 -0.025081882 0.15432702 0.1243972
-0.10212352 0.05685961 0.0059795706 -0.01340305 0.004762397 0.0036324454 0.13279887 -0.1960062

network_body._body_endoder.seq_layers.4.bias f4 [256]
00000000: 0404 6b3a d4f2 c6bb bc4d e73b fc15 3abb
00000010: 68cb aabb 9109 9fba 9408 22bc c411 dc3a
00000020: 8883 d93a 5709 bbba 9e89 b0b9 b2d4 adbb
00000030: c659 a53a f305 2abb 1358 d9b9 3a61 ce3a
00000040: ec6f b53b 8e45 34bb ac4d b7bb 8c45 a0bb
00000050: 6583 78b9 ce64 50bb 3a03 1bba 68dd febb
00000060: 4284 d6ba c2d1 4dbb 988d 04bc e5a7 12bb
00000070: d1c4 7bbb 2adb 343b 459c 1cba 99e8 92bb
00000080: 34b7 713a ce7a 3a3a daf0 adba 06a2 51bb
00000090: 6dd9 db3b 22f5 74bb 0016 16bb cd8a 8f3b
000000a0: e0ff b03a 9829 5a3c 4532 6d3b d66a 003c
000000b0: 1450 05bb 8348 963b 1265 dabb e5e5 95b8
000000c0: 136b 3abb c34a 803a a552 bbb9 7f09 0439
000000d0: dc0c 8a3b 83cc 263c 4ad7 063c ef4f 5bbb
000000e0: 9bcc 22bb 7a65 cfba e778 613a f631 16bb
000000f0: 6f95 2e3b 67f5 a7ba cdcd 7a3b 8933 233b
00000100: c6cb 36bb 688c 153b f67c 11bb 4bbf 13bc
00000110: 48e5 e2bb cb12 233b 0afc 8cba 3131 bd3b
00000120: 02a4 48bc 94fb 9139 6b93 773b cdcb 2ebb
00000130: e826 ff39 1553 33bb 75fd 02bb 46bd 503c
00000140: ec3c 15bb 07c1 6f3a 739b 10bb e4db 83bb
00000150: 3937 4bbb 2648 d2bb 9f78 d3ba 73c9 3f3b
00000160: 54eb 95bb d21e 053b 3326 3bbb 03e7 c2bb
00000170: 922f a03b a23f 50b9 242d a939 cc00 a6bb
00000180: c4b8 bcba 5b6c e1ba 024a 0bba f1e5 543b
00000190: 20f0 e23a b4d8 c3ba 5fca df3b 3b96 b5ba
000001a0: 8f69 4bba e235 573a 6674 49bb a14e c3bb
000001b0: 16fd 47bb b3dc 9eba 80f4 3eb9 15a5 92bb
000001c0: 8621 623b 1da8 b8bb d2bb d2bb ba0e c4b9
000001d0: f14a 933b 99f4 b8ba 1ee6 323b 2884 c53a
000001e0: 433e 073b 2646 08bb 48e6 94bb 443f 01bb
000001f0: 7a2b 17bb c440 2abb f459 4dbb dfa7 bb3b
00000200: a3c3 acb9 8ee0 2c3b 097e 173c 0749 b73a
00000210: 5f3d a7b9 f963 ed3b 59e9 3fbb ba9c 733c
00000220: 9988 883a 6ae1 f6bb 6cd9 233a a9ae 5cbb
00000230: ca72 38bb 9f1b b4ba f7c9 313b e47b 103b
00000240: 356d 74b9 b81d b9ba ebfd b0b9 42b8 2cbb
00000250: 25a3 d5ba a455 11ba 2684 aa3a eb52 baba
00000260: 0f93 883b 5793 2ebb 417a 003c 8ce1 83ba
00000270: df9b e2bb 6565 69ba 098f 67bb b3e6 1d3b
00000280: 4c9f 1a3b fc55 aaba d288 023b f5a6 c7bb
00000290: f8c2 92bb 8bd0 1b3b 577f 17bb 7018 fdba
000002a0: 1729 423b 82b8 2b3a ef4d e6ba 4593 62ba
000002b0: 9551 d23b fc2c 45bb fcd5 0d3b dba8 60bb
000002c0: c192 893b beab 98bb 6bf0 a3bb 5bda 6ebb
000002d0: fd33 9eba 5ba9 283b 73fb c13b ccd3 093c
000002e0: e4d4 323b 5b3f acbb a500 2fba c0f8 27bb
000002f0: 8120 1b3c c6f2 3bbb 63bc 9438 68b0 afb9
00000300: 9fc2 813a 8ca0 b0bb 5801 37bb 52ef 43bb
00000310: 465b 1f3a 70a2 853c 28eb 57bb 1fe1 94bb
00000320: ab41 32bb 24c0 053c 8787 a7ba 4149 153c
00000330: f934 41bb 40ed b2bb 0c83 193c aaef 0e3b
00000340: 12ca f839 b84d 0c3c 75d4 053b ef64 51bb
00000350: 0912 233c d19b 8fbb 80c4 e3bb f459 2abb
00000360: 2ac6 113c b6c6 80ba 132c 1bbb a71e 2ebb
00000370: bbba 8abb 7dd9 00bc f145 1b3c 1a76 d6ba
00000380: 840d dbbb 540d 6f3c 4753 84ba e1f0 96ba
00000390: 7b6d bfb9 8749 613a 35dc be3a 3e8a ea3b
000003a0: 017c 8b3a 0cf3 bebb d421 8fbb 1509 e2bb
000003b0: 627d 2338 f748 193b aaab 133b e3ca 66bb
000003c0: 93ac 983a 7acf 95ba 9c23 16bb ea2d fcb9
000003d0: 590e 6bbb 14ec 02bb bf55 d2bb 181c dcbb
000003e0: d298 513b 1f0b b0bb 0a43 36bb 895a bc39
000003f0: 2c8c 6f3a 55d4 803a 7d3e 7f3b a4bc 3bbc
0.0008965137 -0.006071428 0.007058827 -0.0028394451 -0.005212236 -0.0012133588 -0.0098897405 0.0016789963
0.0016594985 -0.0014269751 -0.0003367187 -0.0053048963 0.0012615256 -0.0025943487 -0.00041455086 0.0015745529
0.005537024 -0.0027507278 -0.005593976 -0.004891103 -0.00023700071 -0.0031798366 -0.00059132616 -0.0077778585
-0.001636632 -0.0031405543 -0.008090399 -0.0022377905 -0.0038416872 0.0027596452 -0.0005974214 -0.004483294
0.000922072 0.0007113636 -0.0013270632 -0.0031987443 0.006709269 -0.0037377556 -0.0022901297 0.00438056
0.0013503991 0.013315581 0.0036193293 0.007837972 -0.002034192 0.004586281 -0.0066648806 -7.147695e-05
-0.002844517 0.0009787906 -0.00035728994 0.00012592039 0.0042129587 0.010180595 0.00823004 -0.0033464392
-0.0024841193 -0.0015823089 0.00086010847 -0.0022917963 0.0026639362 -0.0012814224 0.003826964 0.0024902544
-0.0027892455 0.0022819284 -0.0022199727 -0.009017776 -0.006924305 0.0024883028 -0.0010756266 0.0057736863
-0.012246134 0.00027843995 0.0037777077 -0.0026671768 0.00048666378 -0.0027362753 -0.0019987498 0.012740439
-0.0022771908 0.000914589 -0.0022065311 -0.0040240157 -0.0031008257 -0.006417292 -0.001613397 0.002926436
-0.0045751724 0.002031256 -0.0028556704 -0.005947949 0.0048884833 -0.00019860131 0.00032267824 -0.005066013
-0.0014398326 -0.001719843 -0.0005313457 0.0032485689 0.0017313994 -0.0014941902 0.0068295444 -0.0013853976
-0.0007759565 0.0008209628 -0.0030739545 -0.005960301 -0.0030515841 -0.0012120217 -0.00018210895 -0.0044752457
0.0034504845 -0.005635275 -0.0064310813 -0.00037395005 0.0044950177 -0.0014110982 0.0027297805 0.0015069293
0.0020636476 -0.0020793765 -0.004544053 -0.0019721547 -0.0023066686 -0.0025978545 -0.0031334134 0.005726799
-0.00032952157 0.0026378962 0.009246358 0.0013983556 -0.00031898447 0.0072445837 -0.0029283373 0.0148689095
0.0010416686 -0.0075341957 0.0006250355 -0.0033673442 -0.0028144591 -0.0013741142 0.0027128437 0.00220465
-0.00023310336 -0.0014123237 -0.0003375852 -0.0026354943 -0.0016299231 -0.00055440725 0.0013009354 -0.0014215385
0.0041679214 -0.0026638114 0.007841648 -0.0010061725 -0.006915554 -0.00089033536 -0.0035333058 0.0024093806
0.0023593483 -0.0012995596 0.0019917977 -0.006092901 -0.0044788085 0.0023775424 -0.0023116672 -0.0019309651
0.0029626542 0.0006550626 -0.0017570833 -0.00086431607 0.0064184167 -0.0030086627 0.0021642437 -0.0034280333
0.0041984026 -0.004659145 -0.0050030253 -0.0036446068 -0.0012069937 0.002573571 0.0059198677 0.008412313
0.0027287537 -0.005256576 -0.0006675816 -0.0025630444 0.009468199 -0.002867864 7.09228e-05 -0.00033510034
0.000989992 -0.0053902324 -0.0027924385 -0.0029897285 0.00060789695 0.016312808 -0.003294656 -0.004543438
-0.0027199786 0.008163486 -0.0012781479 0.009111703 -0.0029481037 -0.0054604113 0.009369623 0.0021810331
0.000474528 0.0085634515 0.0020420824 -0.003195103 0.00995303 -0.0043825884 -0.006950915 -0.0025993558
0.008897344 -0.0009824845 -0.0023677393 -0.0026568563 -0.004233686 -0.007864353 0.009477125 -0.0016362101
-0.006684961 0.01459058 -0.0010095619 -0.0011515879 -0.00036511928 0.0008594025 0.0014561476 0.007157593
0.0010641814 -0.0058273133 -0.0043680463 -0.0068980553 3.8979e-05 0.0023389438 0.002253274 -0.0035216145
0.0011648111 -0.0011429631 -0.0022909408 -0.00048099394 -0.0035866706 -0.001997714 -0.006418913 -0.006717216
0.0031981957 -0.0053724195 -0.0027810954 0.00035925608 0.00091380137 0.0009828905 0.0038947158 -0.01145855

network_body._body_endoder.seq_layers.6.weight f4 [256, 256]
00000000: 80ae 82bd ea40 dc3d b394 003d c032 96bb
00000010: 7841 963d d27a e43d 2c47 193d 07ba 9ebc
00000020: a354 f93b 2344 36b7 98a8 52bd c229 c13c
00000030: dbea 65bd 2ef9 41bd 04a8 a9bc f160 b23c
00000040: 3d11 86bb efab de3c 991f 92bc 68ab 3dbc
00000050: 4448 9bbd 1ebe 253c 1deb 673d df76 dcbc
00000060: a4d5 43bd d3dc 82bd bfa8 423d ebb0 723d
00000070: ada0 b4bd 3472 803d 5183 36bd 0509 c4bd
00000080: 096b f6bb 68e7 c1bd 0fe6 abbd 87f9 58bd
00000090: 3837 a03d 8190 f63d c72d b5bc 0503 e6bc
000000a0: 7287 043d c9a4 1cbd 87c5 b53b 1c60 00be
000000b0: da3d 03be a4a9 cebb 312e 153e 8ec8 ecbc
000000c0: de8a 833d 660b 753d 41f1 2e3d b50f 453d
000000d0: 2bf5 eb3d 2a9f 93bd 0e9c 913b 1f68 0e3e
000000e0: 1b04 0d3d 9857 a13d 40dc a5bd 98d9 11be
000000f0: 9837 cabd 2336 9b3d 8b91 36bd 8859 a1bb
00000100: e3c6 ff3d 4536 c3bd 4629 62bd ad32 573d
00000110: 2103 523b d102 2dbb 789d dbbc 54af 593c
00000120: 5e01 003e 7d07 60bd bdaa ee3d 3be0 003d
00000130: d085 e7bc 3f12 1dbd fa94 013d 013f 023c
00000140: 6af0 cdba 772d 69bd aad1 d6bb d68f 7b3d
00000150: 2942 44bd 03a3 d73c 3821 ccbc 4808 bd3d
00000160: c3b7 3a3d 181a df3d 98df 9bbd 7f5e 9fbd
00000170: c90b 283d 2bf7 e33c 0dc3 b23d 4bb4 4bbd
00000180: b061 debc 612e f4bd ace2 4dbd 92a9 3a3d
00000190: 42c5 823d fad0 553d e929 16bd 42b7 94bd
000001a0: 2788 b63c 354f e0bd 0032 01ba 4c93 09bc
000001b0: a70d 25bd 0105 99bd cbb5 3cbc 3483 833d
000001c0: 787c 3a3d 9da0 f73d e09f 043d e575 633d
000001d0: 21a9 cf3d 76fc 87bc 2c5d 9b3c e8ec 4fbb
000001e0: 632f 353c 5d23 0fbc 23f7 e63c 3bd0 cc3c
000001f0: ed00 10bd f210 57bc c5df 893d 9ead 793c
00000200: fb20 ee3d c85f 6abd 8a77 8f3d 32a5 e2bd
00000210: 94dc 82bd fe5d 18be 1255 3d3c b47b 363d
00000220: 1506 833d 3a57 bc3c c888 c63b b179 84bc
00000230: 4f77 06bd e07a 473d 8d57 6dbd 1a48 53bd
00000240: d4b8 a7bd 48c8 84bd c802 813d fede 053c
00000250: 76d2 f3bd f996 033d 6cbb 003d a6ff a03d
00000260: e40b 053c 01a3 1ebd 9e45 0f3d e042 bbbd
00000270: 7eb7 c93c dd5e 0e3e 31ad 083d 723d 503d
00000280: 54e8 88bd a1bb 5bba 3b65 923d 1d71 a9bc
00000290: 9f4e cfbd 2c18 b83c 9a8a cb3d 545f 10bd
000002a0: 3ad5 20bc 6dfa 1e3d e022 44bd 9ddc 87bd
000002b0: 137c 21bd 5110 2cbd f879 5cbd a29e 9d3c
000002c0: cdb3 c6bd 6f3b 58bd 516e 083d 8428 26bd
000002d0: 623b 70bd 62a6 943c 3fa2 fd3d 2bee 0cbc
000002e0: b672 a43a e498 3e3d e81f 1fbd bf75 34bd
000002f0: 3f01 af3d 4c2a 04bd 072d 2fbd 2f3b 523d
00000300: 35c5 2dbe 5a7e 99bd afbd 3c3c 0ec2 58bd
00000310: 937d ac3d 319c 8fbd 23b9 003d 2cb0 2d3c
00000320: 6e52 8f3c 413c 163d ecb2 a63b 355e 01bd
00000330: 3c5e cb3d cc9f 193c 33be 35bd 561f 9ebd
00000340: f87c 803c a0a4 53bd 4802 90bd ca49 5e3d
00000350: c6ce 51bc 3bb0 ff3c 0a5b f53c 43ce f2bd
00000360: 9f7e 293d 9905 ebbc 6db2 013d 9a5b e3bd
00000370: 2025 8e3d 0cca dc3c aa40 413c acd2 a2bc
00000380: f099 17bd 147d ff3c 4db9 023e 40ff 193d
00000390: d9d7 163d d6d5 59bb 21ac 163b 4002 103d
000003a0: a460 ce3c afdd e5bc 7f4b b53d f4b2 833d
000003b0: c9ed f9bc a8c4 083c 9fac f9bd c9c9 90bd
000003c0: 86a4 c8bc a4d7 543d 33f4 723d 0f30 01be
000003d0: 9954 5b3d 2373 573d 0cc5 2a3d 0f0b 383d
000003e0: b826 5abd 38c4 d1bc 5de9 22bb c8b1 92bd
000003f0: f672 0fbe 4a09 1ebd 05ac e53c 8c65 563c
-0.063809395 0.10754569 0.03139181 -0.0045836866 0.07336706 0.111562386 0.03742139 -0.019375814
0.0076089664 -1.086391e-05 -0.051430315 0.023579482 -0.05613218 -0.047356777 -0.020709999 0.02177474
-0.0040914104 0.027181594 -0.017837333 -0.011576511 -0.07582143 0.010116128 0.056620706 -0.02691215
-0.047811165 -0.06389775 0.04752421 0.059250753 -0.08819709 0.062717825 -0.044558827 -0.09572033
-0.007520084 -0.09467965 -0.083934896 -0.052972343 0.07823032 0.12039281 -0.022116555 -0.028077612
0.032355733 -0.03824309 0.0055472287 -0.12536663 -0.12816563 -0.006306844 0.14568402 -0.028904226
0.06422971 0.059825324 0.042710546 0.048110683 0.115213715 -0.072080925 0.004443652 0.13906907
0.034427743 0.07878035 -0.0809865 -0.14243162 -0.09873885 0.07578685 -0.044572394 -0.004924003
0.124891065 -0.095318355 -0.055215143 0.052538563 0.0032045322 -0.0026399384 -0.026808485 0.01328643
0.12500522 -0.05469464 0.116536595 0.031463843 -0.028262049 -0.03834748 0.031636216 0.007949592
-0.0015711908 -0.056928124 -0.0065557556 0.06141647 -0.047914658 0.026322847 -0.024918184 0.09230095
0.045585405 0.10893649 -0.076110065 -0.077816956 0.041026864 0.02782782 0.08728609 -0.049732488
-0.02714619 -0.119229086 -0.050265 0.04557187 0.0638528 0.05220125 -0.036661062 -0.07261516
0.02228172 -0.109526075 -0.000492841 -0.008396935 -0.040296223 -0.074716575 -0.011517952 0.064215094
0.04552886 0.120911814 0.03237903 0.055532355 0.10139681 -0.016599875 0.018965326 -0.00317269
0.011058661 -0.008736459 0.028194016 0.025001636 -0.035157133 -0.013126599 0.06732134 0.0152391475
0.11627384 -0.05722025 0.07005222 -0.11066665 -0.06389728 -0.14879605 0.011555927 0.044551566
0.063976444 0.022990812 0.006058786 -0.016171308 -0.032828625 0.048701167 -0.057944823 -0.051582433
-0.0818955 -0.06483513 0.062993586 0.008170841 -0.119053766 0.0321264 0.03142874 0.07861261
0.008120511 -0.03872967 0.0349785 -0.09143615 0.024623629 0.13903375 0.033368293 0.05083985
-0.06684938 -0.0008382146 0.071482144 -0.02068382 -0.10122418 0.022472464 0.099385455 -0.035247162
-0.009816462 0.038813043 -0.047884822 -0.066338755 -0.039424967 -0.042007748 -0.053827256 0.019240681
-0.09702263 -0.052791055 0.03330833 -0.040565982 -0.058650382 0.018145744 0.123844616 -0.008601706
0.0012546394 0.046532527 -0.038848788 -0.044057604 0.085451595 -0.0322669 -0.04276755 0.051325973
-0.1696976 -0.07494803 0.0115198335 -0.05291944 0.08422389 -0.07012213 0.03142656 0.010601085
0.01749536 0.036678556 0.005087247 -0.031583983 0.09930083 0.009376477 -0.04437084 -0.077208206
0.01568459 -0.05167067 -0.07031685 0.05426959 -0.012805646 0.031211963 0.029950637 -0.118557476
0.04138052 -0.028689193 0.0316643 -0.11101456 0.06940675 0.026951812 0.011795202 -0.019875847
-0.03701204 0.031187572 0.12765999 0.03759694 0.036826942 -0.0033239028 0.002299078 0.035158396
0.025192566 -0.028059809 0.0885229 0.06430617 -0.030508893 0.008347668 -0.12191128 -0.070697375
-0.024492513 0.051963463 0.059314918 -0.12615989 0.053547475 0.052600037 0.041691825 0.04493242
-0.05325958 -0.02560626 -0.0024858334 -0.07162815 -0.14008698 -0.038583077 0.028036127 0.013085734
