Assets/ML_PPO/results/headless_1/BoatAgent/BoatAgent-162117.onnx (onnx, 868044 bytes, 21 tensors)

discrete_action_output_shape f4 [1, 6]
2.0 2.0 2.0 2.0 2.0 2.0
00000000: 0000 0040 0000 0040 0000 0040 0000 0040
00000010: 0000 0040 0000 0040

network_body._body_endoder.seq_layers.0.weight f4 [256, 57]
0.2503968 -0.0797176 -0.2846976 -0.06972825 0.045469362 0.06732592 -0.30132326 0.07478151
0.19050112 -0.04576291 -0.12684138 -0.047639783 -0.11895067 -0.091234684 -0.08413939 0.27754617
0.1098405 -0.123447165 -0.16981074 -0.054781497 -0.11010748 0.07749819 0.044616953 -0.1512638
-0.11988247 0.058859453 -0.012236772 0.090546325 0.17952982 0.09048319 -0.08179245 -0.011640281
-0.18310888 0.07794434 0.048376817 0.051040657 -0.09081775 0.15798947 0.09862415 -0.01619215
-0.18170227 -0.31098714 -0.014567668 -0.23823167 -0.077400915 -0.0194512 0.014450524 -0.11401099
-0.1510441 0.10121713 0.0634379 0.10116452 0.0202646 -0.051768716 0.01843381 0.040487386
-0.038290925 -0.033131253 0.07463954 -0.0979667 -0.27640703 0.13578099 0.25607866 -0.11726864
0.06863284 -0.08733935 0.09779117 0.07626176 -0.19026476 0.19319351 0.059247106 0.017792309
-0.011232748 -0.02645047 -0.11402737 0.21586956 -0.04649165 -0.031061659 -0.21586409 -0.17549582
0.067255 -0.2128039 0.069314875 0.010432892 -0.03644629 -0.09908729 -0.072524324 0.091237985
0.045641035 -0.20784847 -0.08162862 0.0107561955 0.022097595 -0.0023383105 0.13525227 0.24811316
0.04751006 -0.066266045 0.10774757 -0.025491297 0.13020533 0.077260174 0.22697884 0.15577854
-0.014778121 0.028162709 -0.1922402 -0.2217588 0.06758044 -0.0464349 0.018854475 0.0762615
0.108525075 -0.019743862 -0.054986395 -0.16899973 -0.044021126 0.26451552 -0.1689301 -0.088759944
0.057160374 0.06859803 0.21304175 0.088818006 -0.11890458 0.06601815 -0.04133604 -0.13703263
-0.3120738 -0.013384682 -0.035304762 -0.0712994 0.083988525 -0.06609792 0.060792617 0.03506575
-0.11592145 -0.09714933 0.0036042132 0.10456368 0.13259293 -0.042328116 0.046001412 -0.13243997
-0.1140405 -0.057326965 0.10746253 -0.01822205 0.08030741 0.081900954 0.19915202 0.13599107
-0.08792165 -0.08602584 0.24469483 0.24842927 0.0027898822 0.1740515 -0.11805702 -0.10546842
0.040056616 0.21257241 0.16288058 -0.11923424 -0.048325706 -0.0691899 -0.24991424 0.021853985
-0.1155179 0.16462617 -0.046618514 0.15218256 0.09366649 0.15226431 -0.061469913 0.096759744
0.16775939 -0.12141339 -0.17950407 -0.0066375015 0.31386366 0.040682547 -0.074995644 0.07567589
0.013100263 -0.008637897 -0.3450575 0.05869438 -0.16567636 0.0013414706 0.2210268 -0.123407535
-0.07732637 0.07373178 0.084948115 -0.08207526 -0.0738209 0.08572348 0.017536784 -0.12542938
0.17570879 -0.12262161 0.024692971 -0.046363376 0.20321186 0.07008036 0.09550852 0.10959472
-0.022515692 0.09139461 0.046030596 -0.053303186 -0.072709896 -0.018366901 -0.22649851 -0.359871
-0.076297335 -0.045527745 0.017010264 0.026639393 -0.0377691 -0.027199386 0.053461958 0.09867548
-0.034555923 -0.12731278 -0.091347046 0.04698142 -0.22412744 -0.04798849 -0.031255096 0.14646544
-0.22432846 -0.20937341 0.069948606 0.10696603 0.042674072 -0.06832431 0.0038367538 -0.15025675
-0.22481655 0.056170985 -0.30270115 0.1966018 0.0904381 0.23854627 -0.04189996 -0.15402603
-0.19083034 -0.02149589 0.011896345 -0.24756393 0.04744931 -0.04993273 0.19263487 -0.16089304
00000000: 0234 803e fb42 a3bd e2c3 91be afcd 8ebd
00000010: 153e 3a3d 2ce2 893d 0b47 9abe 0c27 993d
00000020: ba12 433e e471 3bbd b5e2 01be ef21 43bd
00000030: 699c f3bd 40d9 babd 4651 acbd 881a 8e3e
00000040: 0ef4 e03d ded1 fcbd dee2 2dbe 9062 60bd
00000050: 0880 e1bd 5fb7 9e3d 44c0 363d e6e4 1abe
00000060: f184 f5bd 9c16 713d be7c 48bc 5a70 b93d
00000070: aad6 373e 404f b93d cd82 a7bd e1b6 3ebc
00000080: e580 3bbe 48a1 9f3d c526 463d 0210 513d
00000090: a8fe b9bd fec7 213e 75fb c93d 66a5 84bc
000000a0: 2910 3abe b539 9fbe 3aad 6ebc 01f3 73be
000000b0: 5f84 9ebd 1f58 9fbc e4c1 6c3c 987e e9bd
000000c0: 4eab 1abe ed4a cf3d bbeb 813d 582f cf3d
000000d0: f201 a63c 6f0b 54bd 8002 973c 1ad6 253d
000000e0: f2d6 1cbd a3b4 07bd 9ddc 983d c4a2 c8bd
000000f0: 3985 8dbe 2c0a 0b3e be1c 833e 8a2a f0bd
00000100: 608f 8c3d f9de b2bd bd46 c83d 202f 9c3d
00000110: c4d4 42be 85d4 453e 18ad 723d 2dc1 913c
00000120: 8f09 38bc a8ae d8bc 2f87 e9bd e90c 5d3e
00000130: 076e 3ebd 0575 febc 7a0b 5dbe 2db5 33be
00000140: fdbc 893d 44e9 59be f5f4 8d3d b8ee 2a3c
00000150: b448 15bd 47ee cabd a287 94bd fbda ba3d
00000160: 18f2 3a3d 3bd6 54be e82c a7bd c13a 303c
00000170: 0406 b53c 573e 19bb 927f 0a3e 6011 7e3e
00000180: e999 423d 7eb6 87bd c2aa dc3d 20d3 d0bc
00000190: 8c54 053e 953a 9e3d 246d 683e 6984 1f3e
000001a0: ef1f 72bc 7bb5 e63c 9dda 44be bd14 63be
000001b0: 9d67 8a3d 8632 3ebd b374 9a3c fd2e 9c3d
000001c0: 6542 de3d e1bd a1bc 6a39 61bd 440e 2dbe
000001d0: 7f4f 34bd 946e 873e 03fc 2cbe c6c7 b5bd
000001e0: ff20 6a3d 207d 8c3d 9e27 5a3e 37e6 b53d
000001f0: 3f84 f3bd 8634 873d fb4f 29bd 4852 0cbe
00000200: 23c8 9fbe 6d4b 5bbc ba9b 10bd 6b05 92bd
00000210: 2d02 ac3d 595e 87bd ae01 793d 1ba1 0f3d
00000220: 3a68 edbd 3af6 c6bd aa34 6c3b 7c25 d63d
00000230: 71c6 073e 3f60 2dbd fa6b 3c3d 589e 07be
00000240: 118e e9bd aecf 6abd 5115 dc3d 6946 95bc
00000250: 3678 a43d b0bb a73d 82ee 4b3e 3e41 0b3e
00000260: 4410 b4bd 512e b0bd 4891 7a3e 3e64 7e3e
00000270: 75d6 363b 8e3a 323e e1c7 f1bd d4ff d7bd
00000280: 6812 243d 95ac 593e 2bca 263e 1531 f4bd
00000290: 2df1 45bd 6fb3 8dbd 85e9 7fbe 2107 b33c
000002a0: a694 ecbd c393 283e 0ef3 3ebd bfd5 1b3e
000002b0: 37d4 bf3d 2deb 1b3e e0c7 7bbd f929 c63d
000002c0: 1ec9 2b3e 95a7 f8bd eacf 37be 667f d9bb
000002d0: bdb2 a03e bea2 263d 5197 99bd f6fb 9a3d
000002e0: 7ca2 563c f785 0dbc 60ab b0be 8569 703d
000002f0: 10a7 29be 49d4 af3a d954 623e 17bd fcbd
00000300: 4a5d 9ebd b000 973d 47f9 ad3d 1317 a8bd
00000310: 692f 97bd cb8f af3d 4da9 8f3c 8f70 00be
00000320: 01ed 333e 0a21 fbbd ea48 ca3c 86e7 3dbd
00000330: c516 503e 4b86 8f3d f999 c33d 3273 e03d
00000340: d472 b8bc 192d bb3d 948a 3c3d 7154 5abd
00000350: ede8 94bd 2f76 96bc 3aef 67be 0341 b8be
00000360: c741 9cbd 4d7b 3abd 1c59 8b3c db3a da3c
00000370: c6b3 1abd 3fd1 debc edfa 5a3d 5f16 ca3d
00000380: 838a 0dbd 485e 02be 2914 bbbd 976f 403d
00000390: aa81 65be 948f 44bd 5805 00bd 09fb 153e
000003a0: 5cb6 65be fc65 56be 3741 8f3d 0211 db3d
000003b0: 02cb 2e3d 9eed 8bbd 0c72 7b3b e8dc 19be
000003c0: 4f36 66be 8c13 663d a5fb 9abe fb51 493e
000003d0: 9c37 b93d 7945 743e 4b9f 2bbd 00b9 1dbe
000003e0: 0769 43be 2618 b0bc e3e8 423c 6681 7dbe
000003f0: 355a 423d 4386 4cbd 1342 453e 25c1 24be

network_body._body_endoder.seq_layers.0.bias f4 [256]
0.00094960566 0.00077648315 -0.0020308963 0.0037616414 -0.008279571 -0.008002691 0.0005890001 0.0020726104
-0.007804753 -0.0016279689 -0.009690917 0.018507833 0.01770017 -0.0012668135 -0.0031562648 0.0035198294
-0.0026665924 0.0038353845 0.0010667684 -0.003806323 -0.002757881 -0.004591048 -0.0062412517 -0.0058774585
-0.0030008378 -0.0008269967 -0.0047491705 0.0009339593 0.0029520264 -0.0064461366 0.01332032 -0.00449862
-0.0053628776 0.0023010392 -0.0049895034 -0.0010765402 0.012349076 0.0022083945 -0.001750366 -0.00089514366
0.001801409 -0.0036790546 -0.00016479942 0.0129310815 0.014161261 0.008149651 -0.0102306465 -0.00072436983
-0.0051744194 0.004147044 -0.009821551 0.004986635 0.0016053871 0.0002554015 -0.0025081101 0.00035704856
0.014173407 0.00070499507 -0.0012006564 0.0049968055 0.009057685 0.016262433 -0.0027919332 -0.006314298
-0.0016615097 -0.0045759026 0.004418299 -0.0009033196 -0.0071791364 0.0015512061 0.0039724237 -0.0058379723
0.0025224583 0.0012400774 -0.005175272 -0.0047323494 0.009015306 0.0036820625 0.011483397 -0.0040762257
0.001900951 0.00014912458 -0.004963143 0.0018866623 0.0201281 0.004504001 -0.0043907925 -0.0025709828
-0.0033053393 -0.009322766 0.0024006837 5.4775108e-05 -0.0038892068 -0.0032977038 -0.0014943605 0.01243625
0.0040733595 0.0006957722 -0.001042913 0.0022153908 -0.004675085 -0.00022351148 -0.008315056 -0.006178154
-0.0036091362 0.003213291 -0.003253518 0.007713455 5.1989584e-05 0.0009195292 0.00566984 -0.009877268
0.0025069427 0.015834847 -0.0014351748 -0.0015259064 0.0064461813 -0.0051003727 -0.0031230506 -0.008153225
-0.004391118 -0.008961808 -0.005577059 -0.0027571758 -0.007588218 0.0040724315 -0.00840913 7.2215444e-05
-0.0035913782 0.0073386314 -0.0047774743 -0.0018780103 0.0007116444 -0.00039339752 0.0005596222 -0.0021000823
-0.011996423 -0.0022254542 -0.0011751262 0.018126475 -0.003812264 0.010283254 -0.0015488514 -0.000904886
-0.004329134 0.001262097 -0.0012163277 -0.0022175654 -0.0034788963 -0.0076780627 -0.0066975015 -0.0034348515
-0.0005638271 0.0017884517 0.0019134044 -0.003047822 -0.0024050456 0.0081202155 -0.0042946497 0.0010153799
0.0075472808 -0.002945688 -0.0009182063 -0.001823125 -0.0025206704 0.002561636 0.000655998 -0.0013262999
-0.0024426687 0.0009045702 -0.0007507487 -0.0008913905 0.0058917315 0.0035115955 0.001766854 0.00048162625
0.005552918 -0.007437615 -0.0008276079 0.00032753375 -0.0010617827 -0.010538403 0.0016285437 -0.0077066654
-0.011393878 0.004941568 -0.0025698105 -0.0044497866 -0.003630808 -0.0011400164 0.0027989023 0.012718243
-0.005052192 -0.0056676674 0.011690847 0.010028943 0.0030797066 -0.0010076942 0.0043818895 -0.0060981484
0.009405467 0.004100658 -0.0017213898 0.0045034215 -0.0020264073 0.00017911723 -0.0021120938 0.00026465056
-0.0063148467 0.00011572667 0.0003645705 0.00039727113 -0.0005329491 0.015663987 -0.00068293983 -0.0013684044
0.005449147 0.00074834534 -0.0052514616 -0.0056673307 -0.008026458 0.0019912212 0.00077520584 -0.004687813
-0.001880383 0.0011526848 0.001076916 -0.0054374253 0.0045332615 -0.00031333324 -0.003935725 -0.0026750674
5.1870207e-05 -0.010971092 -0.0020478202 0.002580968 -0.0066890875 -0.011004049 -0.003829903 0.0008511242
0.0015153262 -0.0015395252 -0.0027485327 0.0026222786 -0.0049659437 0.014844993 -0.0010542753 -0.007851376
0.00013130034 -0.007846661 -0.006256371 -0.0016284335 0.0008739712 -0.004997664 -0.0020795818 0.002937978
00000000: f5ee 783a e78c 4b3a c918 05bb df85 763b
00000010: 0aa7 07bc b81d 03bc 2167 1a3a a2d4 073b
00000020: 03bf ffbb 9261 d5ba a7c6 1ebc bd9d 973c
00000030: f2ff 903c 350b a6ba 56d9 4ebb f0ac 663b
00000040: ffc1 2ebb 135b 7b3b cfd2 8b3a 8173 79bb
00000050: 91bd 34bb 8170 96bb 6a83 ccbb b297 c0bb
00000060: b4a9 44bb cfca 58ba ee9e 9bbb f3d4 743a
00000070: c976 413b 1d3a d3bb 793d 5a3c 2969 93bb
00000080: 14bb afbb 08cd 163b fd7e a3bb b21a 8dba
00000090: c753 4a3c b6ba 103b 896c e5ba 13a8 6aba
000000a0: 411d ec3a 4b1c 71bb 02ce 2cb9 e3dc 533c
000000b0: a204 683c 1d86 053c 719e 27bc a3e3 3dba
000000c0: 2d8e a9bb ede3 873b 92ea 20bc ed66 a33b
000000d0: da6b d23a 69e7 8539 1b5f 24bb 3f32 bb39
000000e0: 9437 683c 6bcf 383a 585f 9dba 3ebc a33b
000000f0: af66 143c cb38 853c def8 36bb 2ce8 cebb
00000100: 04c7 d9ba 74f1 95bb 61c7 903b c1cc 6cba
00000110: f63e ebbb d751 cb3a 1b2b 823b 764c bfbb
00000120: d44f 253b 188a a23a 5495 a9bb d311 9bbb
00000130: efb4 133c c24e 713b dc24 3c3c dc91 85bb
00000140: 5529 f93a 535e 1c39 dca1 a2bb e249 f73a
00000150: afe3 a43c 4c96 933b a3e0 8fbb ef7d 28bb
00000160: 649e 58bb 84be 18bc ca54 1d3b 53be 6538
00000170: 10e2 7ebb 4a1e 58bb 6bde c3ba 6ac1 4b3c
00000180: d179 853b 7b64 363a 5ab2 88ba 1730 113b
00000190: 7531 99bb 685e 6ab9 df3b 08bc 1d72 cabb
000001a0: 4287 6cbb 1496 523b f938 55bb 26c1 fc3b
000001b0: 640f 5a38 8f0c 713a 11ca b93b 44d4 21bc
000001c0: 854b 243b 15b8 813c 7a1c bcba ec00 c8ba
000001d0: 7d3a d33b 0721 a7bb 18ac 4cbb 1b95 05bc
000001e0: 5ee3 8fbb 8cd4 12bc c3bf b6bb bcb1 34bb
000001f0: 96a6 f8bb 0872 853b 73c6 09bc 5f72 9738
00000200: 545d 6bbb e778 f03b 5c8c 9cbb 9227 f6ba
00000210: a68d 3a3a ec40 ceb9 9cb3 123a 89a1 09bb
00000220: a58c 44bc edd8 11bb b106 9aba f97d 943c
00000230: 2dd7 79bb 187b 283c d402 cbba df35 6dba
00000240: 68db 8dbb f36c a53a 2f6d 9fba 9354 11bb
00000250: 32fe 63bb 4298 fbbb b776 dbbb 3f1b 61bb
00000260: cccd 13ba 7b6a ea3a 33cb fa3a f8bd 47bb
00000270: f89d 1dbb a70a 053c 22ba 8cbb 7f16 853a
00000280: 2e4f f73b 720c 41bb c8b3 70ba edf5 eeba
00000290: d531 25bb 1fe1 273b 48f7 2b3a 3dd7 adba
000002a0: 2e15 20bb ae20 6d3a e4cd 44ba 34ac 69ba
000002b0: 6d0f c13b cc22 663b c895 e73a c882 fc39
000002c0: 41f5 b53b 3db7 f3bb d3f3 58ba d6b8 ab39
000002d0: 842b 8bba 44a9 2cbc dc74 d53a 3288 fcbb
000002e0: 63ad 3abc e0ec a13b 446a 28bb 84cf 91bb
000002f0: daf2 6dbb 9a6c 95ba ca6d 373b 2d60 503c
00000300: dc8c a5bb d7b7 b9bb f78a 3f3c 7050 243c
00000310: e7d4 493b 9b14 84ba f495 8f3b fad2 c7bb
00000320: 6319 1a3c d05e 863b 42a0 e1ba 7091 933b
00000330: 79cd 04bb 6ad1 3b39 0e6b 0abb ccc0 8a39
00000340: c6ec cebb 48b2 f238 d323 bf39 d448 d039
00000350: 9cb5 0bba c351 803c 5107 33ba 085c b3ba
00000360: c28e b23b 9b2c 443a 7414 acbb 04b5 b9bb
00000370: 6881 03bc 267f 023b 2f37 4b3a 3a9c 99bb
00000380: 2f77 f6ba af15 973a 4e27 8d3a 6e2c b2bb
00000390: c18b 943b e046 a4b9 41f7 80bb 2f50 2fbb
000003a0: 368f 5938 18c0 33bc b934 06bb 7525 293b
000003b0: 2230 dbbb 544a 34bc 1cff 7abb fa1d 5f3a
000003c0: e99d c63a e5c9 c9ba ba20 34bb 89da 2b3b
000003d0: 5bb9 a2bb 6a38 733c 9c2f 8aba 0fa3 00bc
000003e0: abad 0939 488f 00bc 3e02 cdbb 2971 d5ba
000003f0: 371b 653a 72c3 a3bb 9849 08bb 178b 403b

network_body._body_endoder.seq_layers.2.weight f4 [256, 256]
-0.023362732 0.102936074 0.07404364 -0.024380503 0.07507598 0.019329624 0.011229422 -0.026005195
0.0022535198 0.04936399 0.05685985 -0.017073134 -0.04621573 -0.092422344 -0.01445581 -0.04865821
-0.031183928 0.13247775 -0.05560083 0.0011610617 -0.020855965 0.013737662 -0.0071952995 0.082068674
0.019321712 0.15226747 0.10262628 -0.025118485 -0.03692159 0.038348634 -0.07406865 -0.025659084
-0.041059405 -0.02890028 -0.1058989 0.064175166 -0.014144381 0.031045556 -0.01595276 -0.024364037
-0.015708234 0.036262304 0.04621448 -0.02737835 0.104641505 0.037126083 -0.07499833 -0.09431104
0.013348965 0.04179657 0.017557036 0.0068290406 -0.026000185 -0.016527649 0.010844965 0.041597836
0.047870837 -0.020692816 -0.015952693 0.06291623 0.09226007 0.048462212 0.08059992 -0.06378897
0.03422063 0.0620048 0.066595234 -0.045927934 0.024528144 0.00689924 0.088621296 -0.020428533
-0.019438861 -0.019341817 0.074490726 -0.07296865 -0.08913886 -0.041786134 -0.045916755 0.0019086861
-0.14316179 -0.014749237 0.009492725 -0.0714546 -0.07752136 0.075710356 0.09969833 0.025527135
-0.0125830285 0.065446354 -0.09472032 -0.050499696 0.04949728 0.043623663 0.0029555352 -0.11330558
-0.045043133 -0.0020753047 -0.02694349 -0.06632579 -0.068604976 0.09551367 -0.06568108 0.0107731335
0.0017628539 0.011482037 0.15921913 0.060242247 -0.14985326 -0.0075094616 -0.062057197 0.006420081
0.035098888 0.08424414 -0.011220537 -0.044466738 -0.08527609 0.100699656 -0.0395917 -0.008324999
-0.10235802 -0.118368655 -0.018532654 -0.004733017 0.011822717 -0.01749956 -0.013901125 -0.038695034
-0.019327668 0.021204643 0.055593345 -0.053717405 -0.06355765 0.11490957 -0.075805955 0.12290729
-0.12848371 0.01786236 0.14058696 0.055047546 -0.022757964 0.10720706 -0.03600794 -0.09793542
-0.06651651 -0.06331232 0.12202512 -0.10078913 0.048855152 -0.04034587 -0.108318776 -0.021633245
-0.021512179 0.091448024 0.02090758 0.05053251 0.017336013 0.023730597 -0.0063483007 -0.024271011
0.00046850706 0.0315379 0.108096406 0.003026591 -0.06743524 -0.0030228924 0.04025383 0.07854699
-0.021679986 0.009778659 -0.027940093 0.060035035 -0.017459018 -0.05108119 -0.10227732 -0.058138844
-0.0599326 -0.047780707 -0.002613247 0.0062337704 0.0066447593 -0.09284078 0.10838511 -0.025287813
-0.02270552 0.039807327 -0.091549546 0.09209324 0.051465232 -0.08599752 0.03331477 -0.06398284
-0.030569894 0.03411778 -0.00341697 -0.05861755 0.105809055 -0.0015701858 0.029389642 0.04172654
0.073090054 -0.003468938 -0.032262553 0.11840098 -0.0054576844 -0.08536241 -0.023284324 -0.09043024
0.07872017 0.011893767 0.0012509573 0.04242985 -0.012848126 -0.0045269695 0.030185202 -0.01055686
0.07250309 0.118998736 -0.028110305 0.06809325 0.13224946 -0.055526968 -0.030019276 -0.05922081
0.0048972485 0.014269672 -0.13726504 0.08463785 0.07685296 -0.029156253 -0.012734231 0.016832784
-0.003921333 0.011195364 -0.03149671 0.057399966 0.12501729 0.048931964 0.07073646 0.08685274
0.107665256 0.1203379 0.06882413 0.017239714 -0.032297894 0.03203121 0.07829254 0.029593242
-0.018824533 -0.011485947 0.03528659 -0.008350204 -0.007926387 0.027622512 -0.015580234 0.10425943
00000000: 3363 bfbc 26d0 d23d 31a4 973d 9fb9 c7bc
00000010: 6fc1 993d 2959 9e3c 9cfb 373c d908 d5bc
00000020: caaf 133b e531 4a3d e0e5 683d f5dc 8bbc
00000030: b54c 3dbd ed47 bdbd 10d8 6cbc d54d 47bd
00000040: 7075 ffbc 3fa8 073e b2bd 63bd c42e 983a
00000050: 21da aabc ee13 613c 8cc6 ebbb 9f13 a83d
00000060: 9148 9e3c 01ec 1b3e ba2d d23d 48c5 cdbc
00000070: 183b 17bd 7513 1d3d 4eb1 97bd 0033 d2bc
00000080: e82d 28bd 48c0 ecbc 86e1 d8bd 456e 833d
00000090: d5bd 67bc 4053 fe3c 5daf 82bc 1797 c7bc
000000a0: 8eae 80bc c887 143d 654b 3d3d 9048 e0bc
000000b0: 494e d63d 8511 183d b998 99bd 2626 c1bd
000000c0: 9eb5 5a3c e132 2b3d c6d3 8f3c 25c6 df3b
000000d0: 57fe d4bc fe64 87bc 15af 313c 7e62 2a3d
000000e0: 3614 443d fb83 a9bc 39af 82bc 39da 803d
000000f0: d9f2 bc3d 5080 463d 9211 a53d cba3 82bd
00000100: ee2a 0c3d bff8 7d3d 1563 883d ee1e 3cbd
00000110: 3fef c83c 0513 e23b 157f b53d bd59 a7bc
00000120: 3f3e 9fbc bb72 9ebc 988e 983d 9670 95bd
00000130: 6f8e b6bd f027 2bbd 3513 3cbd e12c fa3a
00000140: 0199 12be c9a6 71bc 6087 1b3c ca56 92bd
00000150: 85c3 9ebd 080e 9b3d a32e cc3d 481e d13c
00000160: 0c29 4ebc bd08 863d bafc c1bd c5d8 4ebd
00000170: a9bd 4a3d baae 323d a7b1 413b c20c e8bd
00000180: 267f 38bd d601 08bb 98b8 dcbc d1d5 87bd
00000190: c480 8cbd ac9c c33d cd83 86bd cc81 303c
000001a0: 900f e73a 271f 3c3c 570a 233e 93c0 763d
000001b0: 2273 19be ee11 f6bb b02f 7ebd 8b5f d23b
000001c0: dac3 0f3d 3188 ac3d 58d6 37bc c122 36bd
000001d0: 3ba5 aebd 9f3b ce3d e82a 22bd 9465 08bc
000001e0: 15a1 d1bd 446b f2bd cbd1 97bc 6d17 9bbb
000001f0: 12b4 413c 3d5b 8fbc 8bc1 63bc af7e 1ebd
00000200: 0f55 9ebc 5cb5 ad3c d9b5 633d c806 5cbd
00000210: 832a 82bd b555 eb3d 2740 9bbd d1b6 fb3d
00000220: 3c91 03be 1654 923c 07f6 0f3e 8979 613d
00000230: e96e babc 608f db3d 107d 13bd 5e92 c8bd
00000240: cf39 88bd e4a9 81bd 4ee8 f93d 886a cebd
00000250: 571c 483d b641 25bd 3cd6 ddbd 3438 b1bc
00000260: 4f3a b0bc 1a49 bb3d 6046 ab3c 2dfb 4e3d
00000270: 4104 8e3c ab66 c23c 6805 d0bb 00d4 c6bc
00000280: f4a1 f539 e32d 013d a661 dd3d c559 463b
00000290: 7d1b 8abd b81b 46bb 33e1 243d 3fdd a03d
000002a0: 3a9a b1bc ab36 203c 9fe2 e4bc 4ce7 753d
000002b0: 3706 8fbc 833a 51bd c676 d1bd ff22 6ebd
000002c0: e37b 75bd b4b5 43bd 0243 2bbb a844 cc3b
000002d0: 48bc d93b 4f23 bebd 03f9 dd3d 6328 cfbc
000002e0: ed00 babc 020d 233d 547e bbbd 619b bc3d
000002f0: 35cd 523d 781f b0bd 1175 083d 6f09 83bd
00000300: b76d fabc 16bf 0b3d 3eef 5fbb f518 70bd
00000310: 6bb2 d83d b1ce cdba 8cc2 f03c 73e9 2a3d
00000320: 3db0 953d 1f57 63bb bd25 04bd 377c f23d
00000330: 60d6 b2bb 7dd2 aebd c4be bebc 7d33 b9bd
00000340: 0a38 a13d 13de 423c 29f7 a33a ecca 2d3d
00000350: f280 52bc f956 94bb f546 f73c aef6 2cbc
00000360: 807c 943d 9cb5 f33d 9547 e6bc 7974 8b3d
00000370: 676c 073e 3f70 63bd fcea f5bc 8591 72bd
00000380: 1979 a03b 58cb 693c 358f 0cbe 9c56 ad3d
00000390: 1665 9d3d 18d9 eebc 3ca3 50bc e8e4 893c
000003a0: 867e 80bb c36c 373c b202 01bd 3a1c 6b3d
000003b0: 8804 003e e26c 483d 47de 903d d9df b13d
000003c0: 9a7f dc3d b873 f63d aaf3 8c3d 4d3a 8d3c
000003d0: cc4a 04bd 2833 033d d757 a03d 876d f23c
000003e0: e835 9abc 8e2f 3cbc ac88 103d 4bcf 08bc
000003f0: addd 01bc 9b48 e23c 3d44 7fbc f885 d53d

network_body._body_endoder.seq_layers.2.bias f4 [256]
-0.0023985219 -0.0027005333 -0.00067221705 0.0102844145 -0.00542144 0.02873368 -0.00041241443 -0.001366745
-0.0016069843 0.006481437 0.0031694379 -0.0016599457 0.001698419 -0.0038740998 0.0010872812 0.0033010787
0.002158588 -0.0028088898 -0.0017439264 0.0001562075 -0.0007867666 0.0006668237 0.019424086 -0.0022511121
0.0014829357 -0.0034897248 0.002655663 -0.0013895745 -0.004693868 0.0024193253 0.003473294 0.002890549
-0.0012427722 0.016733812 -0.004980478 -0.0037466253 -0.000103745566 -0.0047247577 -0.005360877 0.00041274744
0.009224287 -0.002994975 -0.00069367274 -0.0017794081 -0.005672704 0.016008658 0.0035271244 -0.0010863196
0.0005835862 0.0046948832 -0.0021697618 -0.004438094 -0.0023112681 0.0005970525 -0.0029634642 -0.0010390609
-0.0048546237 -0.0012627873 -0.003341144 -0.0008649756 -0.0017740277 -0.0027541562 -0.005549087 -0.00091730757
-0.008354659 0.0062161097 -0.0067904084 -0.0013798714 0.00015841424 -0.0023261346 -0.004592148 -0.002069957
-0.005834317 -0.0030578938 -0.0040843487 0.002849596 -0.00025615803 -0.0013994643 -0.0014613798 2.3269014e-05
-0.0038641284 -0.007555243 0.008312647 -0.0011926603 -0.0017077762 0.0022787233 0.00421064 -0.0063733696
0.0236609 -0.003867941 0.0013987527 0.0013459787 -0.0011723852 -0.0006789621 0.0055718077 -0.0050410647
0.0006329081 -0.0062255883 0.0014315245 -0.008308398 0.00033387812 6.715629e-05 0.0031772344 8.722535e-05
0.0035857614 0.007526611 -0.003470484 -0.0022458187 -0.0075863767 -0.00095808285 0.00094917946 0.008715895
-0.0007849993 -0.0016954131 -0.00062282337 -0.00037618063 0.0052041537 -0.0011471002 -0.0029340594 0.005408495
0.0019762346 -0.002847035 0.0017265767 -0.005147683 -0.004708559 -0.0073956377 -0.0021894095 -0.007639363
-0.00440649 0.0014827275 0.009525206 -0.003835763 0.003707329 -0.004721468 -0.005459264 -0.0021406203
-0.00019357652 -0.0040344256 0.021652976 -0.0046520964 -0.0028010248 0.0038999969 0.009400249 0.0015642163
-0.0010852604 -0.0028285764 -0.0015717724 0.0053487993 -0.008123605 -0.0037192355 0.0010666031 -5.42847e-05
-0.0036468785 0.0005648169 0.010512353 -0.0046666726 0.0009706254 0.005562148 0.004495437 -0.0012597864
-0.0019465702 -0.004722431 -0.0057478207 -0.0023233863 -0.0058796755 0.0037106308 -0.0069994233 0.00084704807
0.001057763 -0.0013768631 0.0006390985 0.00095056224 0.004563147 -0.003742998 -0.003929619 -0.0039062025
0.00047995095 -3.1528558e-05 -0.0031827851 -0.0025610488 0.0035030372 -0.00083581975 -0.0031068597 0.017209755
-0.005662112 -0.00068326405 -0.006178056 -0.005089953 -0.0061963457 -0.0006590035 -0.0011247844 0.007955509
-0.004121029 -0.004571082 0.0031516168 0.0024158203 0.0033157037 0.010784142 -0.005453351 -0.0049699256
0.0008658606 -0.0011375212 -0.007974651 -0.006127875 -0.0049046385 -0.0057267314 -0.0024371014 0.01093763
0.001869398 0.0018705657 0.0010647523 -0.00010895997 0.003033134 -0.001688015 0.0007704022 0.0063037253
0.0014279985 -0.0029551613 -0.0010658246 0.010720591 0.0011997776 0.0002852997 0.012000404 -0.0063064676
-0.003669458 0.00037949596 -0.003023105 -0.0055953646 -0.001965386 -0.0006143213 -0.0025167856 -0.0024183122
0.001750578 -0.009590706 -0.0056354157 -0.0019602422 -0.0048567457 -0.0013359498 -0.005180938 -0.0033431428
0.0007654174 0.021906583 -0.0062658205 -0.0007851296 -0.0033274612 0.0011897573 -0.0074305898 0.004222456
-0.002305074 0.0087392805 0.00812053 0.0024758568 -0.00011730186 -0.0029075365 -0.0038551148 -0.0014624748
00000000: 8530 1dbb 6efb 30bb b937 30ba f67f 283c
00000010: 56a6 b1bb e562 eb3c 5439 d8b9 5a24 b3ba
00000020: 72a1 d2ba 3c62 d43b 58b6 4f3b 8992 d9ba
00000030: 7c9d de3a 9ce4 7dbb 1a83 8e3a e956 583b
00000040: 1977 0d3b 5a15 38bb 7694 e4ba a2cb 2339
00000050: 033f 4eba c8cd 2e3a 431f 9f3c 6587 13bb
00000060: 115f c23a deb3 64bb a20a 2e3b 6222 b6ba
00000070: 05cf 99bb 8b8d 1e3b 34a0 633b 5d6f 3d3b
00000080: 84e4 a2ba 5915 893c 4733 a3bb f189 75bb
00000090: fa91 d9b8 24d2 9abb 4caa afbb 0666 d839
000000a0: 7721 173c 5847 44bb 97d7 35ba 073b e9ba
000000b0: 17e2 b9bb 9724 833c 5427 673b d662 8eba
000000c0: cffb 183a 89d7 993b 9032 0ebb 6e6d 91bb
000000d0: a578 17bb 8483 1c3a ae36 42bb 1931 88ba
000000e0: 8913 9fbb 1c84 a5ba 18f7 5abb 88bf 62ba
000000f0: 7e86 e8ba 137f 34bb 1ed5 b5bb 7877 70ba
00000100: fbe1 08bc 82b0 cb3b 1382 debb cddc b4ba
00000110: 001c 2639 1072 18bb bb79 96bb 1ea8 07bb
00000120: cc2d bfbb f266 48bb 00d6 85bb 4ac0 3a3b
00000130: f34c 86b9 3b6e b7ba c58b bfba d431 c337
00000140: 513d 7dbb f991 f7bb c531 083c 0a53 9cba
00000150: 76d7 dfba a256 153b 69f9 893b b3d7 d0bb
00000160: 81d4 c13c 487d 7dbb 5a56 b73a 8d6b b03a
00000170: b8aa 99ba 60fc 31ba b693 b63b 842f a5bb
00000180: bee9 253a 0500 ccbb fea1 bb3a f21f 08bc
00000190: 5d0c af39 42d6 8c38 2639 503b c1ec b638
000001a0: 18ff 6a3b caa1 f63b 0f71 63bb 962e 13bb
000001b0: 2497 f8bb da27 7bba 5bd2 783a 1dcd 0e3c
000001c0: 69c8 4dba a038 deba f844 23ba 1c3a c5b9
000001d0: 9b87 aa3b 4c5a 96ba 5949 40bb bf39 b13b
000001e0: b783 013b 5295 3abb 4d4e e23a e5ad a8bb
000001f0: 414a 9abb 1b57 f2bb 327c 0fbb 9f53 fabb
00000200: 5164 90bb 1458 c23a 9c0f 1c3c 6d61 7bbb
00000210: a9f6 723b 8bb6 9abb a0e3 b2bb a649 0cbb
00000220: cdfa 4ab9 3733 84bb 9561 b13c 9d70 98bb
00000230: 6691 37bb 1797 7f3b 8103 1a3c 6406 cd3a
00000240: 4c3f 8eba a35f 39bb ee03 ceba fb44 af3b
00000250: de18 05bc 6bbe 73bb 43cd 8b3a c1af 63b8
00000260: 7800 6fbb 3810 143a 013c 2c3c e3ea 98bb
00000270: 9171 7e3a ae42 b63b 754e 933b 6b1f a5ba
00000280: 0f24 ffba 9fbe 9abb 3758 bcbb f443 18bb
00000290: 4baa c0bb 0e2e 733b 6b5b e5bb 6f0c 5e3a
000002a0: a3a4 8a3a dc77 b4ba 2d89 273a 272f 793a
000002b0: 7486 953b 164d 75bb 09c4 80bb 34ff 7fbb
000002c0: eda1 fb39 883d 04b8 4696 50bb 45d7 27bb
000002d0: 3693 653b ea1a 5bba 759c 4bbb 79fb 8c3c
000002e0: 3d89 b9bb 131d 33ba 4a71 cabb 9fc9 a6bb
000002f0: b70a cbbb fac0 2cba 806d 93ba d357 023c
00000300: b209 87bb 04c9 95bb 5b8b 4e3b bd52 1e3b
00000310: 474c 593b f8af 303c 06b2 b2bb c2da a2bb
00000320: ecfa 623a e118 95ba 1ca8 02bc 57cc c8bb
00000330: 17b7 a0bb 4ea7 bbbb c7b7 1fbb bf33 333c
00000340: 9706 f53a c52d f53a 298f 8b3a 7081 e4b8
00000350: 8bc7 463b 6240 ddba d1f4 493a 7b8f ce3b
00000360: ae2b bb3a 61ab 41bb 24b3 8bba 6ba5 2f3c
00000370: db41 9d3a 4794 9539 589d 443c 7ca6 cebb
00000380: 4a7b 70bb 16f7 c639 491f 46bb 5259 b7bb
00000390: b5cd 00bb 680a 21ba a8f0 24bb 8c7c 1ebb
000003a0: a773 e53a 5622 1dbc 4ba9 b8bb 6877 00bb
000003b0: 5625 9fbb 091b afba dcc4 a9bb a118 5bbb
000003c0: 4ba6 483a 6f75 b33c 8351 cdbb 28d1 4dba
000003d0: 8911 5abb a1f1 9b3a 4e7c f3bb 875c 8a3b
000003e0: b910 17bb 332f 0f3c f90b 053c fc41 223b
000003f0: f5ff f5b8 5e8c 3ebb 18a6 7cbb 83b0 bfba

network_body._body_endoder.seq_layers.4.weight f4 [256, 256]
-0.04159902 0.01355691 -0.015667137 0.1427395 0.006485042 0.054011684 0.040321812 0.06393415
0.060483776 -0.045817044 0.05343738 -0.026722329 0.02023118 0.09812935 -0.03230391 0.084848605
-0.063929655 -0.061464235 -0.05205552 -0.0020924364 -0.00012531351 -0.064186566 -0.011723745 -0.03970785
0.13921466 -0.02320031 -0.0194035 0.068107925 0.014981124 0.0670687 0.046271376 -0.022582766
-0.033427216 0.065809816 -0.056755546 -0.048481736 -0.10403918 0.071106754 -0.010221884 -0.050586592
0.02021523 -0.043625515 -0.016015606 0.05986709 -0.115484305 -0.048374142 0.036498412 0.02173001
0.07030786 0.013570726 0.07741987 0.02078896 -0.030685939 -0.01832687 -0.010798538 0.07553785
0.06339128 -0.10142532 -0.09119206 0.073230274 0.06438656 0.009821488 0.026850147 0.089748666
0.08413319 0.022903083 -0.10656334 0.047478702 0.09240757 0.1300975 0.07110665 -0.02032022
-0.03882656 0.061433464 -0.09810168 0.10004723 -0.07732742 -0.03271336 0.00094665244 0.06878129
0.010306505 -0.066603296 0.042853758 -0.026816871 -0.07838066 -0.12352789 -0.042260867 -0.061243445
0.0091893505 -0.0069002593 0.06328326 0.036349215 0.006883314 0.00037821702 -0.015707688 -0.030419832
0.046545494 0.00951799 -0.012181668 0.07970285 -0.10524624 -0.08280433 -0.028511472 0.0628658
0.05079815 0.13122772 -0.02016356 -0.021653071 0.07482951 0.11316849 0.17388767 -0.042917933
0.059788465 -0.05169643 0.013509978 -0.017046766 -0.019622257 -0.069197066 0.036598057 0.015831077
0.0018468841 -0.059702884 0.021159317 -0.06953559 -0.077931546 0.030367056 -0.11747939 -0.033917207
0.09263682 -0.01536328 -0.02489991 0.0029893445 -0.13003723 -0.017848019 0.0020051743 0.06742283
0.13401034 -0.013745428 -0.022866108 0.0059811403 -0.01992274 -0.05998501 -0.0070701535 -0.016243462
-0.038594674 -0.08957595 0.02305668 0.061945308 0.037168294 -0.13889408 0.06856429 0.07592743
-0.027600266 0.038893603 0.017451625 0.048013404 0.030932443 0.034262262 0.0820222 0.028951926
0.114921376 0.012180654 0.029655645 0.022597495 0.069190584 0.11320835 -0.11755939 -0.063290946
0.020907192 0.13439758 -0.06425389 0.069928385 -0.045532316 -0.07217674 -0.062591955 -0.02276756
0.04622761 -0.027730662 0.12527902 0.034610003 0.04826616 0.0059304824 0.08419673 -0.013843927
-0.038377665 0.026720216 -0.040783405 -0.06878941 -0.005205018 -0.0029734343 -0.058498975 0.025090262
0.11577076 -0.124238715 -0.035841495 -0.054911483 0.05929559 0.017162059 -0.0181111 0.041729517
0.08875232 0.11980364 0.03377205 0.0020892774 -0.06756414 -0.002614737 0.12110837 0.012044828
0.06452646 -0.10275718 0.043090135 -0.0072861677 -0.037067175 -0.068077244 0.08461034 0.022950465
-0.08285725 0.061787236 -0.0017740722 0.022932326 0.033275448 -0.024958093 0.008666006 0.035757795
0.16003068 -0.063344605 -0.053485982 -0.024160024 -0.03262726 -0.09386376 0.07051226 -0.007270777
-0.08847949 0.14425305 0.09683153 -0.060447417 -0.029805599 0.014203852 0.015955828 0.07983485
0.033674296 -0.019364676 -0.08236122 -0.06102065 0.014982636 -0.035355896 0.15408741 0.13339694
-0.10187564 0.059775364 0.017119838 -0.0134188235 0.004931227 0.0037581797 0.1317277 -0.19598262
00000000: bc63 2abd cd1d 5e3c 5e58 80bc 4e2a 123e
00000010: 7a80 d43b 5b3b 5d3d 7c28 253d e8ef 823d
00000020: d6bd 773d a7aa 3bbd 27e1 5a3d c9e8 dabc
00000030: dcbb a53c 0af8 c83d 1b51 04bd 1bc5 ad3d
00000040: 8ded 82bd ecc1 7bbd 2b38 55bd 4221 09bb
00000050: 9766 03b9 3f74 83bd f314 40bc b3a4 22bd
00000060: 4a8e 0e3e 940e bebc 17f4 9ebc 2b7c 8b3d
00000070: 6373 753c 515b 893d 0e87 3d3d 7eff b8bc
00000080: faea 08bd 4cc7 863d 8178 68bd c994 46bd
00000090: 7e12 d5bd 6ba0 913d b079 27bc e333 4fbd
000000a0: 699a a53c abb0 32bd 2933 83bc 3237 753d
000000b0: 0983 ecbd f723 46bd 5c7f 153d 2203 b23c
000000c0: 91fd 8f3d c057 5e3c 4f8e 9e3d 9c4d aa3c
000000d0: 1461 fbbc 3b22 96bc 5aec 30bc 97b3 9a3d
000000e0: 4ad3 813d 14b8 cfbd e7c2 babd c1f9 953d
000000f0: 1add 833d 4eea 203c d7f4 db3c 26ce b73d
00000100: 064e ac3d 3f9f bb3c e13d dabd 0779 423d
00000110: 2e40 bd3d 4738 053e 5da0 913d 9776 a6bc
00000120: 9908 1fbd a8a1 7b3d 89e9 c8bd 90e5 cc3d
00000130: d75d 9ebd 72fe 05bd c528 783a 34dd 8c3d
00000140: 9ddc 283c 4f67 88bd 6c87 2f3d 0eaf dbbc
00000150: 0a86 a0bd 31fc fcbd bb19 2dbd 68da 7abd
00000160: ee8e 163c 921b e2bb a79a 813d eae2 143d
00000170: 6c8d e13b 6e4b c639 69ad 80bc 0333 f9bc
00000180: 7da6 3e3d 58f1 1b3c 9e95 47bc 3f3b a33d
00000190: 578b d7bd 5195 a9bd e490 e9bc c9bf 803d
000001a0: b911 503d 8f60 063e 0d2e a5bc c861 b1bc
000001b0: 3740 993d e2c4 e73d 9c0f 323e b7ca 2fbd
000001c0: c0e4 743d a3bf 53bd f458 5d3c a9a5 8bbc
000001d0: dbbe a0bc 31b7 8dbd d8e7 153d 2db0 813c
000001e0: 2613 f23a 038b 74bd 4e56 ad3c ad68 8ebd
000001f0: 939a 9fbd 55c4 f83c 0999 f0bd c5ec 0abd
00000200: 60b8 bd3d 44b6 7bbc e5fa cbbc e1e8 433b
00000210: 7b28 05be 0236 92bc 3e69 033b fb14 8a3d
00000220: 023a 093e 8134 61bc b451 bbbc 71fd c33b
00000230: 0435 a3bc d8b2 75bd bfac e7bb 0211 85bc
00000240: 7315 1ebd 9873 b7bd 5de1 bc3c 5dba 7d3d
00000250: c83d 183d 403a 0ebe 6f6b 8c3d d77f 9b3d
00000260: f419 e2bc e64e 1f3d b6f6 8e3c b4a9 443d
00000270: 0966 fd3c 9656 0c3d 41fb a73d 972c ed3c
00000280: e65b eb3d 5e91 473c 65f0 f23c 621e b93c
00000290: cbb3 8d3d c8d9 e73d fac2 f0bd af9e 81bd
000002a0: 8f45 ab3c 859f 093e 8b97 83bd 9d36 8f3d
000002b0: 1880 3abd 66d1 93bd 3630 80bd 0983 babc
000002c0: 2a59 3d3d 6a2b e3bc 2549 003e 38c3 0d3d
000002d0: bdb2 453d 7e54 c23b 566f ac3d a3d1 62bc
000002e0: e631 1dbd 5be4 da3c 800c 27bd 76e1 8cbd
000002f0: db8e aabb f3dd 42bb 9f9c 6fbd 188a cd3c
00000300: 3819 ed3d de70 febd 88ce 12bd ddea 60bd
00000310: efdf 723d 7297 8c3c bb5d 94bc 92ec 2a3d
00000320: c7c3 b53d 9c5b f53d 9054 0a3d 42ec 083b
00000330: 115f 8abd 025c 2bbb aa07 f83d ac57 453c
00000340: 7326 843d 5b72 d2bd 487f 303d cec0 eebb
00000350: c0d3 17bd 156c 8bbd 3048 ad3d 9d02 bc3c
00000360: 10b1 a9bd 9d14 7d3d fc87 e8ba 93dc bb3c
00000370: d64b 083d ea74 ccbc ddfb 0d3c c476 123d
00000380: 15df 233e d1ba 81bd 1e14 5bbd 3eeb c5bc
00000390: 29a4 05bd a53b c0bd bb68 903d b33f eebb
000003a0: bc34 b5bd 12b7 133e 9c4f c63d b697 77bd
000003b0: df2a f4bc 46b7 683c ccb5 823c 7480 a33d
000003c0: 0fee 093d aba2 9ebc 00ad a8bd caf0 79bd
000003d0: bb79 753c 58d1 10bd 17c9 1d3e 3599 083e
000003e0: 2da4 d0bd 03d7 743d e73e 8c3c a0da 5bbc
000003f0: 2196 a13b cb4b 763b a0e3 063e abaf 48be

network_body._body_endoder.seq_layers.4.bias f4 [256]
0.001458324 -0.0060853288 0.0076977373 -0.0029321474 -0.0049751373 -0.0013063782 -0.010404123 -0.00015870409
0.0019787385 -0.00077531586 -0.0005429302 -0.0058596684 0.0013022801 -0.0022071819 -0.00023758961 0.0016251233
0.01701115 -0.0029486753 -0.006223097 -0.0042573283 -4.6500892e-05 -0.0029404252 -0.0015802194 -0.0074627567
-0.0016974205 -0.002338864 -0.007335019 -0.0020716155 -0.0038556205 0.007950942 -0.0004514524 -0.0045529716
0.0009890082 -0.00010309696 -0.0012810155 -0.0030940077 0.0010413582 -0.0040732794 -0.0021481442 0.0042935573
0.001037298 0.016217217 0.0034842356 0.008321012 -0.002095871 0.0047458694 -0.0066970144 -0.00074232183
-0.0028642518 0.0009982177 0.00022147733 0.00016311526 0.0016802994 0.010251987 0.011984199 -0.003192911
-0.0022825014 -0.0013773813 -0.00062065414 -0.0019041268 0.0026848253 -0.0012506398 0.0026673896 0.007411475
-0.0020832976 0.006847887 -0.0022078804 -0.00905367 -0.0067290897 0.0018404966 -0.0011760639 0.0064901784
-0.013018004 0.0003526738 0.0036654156 -0.0026471433 0.00063797715 -0.0034285185 -0.0010913778 0.018121865
-0.0024075578 -0.00013093904 -0.0010085895 -0.004306199 -0.0035905493 -0.006960239 -0.0016431815 0.0029127994
-0.0048176292 0.0026543958 -0.0030518346 -0.005987316 0.005414431 0.0037050296 0.00020235978 -0.007946556
-0.0016751766 -0.0016104751 -0.0007061858 0.0033092115 0.0022583616 -0.00064077217 0.0067406357 -0.0010646795
-0.0010591301 0.0006961628 -0.0034633577 0.0036455477 -0.003182867 -0.00043783712 -0.00029879197 -0.005364099
0.0040030745 -0.005453635 -0.0072095306 -0.00035786277 0.0047103423 -0.0025311944 0.0025897773 0.0021634353
0.0027476908 -0.0019433352 -0.004345779 -0.0021120028 -0.0024146005 -0.0025797377 -0.0038367817 0.007599887
-0.0008641262 0.0030046916 0.006029697 0.001662326 0.00012684752 0.0029800895 -0.00089106447 0.016241578
0.00064835575 -0.0077535897 0.0008454105 -0.0035978977 -0.0029376163 -0.0012717302 0.0032941096 0.0027599945
-0.00047348868 -0.0013397264 -1.3026668e-05 -0.002213834 -0.0012582096 -0.0006662095 0.0010005668 -0.0012553735
0.004507042 -0.0022777605 0.02218496 -0.0011255805 -0.0070227603 -0.0012349816 -0.0033187252 0.0012026551
0.0032414622 -0.0011372828 0.002029204 -0.0061574625 -0.00435169 0.0018277608 -0.0022640396 -0.0023387831
0.0020125895 -0.0005836435 -0.0019451282 -0.00049824547 0.0059489547 -0.0035514156 0.002841814 -0.0034928736
0.0020008795 -0.0046747793 -0.00517049 -0.003913905 -0.0014849625 -0.006556231 0.0054214457 0.017333455
0.000518041 -0.0055122715 -0.0003811872 -0.001629786 0.0026996664 -0.0031246548 -0.00012596753 -0.0024441392
0.0014431373 -0.005423726 -0.0030073118 -0.0006735212 0.00030733034 0.009973732 -0.003504143 -0.005337875
-0.0029504786 0.008566557 -0.001998732 0.0026732162 -0.0029590505 -0.0051363213 0.008496384 0.0023064986
-0.0005830345 0.005253021 0.0022903814 -0.0027308194 0.006223019 -0.0040466813 -0.006951439 -0.002772675
0.009384808 -0.0010280423 -0.002922907 -0.0026605376 -0.0053098146 -0.008547121 0.0064983144 -0.001418664
-0.006727214 0.010301482 -0.0004986041 -0.0011300041 5.676489e-06 0.0002908528 0.0010395917 0.006725599
0.0014563571 -0.005840087 -0.0042531826 -0.0069750575 -0.0005244127 0.0007173744 0.0026963376 -0.0034764633
0.0019158334 -0.0010841585 -0.0019033363 0.00021244255 -0.0053813583 -0.0022700613 -0.005956481 -0.0065036425
0.0051658694 -0.0051144655 -0.0028740652 0.00042119072 0.0013526299 0.00091284845 0.0046293344 -0.011291946
00000000: 3c25 bf3a 7067 c7bb 4d3d fc3b 4529 40bb
00000010: 7a06 a3bb c73a abba 0e76 2abc ce69 26b9
00000020: b9ad 013b 913e 4bba 6e53 0eba 7602 c0bb
00000030: 45b1 aa3a 5ea6 10bb 7a21 79b9 1702 d53a
00000040: f85a 8b3c 903e 41bb 1feb cbbb 0f81 8bbb
00000050: f409 43b8 26b4 40bb 5d1f cfba 248a f4bb
00000060: fb7b deba a047 19bb 995a f0bb f1c3 07bb
00000070: 94ae 7cbb ab44 023c eab0 ecb9 1831 95bb
00000080: 9ca1 813a c235 d8b8 bfe7 a7ba d6c4 4abb
00000090: 2f7e 883a 2579 85bb e1c7 0cbb f8b0 8c3b
000000a0: f2f5 873a f8d9 843c c657 643b db54 083c
000000b0: e15a 09bb 3d83 9b3b a172 dbbb 6098 42ba
000000c0: 2cb6 3bbb a1d6 823a 5e3c 6839 eb09 2b39
000000d0: 7e3d dc3a f3f7 273c 6059 443c 2840 51bb
000000e0: 0596 15bb 3f89 b4ba 65b3 22ba e593 f9ba
000000f0: e5f3 2f3b 82ec a3ba 5fcf 2e3b f5db f23b
00000100: ef87 08bb 3d64 e03b 16b2 10bb d855 14bc
00000110: b27f dcbb d13c f13a 2826 9aba 90ab d43b
00000120: 7749 55bc 13e7 b839 7837 703b b27b 2dbb
00000130: ec3d 273a ffb0 60bb 900c 8fba 4e74 943c
00000140: 1ec8 1dbb ae4c 09b9 a632 84ba 041b 8dbb
00000150: 6c4f 6bbb b712 e4bb 0660 d7ba aae4 3e3b
00000160: 34dd 9dbb 5ff5 2d3b 4a01 48bb 3f31 c4bb
00000170: 8a6b b13b 15d0 723b 8a30 5439 4632 02bc
00000180: 9991 dbba 9416 d3ba 541f 39ba 5bdf 583b
00000190: 0501 143b 7ef9 27ba 8de0 dc3b b78c 8bba
000001a0: 82d2 8aba b27e 363a 80f9 62bb 24ea 6e3b
000001b0: a697 50bb 818d e5b9 2ea7 9cb9 53c5 afbb
000001c0: 392c 833b 68b4 b2bb ed3d ecbb 879f bbb9
000001d0: 3759 9a3b 65e2 25bb 41b9 293b 6cc8 0d3b
000001e0: 9a12 343b 82b7 feba 0967 8ebb 8769 0abb
000001f0: 463e 1ebb d110 29bb 8472 7bbb 7908 f93b
00000200: 8786 62ba 5cea 443b c494 c53b 68e2 d93a
00000210: 5f02 0539 9b4d 433b 5396 69ba 0f0d 853c
00000220: 6bf6 293a d311 febb 8a9e 5d3a b5ca 6bbb
00000230: 0685 40bb 2fb0 a6ba fde1 573b 06e1 343b
00000240: 933e f8b9 c299 afba 1d8d 5ab7 f915 11bb
00000250: 82ea a4ba 90a4 2eba 7325 833a 588b a4ba
00000260: cfaf 933b 7b46 15bb 3cbd b53c 3788 93ba
00000270: 2f1f e6bb 1bdf a1ba f87e 59bb 69a2 9d3a
00000280: b66e 543b e110 95ba 65fc 043b 8ac4 c9bb
00000290: 9f98 8ebb 7a91 ef3a 4860 14bb 4546 19bb
000002a0: a6e5 033b a7ff 18ba acf3 feba b09c 02ba
000002b0: 73ef c23b debe 68bb ba3d 3a3b b2e8 64bb
000002c0: 3021 033b e42e 99bb 376d a9bb 3740 80bb
000002d0: 13a3 c2ba a7d5 d6bb 62a6 b13b e4fe 8d3c
000002e0: 25cd 073a 49a0 b4bb 14da c7b9 8b9e d5ba
000002f0: e3ec 303b 02c7 4cbb 2716 04b9 da2d 20bb
00000300: a727 bd3a 83b9 b1bb 5216 45bb 3e8f 30ba
00000310: 2e21 a139 dd68 233c c4a5 65bb 57e9 aebb
00000320: d15c 41bb bf5a 0c3c 29fd 02bb 2031 2f3b
00000330: a1ec 41bb 964e a8bb 6b34 0b3c a028 173b
00000340: c8d6 18ba 8921 ac3b 391a 163b 8cf7 32bb
00000350: 78ea cb3b 069a 84bb e6c8 e3bb c4b5 35bb
00000360: bdc2 193c 60bf 86ba 3e8e 3fbb 6a5c 2ebb
00000370: f4fd adbb 3909 0cbc d0ef d43b 77f2 b9ba
00000380: f66f dcbb 8cc7 283c c1b4 02ba a51c 94ba
00000390: ab78 be36 9a7d 9839 e942 883a 6a62 dc3b
000003a0: 3ce3 be3a 335e bfbb 485e 8bbb 068f e4bb
000003b0: be78 09ba 2e0e 3c3a 0ab5 303b 60d5 63bb
000003c0: b41c fb3a 531a 8eba 5e79 f9ba 1dc3 5e39
000003d0: 1b56 b0bb 4fc5 14bb 962e c3bb 821c d5bb
000003e0: 7446 a93b 3f97 a7bb d05a 3cbb 43d3 dc39
000003f0: ba4a b13a 394c 6f3a acb1 973b db01 39bc

network_body._body_endoder.seq_layers.6.weight f4 [256, 256]
-0.06326345 0.10706615 0.03143924 -0.0046357773 0.074256875 0.11175547 0.037450023 -0.019322693
0.008121614 0.00058587646 -0.05137061 0.02163499 -0.0561296 -0.047371533 -0.02036452 0.018100407
0.009231895 0.027625563 -0.018017821 -0.011379919 -0.07570739 0.0113151595 0.057631075 -0.027170457
-0.047757603 -0.0632714 0.043993793 0.059284292 -0.088225946 0.048222143 -0.044446506 -0.095745236
-0.007863012 -0.093654625 -0.08389369 -0.053399872 0.07503046 0.12510507 -0.022428174 -0.028421225
0.033300187 0.0057857344 0.018934296 -0.12321497 -0.12821381 -0.005949308 0.14565448 -0.03013096
0.06421416 0.05982276 0.046561487 0.04990199 0.115466036 -0.07414207 0.026400456 0.13907921
0.037611607 0.07861597 -0.0799419 -0.14043559 -0.09852083 0.07859482 -0.049352903 -0.008224496
0.12599 -0.10035603 -0.05515953 0.052666496 0.0022419863 -0.0027876392 -0.02724074 0.0125705395
0.12520526 -0.055930164 0.11651064 0.032084346 -0.028318238 -0.044174645 0.03445816 -0.001391063
0.0002559104 -0.054080207 -0.00738665 0.06147042 -0.049359392 0.026431734 -0.025248745 0.09221177
0.046309445 0.10964061 -0.076025754 -0.07785559 0.037458453 0.031929724 0.087332085 -0.049404617
-0.027829383 -0.116495974 -0.052386068 0.045580555 0.06582294 0.06359761 -0.015676772 -0.07207378
0.022312438 -0.0947927 -0.0029251496 0.018189514 -0.039774872 -0.0562133 -0.011513456 0.06584348
0.045455072 0.12128829 0.032441385 0.05524766 0.10213447 -0.014837224 0.01786548 -0.0024102046
0.0108197825 -0.008662815 0.02819685 0.024400854 -0.035213076 -0.0131357815 0.0662853 0.015076387
0.12137525 -0.056121517 0.06580528 -0.110892 -0.06331826 -0.14779788 0.014857725 0.056664832
0.063592374 0.02263805 0.006110997 -0.012046654 -0.03217954 0.04886831 -0.05992933 -0.05126889
-0.08163039 -0.06491574 0.06362554 0.014953563 -0.115178876 0.03226169 0.03187955 0.078584656
-0.004743605 -0.0380667 0.07371926 -0.091576025 0.02450916 0.13906693 0.031743538 0.05338452
-0.06556748 -0.00064724917 0.07125454 -0.020406421 -0.10046637 0.024114482 0.09928151 -0.034720678
-0.011281083 0.048105355 -0.047397137 -0.06654661 -0.034441862 -0.041962054 -0.04919766 0.01968799
-0.0953513 -0.053001754 0.035651207 -0.04048848 -0.058549546 0.019200634 0.12186297 0.014531094
0.00043164205 0.047467258 -0.037714954 -0.050209004 0.08572518 -0.023537776 -0.04430597 0.05113488
-0.16964652 -0.074812785 0.0132880425 -0.05087108 0.08731937 -0.0475077 0.03144038 0.011660718
0.017546378 0.027409637 0.0030693552 -0.03550179 0.09930528 0.009389963 -0.044424042 -0.075541735
0.015950477 -0.048371717 -0.07070022 0.05512004 -0.011666975 0.031807195 0.029440418 -0.118543066
0.066716366 -0.028641736 0.030255329 -0.110181525 0.06950779 0.025143046 0.011056683 -0.019381449
-0.03691436 0.034898438 0.12804002 0.03693328 0.03326652 -0.003136921 0.0023525057 0.03485464
0.027275804 -0.028130986 0.08858584 0.06531246 -0.030300165 0.017792774 -0.109900534 -0.070942596
-0.02319989 0.051097725 0.078226686 -0.11400876 0.05678366 0.052626085 0.040839914 0.044773452
-0.055598166 -0.025805218 -0.0028527642 -0.07151183 -0.1398448 -0.03832949 0.032923188 0.013154726
00000000: 4590 81bd 7f45 db3d 6fc6 003d b8e7 97bb
00000010: fd13 983d 0de0 e43d 3265 193d a04a 9ebc
00000020: 8510 053c 8195 193a fd69 52bd dd3b b13c
00000030: 27e8 65bd a708 42bd 7ed3 a6bc 4e47 943c
00000040: 6041 173c 014f e23c 1c9a 93bc d772 3abc
00000050: 7a0c 9bbd 3863 393c 900e 6c3d 9494 debc
00000060: 7a9d 43bd 7094 81bd d632 343d 16d4 723d
00000070: ceaf b4bd 9584 453d 8a0d 36bd 1416 c4bd
00000080: ddd3 00bc ffcd bfbd 74d0 abbd d3b9 5abd
00000090: 92a9 993d 8b1b 003e 4abb b7bc a1d3 e8bc
000000a0: c765 083d 4296 bd3b 191c 9b3c 2158 fcbd
000000b0: 7b4a 03be 6af2 c2bb 7326 153e 34d5 f6bc
000000c0: b782 833d b608 753d 42b7 3e3d 0766 4c3d
000000d0: 7579 ec3d ccd7 97bd c545 d83c c86a 0e3e
000000e0: a10e 1a3d 6901 a13d 94b8 a3bd 59ce 0fbe
000000f0: 4ac5 c9bd 52f6 a03d 4526 4abd 09c0 06bc
00000100: 8603 013e 7687 cdbd f6ee 61bd d3b8 573d
00000110: 4aee 123b d3b0 36bb f927 dfbc aaf4 4d3c
00000120: cf35 003e 0717 65bd 219d ee3d e06a 033d
00000130: a6fb e7bc 79f0 34bd 0024 0d3d 5454 b6ba
00000140: b62b 8639 3583 5dbd b60b f2bb 68c8 7b3d
00000150: 132d 4abd 5d87 d83c 75d6 cebc 86d9 bc3d
00000160: f9ae 3d3d 428b e03d 64b3 9bbd c072 9fbd
00000170: 096e 193d bec8 023d 2adb b23d 7f5c 4abd
00000180: 72fa e3bc 7195 eebd c692 56bd adb2 3a3d
00000190: 2dce 863d 773f 823d 936c 80bc 6b9b 93bd
000001a0: 93c8 b63c ad22 c2bd deb3 3fbb 2d02 953c
000001b0: faea 22bd eb3f 66bd efa2 3cbc f2d8 863d
000001c0: 192f 3a3d ff65 f83d 42e1 043d 5f4b 623d
000001d0: e12b d13d d417 73bc a15a 923c 86f4 1dbb
000001e0: 7545 313c 7bee 0dbc 15fd e63c 4de4 c73c
000001f0: 963b 10bd 7637 57bc 96c0 873d f302 773c
00000200: 9693 f83d addf 65bd ebc4 863d 581b e3bd
00000210: 01ad 81bd 5458 17be d16d 733c 6219 683d
00000220: b83c 823d 6f73 b93c c23e c83b 545f 45bc
00000230: b1ce 03bd 232a 483d 7578 75bd 54ff 51bd
00000240: d52d a7bd 8bf2 84bd 1b4e 823d caff 743c
00000250: e7e2 ebbd d524 043d 2294 023d fef0 a03d
00000260: 3e70 9bbb d4eb 1bbd 20fa 963d 368c bbbd
00000270: 6fc7 c83c 9067 0e3e 8305 023d baa9 5a3d
00000280: 3e48 86bd 28ac 29ba e6ed 913d 5e2b a7bc
00000290: 50c1 cdbd bc8b c53c 1b54 cb3d 4537 0ebd
000002a0: 4bd4 38bc 1f0a 453d 8023 42bd 9749 88bd
000002b0: e912 0dbd 67e0 2bbd 7c83 49bd b548 a13c
000002c0: 8b47 c3bd 5e18 59bd 0007 123d 40d7 25bd
000002d0: a6d1 6fbd a64a 9d3c 4b93 f93d d313 6e3c
000002e0: 044e e239 076d 423d ff7a 1abd f5a7 4dbd
000002f0: af90 af3d 4bd2 c0bc 2d7a 35bd cf72 513d
00000300: d1b7 2dbe 7237 99bd 17b6 593c 325e 50bd
00000310: 7fd4 b23d 6f97 42bd a1c7 003d 990c 3f3c
00000320: 6cbd 8f3c 2d8a e03c 3c27 493b 536a 11bd
00000330: 9160 cb3d 5cd8 193c fcf5 35bd a0b5 9abd
00000340: 93aa 823c 6c21 46bd 47cb 90bd 8dc5 613d
00000350: d726 3fbc 4348 023d 082d f13c b5c6 f2bd
00000360: 97a2 883d 13a2 eabc 06da f73c daa6 e1bd
00000370: 1a5a 8e3d caf8 cd3c 1727 353c d8c5 9ebc
00000380: 8333 17bd aaf1 0e3d ec1c 033e 5a47 173d
00000390: 7942 083d cd94 4dbb 7f2c 1a3b bdc3 0e3d
000003a0: 8271 df3c f472 e6bc 7e6c b53d 8ac2 853d
000003b0: 0d38 f8bc 27c2 913c 8813 e1bd 5a4a 91bd
000003c0: b20d bebc d94b 513d 5035 a03d 6d7d e9bd
000003d0: fc95 683d 738e 573d c147 273d 5e64 373d
000003e0: e7ba 63bd 7765 d3bc 71f5 3abb cb74 92bd
000003f0: 7a33 0fbe 62ff 1cbd 77da 063d eb86 573c
