Assets/ML_PPO/results/1stgo_nav_17/BoatAgent/BoatAgent-1016.onnx (onnx, 819610 bytes, 25 tensors)

discrete_action_output_shape f4 [1, 8]
2.0 2.0 2.0 2.0 2.0 2.0 2.0 2.0
00000000: 0000 0040 0000 0040 0000 0040 0000 0040
00000010: 0000 0040 0000 0040 0000 0040 0000 0040

network_body._body_endoder.seq_layers.0.weight f4 [256, 4]
-0.3347534 -0.08629748 -0.41577426 0.009417389 -0.2981558 0.061542477 1.0091776 0.33827174
-0.07922438 -0.96475583 -0.0973768 -0.420857 0.64673966 0.08053471 0.58507174 0.086103395
-0.10811944 -0.29193726 0.1645577 -0.37314865 0.71955895 -0.4426239 0.22014283 0.2227496
-0.065935604 0.5832202 0.44673863 0.9133079 0.26740533 0.016377697 0.35280728 0.21757002
-0.3021102 1.2057928 1.5303241 0.034639683 0.05790569 -0.72441286 -0.1875913 -0.48844737
0.39043668 -0.5053479 -0.017044231 -0.45391005 0.011533785 0.5874111 -0.23836587 0.15542908
-0.7511687 0.10760707 0.5476653 0.48932514 -0.10755901 -0.4446182 0.707064 -0.27138698
-0.16528422 1.227745 0.51076764 0.3629334 -0.67865914 1.0186617 0.036144324 0.27863282
1.009111 0.45747274 -0.07576409 -0.57025677 -0.27134424 0.6609143 -0.48825717 0.08827755
-0.23983006 -0.65481144 -0.8579278 0.32619825 0.4189723 -0.24520361 0.21527162 0.15626496
-0.18279982 0.46583632 0.3462646 -0.53616226 -0.28003368 -0.23951349 -0.33452153 -0.1827461
0.13730577 0.069378525 -0.2675162 0.70403844 0.1496234 0.50160277 0.47682953 -0.42892653
-0.09668045 -0.6179289 0.6479749 -0.060906034 -0.35326535 0.5973 -0.1280355 -0.458494
-1.0318038 -0.011517311 -0.10205194 -0.2906694 0.18277396 0.26104286 -0.20861198 0.45584202
0.17787576 -0.30737397 0.9100025 -0.22962877 -0.50514114 -0.014888147 -0.0012770735 0.562278
0.043162115 0.3180978 0.19400921 -0.81610316 0.40386906 0.32795554 0.44496992 0.43853995
0.33588266 0.28107318 -0.31953508 -1.1633027 0.24020751 0.13278237 -1.0383854 0.84732866
-0.03985135 0.7559872 0.797727 -0.3341402 0.10839891 0.52255416 0.09375296 0.350829
0.583427 -0.22633816 -0.05924057 0.21542767 -0.6575955 0.72663075 -0.28200802 0.20395102
0.21779586 0.5316622 -0.40540785 -0.15576635 -0.08225499 0.089528225 0.44327942 -0.15211971
0.06795903 -0.10771445 -0.08601038 -0.35120547 -0.0898157 0.027755953 0.0066922833 -0.47044593
-0.3693552 0.15583153 0.74691594 -0.06138123 0.30137727 0.1641181 0.23046301 -0.40399367
-0.34051362 -1.2551218 -0.33402064 -0.26091787 0.5292506 -0.16236432 0.050807826 0.078117654
0.361151 0.22788426 -0.25629932 -0.7907224 -0.022653703 0.7760262 0.66000575 -0.6404983
-0.45214555 0.28663027 -0.35061154 -0.2032215 0.7123536 0.09688725 -0.23914972 0.19086216
-0.0107496185 0.092911646 0.175476 -0.71633846 -0.43396455 0.98659676 0.21736246 0.07088778
0.16558269 0.12875265 0.19714463 -0.19082884 0.04906529 0.14891626 -0.46017846 -0.43079913
-0.037080415 0.83611137 0.101140395 -0.23227097 -0.78288954 0.87038606 -0.39727944 -0.09113676
0.5150221 0.5819319 0.5811523 -0.4855955 -0.16958658 0.32974505 0.68005157 0.3332084
-0.853082 0.41063926 0.7812867 -0.3550651 0.20754966 -0.005336421 0.5330808 -0.6925801
0.9333272 0.7117882 -0.6946952 0.42310402 -0.8674471 0.7171686 0.93955624 -0.42180675
0.069040135 0.53869647 0.8893182 0.6261627 -0.18420084 -0.35289043 -0.10010569 -0.5748756
00000000: cc64 abbe bcbc b0bd 5de0 d4be 644b 1a3c
00000010: e1a7 98be f713 7c3d bb2c 813f f431 ad3e
00000020: 6440 a2bd 3dfa 76bf 7d6d c7bd 927a d7be
00000030: bb90 253f 62ef a43d 43c7 153f fa56 b03d
00000040: ba6d ddbd cd78 95be d081 283e 570d bfbe
00000050: 0435 383f 9a9f e2be 1f6d 613e 7918 643e
00000060: 3f09 87bd eb4d 153f edba e43e 8cce 693f
00000070: 5ae9 883e 852a 863c 28a3 b43e adca 5e3e
00000080: 30ae 9abe 6b57 9a3f a9e1 c33f 57e2 0d3d
00000090: 842e 6d3d 1f73 39bf ef17 40be c615 fabe
000000a0: 51e7 c73e 7b5e 01bf 58a0 8bbc e666 e8be
000000b0: 33f8 3c3c 9360 163f 2f16 74be cd28 1f3e
000000c0: 984c 40bf 1861 dc3d cb33 0c3f d388 fa3e
000000d0: e647 dcbd ffa4 e3be 2502 353f 3cf3 8abe
000000e0: 4440 29be c026 9d3f abc1 023f 68d2 b93e
000000f0: 9bbc 2dbf 8263 823f 120c 143d f6a8 8e3e
00000100: 8d2a 813f de39 ea3e 342a 9bbd 59fc 11bf
00000110: a2ed 8abe ae31 293f d8fc f9be dcca b43d
00000120: 0396 75be b9a1 27bf 28a1 5bbf 7503 a73e
00000130: 8a83 d63e a816 7bbe 2a70 5c3e ec03 203e
00000140: e02f 3bbe 1982 ee3e 9849 b13e ee41 09bf
00000150: 9360 8fbe 0643 75be 6846 abbe cb21 3bbe
00000160: e299 0c3e 5416 8e3d e2f7 88be dd3b 343f
00000170: e036 193e 0a69 003f 0023 f43e 429c dbbe
00000180: 6600 c6bd 9730 1ebf afe1 253f 9b78 79bd
00000190: 32df b4be a7e8 183f bd1b 03be babf eabe
000001a0: 2612 84bf 1bb3 3cbc 9c00 d1bd 9fd2 94be
000001b0: 1929 3b3e 69a7 853e 619e 55be 2064 e93e
000001c0: 1025 363e 1f60 9dbe edf5 683f ce23 6bbe
000001d0: ee50 01bf 6aed 73bc 7a63 a7ba 73f1 0f3f
000001e0: c2ca 303d b7dd a23e 5aaa 463e 23ec 50bf
000001f0: edc7 ce3e cae9 a73e 19d3 e33e 4f88 e03e
00000200: d0f8 ab3e d3e8 8f3e 1a9a a3be 1ae7 94bf
00000210: f5f8 753e 1af8 073e d0e9 84bf 88ea 583f
00000220: 2b3b 23bd 6188 413f d637 4c3f 6d14 abbe
00000230: 3f00 de3d 1cc6 053f 8d01 c03d dc9f b33e
00000240: 795b 153f 31c5 67be 3da6 72bd 1299 5c3e
00000250: 2e58 28bf 7904 3a3f 5b63 90be 89d8 503e
00000260: e105 5f3e 041b 083f 9e91 cfbe 3781 1fbe
00000270: 4e75 a8bd 935a b73d 85f5 e23e 45c5 1bbe
00000280: 1b2e 8b3d 6599 dcbd 3626 b0bd 34d1 b3be
00000290: 4bf1 b7bd 7460 e33c f14a db3b 4ade f0be
000002a0: 201c bdbe 4d92 1f3e e235 3f3f e26a 7bbd
000002b0: 1f4e 9a3e 930e 283e 7ffe 6b3e 42d8 cebe
000002c0: cd57 aebe d5a7 a0bf c104 abbe 0797 85be
000002d0: f87c 073f d542 26be de1b 503d 26fc 9f3d
000002e0: c9e8 b83e 7e5a 693e aa39 83be c96c 4abf
000002f0: 4294 b9bc a7a9 463f 23f6 283f b2f7 23bf
00000300: 9f7f e7be 34c1 923e 5b83 b3be 4c19 50be
00000310: ce5c 363f d36c c63d aae3 74be 5f71 433e
00000320: 2b1f 30bc 7648 be3d fbaf 333e f561 37bf
00000330: 9a30 debe 9b91 7c3f 4494 5e3e 9d2d 913d
00000340: 828e 293e bcd7 033e 48e0 493e a368 43be
00000350: aff8 483d 817d 183e 839c ebbe b491 dcbe
00000360: a2e1 17bd 650b 563f b222 cf3d 71d8 6dbe
00000370: 736b 48bf 9fd1 5e3f 3668 cbbe e9a5 babd
00000380: 7dd8 033f 7df9 143f 66c6 143f f99f f8be
00000390: 1ba8 2dbe 58d4 a83e dc17 2e3f 4b9a aa3e
000003a0: 9563 5abf 4f3f d23e 6802 483f 18cb b5be
000003b0: e687 543e 25dd aebb fc77 083f ee4c 31bf
000003c0: 88ee 6e3f c037 363f 8bd7 31bf 17a1 d83e
000003d0: 0311 5ebf 5d98 373f c286 703f 0ef7 d7be
000003e0: ea64 8d3d 03e8 093f 5caa 633f 334c 203f
000003f0: 259f 3cbe 0eae b4be 3604 cdbd 0c2b 13bf

network_body._body_endoder.seq_layers.0.bias f4 [256]
0.0 0.0 0.0 0.0 0.0 0.0 0.0 0.0
0.0 0.0 0.0 0.0 0.0 0.0 0.0 0.0
0.0 0.0 0.0 0.0 0.0 0.0 0.0 0.0
0.0 0.0 0.0 0.0 0.0 0.0 0.0 0.0
0.0 0.0 0.0 0.0 0.0 0.0 0.0 0.0
0.0 0.0 0.0 0.0 0.0 0.0 0.0 0.0
0.0 0.0 0.0 0.0 0.0 0.0 0.0 0.0
0.0 0.0 0.0 0.0 0.0 0.0 0.0 0.0
0.0 0.0 0.0 0.0 0.0 0.0 0.0 0.0
0.0 0.0 0.0 0.0 0.0 0.0 0.0 0.0
0.0 0.0 0.0 0.0 0.0 0.0 0.0 0.0
0.0 0.0 0.0 0.0 0.0 0.0 0.0 0.0
0.0 0.0 0.0 0.0 0.0 0.0 0.0 0.0
0.0 0.0 0.0 0.0 0.0 0.0 0.0 0.0
0.0 0.0 0.0 0.0 0.0 0.0 0.0 0.0
0.0 0.0 0.0 0.0 0.0 0.0 0.0 0.0
0.0 0.0 0.0 0.0 0.0 0.0 0.0 0.0
0.0 0.0 0.0 0.0 0.0 0.0 0.0 0.0
0.0 0.0 0.0 0.0 0.0 0.0 0.0 0.0
0.0 0.0 0.0 0.0 0.0 0.0 0.0 0.0
0.0 0.0 0.0 0.0 0.0 0.0 0.0 0.0
0.0 0.0 0.0 0.0 0.0 0.0 0.0 0.0
0.0 0.0 0.0 0.0 0.0 0.0 0.0 0.0
0.0 0.0 0.0 0.0 0.0 0.0 0.0 0.0
0.0 0.0 0.0 0.0 0.0 0.0 0.0 0.0
0.0 0.0 0.0 0.0 0.0 0.0 0.0 0.0
0.0 0.0 0.0 0.0 0.0 0.0 0.0 0.0
0.0 0.0 0.0 0.0 0.0 0.0 0.0 0.0
0.0 0.0 0.0 0.0 0.0 0.0 0.0 0.0
0.0 0.0 0.0 0.0 0.0 0.0 0.0 0.0
0.0 0.0 0.0 0.0 0.0 0.0 0.0 0.0
0.0 0.0 0.0 0.0 0.0 0.0 0.0 0.0
00000000: 0000 0000 0000 0000 0000 0000 0000 0000
00000010: 0000 0000 0000 0000 0000 0000 0000 0000
00000020: 0000 0000 0000 0000 0000 0000 0000 0000
00000030: 0000 0000 0000 0000 0000 0000 0000 0000
00000040: 0000 0000 0000 0000 0000 0000 0000 0000
00000050: 0000 0000 0000 0000 0000 0000 0000 0000
00000060: 0000 0000 0000 0000 0000 0000 0000 0000
00000070: 0000 0000 0000 0000 0000 0000 0000 0000
00000080: 0000 0000 0000 0000 0000 0000 0000 0000
00000090: 0000 0000 0000 0000 0000 0000 0000 0000
000000a0: 0000 0000 0000 0000 0000 0000 0000 0000
000000b0: 0000 0000 0000 0000 0000 0000 0000 0000
000000c0: 0000 0000 0000 0000 0000 0000 0000 0000
000000d0: 0000 0000 0000 0000 0000 0000 0000 0000
000000e0: 0000 0000 0000 0000 0000 0000 0000 0000
000000f0: 0000 0000 0000 0000 0000 0000 0000 0000
00000100: 0000 0000 0000 0000 0000 0000 0000 0000
00000110: 0000 0000 0000 0000 0000 0000 0000 0000
00000120: 0000 0000 0000 0000 0000 0000 0000 0000
00000130: 0000 0000 0000 0000 0000 0000 0000 0000
00000140: 0000 0000 0000 0000 0000 0000 0000 0000
00000150: 0000 0000 0000 0000 0000 0000 0000 0000
00000160: 0000 0000 0000 0000 0000 0000 0000 0000
00000170: 0000 0000 0000 0000 0000 0000 0000 0000
00000180: 0000 0000 0000 0000 0000 0000 0000 0000
00000190: 0000 0000 0000 0000 0000 0000 0000 0000
000001a0: 0000 0000 0000 0000 0000 0000 0000 0000
000001b0: 0000 0000 0000 0000 0000 0000 0000 0000
000001c0: 0000 0000 0000 0000 0000 0000 0000 0000
000001d0: 0000 0000 0000 0000 0000 0000 0000 0000
000001e0: 0000 0000 0000 0000 0000 0000 0000 0000
000001f0: 0000 0000 0000 0000 0000 0000 0000 0000
00000200: 0000 0000 0000 0000 0000 0000 0000 0000
00000210: 0000 0000 0000 0000 0000 0000 0000 0000
00000220: 0000 0000 0000 0000 0000 0000 0000 0000
00000230: 0000 0000 0000 0000 0000 0000 0000 0000
00000240: 0000 0000 0000 0000 0000 0000 0000 0000
00000250: 0000 0000 0000 0000 0000 0000 0000 0000
00000260: 0000 0000 0000 0000 0000 0000 0000 0000
00000270: 0000 0000 0000 0000 0000 0000 0000 0000
00000280: 0000 0000 0000 0000 0000 0000 0000 0000
00000290: 0000 0000 0000 0000 0000 0000 0000 0000
000002a0: 0000 0000 0000 0000 0000 0000 0000 0000
000002b0: 0000 0000 0000 0000 0000 0000 0000 0000
000002c0: 0000 0000 0000 0000 0000 0000 0000 0000
000002d0: 0000 0000 0000 0000 0000 0000 0000 0000
000002e0: 0000 0000 0000 0000 0000 0000 0000 0000
000002f0: 0000 0000 0000 0000 0000 0000 0000 0000
00000300: 0000 0000 0000 0000 0000 0000 0000 0000
00000310: 0000 0000 0000 0000 0000 0000 0000 0000
00000320: 0000 0000 0000 0000 0000 0000 0000 0000
00000330: 0000 0000 0000 0000 0000 0000 0000 0000
00000340: 0000 0000 0000 0000 0000 0000 0000 0000
00000350: 0000 0000 0000 0000 0000 0000 0000 0000
00000360: 0000 0000 0000 0000 0000 0000 0000 0000
00000370: 0000 0000 0000 0000 0000 0000 0000 0000
00000380: 0000 0000 0000 0000 0000 0000 0000 0000
00000390: 0000 0000 0000 0000 0000 0000 0000 0000
000003a0: 0000 0000 0000 0000 0000 0000 0000 0000
000003b0: 0000 0000 0000 0000 0000 0000 0000 0000
000003c0: 0000 0000 0000 0000 0000 0000 0000 0000
000003d0: 0000 0000 0000 0000 0000 0000 0000 0000
000003e0: 0000 0000 0000 0000 0000 0000 0000 0000
000003f0: 0000 0000 0000 0000 0000 0000 0000 0000

network_body._body_endoder.seq_layers.2.weight f4 [256, 256]
-0.0054692547 -0.014335732 0.049226787 0.0106505975 -0.03913612 -0.012544135 -0.013895971 0.027880382
-0.08391614 0.020440696 0.10344716 0.090251684 0.08030899 0.033049982 -0.09428596 -0.060110245
0.10527214 -0.06469965 -0.10082161 -0.1130402 0.029376453 0.007061466 0.08598729 0.046274446
0.059703086 -0.0042450638 -0.034626894 -0.013536868 -0.028385397 -0.0075163087 -0.031857975 0.028596178
-0.022648275 0.0800598 0.0061464733 0.021163052 0.009571137 0.015953705 0.02795529 0.024681177
0.067277476 -0.06174924 0.0129066305 0.032926228 -0.085791126 -0.041104026 0.07761492 0.029807035
-0.031097736 -0.019459812 0.030504717 0.004525908 0.029141854 0.01890889 -0.09063189 0.08601739
0.014809574 0.068605036 -0.09673123 -0.021694167 0.009629195 0.02523229 0.0657871 0.028978184
-0.051188197 0.04992809 0.09582344 0.022352377 0.03355584 0.07588047 -0.022587739 -0.058168378
0.023756497 0.03685626 0.0930653 -0.052663647 0.045170788 -0.051389653 0.040299047 0.15214653
-0.06322115 -0.024973454 0.07003444 0.0786446 0.099927895 0.048215993 -0.03370066 -0.0246549
0.08116846 0.021008212 -0.05879092 -0.09137692 0.04172689 0.0058816927 0.07713666 0.062522255
-0.10828748 -0.009208007 0.07098628 -0.105270065 0.03863948 -0.026470166 -0.1145258 -0.0342242
-0.013734101 -0.033507284 -0.041960403 0.10850763 -0.049076244 -0.065289766 -0.0027968353 -0.10637656
-0.1763587 0.0066136867 -0.020784765 0.024304887 -0.0052270177 -0.066512704 0.03658035 -0.11025375
0.07549153 -0.02600325 -0.07343695 0.063359305 0.14315951 0.10917773 0.05728425 -0.0063845394
0.031245884 0.07378918 0.04629381 -0.046820387 0.054877248 -0.020949656 -0.11136522 0.010366
0.017021688 0.013892736 0.06477886 0.029099511 -0.021790931 0.022913568 -0.08243886 -0.013998259
0.0503269 -0.10777094 -0.07315635 0.05482267 -0.15423293 -0.0049949405 -0.11849309 -0.03919263
0.040939465 0.08996597 -0.04505431 0.07725718 0.0049334373 0.016676307 0.02305273 0.015024421
0.038227264 -0.0019633262 0.050715365 0.1039628 -0.09010016 -0.054367814 -0.08836647 0.037202153
0.032158345 -0.0014595735 -0.05218064 -0.009235111 -0.07989336 0.09357673 0.08330023 -0.04710437
0.013331761 -0.07341934 0.04309458 0.008940184 0.09141043 0.0035001116 -0.09176293 0.0532603
0.019884743 -0.0067824097 -0.05019318 -0.024626361 -0.012846599 -0.10594014 -0.035735466 0.013779035
-0.037506472 0.051332083 -0.091404095 -0.06352318 -0.12702063 -0.07152666 0.02559313 -0.03713368
0.059244767 -0.044132996 -0.09233835 -0.030971192 0.080922574 0.00022596016 0.006402915 -0.04066614
-0.13402075 0.04369981 0.014765781 -0.019123403 0.17121963 -0.030680738 -0.21439546 -0.065533616
0.061256964 0.032697845 0.016276985 0.08024885 -0.03173106 -0.034566823 -0.038164545 0.046198763
0.048438594 0.014414648 0.10319207 -0.0005558544 -0.03641747 0.097677894 -0.089153185 -0.06448098
-0.099411435 -0.011042137 -0.010026864 -0.024947185 -0.021818925 0.074118264 -0.15667762 0.016681597
-0.0026781182 0.030860722 0.09617703 -0.0045474754 0.079443336 -0.013232403 -0.009153813 -0.000655815
0.011946001 -0.030193025 -0.04311273 0.02100324 -0.07182846 0.022406418 0.019158948 -0.03669449
00000000: 6f37 b3bb 6be0 6abc 07a2 493d d87f 2e3c
00000010: 324d 20bd ea85 4dbc edab 63bc 6665 e43c
00000020: 3adc abbd 3f73 a73c 1bdc d33d e0d5 b83d
00000030: 0a79 a43d 6b5f 073d ff18 c1bd 2936 76bd
00000040: eb98 d73d 4081 84bd 8f7b cebd 9f81 e7bd
00000050: e3a6 f03c df63 e73b 1b1a b03d 468a 3d3d
00000060: 398b 743d 2d1a 8bbb eed4 0dbd bdc9 5dbc
00000070: 7e88 e8bc 5e4b f6bb 827d 02bd 8842 ea3c
00000080: e088 b9bc 64f6 a33d 5b68 c93b 235e ad3c
00000090: 42d0 1c3c 58b1 823c 7e02 e53c 2e30 ca3c
000000a0: c6c8 893d c5ec 7cbd 5576 533c a7dd 063d
000000b0: 42b3 afbd b25c 28bd 92f4 9e3d e22d f43c
000000c0: aec0 febc 2f6a 9fbc 07e5 f93c 114e 943b
000000d0: e6ba ee3c d1e6 9a3c 369d b9bd e329 b03d
000000e0: dba3 723c cc80 8c3d 061b c6bd f7b7 b1bc
000000f0: c5c3 1d3c f3b3 ce3c 63bb 863d a863 ed3c
00000100: b7aa 51bd 6681 4c3d 143f c43d 551c b73c
00000110: d971 093d 3867 9b3d ec09 b9bc f741 6ebd
00000120: fc9c c23c 97f6 163d 0599 be3d d6b5 57bd
00000130: 0105 393d f57d 52bd 9d10 253d 4dcc 1b3e
00000140: 177a 81bd 2195 ccbc 376e 8f3d 6c10 a13d
00000150: ffa6 cc3d 227e 453d b409 0abd 13f9 c9bc
00000160: a63b a63d 6a19 ac3c bfce 70bd d323 bbbd
00000170: d1e9 2a3d 37bb c03b d3f9 9d3d ab0b 803d
00000180: d4c5 ddbd 2edd 16bc 4161 913d d597 d7bd
00000190: 6e44 1e3d f6d7 d8bc 818c eabd ad2e 0cbd
000001a0: ff04 61bc ef3e 09bd acde 2bbd 4039 de3d
000001b0: 2c04 49bd a4b6 85bd 1c4b 37bb f4db d9bd
000001c0: 6097 34be a0b7 d83b d044 aabc 0b1b c73c
000001d0: 6747 abbb d037 88bd 47d5 153d b8cc e1bd
000001e0: 4e9b 9a3d c504 d5bc 1d66 96bd 86c2 813d
000001f0: 6898 123e 9398 df3d e4a2 6a3d 6635 d1bb
00000200: 5ef7 ff3c c81e 973d 949e 3d3d bcc6 3fbd
00000210: f7c6 603d 9d9e abbc 7313 e4bd 28d6 293c
00000220: 1171 8b3c 5c9e 633c c7aa 843d 1962 ee3c
00000230: e582 b2bc 3cb5 bb3c b4d5 a8bd f458 65bc
00000240: 9423 4e3d 03b7 dcbd ffd2 95bd bc8d 603d
00000250: 3def 1dbe 99ac a3bb 81ac f2bd 7488 20bd
00000260: 24b0 273d 1440 b83d de8a 38bd 0339 9e3d
00000270: aca8 a13b c09c 883c 14d9 bc3c fd28 763c
00000280: 3194 1c3d 26ab 00bb eaba 4f3d 73ea d43d
00000290: 6f86 b8bd c9b0 5ebd 7bf9 b4bd 4961 183d
000002a0: 78b8 033d 294f bfba 5ebb 55bd dd4e 17bc
000002b0: 219f a3bd 28a5 bf3d 5099 aa3d 83f0 40bd
000002c0: 756d 5a3c e15c 96bd f183 303d d979 123c
000002d0: 6435 bb3d 2162 653b 34ee bbbd 7927 5a3d
000002e0: 54e5 a23c fa3e debb 5d97 4dbd 39bd c9bc
000002f0: 8b7a 52bc 25f7 d8bd 5a5f 12bd 76c1 613c
00000300: 63a0 19bd 9741 523d 1232 bbbd 7118 82bd
00000310: b211 02be 927c 92bd afa8 d13c 7c19 18bd
00000320: a4aa 723d cdc4 34bd e41b bdbd 4cb7 fdbc
00000330: bcba a53d b8ef 6c39 8bcf d13b 8a91 26bd
00000340: bc3c 09be 92fe 323d 2dec 713c afa8 9cbc
00000350: 3354 2f3e 2c56 fbbc 7c8a 5bbe 7d36 86bd
00000360: 95e8 7a3d 2dee 053d 5057 853c 8259 a43d
00000370: 6ef8 01bd f195 0dbd 6d52 1cbd ea3a 3d3d
00000380: 8c67 463d 6a2b 6c3c 5d56 d33d c2b6 11ba
00000390: 7c2a 15bd 590b c83d f295 b6bd 9b0e 84bd
000003a0: 3998 cbbd 14ea 34bc b747 24bc 0a5e ccbc
000003b0: 9abd b2bc 51cb 973d 1970 20be d8a7 883c
000003c0: 5e83 2fbb a0cf fc3c 76f8 c43d fd02 95bb
000003d0: 30b3 a23d b9cc 58bc e0f9 15bc 00eb 2bba
000003e0: 29b9 433c 5d57 f7bc f996 30bd fd0e ac3c
000003f0: cd1a 93bd aa8d b73c 3af3 9c3c f64c 16bd

network_body._body_endoder.seq_layers.2.bias f4 [256]
0.0 0.0 0.0 0.0 0.0 0.0 0.0 0.0
0.0 0.0 0.0 0.0 0.0 0.0 0.0 0.0
0.0 0.0 0.0 0.0 0.0 0.0 0.0 0.0
0.0 0.0 0.0 0.0 0.0 0.0 0.0 0.0
0.0 0.0 0.0 0.0 0.0 0.0 0.0 0.0
0.0 0.0 0.0 0.0 0.0 0.0 0.0 0.0
0.0 0.0 0.0 0.0 0.0 0.0 0.0 0.0
0.0 0.0 0.0 0.0 0.0 0.0 0.0 0.0
0.0 0.0 0.0 0.0 0.0 0.0 0.0 0.0
0.0 0.0 0.0 0.0 0.0 0.0 0.0 0.0
0.0 0.0 0.0 0.0 0.0 0.0 0.0 0.0
0.0 0.0 0.0 0.0 0.0 0.0 0.0 0.0
0.0 0.0 0.0 0.0 0.0 0.0 0.0 0.0
0.0 0.0 0.0 0.0 0.0 0.0 0.0 0.0
0.0 0.0 0.0 0.0 0.0 0.0 0.0 0.0
0.0 0.0 0.0 0.0 0.0 0.0 0.0 0.0
0.0 0.0 0.0 0.0 0.0 0.0 0.0 0.0
0.0 0.0 0.0 0.0 0.0 0.0 0.0 0.0
0.0 0.0 0.0 0.0 0.0 0.0 0.0 0.0
0.0 0.0 0.0 0.0 0.0 0.0 0.0 0.0
0.0 0.0 0.0 0.0 0.0 0.0 0.0 0.0
0.0 0.0 0.0 0.0 0.0 0.0 0.0 0.0
0.0 0.0 0.0 0.0 0.0 0.0 0.0 0.0
0.0 0.0 0.0 0.0 0.0 0.0 0.0 0.0
0.0 0.0 0.0 0.0 0.0 0.0 0.0 0.0
0.0 0.0 0.0 0.0 0.0 0.0 0.0 0.0
0.0 0.0 0.0 0.0 0.0 0.0 0.0 0.0
0.0 0.0 0.0 0.0 0.0 0.0 0.0 0.0
0.0 0.0 0.0 0.0 0.0 0.0 0.0 0.0
0.0 0.0 0.0 0.0 0.0 0.0 0.0 0.0
0.0 0.0 0.0 0.0 0.0 0.0 0.0 0.0
0.0 0.0 0.0 0.0 0.0 0.0 0.0 0.0
00000000: 0000 0000 0000 0000 0000 0000 0000 0000
00000010: 0000 0000 0000 0000 0000 0000 0000 0000
00000020: 0000 0000 0000 0000 0000 0000 0000 0000
00000030: 0000 0000 0000 0000 0000 0000 0000 0000
00000040: 0000 0000 0000 0000 0000 0000 0000 0000
00000050: 0000 0000 0000 0000 0000 0000 0000 0000
00000060: 0000 0000 0000 0000 0000 0000 0000 0000
00000070: 0000 0000 0000 0000 0000 0000 0000 0000
00000080: 0000 0000 0000 0000 0000 0000 0000 0000
00000090: 0000 0000 0000 0000 0000 0000 0000 0000
000000a0: 0000 0000 0000 0000 0000 0000 0000 0000
000000b0: 0000 0000 0000 0000 0000 0000 0000 0000
000000c0: 0000 0000 0000 0000 0000 0000 0000 0000
000000d0: 0000 0000 0000 0000 0000 0000 0000 0000
000000e0: 0000 0000 0000 0000 0000 0000 0000 0000
000000f0: 0000 0000 0000 0000 0000 0000 0000 0000
00000100: 0000 0000 0000 0000 0000 0000 0000 0000
00000110: 0000 0000 0000 0000 0000 0000 0000 0000
00000120: 0000 0000 0000 0000 0000 0000 0000 0000
00000130: 0000 0000 0000 0000 0000 0000 0000 0000
00000140: 0000 0000 0000 0000 0000 0000 0000 0000
00000150: 0000 0000 0000 0000 0000 0000 0000 0000
00000160: 0000 0000 0000 0000 0000 0000 0000 0000
00000170: 0000 0000 0000 0000 0000 0000 0000 0000
00000180: 0000 0000 0000 0000 0000 0000 0000 0000
00000190: 0000 0000 0000 0000 0000 0000 0000 0000
000001a0: 0000 0000 0000 0000 0000 0000 0000 0000
000001b0: 0000 0000 0000 0000 0000 0000 0000 0000
000001c0: 0000 0000 0000 0000 0000 0000 0000 0000
000001d0: 0000 0000 0000 0000 0000 0000 0000 0000
000001e0: 0000 0000 0000 0000 0000 0000 0000 0000
000001f0: 0000 0000 0000 0000 0000 0000 0000 0000
00000200: 0000 0000 0000 0000 0000 0000 0000 0000
00000210: 0000 0000 0000 0000 0000 0000 0000 0000
00000220: 0000 0000 0000 0000 0000 0000 0000 0000
00000230: 0000 0000 0000 0000 0000 0000 0000 0000
00000240: 0000 0000 0000 0000 0000 0000 0000 0000
00000250: 0000 0000 0000 0000 0000 0000 0000 0000
00000260: 0000 0000 0000 0000 0000 0000 0000 0000
00000270: 0000 0000 0000 0000 0000 0000 0000 0000
00000280: 0000 0000 0000 0000 0000 0000 0000 0000
00000290: 0000 0000 0000 0000 0000 0000 0000 0000
000002a0: 0000 0000 0000 0000 0000 0000 0000 0000
000002b0: 0000 0000 0000 0000 0000 0000 0000 0000
000002c0: 0000 0000 0000 0000 0000 0000 0000 0000
000002d0: 0000 0000 0000 0000 0000 0000 0000 0000
000002e0: 0000 0000 0000 0000 0000 0000 0000 0000
000002f0: 0000 0000 0000 0000 0000 0000 0000 0000
00000300: 0000 0000 0000 0000 0000 0000 0000 0000
00000310: 0000 0000 0000 0000 0000 0000 0000 0000
00000320: 0000 0000 0000 0000 0000 0000 0000 0000
00000330: 0000 0000 0000 0000 0000 0000 0000 0000
00000340: 0000 0000 0000 0000 0000 0000 0000 0000
00000350: 0000 0000 0000 0000 0000 0000 0000 0000
00000360: 0000 0000 0000 0000 0000 0000 0000 0000
00000370: 0000 0000 0000 0000 0000 0000 0000 0000
00000380: 0000 0000 0000 0000 0000 0000 0000 0000
00000390: 0000 0000 0000 0000 0000 0000 0000 0000
000003a0: 0000 0000 0000 0000 0000 0000 0000 0000
000003b0: 0000 0000 0000 0000 0000 0000 0000 0000
000003c0: 0000 0000 0000 0000 0000 0000 0000 0000
000003d0: 0000 0000 0000 0000 0000 0000 0000 0000
000003e0: 0000 0000 0000 0000 0000 0000 0000 0000
000003f0: 0000 0000 0000 0000 0000 0000 0000 0000

network_body._body_endoder.seq_layers.4.weight f4 [256, 256]
0.0007379718 0.02600175 -0.023004567 0.043522812 -0.07559917 0.043824412 0.097490706 -0.057125945
-0.013475442 0.104303606 -0.03330427 -0.08984643 0.025990626 0.10635573 0.092975765 0.06825757
-0.089098334 0.019489085 -0.088108175 0.015987456 0.12771282 -0.07412492 -0.078571446 0.013654065
0.121089876 -0.05282916 0.03200816 0.06564541 -0.008898197 0.038753 0.055429555 0.0895091
-0.046606753 0.07960368 -0.019098714 0.024499226 -0.09772224 0.04655423 0.0689319 -0.017782219
-0.030897483 0.0431355 0.102285266 -0.06528323 -0.10753235 -0.09444921 -0.050369985 0.08490764
-0.04952243 -0.013807363 -0.054422885 0.002975154 -0.015852146 -0.06756385 -0.027088989 0.03142654
-0.10431892 0.04714952 -0.029707776 -0.0038956052 -0.026369965 -0.09124492 0.011192116 -0.07425391
0.12378025 0.07704629 0.037072975 0.005484132 -0.03582181 0.045253213 -0.040190555 0.11041209
-0.069205694 0.01073954 0.024898687 0.022741584 -0.010909638 0.038164396 -0.056256354 0.0047038086
0.035205767 0.015898978 -0.034310967 -0.073689334 0.022059774 -0.0484657 0.12701003 -0.002860949
-0.0707005 -0.032317366 -0.025674757 0.01718073 0.092019014 0.064897425 -0.057072107 -0.1249221
-0.0024339773 -0.0071232026 -0.04844713 -0.00799816 -6.986959e-05 -0.02364449 0.01488099 -0.03333915
-0.062360957 -0.07564519 0.052239854 -0.036591336 -0.057071835 0.047975414 -0.047899902 0.048209373
-0.13675079 0.03794908 -0.03404481 0.0067641195 -0.045945324 0.057681076 0.05582772 -0.015479186
0.004475463 -0.09872298 0.015370588 -0.090835534 -0.037419416 -0.025357889 -0.0025575196 -0.059384815
-0.051157653 0.07712525 -0.039823923 -0.052346535 0.08123369 0.031229345 0.07172279 0.01500464
0.017121756 -0.061284512 0.048796877 0.12935114 -0.0007174761 0.038076337 -0.0917895 0.021821506
-0.050004587 0.045268416 0.08053161 -0.06727792 -0.052087322 0.09487833 0.009388388 -0.0040146466
-0.031582795 -0.08208158 0.14984764 0.10614406 -0.04460086 0.02228554 0.0060544303 -0.072934486
-0.033657048 0.05150971 0.11593394 0.00015007323 0.041043065 0.16623265 -0.02648107 -0.045206062
0.07171781 0.037148494 0.03794381 0.022747591 -0.040065493 -0.017067129 -0.055958312 0.016244957
0.021481523 0.018471146 -0.026747413 -0.07880305 0.026485102 -0.16912645 0.034009937 0.088534266
-0.001072762 -0.019420369 0.048988983 0.009718428 0.007714816 0.00073811196 -0.07080729 -0.11240359
-0.03130232 -0.029266967 0.027072784 0.05371686 -0.015637705 0.011382827 0.0066246744 0.16086546
0.02355737 0.11672941 0.061908845 -0.080079615 -0.048020754 0.08687333 -0.03298722 0.0038878082
0.025471183 -0.08052324 -0.092318036 0.033872087 -0.101838514 0.02121366 -0.046948675 0.11175034
0.045420423 -0.11628869 0.01930933 -0.036386892 -0.052621875 0.096610144 -0.032637235 -0.020860322
-0.11198762 0.016095184 0.052066945 -0.10579603 -0.042900506 0.001338439 0.08561901 0.06115883
-0.107245624 -0.05943342 -0.009307314 -0.036419336 0.054779407 -0.0044211126 -0.05570394 -0.02784996
0.057253864 0.06338154 0.07731183 0.008217696 -0.03487966 -0.03308887 -0.054118197 -0.08823953
-0.08204835 0.08392003 -0.08649725 -0.08232222 -0.05624667 0.011672162 -0.07667934 -0.019293936
00000000: 7374 413a 9f01 d53c 1374 bcbc fa44 323d
00000010: bdd3 9abd 3a81 333d 35a9 c73d e5fc 69bd
00000020: 1ac8 5cbc 219d d53d 0f6a 08bd 6801 b8bd
00000030: 4bea d43c 08d1 d93d 146a be3d a0ca 8b3d
00000040: 3079 b6bd 93a7 9f3c 0f72 b4bd 20f8 823c
00000050: 26c7 023e cece 97bd 11ea a0bd 4db5 5f3c
00000060: f8fd f73d 6463 58bd fd1a 033d 1a71 863d
00000070: bec9 11bc 77bb 1e3d 1a0a 633d 8c50 b73d
00000080: b9e6 3ebd 4107 a33d e874 9cbc 9ab2 c83c
00000090: 9922 c8bd a6af 3e3d 2b2c 8d3d 04ac 91bc
000000a0: b81c fdbc daae 303d f07a d13d 37b3 85bd
000000b0: ec39 dcbd 966e c1bd c250 4ebd 0fe4 ad3d
000000c0: 08d8 4abd 4738 62bc 88ea 5ebd cdfa 423b
000000d0: 5cdc 81bc ea5e 8abd bae9 ddbc 1eb9 003d
000000e0: 28a5 d5bd db1f 413d b95d f3bc 694d 7fbb
000000f0: d305 d8bc 9ede babd 235f 373c 6f12 98bd
00000100: 8080 fd3d 72ca 9d3d d5d9 173d 3cb4 b33b
00000110: e4b9 12bd 6f5b 393d da9e 24bd bc1f e23d
00000120: b7bb 8dbd e5f4 2f3c 55f8 cb3c 8f4c ba3c
00000130: 57be 32bc 4552 1c3d 106d 66bd 6822 9a3b
00000140: ec33 103d 933e 823c a889 0cbd 6fea 96bd
00000150: b3b6 b43c f883 46bd eb0e 023e c27e 3bbb
00000160: 6ccb 90bd 375f 04bd de53 d2bc 9abe 8c3c
00000170: 7774 bc3d f1e8 843d 71c4 69bd 28d7 ffbd
00000180: 5d83 1fbb c169 e9bb 7f70 46bd b70a 03bc
00000190: f386 92b8 17b2 c1bc 65cf 733c a28e 08bd
000001a0: 346e 7fbd deeb 9abd 75f9 553d cce0 15bd
000001b0: 28c4 69bd de81 443d b032 44bd 3177 453d
000001c0: 6608 0cbe 7f70 1b3d 9272 0bbd 8ca5 dd3b
000001d0: 2a31 3cbd fe42 6c3d 9bab 643d 699c 7dbc
000001e0: e8a6 923b 462f cabd ebd4 7b3c fb07 babd
000001f0: 1a45 19bd 59bb cfbc 0f9c 27bb 7e3d 73bd
00000200: b08a 51bd d8f3 9d3d 691e 23bd 5269 56bd
00000210: d95d a63d afd4 ff3c 66e3 923d 06d6 753c
00000220: ed42 8c3c 7805 7bbd 3cdf 473d a074 043e
00000230: 0215 3cba eff5 1b3d 22fc bbbd 04c3 b23c
00000240: 9cd1 4cbd 606b 393d c2ed a43d 02c9 89bd
00000250: 8459 55bd 924f c23d c1d1 193c 4c8d 83bb
00000260: f65c 01bd 631a a8bd a971 193e 0f62 d93d
00000270: 64af 36bd 2a90 b63c 3e64 c63b ad5e 95bd
00000280: f9db 09bd d8fb 523d c66e ed3d fa5c 1d39
00000290: c61c 283d e438 2a3e d4ee d8bc fe29 39bd
000002a0: cae0 923d 0529 183d f86a 1b3d 2859 ba3c
000002b0: b71b 24bd 5dd0 8bbc 8b34 65bd 2514 853c
000002c0: 05fa af3c cd50 973c 641d dbbc 7e63 a1bd
000002d0: 49f7 d83c 7c2f 2dbe 014e 0b3d 7451 b53d
000002e0: eb9b 8cba 7717 9fbc aca8 483d 0b3a 1f3c
000002f0: 91cc fc3b db7d 413a 6a03 91bd da33 e6bd
00000300: dd36 00bd 47c1 efbc bec7 dd3c 3606 5c3d
00000310: a51a 80bc 097f 3a3c cc13 d93b eab9 243e
00000320: 63fb c03c d40f ef3d 2194 7d3d c800 a4bd
00000330: 69b1 44bd a5ea b13d 9b1d 07bd 99ca 7e3b
00000340: f1a8 d03c 5ee9 a4bd 3d11 bdbd 75bd 0a3d
00000350: b690 d0bd 45c8 ad3c 414d 40bd 5ddd e43d
00000360: c40a 3a3d c428 eebd 9a2e 9e3c 6c0a 15bd
00000370: 098a 57bd 8adb c53d 9fae 05bd 44e3 aabc
00000380: c459 e5bd 0cda 833c 2644 553d 97ab d8bd
00000390: 71b8 2fbd 8f6e af3a 0559 af3d ae81 7a3d
000003a0: 98a3 dbbd 7570 73bd b47d 18bc 712c 15bd
000003b0: 5f60 603d fbde 90bb d129 64bd 9925 e4bc
000003c0: 0783 6a3d 2ece 813d aa55 9e3d 84a3 063c
000003d0: f9dd 0ebd 3288 07bd 0bab 5dbd edb6 b4bd
000003e0: f708 a8bd 44de ab3d 7825 b1bd 8d98 a8bd
000003f0: e962 66bd 993c 3f3c 0f0a 9dbd 510e 9ebc

network_body._body_endoder.seq_layers.4.bias f4 [256]
0.0 0.0 0.0 0.0 0.0 0.0 0.0 0.0
0.0 0.0 0.0 0.0 0.0 0.0 0.0 0.0
0.0 0.0 0.0 0.0 0.0 0.0 0.0 0.0
0.0 0.0 0.0 0.0 0.0 0.0 0.0 0.0
0.0 0.0 0.0 0.0 0.0 0.0 0.0 0.0
0.0 0.0 0.0 0.0 0.0 0.0 0.0 0.0
0.0 0.0 0.0 0.0 0.0 0.0 0.0 0.0
0.0 0.0 0.0 0.0 0.0 0.0 0.0 0.0
0.0 0.0 0.0 0.0 0.0 0.0 0.0 0.0
0.0 0.0 0.0 0.0 0.0 0.0 0.0 0.0
0.0 0.0 0.0 0.0 0.0 0.0 0.0 0.0
0.0 0.0 0.0 0.0 0.0 0.0 0.0 0.0
0.0 0.0 0.0 0.0 0.0 0.0 0.0 0.0
0.0 0.0 0.0 0.0 0.0 0.0 0.0 0.0
0.0 0.0 0.0 0.0 0.0 0.0 0.0 0.0
0.0 0.0 0.0 0.0 0.0 0.0 0.0 0.0
0.0 0.0 0.0 0.0 0.0 0.0 0.0 0.0
0.0 0.0 0.0 0.0 0.0 0.0 0.0 0.0
0.0 0.0 0.0 0.0 0.0 0.0 0.0 0.0
0.0 0.0 0.0 0.0 0.0 0.0 0.0 0.0
0.0 0.0 0.0 0.0 0.0 0.0 0.0 0.0
0.0 0.0 0.0 0.0 0.0 0.0 0.0 0.0
0.0 0.0 0.0 0.0 0.0 0.0 0.0 0.0
0.0 0.0 0.0 0.0 0.0 0.0 0.0 0.0
0.0 0.0 0.0 0.0 0.0 0.0 0.0 0.0
0.0 0.0 0.0 0.0 0.0 0.0 0.0 0.0
0.0 0.0 0.0 0.0 0.0 0.0 0.0 0.0
0.0 0.0 0.0 0.0 0.0 0.0 0.0 0.0
0.0 0.0 0.0 0.0 0.0 0.0 0.0 0.0
0.0 0.0 0.0 0.0 0.0 0.0 0.0 0.0
0.0 0.0 0.0 0.0 0.0 0.0 0.0 0.0
0.0 0.0 0.0 0.0 0.0 0.0 0.0 0.0
00000000: 0000 0000 0000 0000 0000 0000 0000 0000
00000010: 0000 0000 0000 0000 0000 0000 0000 0000
00000020: 0000 0000 0000 0000 0000 0000 0000 0000
00000030: 0000 0000 0000 0000 0000 0000 0000 0000
00000040: 0000 0000 0000 0000 0000 0000 0000 0000
00000050: 0000 0000 0000 0000 0000 0000 0000 0000
00000060: 0000 0000 0000 0000 0000 0000 0000 0000
00000070: 0000 0000 0000 0000 0000 0000 0000 0000
00000080: 0000 0000 0000 0000 0000 0000 0000 0000
00000090: 0000 0000 0000 0000 0000 0000 0000 0000
000000a0: 0000 0000 0000 0000 0000 0000 0000 0000
000000b0: 0000 0000 0000 0000 0000 0000 0000 0000
000000c0: 0000 0000 0000 0000 0000 0000 0000 0000
000000d0: 0000 0000 0000 0000 0000 0000 0000 0000
000000e0: 0000 0000 0000 0000 0000 0000 0000 0000
000000f0: 0000 0000 0000 0000 0000 0000 0000 0000
00000100: 0000 0000 0000 0000 0000 0000 0000 0000
00000110: 0000 0000 0000 0000 0000 0000 0000 0000
00000120: 0000 0000 0000 0000 0000 0000 0000 0000
00000130: 0000 0000 0000 0000 0000 0000 0000 0000
00000140: 0000 0000 0000 0000 0000 0000 0000 0000
00000150: 0000 0000 0000 0000 0000 0000 0000 0000
00000160: 0000 0000 0000 0000 0000 0000 0000 0000
00000170: 0000 0000 0000 0000 0000 0000 0000 0000
00000180: 0000 0000 0000 0000 0000 0000 0000 0000
00000190: 0000 0000 0000 0000 0000 0000 0000 0000
000001a0: 0000 0000 0000 0000 0000 0000 0000 0000
000001b0: 0000 0000 0000 0000 0000 0000 0000 0000
000001c0: 0000 0000 0000 0000 0000 0000 0000 0000
000001d0: 0000 0000 0000 0000 0000 0000 0000 0000
000001e0: 0000 0000 0000 0000 0000 0000 0000 0000
000001f0: 0000 0000 0000 0000 0000 0000 0000 0000
00000200: 0000 0000 0000 0000 0000 0000 0000 0000
00000210: 0000 0000 0000 0000 0000 0000 0000 0000
00000220: 0000 0000 0000 0000 0000 0000 0000 0000
00000230: 0000 0000 0000 0000 0000 0000 0000 0000
00000240: 0000 0000 0000 0000 0000 0000 0000 0000
00000250: 0000 0000 0000 0000 0000 0000 0000 0000
00000260: 0000 0000 0000 0000 0000 0000 0000 0000
00000270: 0000 0000 0000 0000 0000 0000 0000 0000
00000280: 0000 0000 0000 0000 0000 0000 0000 0000
00000290: 0000 0000 0000 0000 0000 0000 0000 0000
000002a0: 0000 0000 0000 0000 0000 0000 0000 0000
000002b0: 0000 0000 0000 0000 0000 0000 0000 0000
000002c0: 0000 0000 0000 0000 0000 0000 0000 0000
000002d0: 0000 0000 0000 0000 0000 0000 0000 0000
000002e0: 0000 0000 0000 0000 0000 0000 0000 0000
000002f0: 0000 0000 0000 0000 0000 0000 0000 0000
00000300: 0000 0000 0000 0000 0000 0000 0000 0000
00000310: 0000 0000 0000 0000 0000 0000 0000 0000
00000320: 0000 0000 0000 0000 0000 0000 0000 0000
00000330: 0000 0000 0000 0000 0000 0000 0000 0000
00000340: 0000 0000 0000 0000 0000 0000 0000 0000
00000350: 0000 0000 0000 0000 0000 0000 0000 0000
00000360: 0000 0000 0000 0000 0000 0000 0000 0000
00000370: 0000 0000 0000 0000 0000 0000 0000 0000
00000380: 0000 0000 0000 0000 0000 0000 0000 0000
00000390: 0000 0000 0000 0000 0000 0000 0000 0000
000003a0: 0000 0000 0000 0000 0000 0000 0000 0000
000003b0: 0000 0000 0000 0000 0000 0000 0000 0000
000003c0: 0000 0000 0000 0000 0000 0000 0000 0000
000003d0: 0000 0000 0000 0000 0000 0000 0000 0000
000003e0: 0000 0000 0000 0000 0000 0000 0000 0000
000003f0: 0000 0000 0000 0000 0000 0000 0000 0000

network_body._body_endoder.seq_layers.6.weight f4 [256, 256]
0.019118434 -0.07696474 -0.043702368 0.08767651 -0.15150541 0.07977346 0.018866476 0.1179359
-0.021720333 -0.0023631377 0.006534475 -0.039652705 0.04599422 0.0690436 0.055781335 -0.07560263
0.14833504 0.04734396 0.019029945 -0.031248871 -0.062099766 -0.10729863 -0.1617429 -0.039845046
-0.031640533 -0.019298468 0.034284145 -0.13181941 -0.07187418 -0.03529036 -0.003152476 0.04030973
-0.06356896 -0.11183768 0.06440253 0.039535396 0.0057450403 -0.038111202 -0.0073362035 -0.016765263
0.022028273 -0.0021876758 0.13245289 0.14124331 0.045256197 -0.069392346 0.024855042 0.07590371
-0.055760507 0.0384635 0.0873022 0.03837445 -0.005915469 -0.045553654 0.05955529 0.045552995
0.018021457 0.031993758 -0.01243366 0.021786975 0.043920036 -0.02676389 -0.060547277 0.029810335
-0.061731692 -0.09172976 0.06876041 0.027995903 -0.10591324 -0.01879734 -0.015683826 -0.03759234
-0.012361164 0.022314081 -0.03536814 0.0692567 0.054750215 -0.13618138 0.09514285 -0.03864526
0.10213318 0.00056630134 -0.07930522 0.091013685 -0.087620564 -0.21517701 0.05344801 -0.048733316
-0.03609024 0.030929767 0.073649175 0.025128713 -0.13440879 -0.01150787 -0.005794607 0.04037702
0.00070694066 -0.015129971 0.1429092 0.023431875 0.023679188 -0.066047795 0.048326503 0.013468468
0.22866222 0.023505049 -0.0075059207 -0.057226308 -0.09735842 -0.09579663 -0.12622996 0.06852418
-0.04693715 0.03167468 -0.0072391634 0.011050311 0.07059913 -0.039870653 0.09241968 0.037958864
0.080037504 -0.028081926 0.053266056 0.03186591 0.04194657 0.065738596 -0.0030525997 -0.03813157
0.034034632 -0.06484106 0.0028597265 -0.07091659 -0.07269693 0.019047251 0.012095781 0.08655504
0.030086793 0.04262639 0.08090021 -0.009885345 0.09262103 0.008477214 0.078224815 0.03238443
-0.06955429 -0.10835452 0.013634791 -0.015461958 0.07833462 -0.031302147 0.15201724 0.04421246
-0.023352811 -0.013125282 -0.00044081602 0.01252174 0.08087191 -0.07398742 0.057863202 -0.05718546
0.055691123 -0.020022545 0.016525274 -0.0028742503 -0.034173314 -0.006014072 -0.028582186 0.075420104
-0.06364004 -0.031823035 -0.041766368 0.054276466 0.03797892 0.13238142 -0.010809237 0.032586213
-0.016719325 -0.0448845 -0.049101576 0.14791127 0.0036554472 -0.059082955 -0.07445621 0.07654544
0.039302796 0.0642947 -0.020809585 0.064967215 -0.01521126 0.10694153 0.03031901 0.028567752
0.023646768 -0.024455661 0.027540809 -0.02255532 -0.0942522 0.07237905 0.10214781 -0.11275172
-0.017964482 -0.023425817 -0.0139206005 -0.13020149 0.076596975 -0.0069131423 -0.04229871 0.03399876
-0.058403872 0.056219026 -0.1514066 -0.044641342 0.028630204 0.0984436 0.06665766 -0.15354115
0.027955677 -0.048447266 -0.0909584 -0.06404362 -0.103470504 0.09680558 0.0027758025 0.081366986
0.0006469849 0.0040757954 -0.042487234 0.08229121 0.04055231 -0.021153823 -0.038794156 0.019321175
-0.06829144 -0.06463084 0.051274806 -0.0064951237 -0.12905072 -0.021974003 -0.03487326 -0.07575415
-0.05795929 0.06615724 -0.034331355 0.02512834 0.06994805 -0.13083805 0.015294404 -0.06760302
0.06781976 0.02313686 -0.016860867 -0.011839389 -0.07944855 -0.060023956 -0.030312551 -0.007574302
00000000: 439e 9c3c b19f 9dbd 4101 33bd be8f b33d
00000010: 3c24 1bbe 4560 a33d de8d 9a3c 6188 f13d
00000020: d7ee b1bc dfde 1abb 261f d63b e06a 22bd
00000030: 6f64 3c3d bb66 8d3d f87a 643d 8dd5 9abd
00000040: 24e5 173e bdeb 413d b0e4 9b3c a2fd ffbc
00000050: 535c 7ebd 62bf dbbd ee9f 25be 8f34 23bd
00000060: 8199 01bd d217 9ebc 886d 0c3d abfb 06be
00000070: c532 93bd a08c 10bd c599 4ebb d11b 253d
00000080: 7130 82bd 270b e5bd 79e5 833d deef 213d
00000090: e440 bc3b 7e1a 1cbd 8964 f0bb 4e57 89bc
000000a0: a374 b43c 1c5f 0fbb bba1 073e 16a2 103e
000000b0: 905e 393d 931d 8ebd cd9c cb3c 6873 9b3d
000000c0: 2165 64bd e78b 1d3d 7fcb b23d 872e 1d3d
000000d0: 8dd6 c1bb 7896 3abd 3ff0 733d c795 3a3d
000000e0: bca1 933c e30b 033d 8db6 4bbc 997a b23c
000000f0: 7fe5 333d f23f dbbc 6c00 78bd ce34 f43c
00000100: 5fda 7cbd d0dc bbbd 42d2 8c3d aa57 e53c
00000110: 0ae9 d8bd e1fc 99bc 5e7b 80bc 6dfa 19bd
00000120: 7b86 4abc 05cc b63c 2fde 10bd 75d6 8d3d
00000130: c341 603d 2273 0bbe 41da c23d 7e4a 1ebd
00000140: 332b d13d d773 143a c66a a2bd 6265 ba3d
00000150: 6972 b3bd 5d57 5cbe 4dec 5a3d 969c 47bd
00000160: 5cd3 13bd 6c60 fd3c 61d5 963d bbda cd3c
00000170: 75a2 09be 818b 3cbc b0e0 bdbb 6062 253d
00000180: fc51 393a b3e3 77bc ca56 123e 34f4 bf3c
00000190: dbfa c13c 1144 87bd 03f2 453d d9aa 5c3c
000001a0: 6e26 6a3e a98d c03c 3af4 f5bb 2266 6abd
000001b0: da63 c7bd 0631 c4bd 6d42 01be 6856 8c3d
000001c0: 2b41 40bd 4fbd 013d 8136 edbb 5d0c 353c
000001d0: 4796 903d 694f 23bd 8746 bd3d c17a 1b3d
000001e0: b4ea a33d 110c e6bc 822d 5a3d d485 023d
000001f0: 2bd0 2b3d f5a1 863d 200e 48bb d92f 1cbd
00000200: e667 0b3d 64cb 84bd 406a 3b3b b83c 91bd
00000210: 21e2 94bd fb08 9c3c 622d 463c c543 b13d
00000220: 9478 f63c 0299 2e3d 02af a53d 24f6 21bc
00000230: 18b0 bd3d 03e4 0a3c 5534 a03d 89a5 043d
00000240: 7b72 8ebd f9e8 ddbd 7564 5f3c 2754 7dbc
00000250: e76d a03d ae36 00bd 68aa 1b3e 2018 353d
00000260: 654e bfbc 6c0b 57bc 531d e7b9 fc27 4d3c
00000270: 2ca0 a53d b786 97bd f701 6d3d 4d3b 6abd
00000280: 601c 643d 5206 a4bc 0360 873c eb5d 3cbb
00000290: 51f9 0bbd b111 c5bb 3025 eabc db75 9a3d
000002a0: b655 82bd df58 02bd 3613 2bbd 0051 5e3d
000002b0: c98f 1b3d ff8e 073e 3a19 31bc 1f79 053d
000002c0: f7f6 88bc cfd8 37bd bc1e 49bd 0d76 173e
000002d0: 3a90 6f3b f800 72bd 7f7c 98bd dbc3 9c3d
000002e0: f8fb 203d f1ac 833d dd78 aabc 880d 853d
000002f0: a638 79bc 2904 db3d 935f f83c eb06 ea3c
00000300: deb6 c13c 3d57 c8bc 439d e13c efc5 b8bc
00000310: 4c07 c1bd 783b 943d df32 d13d 60ea e6bd
00000320: 402a 93bc 80e7 bfbc 3b13 64bc 8a53 05be
00000330: e0de 9c3d a487 e2bb 6a41 2dbd 4942 0b3d
00000340: e638 6fbd ec45 663d 550a 1bbe d7d9 36bd
00000350: e489 ea3c cc9c c93d d083 883d e439 1dbe
00000360: 4e03 e53c a470 46bd 6648 babd 4d29 83bd
00000370: 58e8 d3bd 0142 c63d 3dea 353b bca3 a63d
00000380: 6c9a 293a 408e 853b 1807 2ebd 4b88 a83d
00000390: 2e1a 263d c84a adbc 9fe6 1ebd 7147 9e3c
000003a0: 62dc 8bbd 2d5d 84bd 8805 523d 0cd5 d4bb
000003b0: df25 04be d302 b4bc 43d7 0ebd fe24 9bbd
000003c0: b866 6dbd 727d 873d 099f 0cbd f3d9 cd3c
000003d0: ec40 8f3d 69fa 05be 6195 7a3c 7473 8abd
000003e0: 16e5 8a3d 8389 bd3c cd1f 8abc fff9 41bc
000003f0: ecb5 a2bd aedb 75bd 0752 f8bc da31 f8bb

network_body._body_endoder.seq_layers.6.bias f4 [256]
0.0 0.0 0.0 0.0 0.0 0.0 0.0 0.0
0.0 0.0 0.0 0.0 0.0 0.0 0.0 0.0
0.0 0.0 0.0 0.0 0.0 0.0 0.0 0.0
0.0 0.0 0.0 0.0 0.0 0.0 0.0 0.0
0.0 0.0 0.0 0.0 0.0 0.0 0.0 0.0
0.0 0.0 0.0 0.0 0.0 0.0 0.0 0.0
0.0 0.0 0.0 0.0 0.0 0.0 0.0 0.0
0.0 0.0 0.0 0.0 0.0 0.0 0.0 0.0
0.0 0.0 0.0 0.0 0.0 0.0 0.0 0.0
0.0 0.0 0.0 0.0 0.0 0.0 0.0 0.0
0.0 0.0 0.0 0.0 0.0 0.0 0.0 0.0
0.0 0.0 0.0 0.0 0.0 0.0 0.0 0.0
0.0 0.0 0.0 0.0 0.0 0.0 0.0 0.0
0.0 0.0 0.0 0.0 0.0 0.0 0.0 0.0
0.0 0.0 0.0 0.0 0.0 0.0 0.0 0.0
0.0 0.0 0.0 0.0 0.0 0.0 0.0 0.0
0.0 0.0 0.0 0.0 0.0 0.0 0.0 0.0
0.0 0.0 0.0 0.0 0.0 0.0 0.0 0.0
0.0 0.0 0.0 0.0 0.0 0.0 0.0 0.0
0.0 0.0 0.0 0.0 0.0 0.0 0.0 0.0
0.0 0.0 0.0 0.0 0.0 0.0 0.0 0.0
0.0 0.0 0.0 0.0 0.0 0.0 0.0 0.0
0.0 0.0 0.0 0.0 0.0 0.0 0.0 0.0
0.0 0.0 0.0 0.0 0.0 0.0 0.0 0.0
0.0 0.0 0.0 0.0 0.0 0.0 0.0 0.0
0.0 0.0 0.0 0.0 0.0 0.0 0.0 0.0
0.0 0.0 0.0 0.0 0.0 0.0 0.0 0.0
0.0 0.0 0.0 0.0 0.0 0.0 0.0 0.0
0.0 0.0 0.0 0.0 0.0 0.0 0.0 0.0
0.0 0.0 0.0 0.0 0.0 0.0 0.0 0.0
0.0 0.0 0.0 0.0 0.0 0.0 0.0 0.0
0.0 0.0 0.0 0.0 0.0 0.0 0.0 0.0
00000000: 0000 0000 0000 0000 0000 0000 0000 0000
00000010: 0000 0000 0000 0000 0000 0000 0000 0000
00000020: 0000 0000 0000 0000 0000 0000 0000 0000
00000030: 0000 0000 0000 0000 0000 0000 0000 0000
00000040: 0000 0000 0000 0000 0000 0000 0000 0000
00000050: 0000 0000 0000 0000 0000 0000 0000 0000
00000060: 0000 0000 0000 0000 0000 0000 0000 0000
00000070: 0000 0000 0000 0000 0000 0000 0000 0000
00000080: 0000 0000 0000 0000 0000 0000 0000 0000
00000090: 0000 0000 0000 0000 0000 0000 0000 0000
000000a0: 0000 0000 0000 0000 0000 0000 0000 0000
000000b0: 0000 0000 0000 0000 0000 0000 0000 0000
000000c0: 0000 0000 0000 0000 0000 0000 0000 0000
000000d0: 0000 0000 0000 0000 0000 0000 0000 0000
000000e0: 0000 0000 0000 0000 0000 0000 0000 0000
000000f0: 0000 0000 0000 0000 0000 0000 0000 0000
00000100: 0000 0000 0000 0000 0000 0000 0000 0000
00000110: 0000 0000 0000 0000 0000 0000 0000 0000
00000120: 0000 0000 0000 0000 0000 0000 0000 0000
00000130: 0000 0000 0000 0000 0000 0000 0000 0000
00000140: 0000 0000 0000 0000 0000 0000 0000 0000
00000150: 0000 0000 0000 0000 0000 0000 0000 0000
00000160: 0000 0000 0000 0000 0000 0000 0000 0000
00000170: 0000 0000 0000 0000 0000 0000 0000 0000
00000180: 0000 0000 0000 0000 0000 0000 0000 0000
00000190: 0000 0000 0000 0000 0000 0000 0000 0000
000001a0: 0000 0000 0000 0000 0000 0000 0000 0000
000001b0: 0000 0000 0000 0000 0000 0000 0000 0000
000001c0: 0000 0000 0000 0000 0000 0000 0000 0000
000001d0: 0000 0000 0000 0000 0000 0000 0000 0000
000001e0: 0000 0000 0000 0000 0000 0000 0000 0000
000001f0: 0000 0000 0000 0000 0000 0000 0000 0000
00000200: 0000 0000 0000 0000 0000 0000 0000 0000
00000210: 0000 0000 0000 0000 0000 0000 0000 0000
00000220: 0000 0000 0000 0000 0000 0000 0000 0000
00000230: 0000 0000 0000 0000 0000 0000 0000 0000
00000240: 0000 0000 0000 0000 0000 0000 0000 0000
00000250: 0000 0000 0000 0000 0000 0000 0000 0000
00000260: 0000 0000 0000 0000 0000 0000 0000 0000
00000270: 0000 0000 0000 0000 0000 0000 0000 0000
00000280: 0000 0000 0000 0000 0000 0000 0000 0000
00000290: 0000 0000 0000 0000 0000 0000 0000 0000
000002a0: 0000 0000 0000 0000 0000 0000 0000 0000
000002b0: 0000 0000 0000 0000 0000 0000 0000 0000
000002c0: 0000 0000 0000 0000 0000 0000 0000 0000
000002d0: 0000 0000 0000 0000 0000 0000 0000 0000
000002e0: 0000 0000 0000 0000 0000 0000 0000 0000
000002f0: 0000 0000 0000 0000 0000 0000 0000 0000
00000300: 0000 0000 0000 0000 0000 0000 0000 0000
00000310: 0000 0000 0000 0000 0000 0000 0000 0000
00000320: 0000 0000 0000 0000 0000 0000 0000 0000
00000330: 0000 0000 0000 0000 0000 0000 0000 0000
00000340: 0000 0000 0000 0000 0000 0000 0000 0000
00000350: 0000 0000 0000 0000 0000 0000 0000 0000
00000360: 0000 0000 0000 0000 0000 0000 0000 0000
00000370: 0000 0000 0000 0000 0000 0000 0000 0000
00000380: 0000 0000 0000 0000 0000 0000 0000 0000
00000390: 0000 0000 0000 0000 0000 0000 0000 0000
000003a0: 0000 0000 0000 0000 0000 0000 0000 0000
000003b0: 0000 0000 0000 0000 0000 0000 0000 0000
000003c0: 0000 0000 0000 0000 0000 0000 0000 0000
000003d0: 0000 0000 0000 0000 0000 0000 0000 0000
000003e0: 0000 0000 0000 0000 0000 0000 0000 0000
000003f0: 0000 0000 0000 0000 0000 0000 0000 0000

action_model._discrete_distribution.branches.0.weight f4 [2, 256]
0.008378528 -0.0038864599 -0.0020269875 -0.005445245 -0.0036287121 -0.0076354514 -0.008367741 -0.0031773427
0.006664119 0.0041474877 -0.0028205195 0.008029791 -0.00027195332 -0.0074300147 0.003940889 -0.005578227
-0.0012685964 -0.0023925428 -0.008359897 0.018202692 1.6079124e-05 0.008508268 0.0026358215 -0.0027569872
0.00011544506 0.00896503 0.0072240876 -0.0046397652 -0.003460876 0.0053724623 0.012301549 -0.0013939602
-0.0059622354 0.008537463 -0.0067037954 -0.00038384812 0.012396758 0.0011058645 0.00090633763 0.00045957547
-0.010217364 -0.0027806668 0.006926595 -0.0014676987 0.0006091765 -0.0016505327 -0.0005055156 -0.010542083
0.00469334 -0.010283025 0.00042969082 0.0075370967 -0.0043324246 -0.0002564106 0.0018110846 0.003744309
0.0050549856 -0.005139611 -0.0052610454 -0.0053550443 -0.00014051373 -0.002107334 -0.0059055886 -0.012130592
0.004641782 0.010494953 -0.004027294 -0.0008621236 0.00445963 0.0025262223 0.001246939 0.004280433
0.007485069 -0.015958812 0.005603119 0.011962948 0.0052616317 -0.002046974 -0.00043244366 0.00816806
-0.0049218643 0.004493278 -0.001847536 -0.0032244541 0.001880162 0.00026475728 -0.00452862 0.0008789726
-0.00503042 0.0035704535 -0.0024963568 0.00892823 -0.0026599017 -0.0072939405 0.008422225 -0.0033927828
0.0071224472 0.0039200755 -0.011035638 -0.010131168 0.00021078359 -0.0023428786 0.008110278 0.012888283
-0.004227388 0.0052623465 5.191408e-05 0.007899483 0.00019094192 0.0021229926 0.0001112595 0.0034322732
-0.007939481 0.0019202912 -9.268843e-05 -0.009397275 0.00064714823 -0.006326187 -0.0039055252 0.005015578
0.0019704485 -0.0037288282 -0.00895363 0.006108654 0.0011192372 0.0028964607 -0.00021167348 -0.0023073598
0.010724409 0.003007677 -0.0016126101 0.002613588 -0.0028572269 0.002714946 -0.0011754957 -0.0023195278
0.0039448827 0.0040082745 0.0029936356 0.00055468193 0.0067706467 0.006514184 0.0010028133 -0.00095776696
-0.0047093364 -0.0058138664 0.013968982 -0.0054431553 -0.002574723 -0.008606106 -0.00051855925 -0.0033530649
-0.0007198726 -0.0062165502 0.004247027 0.0032201335 0.013764304 -0.0033189848 -0.0011966653 0.0064990483
0.0029314847 0.0044446304 0.0040272926 -0.005419709 0.0003700901 0.0033797864 0.0010186018 -0.010825634
0.0022858826 -0.0012459552 0.0020543123 0.0021431819 0.0033682925 0.0016003213 -0.004496961 0.0059018866
-8.5167565e-05 -0.015378455 0.0007258518 -0.010361236 -0.0054796883 0.009754342 -0.0075503844 0.008641212
0.006242894 0.001910661 0.0009883348 -0.0050319145 -0.0010667884 0.0020547225 0.0049285656 0.004693452
-0.0028059774 0.0029234886 -0.008748723 0.0011626907 0.0062756673 0.00073254056 -0.007241433 -0.008265375
-0.0004051787 0.012272044 0.00580362 0.007413751 -0.0036254288 0.011498237 0.004879033 0.004345886
0.006121674 0.0034649489 0.009475361 -0.0013158562 -0.0019308206 -0.012781771 0.0058202534 -0.0044693192
-0.002326913 0.01612713 -0.0026520435 0.006063541 -0.00545162 0.0023855811 0.011384728 0.00042244914
-0.010016572 -0.0028187486 0.011824961 0.013399276 0.002658024 -0.00010779542 0.0026527564 -0.0038466074
-0.0116964495 0.0015804429 0.0037103884 0.007264738 0.0033005816 -0.004979014 0.0015174855 0.0010775871
0.008139859 0.0069629955 -0.0073146187 -0.0049611437 -0.002185989 0.014233177 -0.009791833 0.0064568124
0.00046490933 0.0063655213 0.006644459 0.0033637595 -0.0025720652 -0.0029093323 -0.0069833347 -0.00869154
00000000: 1846 093c fab3 7ebb 35d7 04bb 076e b2bb
00000010: b0cf 6dbb cf32 fabb d918 09bc f73a 50bb
00000020: af5e da3b a6e7 873b 77d8 38bb 628f 033c
00000030: f594 8eb9 7b77 f3bb 9322 813b 8fc9 b6bb
00000040: 0847 a6ba 35cc 1cbb f3f7 08bc d01d 953c
00000050: a8e1 8637 4366 0b3c bfbd 2c3b 92ae 34bb
00000060: 181b f238 10e2 123c 0ab8 ec3b 2c09 98bb
00000070: ddcf 62bb 7b0b b03b 708c 493c 8bb5 b6ba
00000080: db5e c3bb b7e0 0b3c 83ab dbbb 393f c9b9
00000090: c61b 4b3c a8f2 903a 4a97 6d3a 2df3 f039
000000a0: bb66 27bc d93b 36bb 7df8 e23b cc5f c0ba
000000b0: 25b1 1f3a b056 d8ba 9484 04ba b3b8 2cbc
000000c0: 97ca 993b 227a 28bc 2048 e139 c0f9 f63b
000000d0: 03f7 8dbb d96e 86b9 ea61 ed3a 1563 753b
000000e0: 4ba4 a53b 2f6a a8bb d964 acbb 5e79 afbb
000000f0: de56 13b9 331b 0abb ab83 c1bb 64bf 46bc
00000100: 171a 983b 06f3 2b3c 64f7 83bb 2300 62ba
00000110: 1722 923b fa8e 253b 5470 a33a e042 8c3b
00000120: 4f45 f53b 0ebc 82bc 5e9a b73b 3e00 443c
00000130: c469 ac3b 8626 06bb 9bb9 e2b9 54d3 053c
00000140: 9747 a1bb 593c 933b 0529 f2ba 5d51 53bb
00000150: c56f f63a 1fcf 8a39 d164 94bb da6a 663a
00000160: 39d6 a4bb 45fe 693b eb99 23bb b647 123c
00000170: bf51 2ebb 0202 efbb 5ffd 093c 7359 5ebb
00000180: 6b63 e93b fa73 803b d2ce 34bc 33fd 25bc
00000190: ca05 5d39 fb8a 19bb f9e0 043c 6029 533c
000001a0: e785 8abb c36f ac3b 52be 5938 d56c 013c
000001b0: 9537 4839 e821 0b3b fd53 e938 fdef 603b
000001c0: 9914 02bc 48b2 fb3a b961 c2b8 07f7 19bc
000001d0: 62a5 293a e74b cfbb d7f3 7fbb b859 a43b
000001e0: a422 013b 5b5f 74bb 3fb2 12bc 1b2b c83b
000001f0: 5eb3 923a 8cd2 3d3b abf4 5db9 1337 17bb
00000200: 6eb5 2f3c 721c 453b 375e d3ba bb48 2b3b
00000210: 5040 3bbb 3ced 313b 1713 9aba 3803 18bb
00000220: 1344 813b d857 833b df30 443b 1368 113a
00000230: 4ddc dd3b f074 d53b d570 833a a712 7bba
00000240: c750 9abb 3f82 bebb 28de 643c 7f5c b2bb
00000250: afbc 28bb a000 0dbc ecef 07ba 18bf 5bbb
00000260: d5b5 3cba 34b4 cbbb a52a 8b3b e008 533b
00000270: ad83 613c 5383 59bb 6dd9 9cba f8f5 d43b
00000280: 271e 403b 43a4 913b 61f7 833b d097 b1bb
00000290: a708 c239 687f 5d3b 9b82 853a 005e 31bc
000002a0: bfce 153b 524f a3ba a4a1 063b a074 0c3b
000002b0: 92be 5c3b dfc1 d13a 3e5b 93bb 9d64 c13b
000002c0: fd9b b2b8 eaf5 7bbc 1747 3e3a 2cc2 29bc
000002d0: f58e b3bb add0 1f3c 3769 f7bb df93 0d3c
000002e0: 3191 cc3b 256f fa3a 038b 813a c2e2 a4bb
000002f0: 7bd3 8bba 86a8 063b ce7f a13b 87cb 993b
00000300: 7de4 37bb 0098 3f3b ce56 0fbc 6d65 983a
00000310: 1da4 cd3b f707 403a 8b49 edbb 7f6b 07bc
00000320: 2a6e d4b9 af10 493c 4b2c be3b 0def f23b
00000330: 9a98 6dbb 1a63 3c3c 4ce0 9f3b ef67 8e3b
00000340: 5398 c83b 3214 633b 8b3e 1b3c cf78 acba
00000350: 9713 fdba a26a 51bc d3b7 be3b 5e73 92bb
00000360: 1f7f 18bb 0b1d 843c e8cd 2dbb abb0 c63b
00000370: 81a3 b2bb 6957 1c3b 0387 3a3c 2a7c dd39
00000380: 8c1c 24bc c1ba 38bb 7bbd 413c a388 5b3c
00000390: 3e32 2e3b 3a10 e2b8 ded9 2d3b 5d17 7cbb
000003a0: 77a2 3fbc dd26 cf3a fd29 733b 0a0d ee3b
000003b0: 924e 583b ff26 a3bb 5de6 c63a d33d 8d3a
000003c0: 0b5d 053c d729 e43b 78af efbb 1791 a2bb
000003d0: cf42 0fbb 4532 693c ed6d 20bc ab93 d33b
000003e0: 13bf f339 dd95 d03b c3b9 d93b 8572 5c3b
000003f0: 1890 28bb 7faa 3ebb 75d4 e4bb f666 0ebc

action_model._discrete_distribution.branches.0.bias f4 [2]
0.0 0.0
00000000: 0000 0000 0000 0000
