Assets/ML_PPO/results/headless_2/BoatAgent/BoatAgent-73856.onnx (onnx, 868044 bytes, 21 tensors)

discrete_action_output_shape f4 [1, 6]
00000000: 0000 0040 0000 0040 0000 0040 0000 0040
00000010: 0000 0040 0000 0040
2.0 2.0 2.0 2.0 2.0 2.0

network_body._body_endoder.seq_layers.0.weight f4 [256, 57]
00000000: 9877 5b3d 520e 963c 2c3c c7bc bfd1 9bbd
00000010: 53f9 663d 9540 c73d fccd bfbe ba73 c03c
00000020: 03f6 aabc 57f3 0c3d bb49 4fbd d63d 1ebd
00000030: 23de 5c3d 57a1 1d3e 46c4 623e 824e 583e
00000040: 5c8a a93c c685 7dbd 3e7c 0abd d7ab c43d
00000050: fbbe 52bd 9c97 5ebd eb16 a2bd fed0 ef3d
00000060: b7bf 87bd 932d 403c 9275 633d ee8a 0cbe
00000070: 77dc a53b 2815 43be 371f ebbc 59a3 66be
00000080: 9964 81bd 6df8 0dbe a770 81bd b2ea 8f3d
00000090: dd2a 6c3e 4346 2f3e 0a44 453e eb36 17be
000000a0: 2c3f 3b3d 0385 85be 671d fbbc 0009 87be
000000b0: c9c1 4c3e 1019 c83d 6198 acbd 1e75 febd
000000c0: 5700 9b3d aa12 70be 602f febd 03b1 06be
000000d0: f154 7dbd 7383 703e cf03 15bd 1cbc cf3d
000000e0: 83e4 b93d 9d83 1a3d efa1 7fbe 45b4 6c3d
000000f0: 891c 3bbe 60b0 45bd 6333 563e 314b 7c3d
00000100: 5e7f 64bc e743 8ebd 8898 b0bd 8cf0 cdba
00000110: 1cb1 62be fe66 a8bc 48a7 303e 2286 843d
00000120: 9055 933e a2b6 873d 965c 0d3e 2a0e 85bc
00000130: 3d56 be3c eebd f43c fba4 3cbd e5bb 343c
00000140: 774c 12bd c058 b23d 4029 0bbe aa28 cdbc
00000150: 205f 81bd 94d3 69bd 664e 07be abf9 963d
00000160: 76a0 4abd 20a8 6c3d c31c 9fbd 2e02 a53c
00000170: 502c c9bd 2fd6 66bd c9dc 08bd 4ac0 e5bc
00000180: 05fa a8bc f412 373e 9fca 01be c1f9 073e
00000190: 9b32 393b c542 f9bd e9f4 fdbd 3603 59bd
000001a0: 696c 4bbd aba9 673e 274b 89be ab4d cebd
000001b0: 63e2 013d 0b70 a1bd 3569 f73c 946f 98bd
000001c0: 0caa 81be b96c ccbc 6506 8bbd e97c 34be
000001d0: 9b51 64bd 4085 2dbe 4935 a83d 8363 0c3e
000001e0: bdff 213d eeaa 02be 3a42 6ebe bb64 87be
000001f0: 3e04 fbbd 82e1 a53d 4f5b 893c 89a8 8fbd
00000200: d9a2 c83d 7b24 ad3d 16d4 c43d 6a32 923e
00000210: de08 163e e5bf a8bc 60e3 e93d fe96 49be
00000220: afb9 e03d 8292 36bd 7562 f1bd 0d99 09bd
00000230: c891 5f3d c5af 58be a64c 593e 8208 06be
00000240: f47a 7bbc 1b59 78be 99b7 08be 0b70 debd
00000250: 9479 433c fdcd 72bd 41f5 cd3b 17d5 ff3d
00000260: 5c60 8d3d d011 143e 3156 6f3c 5779 053e
00000270: 626e ea3d 410e dbbc 710e 513d f056 ab3c
00000280: 7075 09be f93e 973e 6efa 7c3d c5c7 2cbe
00000290: 7f81 5abd ce6e 09be d87f bdbd a065 0a3e
000002a0: a3a2 a23d 9a72 13be 81e7 1e3e 4fe5 423c
000002b0: 0a0a 03be a09b bc3c f524 7cbe f837 a7bd
000002c0: 7c46 a83d 6df7 933d 76cb 48bc 8603 4a39
000002d0: 2c3e 1f3d f65f 593d f119 f53d af76 5fbd
000002e0: ccd6 9b3d 8455 82bd 2d97 4e3d 0d8a 783d
000002f0: 0936 183d 56da ef3d 7bfd 653d ea32 aabd
00000300: 2f48 ab39 b532 eb3c c0ac 243d 5e7c f63c
00000310: a405 28be 9750 b8bd ea5b c63d f28f b33d
00000320: 73dd 83bd 4155 f5bd 79b5 b43d f52f dc3d
00000330: 0587 2c3e 306c ddbd 587f eb3b 9c25 f6bd
00000340: d6ae 91bd e36a f63d cc73 043c 1759 f03a
00000350: 66da a43d a667 483d b313 1d3c 0080 783d
00000360: 56c5 af3c 2d58 c1bd de87 30bd 6fd1 80bd
00000370: 9f5d 04be a3c7 a83d 2e0d 99bd c8f1 cdbc
00000380: 746b 0d3e 0d80 9b3d ec5d 34be fe7c 4f3d
00000390: 83d9 083d 8c85 abbb 9b48 2d3e 1987 9e3d
000003a0: 5aa7 d1bc d2bc 073d bcda db3d 3dd2 783c
000003b0: 9a97 69bc 4e6f 71bb 9fc0 b03b b768 713e
000003c0: 32b3 b6bc 29bf 633e b17d 083e cb29 f83d
000003d0: 82f1 c6bd 8155 db3d f7f4 d73c d17c 44be
000003e0: 40c5 4ebd 9015 703d 7bd3 8bbd 6f31 4f3d
000003f0: befc ccbd 21ab acba 1521 2f3d 5d21 dcbd
0.05358085 0.018317375 -0.024320684 -0.07608365 0.056390118 0.09729115 -0.3746184 0.023492683
-0.02086926 0.034411754 -0.050607424 -0.03863319 0.053922784 0.15393578 0.22145185 0.21123698
0.020695858 -0.061895154 -0.033809893 0.09603088 -0.051451664 -0.054343805 -0.079145275 0.11709784
-0.066283636 0.011729616 0.055532046 -0.13724872 0.005061682 -0.19051039 -0.028701408 -0.2252325
-0.063180156 -0.13864298 -0.06320315 0.070271865 0.23063226 0.17116646 0.19264236 -0.14767043
0.045714542 -0.26078042 -0.030653669 -0.26374054 0.19995798 0.09770405 -0.084275015 -0.12424682
0.07568424 -0.2344462 -0.1241138 -0.13153462 -0.061848585 0.23487644 -0.036380585 0.10143301
0.09076788 0.037723172 -0.24964117 0.057789106 -0.18272604 -0.048263907 0.2091804 0.061595146
-0.013946382 -0.06946545 -0.08622843 -0.0015711947 -0.22137874 -0.020556923 0.17251313 0.06470896
0.28776217 0.06626631 0.1380485 -0.016242106 0.023234481 0.029875722 -0.046055775 0.011031126
-0.035717454 0.08708334 -0.13589954 -0.025043804 -0.06316972 -0.057086542 -0.132135 0.07371839
-0.049469434 0.057777524 -0.07769158 0.02014264 -0.09822905 -0.056356605 -0.033413682 -0.028045792
-0.020627031 0.17878324 -0.1267495 0.13278867 0.0028258923 -0.121709384 -0.124002285 -0.052981578
-0.049663935 0.22623317 -0.2681515 -0.10073408 0.03171004 -0.078826986 0.030201534 -0.07443157
-0.25325048 -0.024954187 -0.06788329 -0.17625774 -0.055741888 -0.16945362 0.08213288 0.13709836
0.03955053 -0.12760517 -0.23267451 -0.2644404 -0.122566685 0.08099653 0.016767172 -0.070145674
0.09796686 0.08454224 0.09610765 0.28554088 0.1465182 -0.020599315 0.114203215 -0.19686505
0.10972916 -0.044573314 -0.11786357 -0.033593226 0.054582387 -0.21160801 0.21220645 -0.13089183
-0.0153491385 -0.24252741 -0.13351287 -0.10861214 0.011930842 -0.059278477 0.00628534 0.124918155
0.06903145 0.1445992 0.014607952 0.13034569 0.11446835 -0.026740195 0.051039163 0.020915478
-0.13423705 0.29540232 0.061762266 -0.16873081 -0.053346153 -0.13421175 -0.092529 0.1351533
0.07941177 -0.14399186 0.15517999 0.011895492 -0.12796798 0.023023427 -0.24623473 -0.08164972
0.08216569 0.07224927 -0.01225554 0.00019265534 0.03887765 0.05307003 0.119678386 -0.054556545
0.07609329 -0.06363967 0.05043714 0.06067853 0.037160907 0.11711566 0.05614994 -0.08310492
0.00032669443 0.028710702 0.04020381 0.0300886 -0.16408402 -0.08999746 0.096855 0.0876769
-0.064387225 -0.119791515 0.08823676 0.107513346 0.16848381 -0.10811651 0.0071868114 -0.12018892
-0.071134254 0.12032106 0.008084249 0.0018337098 0.08049469 0.04892697 0.009587216 0.060668945
0.021456402 -0.09440646 -0.043098323 -0.06289946 -0.12926339 0.08241203 -0.07473217 -0.025139704
0.13810521 0.07592783 -0.17613953 0.05065631 0.03341056 -0.005234426 0.16922228 0.077406116
-0.025592495 0.033139057 0.1073508 0.015186843 -0.014257336 -0.0036840024 0.005394056 0.23575102
-0.022302244 0.2224089 0.13329197 0.121173464 -0.09714033 0.10709668 0.026361926 -0.19188239
-0.05048108 0.058614314 -0.06827446 0.050584253 -0.10009144 -0.0013173559 0.04275616 -0.10748551

network_body._body_endoder.seq_layers.0.bias f4 [256]
00000000: bc55 d9bc b57a 47bb 1027 113c 977e 3fbb
00000010: fbc4 5c3c 2c91 39bc f024 c8bc 724e 173c
00000020: 1f05 eebc ef67 883c 3b90 5ebc 4f3f 30bc
00000030: 132b 9aba 50e0 073b 0ff0 36bc 99d9 2cbc
00000040: ad53 733c 91a5 d13b b86b 00bd 1802 853b
00000050: 3266 36bc a0f7 19bd 32ad 373b 996e 553c
00000060: 0fb4 ab3a 6995 763c 4385 bebb bd8a acbc
00000070: e8a2 9abc c9fb 8cbc 68d2 d8bc a2fc 833c
00000080: c7bf 51bb beb4 7e3c 811e 0cbd 30f4 a4bb
00000090: bb1b 193c a842 9db9 c62f e0bb c6ea a93c
000000a0: 175d 31bc 507a 0bbc ff52 473c 6993 d4bb
000000b0: a382 d6b9 593a 9cbc 581a 7dbb c393 c33c
000000c0: 6dd4 b63c 34dc 2cbc b4cb f2bc 4706 5dbc
000000d0: 7f70 daba ceae 99bc fc34 0cbc 964f af3b
000000e0: bde3 6d3c 1aa5 0dba 6399 b5bc 9a5b 3c37
000000f0: de35 7d3b 0a1c 1e3c 1c01 d3bb edc5 16bc
00000100: 3407 a0bb e716 fd3c 00a0 493c d39a 7b3c
00000110: 13b8 07bd 220e 423c 9f09 1ebd 78ab 8d3a
00000120: 4f78 f93c 17e7 083d 96c6 58bb 5906 cbbb
00000130: 6c1d 823c 98bc 723c 5c98 32bc c61b 6eba
00000140: f31d 71bc 60f5 503c 216c c23c 59e8 25ba
00000150: 93ef 623c a24e 3c3c d29b 1139 503a 26b9
00000160: be54 7fbc 4cb5 583b 8cd3 d03c 773d 3dbc
00000170: 51be 68bc 7e3f 69bc fb87 87ba 0d37 5cbc
00000180: 13c6 993a 6fd4 453c 4f20 ffba 356f 92bb
00000190: 64a8 47bc 16a9 413c 016f 203c e94d 15bd
000001a0: a74a 07bc 265c 3d39 3db0 bd3c c25d 823a
000001b0: 8e2e 00bc 8b39 153c e132 393c 85dc 90bc
000001c0: 3402 0b3b f43a e23b 6897 40bb d61a 223c
000001d0: cf88 85bb d1e3 ecbc 2166 dcbc e5cf e93b
000001e0: 97f2 ee3b 6419 1b3c f92e e73b 16eb 36bd
000001f0: bc37 6f3c 13d6 09bd fd4e 0fbc b0c8 c43b
00000200: be71 623b b85f c03b b431 8abb 243b 143c
00000210: 7867 eaba d585 76bb bafa 8bbc 01be 1b3c
00000220: be2b a3bc 7d03 90bc dd9d 613c dbb3 353c
00000230: 1e71 343c fb43 f03b dd02 b0bc cd3e 2abb
00000240: 9438 a1bc 7206 18bc ce43 723c f09f 283c
00000250: 9675 793a a967 97bc 3598 cf3c bea8 c7bb
00000260: a330 a7bb 6cb4 ca3a ad9a 4cbc 607d 383b
00000270: 3590 6ebc ffeb 7c3b 8dfd 69bc 95dc 873c
00000280: 868a f5bc 9f5d 5b3c 500b 833c 25a6 58bc
00000290: 6280 813c 95cf 98bb e975 09bc 1c80 953b
000002a0: 5100 913b 0984 59bc c158 cebc 0290 ac3c
000002b0: 3880 d53b 427d 9fbb bb24 dabb 270b ffba
000002c0: 9f4f eebb c972 f0bb e5a8 14b9 91a4 ef3a
000002d0: 096b 3b3b 4226 92bc ab60 0dbb a72d 043b
000002e0: e0bd 9abc 2345 b2bb bbf1 53ba 2445 10bc
000002f0: 615f c7bb dd35 2bbc 912a 333c 9b71 96bc
00000300: 6cda 8c3b 08fb c13b 1479 3cb9 ea12 febb
00000310: d7a3 d2bc a976 f2b9 cd31 96ba cb29 12bc
00000320: f028 57bc 6dea 71bb bd9c b8ba 7833 e5bb
00000330: bc50 5dbc 8f5a 52bb 7707 5d3c aa23 3fbc
00000340: af55 b03c 66cb 053d ce8a edbc 3f18 9dba
00000350: f339 a73a 07eb 7dbc d20f ffbb f7b5 abbc
00000360: b59c abba c1d5 c7bc b70b ecbb 7e33 8bbc
00000370: 466b bcbc f7ee 323c c5d8 8ebb 00cf ee3a
00000380: 682e c4ba 8d06 183b 723d 8abc 5ad7 893c
00000390: 2271 9e3b 8ad3 93bc cfa9 fb3b 2879 f93c
000003a0: c4d9 153c 9f3d 91bc 4841 42bc da01 9bbb
000003b0: 915b b23b ffb5 3a3b 387e 11bc 7c8f e13a
000003c0: bb91 cbbc 078f 4d38 1068 c53c 4a70 5ebb
000003d0: f75e 853b 27ab 5cbb bac3 47bc 9e66 dd3b
000003e0: 326e 6b3b ef1d 243c 5a02 063c 01c8 07bc
000003f0: bd48 82ba abfe 423c 37ac 5a3b 17a5 3abc
-0.02653014 -0.003043813 0.008859411 -0.002921974 0.013474698 -0.011326116 -0.024431676 0.009235011
-0.029055176 0.016651122 -0.013584192 -0.010757281 -0.0011762105 0.0020733066 -0.011165633 -0.010549926
0.014851493 0.006397911 -0.03135273 0.0040590875 -0.011132764 -0.03758967 0.0028026816 0.013026857
0.0013099926 0.015050271 -0.005814226 -0.02106225 -0.018876508 -0.017209904 -0.026467517 0.016111676
-0.0032005177 0.015546022 -0.03420878 -0.005033992 0.00934499 -0.00029995036 -0.0068416325 0.020741832
-0.010825417 -0.008513048 0.012165784 -0.006487299 -0.00040914593 -0.019070791 -0.0038620438 0.02387417
0.02231809 -0.010550547 -0.029638149 -0.013490266 -0.0016665607 -0.018760111 -0.008557554 0.0053500636
0.014519629 -0.0005403325 -0.022167867 1.1227001e-05 0.0038636844 0.00965024 -0.006439341 -0.009202463
-0.004883671 0.03089471 0.012306213 0.015356737 -0.03313453 0.01184419 -0.038583394 0.0010808548
0.030452875 0.03342351 -0.003307735 -0.006195825 0.01588317 0.014815472 -0.010900583 -0.0009083118
-0.014716613 0.012753814 0.0237332 -0.0006328873 0.013851064 0.011493357 0.00013886325 -0.00015852717
-0.015584169 0.0033067046 0.025491498 -0.011550299 -0.014205531 -0.014236329 -0.0010340208 -0.0134408595
0.0011732004 0.012074574 -0.0019464585 -0.0044688233 -0.012186144 0.011820098 0.00979209 -0.036451254
-0.008257545 0.00018058773 0.023155326 0.0009946155 -0.0078235995 0.009107958 0.011303634 -0.017683277
0.002121103 0.0069040004 -0.002938712 0.0098940935 -0.0040751467 -0.028917225 -0.026904168 0.0071353787
0.0072921026 0.009466503 0.00705516 -0.04465779 0.01460069 -0.033651423 -0.00874686 0.006005369
0.003455266 0.0058707856 -0.004217351 0.009047303 -0.0017883619 -0.0037616391 -0.01708733 0.00950575
-0.019918319 -0.017579788 0.013770548 0.011090244 0.011013297 0.0073323227 -0.02148574 -0.0025977374
-0.019680299 -0.00927888 0.014786674 0.010292038 0.0009516118 -0.018482046 0.025341133 -0.0060931137
-0.0051022335 0.0015465147 -0.012488049 0.0028150901 -0.014560749 0.0038592813 -0.014281643 0.016584674
-0.02997328 0.01338902 0.015996605 -0.013223206 0.015808288 -0.0046634176 -0.008389928 0.004562391
0.0044250865 -0.013276109 -0.025188806 0.021064762 0.006515529 -0.004867227 -0.0066572106 -0.001945828
-0.007272675 -0.007337902 -0.00014177298 0.0018283298 0.0028597733 -0.017840508 -0.0021572511 0.0020168812
-0.018889368 -0.0054403706 -0.0008085032 -0.008805547 -0.006084368 -0.010449854 0.010935442 -0.018364718
0.004298499 0.005919818 -0.00017974182 -0.0077537196 -0.02571289 -0.00046246246 -0.0011458934 -0.008921097
-0.013132319 -0.003691341 -0.0014084798 -0.006994661 -0.013508018 -0.0032097434 0.013490549 -0.011666218
0.021525232 0.03266468 -0.028996851 -0.0011985375 0.0012758359 -0.015497929 -0.0077838684 -0.020960791
-0.0013092967 -0.024393918 -0.007203545 -0.016992327 -0.02300037 0.0109212315 -0.004359337 0.001821965
-0.0014967443 0.0023197264 -0.016875003 0.01682632 0.004835264 -0.018045206 0.007680155 0.03045328
0.009146158 -0.017729579 -0.011856385 -0.0047304453 0.0054430445 0.0028489826 -0.008880191 0.0017208899
-0.024849763 4.9009013e-05 0.024097472 -0.0033941441 0.0040701586 -0.003367135 -0.012192661 0.0067566177
0.0035923836 0.010016902 0.008179272 -0.008287431 -0.0009939891 0.011901538 0.0033366808 -0.0113919

network_body._body_endoder.seq_layers.2.weight f4 [256, 256]
00000000: 750d 06be 162e c83d b27f 26bd ec10 ef39
00000010: 635e cd3d acbb a53c 4d03 94bd 93a9 cfbd
00000020: 3ae8 15bc 3ed2 003d 2d8b 56bc b912 3abc
00000030: 1f4e 5cbd 02ac c93d 96b9 103d 3731 633e
00000040: f622 46bc 7e45 f33d 4ca0 90bc 298b 423c
00000050: ec7d a63d fae3 26bd e746 a63c 8498 34bc
00000060: 4482 b3bd a953 eabb 12d4 5e3c 8436 eebd
00000070: 85a1 20b9 72e6 aabd 77bc 223c f639 333b
00000080: 6c65 9d3d 5147 2c3d 3eb8 f0bc 44ca 913c
00000090: 1c3e 6abc c0d8 9cbd 95df 6f3d c9a5 34bc
000000a0: 3929 b93c a6e6 9b3c a2e1 01bd 3e6f 96bd
000000b0: 1e41 b13d 9a44 2c3e 22e1 b43d 1691 e5bb
000000c0: 63e0 c7bc 3bbd d1bd 4b9f b83d 319d fcbd
000000d0: fcb6 e3bd 66eb da3b c0ae 9e3d 20f9 973c
000000e0: 7599 143d ca0d 5dbd 0fe5 e4bc d369 8dbd
000000f0: e33e 55b9 4266 633d efd1 b5bd 2549 75bd
00000100: 41ff 633a 438b cf3c c8b9 1f3d 9ef3 bdbc
00000110: 709d 973a e8b6 9a3d 49c5 70bc 7dc9 c4bd
00000120: 2e0a e93d 73e6 493d b9b5 e53c 7425 23be
00000130: bc10 ad3d b526 acbd 8b55 ec3a 5c21 0a3c
00000140: 6e52 d0bc c713 8fbd ddf6 acbd 7839 94bb
00000150: 788c 4b3d 6105 03bd 1a08 58bd 8046 1dbc
00000160: f178 563d 6d0a 1abd 8f00 b43d 55d1 a1bc
00000170: 42ae 9d3d b91c 9d3d 77d8 9fbd b320 d5bb
00000180: e7ba f9bc 79e0 9c3d 9d9b 813d b626 883d
00000190: df7a e5bb 80b8 173d 3edb 83bd 45e1 abbb
000001a0: b6f8 c63d 3b80 6c3d 9210 afbb cc5b a1bc
000001b0: 17de 0e3d 1df7 ba3d 8571 f7bd 30f0 df3c
000001c0: bdce a6bb 449b ebbd 114d f4bc 3d56 443c
000001d0: fe35 9fbd ffc6 86bd a5ce 08bd dd82 263e
000001e0: 7b67 463d d48b df3d b91e 4cbd 7eb3 9fbd
000001f0: 1882 2dbc 96f9 e53b 298b be3d 0dd9 5dbc
00000200: 99a4 743c 3bbd 533c af55 59bc 0d14 c739
00000210: bf54 8dbc 4314 c7ba b523 7ebd d4ff 7ebc
00000220: d6d5 c4bb 4fc3 b2bd d93f 703d 363b af3d
00000230: 7d6f 693d 2004 10be c4f6 febc af20 11bd
00000240: 6714 3cbd 4d4e 3e3d 192e 49bd d3c6 013c
00000250: 90df 9ebd bad4 9dbd 9c0b 383b 6325 1f3d
00000260: 3035 c5bd 5aef c03c 2896 74bd afd3 b5bd
00000270: cd47 adbc 9d05 b8bc 59f3 fe3c 53b1 113d
00000280: f6d0 b4bd db40 aa3d df35 c3bc edba 8bbc
00000290: 49ff 973d 53ce 03b7 4b19 c23d 2e4d 17be
000002a0: 87de 213e 8f9c 2abd d380 903b 9450 92bd
000002b0: b673 ce3a 0c74 5abd b8e6 af3d 1a7a c8bd
000002c0: d60f 24bd 2ea9 96bd 950f 8dbd 67a9 8dbd
000002d0: 1fac 3dbc 921f 7b3b 824e e63b f8df 12be
000002e0: c3d6 d13c ac09 b13d ddfc 823a ce90 a93c
000002f0: 9e70 a13c d35e 14bd 2820 38bd 8806 d3bb
00000300: f6e6 873c 702f 13bd 05f7 60bd 3805 d1bd
00000310: 5fc6 9ebb acd8 bbbc 4ce2 09bd 653d 083d
00000320: 1cbd 23bc 9808 9a3d 0fc1 70bc 794a 2bbd
00000330: 2516 a0bc 5b57 b73d 26a2 003d 8a9a bc3c
00000340: 4a1b 83bc 59af 483d 9623 a6bd 7a7b cd3c
00000350: 8a53 953d 7c8f 2abd 06cd 1a3d a562 f23d
00000360: 8f11 d83c 2ec0 073d b86e 043c 8d66 1fbe
00000370: 57ab ddbd 0c8a 063c 76ed 0a3d 4933 3d3e
00000380: e7f1 8abd fe45 4ebe 7d85 1d3c b862 6dbd
00000390: 5311 0dbc a477 acbd ff90 15bd 450d 0d3b
000003a0: ea93 46bd c7aa d7ba 792f ad3d 245e 1f3d
000003b0: a050 f9bd 7686 09bd 7855 91ba ad6e 94bc
000003c0: 3e45 12bd 2f12 433d 4fa1 3ebd 53b8 f23d
000003d0: 4a57 983d 2cfd b7bd 8b56 20bc 4207 f83d
000003e0: e445 233a 13cc 7f3d d46d 4cbd c801 623b
000003f0: ceaa 63bb 11b6 3bbb 1a0b 423d bce8 953d
-0.13091071 0.09774415 -0.040649123 0.0004559824 0.100277685 0.02023109 -0.07227192 -0.101397656
-0.009149605 0.031450503 -0.0130947055 -0.011357003 -0.05378544 0.09847261 0.03533324 0.22186743
-0.012093296 0.11878489 -0.01765456 0.011873999 0.081294864 -0.04074476 0.02029748 -0.011022691
-0.087650806 -0.0071510863 0.013600366 -0.11631492 -0.0001531896 -0.08344735 0.009932629 0.002734778
0.0768536 0.0420602 -0.029384729 0.017796643 -0.014297035 -0.07658529 0.058562834 -0.011025854
0.022602664 0.01903088 -0.03170932 -0.073454365 0.08654998 0.16823044 0.08832003 -0.007005821
-0.024398988 -0.10241171 0.09014758 -0.123346694 -0.11118886 0.0066808937 0.07748175 0.01855141
0.03627916 -0.05396823 -0.027941255 -0.0690495 -0.0002033669 0.055517443 -0.08877932 -0.05988421
0.00086973986 0.02533496 0.038995534 -0.023187455 0.0011567306 0.07554418 -0.014695474 -0.09608743
0.11378895 0.04929204 0.028040754 -0.15932256 0.084504575 -0.0840582 0.0018030865 0.008430805
-0.02542993 -0.06986194 -0.08445523 -0.0045234524 0.04969451 -0.03198755 -0.0527421 -0.009599328
0.052361432 -0.0376076 0.08789169 -0.019753138 0.07699253 0.07671494 -0.07804959 -0.006504142
-0.03048463 0.07660002 0.06328509 0.066480085 -0.0070031728 0.037041187 -0.064383015 -0.00524536
0.097154066 0.057739478 -0.0053425515 -0.019697092 0.03487977 0.09129164 -0.12082199 0.02733621
-0.005090563 -0.11504224 -0.029821904 0.011983451 -0.0777397 -0.06580924 -0.033400197 0.16260858
0.04843853 0.10915342 -0.049833987 -0.07797907 -0.010590099 0.0070182784 0.093038864 -0.0135405185
0.014931821 0.012923534 -0.0132650575 0.00037971177 -0.017252324 -0.0015188534 -0.06204577 -0.015563924
-0.0060069365 -0.087286584 0.05865464 0.085562155 0.05699109 -0.14064074 -0.031123526 -0.03543156
-0.045917895 0.046461392 -0.049116228 0.007920939 -0.07757485 -0.0770659 0.0028083092 0.038854014
-0.09629285 0.023551632 -0.059713513 -0.08878266 -0.021152401 -0.022463614 0.031121897 0.0355695
-0.08828919 0.083131514 -0.023829399 -0.017056907 0.07421739 -7.856247e-06 0.094774805 -0.14775535
0.15807544 -0.041653212 0.0044098883 -0.07144275 0.0015751037 -0.053333327 0.08588928 -0.09788914
-0.040054165 -0.07356487 -0.06887738 -0.069170766 -0.011576681 0.0038318378 0.007028402 -0.1434325
0.025615102 0.08644423 0.0009993572 0.020698931 0.01970702 -0.036223244 -0.04495254 -0.0064399876
0.016589623 -0.03593391 -0.054923076 -0.102060735 -0.004845425 -0.022930466 -0.03366308 0.033261675
-0.009993818 0.075211704 -0.014694466 -0.04181907 -0.01954181 0.089522086 0.031404637 0.023022909
-0.016004223 0.04899535 -0.08112256 0.025083292 0.072913244 -0.041640744 0.03779318 0.11835221
0.02637556 0.03314226 0.008083038 -0.15566464 -0.10823696 0.008211624 0.033917867 0.18476595
-0.067844205 -0.20143887 0.009614346 -0.057955474 -0.008610087 -0.08421257 -0.036515232 0.0021522802
-0.048480906 -0.0016454094 0.0845632 0.03890814 -0.12173581 -0.033575498 -0.0011088094 -0.01811918
-0.035710566 0.047624763 -0.046540555 0.11851563 0.07438524 -0.089838356 -0.009786258 0.12110759
0.0006228371 0.06245048 -0.049909428 0.0034485925 -0.0034739259 -0.0028642456 0.04737387 0.07319781

network_body._body_endoder.seq_layers.2.bias f4 [256]
00000000: 9134 e33b ece8 9e3b d4a6 36ba 980e 123c
00000010: 95bb a6bc 1fa9 41bc 1462 0dbd 7f27 36bb
00000020: 056e 7f3b eb90 903c 4099 073b c4b6 0dbd
00000030: c4b2 83bb d2a5 12bc fa2a 05bc 6565 70bc
00000040: 1832 3fbb a633 e0bb 2939 d83b bc7c c6bb
00000050: 1189 bd3b 1c3f 3dbc f2f3 9ebb 0e5b 3cb9
00000060: 9f33 c4bb e803 3cbb 5c81 c0bb 6e9b 97bb
00000070: b4c7 613b 3dc9 bf3b eeb4 823c 88c2 90bc
00000080: 0b10 43bc 1cb4 9bbc 87d4 bebb 60bb 073c
00000090: 2f11 a43b ae59 0bbc 077a d33b f368 853c
000000a0: 546d c53c 0146 48bc 301f 853c a0f7 0fbc
000000b0: 0d12 e93b 8c45 c5bc c291 abbb 9fce ecbb
000000c0: 7e37 323c bbc9 fe3c b6a1 09bc eb05 7dbb
000000d0: 7143 cfbc 34e9 dc3a 9c63 67bc a8e4 8a3b
000000e0: c049 603b 61a9 03bc 4aa2 f8bb 2c55 3bbc
000000f0: 3834 32bc 7ca6 9cbc 7e03 9a3a e830 573b
00000100: 302e 42bc b228 503c 7b85 49bc 4dbc 08bc
00000110: 0abb 03bb 03f8 16bc f60b 373a f53c 5f3b
00000120: 455d 40bc d6fa 333b efd9 aa3b 1c67 adbb
00000130: eb6e 31bc 0c0b 233c 1787 46bb 0554 c1bb
00000140: 7541 773c b5fa 4839 078e f83b 599e 81bc
00000150: 32b9 ac3c 97b3 e33b d1be d0bc c312 84bb
00000160: d633 723c 144e 123b 5d39 babc 90a5 ddba
00000170: aa9f 92bc c5b3 69bc 4e77 483b 0102 37bc
00000180: 471b 1dbc 865a 07bc 0257 59bb a3b6 77bc
00000190: c57c 11bc cb70 8a3c 1fd5 95bb a6bf f93b
000001a0: 3d8c bdbb 0d85 0e3b 0d3b 2e3c e9f5 98bc
000001b0: 3bc6 4abc b823 26bc d6e9 49bc 9758 3d3c
000001c0: 39e6 1ebb 2a3d b8bc 6966 1fbc e4c1 c83c
000001d0: b7a2 2dbc 26d0 18bc 3ae1 0a3a 18cf 7bbc
000001e0: 646e 0dbc b90d da3a bc79 adbb 1ca6 013a
000001f0: 7b52 a0bc 5514 2abb a97c 223c c5fa fe3c
00000200: 3b0f 223b 57e6 b9bb fec8 753c d061 cdbb
00000210: db1c 5dbc dd82 30bc bdbb 22bc 3c36 abbc
00000220: de5e dd3a 934e 593a 4d4c 82bc 246f d8ba
00000230: 44c5 3abc 9b34 0e3a 8680 91b9 d1fe ccbb
00000240: 674c 593c c128 5cbc d84c cebc 5580 3cbc
00000250: a464 103d f89f feba 2a82 62bc 26aa 21bc
00000260: ce50 c6bb d19d b73c ec27 88bc 7f56 efbb
00000270: ef51 943c 6e94 f33c 8b64 5dbc 966b 25bc
00000280: 96e6 593b 74f8 753c 51e2 843c 3dc9 5cbc
00000290: 5756 a1bb d411 fabb 04f5 01bd 5e09 7e3c
000002a0: 70a0 653c 5666 61bc 637d d93c bc96 7c3c
000002b0: 7105 843c a764 45bc 78ea c6bc fb55 f03a
000002c0: f949 663c 6eb6 523a cd08 8bbb 6055 d8ba
000002d0: 2e67 113c 50a6 9a3b e807 4f3a ef4f 05bd
000002e0: 853a 31bc 65ef 663c 2808 283c 4961 183c
000002f0: 11a1 1cbc cb31 d4bc a7b8 6d3b 02e6 ac3c
00000300: 54e0 7a3b 38c0 173c 5eb5 a0bc 3630 00bc
00000310: 766a 723c 185c eabb f7cb 8b3c 7ba2 67bc
00000320: baab 81bc 5cf8 e53b bdc3 d0bc 4e0d e83c
00000330: cbd7 27bb cc08 efbb 925f 153b 3db2 8fbc
00000340: dd56 5e3c 8419 553c 4269 823c 3d0e a8bc
00000350: 5f47 7ebb 6526 d3bb 2cda c6bb 9f2c 253d
00000360: b8bd 093c 64f6 94bb 9bf6 98bc ec7a b53b
00000370: 8345 bd3a 45ed ccbb 62dd e43a 25b8 9e3a
00000380: 7059 483c f3ae 2ebc 026c 21bd a386 3b3c
00000390: a29c aa3b 52a2 0d3c 891d b4bc 799c 7c3c
000003a0: 0deb f3bb 87f2 793c efcc 983c 151f 3fbc
000003b0: 8099 0e3c 8c42 2e3b 6e6c 8037 e3d9 5ebb
000003c0: 0960 13bc fff4 eb3b 3a9b 9f3b 57af d03b
000003d0: f8cd 6b3b de4b 8f3c b86d d8bb 6713 62bc
000003e0: d244 49bc 3def fe3c 5d8f 9cbc a56e b43b
000003f0: 45e9 9f3b 3229 01bd a73f 21bb 6572 953c
0.0069337566 0.004849544 -0.00069676084 0.008914612 -0.020353118 -0.011820107 -0.034517363 -0.0027794538
0.003897549 0.017647227 0.002069071 -0.034598127 -0.0040191133 -0.008950667 -0.008127922 -0.014672612
-0.0029174145 -0.0068420945 0.006598611 -0.00605735 0.005784162 -0.011550691 -0.004850858 -0.00017962998
-0.005987599 -0.0028688852 -0.005874796 -0.004626683 0.0034451308 0.005852847 0.015955415 -0.017670885
-0.01190568 -0.019006781 -0.005823675 0.00828442 0.0050069313 -0.008505268 0.006453756 0.016285395
0.024099983 -0.0122237215 0.016250223 -0.008787066 0.0071127475 -0.024081014 -0.0052358815 -0.0072267796
0.010877488 0.031102052 -0.008400371 -0.0038608264 -0.025300713 0.0016854168 -0.01412287 0.0042386837
0.0034223646 -0.008035989 -0.0075877057 -0.011433881 -0.010876708 -0.019122355 0.0011750308 0.0032835547
-0.011851832 0.012705015 -0.012299891 -0.008345676 -0.0020100498 -0.009214404 0.00069826783 0.0034063433
-0.011740987 0.0027462742 0.005213968 -0.0052918326 -0.010829668 0.009951364 -0.0030292922 -0.0058999085
0.01509129 0.00019166882 0.0075852904 -0.015822576 0.021084402 0.006948899 -0.025481613 -0.004030557
0.014782866 0.002232437 -0.022732431 -0.0016910303 -0.0178984 -0.014264052 0.003058869 -0.011169911
-0.009589023 -0.008261329 -0.0033163433 -0.015119228 -0.008879845 0.016899487 -0.004572525 0.007621723
-0.00578454 0.0021746785 0.010634196 -0.018671947 -0.012376363 -0.010140352 -0.012323817 0.011556766
-0.002424611 -0.022490103 -0.009729006 0.024506517 -0.010597876 -0.00932697 0.00052978436 -0.015369199
-0.008632276 0.001663617 -0.005294053 0.00049457117 -0.01957058 -0.002595206 0.009917417 0.031125436
0.0024728316 -0.0056732106 0.015001534 -0.0062677637 -0.013495649 -0.010773388 -0.009932456 -0.020899884
0.0016889235 0.00082896015 -0.015905524 -0.0016512615 -0.011399571 0.0005424709 -0.00027752313 -0.0062559624
0.013262845 -0.013437451 -0.025183126 -0.011505206 0.03525223 -0.0019426337 -0.013824979 -0.009867227
-0.006052113 0.02241412 -0.016620599 -0.0073040123 0.018105475 0.029733863 -0.013512741 -0.010096451
0.0033249012 0.015012849 0.016221197 -0.013475713 -0.0049236226 -0.00763152 -0.031727806 0.015505163
0.014015302 -0.013757309 0.026549047 0.015416797 0.016115876 -0.012047923 -0.024281725 0.0018336171
0.014055722 0.00080380484 -0.0042429925 -0.0016504936 0.008874698 0.004719533 0.00078976015 -0.032546934
-0.010817175 0.014095162 0.010255851 0.009300538 -0.009559886 -0.02590265 0.0036273391 0.02110577
0.0038280683 0.009262137 -0.019617733 -0.007823994 0.01479589 -0.0071520917 0.017065031 -0.014137859
-0.015828956 0.007018132 -0.02548396 0.028326657 -0.00256108 -0.00729475 0.002279256 -0.017541045
0.0135705145 0.013006572 0.015919331 -0.020514602 -0.0038799865 -0.006443786 -0.0060684886 0.040325757
0.008407049 -0.0045459736 -0.018672278 0.005538335 0.0014440272 -0.0062538707 0.0017460997 0.0012109323
0.012228355 -0.010661828 -0.039409645 0.011445674 0.0052066604 0.008644657 -0.02198674 0.015418165
-0.0074437917 0.015255577 0.018652407 -0.011665125 0.008703589 0.0026589958 1.530928e-05 -0.0034004382
-0.0089950645 0.0072008367 0.0048707994 0.0063685584 0.0035980921 0.017492231 -0.0066048764 -0.013798571
-0.012284474 0.031119937 -0.01911133 0.005506354 0.004880103 -0.031533428 -0.002460459 0.018243024

network_body._body_endoder.seq_layers.4.weight f4 [256, 256]
00000000: 7d3b c73d 78b7 203d e20b 353c 43bf 12ba
00000010: accb 34bd 3b0f 66bc 23d8 22bc 4ca9 f73c
00000020: 6cb3 6f3d 55ab ddbb 3fc4 a6bd 4c97 31bd
00000030: 3392 ffbd 8fdc 91bb 6e80 e03d 9d65 41bc
00000040: d7b5 fabc 7556 95bb 94a4 b7bc fc6e a63a
00000050: d9dd aabd 571b e4bb 5013 5dbc 9f30 b7bc
00000060: f548 b1bd 31b1 51bd 40df fb3c d8ca 9abc
00000070: e15b 50bd fe03 cf3d 5957 18bd e9eb cdbd
00000080: 1d64 cebc 280d 763d f39e 4ebd eb94 1d3d
00000090: 0802 c4bd b48b 203d 0085 753c 4cc5 e7bd
000000a0: 2fde 183d 9b3f acbd 02d5 cfbd 8d9f 743c
000000b0: cb88 6f3e 19fb 87bb 410c 2dbd 3a50 32bd
000000c0: bd5f 4ebc 0abf 2c3d bcbd 753c 257d 52bd
000000d0: 488f 903d aca7 e4bd a5ff f43c 3505 1f3d
000000e0: 76de 56bc d0d6 8c3d b34d 2fbc 4c3c 523c
000000f0: 18e3 3d3d 808e 18bd d076 ad3c b610 c13d
00000100: 3d20 d63d 09ce 93bb 4218 b5bd 83fe fb3b
00000110: 7c4a 8abc ce35 31bd e022 123b 4770 3ebd
00000120: b053 bcbd 2018 583d 7c53 693d 1a71 1a3d
00000130: 255c 36bd 5053 8abc 4f74 883c 958f 26bd
00000140: 8ab4 0f3e 39b1 7e3d 443e 653b 7fcf 913c
00000150: 66a8 183e 2375 023e ce38 b2bd 9c55 c63c
00000160: d7d6 9b3c 81d8 4abd 8033 95bc 789c c33c
00000170: 16ba 833d 5d29 a7bd c3bc a1bd 1669 c6bc
00000180: 17ca 14bc 38ea c9bd 5676 2a3d 5689 95bd
00000190: e539 993c c561 4dbd f607 dd3d 54fb 13bd
000001a0: 5238 8c3c 3ab6 88bd 93da 333d dbf2 c9bd
000001b0: 10d1 9ebc 792d 36bd ddd5 cabc fd62 ae3c
000001c0: 9e87 52bd 1375 bbbb 31d5 a3bd 85fb 84bd
000001d0: c2fb b3bd 9c36 963d d722 733d c5dc 453d
000001e0: 1e41 3abc 8f51 80bd 3efb ba3c 0605 6fbd
000001f0: 8d59 173e ff10 97bc f8ec 983d 3443 083c
00000200: 46ff 8ebc 60ae 23be d107 663d 33a0 20bc
00000210: 25cb f7bc 421e d3bd f2a1 683c e9c4 cd3c
00000220: e7a2 5ebd 9b4b 453c 0705 81bd b4ce 833b
00000230: 37f5 973d 73ca e3bb 124d 9abc fbd5 783d
00000240: 54db 763c 0ea4 aebd 9df2 dcbd 6f63 983d
00000250: a743 903d 38b4 973d 9e33 6abd 73c5 54bc
00000260: 1982 303c 2a82 083b d0bb 7abd a8e6 42bd
00000270: 47eb 603b a400 ad3d 246a 6abc 0be1 c03d
00000280: d3b0 61bd 70ea 173d ad18 a33c a39f 27bd
00000290: b0fd 16bd 873d 6a3d fc85 a2bd af04 62b9
000002a0: 1de0 8d3c ddc9 a73c 1d8b 6e39 ded0 043d
000002b0: 092d 963c e7d5 c6bc eae4 c9bd a9fa 933c
000002c0: 3c9a acbc de4d 95bc b872 32bc 496a 96bd
000002d0: 1487 58bd c847 c13c 9db2 283e 100b 13be
000002e0: ce17 d9bd f600 083c 880a 73bc b691 2dbd
000002f0: 7bc0 013c f200 42bc f453 8dbd 0ede a8bd
00000300: b19c 853c 0007 c0bd 8c24 bebb d2e7 a7bd
00000310: 9826 b0bc 726b 6bbd 9ff5 3a3d 9615 c53c
00000320: 9952 453c a891 8b3d bd8a b43d f898 6abc
00000330: 08be 9b3b 7521 843d f3ab 23bd 2bd2 62bc
00000340: 4f3a 843d 84d2 3abd 24bd b63d ebed 6d3a
00000350: 8d6c f13c 0048 553c bbba 1d3d 0f60 b43d
00000360: 2581 d23c 4a7a 48bd 3495 cf3a 53ec adbd
00000370: ebda 22bc 4ffc 653d 7313 97bd bc73 8e3d
00000380: 0936 96bb 76a8 523d fb29 1abe ae47 b13c
00000390: 3496 173d 4347 6a3d 2dad d6bd 09f6 a43d
000003a0: 2efd fe3c caf2 4a3d 0ad4 09bc 77a6 64bd
000003b0: f318 c83b f3fb 68bd a3fd eebd c55f 4f3c
000003c0: a1c7 03be 441e a1bd fafe fb3b c733 d83b
000003d0: 72d6 723d 1236 b4bb acca 1abe 1ad7 10bd
000003e0: 0802 d43a e183 373d bc02 41be c818 e2bc
000003f0: 10bf 79bd ab49 363d 381d 363d 957c 97bd
0.09728143 0.03923747 0.011050196 -0.0005597958 -0.04413955 -0.014041717 -0.009939226 0.030232094
0.05852072 -0.006764809 -0.081429 -0.04335718 -0.12479057 -0.0044513415 0.10961996 -0.011804012
-0.030604286 -0.0045574256 -0.022417344 0.0012697871 -0.08343095 -0.006961267 -0.013493374 -0.022362052
-0.086564936 -0.051194374 0.030746102 -0.018895552 -0.050868873 0.10108183 -0.037192676 -0.10054762
-0.025194222 0.06007114 -0.050444555 0.038472097 -0.095707 0.03919573 0.014985323 -0.11316928
0.037321266 -0.08410569 -0.1014805 0.014930618 0.23392026 -0.004149806 -0.042248014 -0.04353354
-0.012596068 0.042174377 0.0149988495 -0.05138888 0.07058579 -0.11164793 0.029907057 0.038823325
-0.013114562 0.0687691 -0.010699677 0.012831759 0.04635915 -0.037245274 0.021174818 0.094270155
0.10455368 -0.0045106453 -0.088425174 0.0076902523 -0.01688122 -0.043264203 0.002229862 -0.046493795
-0.091956496 0.052757382 0.056964383 0.03770552 -0.04452147 -0.01688543 0.016657023 -0.040664274
0.14033714 0.06218073 0.003497974 0.017799137 0.14907989 0.12739997 -0.08702241 0.024210744
0.019023342 -0.04952288 -0.018213034 0.023878321 0.064319775 -0.08162186 -0.078973316 -0.02422003
-0.009081385 -0.09859127 0.04161676 -0.073015854 0.018704364 -0.05014207 0.10792534 -0.036128357
0.0171167 -0.06675382 0.04390962 -0.09860774 -0.019386798 -0.04447696 -0.024760181 0.021287436
-0.051398866 -0.0057207434 -0.079996474 -0.06493286 -0.08788253 0.07334635 0.059359398 0.048306245
-0.011368064 -0.06265556 0.02282488 -0.0583544 0.14780255 -0.018440722 0.07467073 0.008316804
-0.017455708 -0.15984488 0.056159798 -0.0098038195 -0.030248234 -0.103085056 0.014198767 0.025118308
-0.054354575 0.0120419515 -0.06299787 0.0040224437 0.07419818 -0.006951624 -0.018835578 0.060750943
0.01506694 -0.08527385 -0.10788462 0.074408405 0.07044154 0.07407421 -0.057178132 -0.012986529
0.010773205 0.0020829537 -0.06121427 -0.047583252 0.0034319924 0.08447388 -0.014307532 0.094179235
-0.055100273 0.03708881 0.019909227 -0.040923726 -0.03686303 0.057187583 -0.07935712 -0.00021554784
0.01731878 0.020481998 0.00022749272 0.032425754 0.018332021 -0.024271918 -0.09858115 0.01806386
-0.021069638 -0.018225607 -0.010891609 -0.07344491 -0.052863196 0.023593798 0.16474386 -0.14359689
-0.106002435 0.00830101 -0.014834054 -0.04237529 0.007919426 -0.011841046 -0.069007784 -0.082454786
0.016310068 -0.09376335 -0.0058026966 -0.08198513 -0.021502778 -0.057475515 0.0456444 0.024058145
0.012043619 0.06814891 0.08815525 -0.014318697 0.004752878 0.06451694 -0.039958905 -0.013844053
0.06456434 -0.04561092 0.089227945 0.0009076285 0.029470706 0.013017654 0.03850816 0.08807384
0.025696347 -0.04894475 0.0015837313 -0.08492341 -0.009939889 0.056148823 -0.073767565 0.06955668
-0.004584078 0.051430188 -0.15055077 0.021640625 0.03700848 0.057196867 -0.104822494 0.0805474
0.031126585 0.049547948 -0.00841237 -0.055822816 0.00610649 -0.056880902 -0.11669471 0.012657111
-0.12869121 -0.07867101 0.0076903077 0.006597969 0.059286542 -0.0054996097 -0.15116376 -0.035361387
0.0016174922 0.044803504 -0.188487 -0.027599707 -0.060973227 0.04450385 0.04446146 -0.07396809

network_body._body_endoder.seq_layers.4.bias f4 [256]
00000000: 00c8 45bc e31e 75ba 7af3 e93b 641a 2bbc
00000010: 0a63 7c3b 29ad f63b c124 eeba 273f a23c
00000020: 6b7c 393c 780c f6bb f2c1 ef3b e56f f13b
00000030: 4436 c2bb 5a0b a5bb e772 89bb ecdc 08bd
00000040: 3904 133c 3772 893c b256 a9bc 5a52 ad3a
00000050: 3052 94bc c6fb 4a3b 6015 733c 154f b2bb
00000060: 93da 32bc 63f1 a53c c4a2 37bc 57ce 3e3a
00000070: 31df cb3b 81fc 233b c7dc 7c3c 8d1e dd3b
00000080: 44ff dc3b 39d3 4d3c 7240 24bc 1344 ab3c
00000090: 3c3f bcba e48a d9bb badc 43bc 4799 42b8
000000a0: 980c a3bc 2a5e e9bb 6b27 443b 6356 83bc
000000b0: fa42 d73b 442f 9c39 6c27 09bc 0599 183c
000000c0: bcad e1bb d826 263c 9b15 02bc 5b59 7abc
000000d0: 325b 973b 03f4 283c 0428 9ebc 56fa d3ba
000000e0: 5034 02bd 7f0c e6ba 7d92 ebbb 8174 0a3b
000000f0: 59f0 733b 2fc8 963c fd5b 543b 27fc e73b
00000100: 237e 7ab9 2ba1 2b3c 0f66 963b 7e24 413c
00000110: 7c3a 383c b3d2 eebb 7867 1dbb e109 bcbb
00000120: 5308 d139 9886 22bc d8f6 6d3b b72f a6bc
00000130: ad94 b4bb dd68 24bb 46e4 3abc b7f8 47bb
00000140: 912d 53ba 4de8 b23a ae46 9339 8bbe 123c
00000150: 29c0 8cbb 5e5a 933b 97b2 5fbc 613c 84bb
00000160: e819 d83b 2921 363c 0c7e 203c 1c8e 213c
00000170: 52b4 80bb bfe5 1939 3e06 b73c 0be6 e93a
00000180: ed90 4dba b079 aa3b bc3b f5b7 848a 59bb
00000190: 9fdf 063c f0e5 acbc 5265 24bc 7431 97bc
000001a0: 62c1 a13a 091c 00bd 5295 c7bb 729d af3c
000001b0: 2270 81bc a704 06bb 6f84 843c 1e6e 4dbc
000001c0: 1553 04bc c9c7 41bc 243e 52bb 4f91 803b
000001d0: 6979 893b c70b 96bc 6749 b9bb 043e 02bc
000001e0: cc35 94bc 76cb d93c d6d1 593b 2a09 3a3c
000001f0: 5101 7bbc 43fa ad3b d5af 3f3c d76e 533b
00000200: f1ca bdbb 8944 383c 8cfd 04bb 10d8 303b
00000210: 2141 3b3c 93f6 b5bc 5739 323b 7e2b 29bc
00000220: 6260 e0bb f2a3 10bc 20ed 1abb cda9 e03b
00000230: b4d2 fd3b 69ab a2bc 0e85 823a ef87 3a3c
00000240: d976 b5bb c1e3 12bb 8b75 55bc 0b3d bdbb
00000250: f71a 183c 758c 29bc cb12 52bc aef0 5dbb
00000260: d8fa ce3c 1c6d 84bc 5ca7 71ba a060 d13b
00000270: 1c5b 8b3c c288 9e3c b88d f83b bf56 61bc
00000280: 664c 083c 58cf 90bc 330d 4ebc a13d 0cbc
00000290: 77e3 14bc 4f57 2fbb 2130 4dbb c2f9 bd3b
000002a0: 568e e4bb bd86 97ba 025e f93b 5f85 d23c
000002b0: 1193 363b 07a9 7e3b 192d c03b 85a6 683c
000002c0: 5305 a9b9 4303 14bc fcc0 d73c 863a c3bb
000002d0: 5410 9fbb 651a fe3b 15e3 bcbc aba1 4c3c
000002e0: f980 073b b51b 96bc c7e1 09bc b374 f93b
000002f0: a56f 6a3b 3db9 3abb ba8d c538 6c01 77bc
00000300: 283b cebb c63f 153c 2078 f7ba 78c7 743b
00000310: 433f 8e3c 97cd b93c 9787 31bc 5d34 97bc
00000320: 2d45 9a3b db41 74bc a58a 2cba 7ac2 253c
00000330: 2540 e93c 238b f5bb b5f2 dc3b fc12 153b
00000340: 27e3 a13c a746 a83c 94f9 7f3c 4c02 86bb
00000350: a916 af3c 7495 e9ba 7a09 3b3b 7037 ca3c
00000360: d839 1f3b f8a4 523c 5fe0 a43c d532 92bb
00000370: bcea af3a 67c8 303c 8ef9 563c 1ef6 763c
00000380: 868a 1c3b 0f57 63bc 982c 903c b43c 373c
00000390: 6b7c e03c a496 5c3c 6ce6 213c 2d5b 093c
000003a0: 2293 93bb 4226 7b3b bb77 523c b2b4 a53b
000003b0: 3fe8 78bb 75c4 acb9 e509 8b3b 99e1 58bc
000003c0: 2ff6 9ebb 9bd7 4d3c 3ff0 203b 252b 08bc
000003d0: f3dd 03bc 4f27 1c3c 558c 653b 4ce8 e03c
000003e0: 9020 25ba 02a3 7dba a814 233b fd1e 7d3c
000003f0: e8ae d9bb 92c4 563b f25d 023a 4532 7d3a
-0.0120716095 -0.0009350611 0.0071396204 -0.010443304 0.003851118 0.0075279665 -0.0018168913 0.019805504
0.011321167 -0.0075088106 0.0073168213 0.007368075 -0.005926879 -0.0050367536 -0.0041946056 -0.033413813
0.008973175 0.016778095 -0.020671222 0.0013223395 -0.018105596 0.0030972823 0.014836639 -0.005441556
-0.01091637 0.020256704 -0.01120824 0.0007278672 0.006221675 0.002502233 0.015433497 0.0067480267
0.006744297 0.012562566 -0.010025131 0.020906484 -0.0014362107 -0.0066388715 -0.011954481 -4.6395955e-05
-0.019903466 -0.007121821 0.0029930722 -0.016032403 0.0065692635 0.00029789854 -0.008371215 0.009313826
-0.006887166 0.010141097 -0.007939721 -0.015280093 0.0046190256 0.010312083 -0.01930619 -0.0016172628
-0.03178817 -0.0017551332 -0.0071890936 0.002112657 0.0037222116 0.018406002 0.0032403462 0.0070796194
-0.00023888847 0.010475437 0.004589803 0.011788486 0.0112444125 -0.007288301 -0.002401797 -0.0057384823
0.00039869788 -0.009919785 0.003631046 -0.020286424 -0.0055108876 -0.0025086917 -0.011406964 -0.0030513236
-0.0008055801 0.0013649553 0.00028090685 0.008956562 -0.004295368 0.0044968566 -0.013653419 -0.004035518
0.006594885 0.011116304 0.009795677 0.009860542 -0.003927746 0.00014676804 0.022341844 0.0017845047
-0.0007841725 0.0052024946 -2.9234092e-05 -0.0033194134 0.008232026 -0.021105736 -0.010033922 -0.018456198
0.0012340958 -0.031276736 -0.0060907984 0.02143738 -0.01580054 -0.002044955 0.01617643 -0.012538461
-0.008076449 -0.011827418 -0.0032080496 0.003923572 0.0041953814 -0.018316163 -0.005654502 -0.007949356
-0.018092059 0.026586276 0.0033236644 0.011354724 -0.015320138 0.0053093745 0.0116996365 0.003226211
-0.0057920148 0.011246809 -0.0020292727 0.0026984252 0.011429102 -0.022212302 0.0027194822 -0.010325311
-0.006847427 -0.00882815 -0.0023639873 0.0068561793 0.007746065 -0.019857125 0.0009957866 0.011384948
-0.0055378494 -0.0022413584 -0.013028513 -0.005775099 0.009283773 -0.010348429 -0.012821863 -0.003386538
0.025266096 -0.016165309 -0.0009218359 0.0063896924 0.017011218 0.01935232 0.0075852536 -0.013753592
0.008318996 -0.017676994 -0.012576389 -0.008559615 -0.009087435 -0.002675492 -0.0031309205 0.0057975957
-0.0069749756 -0.0011560541 0.0076100836 0.025698362 0.0027858655 0.0038858072 0.005864751 0.014199858
-0.0003223816 -0.009033981 0.02633714 -0.0059579043 -0.0048542414 0.0077546113 -0.0230575 0.0124897165
0.002067624 -0.018323759 -0.008415646 0.0076127886 0.0035772112 -0.0028491758 9.420091e-05 -0.015076023
-0.006293673 0.009109443 -0.0018880405 0.0037350338 0.01736415 0.02268104 -0.01083555 -0.018457586
0.0047079534 -0.014908279 -0.0006581939 0.010117168 0.02847297 -0.007493393 0.0067428 0.0022746911
0.019761635 0.020541502 0.015623469 -0.0040896293 0.02137311 -0.001782103 0.0028539584 0.024684638
0.0024295952 0.012856714 0.02012652 -0.004461626 0.0013421397 0.010789967 0.013121022 0.015073327
0.0023886277 -0.013875737 0.017599389 0.011183906 0.027403077 0.01346365 0.009881597 0.008383554
-0.0045036236 0.0038322364 0.012845929 0.005056941 -0.0037980226 -0.00032952768 0.004243123 -0.01323738
-0.0048511247 0.012563611 0.002455726 -0.008311068 -0.008048522 0.009530856 0.0035026271 0.027454518
-0.00062991027 -0.0009675474 0.0024884138 0.015449283 -0.006643165 0.0032770974 0.00049731054 0.0009658675

network_body._body_endoder.seq_layers.6.weight f4 [256, 256]
00000000: 0660 c93d 9cb8 12be 918f 4dbd 9a15 1ebd
00000010: 8a3d efbc 9832 39bd e33d a63c fcd1 913d
00000020: 9b1c 5c3d 841f 8a3d 7039 1d3d be33 223c
00000030: eed8 d53d 63cf f8bc 74ed cfbc ff7f b63d
00000040: 5ddf 0abd 1b51 7d3d 5d05 a93d ba60 21bd
00000050: 4fae 4fbd df3c 663d aeb9 50bd eb0c b23c
00000060: e9a0 cb3d 830e 523d 2313 f0bb 55cd 71bc
00000070: 6339 fb3b 0364 923d cd1a d0bc 1c17 b6bd
00000080: d38f c9bd d2c2 16be d14c e1bd 3331 f4bb
00000090: 31ac 303d 3a47 823a 8bdf c1bc 9aa0 2fbd
000000a0: 2371 9b3d 897e c43d 164f 763d c372 b03a
000000b0: 2a6b c33d bd88 c0bd e33c 823d cca1 053d
000000c0: 7bef 08be caff 90bd fb2d 4d3d c3e5 56bd
000000d0: 68e7 63bc a463 8d3c 85f0 a3bd 8b68 e83d
000000e0: e839 ed3d 7c16 62bc 1e9e 85b9 67c7 303d
000000f0: 48f2 a03d 63a4 6b3d cdd0 9bbd bf94 083c
00000100: e882 6f3d 1727 4cbe 0649 81bc c8df 093d
00000110: 9eb6 753d d63a dabc 971a a2bd 66f3 ed3c
00000120: 6206 b93d abd4 50bd 98a9 c43a 4b78 8fbd
00000130: 5395 833d 2cf3 07bd 430a 7f3d 8a55 c13d
00000140: 54e5 b8bc 1e79 b73d b8b3 47bb 33d3 013d
00000150: 48c9 173c 721a 6abd a146 953d 85d3 893c
00000160: 07cc f93d 5a1c 9ebc aee5 163d 8596 bebd
00000170: 7845 05be 4633 7ebc ddab 8b3c dde0 84bc
00000180: 0ec8 313d 5f7f e0ba eaa5 64bd 963c 0cbd
00000190: f4f9 203d 59ca 563c 9215 2bbd b907 34bd
000001a0: 81c3 55bc 5b02 d63b 1949 0cbd 0d3c 083d
000001b0: d296 93bc efe6 26be 4d30 68bc 0161 a1bc
000001c0: 1fdf 0cbd 4baf 3e3d 300e bcbd 9da2 a93c
000001d0: b858 263c 3655 b23b e6fd 35be 5732 b03d
000001e0: 780c 41bd 3238 c43a 01c0 3e3d 448a ff3b
000001f0: 6b16 c03c 586b cd3c 05bf d7bc dd1a 7e3d
00000200: ec74 ae37 c451 7ebd d775 17bd 2691 33ba
00000210: ba37 e9bd 4a43 bd3c 0f01 08bc 29a3 e03d
00000220: 4c40 3d3d 6769 c73c 4d8e 463d 89ea f5bd
00000230: 8b0e 94bd 9df4 5a3d 767d 3dbd 0286 ecbc
00000240: a873 5a3d 7f07 0f3d d5f6 333d 29db ccbc
00000250: 0146 6f3d f71d 3a3d 172b 33bd 1eeb 073d
00000260: cab9 a4bc f4dd 7e3b 9b56 b73d b46d f13a
00000270: 3367 3c3c a6b7 433d eb26 febc 1762 943d
00000280: 0154 76bb e744 db3b d65d 9b3c 08c8 803c
00000290: 5117 053e 2a81 41bd fafc bfbc c519 1e3d
000002a0: eb07 8a3d 02d8 8ebc 6c8d b63c ce55 07bd
000002b0: e260 803c db17 89bd d1a5 70bd a84c 543c
000002c0: 570f 8ebb 470e 77bd 0093 6abc 3de9 03bd
000002d0: 3791 e6bc cbfe ab3c 40be 48bc b46c 5ebd
000002e0: b621 f33c 54d4 bcbc c0de d53c 8fd0 f83d
000002f0: e87d 70bc da4a b43d 2420 5c3d 0687 183e
00000300: e26e d1bc 7848 0ebc cb1c df3d 99fa 2abc
00000310: f0ff 84bb edd9 89bd ac5a 44bd b2a1 313d
00000320: 33c2 a63c 9694 2ebc 8c4c c93c c119 d93d
00000330: da17 403c 3c2a 973d 33ee eb3d df10 23bc
00000340: 46e7 4f3c f95b 45bd 922c a63b 9148 8dbc
00000350: 880e 033e ff96 103c 8cea 143c 95d7 08bd
00000360: d7fc ab3d 12fd e1bd 9a37 8e3d 741a e43c
00000370: 1283 b73b 53c7 363d 40ef 4a3d f500 47bd
00000380: 2d0f ad3c 9a6c a03d 3185 1abe 7114 033d
00000390: 6c34 79bd 96fe 9e3c 6a7a 923d 2174 253e
000003a0: 49db 64bd b788 6a3d 233e a9bd 3c3b 88bd
000003b0: 827a afbd f580 b63b 2b2a 623c be7d 243e
000003c0: f746 05bd fa7b 293d 444a f73b 67e0 10be
000003d0: 2d8b 80bc f9de fa3d 76f2 c5bd 8db7 dcbd
000003e0: d8ef 43bd 72ad a6bd 8386 e2bc 645b e9bc
000003f0: 92c7 b23d 922d 033d ff02 1abd b14d 2f3c
0.09832768 -0.14328235 -0.050185744 -0.03859482 -0.029204149 -0.045214266 0.020293182 0.071201295
0.053738218 0.067442924 0.038384855 0.009900032 0.10441767 -0.030372327 -0.025381781 0.08911132
-0.033904422 0.061844926 0.08252976 -0.039398886 -0.050703343 0.056210395 -0.050958328 0.021734675
0.099428006 0.05128337 -0.0073265 -0.014758428 0.007666753 0.07147982 -0.025403405 -0.088911265
-0.098418854 -0.14722756 -0.1100098 -0.007452154 0.043132965 0.000993944 -0.023666164 -0.04287777
0.075899385 0.09594447 0.060134016 0.0013461936 0.09541924 -0.09401081 0.063592695 0.032625005
-0.13372605 -0.07080038 0.05009268 -0.05246521 -0.013910152 0.017259426 -0.0800486 0.11348065
0.1158331 -0.013799306 -0.00025485543 0.043158915 0.078587115 0.05752982 -0.07608185 0.008336245
0.05847445 -0.19936787 -0.01578189 0.03366068 0.05998861 -0.026639383 -0.07915228 0.029046725
0.090344205 -0.050984066 0.0015004156 -0.07005366 0.06424966 -0.03319089 0.062265646 0.094401434
-0.02257029 0.08958648 -0.003047211 0.031695556 0.009264298 -0.057154126 0.07288862 0.016824493
0.12197118 -0.019300628 0.036840133 -0.09306053 -0.13014781 -0.015515154 0.017049724 -0.016220504
0.043403678 -0.0017127803 -0.05582229 -0.034237467 0.039300874 0.013109767 -0.041768618 -0.043952677
-0.0130471 0.0065310425 -0.0342494 0.033260394 -0.018016253 -0.16299032 -0.014171672 -0.019699575
-0.034392472 0.04655389 -0.091823936 0.020707423 0.010152988 0.005442287 -0.17772636 0.086033516
-0.04713103 0.0014970361 0.046569828 0.007798465 0.02344819 0.0250756 -0.026336202 0.062037338
2.0796862e-05 -0.062089697 -0.036977615 -0.0006849937 -0.11387582 0.023103375 -0.008301034 0.1096862
0.046203896 0.024342252 0.048475552 -0.12007625 -0.07229336 0.053455938 -0.046262227 -0.028872494
0.053332955 0.03491926 0.04393657 -0.025006847 0.05841637 0.045438733 -0.043742266 0.03318321
-0.020108122 0.0038889619 0.089520656 0.0018419535 0.011499214 0.047782563 -0.031024417 0.07245272
-0.0037586691 0.0066915634 0.018965643 0.015720382 0.12997176 -0.04724232 -0.023436058 0.038598794
0.067397915 -0.017436985 0.022284232 -0.033040814 0.015671197 -0.06694003 -0.058751885 0.012957729
-0.0043353247 -0.06031635 -0.014317274 -0.032204855 -0.028145416 0.020995518 -0.01225239 -0.054302886
0.02967916 -0.023050465 0.026107192 0.121491544 -0.014678456 0.08803339 0.05374159 0.14895257
-0.025565568 -0.00868427 0.10894164 -0.010435724 -0.0040588304 -0.06731019 -0.047938034 0.043367095
0.020356273 -0.010655543 0.024572633 0.10600615 0.011724437 0.073811024 0.11520042 -0.009952753
0.012689417 -0.048183415 0.005071231 -0.017246516 0.12798512 0.008825063 0.009089123 -0.03340872
0.08397835 -0.110345975 0.06944199 0.027844645 0.0056003416 0.044623684 0.049544573 -0.048584897
0.0211254 0.07833214 -0.15089871 0.032001916 -0.06084101 0.019408505 0.07152255 0.16157581
-0.05587319 0.057259288 -0.08263805 -0.06651923 -0.085682884 0.005569572 0.013803999 0.16063592
-0.03253838 0.041378 0.007546695 -0.14148103 -0.015691364 0.1224956 -0.096653864 -0.10777197
-0.047836155 -0.08138551 -0.02765203 -0.028485961 0.08729471 0.03202588 -0.037600514 0.010699675
