Assets/ML_PPO/results/2nd_go_30/BoatAgent/BoatAgent-49957.onnx (onnx, 834984 bytes, 13 tensors)

discrete_action_output_shape f4 [1, 2]
3.0 3.0
00000000: 0000 4040 0000 4040

network_body._body_endoder.seq_layers.0.weight f4 [256, 34]
0.04587891 0.02769834 0.06029363 0.11002692 -0.19010174 0.242415 -0.21130289 -0.010831308
-0.08151544 -0.12602288 -0.0153968865 0.07151704 0.064340994 0.050603826 0.055995032 0.19115515
0.1304938 0.06600118 0.25969058 -0.12886246 -0.15462126 -0.29794574 0.120746434 -0.11575472
-0.14247152 0.074001946 0.12540178 0.08529913 0.10615348 0.07662587 0.058399513 0.020207493
-0.051538236 0.09841531 -0.16220126 0.21411687 -0.11745215 0.017907696 0.02579127 -0.146054
-0.047420256 -0.1338376 -0.1574876 -0.11436273 -0.15026717 -0.14392199 0.22977448 0.19103234
-0.23079403 -0.037626818 0.030219274 0.044386797 0.105542034 0.33343527 0.067513086 0.009571524
-0.15795493 -0.14152302 -0.2856266 -0.07373393 -0.0008374821 0.18946272 0.06662745 0.038759705
0.083214834 -0.10229745 -0.07852333 0.23346655 0.21654013 -0.27958134 0.1295513 -0.063102566
-0.08639087 0.010441337 -0.048446964 -0.019898305 0.023419965 -0.20323963 -0.1195335 -0.07729935
0.3216301 -0.099029355 -0.1505032 0.122984886 -0.27630416 0.053008325 -0.09430466 -0.20962864
0.0788923 0.013043952 0.146202 0.055417962 0.011964398 0.13454534 -0.045497008 -0.19488843
-0.05767195 0.016136426 0.08965885 0.24762551 0.19995251 -0.05313374 0.122829586 0.08341716
-0.19337264 -0.056633886 0.09270547 0.12883876 -0.027680093 -0.018293928 0.17723086 0.09479179
-0.21379785 -0.023018554 0.100685894 -0.22643232 -0.04110638 -0.005100181 0.3553681 0.09133438
-0.40236023 -0.050921272 0.33031094 0.08825281 0.19500366 -0.076406665 -0.12092748 0.103382036
0.31316316 -0.056582168 -0.04727203 -0.029118536 -0.05041757 0.05724766 -0.26504177 0.010404232
-0.28558508 -0.16596894 -0.1730193 -0.11921283 -0.28538743 -0.017760964 0.3375282 -0.17045662
0.07376632 0.0009996882 -0.16366898 0.13902563 -0.083469026 0.21390064 0.039307397 0.06834428
-0.117405504 -0.058885362 0.022558313 -0.091139466 0.086032405 0.048082795 -0.0022957176 0.09931233
0.13470146 0.25483963 0.05022456 -0.38815844 -0.18641369 -0.1092956 0.006770495 0.25303856
0.12159484 0.1787385 0.26230958 -0.07106059 0.1509443 0.0015248328 -0.16852243 0.1605782
0.024568763 -0.15496656 -0.19772106 0.107174136 -0.14549458 -0.16613236 -0.24501078 -0.4145426
0.01142791 0.06116562 0.17277862 -0.047579244 0.33469078 -0.0015340999 0.11296352 0.17392111
0.30792052 0.048162386 0.12647201 -0.26551166 0.23014207 -0.03991157 -0.08699971 -0.106398806
-0.02597086 -0.08215867 -0.007884826 0.17073055 -0.12633766 -0.36795077 0.13785623 -0.09298107
-0.159946 0.27509177 0.12066056 -0.06710868 -0.1369237 0.03764291 -0.2255829 -0.055810858
0.023996886 0.25641778 -0.014506762 -0.008143043 -0.18043429 -0.010276322 -0.06914744 0.20381212
0.046396017 0.23205367 0.07787978 -0.06978363 -0.022833087 0.1313732 0.18137352 -0.07390322
-0.05117411 0.23975763 0.021942168 -0.02177206 0.085314125 -0.38447016 0.15722986 0.15141647
0.042375896 -0.28188926 -0.07054488 -0.17083482 -0.20055701 0.023198212 0.0801874 0.106004804
-0.05171458 0.07603974 -0.025556052 0.30525714 -0.21948889 -0.17539488 -0.30238888 -0.0634483
00000000: 86eb 3b3d a1e7 e23c 74f6 763d cb55 e13d
00000010: 08aa 42be a33b 783e c95f 58be cc75 31bc
00000020: 91f1 a6bd 240c 01be 3943 7cbc 8777 923d
00000030: 36c5 833d f545 4f3d 0c5b 653d 2dbe 433e
00000040: 2ba0 053e a02b 873d 2af6 843e 85f4 03be
00000050: 0955 1ebe 588c 98be e849 f73d d010 edbd
00000060: 0ee4 11be 558e 973d 5369 003e 4fb1 ae3d
00000070: ff66 d93d 06ee 9c3d 5434 6f3d 2f8a a53c
00000080: c219 53bd f78d c93d 1618 26be 7441 5b3e
00000090: c18a f0bd 29b3 923c 3748 d33c 2e8f 15be
000000a0: be3b 42bd b90c 09be 6e44 21be 0237 eabd
000000b0: a3df 19be 4960 13be 004a 6b3e fb9d 433e
000000c0: 4555 6cbe 941e 1abd 698e f73c eece 353d
000000d0: 6c26 d83d 07b8 aa3e 4d44 8a3d e2d1 1c3c
000000e0: f0be 21be 69eb 10be a63d 92be d101 97bd
000000f0: 798a 5bba 8402 423e f973 883d 7fc2 1e3d
00000100: 8a6c aa3d 5381 d1bd d7d0 a0bd db11 6f3e
00000110: b2bc 5d3e 4925 8fbe 19a9 043e eb3b 81bd
00000120: b2ed b0bd 2412 2b3c 5370 46bd c501 a3bc
00000130: 3adb bf3c 0d1e 50be fbcd f4bd 1f4f 9ebd
00000140: b3ac a43e e7cf cabd 831d 1abe 80df fb3d
00000150: bd77 8dbe 421f 593d cd22 c1bd e4a8 56be
00000160: 4992 a13d 4db6 553c fab5 153e f2fd 623d
00000170: 5306 443c 41c6 093e 125b 3abd d590 47be
00000180: 6c39 6cbd 8a30 843c 0f9f b73d 8b91 7d3e
00000190: 5ac0 4c3e c4a2 59bd 148e fb3d 9ed6 aa3d
000001a0: 7a03 46be eff8 67bd 5edc bd3d 4fee 033e
000001b0: 5dc1 e2bc 26dd 95bc 027c 353e 3322 c23d
000001c0: d3ed 5abe 6891 bcbc 6834 ce3d e0dd 67be
000001d0: 2a5f 28bd 6b1f a7bb cff2 b53e 850d bb3d
000001e0: 2902 cebe d392 50bd 841e a93e e4bd b43d
000001f0: 0aaf 473e 197b 9cbd d4a8 f7bd f6b9 d33d
00000200: ec56 a03e b4c2 67bd 51a0 41bd ff89 eebc
00000210: a782 4ebd 867c 6a3d 8eb3 87be 8376 2a3c
00000220: 3538 92be c3f3 29be f92b 31be db25 f4bd
00000230: 4d1e 92be 717f 91bc 7fd0 ac3e 2e8c 2ebe
00000240: cc12 973d f807 833a d798 27be bc5c 0e3e
00000250: cff1 aabd c508 5b3e cb00 213d 16f8 8b3d
00000260: 4c72 f0bd c731 71bd 36cc b83c 54a7 babd
00000270: c231 b03d 77f2 443d c073 16bb 4364 cb3d
00000280: 2eef 093e 577a 823e 45b8 4d3d b4bc c6be
00000290: 3be3 3ebe 5fd6 dfbd 07db dd3b 458e 813e
000002a0: b706 f93d 3a07 373e 714d 863e 3788 91bd
000002b0: 2591 1a3e e6dc c73a 2591 2cbe 9d6e 243e
000002c0: 6e44 c93c 8eaf 1ebe 6477 4abe 1d7e db3d
000002d0: 88fc 14be 9a1e 2abe 1be4 7abe ed3e d4be
000002e0: 213c 3b3c cd88 7a3d e1ec 303e 74e2 42bd
000002f0: 975c ab3e da13 c9ba 6b59 e73d 6018 323e
00000300: c2a7 9d3e ec45 453d e181 013e 25f1 87be
00000310: 5daa 6b3e 507a 23bd e72c b2bd 9ee7 d9bd
00000320: d7c0 d4bc ce42 a8bd 5b2f 01bc fdd3 2e3e
00000330: a95e 01be 0b64 bcbe 2f2a 0d3e dc6c bebd
00000340: e2c8 23be d4d8 8c3e e21c f73d 4770 89bd
00000350: ba35 0cbe 742f 1a3d 34ff 66be ed99 64bd
00000360: 1e95 c43c 3149 833e c5ad 6dbc 666a 05bc
00000370: c4c3 38be 055e 28bc 2c9d 8dbd 20b4 503e
00000380: c009 3e3d 7a9f 6d3e 6f7f 9f3d b8ea 8ebd
00000390: 740c bbbc b286 063e fbb9 393e 925a 97bd
000003a0: f29b 51bd 0683 753e 10c0 b33c 525b b2bc
000003b0: 2cb9 ae3d 46d9 c4be dd00 213e eb0c 1b3e
000003c0: 5992 2d3d ca53 90be d679 90bd 53ef 2ebe
000003d0: d15e 4dbe 2d0a be3c 4b39 a43d 0c19 d93d
000003e0: abd2 53bd b9ba 9b3d ed5a d1bc aa4a 9c3e
000003f0: b2c1 60be b79a 33be b7d2 9abe 2ff1 81bd

network_body._body_endoder.seq_layers.0.bias f4 [256]
-0.006064004 -0.008199923 0.008067727 -0.0039993017 -0.014111552 0.010217576 -0.00022404439 -0.0027952013
-0.0025978554 -0.0015930654 0.001159081 0.006096288 -0.001982551 -0.0055797617 0.0013723852 0.008476459
0.0006527186 0.0010237006 0.011619537 0.0017478279 0.004979342 -0.004520495 0.00075454044 -0.0084372
-0.0077691115 -0.002131445 -0.011025601 0.0058415374 -0.0054536914 -0.008669399 0.00087112637 -0.0015158652
0.011108905 -0.0038138921 0.0014198655 -0.0035724377 0.0072423113 0.00033104484 -0.0065386747 0.0015710468
0.0004783496 -0.0055369847 0.00023307481 0.0042451844 -0.008732879 0.0012407526 -0.002460796 0.01215719
-0.0036443223 -0.009713312 -0.0038505017 -0.0015624195 0.011800541 -0.011321075 -0.0024542483 0.0013345744
8.839116e-05 -0.0003295827 -0.0031243004 -0.0079154 -0.019857863 0.0056870333 -0.008274253 -0.0018312571
-9.237586e-05 0.011819201 -0.0063999854 -0.0052997028 -0.00974232 -0.004680543 0.00559288 -0.0019569006
-0.010254994 0.0014392114 0.0013792389 -0.0072478177 0.0016308919 0.0020702602 -0.008563884 0.0064957566
-0.0010261717 -0.003393736 -0.003368991 -0.002000388 0.002390372 -0.0008590056 -0.001138712 -0.007923148
-0.004509923 -0.0030316317 -0.0002302523 -0.0038903088 -0.0035140684 -0.003493545 -0.0032854918 -0.004176287
-0.0024267077 0.0055366964 -0.016483909 -0.009064282 0.012538693 0.0010957725 -0.0036391648 -0.007444351
-0.0038676283 -0.009389803 -0.0075682825 0.0008859253 -0.0064804135 -0.00010696512 -0.00038716948 0.0054169376
-8.950454e-05 -0.0010583327 0.0012784576 0.00071139133 5.2860236e-05 0.0008728818 -0.002994189 -0.007497254
-0.009046579 -0.013046669 0.0027308997 -0.006942491 -0.0039054973 0.009245216 -0.0049038148 -0.0023573723
-0.009487391 0.007853001 0.0068333563 -0.0006720015 -0.003445613 -0.0060375305 0.004195858 -0.000647636
-0.0007781764 -0.0047614365 -0.007910329 0.0024881652 -0.0048833475 -0.0041083866 -0.0053799 -0.003108031
0.00069214037 -0.004009901 -0.0004167366 -0.007884963 -0.0037121307 0.002077465 -0.0024909882 -0.0039723087
-0.00013849571 -0.0017536392 -0.014196042 0.00231488 0.0021934584 0.007617193 -0.0010233435 0.0009308341
-0.0047172913 -0.007389898 -0.009527495 0.0020678695 -0.0035071576 0.005181272 -0.009786973 -0.008837253
-0.005944144 0.005481865 -0.0055793496 -0.004483929 -0.001318973 -0.0035519574 0.004069213 0.0025795174
-0.0001850249 0.0045552975 0.00022924636 -0.0011751333 -0.003392385 -0.00016104721 -0.0021055366 0.00058092317
0.0024023913 4.1461208e-05 0.007615757 -0.0058675455 0.0017536542 0.0031823516 0.0015901561 -0.00049869955
-0.0048754844 0.004651341 -0.0006484277 -0.008487101 0.0006448986 0.004153343 0.003861695 -0.005665036
-0.0023558657 -0.009323159 -0.003505206 -0.0016428465 0.008989016 0.0060079684 0.006309389 -0.010761737
-0.00672053 -0.0062377187 -0.0056820665 -0.010139206 -0.00024903828 -0.003276739 -0.003791351 0.0062631667
-0.004854658 -0.0009824956 0.0059074536 0.0017153259 -0.009273144 0.0014775092 0.0012121293 0.00026498953
-0.0011252401 -0.0042468156 0.00023948653 0.004728966 -0.0006836583 -0.0044568703 -0.005134779 0.0058515016
0.0017100818 -0.0075675976 -0.0036635438 -0.005830692 -0.009474725 -0.007268561 0.0024327259 -0.00536781
-0.0016588122 -0.005922016 -0.006921758 -0.010041334 -0.004713021 -0.0016150617 -0.0029232947 -0.0041998723
-0.0037690308 0.013444328 -0.007278333 -0.008673038 -0.005605043 0.0010906992 -0.007283975 0.00030519842
00000000: 8db4 c6bb f858 06bc 802e 043c 930c 83bb
00000010: 2434 67bc 9f67 273c 75ed 6ab9 b22f 37bb
00000020: c840 2abb 68ce d0ba 4eec 973a 5fc3 c73b
00000030: b0ed 01bb 6fd6 b6bb 9be1 b33a d9e0 0a3c
00000040: 341b 2b3a b12d 863a df5f 3e3c 5f17 e53a
00000050: c029 a33b a920 94bb 5acc 453a 2f3c 0abc
00000060: 0894 febb b7af 0bbb b9a4 34bc 5e6a bf3b
00000070: e1b4 b2bb 180a 0ebc 4d5c 643a ffaf c6ba
00000080: 2002 363c 7ef2 79bb c81a ba3a 8f1f 6abb
00000090: e950 ed3b 1690 ad39 6142 d6bb 95eb cd3a
000000a0: ffca fa39 986f b5bb 8b65 7439 301b 8b3b
000000b0: 5914 0fbc c0a0 a23a 4e45 21bb f32e 473c
000000c0: 95d5 6ebb 9524 1fbc b358 7cbb 19ca ccba
000000d0: 0e57 413c 087c 39bc 74d7 20bb e3ec ae3a
000000e0: a55e b938 d7cb acb9 10c1 4cbb 98af 01bc
000000f0: f5ac a2bc 4b5a ba3b bc90 07bc cb06 f0ba
00000100: eab9 c1b8 52a5 413c f8b6 d1bb 21a9 adbb
00000110: 409e 1fbc 3e5f 99bb 7a44 b73b 583f 00bb
00000120: 9004 28bc eca3 bc3a 94c7 b43a 1a7f edbb
00000130: a7c3 d53a 34ad 073b 884f 0cbc 5bda d43b
00000140: 9c80 86ba 7169 5ebb 4aca 5cbb f118 03bb
00000150: caa7 1c3b e42e 61ba d640 95ba 17d0 01bc
00000160: fac7 93bb 57ae 46bb e26f 71b9 8df4 7ebb
00000170: 494c 66bb f6f3 64bb 6851 57bb 3cd9 88bb
00000180: 6609 1fbb 2d6d b53b 4309 87bc 5b82 14bc
00000190: 176f 4d3c 06a0 8f3a 0e7f 6ebb beef f3bb
000001a0: 0978 7dbb b0d7 19bc 5bff f7bb 713d 683a
000001b0: a659 d4bb 7652 e0b8 02fd cab9 9180 b13b
000001c0: 62b4 bbb8 c1b7 8aba eb91 a73a aa7c 3a3a
000001d0: 3fb6 5d38 1bd2 643a 283a 44bb 86ab f5bb
000001e0: 1a38 14bc b2c1 55bc e5f8 323b d67d e3bb
000001f0: 5ff3 7fbb 3f79 173c 2eb0 a0bb 257e 1abb
00000200: 0171 1bbc e0a9 003c 59ea df3b 4229 30ba
00000210: cbcf 61bb 7ad6 c5bb 687d 893b 1ec6 29ba
00000220: 89fe 4bba d305 9cbb 539a 01bc 7c10 233b
00000230: 7d04 a0bb a59f 86bb df49 b0bb 1bb0 4bbb
00000240: c170 353a 7d65 83bb 717d dab9 ef2f 01bc
00000250: 3847 73bb 1426 083b d93f 23bb 242a 82bb
00000260: 2939 11b9 5eda e5ba 8496 68bc 3eb5 173b
00000270: 20c0 0f3b a599 f93b b621 86ba 3803 743a
00000280: 8293 9abb f526 f2bb 3619 1cbc 1885 073b
00000290: 57d8 65bb a9c7 a93b 8a59 20bc 20ca 10bc
000002a0: 18c7 c2bb 37a1 b33b fad2 b6bb eced 92bb
000002b0: 64e1 acba f5c7 68bb 0857 853b 1f0d 293b
000002c0: 3e03 42b9 9b44 953b da61 7039 ee06 9aba
000002d0: c752 5ebb c8de 28b9 0bfd 09bb 1849 183a
000002e0: 7071 1d3b a2e6 2d38 9a8d f93b 8a44 c0bb
000002f0: dfda e53a 008f 503b c96c d03a 29bb 02ba
00000300: 87c2 9fbb 476a 983b 3ffb 29ba 7b0d 0bbc
00000310: 6a0e 293a c418 883b 7e14 7d3b c4a1 b9bb
00000320: de64 1abb 2ac0 18bc 99b7 65bb c854 d7ba
00000330: aa46 133c 7ede c43b febe ce3b ff51 30bc
00000340: e437 dcbb c765 ccbb a130 babb ea1e 26bc
00000350: 5a91 82b9 8fbe 56bb 5178 78bb 403b cd3b
00000360: d313 9fbb 15c7 80ba 5093 c13b c9d4 e03a
00000370: 63ee 17bc fba8 c13a 4fe0 9e3a 4bee 8a39
00000380: cb7c 93ba df28 8bbb ad1e 7b39 71f5 9a3b
00000390: 8837 33ba f00a 92bb a641 a8bb f4bd bf3b
000003a0: d324 e03a 9cf9 f7bb 1118 70bb 640f bfbb
000003b0: e13b 1bbc 1c2d eebb 5e6e 1f3b 74e4 afbb
000003c0: 806c d9ba 790d c2bb eacf e2bb 6884 24bc
000003d0: b06f 9abb 7ab0 d3ba bf94 3fbb 159f 89bb
000003e0: d801 77bb 9945 5c3c 157f eebb 5c19 0ebc
000003f0: 82aa b7bb cbf5 8e3a 69ae eebb 0a03 a039

network_body._body_endoder.seq_layers.2.weight f4 [256, 256]
-0.0043154787 -0.017360179 0.025570229 -0.03947358 0.07182132 -0.054985974 0.05900094 -0.023242366
0.0742406 0.060321946 0.041366715 0.13296047 0.0052875564 -0.034816895 -0.053389855 -0.06595242
0.02410015 0.017679801 -0.006786852 0.08619206 -0.0025891063 -0.13002531 -0.11946293 -0.09474524
-0.0464097 -0.05873579 -0.038571298 0.10879171 -0.013608833 -0.038633157 -0.005337001 0.08808776
0.06599416 -0.0026519212 -0.06881539 0.12434214 -0.009577663 -0.007515415 0.115596294 -0.047934916
-0.083871186 0.044603158 0.07328784 -0.112610534 0.033455703 -0.018262781 -0.041817363 -0.020882461
-0.08121211 0.14800262 -0.02029399 0.05259978 0.05343485 -0.04442175 0.015752228 0.010696516
-0.052608036 -0.021240989 -0.009789349 0.011466951 0.003747772 0.038170315 -0.009789856 0.14586593
-0.102636635 -0.099650346 -0.046986613 0.048782494 0.026689472 -0.0067378534 -0.023743173 0.011538886
-0.019458294 -0.016410567 -0.016529594 0.008392832 -0.010597944 -0.019203046 -0.04795489 -0.081416294
-0.1594922 0.09607589 0.13238671 -0.021755852 -0.011619428 -0.047695566 -0.018579427 0.01480421
0.045561 0.061571922 0.027548527 0.08905082 0.03450924 -0.003667936 0.036901567 -0.012684996
0.11095846 0.02287687 0.07444612 0.03472831 0.020597152 0.109441854 -0.055869363 -0.016793685
-0.014504744 0.021842295 0.029056856 -0.068556 -0.111735776 0.02722725 0.03876074 -0.085440755
-0.07677172 0.012103206 0.071013965 0.055114515 -0.027760869 0.06052548 0.22633694 0.032925658
-0.047866657 0.044171363 0.11281982 0.05544493 0.101389006 0.12066614 0.07355718 0.11065381
0.00894923 -0.04514908 0.06824756 0.07167944 0.013361216 0.030756794 0.19073717 0.14461626
-0.051544327 -0.0988431 -0.021330547 0.059476584 0.075372934 -0.028622895 -0.023972282 0.07188326
0.011685258 -0.008654621 -0.010786276 0.011524888 -5.52965e-05 -0.21096016 0.03482283 0.0031230333
0.060281333 0.102238394 0.016665308 0.018364951 0.01001954 -0.03744051 0.0050801346 -0.13335523
0.022602422 0.07657493 -0.06286739 0.024077116 -0.045052245 0.027150193 -0.123861454 -0.027393991
0.081655346 -0.1488959 -0.033646256 -0.0041500507 -0.06634883 -0.06280979 -0.011579168 0.022450704
-0.06722037 0.023537569 0.037670072 -0.016901819 -0.026090296 0.07850641 -0.09924414 -0.010725133
-0.08844114 0.057852153 0.061398443 -0.01058201 0.042410526 -0.12052946 -0.027819868 -0.10381305
-0.024051573 -0.03680887 -0.009914765 0.056228813 -0.08975278 -0.033143774 0.07193531 0.09298541
-0.043017812 0.11848113 -0.060126774 -0.03503183 -0.01687983 -0.041769996 0.029904505 0.06111269
0.01185618 0.05522071 -0.0045949616 -0.089420855 -0.0929559 0.0788135 0.05446989 0.008452338
-0.052090015 -0.033554535 -0.033003304 0.015528927 0.046818256 0.06514768 -0.038654897 0.11255225
0.010367863 -0.028660065 -0.031195259 0.09176788 0.026606971 0.048674468 0.060438775 0.0657023
-0.07361459 -0.03910802 0.01611612 0.025692467 -0.029735189 -0.023337906 -0.111253455 0.029629841
-0.032310598 0.007932218 0.100081675 0.036334623 -0.11492937 -0.076787844 0.033579905 -0.09569778
-0.027675524 -0.069622144 0.11747132 0.09062839 -0.015170176 0.12718566 0.057108473 -0.08631138
00000000: dc68 8dbb ef36 8ebc a878 d13c 0caf 21bd
00000010: 0e17 933d f938 61bd f8aa 713d c666 bebc
00000020: 750b 983d 2514 773d 2570 293d ca26 083e
00000030: 3d43 ad3b 299c 0ebd 52af 5abd 1012 87bd
00000040: ae6d c53c 3bd5 903c 3e64 debb 7685 b03d
00000050: ffad 29bb 5b25 05be fba8 f4bd cb09 c2bd
00000060: 1918 3ebd f194 70bd f0fc 1dbd 30ce de3d
00000070: 95f7 5ebc cd3d 1ebd 02e2 aebb 5b67 b43d
00000080: f227 873d dbcb 2dbb 15ef 8cbd 18a7 fe3d
00000090: a1eb 1cbc df43 f6bb c0bd ec3d 6757 44bd
000000a0: a8c4 abbd cdb1 363d ef17 963d 5aa0 e6bd
000000b0: d908 093d d49b 95bc af48 2bbd b211 abbc
000000c0: 8952 a6bd 008e 173e 953f a6bc de72 573d
000000d0: 80de 5a3d 95f3 35bd d10a 813c 7140 2f3c
000000e0: 867b 57bd 9501 aebc 8163 20bc e1df 3b3c
000000f0: 2e9d 753b 7a58 1c3d a265 20bc e15d 153e
00000100: 2833 d2bd 7b15 ccbd 0975 40bd 27d0 473d
00000110: e1a3 da3c 36c9 dcbb 0b81 c2bc 990d 3d3c
00000120: 0067 9fbc 746f 86bc 1269 87bc 1782 093c
00000130: 00a3 2dbc b54f 9dbc 596c 44bd 96bd a6bd
00000140: ec51 23be 70c3 c43d 6290 073e 5439 b2bc
00000150: 6a5f 3ebc 6d5c 43bd e233 98bc 5b8d 723c
00000160: 2c9e 3a3d d732 7c3d 73ad e13c 4760 b63d
00000170: 9059 0d3d c161 70bb 1926 173d bbd4 4fbc
00000180: 303e e33d 4668 bb3c 3577 983d 463f 0e3d
00000190: 5cbb a83c 0d23 e03d 46d7 64bd e992 89bc
000001a0: 4ea5 6dbc 9dee b23c a508 ee3c 1767 8cbd
000001b0: bad5 e4bd af0b df3c 95c3 1e3d 90fb aebd
000001c0: 7e3a 9dbd 864c 463c c56f 913d c2bf 613d
000001d0: c36a e3bc 91e9 773d dfc4 673e 0edd 063d
000001e0: d40f 44bd 08ed 343d 140e e73d 391a 633d
000001f0: 0aa5 cf3d cf1f f73d 26a5 963d 779e e23d
00000200: cb9f 123c 3eee 38bd 60c5 8b3d accc 923d
00000210: 00e9 5a3c acf5 fb3c 9b50 433e 4916 143e
00000220: 2520 53bd 406e cabd 66bd aebc b89d 733d
00000230: 205d 9a3d 907a eabc 8561 c4bc 8837 933d
00000240: 8673 3f3c 1dcc 0dbc ecb8 30bc e2d2 3c3c
00000250: 2aee 67b8 f105 58be 62a2 0e3d ceab 4c3b
00000260: 8fe9 763d 5d62 d13d af85 883c 1872 963c
00000270: ff28 243c 385b 19bd 4277 a63b 468e 08be
00000280: b728 b93c 51d3 9c3d 9ec0 80bd 5f3d c53c
00000290: b488 38bd 156a de3c 13ab fdbd 5d69 e0bc
000002a0: eb3a a73d 2b78 18be a8d0 09bd 26fd 87bb
000002b0: e5e1 87bd 6ba2 80bd 8db6 3dbc 8aea b73c
000002c0: d5aa 89bd dcd1 c03c ef4b 1a3d af75 8abc
000002d0: 51bb d5bc f8c7 a03d 8340 cbbd 78b8 2fbc
000002e0: a120 b5bd 61f6 6c3d ef7c 7b3d 2b60 2dbc
000002f0: a9b6 2d3d 26d8 f6bd 7ee6 e3bc f09b d4bd
00000300: ce07 c5bc e6c4 16bd 8a71 22bc 2f50 663d
00000310: 4ed0 b7bd c4c1 07bd d252 933d 226f be3d
00000320: 7233 30bd 3ca6 f23d 7e47 76bd 897d 0fbd
00000330: 9247 8abc 0417 2bbd 4bfa f43c 4d51 7a3d
00000340: 6c40 423c 1c2f 623d 5591 96bb 4822 b7bd
00000350: aa5f bebd f968 a13d d21b 5f3d ad7b 0a3c
00000360: 575c 55bd 7b70 09bd 792e 07bd 0a6d 7e3c
00000370: 80c4 3f3d 266c 853d 9954 1ebd cb81 e63d
00000380: f8dd 293c 83c8 eabc 338d ffbc ccf0 bb3d
00000390: ddf6 d93c e15e 473d a68e 773d ed8e 863d
000003a0: 3fc3 96bd bb2f 20bd f405 843c 0279 d23c
000003b0: 3697 f3bc 232f bfbc dad8 e3bd 48ba f23c
000003c0: 1e58 04bd 22f6 013c 9ff7 cc3d 9dd3 143d
000003d0: 1760 ebbd f242 9dbd 158b 093d 33fd c3bd
000003e0: c8b7 e2bc 0e96 8ebd ce94 f03d 619b b93d
000003f0: 548c 78bc f53c 023e 93ea 693d 05c4 b0bd

network_body._body_endoder.seq_layers.2.bias f4 [256]
-0.0056615677 -7.255295e-05 -0.0028424542 -0.004530528 -0.0032830955 -0.00086324866 -0.00094113045 -0.0018948712
-0.0039528166 -0.002799131 -0.00428352 -0.0029145721 -0.0047549275 -0.012091785 -0.0014927508 3.0291405e-09
-0.0016261509 -8.203301e-05 0.002839708 0.0044948426 -0.008162023 0.0024468685 0.010563916 -0.0019635104
0.0068166675 -0.0048155175 -0.00589552 0.003150681 6.809913e-05 -0.0018411687 -0.003156033 0.0009252
0.0011518679 -0.0107217245 0.002805381 -0.010981117 -0.00052876864 -0.011992332 -0.0017286994 -0.009928206
0.001612981 -0.00429359 0.00081097754 -0.009887165 -0.0034811948 -0.0068466356 -0.0047488436 -0.0068471693
-0.00056099845 -0.00440364 0.0040693795 -0.006489296 -0.00071040605 -0.0051827547 -0.005322207 -0.0051206364
-0.0019087058 0.0034987235 -0.002191875 -0.003480667 -0.0074761566 0.002926091 -0.0017784679 -0.009145293
-0.004516051 -0.0037151515 -0.00032432342 0.008493778 0.0017721682 -0.00038174877 -0.0027467452 -0.0031986078
-0.0030464733 -0.001798174 -0.0026698778 -0.0033868966 -0.004039925 -0.0028525055 -0.0035587552 -0.0014961194
-0.0038408155 -0.002757138 -0.0005354625 -0.005956237 -0.0039621885 -0.0053508426 0.0004290178 0.00038246514
7.693682e-06 -0.003930274 -0.003789566 -0.0023245423 -0.009178941 -0.003422932 -0.0002517589 -0.0021685194
-0.0043071345 -0.0009522177 -0.002856626 -0.0028307026 -0.009494384 -0.0032731246 -0.0053141247 0.0023554196
-0.00076800917 -0.0035396721 -0.00960734 -0.0041924696 -0.0066612903 -0.0014671759 0.0036981478 -0.0036789444
-0.0063810083 -0.0016454125 -0.002871807 -0.0048657376 0.00055122544 0.004021073 -0.003992367 -0.0022646766
-0.010059352 -0.0028383946 0.0063797394 0.007444148 -0.002895206 -0.004555378 -0.005995586 0.0019001274
-0.0044060843 -0.0044264053 0.0028342481 -0.0001230267 -0.0031745464 -0.004040624 -0.003131681 -0.0041049086
-0.0011376292 -0.0028554348 -0.0036631774 -0.0050817984 -8.700966e-06 -0.0023664942 -4.407361e-05 -0.004617314
0.00016439492 -0.0032256881 -0.00017762478 -0.0050382256 -0.005356368 -0.007022567 -0.003200281 -0.0004204313
-0.0030594599 6.8772715e-05 -0.002293279 -0.0008210114 -9.396969e-05 -0.0010657532 -0.00056270446 -0.0051142797
-0.006279469 0.0012135215 -0.0008993737 -6.94245e-05 0.002268322 -0.00656263 0.00015670787 -0.0016098107
-0.0003237089 -0.0049537616 4.9754773e-05 -0.0018717204 0.0011179951 -0.005266084 0.0009236408 0.0017132864
-0.008342162 -0.006261105 0.0050680814 0.001938653 -1.8570164e-07 0.0035683976 0.001441464 -0.009754979
-0.011405283 -0.0014443981 -0.004603265 -0.003941029 -0.0032590153 -0.0001992051 -0.0042065876 0.0020704444
-0.0034392644 -0.0059832493 -0.005395123 -0.004922881 -0.00018069029 0.0018738207 -0.0027192542 0.0018085045
7.823396e-07 1.0426901e-05 0.0017315771 0.0032693872 0.00021640079 -0.0037021853 -0.0028823197 -0.0047938884
-0.004106765 -0.005703945 -0.0024693715 -0.004643591 -0.002352953 -0.0023514065 -0.010540342 0.0027514931
-0.003383234 0.0013520677 -0.0060547935 -0.0011251181 -0.0065283165 -0.007287409 -0.0017932198 7.2812865e-05
0.00010892296 -0.0018249254 0.0025721313 -0.0022130404 0.00020822558 0.0018522706 0.0018469407 -0.005299393
0.0007534868 -0.0063041854 -7.8187506e-05 0.0015323369 0.0042789946 -0.0043492247 0.0009826125 -0.0017702085
-0.008298177 -0.0071519217 -0.014293057 -0.001216501 -0.0017593778 0.001976888 0.0011365669 0.0034568885
-0.00047865618 -0.00079648633 -0.0020174494 -0.0026793214 -0.0073661283 -0.0037277616 -0.0038019666 -0.011459682
00000000: ac84 b9bb 9227 98b8 7848 3abb d374 94bb
00000010: 3429 57bb a34b 62ba 32b6 76ba 545d f8ba
00000020: a186 81bb a071 37bb c55c 8cbb 6802 3fbb
00000030: 39cf 9bbb 9f1c 46bc 68a8 c3ba 3429 5031
00000040: 9224 d5ba 2309 acb8 651a 3a3b 7949 933b
00000050: 01ba 05bc a45b 203b 4614 2d3c 3dae 00bb
00000060: 5a5e df3b 7dcb 9dbb 352f c1bb a87b 4e3b
00000070: 71d0 8e38 5f53 f1ba 73d5 4ebb 1f89 723a
00000080: 46fa 963a 2caa 2fbc 7cda 373b 25ea 33bc
00000090: 109d 0aba 7c7b 44bc 8795 e2ba eaa9 22bc
000000a0: a96a d33a 3eb1 8cbb c897 543a c7fd 21bc
000000b0: c224 64bb be59 e0bb 309c 9bbb 385e e0bb
000000c0: f80f 13ba 694c 90bb 6e58 853b 29a4 d4bb
000000d0: 8b3a 3aba 19d4 a9bb e965 aebb 03cb a7bb
000000e0: 8a2d faba d74a 653b 8fa5 0fbb e71b 64bb
000000f0: 8cfa f4bb a9c3 3f3b 7b1b e9ba 24d6 15bc
00000100: 62fb 93bb e679 73bb f409 aab9 7d29 0b3c
00000110: 1948 e83a 7425 c8b9 bd02 34bb bc9f 51bb
00000120: 57a7 47bb b5b0 ebba 1ef9 2ebb b2f6 5dbb
00000130: 5961 84bb 1af1 3abb 013a 69bb 7019 c4ba
00000140: 31b6 7bbb 1ab1 34bb 485e 0cba 8a2c c3bb
00000150: 3fd5 81bb 1f56 afbb cbed e039 9a85 c839
00000160: 1d14 0137 87c9 80bb 5e5a 78bb 5957 18bb
00000170: 4563 16bc 4553 60bb 82fe 83b9 b81d 0ebb
00000180: dd22 8dbb 409e 79ba 3b36 3bbb 4f83 39bb
00000190: 558e 1bbc eb81 56bb 1c22 aebb 625d 1a3b
000001a0: 3954 49ba d8f9 67bb 1b68 1dbc fc60 89bb
000001b0: f446 dabb 414e c0ba a05c 723b 721a 71bb
000001c0: c717 d1bb e2aa d7ba ed34 3cbb c470 9fbb
000001d0: 1d80 103a 35c3 833b 67d2 82bb f86a 14bb
000001e0: fbcf 24bc 5c04 3abb 220d d13b 0aee f33b
000001f0: 7fbd 3dbb 4845 95bb 9f76 c4bb b20d f93a
00000200: ea60 90bb 610b 91bb cbbe 393b ba00 01b9
00000210: 0d0c 50bb 3667 84bb e33c 4dbb 7882 86bb
00000220: 801c 95ba 3f22 3bbb eb11 70bb 3785 a6bb
00000230: 5dfa 11b7 2f17 1bbb aedb 38b8 d64c 97bb
00000240: 6d61 2c39 1166 53bb ca40 3ab9 b317 a5bb
00000250: 7984 afbb 901d e6bb cebb 51bb 556d dcb9
00000260: 3881 48bb 123a 9038 d64a 16bb 2439 57ba
00000270: 9811 c5b8 beb0 8bba 7582 13ba b095 a7bb
00000280: 01c4 cdbb 060f 9f3a f3c3 6bba ff97 91b8
00000290: 21a8 143b 550b d7bb f351 2439 4900 d3ba
000002a0: 79b7 a9b9 2a53 a2bb c8af 5038 8454 f5ba
000002b0: b189 923a 1d8f acbb 7c20 723a 5a90 e03a
000002c0: 90ad 08bc f529 cdbb 2612 a63b 661a fe3a
000002d0: 4765 47b4 c7db 693b 81ef bc3a 59d3 1fbc
000002e0: 39dd 3abc f551 bdba fcd6 96bb bf23 81bb
000002f0: 3495 55bb b6e1 50b9 6ad7 89bb 4bb0 073b
00000300: 4865 61bb 220f c4bb 92c9 b0bb 1e50 a1bb
00000310: ae77 3db9 fd9a f53a 8435 32bb 570b ed3a
00000320: f801 5235 33ef 2e37 16f6 e23a 3743 563b
00000330: a5e9 6239 5da0 72bb 4de5 3cbb 0d16 9dbb
00000340: 0b92 86bb 29e8 babb 2ed5 21bb 4429 98bb
00000350: 0034 1abb 0e1a 1abb 66b1 2cbc 6552 343b
00000360: 3fb9 5dbb dd37 b13a 4a67 c6bb b378 93ba
00000370: 7deb d5bb 38cb eebb 790a ebba 1cb3 9838
00000380: 926d e438 5632 efba 3491 283b a808 11bb
00000390: 2157 5a39 e3c7 f23a 0c15 f23a 88a6 adbb
000003a0: a585 453a 5793 cebb 99f8 a3b8 b2d8 c83a
000003b0: cf36 8c3b f183 8ebb 01cb 803a 5706 e8ba
000003c0: 14f5 07bc ab5a eabb 6d2d 6abc 0073 9fba
000003d0: ec9a e6ba ad8e 013b dbf8 943a f78c 623b
000003e0: 25f4 fab9 4bcb 50ba 2f37 04bb 8e97 2fbb
000003f0: 905f f1bb 764d 74bb 6a2a 79bb 64c1 3bbc

network_body._body_endoder.seq_layers.4.weight f4 [256, 256]
-0.09721969 -0.0084837405 0.05125109 0.07587891 0.13074668 -0.008140731 -0.04630216 -0.060098447
0.039971016 0.010078735 0.014945288 -0.07159994 -0.018266967 0.03803654 0.025581697 0.09653938
-0.014081195 0.051180884 -0.0013943266 -0.025702108 0.04087377 0.059745584 -0.039095983 0.09838809
0.026432665 0.014771369 0.050714284 0.019968448 0.058006946 -0.09749391 0.060895775 -0.011824431
-0.025358943 0.023594175 0.0011940702 -0.021773804 -0.1347229 -0.069965 -0.12519164 -0.14487629
0.046660565 -0.10454796 0.11293895 -0.04383718 0.099771045 0.07017536 0.024845421 -0.02591101
0.029177947 0.08452541 0.033867106 0.044248674 0.08404835 -0.06265154 -0.025616623 0.008697513
-0.016322207 -0.13531484 0.08288257 0.07587052 0.07841473 0.043643773 -0.072654754 0.07704028
-0.0049071703 0.03185424 -0.023502864 0.04407972 0.050335567 0.07237479 -0.008053702 -0.13711134
0.03768818 0.04664843 0.0049633705 -0.07094891 0.005351706 0.051908966 0.032301042 0.043307405
-0.005711776 -0.060103886 0.013129305 0.008599735 -0.008820945 -0.16737908 -0.027583031 0.0029120387
-0.0120609775 -0.06571285 -0.06953674 0.09636692 0.009078363 0.06906648 -0.053361624 0.012530254
0.055077735 0.11345301 -0.023803594 0.039388 -0.0053456263 -0.015928918 0.0079785455 0.0022308526
0.046102986 0.12606892 0.011847333 -0.07591158 0.07664756 -0.01978758 0.06309781 0.021255303
0.04846382 -0.0035193604 -0.023091676 -0.04181007 0.15389615 -0.012109548 0.033231474 0.058101878
-0.0033168963 -0.0425428 0.15068923 -0.070651025 0.084168695 0.008784141 -0.057752654 0.044019904
-0.044995062 -0.10131067 -0.01240967 0.11054643 0.062326517 0.046103645 -0.041069694 0.008942417
0.05649709 0.06898194 0.03663671 -0.047626413 -0.044369128 -0.044664714 0.094221875 0.06999129
-0.0011582689 0.010759354 -0.19570358 0.02176193 -0.16108873 0.041766346 0.022205152 -0.0048932824
-0.017030248 0.046075612 -0.109516636 -0.010127407 0.06742302 0.0511301 -0.08113567 -0.0025896179
0.10196625 0.07725834 -0.07899976 -0.08041272 -0.06801286 0.008037994 -0.039823137 0.0018058039
-0.009889874 -0.060069375 -0.05161639 -0.0040634302 0.058070805 0.049762063 0.078496486 -0.019498128
-0.09092196 -0.016323404 -0.008905942 -0.059754528 -0.019428749 -0.042090368 0.031154845 0.033940736
0.0506329 0.039728213 -0.12459637 -0.08992338 0.026559973 -0.024815777 0.08831827 -0.13700841
0.029226933 -0.07306617 -0.03683326 -0.030824915 0.059831183 -0.058293723 0.07117539 0.009938299
0.018890642 0.07827451 -0.04792688 -0.004767579 -0.0041428637 -0.02851354 -0.065583445 -0.040748604
-0.060990226 0.049186412 -0.069063194 0.059083764 -0.121154495 -0.05983498 -0.02899335 0.01625209
0.101983294 0.01885471 -0.09980241 -0.028527267 -0.02703669 0.013488714 -0.05558733 0.03173687
0.07892719 0.0122646 -0.013101658 0.024868675 -0.072718225 -0.017558223 0.033212617 0.013048156
0.083557464 -0.12360222 0.10736037 0.066186085 0.090472616 -0.034170907 0.03143171 0.07241726
0.00388801 0.0125816595 -0.011694371 0.02105049 0.015528226 -0.009747093 0.081830524 0.12612434
0.024237316 0.020921202 0.0014145839 0.1347995 -0.024598889 0.12291076 0.0004945361 0.007304324
00000000: 1e1b c7bd 63ff 0abc aaec 513d 6766 9b3d
00000010: 75e2 053e b360 05bc 55a7 3dbd ca29 76bd
00000020: a6b8 233d 4721 253c 15dd 743c fda2 92bd
00000030: 9ba4 95bc 34cc 1b3d b590 d13c 70b6 c53d
00000040: d0b4 66bc 0ca3 513d d6c1 b6ba 3a8d d2bc
00000050: 416b 273d c9b7 743d 1c23 20bd b27f c93d
00000060: 5189 d83c 9d03 723c c8b9 4f3d df94 a33c
00000070: b198 6d3d e3aa c7bd d96d 793d 42bb 41bc
00000080: 8fbd cfbc 9248 c13c 5982 9c3a fa5e b2bc
00000090: cdf4 09be cf49 8fbd 3d32 00be 735a 14be
000000a0: 261f 3f3d 3e1d d6bd 894c e73d 9d8e 33bd
000000b0: c354 cc3d 19b8 8f3d a088 cb3c 5443 d4bc
000000c0: 9706 ef3c a81b ad3d 3cb8 0a3d 193e 353d
000000d0: 8b21 ac3d 734f 80bd f4d9 d1bc 0380 0e3c
000000e0: 26b6 85bc f98f 0abe 56be a93d 0162 9b3d
000000f0: e797 a03d d0c3 323d 04cc 94bd 4bc7 9d3d
00000100: 54cc a0bb 9779 023d 1489 c0bc f08c 343d
00000110: ab2c 4e3d 3c39 943d adf3 03bc ea66 0cbe
00000120: ec5e 1a3d 6d12 3f3d c5a3 a23b aa4d 91bd
00000130: 5d5d af3b 7f9e 543d 194e 043d 1b63 313d
00000140: da29 bbbb 7e2f 76bd 4c1c 573c e7e5 0c3c
00000150: ba85 10bc 6c65 2bbe cff5 e1bc e7d7 3e3b
00000160: 689b 45bc 7594 86bd 4769 8ebd 055c c53d
00000170: 6abd 143c ba72 8d3d b891 5abd b24b 4d3c
00000180: 3199 613d 0d5a e83d c1ff c2bc 5055 213d
00000190: 5d2a afbb 5d7d 82bc 72b8 023c 7f33 123b
000001a0: 7cd6 3c3d 3618 013e 511b 423c 8877 9bbd
000001b0: 65f9 9c3d 9019 a2bc 6d39 813d 9a1f ae3c
000001c0: 0082 463d 12a5 66bb c12a bdbc 0941 2bbd
000001d0: f496 1d3e 2067 46bc ba1d 083d 3cfc 6d3d
000001e0: 4960 59bb 5c41 2ebd 474e 1a3e 7cb1 90bd
000001f0: a360 ac3d 5ceb 0f3c 0c8e 6cbd 374e 343d
00000200: be4c 38bd f87b cfbd ee51 4bbc 2b66 e23d
00000210: 174a 7f3d 2dd7 3c3d b238 28bd 3783 123c
00000220: 7e69 673d 6746 8d3d 6010 163d ea13 43bd
00000230: 67bc 35bd 59f2 36bd 66f7 c03d 9857 8f3d
00000240: 0ed1 97ba 0048 303c 8566 48be 1346 b23c
00000250: 72f4 24be 3013 2b3d 94e7 b53c d457 a0bb
00000260: 0583 8bbc c8b9 3c3d 424a e0bd 6ced 25bc
00000270: 1515 8a3d cc6d 513d 752a a6bd 94b6 29bb
00000280: aed3 d03d 9f39 9e3d a0ca a1bd 6daf a4bd
00000290: 544a 8bbd cab1 033c 961d 23bd b9b0 ec3a
000002a0: 2309 22bc 4e0b 76bd b56b 53bd 8626 85bb
000002b0: a7db 6d3d 4ed3 4b3d c4c2 a03d 8aba 9fbc
000002c0: 4b35 babd a9b8 85bc 3aea 11bc 2ac1 74bd
000002d0: 0a29 9fbc f366 2cbd 7238 ff3c 7105 0b3d
000002e0: 7264 4f3d 0dba 223d 622c ffbd c029 b8bd
000002f0: 4d94 d93c 754a cbbc 36e0 b43d ef4b 0cbe
00000300: 526d ef3c b7a3 95bd 79de 16bd 8884 fcbc
00000310: 8b11 753d 66c5 6ebd 67c4 913d 3fd4 223c
00000320: 8cc0 9a3c 634e a03d fa4e 44bd 5a39 9cbb
00000330: dcc0 87bb 3a95 e9bc 9d50 86bd 02e8 26bd
00000340: e3d0 79bd b177 493d 0171 8dbd d101 723d
00000350: d91f f8bd 8615 75bd 7683 edbc 1a23 853c
00000360: 9edc d03d 3175 9a3c 3565 ccbd 04b2 e9bc
00000370: 0c7c ddbc c4ff 5c3c 8aaf 63bd 85fe 013d
00000380: 94a4 a13d 76f1 483c 56a8 56bc 64b9 cb3c
00000390: 4bed 94bd 43d6 8fbc f409 083d efc7 553c
000003a0: 2d20 ab3d 2923 fdbd c1df db3d 928c 873d
000003b0: b549 b93d cbf6 0bbd 89be 003d 804f 943d
000003c0: fccd 7e3b 4e23 4e3c bf99 3fbc 1472 ac3c
000003d0: 1a6a 7e3c 45b2 1fbc c396 a73d bd26 013e
000003e0: 568d c63c f162 ab3c 8f69 b93a e108 0a3e
000003f0: 9c83 c9bc a3b8 fb3d c2a3 013a 1c59 ef3b

network_body._body_endoder.seq_layers.4.bias f4 [256]
0.0011005125 0.0012448031 -0.004395475 -0.0015973499 -0.0018813482 -0.0021401634 0.0052022324 0.00062353665
-0.0011632527 0.0012165842 -0.0075843204 -0.0010928267 0.0037468218 0.00041926725 -0.0041495454 -0.0019041687
-0.0022345053 -0.0006035891 -0.005276934 -0.0029636119 -0.0019635246 -0.004090098 -0.00468543 -0.0025758704
0.002547645 -0.0026754967 -0.0017602746 -0.0059710965 0.005138184 -0.0061668167 -0.010708244 -0.00084534363
0.0001332793 -0.0023433664 -0.0027863074 -0.0014165781 0.0027314022 0.00040710013 -0.0019231382 0.0043355976
-0.005333606 -0.006558884 -0.0021553054 -0.005442803 -0.005890815 0.0010198669 -0.00409626 0.003203103
0.0018143001 -0.0055952366 -0.002843137 -0.0022246237 0.0030935064 0.0010581936 -0.0033226488 -0.003379344
0.0010014981 -0.005396537 0.0022434145 -0.0008666438 -0.008733509 -0.0009839849 -0.0013285811 -0.0033997477
-0.0028843358 0.009245052 -0.0047368673 -0.0039901747 -0.00887142 0.00021978603 -0.0023772842 -0.0054760454
-0.003577404 0.001663594 -0.00071462337 -0.0022717714 -0.0009335979 0.0028315734 -0.009319013 -0.002029047
-0.0029431784 -0.0002473068 -0.008091279 -0.003886786 -0.004557572 0.010737789 -0.009197359 -0.003343216
-0.0042071906 -0.005697202 -0.0030812204 -0.007021102 -0.003086416 -0.0023454027 -0.0052546025 -0.0046895277
-0.0023338 -0.00038634168 -0.0014545489 0.0010125444 -0.0009855826 0.004311505 -0.0036200588 -0.004437029
-0.0018940708 -0.0014046447 -2.8030898e-05 -0.0019236134 -0.003845388 0.002659444 0.0019333174 -0.0015301735
-0.00095566316 -0.0018479667 -0.0028443446 0.0023524815 -0.0016578336 -0.0079653 -0.0053740945 -0.006277122
-0.0044851396 -0.005381829 0.00078972726 6.300021e-05 0.002771299 -0.0030345921 -0.0054898057 -0.0053434973
-0.0034776896 0.0028393625 -0.0023921921 -0.0011047499 -0.00445976 -0.00077133486 -0.004196213 -0.001012833
-0.00470337 0.00013393034 -0.0018879074 -0.001329881 -0.0019882247 -0.00032622082 -0.006185831 -0.0020593219
-0.0036407125 -0.0006149691 -0.007214401 -0.0057451464 -0.0040804604 -0.0028063338 0.0038651088 -0.0027382472
0.0005017328 -0.0017219477 0.0007853274 0.00038177395 -0.0023814796 -0.0044229906 -0.009553487 0.0038354923
-0.0026421538 -0.0010125476 -0.0015083845 -0.0005031503 2.2039543e-05 -0.0008514816 -0.0010792062 -0.0027886082
-0.0034268463 -0.0023214 -0.005408828 -0.0033708336 0.0019714204 -0.0035668719 -0.0056696627 -0.0066169924
0.0012688513 -2.9651845e-05 -0.009522352 0.0030141748 -0.0033508854 -0.0044481386 -0.0039047885 -0.0022833492
-0.0019714206 -0.0019539527 -0.0033951025 0.0036542853 -0.0043209363 0.0049384157 -0.0023122597 -0.004418853
-0.00696014 0.0028826948 -0.0009863077 -0.0027452374 0.0026784092 -0.00030654736 0.00029809392 -0.006236627
-0.0045853322 -0.0050961324 -0.00111938 0.0068255197 -0.00078014453 -0.00026405405 -0.0054287277 -0.0016757911
-0.0047530644 -0.0025158136 -0.0013225265 0.00079853926 -0.0013819 -0.002661759 -0.0044297613 -0.009564057
-0.003461434 -0.0026047549 -0.005710958 0.00033685545 -0.0005779328 -0.001971031 -0.0023447075 -0.002838163
0.0011415306 -0.0017429936 7.317699e-05 -0.006652341 -0.004435023 -0.0053731324 -0.008021351 -0.0013391954
-0.0020113257 -0.0015722448 -0.004859358 -0.005173057 -0.00753723 -0.0052764653 -0.0020537337 -0.0033362724
-2.1338567e-05 -0.00070643885 -0.005131959 -0.0018027783 -0.001534883 0.0016234844 -5.510671e-05 -0.002052651
-0.007075652 -0.0020977403 -0.0019567166 -0.0064477804 -0.0034084711 -0.0049170633 -0.0065829773 -0.004750344
00000000: 123f 903a a928 a33a eb07 90bb 2b5e d1ba
00000010: 9297 f6ba fc41 0cbb 7d77 aa3b d674 233a
00000020: 4978 98ba cb75 9f3a e485 f8bb 2e3d 8fba
00000030: 3d8d 753b 19d1 db39 e9f8 87bb 4d95 f9ba
00000040: c770 12bb 2e3a 1eba 21ea acbb 2839 42bb
00000050: 7aae 00bb 3b06 86bb 3c88 99bb efcf 28bb
00000060: 64f6 263b 6357 2fbb 04b9 e6ba 30a9 c3bb
00000070: 365e a83b 0213 cabb a171 2fbc 0d9a 5dba
00000080: e4c0 0b39 2a93 19bb 7b9a 36bb 79ac b9ba
00000090: 5301 333b 0e70 d539 cf11 fcba a111 8e3b
000000a0: 88c5 aebb e8eb d6bb 0640 0dbb 8a59 b2bb
000000b0: bd07 c1bb 0ead 853a eb39 86bb 27eb 513b
000000c0: cfcd ed3a 3f58 b7bb ec53 3abb feca 11bb
000000d0: 6dbc 4a3b 16b3 8a3a ccc0 59bb fc77 5dbb
000000e0: b344 833a 6fd5 b0bb 4006 133b 7b2f 63ba
000000f0: fe16 0fbc 0ef9 80ba c923 aeba 4dce 5ebb
00000100: 2007 3dbb 8f78 173c b937 9bbb 03c0 82bb
00000110: 6f59 11bc 5d76 6639 36cc 1bbb 6670 b3bb
00000120: e172 6abb f40c da3a 9055 3bba 00e2 14bb
00000130: b2bc 74ba eb91 393b c6ae 18bc c3f9 04bb
00000140: 57e2 40bb f5a8 81b9 4991 04bc 73b9 7ebb
00000150: af57 95bb 8ded 2f3c 85b0 16bc db19 5bbb
00000160: 79dc 89bb 98af babb 4dee 49bb 4611 e6bb
00000170: 7845 4abb 54b5 19bb cd2e acbb 9caa 99bb
00000180: abf2 18bb e78d cab9 90a6 beba 5ab7 843a
00000190: aa2e 81ba 8647 8d3b 823e 6dbb 7f64 91bb
000001a0: 7842 f8ba 0e1c b8ba e523 ebb7 c121 fcba
000001b0: e802 7cbb 114a 2e3b 5e67 fd3a 1a90 c8ba
000001c0: 7885 7aba 7937 f2ba 2f68 3abb 172c 1a3b
000001d0: aa4b d9ba e480 02bc 2c19 b0bb 51b0 cdbb
000001e0: 14f8 92bb 0e5a b0bb b305 4f3a fb1e 8438
000001f0: af9e 353b 02e0 46bb d4e3 b3bb 8118 afbb
00000200: f3e9 63bb 9914 3a3b 53c6 1cbb 41cd 90ba
00000210: 2e23 92bb 6833 4aba 6380 89bb 09c1 84ba
00000220: ba1e 9abb a76f 0c39 a973 f7ba 674f aeba
00000230: e04c 02bb 9e08 abb9 83b2 cabb b0f5 06bb
00000240: 0599 6ebb e135 21ba c866 ecbb c841 bcbb
00000250: 62b5 85bb 78ea 37bb c44d 7d3b 2a74 33bb
00000260: b886 033a fab2 e1ba 6ede 4d3a d528 c839
00000270: 9912 1cbb bcee 90bb 3b86 1cbc e25c 7b3b
00000280: fc27 2dbb 76b7 84ba fcb4 c5ba d8e5 03ba
00000290: 8fe1 b837 f735 5fba 2774 8dba 15c1 36bb
000002a0: f194 60bb a122 18bb 8a3c b1bb 34e9 5cbb
000002b0: f232 013b 2ec2 69bb 94c8 b9bb 5bd3 d8bb
000002c0: 964f a63a dabc f8b7 a403 1cbc 7689 453b
000002d0: 879a 5bbb b1c1 91bb 7be7 7fbb 3ea4 15bb
000002e0: f332 01bb e30d 00bb 5e80 5ebb bc7c 6f3b
000002f0: a496 8dbb 6fd2 a13b 4889 17bb 07cc 90bb
00000300: e311 e4bb 98eb 3c3b ff46 81ba 71e9 33bb
00000310: 4088 2f3b 17b8 a0b9 7d49 9c39 9f5c ccbb
00000320: 8e40 96bb 75fd a6bb 29b8 92ba 9ca8 df3b
00000330: 9d82 4cba bc70 8ab9 78e3 b1bb 38a6 dbba
00000340: 98bf 9bbb 59e0 24bb a058 adba 1055 513a
00000350: df20 b5ba e870 2ebb 8827 91bb 90b2 1cbc
00000360: 3ad9 62bb 89b4 2abb fd22 bbbb f99b b039
00000370: 6a80 17ba 6a2c 01bb aaa9 19bb 7900 3abb
00000380: 699f 953a 2975 e4ba 9976 9938 e2fb d9bb
00000390: ab53 91bb 1a11 b0bb fc6b 03bc f187 afba
000003a0: 72d0 03bb c813 ceba 403b 9fbb bf82 a9bb
000003b0: defa f6bb 33e6 acbb ef97 06bb 5da5 5abb
000003c0: 3900 b3b7 4f30 39ba fe29 a8bb 344b ecba
000003d0: 212e c9ba 19cb d43a 6122 67b8 c585 06bb
000003e0: dfda e7bb 3e7a 09bb 423c 00bb e747 d3bb
000003f0: a860 5fbb 511f a1bb 04b6 d7bb c6a8 9bbb

network_body._body_endoder.seq_layers.6.weight f4 [256, 256]
-0.010000533 -0.0442095 -0.091254 -0.05659394 -0.029915517 -0.07547512 -0.028113458 -0.07458976
0.04769235 0.03168059 -0.05033393 -0.103936724 0.074232735 0.09201022 0.0037436811 -0.018135795
0.008510926 0.09232901 -0.06101581 0.028440978 0.07458846 0.016817577 0.069953635 -0.10610928
0.05783996 -0.04755022 0.06252274 -0.042294715 -0.06655064 0.123725265 0.06966665 0.04292999
0.117598556 0.06543577 0.07077915 -0.004567927 0.076174214 0.03127649 0.0033466483 -0.090628974
0.032013062 -0.005051263 0.12902585 -0.043304358 -0.03748392 0.15165362 -0.10533094 -0.014429745
0.11045943 0.04282261 -0.067413636 -0.049802963 -0.08970262 0.092690274 -0.016487006 -0.008093017
0.0049489564 0.025188377 -0.003675959 0.005908069 -0.011521775 0.11958269 -0.027260944 0.090602376
0.12377002 0.02521018 0.0046644798 -0.08192798 -0.050568227 -0.013590422 -0.030659521 0.08171484
0.08848634 0.08263903 0.00094913825 -0.08409082 -0.0661112 -0.047423657 -0.11507909 -0.05736605
0.09567991 -0.018852876 0.1188974 -0.06392718 -0.04324515 -0.0212673 -0.11599075 -0.010607227
0.011649564 0.13459685 0.037670992 -0.014273819 0.06868639 -0.041983433 0.051062386 -0.0077175237
0.030469019 -0.010773046 0.015593549 -0.07701788 0.03652956 0.008343956 -0.0565038 0.10553098
-0.16066253 0.012090692 -0.092680134 0.003492135 0.06490773 0.045111496 -0.0904457 -0.048036303
-0.009495541 0.056738693 -0.06604841 0.04526092 -0.10266046 -0.010899631 -0.060025305 -0.020554028
-0.017995516 0.03755459 0.017972734 0.052126598 -0.045175742 -0.11083754 -0.05575941 -0.009505011
0.043465275 0.0035850646 0.047142845 -0.0012775349 0.013995193 -0.057091497 -0.05431006 -0.09052297
-0.022848893 0.0027464505 0.064775124 0.06301882 -0.052601103 -0.06179068 -0.0104777105 -0.0063312007
0.02086226 0.02987412 -0.012537679 0.023451863 0.057712518 -0.014114716 -0.031278193 -0.016744388
-0.108378164 0.05633371 0.0018904767 0.015475858 -0.048660118 -0.048562728 0.033692546 0.06860751
-0.027207244 0.059671354 0.06071302 0.011913462 -0.006791839 0.09060769 -0.07056202 -0.026840422
0.124566585 0.09436962 0.020973668 0.021808356 0.012535159 0.11899414 0.0023806242 0.0076219174
0.00046444667 0.00012971145 0.0232024 -0.008762339 0.04607624 0.0066326354 -0.010482973 -0.0012637449
-0.05322293 -0.08699139 0.0566168 0.06227471 -0.026168551 -0.0060729994 -0.049908083 -0.05254752
-0.042100724 -0.022934368 -0.050973125 0.051945433 -0.02728113 0.055407517 -0.029925749 0.024312671
-0.040753506 0.004354575 0.08497535 0.009527051 -0.008820645 -0.05851282 -0.08371978 -0.099908374
0.08043769 0.00522106 -0.14832632 -0.061874438 -0.046531606 0.053451825 -0.14335951 0.0044042296
-0.044438522 -0.11445055 -0.011630617 0.010706184 -0.0033987053 0.06707584 -0.055044692 0.098100305
-0.035856925 0.019930525 0.020505505 0.134182 -0.0007449721 0.07953788 0.07821327 0.008572577
-0.03798981 -0.038620885 0.016082052 -0.098335594 0.043224704 0.034512173 0.048107345 -0.071235776
-0.0010489417 0.019715426 0.028173704 0.057654243 0.07183 0.01287316 -0.062156525 -0.09679598
-0.029345827 0.1041144 0.09611183 0.013434447 -0.11353715 0.042326037 -0.085374914 -0.111774474
00000000: 47d9 23bc 0515 35bd 61e3 babd 0ccf 67bd
00000010: 6311 f5bc b392 9abd 324e e6bc 84c2 98bd
00000020: 0e59 433d 82c3 013d f32a 4ebd c7dc d4bd
00000030: 5507 983d db6f bc3d 8c58 753b 8591 94bc
00000040: 6971 0b3c fe16 bd3d b7eb 79bd 0efd e83c
00000050: d6c1 983d 04c5 893c da43 8f3d d24f d9bd
00000060: 98e9 6c3d 05c4 42bd ec0b 803d 393d 2dbd
00000070: b44b 88bd ac63 fd3d 63ad 8e3d 5bd7 2f3d
00000080: 83d7 f03d 3003 863d a9f4 903d 8dae 95bb
00000090: 3a01 9c3d c71b 003d 7153 5b3b af9b b9bd
000000a0: 2120 033d 1185 a5bb 5a1f 043e e95f 31bd
000000b0: bd88 19bd 164b 1b3e bfb7 d7bd bd6a 6cbc
000000c0: 8e38 e23d c366 2f3d 2910 8abd 31fe 4bbd
000000d0: 02b6 b7bd 66d4 bd3d c20f 87bc 9398 04bc
000000e0: db2a a23b db57 ce3c 5ce8 70bb 7a98 c13b
000000f0: d4c5 3cbc c5e7 f43d 5852 dfbc bd8d b93d
00000100: 237b fd3d 9485 ce3c 7ed8 983b dbc9 a7bd
00000110: a120 4fbd 5daa 5ebc ad29 fbbc 1c5a a73d
00000120: 5438 b53d a73e a93d 97cf 783a cf37 acbd
00000130: 4f65 87bd 4f3f 42bd 96ae ebbd aaf8 6abd
00000140: d4f3 c33d 5971 9abc 7b80 f33d 41ec 82bd
00000150: d421 31bd c338 aebc 8f8c edbd efc9 2dbc
00000160: d0dd 3e3c c2d3 093e e64c 1a3d bcdc 69bc
00000170: 73ab 8c3d d2f6 2bbd cb26 513d 48e3 fcbb
00000180: 2a9a f93c 6e81 30bc 167c 7f3c 8dbb 9dbd
00000190: 05a0 153d 17b5 083c 8770 67bd a020 d83d
000001a0: b884 24be 0a18 463c 15cf bdbd 4edc 643b
000001b0: 58ee 843d d5c6 383d 983b b9bd b7c1 44bd
000001c0: 3093 1bbc d566 683d 6444 87bd 8463 393d
000001d0: a63f d2bd 5e94 32bc 18dd 75bd ec60 a8bc
000001e0: 556b 93bc d7d2 193d 8e3b 933c b382 553d
000001f0: 330a 39bd cbfe e2bd fb63 64bd e8ba 1bbc
00000200: a508 323d 67f3 6a3b db18 413d f572 a7ba
00000210: 184c 653c c6d8 69bd 3a74 5ebd 1b64 b9bd
00000220: 9a2d bbbc cbfd 333b d2a8 843d 0310 813d
00000230: 4174 57bd 3918 7dbd b4aa 2bbc f675 cfbb
00000240: 55e7 aa3c 92ba f43c d66a 4dbc 1f1e c03c
00000250: f663 6c3d 6941 67bc 901d 00bd 872b 89bc
00000260: 5ff5 ddbd 2dbe 663d dfc9 f73a 748e 7d3c
00000270: d54f 47bd b6e9 46bd 3201 0a3d 1882 8c3d
00000280: bae1 debc f369 743d 37ae 783d ae30 433c
00000290: 138e debb 8690 b93d d282 90bd 72e0 dbbc
000002a0: c41c ff3d dc44 c13d f8d0 ab3c 70a7 b23c
000002b0: 4460 4d3c 33b3 f33d 3f04 1c3b 47c1 f93b
000002c0: fa80 f339 2703 0839 f612 be3c ea8f 0fbc
000002d0: 70ba 3c3d 9456 d93b c7c0 2bbc 3ea4 a5ba
000002e0: 4900 5abd 8b28 b2bd 05e7 673d c413 7f3d
000002f0: 6e5f d6bc 0300 c7bb 6b6c 4cbd 113c 57bd
00000300: cf71 2cbd dbe0 bbbc 32c9 50bd bcc4 543d
00000310: ad7c dfbc fef2 623d d826 f5bc 5e2b c73c
00000320: 26ed 26bd d3b0 8e3b 8e07 ae3d 5917 1c3c
00000330: 7784 10bc 24ab 6fbd 4775 abbd c39c ccbd
00000340: 84bc a43d 6d15 ab3b dbe2 17be 0d70 7dbd
00000350: ed97 3ebd 4df0 5a3d d6cc 12be 5b51 903b
00000360: 2b05 36bd 0d65 eabd 588e 3ebc fe68 2f3c
00000370: d0bc 5ebb 0f5f 893d 8b76 61bd d0e8 c83d
00000380: b6de 12bd 5745 a33c 29fb a73c 0267 093e
00000390: 3b4a 43ba c2e4 a23d 472e a03d fe73 0c3c
000003a0: 349b 1bbd ef30 1ebd 82be 833c 2c64 c9bd
000003b0: 630c 313d a35c 0d3d 350c 453d 10e4 91bd
000003c0: a57c 89ba 3f82 a13c 8acc e63c db26 6c3d
000003d0: 9b1b 933d f2e9 523c d797 7ebd f93c c6bd
000003e0: a966 f0bc ee39 d53d 47d6 c43d 281c 5c3c
000003f0: 2a86 e8bd 115e 2d3d 0bd9 aebd 04ea e4bd
