Assets/ML_PPO/results/2nd_go_17/BoatAgent/BoatAgent-4416.onnx (onnx, 863648 bytes, 13 tensors)

discrete_action_output_shape f4 [1, 2]
2.0 2.0
00000000: 0000 0040 0000 0040

network_body._body_endoder.seq_layers.0.weight f4 [256, 64]
0.09467319 0.01603959 -0.00021622222 -0.15629297 -0.044045433 0.008602321 -0.1044526 0.14574167
0.09796305 -0.0685336 -0.030083355 -0.013021628 -0.07136594 0.13488789 0.049427178 -0.076796345
0.019184936 0.11450161 0.15239814 0.13005562 0.11288961 0.00578501 -0.087386504 -0.14482026
-0.2534554 -0.033794887 -0.0415256 0.024783596 -0.2082613 -0.15559709 -0.02148321 -0.134912
0.014500229 0.07904903 0.118513994 -0.082481995 -0.008007157 -0.21974996 -0.18192933 -0.3372024
0.3096544 0.055625703 -0.05937451 -0.2280783 -0.0019309346 0.049022462 0.04834103 -0.10648925
0.10322594 -0.0053201686 0.062136002 -0.064935096 -0.19629967 0.010358417 -0.033095233 -0.06927646
-0.2153405 0.17458291 -0.047574867 0.0802201 0.09326616 0.0042593363 0.10563998 -0.32343516
0.262512 -0.06387274 -0.21045928 0.017334089 0.019988954 -0.011474985 -0.06861341 -0.16216184
0.03572105 -0.052308347 0.016981214 0.008718212 -0.21729669 0.030515764 0.09467877 0.13103805
0.027296081 0.14371318 0.055565257 0.17045909 -0.3776291 0.014828229 -0.067683585 -0.21736506
0.13890627 -0.02528017 0.19387843 0.1425344 0.11014863 -0.07684859 0.004292942 -0.12412304
0.028293956 0.06477679 0.00724905 0.059430014 0.13695395 -0.019829333 -0.22527622 -0.2053088
-0.101523094 -0.046130706 -0.050010197 0.2903457 0.15218312 0.02811901 0.16834944 -0.17676328
0.07823751 0.08060282 0.16510595 0.053584967 0.019901387 -0.19928233 -0.027210403 0.03254781
-0.11887971 -0.15720432 0.1201033 -0.32446194 -0.16653427 0.2654638 0.044062763 0.04341193
0.22445635 -0.04080814 0.008537642 0.2240245 0.121675946 -0.12642169 0.03416222 0.068996415
0.017479163 0.031179262 0.20356171 0.17298186 -0.046646234 -0.20367664 0.041527487 -0.17418654
0.027489955 -0.10893591 -0.0030634254 -0.22684066 -0.11714721 -0.09797132 0.14656503 0.110055976
-0.19574453 -0.1265494 -0.14196375 0.07562105 -0.012181477 -0.21913877 0.013189978 0.18342766
-0.05658875 0.19152327 -0.05930031 -0.17995813 -0.032760575 -0.03971304 -0.13523343 -0.044173285
0.043397103 -0.017243782 0.28005996 -0.13591318 -0.21969609 -0.22252578 0.020821713 0.06163626
-0.013583722 -0.1702584 -0.018864732 0.07190499 -0.031487342 0.2519851 -0.20259455 -0.029756848
-0.23090492 -0.041468445 0.049624804 0.0058320896 -0.09133981 -0.02216528 -0.12697765 0.09967736
0.17706998 0.057188332 -0.051639356 -0.023345988 -0.14094758 -0.06692515 0.058144048 -0.17033128
0.057294395 0.187114 0.007522908 0.06689191 -0.14088488 -0.12160303 0.026716882 0.1720066
0.06644402 0.031305216 -0.09836223 0.024926411 -0.3333752 -0.21730776 -0.07663616 0.017283028
-0.15725762 0.041170295 -0.23419921 0.17249468 -0.022815725 0.20579496 -0.007555238 0.019512882
0.05407514 -0.044508927 0.051108863 -0.055860244 -0.078354746 -0.043837216 -0.024753077 0.07797666
0.055574533 0.07587232 0.086709864 0.08221621 0.121927574 -0.15806404 0.06527552 -0.046444427
0.050531518 0.07301339 -0.012896812 0.06459241 -0.01821768 -0.057694852 0.07292606 -0.031761628
0.07314074 0.0980735 0.009324722 -0.026844893 -0.1943401 -0.20406343 -0.16120921 -0.30713287
00000000: 04e4 c13d 7565 833c b6b9 62b9 440b 20be
00000010: fc68 34bd c0f0 0c3c 3feb d5bd 4e3d 153e
00000020: daa0 c83d 585b 8cbd 5e71 f6bc ab58 55bc
00000030: 4e28 92bd 0d20 0a3e 2774 4a3d 6747 9dbd
00000040: ba29 9d3c d27f ea3d 420e 1c3e 4d2d 053e
00000050: ab32 e73d 2e90 bd3b b2f7 b2bd c34b 14be
00000060: e8c4 81be 826c 0abd bf16 2abd f806 cb3c
00000070: 7342 55be d854 1fbe 8ffd afbc 5f26 0abe
00000080: 5e92 6d3c 75e4 a13d 77b7 f23d 52ec a8bd
00000090: 7330 03bc 2206 61be af4b 3abe cba5 acbe
000000a0: 068b 9e3e c7d7 633d b032 73bd 5c8d 69be
000000b0: 6a17 fdba c7cb 483d 3e01 463d 0917 dabd
000000c0: 1f68 d33d cf54 aebb 5282 7e3d b1fc 84bd
000000d0: c802 49be 5ab6 293c de8e 07bd d1e0 8dbd
000000e0: 3882 5cbe ddc5 323e dddd 42bd 704a a43d
000000f0: 5402 bf3d e791 8b3b c659 d83d 4b99 a5be
00000100: f967 863e b6cf 82bd a382 57be 3800 8e3c
00000110: e0bf a33c 9301 3cbc 3085 8cbd c10d 26be
00000120: 3c50 123d 4741 56bd 301c 8b3c d5d6 0e3c
00000130: 0683 5ebe 32fc f93c f1e6 c13d d72e 063e
00000140: 089c df3c 8c29 133e 6598 633d d48c 2e3e
00000150: 9a58 c1be 1af2 723c b19d 8abd f294 5ebe
00000160: 723d 0e3e 5c18 cfbc 1188 463e 8af4 113e
00000170: 9b95 e13d cb62 9dbd cfab 8c3b 3834 febd
00000180: bac8 e73c b2a9 843d 7089 ed3b e36c 733d
00000190: a83d 0c3e 2071 a2bc cfae 66be 783c 52be
000001a0: 57eb cfbd 8df3 3cbd 7ed7 4cbd 31a8 943e
000001b0: e4d5 1b3e d759 e63c cc63 2c3e 6f01 35be
000001c0: fd3a a03d 1713 a53d 8911 293e e97b 5b3d
000001d0: 3c08 a33c ab10 4cbe 5ae8 debc da50 053d
000001e0: 3577 f3bd 2bfa 20be b8f8 f53d e01f a6be
000001f0: f687 2abe dfea 873e 287b 343d b5d0 313d
00000200: e3d7 653e 7026 27bd 77e1 0b3c ae66 653e
00000210: 3d31 f93d b074 01be afed 0b3d fe4d 8d3d
00000220: 7630 8f3c a76b ff3c 7b72 503e 2822 313e
00000230: 1f10 3fbd 9c90 50be ba18 2a3d f55d 32be
00000240: 9d32 e13c ca19 dfbd c0c3 48bb eb48 68be
00000250: e0ea efbd 30a5 c8bd 2515 163e 0765 e13d
00000260: 4171 48be 2a96 01be f25e 11be 36df 9a3d
00000270: d194 47bc ea65 60be c71a 583c 76d4 3b3e
00000280: 9bc9 67bd ad1e 443e e2e4 72bd f246 38be
00000290: f42f 06bd 24aa 22bd a27a 0abe 0cef 34bd
000002a0: 29c1 313d d542 8dbc 0564 8f3e d32c 0bbe
000002b0: 03f8 60be ccdd 63be 4c92 aa3c 4e76 7c3d
000002c0: 428e 5ebc 3858 2ebe 368a 9abc ec42 933d
000002d0: dff8 00bd 3104 813e f274 4fbe a2c4 f3bc
000002e0: 5772 6cbe d1da 29bd 6143 4b3d 1d1b bf3b
000002f0: 5e10 bbbd f693 b5bc 6e06 02be a523 cc3d
00000300: d551 353e 503e 6a3d ca83 53bd 1640 bfbc
00000310: 9054 10be 0e10 89bd 7428 6e3d 536b 2ebe
00000320: 87ad 6a3d d09a 3f3e ba82 f63b a0fe 883d
00000330: 2044 10be 020b f9bd 5ddd da3c 8022 303e
00000340: cd13 883d e639 003d 2372 c9bd 7932 cc3c
00000350: 27b0 aabe ed85 5ebe 6bf3 9cbd 2395 8d3c
00000360: 2408 21be 2fa2 283d ebd1 6fbe 72a2 303e
00000370: 0be8 babc eabb 523e ee91 f7bb 7bd9 9f3c
00000380: e57d 5d3d fe4e 36bd 8757 513d b6cd 64bd
00000390: 7478 a0bd a78e 33bd f7c6 cabc 3ab2 9f3d
000003a0: 1fa2 633d f262 9b3d f194 b13d f960 a83d
000003b0: 2ab5 f93d 8adb 21be 2caf 853d 833c 3ebd
000003c0: 23fa 4e3d 0b88 953d 264d 53bc 0749 843d
000003d0: 3e3d 95bc 7051 6cbd 425a 953d 7b18 02bd
000003e0: d0ca 953d c2da c83d b8c6 183c d2e9 dbbc
000003f0: 1701 47be 01f6 50be 0714 25be 8540 9dbe

network_body._body_endoder.seq_layers.0.bias f4 [256]
0.0022785456 0.0012494205 -0.0017934734 0.00085436174 -0.0023953249 0.0008385567 0.00016602344 0.0010279386
-0.00069942174 -0.002812677 0.0026882058 -0.0012351773 -0.0023875416 0.0011817568 -0.00066764577 0.0024470838
-0.00039421534 0.0001459546 0.0015544187 -0.00015347476 0.0017186492 0.0026588936 0.0014373729 0.0025558579
-0.0019219548 0.00021804364 2.9821142e-05 0.00052460073 0.0011315399 0.0011195185 0.0025517861 -0.0032247645
-0.0023370604 0.0014081886 -0.0024209304 -0.0026155473 -0.0016304078 0.0013496288 0.00014959747 -0.0026255406
-0.00012856872 -0.0022608936 -0.0026991903 0.0010052726 0.0013819459 0.002197166 -0.00047364063 0.00035149045
0.00022638432 -3.5503563e-05 -0.000332299 -0.0017797811 0.002927709 0.003120938 0.00016722134 0.0020574764
-7.7918434e-05 -0.00011636676 -0.0017850442 -0.00012140575 -0.0021909468 0.0010291189 -0.0010939861 0.00039535077
-0.0027457231 9.137833e-05 0.0013708967 -0.0025527328 -0.0022776197 1.731526e-05 -0.00020280464 -0.00013156922
0.0017282612 -8.376052e-06 0.0018859969 0.0026710716 -0.002455773 -0.0017260188 -0.0030410425 -0.0017655146
0.002782602 -0.0024085627 -0.0012046254 -0.0023258452 -0.0020067727 0.0015207942 0.0023860813 -0.00285042
0.0023181504 0.002787843 0.0025621525 0.0020713697 -0.0020985836 0.00025559054 -0.00029822724 0.00024083591
-0.001799336 -0.001772167 0.00023675978 0.0017828591 7.471711e-05 0.0003461759 -2.0183787e-05 0.0019380334
0.0027956218 -0.00080709223 -0.0016541022 9.6078766e-05 -0.00029516613 0.00097365864 0.00050833105 0.00017265826
0.00020733174 0.0029074682 0.0025651813 0.002185397 0.0018452716 0.002670529 -0.0013430988 0.00086476945
0.0006400358 -0.0019473018 -5.867863e-05 -0.0026777517 0.00046426436 0.0009926483 -0.0026502772 -0.0017645466
-0.001590824 0.0005636739 -0.0022721726 -2.4384692e-05 -0.0010320481 -0.00017426429 -0.0016640758 -0.00012866117
-0.0001747701 -0.0009977964 -0.00016102112 -0.002725145 0.0016407819 -0.0013958894 0.00011847222 -0.0011536884
-0.0025331946 0.001039808 -0.0020981224 -8.7444074e-05 0.0014158346 0.0015932852 0.000535549 0.0005139499
0.0018837926 0.00068731006 -0.0017427312 -0.0016572273 -4.5830267e-05 -0.00040680208 -0.00239788 -0.0017550145
0.0028226858 0.0007514537 0.0010374262 0.002230432 0.0002730373 -0.00020320089 -0.0014300667 -0.00014481801
0.0028108917 -5.05258e-05 0.00023132387 0.0014907592 0.00063019997 -0.0010955678 0.00025893594 -0.002514465
0.0015524421 -0.00076736184 0.0023918962 0.0012500816 -0.00012768147 0.0017552907 0.00038275364 -0.00019947693
-0.00016921054 0.00092016545 0.0016971232 -0.00096977135 0.0023353302 -0.002913797 -0.00011264937 0.001640911
2.6685164e-05 -0.002293329 -0.0016830417 -0.0013321463 0.00022295013 4.7637775e-05 0.0006683525 -0.0017906238
0.00034747686 0.0020284185 -0.0015036726 0.00014986268 -0.00048810476 0.0002461285 -0.00022078241 -0.0011382136
0.00093183777 -0.0018223334 -0.001642036 -0.0014529973 -0.00058320526 -0.00023645177 0.00044390766 -0.00060636987
0.0026475096 -0.0024572576 -0.0025709958 -0.0019530717 -0.0013576548 -1.5422764e-05 0.0024573691 0.0014411836
2.6595862e-05 0.0017788853 -0.0030112355 -0.0023793739 0.0011209543 0.0024317584 -0.00020385845 0.0009838757
-0.00035206016 0.002936565 -0.0016850122 -0.0003715666 -0.00029427913 -0.00019559612 0.00082094566 0.0014335646
-7.131716e-05 -0.0014630841 -0.0004837641 -3.451265e-05 0.00095674983 -0.00028339424 0.00023969021 -0.0018491676
0.00014801789 0.0017493517 0.0017900764 0.00024624387 -0.0027993296 0.00013777944 -0.00020115972 -0.0012090475
00000000: a753 153b 98c3 a33a fb12 ebba 3ff7 5f3a
00000010: e2fa 1cbb 96d2 5b3a 9416 2e39 e5bb 863a
00000020: 6659 37ba e454 38bb 9c2c 303b ace5 a1ba
00000030: 4d78 1cbb 2ee5 9a3a f304 2fba 415f 203b
00000040: b0ae ceb9 640b 1939 a3bd cb3a 11ee 20b9
00000050: 4c44 e13a d540 2e3b 3b66 bc3a 2e80 273b
00000060: 1aea fbba a5a2 6439 6a28 fa37 5c85 093a
00000070: 2e50 943a cfbc 923a de3b 273b 9256 53bb
00000080: 5e29 19bb f892 b83a 79a8 1ebb 9a69 2bbb
00000090: 68b3 d5ba 07e6 b03a 44dd 1c39 4311 2cbb
000000a0: 67d0 06b9 802b 14bb e6e4 30bb 5ac3 833a
000000b0: 6922 b53a 54fe 0f3b f852 f8b9 4048 b839
000000c0: 9461 6d39 a9e9 14b8 6b38 aeb9 8b47 e9ba
000000d0: cede 3f3b a788 4c3b 2358 2f39 bad6 063b
000000e0: 2468 a3b8 ee09 f4b8 25f8 e9ba 379b feb8
000000f0: fd95 0fbb 80e3 863a 1564 8fba 1547 cf39
00000100: 97f1 33bb 5ea2 bf38 a9af b33a c04b 27bb
00000110: 1e44 15bb 3d40 9137 f5a7 54b9 d8f5 09b9
00000120: d386 e23a df86 0cb7 8e33 f73a 250d 2f3b
00000130: 09f1 20bb 953b e2ba 3a4c 47bb d768 e7ba
00000140: 515c 363b fad8 1dbb 85e4 9dba 356d 18bb
00000150: 0f84 03bb 6355 c73a cd5f 1c3b 1dce 3abb
00000160: 1cec 173b 3fb4 363b c9e9 273b d1bf 073b
00000170: 6488 09bb c800 8639 625b 9cb9 e688 7c39
00000180: b3d7 ebba 0f48 e8ba b842 7839 d3ae e93a
00000190: 71b1 9c38 f17e b539 5a50 a9b7 9c05 fe3a
000001a0: c036 373b 0b93 53ba 76ce d8ba e57d c938
000001b0: 87c0 9ab9 203d 7f3a 8541 053a 990b 3539
000001c0: 3167 5939 398b 3e3b 9a1c 283b e138 0f3b
000001d0: 0add f13a 0b04 2f3b eb0a b0ba b2b1 623a
000001e0: 13c8 273a 9b3c ffba b31d 76b8 387d 2fbb
000001f0: 8268 f339 c01b 823a 46b0 2dbb 5c48 e7ba
00000200: 3283 d0ba 84c3 133a bbe8 14bb ba8d ccb7
00000210: ca45 87ba b7ba 36b9 1e1d daba 38e9 06b9
00000220: 7e42 37b9 7ec8 82ba c7d7 28b9 5998 32bb
00000230: 810f d73a 47f6 b6ba 4a74 f838 5c37 97ba
00000240: f403 26bb 2b4a 883a a780 09bb 2e62 b7b8
00000250: 8793 b93a c8d5 d03a 1664 0c3a 98ba 063a
00000260: 97e9 f63a 992c 343a 5b6c e4ba 5237 d9ba
00000270: e039 40b8 0d48 d5b9 c025 1dbb 8408 e6ba
00000280: cffc 383b 34fd 443a 3ffa 873a 702c 123b
00000290: 7226 8f39 5312 55b9 1371 bbba 4ada 17b9
000002a0: f036 383b aaeb 53b8 878f 7239 9465 c33a
000002b0: 0134 253a 2899 8fba cbc1 8739 b9c9 24bb
000002c0: 507b cb3a c828 49ba 5cc1 1c3b c7d9 a33a
000002d0: 3ce2 05b9 c811 e63a 53ac c839 ae2a 51b9
000002e0: 1c6e 31b9 4237 713a 0172 de3a 4138 7eba
000002f0: 570c 193b 67f5 3ebb 2c3e ecb8 d613 d73a
00000300: f4d9 df37 ad4b 16bb 8299 dcba 6a9b aeba
00000310: b8c7 6939 acce 4738 6134 2f3a 5db3 eaba
00000320: 8e2d b639 37ef 043b e116 c5ba 7524 1d39
00000330: 50e8 ffb9 cf0a 8139 d481 67b9 1c30 95ba
00000340: 9346 743a 5ddb eeba 9639 d7ba 8072 beba
00000350: 3ee2 18ba 0af0 77b9 47bc e839 cbf4 1eba
00000360: d781 2d3b f109 21bb 277e 28bb 36fe ffba
00000370: 56f3 b1ba 2260 81b7 d00b 213b 19e6 bc3a
00000380: 2e1a df37 7c29 e93a 2658 45bb 45ef 1bbb
00000390: fcec 923a 235e 1f3b d6c2 55b9 64f5 803a
000003a0: b794 b8b9 6373 403b a1db dcba d3ce c2b9
000003b0: 7a49 9ab9 ef18 4db9 bb34 573a 72e6 bb3a
000003c0: 1c90 95b8 f5c4 bfba b8a1 fdb9 adc1 10b8
000003d0: 65ce 7a3a 8894 94b9 5a55 7b39 c55f f2ba
000003e0: 4035 1b39 814a e53a ffa0 ea3a 4b1a 8139
000003f0: f574 37bb e378 1039 67ee 52b9 e778 9eba

network_body._body_endoder.seq_layers.2.weight f4 [256, 256]
0.044479955 0.10586404 0.009188503 0.07137289 -0.12700833 0.014782069 0.056517 -0.10536983
0.10827111 -0.024068745 0.015092867 0.05150483 0.01467691 0.09553869 -0.015684927 -0.16002445
0.10972587 -0.0066488893 -0.059265353 0.09550219 -0.04149654 -0.06778509 0.033921886 -0.07155013
-0.08925008 0.052668564 -0.009176373 -0.019335262 0.033226535 0.0022950752 -0.09104685 0.046638127
0.023244793 -0.04996622 0.090893604 0.04875451 0.0915736 -0.013627316 -0.11568945 0.124729514
0.028732441 -0.07158743 -0.04958885 0.024141792 -0.016044645 -0.059851743 0.025535297 0.037421778
0.021663792 -0.03566049 0.07338389 0.10408006 -0.0059299837 -0.08471769 -0.013929146 -0.07848174
-0.056206394 -0.0021072258 0.03558338 0.04500906 0.019883132 -0.07783769 -0.06660517 0.038186274
-0.025135508 0.05660253 0.1573147 -0.01198511 -0.10520608 -0.03498663 0.038433865 -0.04694825
-0.00045586727 0.03039273 -0.030581918 -0.049960148 0.06323715 0.008169628 0.069281004 0.012655499
-0.007324287 0.015326046 -0.0802794 0.11544103 0.027318636 0.02771105 0.03146715 0.056171507
0.012834516 -0.011729265 -0.050431613 -0.00979222 -0.0021489463 0.025116451 0.08716478 -0.06848904
-0.043079764 0.14665239 0.017743187 -0.0027260925 -0.11871427 -0.08330068 0.017865831 -0.09580798
0.057581175 -0.0078895185 0.06449699 -0.03786084 0.052311588 0.059637785 -0.026304064 -0.048735563
-0.045707382 0.07111203 0.045917954 0.0014746101 -0.022294862 -0.010998693 0.0057087247 0.027060041
-0.036273744 -0.01771732 -0.015540457 0.024468098 0.043156914 0.07566222 -0.025255846 0.023178926
-0.019949647 0.105535865 0.006524207 -0.019911416 0.052397504 0.08976954 0.031095743 -0.039587796
0.09995184 -0.049129978 -0.050298218 0.10312021 -0.041848995 -0.091965 -0.026860887 -0.044293348
-0.07772977 0.011755205 -0.020635597 -0.004046358 -0.04463386 0.008563577 -0.0046276273 -0.0029967832
-0.034665167 -0.05527324 0.12691195 -0.048928265 -0.06364297 -0.030756049 0.026375614 0.026529485
0.06315961 0.042019058 0.0252829 -0.025232187 0.019329194 0.101625375 -0.10822082 0.07007253
0.06914043 -0.03710911 -0.021797996 -0.052334353 -0.08369519 -0.0037224595 0.034157187 0.035163492
0.035438538 0.14960086 -0.08244163 -0.079904154 0.008061032 0.049196545 -0.06489163 0.017438985
-0.04583037 0.030789858 -0.0892324 -0.033679735 -0.06315023 0.057707433 -0.06666451 0.04980112
-0.023933621 -0.01459361 0.021509636 0.059197325 -0.032822493 -0.038219366 0.03997239 -0.059438784
0.0608132 0.0039529344 0.016863128 -0.048529856 -0.029988097 -0.02595593 0.042919025 -0.0851687
-0.01552 -0.035687625 0.10339671 -0.095034815 -0.027506037 -0.0028630453 0.0024261803 -0.06553213
0.036365736 -0.05966132 0.019040667 0.026206583 -0.018516112 -0.029104818 -0.10378548 0.029521622
-0.11966847 0.0067425356 0.02266071 -0.10718193 -0.027236529 0.024790268 0.004003286 -0.07602107
-0.016006263 -0.13913722 -0.011631156 -0.005784204 0.11319547 0.12654756 0.057069972 0.053743143
-0.090635695 0.076400645 0.059374694 0.03566097 -0.008666997 -0.10336879 0.032975383 0.032072764
-0.02333085 -0.0027549642 0.025926003 -0.055120036 0.017372537 -0.088748835 -0.0023335384 0.06859669
00000000: 9d30 363d 3fcf d83d 608b 163c f32b 923d
00000010: 790e 02be 7e30 723c 5f7e 673d 23cc d7bd
00000020: 3ebd dd3d d12b c5bc 1348 773c bbf6 523d
00000030: 6c77 703c caa9 c33d ad7d 80bc 73dd 23be
00000040: f5b7 e03d edde d9bb 3ac0 72bd a796 c33d
00000050: 47f8 29bd e9d2 8abd adf1 0a3d e088 92bd
00000060: bfc8 b6bd feba 573d 7f58 16bc fc64 9ebc
00000070: 8c18 083d f968 163b c576 babd 9f07 3f3d
00000080: dd6b be3c 61a9 4cbd 6d26 ba3d cfb2 473d
00000090: f18a bb3d 1b45 5fbc 97ee ecbd 3072 ff3d
000000a0: 4c60 eb3c 6e9c 92bd ae1d 4bbd 02c5 c53c
000000b0: 0f70 83bc 1a27 75bd 662f d13c 9447 193d
000000c0: 4478 b13c bc10 12bd 4b4a 963d ed27 d53d
000000d0: 4f50 c2bb 7880 adbd 1337 64bc 09bb a0bd
000000e0: ad38 66bd 6219 0abb e1bf 113d 6c5b 383d
000000f0: f3e1 a23c 5e69 9fbd 4b68 88bd 3669 1c3d
00000100: fbe8 cdbc 0ed8 673d 1b17 213e 325d 44bc
00000110: 4976 d7bd 244e 0fbd d46c 1d3d cf4c 40bd
00000120: 7801 efb9 2dfa f83c ee86 fabc 03a3 4cbd
00000130: 7b82 813d e7d9 053c 33e3 8d3d 0359 4f3c
00000140: 9300 f0bb 191a 7b3c 8769 a4bd 596c ec3d
00000150: 55cb df3c 4902 e33c b3e3 003d 1814 663d
00000160: dd47 523c 1a2c 40bc 6191 4ebd 8c6f 20bc
00000170: 56d5 0cbb 04c1 cd3c 7383 b23d fb43 8cbd
00000180: 6874 30bd 0b2c 163e 295a 913c 3ea8 32bb
00000190: 7820 f3bd 8c99 aabd 5d5b 923c f936 c4bd
000001a0: 3dda 6b3d 0a43 01bc ff16 843d f813 1bbd
000001b0: ad44 563d c046 743d 9f7b d7bc f19e 47bd
000001c0: aa37 3bbd 2fa3 913d 7714 3c3d b447 c13a
000001d0: b7a3 b6bc dd33 34bc 4110 bb3b 05ad dd3c
000001e0: c793 14bd ea23 91bc 679d 7ebc 5271 c83c
000001f0: 4ec5 303d cbf4 9a3d 59e5 cebc bbe1 bd3c
00000200: 716d a3bc 3023 d83d 04c9 d53b 441d a3bc
00000210: c49e 563d 18d9 b73d 80bc fe3c d026 22bd
00000220: 8db3 cc3d 843c 49bd 8105 4ebd b030 d33d
00000230: da69 2bbd 2558 bcbd 5d0b dcbc f16c 35bd
00000240: c930 9fbd e798 403c fc0b a9bc 5097 84bb
00000250: ffd1 36bd 3f4e 0c3c 5aa3 97bb ae65 44bb
00000260: 10fd 0dbd 3166 62bd 35f5 013e 0169 48bd
00000270: 3f57 82bd 1cf4 fbbc ac11 d83c 5d54 d93c
00000280: d359 813d 2d1c 2c3d 161e cf3c bbb3 cebc
00000290: 4258 9e3c f720 d03d e1a2 ddbd 3082 8f3d
000002a0: 7f99 8d3d b9ff 17bd b691 b2bc 8c5c 56bd
000002b0: 6268 abbd 82f4 73bb 68e8 0b3d 9807 103d
000002c0: 0028 113d f830 193e 28d7 a8bd caa4 a3bd
000002d0: 6b12 043c 5182 493d e7e5 84bd 34dc 8e3c
000002e0: a0b8 3bbd 033b fc3c 7abf b6bd c3f3 09bd
000002f0: e854 81bd a15e 6c3d 6787 88bd 42fc 4b3d
00000300: 7110 c4bc 091a 6fbc fa34 b03c e578 723d
00000310: e170 06bd e98b 1cbd 17ba 233d 1576 73bd
00000320: 4317 793d 9e87 813b 8b24 8a3c 3ec7 46bd
00000330: 99a9 f5bc 88a1 d4bc dccb 2f3d ed6c aebd
00000340: 9947 7ebc 302d 12bd a7c1 d33d 9da1 c2bd
00000350: 5754 e1bc eea1 3bbb 8d00 1f3b b635 86bd
00000360: 3df4 143d 6e5f 74bd 2cfb 9b3c 30af d63c
00000370: 1aaf 97bc 3a6d eebc 7b8d d4bd 54d7 f13c
00000380: be14 f5bd 7df0 dc3b f4a2 b93c 3382 dbbd
00000390: 241f dfbc f614 cb3c ff2d 833b efb0 9bbd
000003a0: 911f 83bc fd79 0ebe 9b90 3ebc 6c89 bdbb
000003b0: 07d3 e73d af95 013e 34c2 693d c521 5c3d
000003c0: 359f b9bd f177 9c3d e132 733d 3d11 123d
000003d0: 0500 0ebc 04b3 d3bd 3211 073d bb5e 033d
000003e0: 5720 bfbc a18c 34bb c562 d43c 8cc5 61bd
000003f0: da50 8e3c f3c1 b5bd 47ee 18bb 6c7c 8c3d

network_body._body_endoder.seq_layers.2.bias f4 [256]
-0.0027217132 -0.001792056 0.0008678444 -0.002670158 0.00019226814 0.0015841287 -0.00027729734 -0.0026237348
-0.00075624365 -6.3860124e-32 0.0026766763 -7.8680605e-05 -0.00019370575 0.001768251 4.3035725e-05 -0.0017029116
0.00096123473 3.8863673e-05 0.00010391479 -0.00021323565 5.9418603e-06 -0.00021049113 0.0006029097 -5.5711556e-05
-0.0016303583 0.0012379722 0.0016571583 -9.216945e-05 -9.09152e-05 -0.0010603159 -0.00019568269 0.0024392044
-0.00054556463 -7.971344e-05 -0.0024345256 0.00016810949 -6.826707e-05 0.0010543284 0.00026899326 -0.001221729
0.0013177525 -4.254822e-06 0.00046653723 0.00019711451 -0.0021177253 3.2854332e-05 -0.0019162954 -0.0012433088
0.0028341895 -0.0014583627 0.0027665857 0.0018931928 -0.0018679987 -0.0023318748 0.0020459853 0.0019473736
-0.0016255602 -0.00017092803 0.00030341596 0.000114315146 0.00014634918 -0.0009974884 -1.0012579e-31 -0.0013139164
-0.002361201 0.0 -1.2451129e-10 -0.0026782874 -0.00026778644 0.0004158502 -0.0013652776 -1.2102244e-19
0.0015404846 -2.570469e-19 -5.1142364e-05 -0.0015134977 0.00011911442 0.0004931048 -0.0025292768 0.0013766366
-0.001548928 -0.00017501059 -0.0013976559 -0.0017301169 0.00021098473 0.0019275794 0.0 0.00013757842
0.000498833 0.0011078545 0.0024754317 6.6398556e-05 6.4635824e-05 -1.6588468e-05 -0.00021160646 -0.00027277062
0.0012852105 -0.00057270593 -0.0017924308 0.0 0.0019440502 0.0022877234 0.0031191024 -0.00062707666
-0.0023303044 0.002159235 0.00075016613 -6.266722e-06 -0.00026846887 -0.00054118416 0.0015450583 0.0016574623
-0.0023738095 -0.001687705 -0.0031068006 0.00010373178 0.00020832608 0.0020603195 0.0025451807 -3.8983847e-22
0.002189909 0.0013683571 0.00035659468 -0.0009453915 -0.0010650945 0.0019129725 -0.0013399912 0.0016159198
0.0017881196 -1.0694388e-05 0.0021295624 -0.002518305 -0.00059425936 -0.0012877714 -0.0016182634 1.0528723e-30
-0.00016083916 -0.0015874398 -0.002931128 -0.00012724068 0.00031109087 0.000113303104 0.0014682191 -0.0010099732
6.3149756e-38 -0.0015193325 2.983508e-05 -0.0015644587 0.0019244008 -0.0022032135 -0.0026463082 -0.00031731577
-0.0018867141 0.002778217 -0.00049813866 -0.0034992353 0.00027987154 -0.000300973 0.00239925 -0.0004407778
0.0017828038 0.0026550815 -0.00020343081 0.00017730896 -0.0012941874 0.00025404163 -6.148386e-05 0.0024412542
0.00034879617 0.001110007 0.0024279214 -2.807918e-11 0.0017249553 0.0 0.0028389068 0.00035370357
0.0005415171 0.00019980333 0.0012709735 -0.002544111 -0.0018011618 5.2031646e-06 -0.00028052166 0.002002692
-0.00027426466 0.0020341412 -0.0028359285 -0.0010610024 0.0 -0.0014410558 0.0020836918 -0.0017624267
0.0 0.0027970949 -0.0005932634 0.0016917553 -0.002792134 8.527873e-25 0.0020065713 -0.0015753987
0.0026412616 0.00092967175 -0.0022586025 0.0026703903 -0.002427344 -0.001757476 -0.0007392347 0.00042110102
0.00016040895 -0.0021549955 -4.4029344e-05 0.0016810123 -8.155063e-05 0.0018004571 0.0030444264 -0.0020725853
0.00021142879 -0.0002017407 0.0015268183 0.0026744339 0.0017897172 0.00024655735 -0.0008221623 0.0006013322
0.0012990774 -0.00040674815 -0.00065442635 0.00108058 -0.0015185045 6.2771665e-05 0.002656351 0.0017776891
-0.0017939699 1.4265397e-06 -0.0014493051 -0.0014181768 -0.0012485075 7.093453e-05 -0.0029382799 0.0016855056
-0.0022636172 0.0004151492 0.0026729228 -9.872882e-05 0.0017349303 3.2923742e-07 -0.00010849131 0.0010075425
-0.0011985103 -0.00022239072 -1.2812188e-30 0.0005980886 -0.0010935293 0.0 -0.0027727643 0.00021577458
00000000: c55e 32bb 6ce3 eaba 0d80 633a d1fd 2ebb
00000010: 969b 4939 8aa2 cf3a 3862 91b9 f7f2 2bbb
00000020: a73e 46ba 55ca a58b 2d6b 2f3b 5401 a5b8
00000030: 7e1d 4bb9 a8c4 e73a 4281 3438 3b34 dfba
00000040: 5ffb 7b3a 8d01 2338 d4ec d938 0298 5fb9
00000050: 3160 c736 48b7 5cb9 960c 1e3a d4ab 69b8
00000060: bfb1 d5ba 7443 a23a 0135 d93a 194b c1b8
00000070: baa9 beb8 4cfa 8aba 2c30 4db9 0fdb 1f3b
00000080: 3904 0fba d42b a7b8 908c 1fbb 8c46 3039
00000090: 9b2a 8fb8 6431 8a3a aa07 8d39 6c22 a0ba
000000a0: 70b8 ac3a a5c4 8eb6 9199 f439 86b0 4e39
000000b0: 89c9 0abb 12cd 0938 342c fbba 85f6 a2ba
000000c0: cfbd 393b 8826 bfba 9b4f 353b 0225 f83a
000000d0: a3d7 f4ba 5ed2 18bb f015 063b 043f ff3a
000000e0: c010 d5ba 253b 33b9 cd13 9f39 7abc ef38
000000f0: 4f75 1939 28be 82ba 80f8 018c b837 acba
00000100: 61be 1abb 0000 0000 d0e6 08af 3586 2fbb
00000110: b065 8cb9 7806 da39 1df3 b2ba cae0 0ea0
00000120: 16ea c93a d4bb 97a0 b281 56b8 8e60 c6ba
00000130: 11cd f938 b443 013a 39c2 25bb 4270 b43a
00000140: 6605 cbba 0c83 37b9 8d31 b7ba 17c5 e2ba
00000150: c83b 5d39 d5a6 fc3a 0000 0000 ed42 1039
00000160: 1ec4 023a 6e35 913a da3a 223b 743f 8b38
00000170: 188d 8738 7727 8bb7 ade2 5db9 a702 8fb9
00000180: 8274 a83a a521 16ba ffef eaba 0000 0000
00000190: 80cf fe3a a1ed 153b db69 4c3b 6762 24ba
000001a0: 05b8 18bb f481 0d3b cca6 443a bb46 d2b6
000001b0: 48c1 8cb9 41de 0dba 8e83 ca3a 353f d93a
000001c0: ea91 1bbb fc35 ddba 779b 4bbb 938a d938
000001d0: 1b72 5a39 6d06 073b 0ccd 263b 95a4 eb9b
000001e0: 9484 0f3b 725a b33a 54f5 ba39 26d4 77ba
000001f0: a49a 8bba b5bc fa3a a5a2 afba 45cd d33a
00000200: 565f ea3a 0c6c 33b7 2190 0b3b 260a 25bb
00000210: 12c8 1bba 70ca a8ba e91b d4ba 9bd6 aa0d
00000220: efa6 28b9 a411 d0ba 2b18 40bb e96b 05b9
00000230: e919 a339 249d ed38 4271 c03a 1461 84ba
00000240: f5e8 ab01 5724 c7ba 5946 fa37 860e cdba
00000250: 2d3c fc3a ca63 10bb af6d 2dbb 675d a6b9
00000260: 9f4b f7ba bf12 363b 8595 02ba 6d53 65bb
00000270: b9bb 9239 eacb 9db9 bc3c 1d3b 3218 e7b9
00000280: f8ac e93a e000 2e3b 0b50 55b9 03ec 3939
00000290: b9a1 a9ba e430 8539 e5f0 80b8 73fd 1f3b
000002a0: a1de b639 a87d 913a c31d 1f3b b1fc f6ad
000002b0: e517 e23a 0000 0000 f40c 3a3b 4a71 b939
000002c0: 99f4 0d3a 4c82 5139 cb96 a63a 1abb 26bb
000002d0: f614 ecba d896 ae36 fb12 93b9 993f 033b
000002e0: 2ecb 8fb9 3a4f 053b fcda 39bb 5511 8bba
000002f0: 0000 0000 cfe1 bcba 8c8e 083b 3a01 e7ba
00000300: 0000 0000 774f 373b 3c85 1bba e3bd dd3a
00000310: 3cfc 36bb 63f6 8317 ae80 033b 9c7d ceba
00000320: 0419 2d3b 37b5 733a 1005 14bb b701 2f3b
00000330: 1314 1fbb 1c5b e6ba 33c9 41ba 39c7 dc39
00000340: 7333 2839 d33a 0dbb 26ac 38b8 6a55 dc3a
00000350: 2906 abb8 51fd eb3a 0085 473b 36d4 07bb
00000360: fcb2 5d39 5b8a 53b9 851f c83a 8e45 2f3b
00000370: f294 ea3a 5e44 8139 6186 57ba b9a2 1d3a
00000380: ce45 aa3a d040 d5b9 cf8d 2bba 40a2 8d3a
00000390: 8e08 c7ba 48a4 8338 2d16 2e3b 5901 e93a
000003a0: a423 ebba 8877 bf35 9cf6 bdba 1ee2 b9ba
000003b0: f6a4 a3ba b0c2 9438 2890 40bb 2fec dc3a
000003c0: 3259 14bb 62a8 d939 342c 2f3b a20c cfb8
000003d0: 9a66 e33a 0cc2 b034 d485 e3b8 840f 843a
000003e0: 5517 9dba 8e31 69b9 bfe3 cf8d 0cc9 1c3a
000003f0: c154 8fba 0000 0000 44b7 35bb 8c41 6239

network_body._body_endoder.seq_layers.4.weight f4 [256, 256]
0.019366654 -0.004200744 0.12107439 0.0016910508 0.07610065 -0.06346669 0.0498907 -0.07562292
0.012465596 -0.017385386 -0.090835944 0.032732703 -0.043902192 -0.04085439 -0.007978186 -0.014626118
0.082787946 0.0011621524 0.08331517 -0.04117766 0.03244032 -0.03099426 0.07663636 0.09457747
0.021039061 -0.08897891 -0.08957176 0.034914672 0.042885337 -0.11253428 -0.048897 -0.041334808
0.02080565 -0.012946652 0.008787542 0.100949965 -0.020097401 0.041395012 0.05491484 -0.09329515
-0.034710012 0.082979605 0.05336324 0.016843252 -0.081111625 -0.03989443 -0.029674493 -0.035128817
0.042089835 0.074605346 -0.115483135 -0.061826564 0.018929848 -0.029459782 -0.12268344 0.03919953
0.0142325405 0.0459103 -0.009669753 -0.124358244 -0.0017995894 0.0009780306 -0.07393627 0.07165205
0.050494473 -0.12513973 -0.010219798 -0.11962733 -0.039831422 0.0133897355 -0.025972817 -0.04802368
-0.023327295 -0.024996541 0.053176507 0.04750314 -0.0615881 0.03466576 -0.06409062 0.15772934
-0.11280169 0.046995185 -0.022425754 -0.0026005048 -0.024630768 -0.032695714 -0.012945898 0.11141227
0.06583284 -0.0329438 -0.10868819 0.0024005512 -0.043506864 0.047844913 -0.08161012 0.07377955
-0.12059284 -0.033395134 0.00865645 -0.062118027 0.07807766 -0.018145459 0.016803078 -0.05533765
-0.0068451916 0.030353127 -0.020574937 0.04764979 0.022980364 -0.043641295 -0.017843816 0.06879677
-0.07789953 0.09988023 0.033817735 -0.0924227 0.07120946 -0.12658978 -0.060298353 -0.119752854
0.09500918 0.011943308 -0.05072988 -0.052145295 0.06627693 -0.16617993 -0.038831837 0.060425952
-0.08394097 0.03399681 0.020078184 -0.07444908 0.0011917477 0.05060796 0.06131541 -0.04851769
0.0057115215 0.059957728 0.04994212 0.11397911 -0.05493224 -0.036124073 0.10757327 -0.032502297
-0.05258713 -0.038822465 -0.0039965813 0.058569808 0.033641655 -0.06930825 -0.06025111 -0.055526905
0.010097317 0.070160486 0.123387784 -0.022750111 0.026268039 0.023965832 0.05096477 0.14092413
-0.025312675 -0.052774854 -0.0032892937 0.018423839 -0.10857248 0.023958735 -0.06606356 0.042121653
0.0737439 0.0385202 -0.028238354 -0.027295513 -0.0978867 -0.016776346 -0.082779765 -0.10063993
-0.0832404 0.039201748 0.062092084 -0.0011853017 -0.005590586 -0.04359512 -0.008106604 0.08273379
0.046006944 0.048953883 -0.042393703 0.044371445 -0.069497496 -0.08802933 0.046053126 0.055587344
0.068471 -0.011828631 0.06742952 -0.04499788 0.025117474 0.07445758 0.036733326 0.05423249
0.00014810897 -0.040622063 -0.03905262 0.1229381 0.013883942 -0.006937593 0.14551185 -0.14548177
-0.031094072 0.013068431 -0.03138478 -0.019868083 0.043744553 0.0053794696 -0.08576198 0.030333906
-0.039424907 -0.0758972 0.014832419 -0.0954184 0.06260651 0.002266191 -0.016155487 0.05606146
0.07878654 -0.17208293 0.007576743 -0.0101563 -0.12716012 -0.04880885 0.044032644 0.030472143
-0.06289708 -0.06016361 0.0075897174 -0.06386299 -0.019722559 -0.1003436 -0.01877815 -0.0040174536
0.07120481 -0.024622142 0.038416866 -0.042474363 -0.00017843104 0.00085331267 0.03279511 0.078095645
0.053599942 -0.01356934 0.011996876 -0.0027039405 0.119835116 0.035981923 0.101936065 -0.025888195
00000000: d1a6 9e3c 65a6 89bb daf5 f73d 40a6 dd3a
00000010: a8da 9b3d d3fa 81bd 315a 4c3d 31e0 9abd
00000020: 803c 4c3c cc6b 8ebc 3208 babd ba12 063d
00000030: c9d2 33bd ef56 27bd f0b6 02bc 63a2 6fbc
00000040: ba8c a93d 5d53 983a 25a1 aa3d e8a9 28bd
00000050: 24e0 043d ade7 fdbc 86f3 9c3d d5b1 c13d
00000060: 1c5a ac3c 933a b6bd 6671 b7bd b002 0f3d
00000070: 89a8 2f3d 5f78 e6bd 3848 48bd b04e 29bd
00000080: 9c70 aa3c 321e 54bc 9ff9 0f3c dbbe ce3d
00000090: 4ea3 a4bc d18d 293d 62ee 603d 8711 bfbd
000000a0: 162c 0ebd 36f1 a93d 6a93 5a3d dcfa 893c
000000b0: da1d a6bd 5868 23bd ec17 f3bc 3ce3 0fbd
000000c0: 6466 2c3d b0ca 983d 6c82 ecbd da3d 7dbd
000000d0: c512 9b3c a455 f1bc 7541 fbbd b08f 203d
000000e0: 9a2f 693c 700c 3c3d e26d 1ebc 89af febd
000000f0: 33e0 ebba 4331 803a e66b 97bd 4fbe 923d
00000100: 4bd3 4e3d a124 00be f170 27bc 2cff f4bd
00000110: 4626 23bd 9f60 5b3c f2c4 d4bc 7ab4 44bd
00000120: e218 bfbc 8cc5 ccbc 9ccf 593d a792 423d
00000130: ce43 7cbd affd 0d3d f141 83bd cd83 213e
00000140: 9304 e7bd 067e 403d 37b6 b7bc 3b6d 2abb
00000150: 77c6 c9bc f1eb 05bd 081b 54bc 1e2c e43d
00000160: 5ed3 863d 14f0 06bd ea97 debd 9152 1d3b
00000170: 4134 32bd 07f9 433d 3523 a7bd bc19 973d
00000180: 61f9 f6bd 56c9 08bd c8d3 0d3c 796f 7ebd
00000190: 2ee7 9f3d c9a5 94bc 9ca6 893c bba9 62bd
000001a0: a14d e0bb 1fa7 f83c c58c a8bc 6d2c 433d
000001b0: 5141 bc3c 37c1 32bd 322d 92bc 52e5 8c3d
000001c0: ca89 9fbd 028e cc3d 7784 0a3d 1d48 bdbd
000001d0: 44d6 913d c0a0 01be 68fb 76bd fc40 f5bd
000001e0: 2c94 c23d ddad 433c 22ca 4fbd 4e96 55bd
000001f0: 33bc 873d 122b 2abe 220e 1fbd 3481 773d
00000200: 3ee9 abbd 3d40 0b3d 017b a43c c278 98bd
00000210: 6b34 9c3a 4b4a 4f3d de25 7b3d 7cba 46bd
00000220: b727 bb3b 3c96 753d 1c90 4c3d e16d e93d
00000230: a100 61bd d6f6 13bd 604f dc3d 2121 05bd
00000240: 9a65 57bd 4e04 1fbd c1f5 82bb e5e6 6f3d
00000250: d5cb 093d 7cf1 8dbd dec9 76bd 2e70 63bd
00000260: 386f 253c 4db0 8f3d bcb2 fc3d 715e babc
00000270: 1230 d73c fe53 c43c 6fc0 503d 6a4e 103e
00000280: 875c cfbc 722a 58bd 3191 57bb 97ed 963c
00000290: 405b debd 1c45 c43c 554c 87bd c187 2c3d
000002a0: 0b07 973d 5bc7 1d3d 1f54 e7bc d79a dfbc
000002b0: d278 c8bd 8c6e 89bc 7088 a9bd 4f1c cebd
000002c0: f179 aabd 0392 203d 4554 7e3d 205c 9bba
000002d0: 3c31 b7bb cc90 32bd 90d1 04bc 5570 a93d
000002e0: c771 3c3d de83 483d 05a5 2dbd d5be 353d
000002f0: b454 8ebd b948 b4bd 34a2 3c3d 8eaf 633d
00000300: 863a 8c3d e0cc 41bc 7d18 8a3d b24f 38bd
00000310: 29c3 cd3c 377d 983d af75 163d e322 5e3d
00000320: b34d 1b39 5263 26bd a4f5 1fbd f8c6 fb3d
00000330: 7979 633c c054 e3bb 0f01 153e 2cf9 14be
00000340: ffb8 febc f91c 563c 548d 00bd 64c2 a2bc
00000350: 7d2d 333d 4346 b03b faa3 afbd d07e f83c
00000360: 037c 21bd fe6f 9bbd ad03 733c b96a c3bd
00000370: d837 803d 6084 143b 8358 84bc b4a0 653d
00000380: d65a a13d 8236 30be 5446 f83b 9c66 26bc
00000390: 4336 02be caeb 47bd 935b 343d b7a0 f93c
000003a0: 2fd0 80bd 1e6e 76bd 2ab3 f83b 99ca 82bd
000003b0: 3491 a1bc f280 cdbd a3d4 99bc d8a4 83bb
000003c0: d4d3 913d 60b4 c9bc 015b 1d3d 99f9 2dbd
000003d0: 3819 3bb9 d8b0 5f3a 2a54 063d 9cf0 9f3d
000003e0: 9d8b 5b3d f051 5ebc 8c8e 443c 9834 31bb
000003f0: 1d6c f53d c861 133d dbc3 d03d 7b13 d4bc

network_body._body_endoder.seq_layers.4.bias f4 [256]
0.0023615742 -0.0017276951 -0.0018005145 0.0024337794 5.7103197e-35 0.0016132246 0.0 -0.00016945771
-1.9069935e-29 -0.00080423884 -0.0025532062 0.0003585931 0.0017280495 -0.00023688364 -8.43055e-21 -0.0020549425
-0.0017394924 -0.0006035528 -0.0017727194 -0.0018771363 0.00032689274 -0.001737741 0.002865796 0.0017734321
-0.0014499348 -0.002482111 -9.605629e-05 -0.0018018028 -0.0014285836 0.0020535786 -0.00140607 6.079736e-08
-0.001811558 0.0031035587 0.0016935883 0.0002592787 -0.00019874086 -0.0011603363 -0.0027271323 0.0024339075
0.0025860255 0.0 -0.001788852 -0.00037527885 0.0017517325 -0.0021354705 0.0015211861 0.000181224
-0.00092086627 -0.0010368277 -0.0027021451 -0.0024015915 0.00036120674 -0.0023594769 0.0022885585 3.5816877e-06
-8.645124e-34 0.00044159664 0.002438596 -2.831757e-05 -7.4429016e-05 0.0013106329 -0.00032870163 -0.0016150803
0.0003599165 0.0016778042 0.00016756573 0.0016288521 0.00046553081 -3.3015365e-06 0.0023071747 0.0006664303
0.0018290033 -2.2910906e-05 0.0023545327 -0.0016772667 0.0027037389 -0.0022907767 -0.00042348934 -0.0003683635
0.002847298 -0.00061684294 0.0008623391 -0.001631156 0.0006304323 -0.00058455585 -9.787179e-08 -0.0015934482
-0.0017691904 -0.0016250073 0.00027546784 0.00039347677 3.395696e-05 0.0016049164 0.0022434827 8.346981e-20
-0.0013916568 6.996668e-05 -0.0008426402 -0.0016922783 0.0 -0.00073197164 -0.001789211 -0.0015375671
-0.002602793 -9.2802504e-05 -8.435431e-05 -0.0016625636 0.0016761686 0.0008531873 -0.0027910871 2.4152558e-05
0.0 -0.00059439417 5.4801376e-15 -0.00071625534 0.0020371845 -0.0016727217 0.0013644533 0.0023288855
-0.0015230097 -0.001687463 -0.0010000711 0.0025817738 -1.7668209e-29 0.00018004066 -0.002415057 -1.3336985e-09
-0.0017194579 -0.0023377961 -0.00013224887 0.0018097254 -0.0017981615 0.002571212 3.0799655e-38 0.0016906261
0.0019451628 0.0023510605 2.707234e-05 -1.2968001e-05 -0.000495184 -0.0023259157 0.00021768708 -0.0017983145
0.0020668816 0.00022745624 -0.0022235697 -0.0006638623 5.661706e-12 -0.0025575852 -0.0019294037 -0.0013675325
-0.0013604999 0.0 -0.0030219154 -0.0027169385 0.0016449837 0.0018031967 -0.00027386233 0.0020385247
3.985653e-11 -0.002689271 -0.002208851 0.000516925 -0.0021982666 0.0029611427 0.00179791 -0.0008999754
0.0028214762 0.002239702 0.0014918747 -4.037988e-18 4.070481e-05 -2.334023e-05 2.9507992e-05 8.844192e-05
0.0014536831 0.00023564747 0.0027114782 0.0003113935 0.0 0.00040943082 0.000156622 2.8917686e-05
0.0003519985 0.00042429028 0.0 0.002972432 -0.0021068875 -0.00078224036 0.002586016 -0.0013164844
-0.0019089939 -0.0017998366 0.0027214047 8.572704e-05 -0.0018668665 0.0019846815 -0.002435576 0.0026810942
0.0 0.00023994636 -0.0027777415 -0.0024291072 -0.0017738689 -0.00013782021 -0.001154166 -0.0017275548
-0.0006600231 0.0011113576 1.2633014e-29 0.0010419092 0.0009667049 0.00055097754 -0.0028350484 -6.6748595e-05
0.0014799406 -0.0017558419 0.00017392932 0.0023304997 -0.0005049651 0.00023938561 0.0 -0.0012286396
0.0027608988 0.00030090284 1.4338216e-21 -0.00046151935 0.00051201024 0.0026063817 0.00075507327 -0.0022387253
-0.0005154382 -0.0009993019 -0.002321032 0.0017862266 -0.0012848488 5.4312146e-05 0.0012610584 0.002930424
-0.0012511025 3.1394683e-29 -0.0022384662 -0.0018004075 -0.0024141208 4.3841854e-27 -0.0030498286 -0.0019968355
0.0009948319 0.0003141063 0.002491545 -0.0007058079 0.0019042811 0.00014145541 -0.00048330298 0.0007468366
00000000: a4c4 1a3b d473 e2ba 3eff ebba 0b80 1f3b
00000010: 6cce 9706 d672 d33a 0000 0000 75b0 31b9
00000020: 6264 c18f 8ed3 52ba b153 27bb 8d01 bc39
00000030: b87f e23a f863 78b9 a33f 1f9e 37ac 06bb
00000040: aeff e3ba be37 1eba 985a e8ba 3e0a f6ba
00000050: cd62 ab39 eac4 e3ba 14d0 3b3b 8272 e83a
00000060: bd0b beba eaaa 22bb d471 c9b8 782a ecba
00000070: 503f bbba 5595 063b e14b b8ba b48f 8233
00000080: cd71 edba 1365 4b3b 65fb dd3a ccef 8739
00000090: 1865 50b9 6d16 98ba b0b9 32bb 3182 1f3b
000000a0: 4f7a 293b 0000 0000 ea77 eaba 13c1 c4b9
000000b0: 649a e53a 40f3 0bbb 8962 c73a f206 3e39
000000c0: 4a66 71ba 2ae6 87ba 7916 31bb 0564 1dbb
000000d0: 5960 bd39 74a1 1abb a4fb 153b ed5c 7036
000000e0: 4aa4 8f88 1986 e739 dad0 1f3b 858b edb7
000000f0: c616 9cb8 8bc9 ab3a 9655 acb9 1ab1 d3ba
00000100: 2db3 bc39 c4e9 db3a 95b4 2f39 357f d53a
00000110: 7d12 f439 f78f 5db6 f833 173b 61b3 2e3a
00000120: 2bbb ef3a cc30 c0b7 814e 1a3b bbd7 dbba
00000130: 3631 313b db20 16bb c707 deb9 e920 c1b9
00000140: bc99 3a3b a1b3 21ba 990e 623a 83cc d5ba
00000150: 9843 253a e13c 19ba 962d d2b3 40db d0ba
00000160: 2ee4 e7ba 32fe d4ba ab6c 9039 8f4b ce39
00000170: 026d 0e38 0f5c d23a 6507 133b 6716 c51f
00000180: 4168 b6ba 13bb 9238 a0e4 5cba 70cf ddba
00000190: 0000 0000 c9e1 3fba f583 eaba 3188 c9ba
000001a0: 9f93 2abb f79e c2b8 60e7 b0b8 61ea d9ba
000001b0: e3b2 db3a 6ea8 5f3a acea 36bb 399b ca37
000001c0: 0000 0000 1ed1 1bba 5971 c527 15c3 3bba
000001d0: 4982 053b 3a3f dbba 75d7 b23a 37a0 183b
000001e0: ba9f c7ba dd2d ddba d114 83ba fa32 293b
000001f0: 4b2d b38f 4cc9 3c39 ef45 1ebb 584d b7b0
00000200: 6f5f e1ba b635 19bb 49ac 0ab9 4f34 ed3a
00000210: 4ab0 ebba c781 283b 74b0 2701 0098 dd3a
00000220: d5f4 fe3a 4014 1a3b 6819 e337 2491 59b7
00000230: 3ccf 01ba 646e 18bb ee42 6439 6cb5 ebba
00000240: 8574 073b 5281 6e39 4fb9 11bb 0b07 2eba
00000250: 1d34 c72c 299d 27bb 0ce4 fcba c73e b3ba
00000260: cd52 b2ba 0000 0000 540b 46bb aa0e 32bb
00000270: 7e9c d73a 3e59 ec3a 2e95 8fb9 c598 053b
00000280: 774a 2f2e 7b3e 30bb 5fc2 10bb 4082 073a
00000290: cb10 10bb bb0f 423b d9a7 eb3a 54ec 6bba
000002a0: 84e8 383b f7c7 123b 028b c33a b8f9 94a2
000002b0: 75ba 2a38 c3ca c3b7 ee87 f737 e579 b938
000002c0: 8389 be3a 2318 7739 0eb3 313b 8742 a339
000002d0: 0000 0000 e0a8 d639 e63a 2439 4294 f237
000002e0: 708c b839 4773 de39 0000 0000 22cd 423b
000002f0: b513 0abb 430f 4dba 267a 293b e38d acba
00000300: 3537 faba 7fe8 ebba 9859 323b 5bc8 b338
00000310: a5b1 f4ba 6e11 023b 2f9e 1fbb 4cb5 2f3b
00000320: 0000 0000 1c9a 7b39 c50a 36bb a831 1fbb
00000330: 2a81 e8ba d583 10b9 6247 97ba 1f6f e2ba
00000340: 6705 2dba f9aa 913a 2e1d 800f ac90 883a
00000350: 786a 7d3a 7a6f 103a 38cc 39bb 61fb 8bb8
00000360: 91fa c13a 4724 e6ba cc60 3639 4cbb 183b
00000370: a25f 04ba 9603 7b39 0000 0000 4e0a a1ba
00000380: 32f0 343b 7fc2 9d39 49ac d81c 14f8 f1b9
00000390: 6d38 063a d4cf 2a3b 1cf0 453a 94b7 12bb
000003a0: 791e 07ba 02fb 82ba 751c 18bb d21f ea3a
000003b0: 5f68 a8ba 39cd 6338 194a a53a 5b0c 403b
000003c0: 09fc a3ba a130 1f10 3bb3 12bb a7fb ebba
000003d0: 3a36 1ebb ecac ad13 a2df 47bb 57dd 02bb
000003e0: 0565 823a a2ae a439 3049 233b f705 39ba
000003f0: 1299 f93a a653 1439 d463 fdb9 5bc7 433a

network_body._body_endoder.seq_layers.6.weight f4 [256, 256]
-0.0190196 0.041822724 0.12333175 -0.03220108 0.04218801 -0.043483075 0.03398645 0.07549012
-0.018625326 0.112072915 -0.059514266 0.093919635 -0.06179571 0.04608977 -0.016079562 -0.050599474
-0.12012958 0.050680514 0.033182982 -0.024534928 0.084929414 -0.03390493 0.03415331 -0.07865955
0.06732298 0.018511223 0.05663525 0.05387197 -0.023587823 0.025446102 0.030482166 -0.0038718001
-0.045948267 -0.105551854 0.0033027518 0.018436246 0.00615815 -0.01133091 0.00929242 -0.0012091281
-0.12225178 0.030164918 -0.01389456 -0.0064585917 -0.16982123 0.054049194 -0.093424134 0.007478551
0.0038044166 0.052602142 0.010282829 0.01702885 -0.04186461 -0.013378597 0.06361394 0.047065046
0.009437541 0.0050379406 0.15854102 -0.071381904 0.0012779324 -0.006165978 -0.077193774 -0.017458865
-0.016263075 0.038817994 -0.022191402 0.01349863 0.021846876 -0.11196857 -0.013737359 -0.012860092
-0.04541162 -0.07405544 -0.08270932 0.15313691 0.04931614 0.026893204 -0.011406893 -0.057040416
-0.059820388 0.024314774 0.0050187074 -0.07156098 -0.035748027 -0.04453319 -0.09381946 0.069150954
-0.019082932 -0.12055317 0.050110344 -0.051808003 0.032933783 -0.06861284 -0.060456816 0.016646665
-0.06861884 -0.045599144 -0.07504202 -0.010647311 -0.09416527 0.10513559 0.03184057 -0.0080388915
0.034728907 0.12158656 -0.07388192 -0.041651748 -0.057133485 -0.07605181 0.032856997 -0.045597438
-0.00932245 -0.03576557 0.058823265 0.082095616 0.029642314 0.026369596 0.032823846 0.007470682
0.03763411 -0.019752683 -0.008062704 -0.043458834 -0.027140222 -0.083635755 -0.0775917 0.084393576
0.008794575 -0.031773176 0.050192628 -0.04716177 -0.017064013 0.0023676374 0.0039871596 0.03189616
0.0232491 -0.026055017 -0.021141345 -0.01274977 -0.02629983 0.059140157 -0.04779916 0.009547786
0.03675775 -0.09128964 0.008854798 -0.03527838 0.031552996 0.046234727 -0.023564847 -0.034751486
-0.064640254 0.07013911 0.02673338 -0.013304424 -0.10462297 0.032957386 -0.01274347 0.029319867
0.0018910535 -0.011237923 -0.014961821 -0.1197068 0.030487267 0.13375299 -0.13319798 0.023204958
-0.0022274924 0.099771924 -0.011132762 -0.010952395 -0.08095686 -0.09384355 0.11365634 0.020873483
-0.07416141 0.009634677 0.07162276 0.013820014 0.06281747 0.017954437 -0.060852244 0.069335446
0.03734584 0.2118333 -0.041575305 0.12213806 -0.023323834 -0.09098317 -0.057175968 0.02776104
0.019891864 0.03038209 -0.03280347 -0.032039095 -0.024448585 0.0617542 0.015353031 0.0496471
0.00439962 0.11631612 0.009596857 0.021837214 -0.0017854214 -0.0795748 -0.012892138 0.0849967
-0.015993733 -0.021610545 0.021106534 -0.00017868802 -0.017879162 -0.07296844 0.19502662 0.035135355
0.09076646 0.0047088703 0.028513739 0.08123414 0.05857742 -0.03990663 -0.08298339 -0.0047847484
-0.06505513 0.09238166 -0.11370439 0.014570778 0.060479168 -0.024051001 -0.12818798 0.070286326
-0.03919815 0.026882065 0.11244248 0.041968916 -0.05263548 0.09516148 -0.07714446 0.005045555
0.049373347 0.00536511 -0.07396745 -0.16842143 0.08216325 -0.07505312 -0.052592717 0.03006242
0.028998427 0.0170497 -0.06298221 0.005381616 -3.0239391e-05 0.06251028 0.0514789 0.093142696
00000000: fece 9bbc 4e4e 2b3d 5b95 fc3d 48e5 03bd
00000010: 56cd 2c3d 4f1b 32bd 6035 0b3d 909a 9a3d
00000020: 2494 98bc 7c86 e53d 3bc5 73bd f058 c03d
00000030: 801d 7dbd a0c8 3c3d 49b9 83bc 6541 4fbd
00000040: 7f06 f6bd 5f96 4f3d e1ea 073d 79fd c8bc
00000050: 79ef ad3d e5df 0abd 57e4 0b3d 4218 a1bd
00000060: a1e0 893d d9a4 973c 5dfa 673d dba8 5c3d
00000070: 403b c1bc 5874 d03c bcb5 f93c 07be 7dbb
00000080: 4034 3cbd 922b d8bd fb72 583b 9c07 973c
00000090: 4eca c93b 48a5 39bc 3c3f 183c 9b7b 9eba
000000a0: 245f fabd 6b1c f73c 02a6 63bc 98a2 d3bb
000000b0: 9ee5 2dbe b062 5d3d 2755 bfbd a20e f53b
000000c0: 8553 793b 5875 573d 5079 283c 1680 8b3c
000000d0: 3a7a 2bbd e731 5bbc 0648 823d 47c7 403d
000000e0: ea9f 1a3c 4f15 a53b 9458 223e ad30 92bd
000000f0: 4c80 a73a f90b cabb c517 9ebd e505 8fbc
00000100: 243a 85bc 9eff 1e3d beca b5bc 5c29 5d3c
00000110: 38f8 b23c c74f e5bd a912 61bc 23b3 52bc
00000120: 8901 3abd 61aa 97bd 8163 a9bd eccf 1c3e
00000130: b9ff 493d 234f dc3c fae3 3abc 36a3 69bd
00000140: 3906 75bd c72f c73c f873 a43b 908e 92bd
00000150: 866c 12bd 6f68 36bd 6b24 c0bd 049f 8d3d
00000160: cf53 9cbc 95e4 f6bd 8140 4d3d a134 54bd
00000170: 93e5 063d e384 8cbd 91a1 77bd 965e 883c
00000180: 0988 8cbd 2bc6 3abd a1af 99bd 0f72 2ebc
00000190: b9d9 c0bd 5451 d73d 426b 023d 8eb5 03bc
000001a0: e63f 0e3d 6002 f93d 674f 97bd 069b 2abd
000001b0: cd04 6abd 0dc1 9bbd 0f95 063d 61c4 3abd
000001c0: 30bd 18bc eb7e 12bd aaf0 703d bf21 a83d
000001d0: 70d4 f23c 0d05 d83c 4c72 063d 9fcc f43b
000001e0: 3926 1a3d 61d0 a1bc 6e19 04bc e401 32bd
000001f0: 2c55 debc 3949 abbd 66e8 9ebd 8ad6 ac3d
00000200: 1f17 103c 9724 02bd c996 4d3d b32c 41bd
00000210: d4c9 8bbc 5d2a 1b3b b8a6 823b 8ca5 023d
00000220: e674 be3c 5571 d5bc 9d30 adbc 69e4 50bc
00000230: be72 d7bc f33c 723d 0dc9 43bd 516e 1c3c
00000240: 4b8f 163d 10f6 babd b713 113c 1080 10bd
00000250: b73d 013d a060 3d3d 110b c1bc 9357 0ebd
00000260: 1c62 84bd 18a5 8f3d f6ff da3c ccfa 59bc
00000270: 9144 d6bd 53fe 063d fdc9 50bc 3830 f03c
00000280: 3add f73a 441f 38bc 6d22 75bc d728 f5bd
00000290: 6fc0 f93c 8bf6 083e 0d65 08be 5318 be3c
000002a0: 1ffb 11bb 3955 cc3d 3066 36bc ad71 33bc
000002b0: b6cc a5bd 0c31 c0bd a8c4 e83d defe aa3c
000002c0: f0e1 97bd c4da 1d3c f4ae 923d 576d 623c
000002d0: 72a6 803d 2f15 933c 3440 79bd beff 8d3d
000002e0: f4f7 183d d4ea 583e de4a 2abd 8523 fa3d
000002f0: a011 bfbc 6255 babd 5931 6abd 1f6b e33c
00000300: 43f4 a23c dce3 f83c ee5c 06bd 6d3b 03bd
00000310: 6648 c8bc f9f1 7c3d 488b 7b3c c25a 4b3d
00000320: b02a 903b 2537 ee3d 233c 1d3c f5e3 b23c
00000330: cd04 eaba 1df8 a2bd 8c39 53bc c012 ae3d
00000340: 4a05 83bc 9908 b1bc 9ce7 ac3c 335e 3bb9
00000350: 5277 92bc 7a70 95bd 0fb5 473e 17ea 0f3d
00000360: c4e3 b93d de4c 9a3b a595 e93c 165e a63d
00000370: e0ee 6f3d 2275 23bd 32f3 a9bd 61c9 9cbb
00000380: a03b 85bd 9932 bd3d d9dd e8bd 46ba 6e3c
00000390: 01b9 773d 9b06 c5bc b643 03be 47f2 8f3d
000003a0: 3d8e 20bd c737 dc3c 3e48 e63d 99e7 2b3d
000003b0: 4d98 57bd 06e4 c23d eafd 9dbd 2f55 a53b
000003c0: b53b 4a3d cecd af3b 3f7c 97bd ab76 2cbe
000003d0: 3545 a83d 73b5 99bd 766b 57bd 7745 f63c
000003e0: 1c8e ed3c d0ab 8b3c d1fc 80bd 4458 b03b
000003f0: 99aa fdb7 6405 803d 8adb 523d 99c1 be3d
