Assets/ML_PPO/results/simpleLoop_3/BoatAgent/BoatAgent-11417.onnx (onnx, 868044 bytes, 21 tensors)

discrete_action_output_shape f4 [1, 6]
2.0 2.0 2.0 2.0 2.0 2.0
00000000: 0000 0040 0000 0040 0000 0040 0000 0040
00000010: 0000 0040 0000 0040

network_body._body_endoder.seq_layers.0.weight f4 [256, 57]
0.13761325 -0.15356992 0.071848445 -0.06793697 -0.020375883 0.17219159 0.03970631 -0.0806821
-0.07257918 -0.019516047 0.161061 -0.07028844 -0.0021463507 0.04984829 -0.039157074 0.01026999
-0.020240584 0.029900823 0.21861027 0.085788995 -0.24373612 0.27393928 0.32466456 -0.051223036
-0.14263444 0.25798592 0.06958904 0.16273937 -0.039688505 0.11508435 0.16649336 -0.23864847
0.13107045 -0.024475181 -0.17771974 -0.046531107 0.054852564 0.0350847 -0.30687872 -0.07116997
0.32503396 0.06928822 0.26651305 0.25278634 -0.07457112 0.016371133 -0.25069347 0.029434262
-0.044450436 0.0052225017 0.078661084 -0.0009804013 -0.16333324 0.10295429 -0.0049417196 -0.036881484
-0.05599867 0.060060836 0.23055671 -0.06575826 -0.146358 0.13343924 0.044775467 -0.021514408
-0.0017788388 0.13889459 -0.046869393 0.15415028 0.18157753 0.13808979 0.045829136 -0.044512097
-0.16361885 -0.08196643 0.11094256 -0.099250846 -0.06613376 -0.07588986 0.04315126 -0.012898865
0.23600549 0.08054556 0.2720647 0.067286216 0.13606094 0.07759451 -0.07624616 0.07133447
0.11532366 0.022896139 -0.026074054 -0.15858302 0.07515689 0.13012697 0.0048647355 0.0016641439
0.06302691 -0.27162144 -0.12300464 -0.2042643 0.13371208 0.031983763 -0.079230145 0.09073084
0.021204652 -0.1623131 0.06299361 0.07121908 -0.056197602 -0.046075102 -0.26914936 -0.109540686
-0.1349261 0.036071803 0.08302603 0.22112313 0.07782237 -0.14698981 0.21991387 -0.17817684
-0.17034978 0.051618572 0.32979533 -0.09822569 -0.23933823 0.007876188 0.019315172 -0.17441878
-0.06020947 0.1823975 -0.26974347 -0.0022410199 0.23060217 0.076487124 -0.025231589 -0.16742145
0.017503284 -0.27327618 -0.024301987 -0.03733527 -0.09519726 -0.07770691 -0.16252282 0.036930855
-0.021553792 -0.25843018 0.05164624 -0.2181724 0.07494678 -0.036717843 0.046443146 -0.083463036
0.0438953 -0.018877132 0.34115335 0.012813507 -0.07775085 0.15172336 -0.019454267 0.056566056
0.14743902 -0.027029203 0.06598339 -0.08763643 0.12394635 0.04069694 0.01388488 -0.20421153
-0.06938844 -0.10069048 -0.03223468 -0.17614755 0.014628557 0.1223753 -0.13872726 0.028487565
0.06994923 -0.084318146 0.0730012 -0.025099754 -0.236819 0.077896446 0.10061144 -0.07443592
0.15157561 -0.07660627 0.18529065 -0.075025104 0.0092863105 0.1830199 -0.023708882 -0.11623066
-0.08084981 -0.14062786 -0.2520945 0.1053204 0.06230987 0.083475664 0.058529735 -0.020921709
-0.011046708 -0.11403001 -0.08215602 0.1007111 -0.010512961 0.15752953 0.060766105 0.16344072
0.0032252902 0.22041915 0.07767631 -0.027296793 -0.15353425 -0.10433243 0.10186077 0.08822343
0.124990255 0.089218624 -0.08664995 -0.04294 0.0009526284 0.32987145 -0.2652867 -0.039687604
0.18028842 -0.0073141735 -0.014410342 0.11324903 0.1841334 -0.15012175 0.26073572 0.030538164
-0.25715148 0.01643884 0.013648511 -0.061170265 0.06868347 0.1071624 -0.07669781 -0.12564963
0.05490614 -0.17787045 0.2715553 -0.053719684 0.105061814 -0.026756387 0.09136089 0.12860405
-0.15840776 -0.056005422 -0.03238817 0.05720905 0.32162404 0.2607651 0.07953144 0.18734446
00000000: 7dea 0c3e 6f41 1dbe 4725 933d 8a22 8bbd
00000010: 53eb a6bc fe52 303e 15a3 223d a83c a5bd
00000020: 65a4 94bd 1ee0 9fbc 2ded 243e 63f3 8fbd
00000030: caa9 0cbb b82d 4c3d 2b63 20bd 7643 283c
00000040: 95cf a5bc 92f2 f43c 5fdb 5f3e 24b2 af3d
00000050: f695 79be c541 8c3e 6f3a a63e 3fcf 51bd
00000060: c30e 12be bb16 843e b384 8e3d 26a5 263e
00000070: 6a90 22bd 58b1 eb3d 3c7d 2a3e 4460 74be
00000080: 5537 063e 2d80 c8bc 2afc 35be 6797 3ebd
00000090: 15ad 603d f9b4 0f3d 351f 9dbe 90c1 91bd
000000a0: da6a a63e fbe6 8d3d 6674 883e 366d 813e
000000b0: beb8 98bd c11c 863c e55a 80be 1f20 f13c
000000c0: a911 36bd 8521 ab3b 1019 a13d cf80 80ba
000000d0: d440 27be b3d9 d23d 26ee a1bb 0a11 17bd
000000e0: dd5e 65bd 5a02 763d 0f17 6c3e 44ac 86bd
000000f0: dfde 15be 4ca4 083e 7b66 373d fc3e b0bc
00000100: ed27 e9ba 623a 0e3e 1ffa 3fbd 92d9 1d3e
00000110: 76ef 393e 6967 0d3e 55b7 3b3d 5152 36bd
00000120: b38b 27be 04de a7bd da35 e33d 0744 cbbd
00000130: 2371 87bd 256c 9bbd 60bf 303d c355 53bc
00000140: 6cab 713e 12f5 a43d 104c 8b3e 5bcd 893d
00000150: 8f53 0b3e dfe9 9e3d f226 9cbd ce17 923d
00000160: d02e ec3d af90 bb3c 4199 d5bc 9663 22be
00000170: dbeb 993d 0140 053e 5c68 9f3b 671f da3a
00000180: 4114 813d f711 8bbe dbe9 fbbd a92a 51be
00000190: d2eb 083e 6801 033d 6a43 a2bd 17d1 b93d
000001a0: 61b5 ad3c 6835 26be cb02 813d 4fdb 913d
000001b0: 752f 66bd 3fb9 3cbd f2cd 89be de56 e0bd
000001c0: 112a 0abe 07c0 133d 8d09 aa3d 1a6e 623e
000001d0: 5661 9f3d 7f84 16be 1a31 613e fd73 36be
000001e0: 2c70 2ebe ff6d 533d efda a83e 8d2a c9bd
000001f0: 1515 75be 200b 013c da3a 9e3c d69a 32be
00000200: 359e 76bd 69c6 3a3e d11b 8abe 13de 12bb
00000210: fa22 6c3e 48a5 9c3d 7ab2 cebc 8770 2bbe
00000220: 0c63 8f3c dbea 8bbe f614 c7bc deec 18bd
00000230: c8f6 c2bd cd24 9fbd 626c 26be cf44 173d
00000240: 9491 b0bc f650 84be 028b 533d 9668 5fbe
00000250: b37d 993d 7365 16bd 2b3b 3e3d abee aabd
00000260: 8fcb 333d 37a4 9abc a7ab ae3e beef 513c
00000270: d63b 9fbd 5e5d 1b3e 8e5e 9fbc cfb1 673d
00000280: 41fa 163e 596c ddbc 4d22 873d bb7a b3bd
00000290: 95d7 fd3d d6b1 263d 687d 633c d41c 51be
000002a0: 871b 8ebd cf36 cebd 8308 04bd 0660 34be
000002b0: 9dac 6f3c e79f fa3d 850e 0ebe c15e e93c
000002c0: 8b41 8f3d feae acbd a781 953d 009e cdbc
000002d0: ae80 72be 2c88 9f3d 5f0d ce3d dc71 98bd
000002e0: a336 1b3e c0e3 9cbd d5bc 3d3e c3a6 99bd
000002f0: 9c25 183c 9269 3b3e 2139 c2bc 570a eebd
00000300: 9694 a5bd c000 10be 8812 81be 39b2 d73d
00000310: a238 7f3d 4af5 aa3d e0bc 6f3d 0164 abbc
00000320: 40fd 34bc 9188 e9bd 6a41 a8bd 9f41 ce3d
00000330: 8e3e 2cbc 6c4f 213e e1e5 783d 015d 273e
00000340: 645f 533b 8fb5 613e c214 9f3d 869d dfbc
00000350: 1538 1dbe 3eac d5bd 619c d03d 7cae b43d
00000360: e4fa ff3d 41b8 b63d 8775 b1bd dae1 2fbd
00000370: cfb9 793a e9e4 a83e a9d3 87be 788f 22bd
00000380: 879d 383e bcab efbb 5b19 6cbc 1cef e73d
00000390: 778d 3c3e 84b9 19be 277f 853e 2c2b fa3c
000003a0: 5ca9 83be bfaa 863c 019e 5f3c ac8d 7abd
000003b0: eba9 8c3d f677 db3d be13 9dbd 4caa 00be
000003c0: 43e5 603d ac23 36be 4c09 8b3e 2c09 5cbd
000003d0: a62a d73d 3630 dbbc 6b1b bb3d c8b0 033e
000003e0: a535 22be f165 65bd 75a9 04bd 0954 6a3d
000003f0: e8ab a43e 0183 853e 61e1 a23d 3ad7 3f3e

network_body._body_endoder.seq_layers.0.bias f4 [256]
0.0028736845 0.006969673 -0.006686715 0.0044227554 0.0019497524 0.011083087 -0.0063773585 0.0041745296
-0.0058538667 0.001771009 2.136584e-05 -0.0030299418 -0.006685041 0.0006707076 -0.00046663187 -2.8208453e-05
0.002595171 4.8658912e-06 -0.00010515199 -0.014624955 0.004556266 0.0004664349 -0.0040261676 0.0076156603
-0.00052352314 0.0023676604 -0.009032151 3.3396394e-05 -0.004610921 -0.000791599 -1.9907136e-05 -0.000119006625
-0.0023141135 -0.0043593175 -0.0056110714 -0.0014276489 -0.00036597578 -0.007204969 -0.00041147578 0.0085647665
-0.004773851 0.0012588041 0.013481885 0.0013669656 -0.0060096486 -0.0034872873 -0.0054908665 -0.0011207807
-0.0029201007 -0.00081413164 -0.0019069163 -0.00488979 -0.005927852 -0.006405115 -0.00026395227 -0.0048685484
0.006362888 -0.0020097017 0.0111166965 -0.0029458269 -0.0034946166 0.01416866 -0.005036483 -0.009849538
-0.0018133799 0.003334691 0.0020059117 0.008158098 0.0042944015 -0.0016843221 0.0018563834 -0.0040272796
-0.005430258 -0.0068749706 0.012408059 0.0053602704 -0.0028197872 -0.01273922 -0.009270965 0.0009827955
0.0021133611 0.00016304644 -0.0023543092 0.003790508 0.0009651292 -0.0057490775 0.0013747877 -0.0073138312
0.0020852666 0.0010886847 0.0066911965 -0.004179822 -0.0012862944 0.0036376796 -0.0016696384 6.178981e-05
0.0071789105 0.0041742986 -0.00090410706 0.0029749735 0.0053604865 0.00053616863 -0.006459898 -0.0029133884
-0.00035552925 -0.01347395 -0.0046770973 0.00079040125 9.153497e-05 -0.00035693232 -0.00052001205 -0.0063647446
0.006193542 0.007174008 0.004250482 0.0138444975 0.019195335 -0.0049818926 0.0034075403 -0.007618423
0.019217435 0.0014111289 0.0001916911 0.010228929 -0.0066295057 -0.015782017 0.0015402413 0.00055761787
-0.0023876254 0.0023270117 -0.004279535 0.019936396 0.0022557331 0.0030429584 0.0057278113 0.003412817
0.00012379201 0.0073297657 0.0075230356 0.014726231 0.0035592767 0.0052202386 0.003007796 0.0028717692
-0.0023750823 -0.00856795 -0.0098800585 0.00017337248 0.01276738 -0.014862288 0.0069963974 0.0016049825
0.0014357157 -0.0036607515 0.020929826 -0.0048624566 0.006245598 0.0030166933 0.0064444765 0.0074089007
0.0005380461 -0.007360196 -0.001183721 -0.002198218 -0.007578702 0.0088792145 0.011484897 0.0065293717
0.0013491316 0.0014548393 -0.0011076207 0.0006615287 -0.00013685813 0.0053321486 -0.0034462092 0.0033642524
-0.0011161887 -0.003152184 0.0013874592 0.0041068424 -0.0074288207 -0.008569916 -0.007720413 0.002522698
-0.0022559396 -0.0012076951 -0.002784256 -0.0007256528 -0.0023856014 -0.0035284546 0.0017077848 -0.007010264
0.009589525 -0.002127287 -0.0056587555 -0.0031932543 0.00033053997 -0.00571724 -0.012823445 0.004152569
0.016014922 0.0021794413 -0.004092124 -4.3417822e-05 -0.006999063 0.018549876 0.00037859209 0.0014415047
0.00058734766 0.012948774 0.005478804 0.0027426484 -0.00013780614 0.011690175 0.0012354567 -0.001171224
-0.0120021785 0.004141677 0.018032499 -0.0028802496 -0.00033923422 -0.0007065363 0.005043129 -0.00039490007
0.002671956 0.0040594894 0.0002728553 0.0031758025 -0.00804964 -0.0013150803 0.0012440231 -0.0032447064
-0.011555338 -0.006740434 -0.0035047345 0.0013443914 -0.009182177 -0.0012235758 0.0019395453 0.0016788825
0.005198395 -0.010955222 -0.00031189597 0.011641599 -0.0031951636 -0.0020789762 0.005223344 -3.395712e-06
0.0046724235 0.006224291 0.001239096 -0.002865021 -0.009615264 0.013386382 0.004329555 0.0099274255
00000000: 6d54 3c3b db61 e43b 3b1c dbbb c3ec 903b
00000010: d68e ff3a d695 353c 29f9 d0bb 7eca 883b
00000020: cbd1 bfbb 3321 e83a cb3a b337 fd91 46bb
00000030: 300e dbbb 6dd2 2f3a 45a6 f4b9 31a1 ecb7
00000040: bf13 2a3b b045 a336 0b85 dcb8 829d 6fbc
00000050: bb4c 953b d58b f439 f1ed 83bb ca8c f93b
00000060: 0b3d 09ba c02a 1b3b 96fb 13bc 1b13 0c38
00000070: 3517 97bb 4f83 4fba 40fe a6b7 3293 f9b8
00000080: 62a8 17bb 9bd8 8ebb 14dd b7bb f31f bbba
00000090: 70e0 bfb9 a917 ecbb 58bb d7b9 3c53 0c3c
000000a0: f76d 9cbb 75fe a43a 20e3 5c3c c12b b33a
000000b0: 96ec c4bb f98a 64bb baec b3bb 29e7 92ba
000000c0: 295f 3fbb 736b 55ba 7ef1 f9ba 883a a0bb
000000d0: 6d3e c2bb 00e2 d1bb 1363 8ab9 5888 9fbb
000000e0: c67f d03b 33b5 03bb ce22 363c c60e 41bb
000000f0: f005 65bb ab23 683c 1509 a5bb f55f 21bc
00000100: efae edba d58a 5a3b 9d75 033b 8ba9 053c
00000110: 0db8 8c3b 79c4 dcba e451 f33a 45f7 83bb
00000120: 4ef0 b1bb 6f47 e1bb 2c4b 4b3c 35a5 af3b
00000130: 2ecc 38bb 29b8 50bc 3fe5 17bc 25d1 803a
00000140: 5180 0a3b 72f7 2a39 c14a 1abb 2c6a 783b
00000150: b900 7d3a c262 bcbb 3832 b43a dda8 efbb
00000160: f8a8 083b 32b2 8e3a d341 db3b e3f6 88bb
00000170: e198 a8ba 2366 6e3b c5d7 daba 2795 8138
00000180: 113d eb3b 8ec8 883b 9901 6dba c6f7 423b
00000190: 05a7 af3b ab8d 0c3a 8dad d3bb 8cee 3ebb
000001a0: 5466 bab9 d8c1 5cbc 5642 99bb ee32 4f3a
000001b0: 76f6 bf38 a522 bbb9 6b51 08ba 598f d0bb
000001c0: 32f3 ca3b f113 eb3b a147 8b3b 08d4 623c
000001d0: 893f 9d3c 253f a3bb 0a51 5f3b f7a3 f9bb
000001e0: e26d 9d3c a1f5 b83a b000 4939 3d97 273c
000001f0: 533c d9bb 4a49 81bc ece1 c93a 1a2d 123a
00000200: b579 1cbb c780 183b 573b 8cbb a751 a33c
00000210: ecd4 133b 5f6c 473b 5db0 bb3b 91a9 5f3b
00000220: 2ace 0139 882e f03b cc83 f63b 4a46 713c
00000230: c142 693b 890e ab3b 711e 453b 4b34 3c3b
00000240: 45a7 1bbb 9660 0cbc f8df 21bc 52cb 3539
00000250: 462e 513c f480 73bc 0942 e53b 475e d23a
00000260: a02e bc3a 38e9 6fbb 0775 ab3c 3e55 9fbb
00000270: e0a7 cc3b b7b3 453b 302c d33b 5dc6 f23b
00000280: aa0b 0d3a cd2d f1bb 1627 9bba fa0f 10bb
00000290: c356 f8bb 207a 113c 262b 3c3c 57f4 d53b
000002a0: 58d5 b03a 4eb0 be3a 952d 91ba 716a 2d3a
000002b0: 9381 0fb9 4eb9 ae3b ccd9 61bb ca7a 5c3b
000002c0: 144d 92ba df94 4ebb 68db b53a b192 863b
000002d0: 776d f3bb d568 0cbc 85fb fcbb d953 253b
000002e0: 63d8 13bb 864b 9eba 1078 36bb bc39 3eba
000002f0: c057 1cbb a53d 67bb c0d7 df3a 5bb6 e5bb
00000300: 621d 1d3c f469 0bbb 156d b9bb eb45 51bb
00000310: 534c ad39 af57 bbbb 6d19 52bc 4612 883b
00000320: ba31 833c f5d4 0e3b 3917 86bb 881b 36b8
00000330: 6558 e5bb e9f5 973c c57d c639 dff0 bc3a
00000340: 3cf8 193a 1827 543c 8a87 b33b 01be 333b
00000350: 0e80 10b9 2688 3f3c 0cef a13a c283 99ba
00000360: c9a4 44bc e8b6 873b e4b8 933c 92c2 3cbb
00000370: 3fdb b1b9 d936 39ba d540 a53b 970a cfb9
00000380: fc1b 2f3b 7705 853b 050e 8f39 2021 503b
00000390: a3e2 03bc c65e acba 7d0e a33a 24a5 54bb
000003a0: 9a52 3dbc dcde dcbb b0af 65bb 4a36 b03a
000003b0: d770 16bc 6460 a0ba 5738 fe3a f30d dc3a
000003c0: 4c57 aa3b 887d 33bc f885 a3b9 68bc 3e3c
000003d0: f365 51bb 6f3f 08bb 9628 ab3b e3e1 63b6
000003e0: 211b 993b 23f5 cb3b 2a69 a23a 13c3 3bbb
000003f0: 5789 1dbc 8e52 5b3c f1de 8d3b a4a6 223c

network_body._body_endoder.seq_layers.2.weight f4 [256, 256]
-0.015205282 0.038791608 -0.030952936 -0.0010629524 0.104334295 -0.0076384577 0.033980597 0.016799146
0.06079404 -0.015644083 -0.050736636 0.061478622 -0.10896504 -0.04378224 0.086432636 -0.12097457
-0.08458895 0.1057564 0.009370656 0.030306622 -0.100788176 -0.04501266 -0.06621045 -0.0533171
0.094709925 0.010685791 0.0222785 -0.0033187948 -0.047671907 0.01432668 -0.01743634 0.050305787
0.122919515 -0.037102185 -0.08717752 -0.031666033 0.13197537 0.029173426 -0.014711118 -0.05574732
0.090994395 0.06286004 0.031890403 -0.07539731 -0.04607133 -0.03562234 -0.068021275 -0.11942565
0.0139776105 -0.064675756 -0.011550631 0.09773855 0.04512969 0.0041549723 0.048438285 0.019390874
0.0009817592 0.081617266 -0.0289233 0.038060475 -0.124129996 0.11836281 0.121442586 -0.050359134
-0.02952635 -0.017517693 0.09209437 0.02465342 0.059360966 0.052245207 0.0019359136 0.0654276
0.021717014 0.018782167 0.0022616615 -0.044958074 0.02248294 -0.08952178 0.031555057 0.010588475
-0.015051577 0.06671199 -0.006118472 -0.09374728 -0.057095807 0.032954667 -0.00016281735 0.057558194
0.015296153 -0.09394636 -0.036943346 0.012645725 0.05142185 -0.03910926 -0.03595874 0.0029006668
-0.00691888 -0.012974228 -0.083872646 -0.02010242 -0.1083201 -0.043941576 -0.049544215 -0.018771637
-0.040137324 0.10400972 0.07294878 -0.04343084 0.03935693 0.095306225 0.04518872 0.042324506
0.08314586 0.15614372 0.05971583 0.05216818 -0.04825891 0.02693127 -0.03899733 0.07403693
-0.04654749 -0.00161854 -0.016716866 0.022700118 0.13302721 0.015111421 -0.03468766 -0.053511858
-0.10948943 0.07951774 0.027018666 0.116638795 -0.013151281 -0.01781081 -0.02985674 -0.0011235741
-0.0094277505 -0.005856716 0.028232519 0.06042783 0.048546486 0.08014166 -0.019028815 -0.038545955
0.1564831 -0.15337045 0.07314738 0.015696138 -0.0050815265 0.09452952 -0.036406513 -0.048066694
-0.087339826 -0.071573794 -0.052298773 0.022071172 0.06300787 -0.01355552 0.17470203 -0.10449692
-0.11148508 -0.023866594 0.008385588 0.0044916463 0.07665326 -0.020779237 -0.044521615 0.18158364
0.057977743 -0.037682056 -0.1867456 0.040434558 0.07929518 0.05367158 0.0386516 -0.036972933
-0.0008663132 -0.00863241 -0.050617106 -0.00046264965 0.045276012 -0.052214123 -0.035887703 -0.030176846
0.092604786 -0.034879323 -0.06717956 0.027252067 -0.0853679 0.007512163 -0.031195711 0.014715161
-0.007103882 -0.057265043 -0.07460432 -0.036275357 -0.08823308 0.00047378725 -0.02961749 -0.051933978
-0.05139915 0.06666167 -0.06543238 0.0029477905 0.061996747 0.20591402 0.0856294 0.015002113
0.026323609 0.06871642 0.0066623697 0.035541933 -0.07358512 0.15601307 0.07250252 -0.0073744273
-0.02871189 -0.00017510049 0.08844973 0.054556698 0.0007861426 0.053828437 -0.06509339 -0.09225231
-0.11372451 0.05233395 0.09151108 0.021086017 -0.023903325 -0.080527775 -0.024182342 0.028774615
-0.057840455 0.03197823 -0.019391375 0.111827165 0.007851216 0.02995522 0.021797309 0.0034033868
-0.115508825 0.12980336 -0.030042494 -0.07875379 -0.01757481 -0.02995846 0.06476259 0.14860173
0.02372935 -0.008227635 -0.04634665 -0.0047719674 -0.11029132 -0.01640725 0.10071068 0.09738344
00000000: 931f 79bc f3e3 1e3d 0391 fdbc c452 8bba
00000010: 38ad d53d 074c fabb 3d2f 0b3d 5d9e 893c
00000020: 2c03 793d 0528 80bc 38d1 4fbd 02d1 7b3d
00000030: 1029 dfbd 0255 33bd 9803 b13d 84c1 f7bd
00000040: f93c adbd d096 d83d 6187 193c 9845 f83c
00000050: 086a cebd 325f 38bd 5899 87bd 0863 5abd
00000060: 47f7 c13d 7513 2f3c 6781 b63c 2380 59bb
00000070: 9e43 43bd 74ba 6a3c a8d6 8ebc 710d 4e3d
00000080: 3abd fb3d 76f8 17bd 218a b2bd 3eb4 01bd
00000090: 8d24 073e 1cfd ee3c e706 71bc 4d57 64bd
000000a0: 455b ba3d c4bc 803d 839f 023d e869 9abd
000000b0: 4ab5 3cbd bbe8 11bd bd4e 8bbd 6f95 f4bd
000000c0: 5902 653c b974 84bd dc3e 3dbc 262b c83d
000000d0: e9d9 383d 6f26 883b 3967 463d 9cd9 9e3c
000000e0: 5fae 803a f426 a73d 8ef0 ecbc 4de5 1b3d
000000f0: de37 febd 3368 f23d e4b6 f83d 6145 4ebd
00000100: 3ee1 f1bc 4481 8fbc f99b bc3d f8f5 c93c
00000110: 7c24 733d 12ff 553d 7bbe fd3a e8fe 853d
00000120: e1e7 b13c 0fdd 993c 6238 143b f525 38bd
00000130: 252e b83c 3257 b7bd e03f 013d 487b 2d3c
00000140: e49a 76bc 4ca0 883d 777d c8bb 93fe bfbd
00000150: 4bdd 69bd 79fb 063d f3b9 2ab9 24c2 6b3d
00000160: b79c 7a3c f366 c0bd e851 17bd 0430 4f3c
00000170: b89f 523d 0831 20bd 7949 13bd 1d19 3e3b
00000180: c6b7 e2bb db91 54bc 6cc5 abbd d5ad a4bc
00000190: eed6 ddbd 15fc 33bd e0ee 4abd fac6 99bc
000001a0: 0967 24bd 0c03 d53d 2c66 953d 89e4 31bd
000001b0: bb34 213d e92f c33d cf17 393d 765c 2d3d
000001c0: 6048 aa3d 24e4 1f3e 9698 743d 4dae 553d
000001d0: 23ab 45bd f79e dc3c aabb 1fbd ada0 973d
000001e0: 95a8 3ebd 3125 d4ba cff1 88bc 99f5 b93c
000001f0: 4938 083e e595 773c a614 0ebd 402f 5bbd
00000200: ff3b e0bd 32da a23d 4056 dd3c 52e0 ee3d
00000210: 7878 57bc fae7 91bc 1f96 f4bc e444 93ba
00000220: da76 1abc b2e9 bfbb e247 e73c 2c83 773d
00000230: aed8 463d 5021 a43d 51e2 9bbc 5de2 1dbd
00000240: 1b3d 203e 250d 1dbe 4bce 953d 3095 803c
00000250: ef82 a6bb b198 c13d ff1e 15bd 95e1 44bd
00000260: 39df b2bd 4895 92bd 3d37 56bd 9ace b43c
00000270: 450a 813d f917 5ebc 17e5 323e 7b02 d6bd
00000280: 4a52 e4bd e083 c3bc b563 093c a92e 933b
00000290: 62fc 9c3d 3839 aabc 4c5c 36bd 10f1 393e
000002a0: 127a 6d3d 8058 1abd 3d3a 3fbe b59e 253d
000002b0: 8365 a23d bbd6 5b3d 2451 1e3d ee70 17bd
000002c0: 4b19 63ba f46e 0dbc e253 4fbd c98f f2b9
000002d0: 5773 393d 7ade 55bd fcfe 12bd 6f35 f7bc
000002e0: 94a7 bd3d 9fdd 0ebd 7095 89bd ba3f df3c
000002f0: 5ed5 aebd 9728 f63b 268e ffbc dc17 713c
00000300: aec7 e8bb c08e 6abd 26ca 98bd 7895 14bd
00000310: 8cb3 b4bd a666 f839 61a0 f2bc b9b8 54bd
00000320: ea87 52bd ea85 883d 6901 86bd b82f 413b
00000330: 4df0 7d3d 20db 523e 785e af3d 6ccb 753c
00000340: 9ca4 d73c 32bb 8c3d 0250 da3b 6b94 113d
00000350: ccb3 96bd e4c1 1f3e 347c 943d 2ea5 f1bb
00000360: 3335 ebbc 2e9b 37b9 2225 b53d d876 5f3d
00000370: 2315 4e3a 357b 5c3d af4f 85bd c7ee bcbd
00000380: 65e8 e8bd 205c 563d 296a bb3d 95bc ac3c
00000390: e8d0 c3bc bfeb a4bd 0c1a c6bc beb8 eb3c
000003a0: 1dea 6cbd 9bfb 023d a9da 9ebc a405 e53d
000003b0: 63a2 003c a664 f53c 4590 b23c 5b0b 5f3b
000003c0: e48f ecbd 2ceb 043e ad1b f6bc ab49 a1bd
000003d0: 0cf9 8fbc 726b f5bc 40a2 843d 0d2b 183e
000003e0: 0e64 c23c 34cd 06bc fcd5 3dbd 2a5e 9cbb
000003f0: 6ae0 e1bd 7f68 86bc 6741 ce3d f870 c73d

network_body._body_endoder.seq_layers.2.bias f4 [256]
0.003942871 0.0020838955 -0.010895207 -0.013731967 0.0012843955 0.005004546 0.00091383286 -0.0041774213
-0.0020179534 -0.01513543 0.0051692678 -0.0025109828 -0.0074961423 0.0010979618 0.00023112276 -0.0038837555
-0.010765031 -0.013048703 -0.00970865 0.0022477997 -0.010162651 -0.01649221 -0.0022134602 0.012057104
0.0068129534 -0.0027325402 -0.00404317 -0.002477255 0.0058025545 0.008751522 0.0063426164 0.0007778105
-0.0015806076 -0.010528307 0.0013487444 -0.012363805 -0.002850639 0.0031900865 -0.0072585954 0.002993714
0.0033694038 -0.01895401 0.0037225275 0.0035191549 -0.0050597 0.002753107 -0.0007013748 -0.0007286867
0.0011049862 -0.01835623 0.0024709855 -0.015472094 -0.0094203735 -0.0012855902 0.009745393 0.0015075019
0.0002247854 -0.0026015264 -0.0021947373 0.0020361855 -0.0015193839 -0.01717726 -0.00998861 0.011074004
-0.0043377113 0.000640656 0.0076446026 -0.0057903267 0.002749532 0.013287708 -2.2368662e-05 -0.00023061046
0.00086325227 -0.0057661734 0.0021271347 -0.0011213135 0.006533889 0.0041634385 -0.0062042475 -4.7229612e-05
-0.002190684 -0.0029317057 0.0031156593 0.019427678 -0.0015523657 0.0030524628 0.0023505732 0.009015026
0.017067853 -0.00044266914 -0.0067905528 0.011480957 0.013028713 -0.0050449786 -0.0064966 0.0073839677
-0.008611934 0.009526365 -0.014235746 -0.00040431868 0.00046605628 0.004322979 -0.002620192 -0.005544023
-0.0023037565 -0.0057991566 0.01172475 -0.0037374727 -0.00073376345 0.013039173 -0.01593636 -0.00043014038
-0.010430945 -0.0056730467 0.0049530673 -0.00425824 -0.0018010574 0.0005432597 -0.0057230815 0.005509761
0.003541911 -0.0010030994 -0.012439343 0.015634736 -0.0027985522 -0.0020329263 -0.003185313 0.00582193
-0.0015315416 -0.0070833005 0.0050335084 -0.0030444833 -0.010811782 -0.00049344415 -0.0005937642 -0.01575518
-0.0029080121 -0.0008315928 0.0095043555 0.0065630237 0.004786294 -0.0037469084 0.003309641 0.014500187
0.005972101 -0.0065121986 -0.0040080165 -0.0016029424 -0.0002643267 -0.001094708 0.0013265652 0.0028745995
0.0057758684 -0.0071190703 -0.0054551978 0.0003044931 -0.00039748108 0.005352983 -0.00096421014 -0.005737088
0.0023629745 -0.012090387 0.0074002193 -0.0013978963 -0.0028074868 -0.0008451116 -0.0034531914 -0.008512183
-0.007956802 0.0015524653 -0.004024938 -0.012811468 -0.008326755 -0.004406718 -0.0048586107 -0.0056171864
-0.0032503216 0.008247684 -0.00031661932 -0.0005487292 -0.017530758 0.0115174735 0.0068175453 0.00056017743
-0.0013646072 0.0031973654 -0.0040636933 0.0022929094 -0.020383034 -0.009367231 0.0030255874 -0.0053481204
0.012025164 0.0012960035 -0.0094272895 -0.014350889 0.009636057 -0.001935098 0.00244055 -0.0012399706
0.0015609867 0.012595331 -0.00064364105 -0.0069196965 0.013751453 -0.009520061 -0.010934508 -0.00028167077
0.0006392827 -0.0037948904 -0.0020055873 0.010989111 0.0115527995 0.004707634 0.0057610245 -0.0007306001
0.008709564 -0.0114317 -0.0006112427 0.00020246115 -0.014555551 -0.008649299 -0.021756837 -0.004885479
-0.003362055 0.0014792356 -0.011274973 -0.004809948 -0.0065346733 -0.00276353 -0.0013515506 -0.002819727
0.0056169643 0.0069648037 0.008382788 -0.0075090686 -0.0029774061 -0.0020243388 -0.012692476 -0.0042747883
-0.026106363 -0.0026561697 0.00375299 0.005835829 0.0011015 0.011123695 -0.00053360855 -0.005181026
-0.0019733822 0.00092739076 -0.008057574 -0.0005722274 -0.0051717306 -0.005680062 0.0008086785 -0.0034812246
00000000: 3333 813b f791 083b cf81 32bc 0bfc 60bc
00000010: 2959 a83a 2dfd a33b 498e 6f3a c0e2 88bb
00000020: a43f 04bb 98fa 77bc f662 a93b 4d8f 24bb
00000030: 33a2 f5bb 7ce9 8f3a 8b59 7239 9b86 7ebb
00000040: d05f 30bc 3aca 55bc 0811 1fbc d24f 133b
00000050: 3f81 26bc ac1a 87bc b30f 11bb 298b 453c
00000060: 323f df3b 6b14 33bb 917c 84bb 7159 22bb
00000070: 5b23 be3b 8b62 0f3c b9d5 cf3b fbe5 4b3a
00000080: 642c cfba ec7e 2cbc 5ac8 b03a 8f91 4abc
00000090: c9d1 3abb c510 513b 83d9 edbb 3032 443b
000000a0: 37d1 5c3b 7145 9bbc a6f5 733b 9fa1 663b
000000b0: d7cb a5bb 796d 343b 77dc 37ba 5605 3fba
000000c0: 2fd5 903a ce5f 96bc 42f0 213b aa7e 7dbc
000000d0: e957 1abc 4081 a8ba 24ab 1f3c 5f97 c53a
000000e0: 5fb4 6b39 5f7e 2abb 95d5 0fbb 8671 053b
000000f0: 1026 c7ba 53b7 8cbc 44a7 23bc bd6f 353c
00000100: 5c23 8ebb b2f1 273a 937f fa3b c8bc bdbb
00000110: 7e31 343b b0b4 593c 56a4 bbb7 06d0 71b9
00000120: e14b 623a 2bf2 bcbb 6667 0b3b 0af9 92ba
00000130: 3c1a d63b 746d 883b 004d cbbb 6918 46b8
00000140: 9491 0fbb dc21 40bb 1730 4c3b cb26 9f3c
00000150: c078 cbba d40b 483b 130c 1a3b c2b3 133c
00000160: e2d1 8b3c 0c16 e8b9 4983 debb a01a 3c3c
00000170: 6276 553c 5950 a5bb 6ee1 d4bb 36f5 f13b
00000180: 1219 0dbc 7914 1c3c 0c3d 69bc bcfa d3b9
00000190: 0459 f439 c7a7 8d3b 87b7 2bbb a3aa b5bb
000001a0: 9ffa 16bb da06 bebb 2a19 403c 63f0 74bb
000001b0: 085a 40ba 41a2 553c f88c 82bc 7784 e1b9
000001c0: 8ee6 2abc f7e4 b9bb 574d a23b b588 8bbb
000001d0: 7511 ecba 8b69 0e3a b088 bbbb 3a8b b43b
000001e0: 681f 683b 6e7a 83ba 63ce 4bbc 6b14 803c
000001f0: ea67 37bb d83a 05bb afc0 50bb e3c5 be3b
00000200: 02be c8ba 081b e8bb 21f0 a43b f485 47bb
00000210: e723 31bc 7a5a 01ba d7a6 1bba 0211 81bc
00000220: 5994 3ebb 40ff 59ba 28b8 1b3c a20e d73b
00000230: 58d6 9c3b b18e 75bb 90e6 583b 3192 6d3c
00000240: 9db1 c33b 4864 d5bb ae55 83bb d219 d2ba
00000250: 5495 8ab9 4e7c 8fba 24e0 ad3a c763 3c3b
00000260: 7f43 bd3b 1747 e9bb 84c1 b2bb 5fa4 9f39
00000270: 0265 d0b9 1368 af3b 0cc3 7cba 2ffe bbbb
00000280: 22dc 1a3b c216 46bc 8a7d f23b 9e39 b7ba
00000290: d0fd 37bb 7b8a 5dba f04e 62bb af76 0bbc
000002a0: 3f5d 02bc 177c cb3a a1e3 83bb 31e7 51bc
000002b0: f16c 08bc 3b66 90bb fb34 9fbb 6010 b8bb
000002c0: 5903 55bb 4b21 073c edff a5b9 98d8 0fba
000002d0: aa9c 8fbc c9b3 3c3c b765 df3b dfd8 123a
000002e0: 9fdc b2ba e48a 513b bb28 85bb a344 163b
000002f0: 52fa a6bc 0479 19bc ef48 463b 493f afbb
00000300: 3205 453c a9de a93a eb74 1abc fe1f 6bbc
00000310: 8de0 1d3c 1da3 fdba a2f1 1f3b 8286 a2ba
00000320: 069a cc3a a65c 4e3c 05ba 28ba 9fbe e2bb
00000330: c64d 613c 08fa 1bbc a726 33bc 36ad 93b9
00000340: 8995 273a b2b3 78bb 2c70 03bb ac0b 343c
00000350: f447 3d3c 7f42 9a3b fac6 bc3b be85 3fba
00000360: 8fb2 0e3c 064c 3bbc ce3b 20ba c04b 5439
00000370: 687a 6ebc cab5 0dbc 653b b2bc 5e16 a0bb
00000380: ec55 5cbb e9e2 c13a aaba 38bc c59c 9dbb
00000390: d020 d6bb 571c 35bb 8326 b1ba 2bcb 38bb
000003a0: 830e b83b 0239 e43b f657 093c a20e f6bb
000003b0: 9620 43bb c5aa 04bb 1af4 4fbc 8613 8cbb
000003c0: 03dd d5bc 2213 2ebb b9f4 753b 7b3a bf3b
000003d0: 3560 903a 2940 363c dde1 0bba 99c5 a9bb
000003e0: dc53 01bb 241c 733a ea03 04bc 8801 16ba
000003f0: 9f77 a9bb d01f babb 7ffd 533a 4225 64bb

network_body._body_endoder.seq_layers.4.weight f4 [256, 256]
-0.0018234805 -0.123926096 0.03772442 0.113706954 -0.09188307 -0.029945014 0.037320994 -0.008276495
0.02211858 -0.027758515 0.042548627 0.10513951 -0.004672953 0.0005523162 -0.07485797 0.063890405
-0.14724945 -0.013783794 0.011469531 0.03747632 -0.09755597 -0.05828074 -0.056576822 0.034029018
-0.02121692 0.15728997 0.09170408 0.054481562 -0.14302136 0.07318734 -0.028353957 -0.11736171
-0.037665684 0.06242659 0.04490135 0.031602625 0.03351486 0.002850725 -0.017660879 0.05133947
-0.09627209 -0.0047144336 0.007716756 -0.0889354 0.03645033 0.0015767579 0.03225916 0.053327933
0.116098344 -0.03157214 -0.05867132 0.0651613 -0.089467034 0.021315722 0.07471036 0.014013433
0.039594762 -0.059971683 -0.03562057 -0.1421335 -0.051731016 0.051275566 -0.08849019 -0.066842705
-0.06567997 -0.058492716 0.07836169 0.03852126 0.03024699 -0.15664403 -0.11230056 0.121616326
0.0022610913 0.014109139 0.10851115 -0.049095348 0.074775584 -0.10677822 -0.011889473 -0.1697927
0.049098805 -0.09526723 0.04459836 0.07848253 0.070847794 0.06354941 0.09961184 -0.040149596
0.03584467 -0.11172936 0.025288757 0.03902813 -0.059134647 0.06494747 0.13899642 -0.049358293
-0.062894315 -0.044187877 -0.021131486 -0.046880126 0.026346484 -0.016149504 0.06688277 -0.03177399
0.017919807 -0.084330514 0.023599245 -0.0033453517 0.015807841 -0.07758327 0.052497312 -0.019696975
0.033271804 0.035498925 -0.020434204 -0.0025540676 -0.0060151964 -0.07774163 0.002724445 -0.06938481
-0.019198932 0.071614765 -0.0022464548 -0.09763225 -0.011532544 0.0024328092 -0.07138502 0.12320789
0.046569176 0.06791555 -0.09401168 -0.09899628 0.025268901 0.022803351 0.1314432 -0.023753965
0.010462082 -0.04583481 -0.027049173 -0.03514956 -0.0033878712 0.035522446 0.028971922 -0.118449576
0.07526419 0.060955625 -0.0668542 -0.0317268 0.017606772 -0.20093122 -0.05786789 0.1231454
-0.06336329 -0.06574967 0.01249153 -0.02589217 -0.020746147 -0.03274614 -0.03281804 -0.010181806
0.044743862 -0.008981696 -0.021637304 0.015621052 0.094018966 0.0557458 0.03604625 0.026997954
-0.019271504 0.020696355 -0.013570242 0.070014924 0.022828177 0.011200407 0.017371709 0.06527765
-0.031595994 -0.0639249 0.0046748132 -0.08557587 0.118901566 0.02040433 -0.010535271 -0.01970375
-0.026434833 -0.044802554 0.036797933 -0.10820858 -0.0189234 0.05805109 -0.014594647 -0.08730147
0.005983735 0.016438896 0.155197 0.10482158 0.005027407 -0.06453713 0.017076554 -0.030062364
0.044485264 -0.060435757 0.09888753 0.01659468 0.09031727 0.019263865 -0.07697586 -0.046763245
0.025958281 0.015637869 0.04128232 -0.044357393 -0.0401658 -0.05634891 -0.0035896192 -0.057878498
0.021656327 -0.018103346 -0.100610554 0.016880272 -0.007893457 0.024363933 -0.0022606922 0.048877608
-0.021634301 0.053844105 -0.082252316 0.12944151 0.02064451 -0.0779965 0.07297603 -0.08128317
-0.019146895 -0.00255028 0.00803709 -0.089441516 -0.022373224 -0.02887882 -0.06349661 0.07435275
0.08174337 -0.036785237 -0.007407784 -0.046103388 0.05150568 -0.062201668 0.013032497 -0.022154327
0.06989333 -0.13163991 0.034733456 -0.06975445 0.055111013 0.04798846 -0.027757963 0.009486361
00000000: da01 efba f7cc fdbd ec84 1a3d 31df e83d
00000010: 312d bcbd 3f4f f5bc e6dd 183d 239a 07bc
00000020: 0632 b53c d365 e3bc 7847 2e3d 6253 d73d
00000030: 921f 99bb 50c9 103a 234f 99bd f9d8 823d
00000040: 8fc8 16be 6cd5 61bc b3ea 3b3c c580 193d
00000050: 6dcb c7bd c9b7 6ebd 19bd 67bd 0362 0b3d
00000060: 1bcf adbc 9f10 213e 59cf bb3d 0f28 5f3d
00000070: 3174 12be 3ee3 953d 8f46 e8bc 565b f0bd
00000080: 5547 1abd 06b3 7f3d 7aea 373d c171 013d
00000090: e146 093d 3bd3 3a3b 8cad 90bc 5649 523d
000000a0: 4d2a c5bd 897b 9abb d7dc fc3b c323 b6bd
000000b0: f14c 153d 37ab ce3a 2e22 043d 646e 5a3d
000000c0: f8c4 ed3d ca51 01bd 5751 70bd 4a73 853d
000000d0: 7e3a b7bd 4f9e ae3c bf01 993d 9998 653c
000000e0: 1e2e 223d dea4 75bd e0e6 11bd 728b 11be
000000f0: e7e3 53bd 5406 523d 583a b5bd d4e4 88bd
00000100: 3883 86bd 0f96 6fbd 187c a03d 78c8 1d3d
00000110: 89c8 f73c 4b67 20be d6fd e5bd fb11 f93d
00000120: d12e 143b 052a 673c 183b de3d 3418 49bd
00000130: f123 993d 8aae dabd 10cc 42bc 23de 2dbe
00000140: d41b 493d 771b c3bd c5ac 363d 73bb a03d
00000150: a618 913d 3126 823d 4b01 cc3d e773 24bd
00000160: dcd1 123d 5dd2 e4bd 5e2a cf3c f6db 1f3d
00000170: 2c37 72bd 2e03 853d 1455 0e3e ec2b 4abd
00000180: bcce 80bd 59fe 34bd f01b adbc 6005 40bd
00000190: 95d4 d73c f74b 84bc d5f9 883d 7125 02bd
000001a0: 8fcc 923c 7ab5 acbd 3453 c13c b03d 5bbb
000001b0: 727f 813c fae3 9ebd 6c07 573d 8d5b a1bc
000001c0: 0448 083d 5267 113d a265 a7bc 2562 27bb
000001d0: 201b c5bb 0137 9fbd 9a8c 323b a019 8ebd
000001e0: 1447 9dbc c3aa 923d 4239 13bb 6bf3 c7bd
000001f0: fff2 3cbc c46f 1f3b 4f32 92bd 6b54 fc3d
00000200: 52bf 3e3d 4f17 8b3d 3289 c0bd 90be cabd
00000210: ba00 cf3c 18ce ba3c 0c99 063e ad97 c2bc
00000220: 2769 2b3c 48bd 3bbd 3a96 ddbc fcf8 0fbd
00000230: 0c07 5ebb fc7f 113d 8656 ed3c b195 f2bd
00000240: 1d24 9a3d 9bac 793d dbea 88bd f6f3 01bd
00000250: 143c 903c eac0 4dbe e106 6dbd a833 fc3d
00000260: 9dc4 81bd c3a7 86bd 46a9 4c3c d11b d4bc
00000270: d3f3 a9bc d120 06bd 366c 06bd 97d1 26bc
00000280: 5745 373d f727 13bc b740 b1bc 71ef 7f3c
00000290: 048d c03d b555 643d 3ca5 133d d02a dd3c
000002a0: 46df 9dbc 678b a93c b855 5ebc fc63 8f3d
000002b0: 2802 bb3c e981 373c 1d4f 8e3c 4ab0 853d
000002c0: cd6a 01bd 0feb 82bd 2d2f 993b 6742 afbd
000002d0: aa82 f33d fb26 a73c 219c 2cbc c269 a1bc
000002e0: dd8d d8bc e282 37bd 6eb9 163d 769c ddbd
000002f0: 3f05 9bbc fbc6 6d3d 631e 6fbc 1dcb b2bd
00000300: 3513 c43b ddaa 863c f6eb 1e3e b2ac d63d
00000310: f2bc a43b 0b2c 84bd 21e4 8b3c 5945 f6bc
00000320: 2e36 363d 7c8b 77bd 8c85 ca3d 91f1 873c
00000330: 43f8 b83d 41cf 9d3c 85a5 9dbd d18a 3fbd
00000340: 76a6 d43c fd1a 803c a617 293d 19b0 35bd
00000350: e584 24bd 1dce 66bd d13f 6bbb 0112 6dbd
00000360: 9c68 b13c 784d 94bc e80c cebd 7f48 8a3c
00000370: 8f53 01bc df96 c73c 1f28 14bb e333 483d
00000380: 6b3a b1bc a38b 5c3d e773 a8bd 518c 043e
00000390: ad1e a93c a1bc 9fbd 7574 953d ca77 a6bd
000003a0: f3d9 9cbc 9922 27bb 00ae 033c 1d2d b7bd
000003b0: 0d48 b7bc 4693 ecbc 830a 82bd 4146 983d
000003c0: 1169 a73d 1eac 16bd ffbc f2bb e8d6 3cbd
000003d0: 9ff7 523d 2dc7 7ebd 4186 553c fe7c b5bc
000003e0: 3c24 8f3d 9dcc 06be ab44 0e3d 6cdb 8ebd
000003f0: 16bc 613d 8c8f 443d ab64 e3bc af6c 1b3c

network_body._body_endoder.seq_layers.4.bias f4 [256]
-0.0066399937 -0.012156643 -0.00128277 0.0007522681 -0.0070479666 0.008447311 -0.002862366 -0.002318657
0.0047803586 0.012730531 5.7845147e-05 -0.00289707 0.006022712 -0.0044676475 0.0066758897 -0.0017876154
-0.006654018 0.00045514456 -0.0025563058 0.004057891 0.0015216747 -0.0044549867 -0.017285366 -0.007807018
0.010051835 -0.003930416 -0.003748029 -0.0038490165 0.011166147 -0.0051694415 -0.019325512 -0.0050028786
0.0024366549 -0.0011190472 0.005019398 -0.008390901 -0.00020506278 -0.0036144424 -0.0015773377 0.0066187605
-0.0032241652 -0.000111192865 -0.0031663352 0.0036883284 -0.0052892496 -0.00030438148 -0.0029207428 -0.00092591526
0.0031020641 -0.003450339 0.0057289773 0.004536646 -0.0010464176 -0.003708572 0.008997037 -0.0023142148
-0.0026831364 -0.00015545002 0.0013408224 -0.013052373 0.0035425995 0.0009960956 -0.0041183154 -0.015743375
-0.0015884528 -0.004301926 -0.008966173 0.0014143307 0.0003273342 -0.0087582525 -0.0014423601 0.009269409
-0.0002187869 0.0026007008 -0.0035110142 -0.0012677121 -0.0013563044 -0.0050984654 0.007437751 0.0011365073
-0.008280518 -0.004468982 0.0017802939 -0.0018734798 -0.0062820287 -0.003673616 -0.0040675243 -0.00059943687
0.008973908 -0.005436349 -0.0045984597 7.106764e-05 0.0044568838 0.002072141 0.0023212882 -0.001734392
0.0026502912 0.0012019267 0.0019148216 -0.0046254755 0.0004746933 -0.0067492863 -0.005012578 0.003398883
0.003578982 0.00055651704 0.007612157 -0.008564759 -0.0067419843 -0.0020091734 0.0017584858 0.0056674853
-0.0015128631 -0.004878181 0.0015206093 -0.003277891 -0.019114524 -0.005510306 0.0004578153 0.0084481025
0.008384134 -0.004978876 -0.0025940975 -0.0007733784 -0.00055500394 -0.0012617109 -0.0023620701 -0.0019962667
-0.0053649684 0.010993168 -0.002693029 0.0034846016 0.009610575 -0.0023840594 -0.0066807643 -0.0013972215
-0.00015767991 -0.00316322 -0.0018920936 -0.005375061 -0.0001807455 0.011215536 -0.0014091216 -0.015604693
-0.0083741415 0.0004182095 -0.003505704 0.015226951 0.0106768785 -0.00053404545 -0.005770167 -0.005325579
-0.0040700464 -0.0039971103 -0.0026353449 0.0070047695 -0.002875777 0.0013708242 0.003158889 -0.010982116
0.0123029025 0.0072691804 0.0053961445 0.0015136508 -0.001807972 -0.008674866 0.017283276 -0.003500013
-0.00035619372 0.009910039 -0.0024899382 0.011292481 0.0022720417 0.0008571201 -0.0011868363 -0.008641958
-0.013462909 -0.0008838131 -0.016597692 0.005858251 0.0016000224 -0.013874959 -0.0067902366 -0.00893058
-0.0036431735 -0.00820282 0.002726608 0.0007359483 0.0051744427 9.742089e-05 -0.0034194044 0.004562824
0.0024278644 -0.0030375193 0.007127209 0.0018987219 -0.010120692 0.013446827 -0.00231824 0.0075942804
-0.015472217 0.0064688893 0.014473382 0.015140668 -0.010894375 -0.006061329 0.0025865217 0.009110857
-0.0018760656 0.0043343045 0.008052969 0.013205323 0.0030994597 0.0005101912 -0.005396114 -0.004151059
0.0073548164 0.0028239843 -0.0010714356 -0.0018032485 0.0031501416 0.019868365 -0.0063123633 -0.0029804076
-0.0031443133 0.0012381012 0.00019801798 0.003129501 0.0048792465 -0.003860373 -0.004135787 -0.0011342621
-0.004352982 0.007942054 -0.017608719 0.006375848 -0.00073217106 -0.0023168481 -0.0026952059 0.009587849
0.0024106458 -0.0037622855 -0.00025834888 -0.003428619 -0.00093269243 -0.017996216 0.0070394175 0.00082786765
0.015413944 0.0028812084 0.0032407483 -0.0033615008 -0.0039369576 -0.0043740715 0.002448537 0.013553072
00000000: 4e94 d9bb a82c 47bc 9e22 a8ba dc33 453a
00000010: a1f2 e6bb 9766 0a3c 8896 3bbb 9cf4 17bb
00000020: 8ea4 9c3b b893 503c c19e 7238 c5dc 3dbb
00000030: 2c5a c53b 5865 92bb 6cc1 da3b 6b4e eaba
00000040: f309 dabb 78a0 ee39 b287 27bb 0ff8 843b
00000050: ee72 c73a 23fb 91bb 0a9a 8dbc 03d2 ffbb
00000060: 74b0 243c b8ca 80bb 7ea1 75bb c83f 7cbb
00000070: 37f2 363c 6b64 a9bb 8950 9ebc 30ef a3bb
00000080: 49b0 1f3b feac 92ba c379 a43b fd79 09bc
00000090: 1f06 57b9 48e0 6cbb acbe ceba 30e2 d83b
000000a0: 844c 53bb 3730 e9b8 4a82 4fbb e2b7 713b
000000b0: 7151 adbb 6495 9fb9 ef69 3fbb 1fb9 72ba
000000c0: 004c 4b3b 151f 62bb 25ba bb3b 25a8 943b
000000d0: f327 89ba 830b 73bb 4f68 133c 15aa 17bb
000000e0: 8fd7 2fbb 4c00 23b9 89be af3a 9fd9 55bc
000000f0: f52a 683b 6c8f 823a eff2 86bb 40f8 80bc
00000100: a233 d0ba 2cf7 8cbb dbe6 12bc 1061 b93a
00000110: 0d9e ab39 c67e 0fbc 930d bdba b8de 173c
00000120: 296a 65b9 8570 2a3b 0b19 66bb 5c29 a6ba
00000130: 06c6 b1ba 0711 a7bb 61b8 f33b dbf6 943a
00000140: 03ab 07bc 8a70 92bb c058 e93a 8d8f f5ba
00000150: 7ad9 cdbb 0dc1 70bb de48 85bb 8723 1dba
00000160: 4c07 133c 6723 b2bb adae 96bb 260a 9538
00000170: 0d0b 923b c2cc 073b c120 183b 8a54 e3ba
00000180: 82b0 2d3b f889 9d3a c0fa fa3a 4d91 97bb
00000190: 42e0 f839 1e29 ddbb 8d40 a4bb cbbf 5e3b
000001a0: 5b8d 6a3b 3ae3 113a 676f f93b 3453 0cbc
000001b0: ddeb dcbb 56ac 03bb fe7c e63a 50b6 b93b
000001c0: 434b c6ba 26d9 9fbb 2e4f c73a e3d1 56bb
000001d0: 1096 9cbc cc8f b4bb ee06 f039 e969 0a3c
000001e0: 9b5d 093c d725 a3bb bc01 2abb 8cbc 4aba
000001f0: af7d 11ba fe5f a5ba f6cc 1abb ccd3 02bb
00000200: 9ecc afbb b01c 343c 877d 30bb ea5d 643b
00000210: ac75 1d3c e13d 1cbb 50ea dabb f922 b7ba
00000220: e156 25b9 064e 4fbb 2000 f8ba 4821 b0bb
00000230: 8086 3db9 5ec1 373c 46b2 b8ba d4aa 7fbc
00000240: b233 09bc 2143 db39 f4bf 65bb 767a 793c
00000250: 13ee 2e3c 2fff 0bba ab13 bdbb 3282 aebb
00000260: 065e 85bb 31fa 82bb c0b5 2cbb 4488 e53b
00000270: 8877 3cbb 3aad b33a 5d05 4f3b 55ee 33bc
00000280: 1d92 493c 4e32 ee3b 24d2 b03b b165 c63a
00000290: 79f9 ecba 0621 0ebc a895 8d3c 7960 65bb
000002a0: 83bf bab9 b75d 223c 3b2e 23bb 1904 393c
000002b0: 89e6 143b 5bb0 603a 9e8f 9bba 0097 0dbc
000002c0: 8893 5cbc b1af 67ba e2f7 87bc 92f6 bf3b
000002d0: d8b7 d13a cc53 63bc a280 debb 9151 12bc
000002e0: 4fc2 6ebb 1f65 06bc e4b0 323b a8ec 403a
000002f0: 5f8e a93b 714e cc38 1618 60bb be83 953b
00000300: ce1c 1f3b 1e11 47bb 5d8b e93b 89de f83a
00000310: 42d1 25bc 1550 5c3c 9ded 17bb 71d9 f83b
00000320: 2f7f 7dbc faf8 d33b c421 6d3c 9010 783c
00000330: 527e 32bc 1d9e c6bb a282 293b b445 153c
00000340: 51e6 f5ba c806 8e3b 9af0 033c 245b 583c
00000350: 4e20 4b3b 5abe 053a e3d1 b0bb 9b05 88bb
00000360: ac00 f13b 9812 393b 6a6f 8cba fb5a ecba
00000370: 9b72 4e3b fbc2 a23c f1d7 cebb f152 43bb
00000380: d310 4ebb c847 a23a 0ca3 4f39 5018 4d3b
00000390: 16e2 9f3b 50fe 7cbb 7f85 87bb 85ab 94ba
000003a0: 76a3 8ebb 641f 023c 2940 90bc 7dec d03b
000003b0: 2bef 3fba 43d6 17bb 0da2 30bb 5a16 1d3c
000003c0: edfb 1d3b ad90 76bb 0073 87b9 aeb2 60bb
000003d0: ee7f 74ba cd6c 93bc eaaa e63b 4205 593a
000003e0: c48a 7c3c a8d2 3c3b bc62 543b a04c 5cbb
000003f0: 9801 81bb 5f54 8fbb a277 203b b40d 5e3c

network_body._body_endoder.seq_layers.6.weight f4 [256, 256]
-0.06367672 -0.08579701 0.044089958 0.0010837716 -0.09545392 -0.059346993 0.1846041 0.12385051
-0.10551319 -0.015882032 -0.016765233 -0.03898744 0.030169532 0.04628073 -0.06487131 -0.17223644
-0.12284447 0.18698291 -0.02043496 0.0005113758 -0.07341166 0.07157991 -0.0010747808 -0.02640914
0.09179918 0.07747391 -0.024977965 0.016193941 0.06914738 -0.0045413533 0.00844922 -0.038439363
-0.10685034 -0.013486981 0.10207073 -0.025749715 0.084434345 -0.12880512 0.09357919 -0.014626529
-0.037505917 -0.04985556 0.018253231 0.04827929 0.130843 0.0028317112 0.023799099 -0.047995385
0.003211838 -0.004352465 -0.078341484 0.06810229 0.040079925 0.058632605 -0.0802801 -0.04473026
-0.018151939 0.047933962 0.003957853 -0.0795448 0.06384678 0.030079203 -0.009411906 -0.022901801
-0.009285822 0.06364006 -0.0702577 0.09090956 -0.11246584 -0.069136836 -0.06072805 0.087256745
-0.046355426 0.018965775 0.042648043 0.09816783 0.022047669 0.035074893 0.073281206 0.09242102
0.011164079 0.048795875 0.016412662 -0.073637724 0.010463851 0.040769804 0.01668312 -0.0016651633
0.08249791 0.026326219 -0.12154748 -0.04330592 0.034156777 0.027096592 -0.0062817214 -0.083766066
0.10606648 -0.026178962 0.015797038 0.078351706 -0.0336764 0.057859316 -0.010212166 0.0042015295
0.027730528 0.09773832 0.09114012 -0.03300703 0.0847049 0.03576959 -0.018567143 0.003020102
-0.032584917 0.03083488 -0.09463152 0.134359 0.019190539 -0.13833323 -0.03173442 0.009950219
0.03395727 0.019409677 -0.07192046 0.04816171 0.080665685 0.02610124 -0.033027757 0.01178885
-0.01713927 -0.13141046 -0.13474905 -0.020998362 0.026150517 -0.035034895 0.0016413245 0.015037989
0.0062461076 -0.016544502 -0.035082024 0.06456689 -0.053803932 0.031841066 0.08146861 0.016019939
0.11439031 0.105769984 0.04796751 0.05509263 0.010598521 0.059385713 -0.043610673 0.11801032
0.027521307 -0.06900347 0.041459467 -0.07342823 -0.034322295 -0.0066217585 -0.00018135461 -0.024116384
0.017365439 0.16040395 -0.06430563 0.00022343975 0.021414459 0.11520829 0.013068596 0.09854096
0.031333517 -0.03181529 -0.11113725 0.055011116 -0.10082161 -0.072005205 0.039358195 -0.03855414
-0.0643242 0.022365605 0.015886089 -0.043184098 0.008877412 0.048338767 0.02776441 -0.05890971
0.020651545 0.04709485 -0.04380631 0.013788717 -0.0035616285 -0.05793618 0.0072255214 -0.014691052
-0.060479123 -0.06812747 -0.028766997 -0.019135816 0.035791297 -0.021076238 -0.030388026 0.12228693
0.11450919 -0.032048672 0.020912994 -0.009577135 0.03304748 0.11075157 -0.05925797 -0.042996548
-0.06544711 0.023548074 -0.0034742837 -0.048599824 -0.026513716 0.09497868 -0.040425714 -0.0024094293
-0.070997305 0.027557971 0.11595329 0.016593797 0.091841884 0.01392506 0.07617387 0.02452276
-0.031089067 -0.0046405266 0.040320586 0.10206598 0.011358688 -0.061617393 -0.022761777 -0.0066295206
0.028045697 -0.0064157643 -0.020245042 -0.09362479 -0.01861428 0.049603608 0.04907707 0.08648375
-0.05795691 0.05504111 0.09313948 0.07415859 -0.068858385 0.015954692 0.021843458 -0.025300944
0.029522374 -0.01596286 0.018263817 -0.09966569 -0.007640431 0.0015060104 0.0052925088 -0.050356224
00000000: f168 82bd 58b6 afbd ac97 343d 570d 8e3a
00000010: 587d c3bd d515 73bd db08 3d3e 56a5 fd3d
00000020: 4d17 d8bd 091b 82bc 3e57 89bc 4bb1 1fbd
00000030: 1826 f73c dd90 3d3d 40db 84bd c05e 30be
00000040: e295 fbbd 7378 3f3e 3867 a7bc d90d 063a
00000050: da58 96bd 7d98 923d a9df 8cba fb57 d8bc
00000060: 3501 bc3d a4aa 9e3d 979e ccbc 28a9 843c
00000070: 249d 8d3d a2cf 94bb 996e 0a3c 9872 1dbd
00000080: 5ad4 dabd 80f8 5cbc 750a d13d 11f1 d2bc
00000090: eaeb ac3d 7de5 03be 72a6 bf3d 1ca4 6fbc
000000a0: ce9f 19bd 5835 4cbd cd87 953c 81c0 453d
000000b0: b5fb 053e 3b94 393b 54f6 c23c cf96 44bd
000000c0: b37d 523b 1f9f 8ebb 8071 a0bd 3779 8b3d
000000d0: d92a 243d be28 703d e569 a4bd 1437 37bd
000000e0: 60b3 94bc 6756 443d e1b0 813b 62e8 a2bd
000000f0: 1ac2 823d a968 f63c 6534 1abc 8f9c bbbc
00000100: 8f23 18bc b855 823d 45e3 8fbd cb2e ba3d
00000110: 7e54 e6bd 9d97 8dbd fabd 78bd aab3 b23d
00000120: 30df 3dbd 1d5e 9b3c b7af 2e3d 370c c93d
00000130: 509d b43c b1aa 0f3d 7514 963d 3b47 bd3d
00000140: 8be9 363c 2fde 473d d973 863c 60cf 96bd
00000150: 9270 2b3c 3dfe 263d 0aab 883c 9c41 daba
00000160: aaf4 a83d 15aa d73c e3ed f8bd 8c61 31bd
00000170: fae7 0b3d acf9 dd3c e6d6 cdbb 8b8d abbd
00000180: 6239 d93d 4375 d6bc ca68 813c dc76 a03d
00000190: 44f0 09bd e4fd 6c3d ee50 27bc fcac 893b
000001a0: 222b e33c 072b c83d aca7 ba3d 6132 07bd
000001b0: c379 ad3d 2283 123d 1f1a 98bc e7ec 453b
000001c0: c377 05bd 6e99 fc3c 2cce c1bd 6895 093e
000001d0: 7a35 9d3c 3aa7 0dbe f4fb 01bd 3e06 233c
000001e0: c716 0b3d 0b01 9f3c 094b 93bd 3745 453d
000001f0: 0d34 a53d 45d2 d53c 1d48 07bd 0526 413c
00000200: a867 8cbc 7790 06be a8fb 09be c204 acbc
00000210: 9c39 d63c c080 0fbd b621 d73a e661 763c
00000220: 26ac cc3b 5688 87bc 2bb2 0fbd a53b 843d
00000230: 8361 5cbd c76b 023d 04d9 a63d 3f3c 833c
00000240: 7845 ea3d ef9d d83d 9479 443d cfa8 613d
00000250: 6ba5 2d3c 6f3e 733d 1ba1 32bd 65af f13d
00000260: 5d74 e13c b151 8dbd 67d1 293d 8a61 96bd
00000270: 8995 0cbd 56fb d8bb 022a 3eb9 b98f c5bc
00000280: f741 8e3c ef40 243e acb2 83bd 274b 6a39
00000290: 606d af3c 53f2 eb3d aa1d 563c d8cf c93d
000002a0: 9357 003d c050 02bd ed9b e3bd 5653 613d
000002b0: 8f7b cebd 7777 93bd 0f36 213d f2ea 1dbd
000002c0: 68bc 83bd 1338 b73c 8b23 823c cfe1 30bd
000002d0: 9172 113c dffe 453d 3072 e33c 4f4b 71bd
000002e0: 6e2d a93c 88e6 403d 3f6e 33bd 12ea 613c
000002f0: 366a 69bb 7d4e 6dbd 11c4 ec3b bdb2 70bc
00000300: f5b8 77bd 6a86 8bbd c4a8 ebbc b7c2 9cbc
00000310: e599 123d 13a8 acbc 4ff0 f8bc 9271 fa3d
00000320: cb83 ea3d 7845 03bd ba51 ab3c 6ae9 1cbc
00000330: cb5c 073d b8d1 e23d 7cb8 72bd 261d 30bd
00000340: 2209 86bd e4e7 c03c cfb0 63bb 9c10 47bd
00000350: 4b33 d9bc 2f84 c23d 6f95 25bd 84e7 1dbb
00000360: 0967 91bd 41c1 e13c eb78 ed3d b7ef 873c
00000370: 9917 bc3d ef25 643c 0c01 9c3d f5e3 c83c
00000380: 80ae febc 8f0f 98bb 3327 253d f807 d13d
00000390: ca19 3a3c 8562 7cbd e876 babc 733c d9bb
000003a0: 17c0 e53c 553b d2bb eed8 a5bc 5bbe bfbd
000003b0: f97c 98bc 272d 4b3d 0a05 493d 641e b13d
000003c0: 3a64 6dbd c972 613d e9bf be3d 75e0 973d
000003d0: a005 8dbd 6ab3 823c 0df1 b23c ed43 cfbc
000003e0: e8d8 f13c 8bc4 82bc 009e 953c 861d ccbd
000003f0: 955c fabb 5365 c53a c86c ad3b 5442 4ebd
