Assets/ML_PPO/results/first/BoatAgent.onnx (onnx, 808410 bytes, 12 tensors)

network_body._body_endoder.seq_layers.0.weight f4 [256, 11]
0	0xbd2f185b	-0.042747837
1	0xbee81951	-0.45331815
2	0x3dde48ed	0.10853753
3	0xbec83889	-0.39105633
4	0xbc506b0c	-0.012720834
5	0xbb9de45f	-0.0048184837
6	0xbe61d76d	-0.22054835
7	0xbe820f72	-0.2540241
8	0xbe9a2eff	-0.3011398
9	0x3e390404	0.18067938
10	0xbec39ae5	-0.38204113
11	0x3f062bdb	0.5241067
12	0x3ee710d5	0.4513003
13	0x3ed618e4	0.41815865
14	0x3eeddced	0.46457615
15	0xbe486b5a	-0.19572201
16	0x3e0640df	0.13110684
17	0xbb8c6bef	-0.0042853276
18	0x3e3b5392	0.18293598
19	0x3b7cd513	0.003857915
20	0x3f05ff65	0.52342826
21	0xbe68be78	-0.22728908
22	0x3e580175	0.21094306
23	0x3d3074cc	0.043080136
24	0x3e8a895e	0.27057928
25	0x3e3876cd	0.18014069
26	0xbdda17f4	-0.106491
27	0x3e86015c	0.26172912
28	0xbdaeb39b	-0.08530351
29	0x3ec1f071	0.37878755
30	0x3e3eb22a	0.18622652
31	0xbf0529f8	-0.52017164
32	0xbe971513	-0.29508266
33	0x3e61123f	0.21979617
34	0x3cd33143	0.025780326
35	0x3c3b8bbe	0.011446891
36	0xbe86cc50	-0.26327753
37	0xbe866661	-0.26249984
38	0x3edd70d0	0.43250132
39	0x3d7beeee	0.061507158
40	0xbeb095ce	-0.34489292
41	0x3e83e17d	0.2575797
42	0x3df42068	0.119202435
43	0xbdb423d5	-0.08795897
44	0xbe91dec6	-0.28490275
45	0xbd562b16	-0.052287184
46	0xbd0581a7	-0.03259435
47	0x3eb5c6f7	0.3550336
48	0xbe858401	-0.26077273
49	0x3e31ba75	0.17356284
50	0x3d82ea5a	0.06392355
51	0xbe0a26f7	-0.13491426
52	0x3ddaa93b	0.106768094
53	0x3df3589e	0.11882137
54	0xbe2f9bd4	-0.17149287
55	0x3d776343	0.060397398
56	0x3f0b21f9	0.54348713
57	0xbcc1a76c	-0.023639403
58	0xbedfe33e	-0.4372806
59	0xbe5a49f3	-0.21317272
60	0xbe301f27	-0.17199384
61	0xbde25a26	-0.11052351
62	0xbe499cba	-0.19688693
63	0xbf110e5f	-0.56662554
64	0xbceb2592	-0.028704438
65	0x3e7c8ca9	0.24663033
66	0xbe9c7ef3	-0.30565605
67	0x3f3e6389	0.7437063
68	0x3eb71e3d	0.35765257
69	0xbd99a718	-0.07502574
70	0xbdbf9f62	-0.09356572
71	0xbf0143eb	-0.5049426
72	0xbcb9b9c6	-0.022671591
73	0xbe33a7da	-0.17544499
74	0x3d95257c	0.0728254
75	0xbd9eed8a	-0.07760151
76	0x3ead58aa	0.33856708
77	0x3e6bbcfb	0.23021309
78	0x3ed5d782	0.41765982
79	0x3e9531ac	0.2913946
80	0x3e2f44db	0.1711611
81	0xbe2adac3	-0.16685013
82	0xbe85fc04	-0.26168835
83	0x3d8bd56d	0.06827817
84	0xbf04ae79	-0.51828724
85	0x3eb2ff6f	0.34960505
86	0x3c7da6e6	0.015481686
87	0x3ed57a6f	0.41694972
88	0x3d79a44e	0.06094771
89	0x3efdfb42	0.49605757
90	0xbbf6f389	-0.007536356
91	0x3eb366b9	0.3503931
92	0x3f4cfd35	0.80073863
93	0xbce0ef7c	-0.027457945
94	0xbd88c0d1	-0.06677402
95	0x3e3214fa	0.17390814
96	0xbe7ff500	-0.24995804
97	0xbe9102ea	-0.28322536
98	0x3e8910fd	0.26770774
99	0xbe31f419	-0.17378272
100	0xbe9c41e2	-0.30519015
101	0x3d939bb0	0.072074294
102	0xbf183de7	-0.59469455
103	0x3f71dd1c	0.9447801
104	0x3eb13528	0.34610868
105	0xbd81af77	-0.063322954
106	0x3d8f7a72	0.070057765
107	0x3e41babb	0.18918888
108	0xbdbdf446	-0.09275107
109	0xbd321dab	-0.043485325
110	0x3d04f9ca	0.03246478
111	0x3e4c2437	0.1993569
112	0xbef6cb10	-0.482018
113	0x3ee68487	0.45022985
114	0xbd2d46a5	-0.0423037
115	0x3dfbb338	0.12290043
116	0x3e839f57	0.25707504
117	0x3ef25069	0.47326973
118	0x3e0108ee	0.12601063
119	0x3ea82a19	0.32844618
120	0x3e576d6f	0.2103784
121	0xbe8140cc	-0.2524475
122	0xbe777a49	-0.24167742
123	0x3e77373b	0.24142163
124	0xbf00cd7d	-0.5031355
125	0x3ecaf509	0.39640072
126	0x3d99f40b	0.075172506
127	0x3d505a8a	0.050867595
128	0x3dd6f809	0.10496528
129	0xbd3fce97	-0.04682788
130	0xbe8244fa	-0.2544325
131	0xbe350425	-0.17677362
132	0x3d61d969	0.05513898
133	0xbcad162c	-0.021128736
134	0x3e44f205	0.19232948
135	0xbf25fd82	-0.6483995
136	0x3eb30213	0.3496252
137	0xbf157bcd	-0.5839203
138	0xbf2b8657	-0.6700186
139	0x3d7bec0c	0.06150441
140	0x3edda846	0.43292445
141	0xbea47eff	-0.3212814
142	0xbe7dee86	-0.2479802
143	0x3e9ee346	0.3103277
144	0xbf0d7a3d	-0.55264646
145	0x3d349b38	0.04409334
146	0xbe82389a	-0.2543381
147	0xbd29b080	-0.04142809
148	0xbe10f4fc	-0.14155954
149	0xbea1f4fc	-0.3163222
150	0xbdedeffb	-0.11618038
151	0xbd7964a2	-0.060886987
152	0x3cca1bf0	0.024671525
153	0x3d5d75e5	0.05406751
154	0xbe512986	-0.20425996
155	0xbe912c54	-0.28354132
156	0x3e4e35fe	0.20137784
157	0x3d2a301a	0.04154978
158	0x3c88b151	0.016686114
159	0x3eae7149	0.34070805
160	0x3eadaa74	0.33919108
161	0x3d048f7e	0.032363407
162	0xbeebbd23	-0.46042737
163	0xbe4dcd87	-0.20097934
164	0x3ecbac21	0.3977976
165	0xbd58c9f1	-0.05292696
166	0x3ea1ff89	0.3164027
167	0xbe93eea9	-0.2889302
168	0xbe884664	-0.26616204
169	0x3eb81914	0.35956633
170	0x3e5f0098	0.2177757
171	0xbe902375	-0.28152052
172	0x3e19e745	0.15029629
173	0x3ed7de05	0.42161575
174	0xbe38644e	-0.18007013
175	0x3dc46993	0.09590449
176	0xbd3f2b6f	-0.04667228
177	0x3ecb10a4	0.39661133
178	0x3dc2bdae	0.09508835
179	0xbefbed24	-0.4920436
180	0xbdf69786	-0.120406196
181	0x3e73d465	0.23811491
182	0xbdeaade2	-0.11458947
183	0x3e90a7c9	0.2825301
184	0xbd47b7e2	-0.04875935
185	0x3e18d2bc	0.14924139
186	0x3f116c82	0.56806195
187	0xbe4ce5ce	-0.20009539
188	0xbe9348dd	-0.28766528
189	0xbdecaad8	-0.11556023
190	0x3e207c4b	0.15672414
191	0x3ece694a	0.40314704
192	0x3b1944ed	0.002338703
193	0xbd031da1	-0.03201068
194	0xbeacba4c	-0.33735883
195	0x3e9e4e6d	0.3091921
196	0x3e9515fb	0.29118332
197	0xbe8c78e6	-0.27435988
198	0xbec17ab8	-0.3778894
199	0xbdd5f533	-0.10447159
200	0x3d952261	0.07281948
201	0xbe11c13f	-0.14233874
202	0x3ec42154	0.38306677
203	0xbf23dcfa	-0.6400906
204	0x3deeb052	0.11654724
205	0x3f022f7e	0.5085372
206	0x3db0a894	0.08625904
207	0x3dcf3354	0.10117212
208	0xbdcfdffc	-0.101501435
209	0xbe9fff7e	-0.31249613
210	0x3f2b53d1	0.6692477
211	0x3d3ba9e1	0.045816306
212	0xbe3fc600	-0.18727875
213	0xbee295ef	-0.44255015
214	0x3eceeea7	0.40416452
215	0xbe6e92b8	-0.23298156
216	0x3d876b7e	0.066122994
217	0x3d4dc483	0.050236236
218	0x3da68f44	0.081327945
219	0xbe46fa37	-0.19431387
220	0xbe05f542	-0.1308184
221	0x3eb7143a	0.3575762
222	0xbe71ec13	-0.23625211
223	0x3e8ca8fd	0.27472678
224	0x3eaa272c	0.3323301
225	0x3ec4d67b	0.38444886
226	0x3dc09309	0.09403045
227	0xbe72652c	-0.23671407
228	0xbf148650	-0.58017445
229	0xbe705dbc	-0.23473257
230	0x3e7b1de6	0.24523124
231	0x3f14fc03	0.5819704
232	0x3e3b3b58	0.18284357
233	0x3e4ef761	0.20211555
234	0x3e012c7a	0.12614623
235	0xbe1ae23f	-0.15125369
236	0x3eb30936	0.34967965
237	0xbd6b022a	-0.05737511
238	0xbd5652dc	-0.052325115
239	0x3d974e8a	0.07388027
240	0x3ec0590c	0.37567937
241	0x3e5cc48a	0.21559349
242	0xbcb974d3	-0.022638714
243	0xbe7ba88d	-0.24576016
244	0xbf21fc6f	-0.6327581
245	0xbe2b88be	-0.16751382
246	0x3f06e7ca	0.5269743
247	0xbe2b4a9e	-0.16727683
248	0x3d7360fc	0.059418663
249	0x3e9ae9a7	0.30256388
250	0x3e86dad6	0.26338834
251	0x3e73df8a	0.23815742
252	0x3ec5ae80	0.38609695
253	0x3e85d136	0.26136178
254	0x3cad87d8	0.02118294
255	0x3e010db3	0.12602882

network_body._body_endoder.seq_layers.0.bias f4 [256]
0	0x314bdb17	2.9664926e-09
1	0xbb800964	-0.0039073694
2	0xbbba3baa	-0.005683382
3	0xb64f893a	-3.092528e-06
4	0xba9a773a	-0.00117848
5	0xac4eccea	-2.938811e-12
6	0xb9566486	-0.00020446078
7	0x3b8703f8	0.004120346
8	0xbb64660c	-0.0034850864
9	0xa882487f	-1.446434e-14
10	0xbb051b48	-0.002031045
11	0x2c12aafe	2.0842768e-12
12	0x26e3a3ef	1.5795723e-15
13	0x381f1836	3.7931102e-05
14	0xbbcd5297	-0.006265949
15	0x38015ccd	3.0842424e-05
16	0x2d495672	1.1444722e-11
17	0xbb91971b	-0.004443062
18	0xbb73c118	-0.003719395
19	0x3a592ce8	0.00082845846
20	0xbbc406e1	-0.0059822653
21	0xbb665f3c	-0.003515198
22	0x3b0b5505	0.0021260392
23	0xbb627221	-0.003455289
24	0x3bfe7ce0	0.007766351
25	0x3bc3bc58	0.00597338
26	0xba75ef54	-0.0009381671
27	0xbae3bfaf	-0.0017375852
28	0x3a6b5d81	0.0008978472
29	0xbb5d4569	-0.0033763296
30	0x22898bcc	3.728194e-18
31	0x3a487000	0.0007646084
32	0x38cc5076	9.742465e-05
33	0xbab399e9	-0.0013702485
34	0xbade08e3	-0.0016939904
35	0x3a987552	0.0011631644
36	0x3a85c1f6	0.00102049
37	0xbb99389e	-0.0046759387
38	0xbb51f86d	-0.0032038942
39	0x392a6400	0.00016249716
40	0x3be7cf09	0.007074241
41	0xba2bd778	-0.00065552397
42	0xbb55e494	-0.0032637464
43	0xb999cdf7	-0.0002933589
44	0xb829dbed	-4.049756e-05
45	0xbb10ad36	-0.0022075898
46	0xb899a642	-7.3265765e-05
47	0x3b500738	0.0031742584
48	0xbbd1f1da	-0.006407005
49	0xb8006fb4	-3.062161e-05
50	0xba293256	-0.0006454339
51	0x3aebd100	0.0017991364
52	0x3a0f188b	0.0005458674
53	0xbab7edbe	-0.0014032645
54	0xba2b87c1	-0.0006543361
55	0xbb640655	-0.0034793813
56	0xb900dac8	-0.00012288534
57	0x242df99d	3.7724826e-17
58	0xbb4a8aec	-0.0030905558
59	0x9b971479	-2.4994085e-22
60	0xbba46c08	-0.005017761
61	0x3c0c4bb5	0.008562972
62	0xba7d4438	-0.00096613495
63	0xbbab088f	-0.005219526
64	0xbb3b8cfa	-0.0028617964
65	0xb98e7835	-0.00027173912
66	0xbb517692	-0.0031961543
67	0xb95f2781	-0.00021281654
68	0x3903f927	0.0001258595
69	0xb35da563	-5.160599e-08
70	0xb10332a0	-1.9091786e-09
71	0x394503d2	0.00018788807
72	0x36df6525	6.6576927e-06
73	0x301e5a22	5.760815e-10
74	0x398afdcc	0.00026510505
75	0xba257058	-0.0006310991
76	0xb8481abe	-4.770862e-05
77	0xbb759eb4	-0.0037478628
78	0xbab05d9f	-0.0013455636
79	0x3a6a73b6	0.0008943634
80	0xbb9b5918	-0.0047408454
81	0xbab57adb	-0.0013845818
82	0xba94d885	-0.0011356032
83	0x3ab2d7f2	0.0013644679
84	0xb239714c	-1.0794178e-08
85	0x3a0d5dda	0.0005392708
86	0xa5586775	-1.8770066e-16
87	0xb74ee6e8	-1.2332319e-05
88	0x334d71c2	4.7833744e-08
89	0xbad6acf2	-0.0016378446
90	0x3b641bf8	0.003480671
91	0x3b0007dd	0.0019535937
92	0xbaf7459f	-0.0018865353
93	0x3a5f99a1	0.00085296674
94	0x3afb408d	0.0019169018
95	0xb991aff5	-0.00027787653
96	0xbb2a8b2c	-0.0026022894
97	0xbc594fca	-0.013263652
98	0xbb9e31ee	-0.0048277294
99	0xbb6031d6	-0.0034209392
100	0xb1f7b83c	-7.209591e-09
101	0x34000555	1.1922869e-07
102	0xbb6fbf3a	-0.0036582486
103	0xb9b41724	-0.00034349516
104	0xba70bf29	-0.00091837585
105	0x3890e1e8	6.9085334e-05
106	0x3b3bd5ee	0.0028661448
107	0x3a4d80eb	0.00078393397
108	0x3a977031	0.0011553821
109	0xbb60d0f1	-0.0034304226
110	0xbbd38517	-0.0064550745
111	0xbb16834e	-0.0022966447
112	0xbb31e3b7	-0.0027143785
113	0x39ff86e5	0.00048737894
114	0x3903ae17	0.00012557987
115	0xbb410668	-0.0029453281
116	0xbbc0c4f8	-0.0058828555
117	0xb7f7ef50	-2.9556133e-05
118	0xbb7f4302	-0.0038949852
119	0xb98be6fd	-0.00026684246
120	0x398c2f19	0.0002673797
121	0x353cca17	7.0329537e-07
122	0x3b258d5a	0.0025261254
123	0x2b488e53	7.125179e-13
124	0xbaf4a2fe	-0.0018664298
125	0xbb1d74b4	-0.002402586
126	0xb78c10f6	-1.6697199e-05
127	0xbc05c303	-0.00816417
128	0xb2980e1a	-1.7701542e-08
129	0xbab1b8ac	-0.0013559065
130	0xa2ae08fd	-4.717231e-18
131	0x3b463cfd	0.0030248754
132	0xba12e2df	-0.00056032644
133	0x9856df05	-2.7771448e-24
134	0x3a49897c	0.0007688028
135	0xbb345cfa	-0.0027521239
136	0x3bf86aa8	0.007581074
137	0xbb4f5e91	-0.003164206
138	0xbbac007b	-0.0052490807
139	0x33471158	4.6349072e-08
140	0xbaaf48a2	-0.0013373087
141	0xbb0249e3	-0.0019880466
142	0xbb427e5f	-0.0029677374
143	0xba553678	-0.00081334217
144	0xbae36aaa	-0.0017350514
145	0xbb901c05	-0.0043978714
146	0xbb84bc99	-0.004050803
147	0x319b0956	4.512155e-09
148	0x39c746df	0.0003800904
149	0xbb18932f	-0.0023281088
150	0xbaef4db9	-0.0018257416
151	0xba9ddc81	-0.0012043865
152	0x33f244b4	1.12815e-07
153	0x3add799c	0.0016897204
154	0xbb2e6c7b	-0.0026614952
155	0xb187cdc7	-3.9524113e-09
156	0x3b43de00	0.002988696
157	0xbba26ea4	-0.004957037
158	0x373d2c85	1.1275643e-05
159	0xbb6935bb	-0.0035585004
160	0xbb033edf	-0.0020026488
161	0xbb0a5a5a	-0.0021110983
162	0xad3c2aa5	-1.0696032e-11
163	0xb9d52b55	-0.0004065881
164	0xbb86b340	-0.0041107237
165	0xb92adef1	-0.00016295516
166	0xb48802ed	-2.5334103e-07
167	0xbac1efd0	-0.0014796201
168	0xbb76aae2	-0.0037638475
169	0xbb0c2258	-0.0021382775
170	0xbbecbdd6	-0.0072247786
171	0x38da1624	0.00010399174
172	0xbc36d75d	-0.011159745
173	0xbb9c4e7d	-0.0047700987
174	0x1f40f705	4.086191e-20
175	0xbc0f6ae8	-0.008753516
176	0xa58d0645	-2.446385e-16
177	0xbb75914f	-0.0037470644
178	0xac064fb4	-1.908679e-12
179	0x3b936e68	0.0044992454
180	0x3643aa0a	2.915624e-06
181	0xbc1fe0fa	-0.009758228
182	0xbb125b3e	-0.0022332217
183	0xbb0f6777	-0.0021881738
184	0xbad17257	-0.001597951
185	0xb21ed7c6	-9.245872e-09
186	0xb3c3abcb	-9.111644e-08
187	0xbb32fe35	-0.0027312164
188	0xab4729f7	-7.075724e-13
189	0x358b3f2a	1.037469e-06
190	0xb9b2e497	-0.00034121118
191	0xbb245c43	-0.0025079406
192	0xaab5ed53	-3.2316736e-13
193	0xbb0b87c1	-0.0021290632
194	0xbaf6325e	-0.0018783321
195	0x3a2e4749	0.00066481956
196	0xbc0e48bc	-0.008684333
197	0xbb04788c	-0.0020213453
198	0xbafb9799	-0.001919496
199	0xba94305c	-0.0011305916
200	0xbb695621	-0.0035604315
201	0xbbc7ca4f	-0.006097115
202	0x21536023	7.1616817e-19
203	0xbb2b0a21	-0.0026098567
204	0x37553479	1.2708007e-05
205	0xba0d885d	-0.0005399043
206	0xb97728e8	-0.00023570994
207	0xbaf3a904	-0.0018589799
208	0xbb34bfa9	-0.0027580059
209	0x3a4f2635	0.00079021166
210	0xbb05f95d	-0.0020442822
211	0xbb90c291	-0.0044177254
212	0xbaa7cf5c	-0.0012802887
213	0x3abdd240	0.0014482215
214	0x31bf72b3	5.5718714e-09
215	0xbbdceb4f	-0.006741918
216	0xbc043818	-0.008070014
217	0xa3a27fe6	-1.7618242e-17
218	0xbb815c98	-0.0039478056
219	0xb52c2ab2	-6.4137123e-07
220	0xbb1c4c7f	-0.0023849306
221	0xb6258757	-2.4665694e-06
222	0x3936a706	0.00017419094
223	0xbc44f683	-0.012021664
224	0x38fcc75d	0.00012053431
225	0xbacaac59	-0.001546274
226	0xba80979d	-0.0009810809
227	0x39c96840	0.0003841538
228	0xbb7131af	-0.0036803295
229	0x3a6cb33e	0.0009029395
230	0x369270d2	4.364273e-06
231	0xbb0bd243	-0.0021335043
232	0x3b004f66	0.0019578575
233	0xbb9e563a	-0.0048320564
234	0xb7ab1a41	-2.0397014e-05
235	0x29bd3361	8.402199e-14
236	0xba6219f4	-0.0008625083
237	0xbb23028f	-0.0024873351
238	0x36ad302b	5.1614093e-06
239	0x3a155e89	0.0005697986
240	0xba0cb805	-0.0005367997
241	0xbb79ad5d	-0.0038097717
242	0x349190c7	2.7113694e-07
243	0x3a78ee41	0.0009495952
244	0x3a1e900e	0.00060486875
245	0xbb8cd468	-0.0042977817
246	0xba9c289d	-0.0011913959
247	0xbbdb47fe	-0.0066919317
248	0xbb15227d	-0.0022756152
249	0xbaa38d84	-0.0012478088
250	0x3077a1c7	9.0087976e-10
251	0xadf3a741	-2.7700177e-11
252	0xba0966df	-0.0005241464
253	0x3a4ff7a0	0.00079333223
254	0xbbb09e62	-0.0053899745
255	0xbc36ebfa	-0.01116466

network_body._body_endoder.seq_layers.2.weight f4 [256, 256]
0	0x3c3f4ea3	0.011676463
1	0xbcaef285	-0.021355877
2	0xbdb5011d	-0.08838103
3	0xbc767c17	-0.015044234
4	0x3e576402	0.21034244
5	0x3d674874	0.05646558
6	0x3da6776b	0.08128246
7	0xbd313f22	-0.0432731
8	0xbd8c056b	-0.06836971
9	0xbce00b0b	-0.027349016
10	0x3cb8381f	0.022487698
11	0x3d309be9	0.043117438
12	0x3d20e723	0.03928293
13	0xbd8b5d1e	-0.0680487
14	0x3d00b2f2	0.031420656
15	0x3d90c51e	0.07068847
16	0x3cf71477	0.030161126
17	0x3cc11624	0.023570128
18	0xbd1aa7a7	-0.037757542
19	0xbdf1bcb9	-0.11803574
20	0xbd834a7f	-0.064106934
21	0xbc55aef9	-0.013042205
22	0xbd86f0c2	-0.0658889
23	0x3d889031	0.06668127
24	0x3d8370e6	0.06418018
25	0xbd13e0ab	-0.036102932
26	0x3d019492	0.03163583
27	0x3daebbc6	0.08531909
28	0xbd9917ca	-0.074752405
29	0xbe29d4ba	-0.16585055
30	0x3cb33e6d	0.021880353
31	0xbd4f41ca	-0.05059985
32	0xbd1fa6b8	-0.038977355
33	0xbdc2f61e	-0.095195994
34	0x3d83222d	0.06403003
35	0xbda2eb03	-0.07954981
36	0x3d80fed5	0.06298605
37	0x3ddc94b3	0.107705496
38	0xbdbcc8a5	-0.092179574
39	0x3cc2c334	0.02377472
40	0xbe0e173e	-0.13876054
41	0xbda67f52	-0.08129753
42	0xbdf034d8	-0.11728829
43	0xbda5d263	-0.08096769
44	0xbd84d420	-0.06485772
45	0x3d8d525a	0.06900473
46	0xbe15ebe9	-0.14640774
47	0xbbd549cf	-0.006509043
48	0x3d8da63f	0.069164746
49	0xbd35e167	-0.044404414
50	0xbd6d8f3c	-0.057997927
51	0x3c74a87a	0.014932746
52	0x3cf89766	0.03034563
53	0x3cc18a60	0.023625553
54	0x3dbcb3a8	0.09213954
55	0xbe1600a0	-0.14648676
56	0x3c85bcd8	0.0163254
57	0x3b72f733	0.0037073612
58	0xbc051c11	-0.008124367
59	0xbda8143b	-0.08206984
60	0x3dfe11dd	0.12405751
61	0xbdf96c97	-0.12178915
62	0xbd18ee2d	-0.037336517
63	0xbddd949f	-0.10819363
64	0xbcfed109	-0.031105535
65	0x3dca4deb	0.09878143
66	0x3e031704	0.12801749
67	0x3d3f78cc	0.04674606
68	0x3c98d9a6	0.01865847
69	0x3dc2109f	0.094758265
70	0x3d20f913	0.039300036
71	0x3d1f967e	0.03896188
72	0x3de534d7	0.11191719
73	0x3c9ca93f	0.019123672
74	0xbd582b85	-0.05277588
75	0xbd83eceb	-0.06441673
76	0xbd00421d	-0.03131305
77	0x3cad3e2c	0.02114781
78	0xbc90118f	-0.017586498
79	0xbc128946	-0.008943861
80	0x3d89520d	0.06705103
81	0xbd3fbeb7	-0.04681274
82	0xbce4eb56	-0.027944248
83	0xbd639a2b	-0.055566948
84	0x3c73d35c	0.014881935
85	0x3c391fc9	0.011299082
86	0xbbb9affd	-0.0056667314
87	0x3da8c702	0.08241083
88	0xbd20671d	-0.039160836
89	0xbd27c274	-0.04095693
90	0x3d876d8e	0.06612693
91	0xbd1b5719	-0.03792486
92	0xbd82a134	-0.06378403
93	0xbda6f5cd	-0.081523515
94	0xbd06e15d	-0.032929767
95	0x3c1e973c	0.009679612
96	0x3c685301	0.014179946
97	0xbd6c4ad7	-0.05768856
98	0x3c11168d	0.008855474
99	0x3d420fb6	0.047378264
100	0xbe082d0b	-0.13298433
101	0xbd34dda1	-0.044156674
102	0xbcd33987	-0.025784267
103	0x3d86520e	0.065586194
104	0x3d0ee5eb	0.034887236
105	0x3d3a0c02	0.045421608
106	0x3c9f8420	0.019472182
107	0x3d322c0c	0.043499038
108	0xbddd1ff6	-0.10797112
109	0xbd8d1dc2	-0.068904415
110	0xbbf960ce	-0.007610417
111	0x3d3cf62c	0.046133205
112	0xbd0bf223	-0.034166466
113	0xbe395b6b	-0.1810128
114	0xbdbe1ec3	-0.09283211
115	0xbc076048	-0.008262701
116	0x3cf587f7	0.02997206
117	0x3c9a5c75	0.018842915
118	0xbd3ecd6e	-0.04658263
119	0x3d133d32	0.035947032
120	0x3db7cad6	0.08974235
121	0x3d317b69	0.043330584
122	0xbd25d62e	-0.04048746
123	0xbcfa6862	-0.030567352
124	0xbce2e127	-0.027695252
125	0x3c6e7cf5	0.014556159
126	0xbcb351fc	-0.02188968
127	0x3c7a5378	0.01527869
128	0x3c172fd4	0.009227712
129	0x3d1a071e	0.037604444
130	0x3dbe212c	0.09283671
131	0xbc78f5c7	-0.015195317
132	0xbc01a479	-0.0079127485
133	0x3d34d065	0.044144053
134	0xbe2376c6	-0.15963277
135	0x3b7a14d2	0.0038159383
136	0x3d1bfe00	0.03808403
137	0x3cf578f3	0.0299649
138	0xbcf5fc4e	-0.030027535
139	0x3d902857	0.07038944
140	0xbd07bffd	-0.03314208
141	0x3dbbfe47	0.09179359
142	0xbd53ea96	-0.05173739
143	0x3da248f0	0.07924068
144	0xbd8ef993	-0.06981196
145	0xbd01df5c	-0.031707153
146	0x3d468bbe	0.048473112
147	0x3cca91bc	0.024727695
148	0xbbb0499f	-0.00537987
149	0x3d35f34a	0.04442147
150	0x3d4acf70	0.049514234
151	0xbdbdb200	-0.092624664
152	0x3dba6b19	0.091024585
153	0xbceb296c	-0.028706275
154	0xbb11ef55	-0.0022267897
155	0xbca6b898	-0.020351693
156	0x3ccef799	0.025264548
157	0x3d49cc43	0.049267065
158	0x3d9bb177	0.07602208
159	0x3d736450	0.059421837
160	0xbd131592	-0.035909243
161	0xbd4135ed	-0.04717057
162	0x3b648a19	0.0034872352
163	0xbb805e99	-0.003917527
164	0x3b3a5040	0.002842918
165	0x3da7ee72	0.08199777
166	0xbdea3391	-0.11435617
167	0x3d6dca6e	0.05805438
168	0xbd51d6cc	-0.051230237
169	0x3cc47f94	0.023986615
170	0x3dce3e5f	0.1007049
171	0xbc84d419	-0.016214417
172	0xbd7cbd54	-0.061703995
173	0x3cbaf0c5	0.022819886
174	0x3cf07448	0.029352322
175	0xbd8d2488	-0.068917334
176	0xbd28bd00	-0.04119587
177	0x3dcd9be0	0.100394964
178	0xbdf157cf	-0.11784326
179	0xbc26e297	-0.010185859
180	0x3d82e57e	0.063914284
181	0xbc786dc7	-0.015162892
182	0x3da5a48b	0.08088025
183	0xbd1ce4d0	-0.03830415
184	0xbccaa597	-0.024737163
185	0xbd623473	-0.0552258
186	0x3b16775f	0.0022959334
187	0xbca177c2	-0.019710425
188	0xbb94ca5d	-0.004540725
189	0xbd5fb2d6	-0.05461391
190	0x3d992ad6	0.074788734
191	0xbd6001e2	-0.054689296
192	0xbd3d696a	-0.04624311
193	0xbc8275c6	-0.0159253
194	0xbdb6e753	-0.0893084
195	0xbd7fadfa	-0.062421776
196	0x3bd791b6	0.0065786494
197	0xbd0a74be	-0.03380274
198	0x3d9bd0a5	0.07608155
199	0x3d6364f2	0.05551619
200	0x3d4a9a11	0.049463335
201	0x3c85d9e6	0.016339254
202	0xbd0c3f6d	-0.034240175
203	0x3d8167e3	0.06318643
204	0x3d78e349	0.06076363
205	0x3c90eb15	0.01769022
206	0xbcf0f53a	-0.029413808
207	0x3d89f776	0.067366526
208	0xbdad8afe	-0.08473776
209	0xbe238dbe	-0.15972039
210	0x3dc9e564	0.09858206
211	0xbd713da6	-0.058896683
212	0xbcf2271e	-0.029559668
213	0x3cf0743c	0.0293523
214	0xbd39ba8a	-0.045343913
215	0xbd2e6037	-0.042572226
216	0xbe078bbb	-0.13236897
217	0x3ca24f24	0.019813128
218	0xbd9e603f	-0.07733201
219	0xbd8db961	-0.06920124
220	0xbdd08f1b	-0.10183545
221	0x3cc56f70	0.02410099
222	0xbc6258c6	-0.013815111
223	0x3cc6d416	0.024271052
224	0xbbc6ab20	-0.00606288
225	0x3b38281d	0.0028100081
226	0xbcc59789	-0.02412011
227	0x3cffdcdf	0.03123325
228	0xbd700965	-0.05860271
229	0xbd4953c0	-0.049152136
230	0x3d605328	0.054766804
231	0x3cb5d0f8	0.02219437
232	0xbc4f54f0	-0.012654528
233	0xbd514796	-0.05109366
234	0xbd7957ed	-0.06087487
235	0x3953f1da	0.00020212625
236	0xbe03b84c	-0.12863272
237	0x3d20a0d3	0.039215874
238	0xbd4e267d	-0.050329674
239	0x3d90fbc6	0.07079272
240	0x3cf66c8a	0.030081052
241	0xbd9a75da	-0.0754201
242	0x3dfa80cf	0.122315995
243	0xbc2e64a8	-0.0106441155
244	0x3d541dfd	0.05178641
245	0x3c849848	0.016185895
246	0x39fbbe5e	0.00048016285
247	0xbaadbec5	-0.0013255706
248	0x3e4daee8	0.20086253
249	0x3d091512	0.03346736
250	0x3dc607c8	0.09669453
251	0x3d59618f	0.053071555
252	0x3b9f2f1d	0.0048579113
253	0x3ca5a70c	0.020221256
254	0xbd5d80cf	-0.05407792
255	0xbcb81a1c	-0.022473387

network_body._body_endoder.seq_layers.2.bias f4 [256]
0	0xba52ba63	-0.0008038638
1	0x2eeca2ea	1.0760977e-10
2	0xba9f1b2d	-0.0012138836
3	0xbad97306	-0.0016590066
4	0xba5c08bd	-0.0008393636
5	0x39428e9d	0.0001855441
6	0xba84da64	-0.0010135886
7	0x3434dae6	1.6843441e-07
8	0xbb1c0b7b	-0.0023810554
9	0xbaff3963	-0.0019472059
10	0xbb21aa04	-0.0024667988
11	0xbb28b07d	-0.002573996
12	0x2f0b931e	1.2694243e-10
13	0xbb0b50b4	-0.002125782
14	0xb84198a7	-4.6156954e-05
15	0xbb2145ca	-0.0024608248
16	0xbb225f47	-0.0024776028
17	0x3b8d9dce	0.0043217903
18	0xbb74216d	-0.0037251369
19	0xbb078f49	-0.002068477
20	0xba46f6a5	-0.00075898535
21	0xbb113a54	-0.002216001
22	0xbad097f4	-0.0015914426
23	0xba8ce423	-0.0010749142
24	0x3adfa6de	0.001706328
25	0xba245ab0	-0.0006269617
26	0xb9ad9e81	-0.00033115226
27	0xbac06ee9	-0.0014681491
28	0x3a8eb60c	0.0010887994
29	0xbb4e126f	-0.0031444093
30	0xbae881ef	-0.0017738919
31	0xbb2e48b2	-0.0026593623
32	0xbad1a399	-0.001599419
33	0xbb69ea72	-0.0035692719
34	0xbb14fcdd	-0.0022733726
35	0xbb3a04bb	-0.0028384167
36	0xba85e49f	-0.0010215229
37	0x3a91806c	0.0011100895
38	0x39a35ffb	0.00031161294
39	0xba7ec62d	-0.00097188615
40	0x323921a8	1.077607e-08
41	0xba16521e	-0.00057342823
42	0xbac3fa44	-0.0014951904
43	0xbab7b863	-0.0014016744
44	0xbaed23c8	-0.0018092329
45	0xbaabd23e	-0.0013108922
46	0xbb3995b1	-0.0028317983
47	0xbb29a5ad	-0.0025886104
48	0xbab7b318	-0.0014015166
49	0xac5c19f0	-3.1278279e-12
50	0xbb47fa4c	-0.0030514179
51	0xba59c107	-0.00083066564
52	0xbb0623ef	-0.0020468195
53	0xba634ab7	-0.0008670496
54	0xbaca7901	-0.0015447439
55	0xbada706e	-0.0016665587
56	0xbb009985	-0.0019622755
57	0xbb068b99	-0.0020529984
58	0xae8900b3	-6.230163e-11
59	0xbb1fdf62	-0.002439462
60	0xbb27df7c	-0.0025615385
61	0xbaac1eb1	-0.0013131705
62	0xbb2f84d0	-0.0026782043
63	0xbad84fb6	-0.0016503248
64	0xbb4bb3d5	-0.003108253
65	0xbb275e1f	-0.0025538278
66	0x3538b7cd	6.8812807e-07
67	0xbb8693e6	-0.0041069863
68	0xbb28969f	-0.0025724543
69	0x30de680b	1.6182197e-09
70	0xba84707b	-0.0010104323
71	0xba61cc41	-0.0008613505
72	0xbb4d6033	-0.0031337857
73	0xb77df445	-1.5136849e-05
74	0x33f0152e	1.11797235e-07
75	0xb25cc44f	-1.2850321e-08
76	0xbb21d384	-0.0024692724
77	0xb3bf58bb	-8.9102706e-08
78	0xbac7e1be	-0.0015249772
79	0xb6addc88	-5.181475e-06
80	0xbb08cc2e	-0.0020873654
81	0xbaf00ecd	-0.0018314958
82	0xbb1bb309	-0.0023757836
83	0xbb1a92fc	-0.0023586145
84	0xbafe203f	-0.0019388272
85	0xb822d273	-3.8819806e-05
86	0xb9046ba6	-0.00012628603
87	0x3acce718	0.0015632836
88	0xb5bfc80e	-1.4288833e-06
89	0xb8b17dc0	-8.4634405e-05
90	0x2e23eb7c	3.727106e-11
91	0xba738dae	-0.0009290826
92	0xba793d71	-0.00095077517
93	0xba690776	-0.00088893564
94	0x3a1bc3f7	0.0005941982
95	0xbb6ae5ad	-0.0035842464
96	0xbb262b91	-0.0025355557
97	0x3a6ba141	0.0008988567
98	0xba996460	-0.0011702888
99	0xb9dda487	-0.00042274987
100	0xbae143a8	-0.0017186301
101	0xba4cefd1	-0.0007817718
102	0x3b17f68f	0.0023187732
103	0xbb1eb49c	-0.0024216538
104	0x3a51d4a4	0.0008004403
105	0xbb10f7d2	-0.0022120369
106	0xbaa1bc4e	-0.0012339444
107	0x3a890bab	0.0010455748
108	0xbad82abf	-0.0016492232
109	0xbaeaf0e4	-0.0017924574
110	0x3a7193dc	0.0009215453
111	0xbb989809	-0.004656796
112	0xbb1b53cd	-0.0023701072
113	0xb8996b28	-7.315568e-05
114	0xba86c107	-0.0010280915
115	0xbb026fec	-0.0019903136
116	0xba83dbde	-0.0010060032
117	0xba8acd39	-0.0010589726
118	0xbb10a3b3	-0.0022070229
119	0xba9a6120	-0.0011778213
120	0xbbc94c95	-0.0061431625
121	0xba307989	-0.00067319773
122	0xb9b77e18	-0.00034998427
123	0xba72e16d	-0.00092651584
124	0xbab79f0e	-0.0014009194
125	0xbb2ec673	-0.0026668578
126	0x2b1735ed	5.3720814e-13
127	0xba58c0cd	-0.00082684756
128	0xbac8b8d0	-0.0015313867
129	0xbb0d47b0	-0.0021557622
130	0xbb1d4c82	-0.00240019
131	0xbae3b1ce	-0.0017371716
132	0xbb35d7be	-0.0027747
133	0xba8a7c3a	-0.0010565587
134	0xbae7c2d1	-0.0017681961
135	0xbaa36e7b	-0.0012468839
136	0xba5b570d	-0.00083671586
137	0xb994c2b5	-0.00028373828
138	0xba47e9e4	-0.00076261
139	0xbb48635f	-0.0030576808
140	0xbaf24b24	-0.0018485528
141	0xbb0d6f64	-0.0021581287
142	0xba8fc0b2	-0.0010967462
143	0xbb1e4ea3	-0.0024155758
144	0xbaaa3822	-0.00129867
145	0xbb216b73	-0.0024630695
146	0xbb797d60	-0.0038069114
147	0xbabca372	-0.0014391972
148	0xbb01eb47	-0.0019824074
149	0xbb13584a	-0.0022483044
150	0xbb760c21	-0.003754385
151	0xb38b127c	-6.476054e-08
152	0x39d5712b	0.00040710843
153	0xbaaa0bb9	-0.0012973464
154	0xbbb28b54	-0.005448738
155	0xbb4c5670	-0.003117945
156	0x3a4d1ebd	0.000782471
157	0xbaa2dc73	-0.0012425318
158	0xbabde9ae	-0.0014489198
159	0xb5845541	-9.859579e-07
160	0xbabc3e2d	-0.0014361792
161	0xba9c2d5a	-0.0011915371
162	0xbac0a32f	-0.001469707
163	0xbb1c8214	-0.0023881244
164	0xbaad2d7a	-0.0013212406
165	0xbb2853ea	-0.0025684782
166	0xae6adad2	-5.339979e-11
167	0xbb003bec	-0.0019566966
168	0xbb662a2e	-0.0035120356
169	0xba2dba4d	-0.0006627187
170	0xb9d09fd3	-0.0003979193
171	0xb965a243	-0.00021899589
172	0x3b121e86	0.0022296025
173	0xbabbf7d2	-0.0014340824
174	0xbb377caf	-0.0027997901
175	0xbaff0d8a	-0.0019458991
176	0xba04cd04	-0.000506595
177	0xba7fdc55	-0.000976031
178	0xb8089b2c	-3.2569442e-05
179	0xbafdf003	-0.0019373897
180	0xbac75970	-0.001520915
181	0xbaa35f94	-0.0012464398
182	0xbb39119a	-0.002823925
183	0x38b5e8bd	8.6741034e-05
184	0xb9ad6c80	-0.0003307797
185	0xbb94e632	-0.004544043
186	0x3270c76c	1.4015182e-08
187	0xbaf32ab0	-0.001855215
188	0xba6481a2	-0.00087168266
189	0xba89bb3c	-0.0010508071
190	0xb997f0a4	-0.00028980256
191	0x396fc4e9	0.00022866171
192	0xbb63b0b2	-0.003474277
193	0xb8afa841	-8.37599e-05
194	0xba99a60e	-0.0011722462
195	0xba9b2a1a	-0.0011838109
196	0xb9a5b3d3	-0.00031605232
197	0xba712a3b	-0.0009199713
198	0x3948b167	0.00019139574
199	0xbb0c0766	-0.0021366714
200	0xb1e39096	-6.623007e-09
201	0xb7bb8600	-2.2354536e-05
202	0xbbc4de4b	-0.0060079447
203	0xba78df2b	-0.0009493704
204	0xba9ce35d	-0.0011969615
205	0xbac86297	-0.0015288171
206	0xba9fe3c2	-0.0012198614
207	0x39d286a1	0.00040154628
208	0xbbdede57	-0.0068014073
209	0xbab1363c	-0.0013520191
210	0xba94c078	-0.0011348864
211	0x2ae8c7fa	4.135024e-13
212	0xbab94178	-0.0014133891
213	0xbaa8bd86	-0.0012873865
214	0xb7feb3f2	-3.0362953e-05
215	0xb99823b9	-0.00029018315
216	0xbaa05b01	-0.0012234153
217	0xba803037	-0.0009779994
218	0xbb31955d	-0.0027097084
219	0xb9ffd40b	-0.00048795374
220	0xbad2145d	-0.0016027797
221	0xb9b9f780	-0.00035470352
222	0xb29392bb	-1.7179778e-08
223	0xbac5967d	-0.0015074756
224	0xbb862d6e	-0.004094771
225	0xbb11840e	-0.0022203955
226	0xb82012a1	-3.8164322e-05
227	0x3b888756	0.004166524
228	0xbaee487b	-0.001817956
229	0xbad5a222	-0.001629893
230	0xbb6f8aba	-0.0036551193
231	0x272575c3	2.2962189e-15
232	0xbb050dd5	-0.0020302434
233	0xb64440cc	-2.9243993e-06
234	0xba5f5140	-0.0008518882
235	0xbaee33a8	-0.0018173354
236	0xba4eb86f	-0.0007885759
237	0xbad55ec0	-0.0016278848
238	0xbb055e00	-0.0020350218
239	0xbb375110	-0.00279719
240	0x3a1f2ef0	0.0006072363
241	0xbaec6264	-0.0018034694
242	0xb8bd6ec4	-9.032854e-05
243	0xba2c194d	-0.00065650494
244	0xb85afc26	-5.221008e-05
245	0xb9d5deca	-0.00040792517
246	0xbb1d95ac	-0.002404551
247	0x2b578b65	7.6576793e-13
248	0xbb0db88c	-0.002162489
249	0x341d2c40	1.4637862e-07
250	0xbafd1512	-0.0019308648
251	0xb6634448	-3.386538e-06
252	0xbaa5a02f	-0.0012636239
253	0xba985020	-0.0011620559
254	0xbb242049	-0.0025043658
255	0xbaae38ae	-0.0013292038

network_body._body_endoder.seq_layers.4.weight f4 [256, 256]
0	0x3da8589c	0.08220026
1	0x3df9c3eb	0.121955715
2	0x3daaba8f	0.083363645
3	0x3c8db1a8	0.017296627
4	0xbd1ea6e2	-0.03873337
5	0x3e184080	0.14868355
6	0xbc56cb62	-0.013110014
7	0xbd9832e5	-0.07431582
8	0x3d9b7dae	0.07592331
9	0xbc90a4ef	-0.017656771
10	0xbc96ae56	-0.018393677
11	0x3c565934	0.013082791
12	0x3daa8ca6	0.08327608
13	0xbd962de1	-0.073329695
14	0xbda6e345	-0.08148817
15	0xbd5b1ac7	-0.053492334
16	0xbd8451ec	-0.06460938
17	0xbd5e6cdd	-0.05430304
18	0xb96b39d8	-0.00022432895
19	0x3c9074bc	0.017633788
20	0xbcffeb32	-0.03124008
21	0x3d207582	0.039174564
22	0xbdcc2079	-0.09967131
23	0xbcdf6f29	-0.027274685
24	0xbbbd3532	-0.0057741636
25	0x3c12ec8d	0.008967531
26	0x3deae42f	0.11469304
27	0xbd81d2a3	-0.06339004
28	0x3cf3a7cf	0.029743103
29	0xbda93c5a	-0.08263464
30	0xbdc30c5c	-0.09523842
31	0xbd1c020e	-0.038087897
32	0xbdaee728	-0.08540183
33	0xbc0da1cd	-0.008644533
34	0xbbf3286a	-0.007420589
35	0xbc1508a8	-0.009096302
36	0x3cf0e63a	0.029406656
37	0x3d3ea951	0.04654819
38	0x3dbaa7e3	0.09114053
39	0x3cd58aa3	0.026067084
40	0x3b0fd341	0.0021945985
41	0xba992ff3	-0.0011687264
42	0x3bd111bf	0.0063802893
43	0xbb40f690	-0.0029443838
44	0x3da03152	0.07821907
45	0xbda86150	-0.08221686
46	0xbd1506cb	-0.03638343
47	0xbd2cf6b8	-0.042227477
48	0xbd0d25cc	-0.034459874
49	0xbda452ad	-0.08023582
50	0xbd5ca7a0	-0.053870797
51	0xbbe1c20a	-0.0068895863
52	0x3d39b32b	0.045336884
53	0x3c5b7538	0.013394646
54	0xbb7dabc8	-0.0038707126
55	0xbd1ec428	-0.038761288
56	0x3d6ae5d8	0.057348102
57	0xbcc2d543	-0.023783332
58	0x3c5a9253	0.0133405505
59	0x3d3703f0	0.04468149
60	0xbd86a2c0	-0.06574011
61	0x3e237a06	0.15964517
62	0xbd99075f	-0.07472109
63	0x3c5618ed	0.013067466
64	0x3d8726ba	0.065991834
65	0xbd5bfb6c	-0.05370657
66	0x3d5c9624	0.053854123
67	0xbdc7eea3	-0.09762313
68	0x3d541f67	0.05178776
69	0x3cd1634d	0.025560046
70	0xbaea84e8	-0.0017892392
71	0x3c3f536c	0.011677604
72	0x3d91cad2	0.07118763
73	0x3d862cb1	0.06551493
74	0xbe1ce289	-0.15320791
75	0x3d10fc06	0.0353966
76	0x3c0dae52	0.008647518
77	0xbdc24914	-0.09486595
78	0x3d27a4fd	0.04092883
79	0xbdc601d5	-0.09668318
80	0x3d67b8ee	0.056572847
81	0x3d5950d4	0.0530556
82	0x3d08a67a	0.03336189
83	0xbcd2da02	-0.02573872
84	0x3d89c036	0.067261145
85	0xbc9dc25a	-0.019257713
86	0x3d812d9c	0.063075274
87	0xbd967345	-0.07346205
88	0x3cf4568f	0.02982643
89	0x3d29d07b	0.041458588
90	0xbc236fe8	-0.009975411
91	0x3d819973	0.06328096
92	0xbd85e63a	-0.06538053
93	0xbae3341d	-0.0017334257
94	0xbd299bf2	-0.041408487
95	0x3d357f0e	0.044310622
96	0xbd80ae9f	-0.06283306
97	0x3d32b191	0.04362637
98	0x3baa7c9f	0.0052028443
99	0x3b980b13	0.004639992
100	0x3db9cab9	0.090718694
101	0xbc8e61a7	-0.017380549
102	0xbd440439	-0.04785559
103	0xbd49c9e0	-0.04926479
104	0x3d2cd63a	0.04219649
105	0xbdef9c8a	-0.11699779
106	0x3d330fdc	0.043716297
107	0xbe0cd33f	-0.13752459
108	0x3c996841	0.01872647
109	0xbb875652	-0.004130163
110	0xbbf5e1e5	-0.0075037354
111	0x3df6b808	0.1204682
112	0x3d55b282	0.05217219
113	0x3dc42773	0.09577837
114	0xbd56e363	-0.052462947
115	0xbd4b83e9	-0.049686346
116	0xbd6bd927	-0.05758014
117	0x3d231419	0.03981409
118	0x3c698384	0.014252547
119	0xbd05576d	-0.03255408
120	0xbca14175	-0.019684533
121	0x3d9e9b01	0.077444084
122	0xbd54e41e	-0.051975362
123	0xbda943c9	-0.08264882
124	0xbc48ac65	-0.012248133
125	0x3b359590	0.0027707554
126	0x3dd3243a	0.10309644
127	0xbdd04e1e	-0.1017115
128	0xbdd76a83	-0.105183624
129	0x3b583b64	0.0032994384
130	0xbc0e7b5c	-0.008696403
131	0xbd832707	-0.06403928
132	0xbd852aea	-0.06502326
133	0x3cb87ab7	0.022519452
134	0x3d6ed1f5	0.0583057
135	0x3d57dd20	0.052701116
136	0xbd8f985c	-0.07011482
137	0xbdedbd9c	-0.11608431
138	0x3d2b76dc	0.0418614
139	0xbe1b639e	-0.1517472
140	0xbca780a4	-0.020447083
141	0xbc89155d	-0.01673382
142	0x3d906539	0.07050557
143	0xbca452b9	-0.020058976
144	0xbd9165d3	-0.070994996
145	0x3d835c77	0.06414121
146	0xbd1f17f0	-0.038841188
147	0x3db408bd	0.08790729
148	0x3c4174f0	0.011807665
149	0xbc0d8d90	-0.008639708
150	0xbd98645e	-0.074410185
151	0xbd0bf46e	-0.034168653
152	0x3d84cc34	0.06484261
153	0x3bd306f1	0.0064400365
154	0x3c8be0ee	0.017075028
155	0x3ce38d00	0.027777195
156	0x3d3141d9	0.043275688
157	0xbe3dd945	-0.18539913
158	0xbd7a20d1	-0.061066452
159	0xbd87d7ae	-0.066329345
160	0x3d003d61	0.031308535
161	0x3d2bf0c4	0.04197766
162	0xbd871bb1	-0.065970786
163	0x3db51e27	0.08843642
164	0x3b1012cd	0.0021983862
165	0xbe288ae1	-0.16459228
166	0x3ca37e98	0.019957826
167	0xbbb7fb3f	-0.0056146677
168	0xbdb1126d	-0.086460926
169	0xbdf36018	-0.11883563
170	0x3be348b4	0.006936157
171	0xbc663ca3	-0.014052543
172	0xbd775204	-0.06038095
173	0x3c01df05	0.007926707
174	0xbdc58a79	-0.09645552
175	0xbcfa09b4	-0.030522205
176	0xbd867dcc	-0.065669626
177	0x3e02de5e	0.12780139
178	0xbca11abf	-0.019666074
179	0x3b6987e3	0.0035633973
180	0xbae71897	-0.001763123
181	0xbda03b6a	-0.07823832
182	0xbb25b737	-0.0025286207
183	0xbdcb2a6d	-0.099202015
184	0x3d2f629c	0.04281865
185	0x3d8c8bdb	0.06862613
186	0x3d86d373	0.065832995
187	0x3d80e749	0.06294114
188	0xbd8132f0	-0.06308544
189	0xbd9ff9bb	-0.07811304
190	0xbd58a448	-0.052891046
191	0x3cc229f2	0.023701642
192	0xbdd1abce	-0.10237847
193	0xbb114654	-0.0022167163
194	0x3b7835e1	0.0037873911
195	0x3c873d20	0.016508639
196	0xbd014c73	-0.03156705
197	0x3c2b4b33	0.010454941
198	0xbd8abc5d	-0.06774209
199	0xbdc9b1c9	-0.09848363
200	0x3d1c0b62	0.038096793
201	0xbd94e99a	-0.072711185
202	0x3d2f7464	0.042835608
203	0xbd5077c4	-0.050895467
204	0xbd90b119	-0.07065029
205	0xbdbdca47	-0.09267097
206	0x3d235158	0.039872497
207	0x3d00e724	0.031470433
208	0xbda55e67	-0.080746464
209	0x3c655e99	0.013999605
210	0x3d476b1d	0.048686136
211	0xbdcdc8da	-0.10048075
212	0x3cf210d0	0.029549032
213	0xbc08703c	-0.00832754
214	0x3c211f63	0.009834143
215	0x3bf2b202	0.007406474
216	0xbd62597c	-0.05526112
217	0xbd49c91b	-0.049264055
218	0xbd08c4e8	-0.03339091
219	0xbd7b074b	-0.061286252
220	0xbd098124	-0.033570424
221	0xbd82d309	-0.06387908
222	0x3da63bf0	0.08116901
223	0xbc89407d	-0.016754383
224	0x3cd6f022	0.026237551
225	0xbc44a3bd	-0.012001929
226	0xbcc9d3f5	-0.024637202
227	0x3de35118	0.11099452
228	0x3d9ffbcc	0.07811698
229	0xbb3a6061	-0.0028438794
230	0x3c4fc864	0.012682054
231	0xbdf4970b	-0.11942872
232	0x3d5c4ef6	0.05378624
233	0xbdfec499	-0.12439842
234	0x3d5f3ca9	0.05450121
235	0x3cd68e79	0.026190983
236	0xbc2fd295	-0.010731359
237	0x3d28d439	0.041218016
238	0x3dc280b4	0.094972044
239	0x3d9192c6	0.07108073
240	0x3d905540	0.0704751
241	0x3cec99e2	0.02888197
242	0xbd0f1633	-0.03493328
243	0xbe2f7108	-0.17132962
244	0x3d878c84	0.06618598
245	0xba4d0414	-0.0007820737
246	0xbdb37bde	-0.0876386
247	0xbcbc68b1	-0.02299914
248	0x3d5fb4e6	0.054615878
249	0xbda71884	-0.08158973
250	0xbd0aa839	-0.033851836
251	0x3cb7758a	0.022394914
252	0xbce2ace9	-0.02767034
253	0x3c87ff36	0.016601186
254	0xbdcbc019	-0.09948749
255	0x3ccad430	0.024759382

network_body._body_endoder.seq_layers.4.bias f4 [256]
0	0xbb101192	-0.002198313
1	0xba2471c9	-0.0006273059
2	0xbb35f43f	-0.002776399
3	0xbac50516	-0.0015031423
4	0xbaced12a	-0.0015778888
5	0xbb437c84	-0.0029828856
6	0xbaba3ddd	-0.001420911
7	0xba839538	-0.0010038977
8	0xbad152dd	-0.001597013
9	0xbb211155	-0.002457698
10	0xbb06cbb3	-0.0020568192
11	0xbb07b507	-0.0020707266
12	0xbae39199	-0.0017362117
13	0xbb043c47	-0.002017753
14	0xb28a2cb1	-1.6085638e-08
15	0xbb0508b4	-0.0020299377
16	0xbab06d39	-0.0013460285
17	0xb9112b32	-0.00013844369
18	0x35c1494b	1.4400952e-06
19	0xbb032940	-0.00200136
20	0xbb84b26a	-0.004049589
21	0xba2b4e09	-0.00065347605
22	0x342e710a	1.6246136e-07
23	0xbb780e4c	-0.0037850318
24	0xba37c567	-0.0007010311
25	0xbac409c4	-0.0014956524
26	0xbadfbe06	-0.0017070181
27	0xbb4f2540	-0.0031607896
28	0xbb8966a2	-0.004193143
29	0xbb7615dd	-0.0037549653
30	0xbb18f605	-0.0023339998
31	0x38172162	3.6032296e-05
32	0x3a338626	0.0006848298
33	0xb9bb31b4	-0.0003570445
34	0x3a8200cc	0.000991845
35	0xb8c8afbb	-9.5694755e-05
36	0xba5c0cff	-0.00083942706
37	0xbab4ab5b	-0.0013783978
38	0xbae68620	-0.001758758
39	0xb69b61e7	-4.6307573e-06
40	0xba2318ff	-0.0006221681
41	0xba720c59	-0.00092334073
42	0xb9b74288	-0.0003495405
43	0xba4cc720	-0.00078116544
44	0xbb81796c	-0.003951242
45	0xb730e351	-1.0543344e-05
46	0x3ac50e07	0.0015034088
47	0xb99901d5	-0.000291838
48	0xbbe268a4	-0.006909447
49	0xba7f18cb	-0.00097311725
50	0xbbdaa7d1	-0.0066728373
51	0xbadd8cb0	-0.001690289
52	0xbac7adf0	-0.0015234333
53	0xba882b39	-0.0010388858
54	0xbba354a6	-0.004984456
55	0xba82759c	-0.0009953263
56	0xba43ffb8	-0.0007476765
57	0xb9ed5b4c	-0.00045272184
58	0xbacbf848	-0.0015561664
59	0xbbe13d85	-0.006873789
60	0xbabe2f33	-0.0014509916
61	0xbb80dbcf	-0.003932453
62	0xbac0f568	-0.0014721574
63	0xbb23f78f	-0.0025019383
64	0xb8be5876	-9.076383e-05
65	0xba9d5987	-0.0012004831
66	0xbb5abe3f	-0.0033377556
67	0xbb0b19ac	-0.0021225018
68	0xbb8cfe7d	-0.0043027983
69	0xbb84e183	-0.0040552034
70	0xba13f5d6	-0.00056442374
71	0xbb20f5cd	-0.0024560571
72	0xbb0a36d9	-0.002108982
73	0xbb2aa7cd	-0.0026039958
74	0xbacf9758	-0.0015837951
75	0xbb0364e1	-0.0020049142
76	0xb9d5facf	-0.00040813393
77	0xba42f1a1	-0.0007436518
78	0xbb63a00a	-0.0034732842
79	0xba8d1dc9	-0.0010766323
80	0xba5317d4	-0.0008052562
81	0xbb25ea86	-0.0025316789
82	0xb95eb077	-0.00021237308
83	0xbb56f27c	-0.003279834
84	0x36c50701	5.871873e-06
85	0xbb4fd842	-0.0031714593
86	0xba8e4d3e	-0.001085676
87	0xbb442722	-0.0029930552
88	0xbb0b2c79	-0.0021236225
89	0xba566894	-0.00081790355
90	0xba874cf8	-0.0010322621
91	0xba3d0ea2	-0.0007211958
92	0xbb7e43cf	-0.0038797741
93	0xbb1d65e7	-0.0024017037
94	0xb9014568	-0.00012328255
95	0xba21e448	-0.0006175679
96	0xbb404c46	-0.0029342338
97	0xbb60b665	-0.0034288403
98	0xbb1b0bad	-0.0023658082
99	0xbb1867b5	-0.0023255174
100	0xbb222617	-0.0024741942
101	0xbb3bcb85	-0.0028655243
102	0xb917b35e	-0.00014467302
103	0xbaf4e29c	-0.0018683258
104	0xb9c3634f	-0.0003726729
105	0xba5fb79e	-0.0008534136
106	0xbb0255f8	-0.0019887667
107	0xbacb7229	-0.0015521693
108	0xba1dc4c6	-0.0006018396
109	0xbaeae68b	-0.001792149
110	0x354baeb0	7.5877597e-07
111	0xbb8b534f	-0.0042518745
112	0xbb52b94b	-0.00321539
113	0xbb02e3a8	-0.001997212
114	0xbb3cd7fc	-0.002881526
115	0xbb1dfcef	-0.002410706
116	0xb9001c61	-0.00012217603
117	0xbaee6208	-0.0018187175
118	0xbb0e3872	-0.0021701124
119	0xbb04041f	-0.0020144058
120	0x39677c7a	0.00022076248
121	0xbb84da60	-0.0040543526
122	0xba82ce6b	-0.000997973
123	0xbb0ec78b	-0.0021786417
124	0xba58a70f	-0.000826464
125	0xbab55368	-0.0013834061
126	0xb8abfecf	-8.201377e-05
127	0xbb0f106f	-0.0021829864
128	0x370c0eb6	8.348075e-06
129	0xbb5bf912	-0.0033565206
130	0xba8751db	-0.0010324077
131	0xba253399	-0.0006301939
132	0xbacadfb4	-0.0015478046
133	0xbbae43cb	-0.00531814
134	0xb98107af	-0.00024610522
135	0x3762504f	1.3489348e-05
136	0xb99c9f5a	-0.00029873365
137	0xb9ab34d9	-0.00032655036
138	0xbb1fe1e3	-0.0024396114
139	0xbb85f637	-0.004088189
140	0xbb636548	-0.003469782
141	0xb945f0f1	-0.00018877142
142	0xbacd1a03	-0.0015648011
143	0xbaf3563d	-0.001856513
144	0xba94ec2e	-0.0011361891
145	0xbb4d5d96	-0.00313363
146	0xbb1acb45	-0.0023619693
147	0xb88c1ab4	-6.680694e-05
148	0xbb09d940	-0.0021034032
149	0xbb18827b	-0.0023271132
150	0xbabdd705	-0.0014483636
151	0x381a9a37	3.6860085e-05
152	0xba41d053	-0.00073934085
153	0xba8cdf01	-0.0010747613
154	0xbb2c7200	-0.0026313066
155	0xbaafe8c4	-0.001342081
156	0xbb31536b	-0.0027057778
157	0x34639053	2.1193527e-07
158	0xba95b0b3	-0.0011420458
159	0xbb8b7142	-0.0042554447
160	0xbad84c18	-0.001650217
161	0xbb4512f8	-0.003007112
162	0xbb390c54	-0.0028236108
163	0xba9e0e80	-0.0012058765
164	0xba100172	-0.00054933794
165	0xb9f180c0	-0.00046063028
166	0xbb6108cf	-0.0034337526
167	0xba890992	-0.0010455123
168	0xbb30dae9	-0.002698595
169	0x3884192f	6.298941e-05
170	0xba86a35a	-0.0010272071
171	0xbb3e5022	-0.0029039462
172	0xbb9ca514	-0.004780421
173	0xbafe192d	-0.0019386165
174	0xbb1152a9	-0.0022174513
175	0x3630ebea	2.6363364e-06
176	0x38dced93	0.00010534669
177	0xba4512a4	-0.0007517731
178	0xbb227124	-0.0024786675
179	0xba27bc24	-0.00063985796
180	0xba0c0bf1	-0.00053423556
181	0xb98398f0	-0.00025100214
182	0xb65df937	-3.3076628e-06
183	0xbb30fa10	-0.0027004518
184	0xbb102e80	-0.0022000372
185	0xbb952e4d	-0.0045526386
186	0xbb901b13	-0.0043977587
187	0x394be2b2	0.00019444039
188	0xba6ae05c	-0.0008959824
189	0xb9b08b1e	-0.00033672986
190	0xbb826884	-0.0039797444
191	0xbb0b8558	-0.0021289196
192	0xbb44a7a8	-0.0030007157
193	0xbae9ecf1	-0.0017847103
194	0xbb998071	-0.004684501
195	0xba917ff8	-0.001110076
196	0xbb137281	-0.002249867
197	0xbb1633f4	-0.002291915
198	0xbb2fa2f4	-0.0026800008
199	0xbb4935a4	-0.0030702138
200	0xbb815110	-0.003946431
201	0xb971a183	-0.00023043719
202	0xb5c83d4e	-1.4919003e-06
203	0xbb3589fd	-0.0027700656
204	0xbb3f2f6b	-0.002917255
205	0xbad43bc8	-0.0016192133
206	0xbac9b008	-0.0015387544
207	0xba15bcd7	-0.0005712038
208	0xba31a686	-0.0006776828
209	0xbb9c7940	-0.0047751963
210	0xbb311c56	-0.0027024946
211	0xbb032acf	-0.002001453
212	0xb9992714	-0.0002921155
213	0xbb3fbf29	-0.0029258227
214	0xbafecdcb	-0.0019439993
215	0xba5f5e4b	-0.00085208256
216	0xbc07dcff	-0.008292436
217	0xbb27464e	-0.0025524083
218	0xbae45682	-0.0017420801
219	0xbabb0233	-0.0014267623
220	0xb9393d5a	-0.0001766583
221	0xbb1fc37b	-0.002437799
222	0xb9d12704	-0.00039892655
223	0xbb141f84	-0.0022601793
224	0xbae5fb9d	-0.00175463
225	0xbafb90db	-0.001919295
226	0xb7a6c3b8	-1.987988e-05
227	0xb4677856	-2.155733e-07
228	0xbb19968e	-0.0023435685
229	0xb8b895c2	-8.801698e-05
230	0xbb6cc9c2	-0.0036131
231	0xba1cd781	-0.00059830403
232	0xbbbe8306	-0.005813959
233	0xbaf50f67	-0.0018696607
234	0xbb3e55eb	-0.002904291
235	0xb9d8ee0f	-0.00041376098
236	0xbb808b12	-0.0039228285
237	0xba9b0ea9	-0.0011829931
238	0xb9f5179c	-0.00046747632
239	0xbb41782c	-0.002952109
240	0xb96ca44f	-0.00022567924
241	0x3780fc0e	1.5376161e-05
242	0xba0d73ae	-0.0005395961
243	0xb91cfb01	-0.00014970826
244	0xbbe2f4e7	-0.0069261673
245	0x3821a91d	3.854289e-05
246	0xbb379a36	-0.00280155
247	0xba3a8269	-0.00071147695
248	0xbb277cb8	-0.0025556516
249	0xb9b0a92f	-0.00033695388
250	0xbacca544	-0.0015613218
251	0xb9b66179	-0.00034786368
252	0xba4979a5	-0.0007685668
253	0xb8f46633	-0.00011653863
254	0xbb3751ca	-0.0027972334
255	0xbb337ead	-0.0027388737

network_body._body_endoder.seq_layers.6.weight f4 [256, 256]
0	0x3e0ec5e2	0.13942674
1	0x3d282438	0.041050166
2	0x3cb0513c	0.02152311
3	0x3db9e24a	0.09076364
4	0x3c16513d	0.009174642
5	0x3ca94dad	0.020666922
6	0x3bd64d65	0.006539988
7	0xbd929ee7	-0.071592145
8	0xbd572cf7	-0.052533116
9	0x3c52b775	0.012861122
10	0xbe024245	-0.12720592
11	0xbdcb3500	-0.09922218
12	0xbd42bd41	-0.047543768
13	0xbc8e0fe3	-0.01734156
14	0xbd5ac216	-0.05340775
15	0xbcbb7094	-0.02288083
16	0x3c8de925	0.017323086
17	0x3d52e35a	0.05148635
18	0x3dbb399d	0.09141848
19	0x3d1f58e9	0.03890315
20	0xbe0f7d5f	-0.14012669
21	0x3dafeb7d	0.08589838
22	0xbd5ea151	-0.054353062
23	0x3c46b1be	0.012127338
24	0x3dc5adc3	0.09652283
25	0xbc5bf3fe	-0.0134248715
26	0xbd579598	-0.052632898
27	0x3d58761b	0.05284701
28	0x3d77c72f	0.06049269
29	0x3d4e6888	0.050392658
30	0x3d09b8dd	0.033623565
31	0xbdaa76a8	-0.08323413
32	0xbd77403a	-0.060363986
33	0xbb830502	-0.0039983997
34	0x3db62a8f	0.08894836
35	0xbc42aaaa	-0.01188151
36	0x3cf16ba9	0.029470282
37	0xbc9b384c	-0.018947743
38	0xbd967a76	-0.07347576
39	0x3d665110	0.05622965
40	0x3ddd5b6a	0.108084515
41	0x3ca2c817	0.0198708
42	0xbd0c4f2d	-0.034255195
43	0x3d21f953	0.039544415
44	0xbcd06a5b	-0.02544134
45	0x3bf9d709	0.007624511
46	0xbd5d3f8c	-0.05401568
47	0xbcf66118	-0.030075595
48	0xbd8e7e9e	-0.06957744
49	0x3d259745	0.040427465
50	0x3da8c76b	0.08241161
51	0x3d271682	0.04079295
52	0x3dd4873c	0.103773564
53	0x3ae908c3	0.00177791
54	0xbcc00e1c	-0.023444228
55	0x3ce85127	0.028359009
56	0xbdbb647b	-0.091500245
57	0x3d68e0c1	0.056854967
58	0x3d1b3a56	0.03789743
59	0x3ba08897	0.0048990953
60	0xbdd83243	-0.10556462
61	0x3d74ff0e	0.05981355
62	0x3c8ad70c	0.016948245
63	0x3cfb9d82	0.030714754
64	0xbdf40860	-0.1191566
65	0x3cc52c54	0.024068989
66	0x3cd40ced	0.02588507
67	0x3d72eb12	0.05930621
68	0x3c24d2ea	0.010060051
69	0x3ad39a2a	0.0016143967
70	0x3d3de50d	0.046361018
71	0x3dba376a	0.09092601
72	0x3cdaea27	0.02672298
73	0x3ce19804	0.027538307
74	0x3c968f24	0.018378802
75	0xbdb952ec	-0.09049019
76	0xbdf17428	-0.11789733
77	0x3ac5b6d2	0.0015084392
78	0xbd0ad0c7	-0.03389051
79	0xbbf013d9	-0.007326585
80	0xbca62358	-0.020280525
81	0x3cebfebd	0.028807992
82	0x3db0124b	0.08597239
83	0x3dba1408	0.09085852
84	0xbc5c6b09	-0.013453254
85	0x3d77de5e	0.0605148
86	0xbcbd1869	-0.023082929
87	0xbce56910	-0.0280042
88	0xbdad49cf	-0.084613435
89	0xbcd898b2	-0.026439998
90	0x3d075033	0.03303547
91	0xbce0999d	-0.027416999
92	0x3c6b4357	0.014359317
93	0xbd1cb46d	-0.038258005
94	0xbc049cf2	-0.008094059
95	0x3d8ad3f9	0.06778712
96	0x3c6c6969	0.014429429
97	0xbce65d40	-0.028120637
98	0xbcac3480	-0.021021128
99	0xbe160c3d	-0.14653106
100	0x3d5831d0	0.05278188
101	0xbd2b64b0	-0.04184407
102	0xbb7c8ba8	-0.003853539
103	0x3dad28a9	0.08455021
104	0x3d930fdc	0.07180759
105	0xbcc09ff3	-0.02351377
106	0xbd10b828	-0.035331875
107	0x3cb3371b	0.021876862
108	0x3e12aec3	0.14324479
109	0x3d434f17	0.047682848
110	0x3d5fa9ef	0.05460542
111	0xbddc259e	-0.107493624
112	0x3aa1f9cd	0.0012357772
113	0x3d9066e9	0.070508786
114	0x3d8ef26b	0.06979831
115	0xbc34e363	-0.011040541
116	0xbd0ae31e	-0.033908002
117	0x3d3f608f	0.046722945
118	0x3cd1d83e	0.025615808
119	0x3c7cb67f	0.01542437
120	0x3d3162b3	0.043307018
121	0x3cebde7c	0.028792612
122	0xbcd6ce2a	-0.026221354
123	0x3c9327f7	0.017963393
124	0x3d7e4550	0.06207782
125	0x3d068f7f	0.032851692
126	0xbd12a8f1	-0.035805646
127	0x3c0d4510	0.008622423
128	0xbdd17159	-0.102266975
129	0x3d6ced47	0.057843473
130	0x3ba7b97f	0.0051185484
131	0x3d16397f	0.036675926
132	0xbd80a37c	-0.06281182
133	0x3d97b4fa	0.074075654
134	0xbc7be6c1	-0.01537484
135	0xbc013906	-0.007887131
136	0x3dac3b07	0.08409696
137	0x3d933b06	0.07188992
138	0xbc5adb39	-0.013357931
139	0xbce686bf	-0.028140424
140	0xbd9f5c57	-0.07781284
141	0xbafabd43	-0.0019129891
142	0xbde92363	-0.113837026
143	0xbd10f38b	-0.03538851
144	0xbb93af1c	-0.0045069586
145	0x3d48a6d9	0.048987243
146	0xbd442be4	-0.04789342
147	0xbd919138	-0.071077764
148	0xbabfed31	-0.0014642832
149	0xbd28d4c6	-0.04121854
150	0xbd529dc0	-0.051419973
151	0xbd848db4	-0.0647234
152	0xbd1eac1e	-0.038738362
153	0xbcbad430	-0.022806257
154	0xbd4a0a8e	-0.049326472
155	0x3c906379	0.017625557
156	0x3cab1255	0.020882765
157	0x3c82b8d7	0.01595728
158	0xbbd8604e	-0.0066032773
159	0xbdd566d8	-0.104200065
160	0xbd693eff	-0.056944843
161	0x3c017616	0.007901689
162	0x3b724704	0.0036968598
163	0xbd1cb3bc	-0.038257346
164	0x3c7dd5fd	0.015492913
165	0xbd7e1381	-0.06203032
166	0x3ce90009	0.0284424
167	0x3d32c4a7	0.043644574
168	0x3d844725	0.06458882
169	0x3d728c21	0.05921567
170	0xbe0ab43f	-0.13545321
171	0xbd67c9ca	-0.056588925
172	0x3b70d52a	0.003674815
173	0x3dc94fc0	0.09829664
174	0xbd5865b2	-0.05283136
175	0xbc1d7084	-0.009609345
176	0xbc0684b0	-0.008210346
177	0x3c2a1b12	0.010382431
178	0x3e0db1a2	0.13837293
179	0x3d764021	0.06011975
180	0x3d1ad690	0.03780228
181	0xbc037bc3	-0.008025113
182	0x3def68cf	0.116899125
183	0x3c16cf48	0.009204693
184	0xbd865ac1	-0.06560279
185	0x3d01582a	0.03157822
186	0x3d31733f	0.043322798
187	0x3d320155	0.0434583
188	0xbbd0bdfe	-0.006370305
189	0x3a2c45a9	0.00065716595
190	0xbc54822b	-0.012970488
191	0x3ac11fc1	0.0014734195
192	0x3d817652	0.06321396
193	0xbe40b6a7	-0.18819676
194	0xbd4177b4	-0.0472333
195	0xbe3f4d67	-0.1868187
196	0xbbd3f1a9	-0.006468017
197	0x3d47cb85	0.048778076
198	0x3cddf971	0.027096482
199	0x3d0f3ae5	0.034968276
200	0xbd391b53	-0.045192074
201	0x3d584bd4	0.05280669
202	0x3d99bd2e	0.07506786
203	0xbcc5841a	-0.024110842
204	0x3c07486d	0.008257014
205	0x3d520d6e	0.05128234
206	0xbcca384b	-0.024685046
207	0xbdd4c0e9	-0.10388357
208	0x3c1c6617	0.0095458245
209	0x3d6a6026	0.0572206
210	0xbdbc69ec	-0.091998905
211	0x3cc65eb0	0.024215072
212	0x3d3a7c66	0.04552879
213	0xbb905fd3	-0.0044059544
214	0x3c2813ea	0.010258654
215	0x3c507111	0.01272227
216	0x3d72a372	0.059237905
217	0x3d9c4eeb	0.0763224
218	0xbd8c7598	-0.06858367
219	0x3d1b5d02	0.037930496
220	0x3dfeb9f5	0.12437812
221	0x3c609a64	0.013708685
222	0x3c91d477	0.017801506
223	0xbda80240	-0.08203554
224	0x3d981237	0.07425349
225	0xbdc5bdc6	-0.09655337
226	0xbce5c2d4	-0.028047003
227	0xbe26cac1	-0.16288282
228	0x3d1d752d	0.038441826
229	0xbccc6cc2	-0.024954204
230	0x3da41b1f	0.080129854
231	0xbdd472d4	-0.10373464
232	0xbe03780b	-0.12838762
233	0x3d5d6bc1	0.05405784
234	0x3c19f42c	0.009396594
235	0x3de31580	0.11088085
236	0xbe0c1ad0	-0.13682103
237	0x3dab487d	0.083634354
238	0x3dccc31f	0.09998154
239	0xbb910d7a	-0.0044266554
240	0xbcf04bbc	-0.029332988
241	0x3d57650a	0.052586593
242	0x3d8de967	0.069292836
243	0x3bfa9b37	0.0076478976
244	0x3cebcb9a	0.028783608
245	0x3c841e2d	0.01612767
246	0x3c48141d	0.012211827
247	0xbcba34a3	-0.022730177
248	0x3d08c887	0.033394363
249	0x3d27b474	0.040943578
250	0x3d92bd8c	0.071650594
251	0xbd40ba6c	-0.047052786
252	0x3ddc400e	0.10754405
253	0xbcafbd37	-0.02145253
254	0x3d62bdbc	0.055356726
255	0xbddda7f2	-0.10823049
