Assets/ML_PPO/results/2nd_go_36/BoatAgent/BoatAgent-99974.onnx (onnx, 834984 bytes, 13 tensors)

discrete_action_output_shape f4 [1, 2]
00000000: 0000 4040 0000 4040
3.0 3.0

network_body._body_endoder.seq_layers.0.weight f4 [256, 34]
00000000: c6e8 9b3e 7c1f 65bd ca6c 423c 594a d1bd
00000010: 8612 e6be a4bb 35bd 0987 2b3e a1d5 05bc
00000020: a6d8 b93d cbaf 25be a145 e03d ad2a 8b3d
00000030: 8d00 c3bd 66c2 1c3e 02bc ccbd 2465 07bd
00000040: 14d6 b1bc 644e 5d3e ecd3 223e 8ab0 66be
00000050: 2322 08be 0fcd b7bd 9955 d23d 0cf6 253d
00000060: f296 11be b321 00bd 5834 ab3d 026a d03e
00000070: 26f4 c43e 8a7d bbbd 9a85 b13d 4f8f 983c
00000080: 71ec 603e 5e30 883e c49f 9a3e 1134 fdbd
00000090: a8a7 22bd d9d1 893c 545c 5fbc 4f7f 783c
000000a0: 9ae8 803e 7e66 8b3d 3684 ef3c 0c45 353d
000000b0: 57f3 52bc c961 e53d 6b59 babd 3c0e 04bd
000000c0: 3261 d3bd 47ac da3c 2278 f73d e2de a03c
000000d0: b8bc a3bd d5cc b4bd 19bd 8f3c 8ee0 57be
000000e0: 945c db3d 55dd cbbd 4243 9f3d 6736 82bc
000000f0: 41df 153e 2602 4f3d efc9 d63d a9af 593d
00000100: 4898 e33d 0fa3 5b3e f940 af3e 38de cb3d
00000110: acd7 a8bd 519c 3d3e 4cd3 08be 3796 2ebe
00000120: 9c01 acbe d295 cbbd b971 5e3d c0a4 b3bd
00000130: 37ec f7bb 2ea4 9a3e 3687 62be 66f7 73be
00000140: f694 31bd 7573 3b3e b4e6 83bc 3a65 93be
00000150: 1414 fa3d f1ff 1ebe 4a82 adbd 36b6 753e
00000160: 01d4 debb 5de4 773c f4a3 aebe 51b5 c43d
00000170: 8f6c 2dbd 81c2 ce3d 301b 14be 4f21 c93c
00000180: b591 33bc a3e0 02bd 016e 43bd c95e b2bd
00000190: 5fdc cfbe 17d8 3b3e 42ef 133c b47d 0ebe
000001a0: 0913 10be 8729 2d3e 2863 3e3e 4290 24be
000001b0: a124 6fbe 5dba 253e e443 033e cac4 b8bd
000001c0: d11e 8d3c 0d15 1dbe 0c22 e43e 3eb3 04be
000001d0: b2f6 bdbd e519 9fbd 59af 0cbe c1c9 813e
000001e0: 4c3d 0c3e 5872 94bd e9f3 ccbd 6792 91bd
000001f0: fcaf 8abe 3730 a7be 51ee 3c3e de05 913d
00000200: 249f a33e a4b2 ebbd 9aaf ba3d 496e 3bbd
00000210: 2e7e 37bd 586b 52bd fd18 233e 1ae4 ab3e
00000220: 3a52 84be 25be b03c b724 3d3d 9a43 203e
00000230: 4d08 10bf 96c9 4e3e d1d8 b2bd 38a4 073e
00000240: 061c b6bd f544 a4bd f74c dbbe 5eee a5bd
00000250: 85bc febe 4d57 2f3e 1c7a 263e 6360 cb3d
00000260: 343d d83d 5704 d9bd 006c 9a3e 967f 34be
00000270: 3331 d03d 3a0c b2be 220c 153e b8c3 4fbd
00000280: 6fda 02be 4bc4 86bd 94c4 12be dd3d c4bd
00000290: 2583 8e3c 7155 0cbe fab5 023c fcaf 863c
000002a0: 6285 903e 0e8c 25be 6689 9ebd eb64 8ebd
000002b0: c9ee d0bc 2e94 023d b2a8 84be ff16 febd
000002c0: 098a aebd 0fe7 153d 5c2e 543d 1810 00bd
000002d0: 16c2 29be 0a12 d13d b457 933d b823 c4be
000002e0: d349 9a3e 671c 1d3e d560 643a 9f3d b9be
000002f0: 388a 343e 08f4 1f3e c031 4abe 959e 96be
00000300: 4d1a 293e 4a85 863e 40fb 113d 71dd 99be
00000310: 29d7 36be c2c1 86be 8908 f4be a92c fcbb
00000320: dd49 88bd 3584 4ebe 8bfb 8d3c 8752 00be
00000330: 6d9b 693d 5fd3 053e 32c7 4d3e 6b43 b7ba
00000340: 765c 2ebd ca4a c6be 6d34 34be 3ed8 e6bd
00000350: beef 83be b16f c4bd f04a d13e be39 da3d
00000360: 4ec8 a5be 0024 743b 3221 073e 63d4 0e3d
00000370: 3ccc ebbd fa42 8abd 46dc 093e cf90 67be
00000380: 5d78 393e 1999 ff3d 9396 3b3e d3ee c43d
00000390: 9a25 f5bd e8a4 6d3c d4f1 21be 4974 2b3e
000003a0: 1a1d 183e 3026 4a3e f551 24be 3910 d5bd
000003b0: 2e05 88bd ffc1 d7bd ce99 7ebc ed7c 563e
000003c0: 9834 eabd df24 29be 2ab8 7abe b7ce 2dbe
000003d0: 0380 663e 9e79 b7bd b89d 59be 4270 4f3e
000003e0: 2955 3c3e 23bc 8cbc e55e 74be 6899 35bd
000003f0: 1750 933e 7991 28bd 8d3f cebd 0c40 e63d
0.3045103 -0.05593823 0.011866758 -0.10219259 -0.44936007 -0.0443684 0.1675073 -0.008168609
0.090745255 -0.16180341 0.10950781 0.06795249 -0.095215894 0.15308532 -0.09996797 -0.03305544
-0.021708526 0.21611935 0.15901154 -0.22528282 -0.13294272 -0.08974659 0.10270233 0.04051785
-0.14217737 -0.031282138 0.08359593 0.40705878 0.3846752 -0.09154804 0.086680606 0.018623022
0.21965195 0.265994 0.30200016 -0.123634465 -0.03971067 0.016823696 -0.013632853 0.0151670715
0.2517746 0.06806658 0.029237848 0.0442553 -0.0128754 0.11200292 -0.090990864 -0.032240137
-0.10321273 0.026693476 0.120834604 0.019637529 -0.079949796 -0.08828131 0.017546223 -0.21081755
0.10711017 -0.09954325 0.077765 -0.015895082 0.14635946 0.05053916 0.104877345 0.05314604
0.1111303 0.2144892 0.34229258 0.09954494 -0.08244261 0.18516661 -0.13361853 -0.1704949
-0.33594978 -0.09940685 0.054307673 -0.08771658 -0.007566001 0.30203384 -0.22121891 -0.23824844
-0.04335495 0.18305762 -0.016101219 -0.28788167 0.12210861 -0.15527321 -0.08472116 0.23995289
-0.006800175 0.01513013 -0.3410946 0.09604896 -0.042339858 0.100956924 -0.14463496 0.024552016
-0.010960032 -0.03195251 -0.04771233 -0.08709485 -0.40597817 0.1834415 0.0090292115 -0.1391514
-0.14069761 0.16910373 0.18592513 -0.16070655 -0.23353817 0.16184373 0.12818867 -0.090219095
0.017226608 -0.15340061 0.44557226 -0.12959 -0.09275569 -0.07768611 -0.13738765 0.2534924
0.13695258 -0.07248372 -0.1000746 -0.07108002 -0.2708739 -0.32653973 0.18450285 0.07081197
0.31957352 -0.11508682 0.091155246 -0.045759473 -0.04479807 -0.051371902 0.15927501 0.33572465
-0.25843984 0.021575043 0.046177592 0.15650788 -0.56262666 0.20194086 -0.08732761 0.13246238
-0.08892064 -0.08020965 -0.42832157 -0.081021056 -0.49753204 0.17123146 0.16257519 0.09930494
0.105585486 -0.10596531 0.30160522 -0.17626795 0.10165634 -0.34774953 0.1455541 -0.05072376
-0.12778638 -0.06580409 -0.14332801 -0.09582112 0.017396519 -0.13704468 0.007977957 0.016441338
0.28226763 -0.16166708 -0.077410504 -0.06952842 -0.025504487 0.031879596 -0.25909954 -0.1240673
-0.08522422 0.036597308 0.051802024 -0.03126535 -0.16577944 0.10208519 0.071944624 -0.383085
0.30134448 0.15342866 0.0008711939 -0.36179826 0.17630851 0.15620434 -0.1974554 -0.29417863
0.16513939 0.26273566 0.03564 -0.3005176 -0.17855515 -0.263197 -0.47662762 -0.0076957536
-0.06654713 -0.2016762 0.01733186 -0.12531482 0.05703299 0.13068913 0.20095518 -0.0013981884
-0.042568646 -0.38728935 -0.17598124 -0.11271714 -0.25768846 -0.09591616 0.40877485 0.10655545
-0.32379383 0.0037252903 0.13196257 0.034870517 -0.11513564 -0.06751056 0.13462934 -0.22613834
0.18112321 0.12480373 0.18319158 0.096158646 -0.119700626 0.014504649 -0.15814906 0.16743578
0.14854851 0.1974113 -0.16046889 -0.10403485 -0.06641613 -0.10535049 -0.0155396 0.20946093
-0.11435813 -0.16517971 -0.24484316 -0.16973387 0.2250977 -0.089587435 -0.21251571 0.20257667
0.18391861 -0.017179554 -0.23864324 -0.044335753 0.2877204 -0.04115436 -0.10070715 0.11242685

network_body._body_endoder.seq_layers.0.bias f4 [256]
00000000: 0000 0000 0000 0000 18a1 3fb9 e16e 03b9
00000010: 0000 0000 0000 0000 14cb a239 0000 0000
00000020: 2dbb abb9 4b20 2c39 0000 0000 0000 0000
00000030: 9610 683a 7617 ef39 7232 823a 0000 0000
00000040: 9eb4 3fba 15a0 8bb9 261e 80b9 6b86 76b9
00000050: 983b 3e38 aa2a 2716 0000 0000 db57 6c39
00000060: 0723 939b 0000 0000 4aa6 34ba 67f1 843a
00000070: a49e 373a 46a3 0ab8 720d 2439 0000 0000
00000080: b420 dab9 81ec 8a38 3663 5b3a be4d d639
00000090: 7494 77ba 3a4f e4b7 0000 0000 47a3 6f3a
000000a0: 0000 0000 581f 0483 3cb3 123a 0000 0000
000000b0: ae75 b0b9 de3d 373a 5c46 22ba a026 24b9
000000c0: 551b c5b0 7eb8 083a 55e6 03ba 0000 0000
000000d0: a1ea 53ba fc63 4ab9 85e5 9899 a734 8e3a
000000e0: a77e 823a 494f 7f38 0000 0000 6bf3 60b9
000000f0: 78c1 e938 0302 413a 0000 0000 172f 9b3a
00000100: 0000 0000 14c4 271d 2106 753a 8977 e039
00000110: 9b02 24b9 9036 99ba 0000 0000 0000 0000
00000120: 0000 0000 1ecf b683 0000 0000 3f70 beb9
00000130: c60e 883a c3d9 47ba 5b3e 8d39 f4de 72ba
00000140: 0000 0000 0000 0000 6f16 95b9 a628 4a39
00000150: 393b 10b9 47d4 9a08 9529 84ba 3898 303a
00000160: d732 89ba 7d52 913a 0000 0000 e02c 54b9
00000170: 5a0a 31ba 773c 5c3a 0b6d 423a 6723 a4a9
00000180: 6afd 2fb9 bd6c d0b7 1e29 85ba 843e 3d37
00000190: fd86 993a 51f5 e92b f689 c039 b982 1b39
000001a0: 3c93 2239 73a6 42b9 13b4 86ba e299 b5b8
000001b0: 7826 6c12 479b 8f97 39db 10b9 18b2 c439
000001c0: 9bed 50ba 7d1e 1cba 0000 0000 8baa a496
000001d0: 78f5 85b8 20f2 d0b8 0866 443a a6f6 b32f
000001e0: 8eb5 feb9 0000 0000 7ea7 621b c873 08b9
000001f0: 0000 0000 0000 0000 f601 a0b9 ab30 b0b9
00000200: 7f76 97ba 0000 0000 0000 0000 f0aa d1b9
00000210: 007f 0bb8 80ef 1bb6 29ad 7dba 6fd6 1b3a
00000220: 8f98 dbb8 be1c f038 c7d8 54b9 ad72 68ba
00000230: f7ea 3914 6d92 1414 3398 0cba 0000 0000
00000240: 9825 a838 2bb8 27ba 7d9e 95ba bbd8 59a2
00000250: 0000 0000 0000 0000 1059 81b9 0f77 da39
00000260: f576 263a baed 81ba aaec a6ac 9ca2 143a
00000270: aae1 aeba 0000 0000 30ab 5d3a 70c4 07ba
00000280: 0000 0000 905a ff38 3a17 6fba 2d0d 3cb9
00000290: 0000 0000 af69 1239 5c3b 6337 0000 0000
000002a0: 7214 5bb8 c6fb 8983 64fe 3cba bb38 773a
000002b0: 6cbb 8539 0000 0000 ff6b 2739 5478 82ba
000002c0: dc88 443a d068 2c17 2460 70b9 cf73 e339
000002d0: 0000 0000 0000 0000 0ceb 06ba d42f 6b3a
000002e0: cb28 533a e50f f1b9 a54f 4d39 834e 18b1
000002f0: 03cc e789 fc18 75ba 1700 4eb8 7b90 f138
00000300: 0000 0000 0000 0000 0000 0000 0000 0000
00000310: f973 5039 0000 0000 5e2d 9fba 3fa0 de38
00000320: 1fb8 c438 0000 0000 0000 0000 968f 5637
00000330: d03f 3c99 0054 913a 19f0 5e38 11c8 e8b9
00000340: be57 c209 d9ca e039 0000 0000 1cfd 5dba
00000350: fc38 01ba 6d49 113a a899 7539 1e26 4cba
00000360: 2085 0c38 80ba 4e39 cfb6 8aba 6320 5eba
00000370: 09ee 03ba 0000 0000 a529 2d35 fe97 82ba
00000380: 6023 2c3a a6eb 173a f0cd 2ab9 cfd4 50ba
00000390: 338f a3b9 e32f 46ba 5763 37ba 443b f8b8
000003a0: 458c 74ba 66ce 16ba 0000 0000 09d9 d621
000003b0: 4e14 913a 0000 0000 8036 513a 0000 0000
000003c0: 9223 d339 c624 e786 9161 82b9 5127 bb39
000003d0: 6d33 7d39 12e6 adb9 a3fa a339 0000 0000
000003e0: 66b6 a43a 1886 e139 f2d0 911f 0000 0000
000003f0: fb10 893a 978b c738 0000 0000 384c 52b8
0.0 0.0 -0.00018275192 -0.00012534439 0.0 0.0 0.00031050353 0.0
-0.00032755118 0.00016415228 0.0 0.0 0.0008852569 0.00045603112 0.0009933247 0.0
-0.0007312986 -0.00026631416 -0.00024436525 -0.00023510463 4.535503e-05 1.3503615e-25 0.0 0.00022539443
-2.4341746e-22 0.0 -0.0006891234 0.0010142744 0.00070045353 -3.3053824e-05 0.00015645268 0.0
-0.00041604566 6.624405e-05 0.00083689706 0.00040875183 -0.00094444235 -2.721661e-05 0.0 0.00091414567
0.0 -3.8827294e-37 0.0005596166 0.0 -0.00033657014 0.0006990115 -0.0006190294 -0.00015654648
-1.4341405e-09 0.000521548 -0.00050315756 0.0 -0.00080839737 -0.00019301468 -1.5809134e-23 0.0010849432
0.0009955958 6.0870578e-05 0.0 -0.00021452985 0.00011146342 0.00073626655 0.0 0.0011839595
0.0 2.2203636e-21 0.00093469216 0.0004281367 -0.0001564123 -0.0011689235 0.0 0.0
0.0 -1.074455e-36 0.0 -0.00036323254 0.0010380379 -0.00076236966 0.00026940074 -0.000926479
0.0 0.0 -0.0002843621 0.00019279364 -0.00013754972 9.318444e-34 -0.0010083193 0.00067365495
-0.0010467422 0.0011087205 0.0 -0.00020234613 -0.00067535567 0.0008401344 0.00074167614 -7.2892044e-14
-0.00016783705 -2.4846167e-05 -0.0010159349 1.1279833e-05 0.0011713203 1.6623735e-12 0.00036723883 0.0001483065
0.00015504373 -0.00018563289 -0.0010277055 -8.6594155e-05 7.4515886e-28 -9.280356e-25 -0.00013814577 0.00037516723
-0.0007969976 -0.0005955471 0.0 -2.6603257e-25 -6.387656e-05 -9.963312e-05 0.00074920105 3.2735165e-10
-0.00048581924 0.0 1.8748401e-22 -0.00013013103 0.0 0.0 -0.0003051904 -0.00033605596
-0.00115557 0.0 0.0 -0.00039990945 -3.325846e-05 -2.3236207e-06 -0.0009676987 0.0005944734
-0.0001047115 0.000114494454 -0.00020298651 -0.00088671857 9.386452e-27 7.500968e-27 -0.00053632556 0.0
8.017867e-05 -0.00063979876 -0.0011415031 -2.952372e-18 0.0 0.0 -0.00024671154 0.00041668906
0.00063501234 -0.0009912767 -4.7442788e-12 0.00056699826 -0.00133424 0.0 0.000845599 -0.0005179113
0.0 0.00012176216 -0.00091205875 -0.00017933986 0.0 0.00013963015 1.3544075e-05 0.0
-5.223271e-05 -8.109941e-37 -0.0007209538 0.0009430756 0.00025507377 0.0 0.00015966593 -0.0009954073
0.00074972 5.570849e-25 -0.00022923999 0.00043383098 0.0 0.0 -0.0005146719 0.00089716655
0.000805509 -0.00045978944 0.00019579993 -2.216354e-09 -5.580308e-33 -0.0009349731 -4.911431e-05 0.00011518687
0.0 0.0 0.0 0.0 0.00019879629 0.0 -0.0012144258 0.00010615633
9.3803035e-05 0.0 0.0 1.2788825e-05 -9.732259e-24 0.0011087656 5.3152533e-05 -0.0004439955
4.6786314e-33 0.00042875743 0.0 -0.0008468197 -0.0004929451 0.00055422523 0.00023422262 -0.00077876623
3.3502583e-05 0.00019715168 -0.0010583046 -0.0008473454 -0.00050327234 0.0 6.4508123e-07 -0.000996351
0.00065665506 0.0005795307 -0.00016289181 -0.0007966281 -0.00031196474 -0.0007560236 -0.0006995699 -0.000118366006
-0.0009328763 -0.00057528017 0.0 1.4558653e-18 0.0011068673 0.0 0.00079808384 0.0
0.00040271558 -8.6946576e-35 -0.00024868225 0.00035696712 0.00024147118 -0.00033168547 0.00031276522 0.0
0.0012566566 0.00043015252 6.175556e-20 0.0 0.0010457331 9.51506e-05 0.0 -5.0138886e-05

network_body._body_endoder.seq_layers.2.weight f4 [256, 256]
00000000: d50d 193d 97f4 0b3d f9f2 2e3e d909 ba3d
00000010: c560 bb3d 2090 973d 2b97 233c 48b7 123e
00000020: f6e2 a43c c55f 3e3d 0c93 d4bb 0eb4 5a3d
00000030: 62ec 2f3d 2cfd b1bd 9509 633d 56b0 de3c
00000040: f1af e7b9 d816 20bd 29fa 90bd cc3b 283d
00000050: a1ce fe3d 1851 7fbd da5b c8bb 95d4 2f3d
00000060: 6d62 c0bc 9526 1f3d 81b6 243e 003b 74bd
00000070: f0d2 ea3c ef7d a2bc 603f bfbd ad83 203d
00000080: 0c2d f1bd 6e1c 9ebd 6664 6fbd b4c9 823a
00000090: 6aa0 513d 9844 9ebd ab28 933d 1c56 733d
000000a0: 8d14 1dbd 8d4f b6bc f570 86bd 2bd7 1b3d
000000b0: c71d b7bd 636f 3e3d 1665 acbc 7db6 50bd
000000c0: ce3c 78bd b938 1f3d f039 ae3d 506f 27bd
000000d0: 9efc f33d cf35 873d d70f 0c3d 04cd 58bd
000000e0: 8bb1 f1bc 21ee a73b 6505 813d 7070 993d
000000f0: 8a72 6a3d 6b31 64bd 8cdb 6f3c 6ab6 78bd
00000100: 329c 64bd 2856 bd3c 549d 923d 9972 4c3b
00000110: ea64 e8bc b1a2 203d 7117 643a e2dc 9dbd
00000120: d7ba dbbd 5483 65bd 8799 f53c 57f9 de3c
00000130: c26f 7abd 137d e8bd 3aa0 1abe 6de3 c3bc
00000140: a59a 363d f7e2 a53d 82e3 d33b 5cf4 cd3b
00000150: 36d4 b7bd 779c 0fbe 10b4 313d 4800 b8bd
00000160: 08f9 5b3b 0d6f c8bc d1ba 21bd 0796 b03b
00000170: f505 18bd 8b37 e33c b850 ddbb 05e5 89bd
00000180: f483 da3d 557c b23c 091c e6bc 1d63 23bd
00000190: cc74 bc3d 553c 3f3c 1b70 1cbd e8e9 d0bd
000001a0: e6c4 9c3d ce0b 123b 6c0a 18bc ea1a 4e3d
000001b0: 6a58 8ebd 04a1 b2bc 9b52 9f3d dc8c b73d
000001c0: be3d 643d 74d6 343d b70b 6d3d 121c 133d
000001d0: cafa e4bc f12b 71bd 7ad9 abbc 6111 96bd
000001e0: dfdb 18bd be09 df3c 720b 593d ca9d 9d3a
000001f0: f207 66bd 7f59 8cbd 690a 5d3c 5d0f 073e
00000200: 0b8e 553d 7d85 d938 f8e1 67bd 0ba1 e7bc
00000210: b33c 023b fdc9 cb3a 983b 993d 807e 28bc
00000220: c29a ed3c ecb8 b5bd 21f9 d6bc 8785 36bc
00000230: 2969 1c3d 09e4 3b3d 6f08 febc 59e6 5ebd
00000240: 46d6 a73d 1867 d8bc 98b7 5e3d f19d 09bc
00000250: e8ab aebd 6846 263c 69f7 b33d e2b4 753c
00000260: 7120 1b3e d2f7 5bbd 2044 733d e933 c13c
00000270: 09c6 f03c e5b6 85bd 48a6 81bd b3e8 76bd
00000280: e651 01bd 9913 4fbd d304 f13d 5592 c33c
00000290: e1e3 c83c 5499 eebd 3112 953d 44c1 8ebd
000002a0: 4b5c 463d e1ce acbd 04bf 44bd d5af 32bd
000002b0: 37b4 a73c ca2a f73c 23b9 033c f5b8 04bd
000002c0: ad62 4dbd 141e ee3d d397 7c3c c758 1bbd
000002d0: 89f8 3cbd e7fd bf3c 09e9 a03d 5c68 a4bc
000002e0: f525 eabd 7e6b d5bc d861 3d3d 5e6c 2ebc
000002f0: 3313 bdbd 2f89 e43d 406f 7f3d 913b adbd
00000300: 7342 6a3c 5441 3d3d d1ed fdbc 7f58 12bd
00000310: f7b0 8e3b cb63 c33d f86b 043e e22d f33d
00000320: 2f73 05bc 8122 48bc 5bf6 4c3d dc98 6dbc
00000330: 30a6 413d f0cb 3c3b 7fff bcbc 321a f53d
00000340: 4d07 f93d bfab 143d 2d29 9d3d 7581 dbbc
00000350: 1c25 2d3d 4fa6 a93b 26c9 9f3d ea24 59bd
00000360: c6ef e4bc 5b8d 5b3d 2631 453c 00dd 8dbd
00000370: 2015 63bd ed12 c13c 6ec5 96bd fcc5 ae3d
00000380: 4992 673c 59a2 3f3c 1dfa 033d 49f4 13be
00000390: 8ad6 b13d e6c4 24be 1eca 63bd 8bd9 d63c
000003a0: 3d0e edbc b34b 283c bde9 02bd 78f7 04be
000003b0: faee 423c 3e80 96bd 7bb5 2a3e 461b 793d
000003c0: a3cc 36bd 8626 663b 1840 adbc 24e6 be3c
000003d0: 86f9 d03d 7a6d 8dbc 46be 6e3d e8cd 353d
000003e0: 4ccf bdbd 523c fa3c 3ca8 edbb d970 d33b
000003f0: 6bd4 d7bb 9a76 80bd 146a ebbc c90f dc3b
0.037366707 0.034168806 0.17084874 0.090839095 0.09149317 0.074005365 0.009984772 0.14327729
0.020127755 0.04647805 -0.006487256 0.05339437 0.04295004 -0.08690867 0.05542906 0.027183693
-0.0004419084 -0.039084285 -0.07078964 0.04107265 0.12441755 -0.062333196 -0.006114465 0.042927343
-0.023484433 0.038855154 0.16085245 -0.05962658 0.028665036 -0.01983544 -0.0933826 0.039188076
-0.1177617 -0.07720266 -0.058445357 0.0009978325 0.051178373 -0.07727927 0.07185491 0.059408292
-0.038349677 -0.02225473 -0.065645136 0.038046997 -0.089412265 0.046492945 -0.021044295 -0.050955284
-0.060604863 0.038872454 0.085071445 -0.04087764 0.11913417 0.0660206 0.034194794 -0.052929893
-0.029503604 0.0051248227 0.06299857 0.07492149 0.05723814 -0.05571119 0.014639746 -0.06072084
-0.055813022 0.023112372 0.07158914 0.0031196235 -0.028368432 0.039217655 0.0008701003 -0.07708146
-0.10728996 -0.056033447 0.029980434 0.027218504 -0.061141737 -0.11351981 -0.15100184 -0.023912156
0.044581074 0.08099931 0.00646633 0.0062852334 -0.08976023 -0.1402453 0.04338461 -0.08984429
0.0033565182 -0.024467016 -0.039484803 0.0053889784 -0.037115056 0.027736446 -0.006754007 -0.06733135
0.10669699 0.021787802 -0.02808954 -0.039889444 0.09201965 0.011672099 -0.03819285 -0.10200864
0.07654743 0.0022284868 -0.0092798285 0.050318636 -0.069504574 -0.021805294 0.077794276 0.08962414
0.055722944 0.04414983 0.0578725 0.03591544 -0.027951617 -0.058879796 -0.020977724 -0.073275335
-0.03731906 0.027226325 0.05298943 0.0012025174 -0.05615992 -0.068530075 0.0134912515 0.13189454
0.052137416 0.000103722305 -0.056611985 -0.028275033 0.0019872605 0.0015547868 0.0748207 -0.010284066
0.029004458 -0.08873162 -0.02624184 -0.011140234 0.038186226 0.04587177 -0.03100988 -0.054418895
0.08195166 -0.026416346 0.054374307 -0.008399473 -0.08528882 0.010148622 0.08787424 0.014996739
0.15149094 -0.053703137 0.05939114 0.023584323 0.029391306 -0.06529025 -0.06330544 -0.060280513
-0.031572245 -0.0505558 0.11768498 0.023873487 0.024522724 -0.11650339 0.0727886 -0.06970456
0.04842786 -0.084378965 -0.04803373 -0.043624718 0.020471675 0.03017177 0.0080397455 -0.03240295
-0.050142933 0.11626831 0.015417057 -0.03792646 -0.04613546 0.0234365 0.07856948 -0.020069294
-0.11433021 -0.026052233 0.04623589 -0.010645954 -0.092321776 0.11158978 0.062361956 -0.08458627
0.014298069 0.04620488 -0.030997189 -0.035728928 0.004354592 0.095405184 0.12931812 0.11873986
-0.008145138 -0.012215258 0.05003963 -0.014501777 0.04727763 0.002880808 -0.023071049 0.11967887
0.12159596 0.036296602 0.07673869 -0.026795128 0.04227172 0.005177296 0.07802038 -0.05301372
-0.027946364 0.053601604 0.012035644 -0.06926918 -0.05544007 0.023568595 -0.073618755 0.08533856
0.014133998 0.011696422 0.03222095 -0.14448656 0.08683498 -0.16090736 -0.055612676 0.02622678
-0.028937453 0.010271954 -0.03196119 -0.12985027 0.011897797 -0.07348679 0.16670792 0.060817026
-0.04462875 0.0035118177 -0.021148726 0.023303099 0.10203843 -0.017264117 0.058286928 0.04438582
-0.09268054 0.030546341 -0.007252721 0.0064526615 -0.0065866015 -0.062726215 -0.028737105 0.006715749

network_body._body_endoder.seq_layers.2.bias f4 [256]
00000000: 0cd4 9fba 7f9e 0191 1f0e 8cba 71d3 4505
00000010: 5817 2aba 0000 0000 e62a 0803 0e51 9e38
00000020: eef4 5999 625f 9aba 0d4d 2bba bb64 97ba
00000030: 246f 743a 638b 52b5 361c a33a 0000 0000
00000040: dff2 a9b8 9181 5439 0000 0000 1efc 923a
00000050: 3264 85ba 0e8c b33a fa4f 243a 46d0 9212
00000060: 7b97 303a 92f6 6a9f b7ce 37ba 0000 0000
00000070: 1cc2 cd2b 5c45 813a 65fe d7b3 74c2 94b7
00000080: 24ab 4f37 7cf8 298b ea18 f638 0000 0000
00000090: 817e 613a 1cda 8d3a 22ae 11ba ff52 0503
000000a0: 33e2 c233 17c4 6b3a 4e90 9db8 c781 4c0b
000000b0: 2f1d 6db7 ccd5 01ba d667 2eb7 3f6c 893a
000000c0: c529 a5ba 9615 893a 801d 5837 cb3b 9695
000000d0: 5dd3 463a 662b a80b 0000 0000 fdd6 8827
000000e0: e164 5bb9 6415 a086 caf4 1dba 0000 0000
000000f0: 4c33 913a 394d 7cba ac9f 4834 9be5 4a3a
00000100: 3cd6 3bba 4857 fd39 e9b9 af33 9249 8db9
00000110: e39b 13ba 99cf 540d b5ea 3b3a 631d 38b8
00000120: 0000 0000 eafd 903a 5b7a 38ba 8cfe eb18
00000130: 4db6 8eb9 3db5 96ba 3150 15ba 7c44 02ba
00000140: 0a0d 1e38 6a90 faa1 0000 0000 3b96 3384
00000150: 0139 eda9 900c 75ba 646e a118 dd41 333a
00000160: 0000 0000 0478 843a 3fc5 6c3a 9881 bc93
00000170: 915b 90ba 0000 0000 5d2c 9db9 0000 0000
00000180: 7620 80ba 8400 7939 883d 23ba 0000 0000
00000190: 4036 6e3a da25 4239 d920 8e3a d926 fa2e
000001a0: 473d 3cba 5ad7 bfba 5365 8b19 3a20 0783
000001b0: 36ba 6738 07ca 6439 056e 9a3a a943 9c3a
000001c0: 0000 0000 e585 4239 ef00 973a 7f3c 2eaa
000001d0: 4acd 463a d967 f195 8dd9 5f3a 7fbf a4ba
000001e0: 0000 0000 ef4a 6cba 69d7 1904 bb65 743a
000001f0: 726c 8a3a 0918 6690 57bc d238 3c45 23ba
00000200: 12c7 8839 5327 4e94 2a0c 80b9 6131 f418
00000210: 3418 b5ba 34fc 9a39 ace8 8db7 e715 b607
00000220: e4af 513a 9efb 67ba 5136 d438 764a 9db9
00000230: ebb3 823a 6b2f 75b9 f389 72ba 1cac 32ba
00000240: 315f 96b5 3da2 2038 01b5 113a 1977 383a
00000250: 4f64 3238 7a00 8b39 9cda 1bba 762f 0783
00000260: 10a8 0f26 c95c 963a cdd5 8939 0000 0000
00000270: a5dc d1b9 9b65 6c36 f758 41b9 6813 3d3a
00000280: aa99 9fba 9caa 233a 8503 0896 0000 0000
00000290: 39ff 41ba 0000 0000 cf78 54ba ed08 e539
000002a0: 0000 0000 15bc f696 b2a1 8a38 b101 13b9
000002b0: 6dfe 443a 98fd 733a 02fb b6b5 0000 0000
000002c0: 6566 0b39 56e2 8339 c01f 0fba d5a0 0d3a
000002d0: ec82 cf98 d5ac 4bba 97f0 2439 8dbb 6b3a
000002e0: c0ed 5db8 a3d1 63ba 5468 34ba 00e4 69ba
000002f0: 4fcd bb3a 5cf5 bfae 0000 0000 0000 0000
00000300: 0f07 87ba 0000 0000 366a 813a d918 2dba
00000310: c0a2 3eba 4570 143a edb3 adba da63 1809
00000320: c27f 66b8 8850 9cb9 ef82 eab9 a6e2 87b9
00000330: 3e60 383a 3a54 24b9 0000 0000 2797 86a7
00000340: 7ffb 9528 fda8 51b2 28b5 2d3a 425c 08ba
00000350: d5b6 849f a9f8 b72f a6c8 83ba 6f59 8182
00000360: 2be7 738c 780d 0939 b17a 9539 c6e8 1b3a
00000370: 7dad 6f32 bba2 1a1f 92d8 85ba 9593 a8b8
00000380: 1d23 df9a 41a6 3f06 0000 0000 58be 863a
00000390: 0000 0000 6c08 cc39 caa5 88ba c534 203a
000003a0: 0000 0000 0000 0000 351c 80ba 0000 0000
000003b0: 9214 0d39 0000 0000 00e5 edb9 0000 0000
000003c0: 161d 82ba 2ebb 45ba 46d1 1fab d8c7 ffb7
000003d0: e065 363a a18f 6f3a 8cab 93ba 94ae c339
000003e0: b393 07b9 52a4 93b9 8a84 083a 0000 0000
000003f0: ecf5 8d3a a342 6739 2738 a7b9 da88 933a
-0.0012193932 -1.0225146e-28 -0.0010685361 9.301731e-36 -0.0006488464 0.0 4.0016053e-37 7.549125e-05
-1.12681e-23 -0.0011777694 -0.0006534614 -0.0011550406 0.00093244226 -7.843393e-07 0.0012444321 0.0
-8.103786e-05 0.00020266163 0.0 0.0011214053 -0.0010176955 0.0013698356 0.0006268021 9.265239e-28
0.00067364395 -4.9755386e-20 -0.0007011699 0.0 1.4620002e-12 0.000986259 -1.0057992e-07 -1.7733524e-05
1.2378008e-05 -3.2735155e-32 0.00011734835 0.0 0.00086019194 0.0010822448 -0.0005557259 3.918046e-37
9.0749744e-08 0.0008993758 -7.513222e-05 3.9386604e-32 -1.4133096e-05 -0.00049528177 -1.0395384e-05 0.001048453
-0.0012600949 0.0010458704 1.2881472e-05 -6.0678854e-26 0.0007584596 6.4776545e-32 0.0 3.7980674e-15
-0.00020923048 -6.021674e-35 -0.0006025551 0.0 0.001107791 -0.0009624544 1.868454e-07 0.00077399024
-0.00071654073 0.0004832095 8.1828894e-08 -0.0002694843 -0.0005630834 6.557743e-31 0.0007168458 -4.3896387e-05
0.0 0.0011062 -0.00070372754 6.1003103e-24 -0.00027220175 -0.0011498105 -0.00056958484 -0.00049693114
3.768228e-05 -1.6978885e-18 0.0 -2.1110331e-36 -1.0534803e-13 -0.000934788 4.172899e-24 0.00068381225
0.0 0.0010106568 0.00090320775 -4.758566e-27 -0.0011013617 0.0 -0.00029978427 0.0
-0.0009775299 0.00023746683 -0.00062271254 0.0 0.00090870634 0.00018515383 0.001084353 1.13755845e-10
-0.0007180762 -0.0014636323 1.4413188e-23 -3.970993e-37 5.5248114e-05 0.00021819035 0.0011782056 0.001192202
0.0 0.00018551161 0.0011520664 -1.5475293e-13 0.0007583691 -9.750297e-26 0.00085391925 -0.0012569277
0.0 -0.00090138515 1.8083975e-36 0.00093230203 0.0010560884 -4.5378018e-29 0.00010048661 -0.0006228273
0.0002608826 -1.04080975e-26 -0.00024423125 6.312238e-24 -0.0013816417 0.00029561075 -1.6916856e-05 2.739719e-34
0.0007998927 -0.00088494446 0.00010119065 -0.0003000085 0.0009971833 -0.00023382685 -0.00092521234 -0.00068158074
-1.1203575e-06 3.829807e-05 0.0005558283 0.000703679 4.2531927e-05 0.000265125 -0.0005945356 -3.9727417e-37
4.984086e-16 0.0011471744 0.0002628997 0.0 -0.0004002798 3.5225883e-06 -0.00018439056 0.00072126696
-0.0012176533 0.00062433793 -1.0987103e-25 0.0 -0.0007400397 0.0 -0.000810516 0.00043684934
0.0 -3.986214e-25 6.610471e-05 -0.00014019643 0.0007514719 0.0009307503 -1.363311e-06 0.0
0.00013294218 0.000251549 -0.0005459748 0.0005402689 -5.3640443e-24 -0.00077695894 0.00015729885 0.0008992486
-5.2911928e-05 -0.0008690601 -0.0006882001 -0.0008922219 0.0014328155 -8.729259e-11 0.0 0.0
-0.0010301786 0.0 0.0009873572 -0.0006603129 -0.00072721764 0.00056624814 -0.0013252475 1.8343284e-33
-5.4955257e-05 -0.0002981464 -0.0004472951 -0.00025918073 0.0007033384 -0.00015671636 0.0 -3.735635e-15
1.6651392e-14 -1.2203825e-08 0.00066264207 -0.0005201736 -5.6206645e-20 3.346419e-10 -0.0010054305 -1.9006179e-37
-1.8789604e-31 0.00013070356 0.00028510907 0.00059474667 1.3951078e-08 3.2745376e-20 -0.0010211638 -8.0383536e-05
-9.228737e-23 3.6045251e-35 0.0 0.0010280116 0.0 0.00038916187 -0.0010425386 0.0006111379
0.0 0.0 -0.0009774031 0.0 0.00013454471 0.0 -0.0004537478 0.0
-0.0009926881 -0.00075428456 -5.6778573e-13 -3.0491428e-05 0.00069579296 0.0009138529 -0.0011266335 0.0003732337
-0.00012929626 -0.00028160453 0.0005207738 0.0 0.0010830737 0.00022054701 -0.0003189456 0.0011255995

network_body._body_endoder.seq_layers.4.weight f4 [256, 256]
00000000: edff 2d3e fd83 c8bc fbaa 4bbd 8840 a73c
00000010: bdef 0f3e 8c0e 1d3d 10d2 933d 3085 5bbd
00000020: 498b 2abd fb29 04bd 2bb1 553d a27d e33c
00000030: 5cb3 e3bc f4d3 e33c 2208 5f3d 28fc 763c
00000040: bfd5 be3d 5683 19bd f0c6 51bd 587c a4bd
00000050: da86 0cbe f12c 603d e588 23bd b657 0d3d
00000060: 1bc7 343e d331 ab3b d590 8abd c254 48bd
00000070: 0d94 c9bc 8b3e e13c 21f2 823c ca02 da3d
00000080: 706b 56ba 3a10 bb3c f6df 943c 4b11 19bc
00000090: c09a 33bc 86b7 873c e97e e43c 09e9 1cbe
000000a0: 37f5 9a3d b184 3e3d e466 f13c 6741 da3c
000000b0: eb12 02bd 2450 af3b e141 1e3d 1073 7c3d
000000c0: 2a20 693d de32 683d a428 a2bd 65e8 7b3d
000000d0: ddbf 683d 1d08 ebbb 5deb 513c fe08 68bd
000000e0: 8899 903c 1c44 573d 53a0 4abd f389 acbd
000000f0: 2c9c 02bd 468d ae3c 91df 3cbd 2344 9f3c
00000100: a9ee 27bd 03e3 72bd 65fe 2bbd a817 cfbc
00000110: ec6b 10bc 0a0b 143d 38c4 813c 7d3f 593d
00000120: 2345 afbb e414 89bd 5e43 453b e01b 013d
00000130: 0333 0d3e e6ff bfbc f2c2 8bbc d388 ac3b
00000140: 924d 443c 2adb eabc bfc5 8ebd 0648 81bd
00000150: 7450 e23d c910 bf3d 8a57 c13d 8c8b 93bd
00000160: a24c ad3d 4e0e 0f3d 0927 4f3d f39c 84bc
00000170: fb22 4e3e 183d f23d fb6e 2b3d ff97 ac3d
00000180: 8d17 2b3d cf29 debd 17f6 25bb 7f6e 87bc
00000190: e783 ed3c 96cf 1e3d 6307 f23b a622 1a3d
000001a0: 254a 93bd 301e 73bd 9b73 a53d 7e1e 58bc
000001b0: 7610 123d 5795 ac3d 8035 e03b ffd7 873d
000001c0: de7c a8bd 1532 563d cef6 6b3d df34 7d3d
000001d0: d9fa 2f3d 5bf6 473a 1901 6c3d d492 20be
000001e0: dd56 393d c16f c3bd 5f00 003e 7967 ba3b
000001f0: 983c 9f3d 6383 abbd 00d7 39bd 6ab1 c6bb
00000200: d7fd 01be aeb8 233d 75a2 46b9 0cd9 02bc
00000210: af26 1ebc 64b5 273d b2c3 08bc 4daf c9bd
00000220: c6cd 1c3e fb5a 813d 8691 f03d e6b4 573d
00000230: 4ccf 483d 400e 62ba 3be8 c6bd d8bd 6e3c
00000240: 990f 923d bccd f6bb 39db 49bd 4959 bd3c
00000250: e111 053e 3687 14bd 1846 6c3d 1f26 7bbd
00000260: 4176 79bc b13c 59bd 339f 2c3d 6f3e 8f3d
00000270: 6d84 1d3d 19d6 dfbb 3482 bbbb 531b b8bb
00000280: 77fc f0bc e98f 90bd 303c 8b3c a1ff 993d
00000290: fe62 3ebd bbc2 c1bc b6d6 4cbd 1bca 41bd
000002a0: 2d68 ff3b 9e1a 22bd f4c4 9c3c 0b61 1d3e
000002b0: 1e52 2c3d 8794 4abc 61a5 9d3b 75be 6abd
000002c0: 2b05 c13d 9081 4c3d d1db 9dbd aa4b 73bc
000002d0: c27e 863d 58fe 43bc dc36 b6bd d6da 4bbd
000002e0: 9175 653d 31b1 50b8 58aa 283c 17d1 9a3d
000002f0: 5078 e83c b737 c3bd 9a4a 74bb 0fff adbb
00000300: 2e7b 0fbd 7bce 883d 6c00 0a3d c818 ce3c
00000310: 656b b03d 082a a5bd c20c f5bc ba48 c0bc
00000320: 7a7a 96bc fbe8 a93d db27 613d 05a9 3f3d
00000330: adc3 2a3e 5a1c a73c 50f5 043c 0fac e5bc
00000340: ad1a 12bc fd71 9d3b 78a6 b83d e3f9 debc
00000350: 2a8d 5f3d 1fce 4039 218b b4bd b1c0 cc3d
00000360: 809e 28bd fbe6 443d 28e6 99bc f430 a0bd
00000370: ae51 5e3d 5c91 f63d 01ab 05bd 6337 d1bc
00000380: b8dd dfbc 1e40 af3d 3828 ee3c 7cd4 043d
00000390: abd3 663d 6a84 89bc 84cf ab3b acb4 9abd
000003a0: 7459 75bd 142e a93c ed90 0c3d 1878 a7bd
000003b0: 7f33 38bc 122d 62bc 36e7 6ebc e658 12bd
000003c0: 562b 843c e4f6 873b c03c 78bd d8c9 b5bc
000003d0: fb8a 0bbe 732f 06bd df48 9ebd 76aa 103d
000003e0: cd87 39bd 0178 5e3c fde5 353b 35a5 d9bd
000003f0: 0fc5 95bd e575 84bd 29ff 9d3d 2f7b 7b3d
0.16992159 -0.024477 -0.049723607 0.020416513 0.14056297 0.03834395 0.072178006 -0.053593814
-0.04163674 -0.0322666 0.052170914 0.027769867 -0.027795486 0.027811028 0.054451115 0.015074767
0.093181126 -0.037478767 -0.051215112 -0.08031529 -0.13723317 0.05473036 -0.039925475 0.034507476
0.17654078 0.0052244454 -0.06765906 -0.048908956 -0.024606729 0.027495643 0.015984597 0.10645063
-0.00081794616 0.022834886 0.0181732 -0.009342502 -0.010962188 0.016567003 0.027892547 -0.15323271
0.07566302 0.046513263 0.029468007 0.026642514 -0.031756323 0.0053501297 0.038637046 0.06163317
0.05691544 0.056689136 -0.07917908 0.061500926 0.0568236 -0.007172598 0.012812463 -0.0566492
0.017651334 0.05255519 -0.049469303 -0.08424749 -0.03188722 0.021307599 -0.046111647 0.01944167
-0.04099909 -0.059298526 -0.041990656 -0.025279835 -0.008814793 0.03614334 0.015840635 0.053039063
-0.005348818 -0.06693438 0.0030099968 0.031520724 0.1378899 -0.023437452 -0.01706073 0.005265334
0.011981385 -0.028668959 -0.06971311 -0.063125655 0.110505015 0.093293734 0.09440525 -0.07204351
0.08461882 0.03492575 0.050574336 -0.01618812 0.20130531 0.11828059 0.041853886 0.084274285
0.041770507 -0.10847818 -0.0025323683 -0.01653218 0.02899356 0.038772188 0.0073861345 0.0376307
-0.07191876 -0.05935496 0.080786906 -0.013190864 0.03566023 0.08426922 0.006842315 0.06632995
-0.082269415 0.052293856 0.05760842 0.061818 0.042963836 0.00076279574 0.057618234 -0.1568101
0.045248855 -0.095428 0.12500142 0.0056886044 0.07775229 -0.083746694 -0.045371056 -0.00606363
-0.12694488 0.039971046 -0.00018943271 -0.007986318 -0.009652778 0.040944472 -0.008347439 -0.09847889
0.15312871 0.06316181 0.117465064 0.052662753 0.04902582 -0.0008623339 -0.09712263 0.014571629
0.07131881 -0.0075318497 -0.049281333 0.023113864 0.12995102 -0.03626176 0.057684034 -0.061315652
-0.015225948 -0.053036395 0.04214401 0.0699433 0.03845637 -0.0068309424 -0.0057223085 -0.0056184917
-0.02941726 -0.07058699 0.016996473 0.075194605 -0.046481125 -0.023652425 -0.05000945 -0.047311883
0.007794401 -0.039576165 0.019136883 0.1536905 0.0420705 -0.012364513 0.0048109745 -0.05731054
0.09424814 0.049928248 -0.07707942 -0.014849583 0.06567146 -0.011962496 -0.08897182 -0.049769245
0.056020323 -4.9756087e-05 0.010294519 0.07559412 0.028377682 -0.09532111 -0.0037275911 -0.0053099464
-0.035029583 0.06680008 0.03369181 0.025158301 0.08614234 -0.080646574 -0.02991331 -0.023472179
-0.018368948 0.082963906 0.05496965 0.04679205 0.16676207 0.020399261 0.008115128 -0.028036145
-0.008917493 0.004804848 0.090161264 -0.027218765 0.054577984 0.00018387333 -0.08815599 0.099976905
-0.041166782 0.048071843 -0.018786505 -0.07821837 0.054277115 0.12039444 -0.032633785 -0.025539106
-0.027327403 0.08557151 0.029071912 0.032429203 0.056354206 -0.016786773 0.0052432436 -0.07553992
-0.059899762 0.020651855 0.0343179 -0.08177203 -0.011242746 -0.013804691 -0.014581492 -0.03572931
0.016133945 0.0041493047 -0.06060481 -0.022190973 -0.13627236 -0.032760095 -0.07728743 0.035318814
-0.045295525 0.013578416 0.0027755492 -0.10627214 -0.073129766 -0.06467799 0.077146836 0.061396774

network_body._body_endoder.seq_layers.4.bias f4 [256]
00000000: 418a b63a 1cd0 abae 0000 0000 0000 0000
00000010: 5625 593a baac 1f33 9418 8903 b6e8 61b9
00000020: da80 c631 ff74 32ba 0000 0000 7f3a 6fba
00000030: d5d2 a6a8 05c0 beb7 87b2 2999 97a6 a1ba
00000040: d80e c519 c23f a93a 7fa9 b0ba 7581 6d3a
00000050: bb8c 0796 501b 463a cd42 72ba 0964 ba09
00000060: 45c6 513a 0000 0000 d0d4 8dad b0b8 ff2d
00000070: 0000 0000 28b8 06b9 c1e3 4437 9b70 3db9
00000080: ed23 a3ba 59a8 5f39 0000 0000 0000 0000
00000090: c371 e8a5 0000 0000 1259 62ba b79c 8e35
000000a0: fd9e ae9c 8af9 5139 4b86 8c3a 49d1 b138
000000b0: 0e6d a7ba 7b77 a7ba b074 863a 8d47 1bba
000000c0: dc4c 62ba d1e5 90b9 0000 0000 df96 9a38
000000d0: 9fc3 b83a 4d7c 91b4 ab4f 5a3a 1923 4f30
000000e0: aec6 203a 111b 922e a0d5 43ba 7bb9 41b9
000000f0: 18ee 2719 9d66 703a 3321 f412 d7fa 8222
00000100: 0000 0000 4a58 683a e493 91ba a4fc 2eba
00000110: 6af2 5639 9073 92ba 6039 95ba c0c4 a739
00000120: 6f7b 613a d6b4 80ba 1cd2 b939 8ade 9a01
00000130: d7d3 2eba 0000 0000 5d3b 20ba 2540 1b39
00000140: 5a0d 3cba 7f87 843a 267e 05b8 8e51 e9b9
00000150: b109 e69c 855e b2ba 23ee 3239 947e 35aa
00000160: a859 1006 3785 aab9 f7b1 8034 9470 7e2e
00000170: ef4c 6a2d d4e1 69ba f6be c338 6247 8fba
00000180: 5c54 9bba 17ac b4ba 1523 a23a a81c 1839
00000190: 2c0e 3dba 4611 973a defa 6bba 1eb8 8739
000001a0: c762 8582 63fe 1c3a 5da0 0832 940b 868e
000001b0: 0000 0000 abaf 9fba 1ca3 af3a 4daf 383a
000001c0: bf9f 1c39 e7b0 82b9 0000 0000 1ab9 4cac
000001d0: f986 a9ba d90a a23a 7600 a416 6f2c 6d3a
000001e0: 29b6 a23a 21e1 b117 8fbb 3b0b 81b0 0d3a
000001f0: 6f46 acba 0fa6 47ba 7299 833a c5d0 aeb9
00000200: 53b0 a4ba 0000 0000 c325 aeb9 5b62 0e20
00000210: 5b07 2d3a a833 dcb3 3bf8 f239 aef5 e515
00000220: a1cf 34ab 09ba aa3a 55ef 4f3a 4b03 adba
00000230: f398 c33a 7585 a53a 7497 39ba 213b 5da4
00000240: 4088 a33a 0000 0000 8a7c a63a 592f aaba
00000250: f0d9 c818 691d 09ba a952 372d d6ff a038
00000260: 8402 3f3a a334 92ba cf73 ba83 b303 673a
00000270: 8c83 2037 bb33 883a 0000 0000 fdbd 39a6
00000280: d0db 693a 2739 f8b9 2385 24b9 fc84 a439
00000290: 53fa c402 1510 733a 9849 deb9 0de8 71b8
000002a0: e751 8fba a162 322e 565e 82ba c0d7 e039
000002b0: b3ee f739 4f3e 8c3a b032 ef04 0000 0000
000002c0: 0000 0000 39c2 51a9 b52f 3930 f7b0 3135
000002d0: 0000 0000 2265 47ba 132c a83a 0000 0000
000002e0: 1ae9 513a 2e9a a13a f493 973a 282f 8339
000002f0: a59a 6703 376a 18ba 3c96 09b3 737f 9037
00000300: 7b4b c82f 65f3 acba 2f0f 4d0f b3f3 5d14
00000310: 8d51 0382 6f07 a1ba a693 893a a5f7 a13a
00000320: 5de7 7aba 0665 07ba d3d3 8234 a0e3 15a4
00000330: 0000 0000 3cc7 219a a6e0 1237 225a 7e83
00000340: b092 87b4 59c1 71af 3958 eb39 8d4b ce38
00000350: 4f64 9f3a 4391 6638 fb88 4e3a 7438 e039
00000360: 5ece 7eb9 d8c7 a582 9ddd 1838 fa3f c2b8
00000370: 24d6 d1b7 2864 1183 9769 92ba 0000 0000
00000380: 8614 4db5 e86c a58c 24b0 2a39 0000 0000
00000390: 6f01 7aba 7f8a b1ba d452 9a3a 8982 253a
000003a0: c023 b526 e30f 2838 e2cb d4b9 add5 1907
000003b0: b99d e59e 0f40 aa3a 5d7b 5eba 6fe3 08ba
000003c0: f47c a53a 415d 0eb9 0000 0000 4c70 a2ba
000003d0: 135a 173a b9f1 d8aa fd69 899e 8258 370c
000003e0: a01a 062b 846f 859e c334 4003 bb4e cf93
000003f0: 2fb1 a894 8c18 a93a b47f a7ba 26e5 9bba
0.0013926701 -7.8131474e-11 0.0 0.0 0.00082834566 3.7177166e-08 8.057779e-37 -0.00021544364
5.777207e-09 -0.0006807595 0.0 -0.0009125843 -1.8521136e-14 -2.2739181e-05 -8.7731485e-24 -0.0012332973
2.0375318e-23 0.0012912678 -0.0013478248 0.0009060123 -1.094962e-25 0.00075571705 -0.00092415215 4.4871944e-33
0.0008002262 0.0 -1.6124352e-11 2.9072161e-11 0.0 -0.0001284784 1.17355385e-05 -0.00018066393
-0.001244662 0.00021329652 0.0 0.0 -4.0322673e-16 0.0 -0.00086344883 1.0625434e-06
-1.1555452e-21 0.00020024754 0.0010721175 8.479e-05 -0.001277359 -0.0012776697 0.0010258164 -0.00059234427
-0.0008632669 -0.00027637047 0.0 7.371394e-05 0.0014096386 -2.7098795e-07 0.00083279115 7.535604e-10
0.0006133121 6.644119e-11 -0.0007470492 -0.00018475011 8.68178e-24 0.0009170564 1.5406749e-27 3.5502158e-18
0.0 0.0008863254 -0.0011106697 -0.00066752196 0.00020498937 -0.0011173356 -0.0011384897 0.00031999312
0.0008601462 -0.0009819518 0.00035442493 5.6889994e-38 -0.000666914 0.0 -0.00061123614 0.00014805848
-0.00071736204 0.0010111182 -3.1827156e-05 -0.00044501986 -1.5222628e-21 -0.0013608491 0.00017064116 -1.6119945e-13
2.714926e-35 -0.0003252418 2.3971344e-07 5.7852903e-11 1.3318443e-11 -0.00089218956 9.333894e-05 -0.0010931308
-0.0011850703 -0.0013784197 0.0012370074 0.00014506525 -0.00072118896 0.0011525534 -0.00090019207 0.00025886385
-1.959929e-37 0.00059888343 7.952704e-09 -3.30447e-30 0.0 -0.001218309 0.0013400051 0.0007045165
0.0001493683 -0.00024927335 0.0 -2.9092896e-12 -0.0012933902 0.0012362852 2.649592e-25 0.00090474536
0.0012413907 1.1495187e-24 3.6155993e-32 0.0005405024 -0.001314355 -0.0007615992 0.0010040237 -0.00033343412
-0.0012564756 0.0 -0.00033216 1.2060411e-19 0.00066005223 -1.02539445e-07 0.00046342783 9.287998e-26
-6.423699e-13 0.0013025414 0.00079320866 -0.0013199834 0.0014922902 0.0012628274 -0.0007079758 -4.797182e-17
0.0012476519 0.0 0.001270191 -0.0012984081 5.191885e-24 -0.00052305177 1.04207e-11 7.677048e-05
0.00072864466 -0.0011154603 -1.0958686e-36 0.0008812502 9.567371e-06 0.0010391393 0.0 -6.444225e-16
0.0008920999 -0.00047344828 -0.00015689856 0.000313796 2.894329e-37 0.0009272111 -0.0004239797 -5.767499e-05
-0.0010934443 4.0560114e-11 -0.0009946327 0.00042885356 0.00047289356 0.0010699722 5.623518e-36 0.0
0.0 -4.6575784e-14 6.7370404e-10 6.6195156e-07 0.0 -0.00076063175 0.0012830518 0.0
0.0008007452 0.0012329274 0.0011564479 0.000250214 6.806232e-37 -0.0005814167 -3.2034436e-08 1.7225486e-05
3.643342e-10 -0.0013195096 1.01102046e-29 1.120571e-26 -9.647764e-38 -0.001228554 0.0010496273 0.0012357129
-0.0009571219 -0.0005164895 2.436851e-07 -3.250203e-17 0.0 -3.345496e-23 8.754583e-06 -7.474736e-37
-2.525244e-07 -2.1987513e-10 0.00044888424 9.836918e-05 0.0012160632 5.497156e-05 0.0007878688 0.0004276667
-0.00024300205 -2.4359276e-37 3.6446017e-05 -9.2625574e-05 -2.5014459e-05 -4.2726644e-37 -0.0011170384 0.0
-7.6398317e-07 -2.548782e-31 0.00016278081 0.0 -0.0009536957 -0.0013545303 0.0011773952 0.0006313702
1.2569088e-15 4.0069117e-05 -0.00040587696 1.1573234e-34 -2.431155e-20 0.0012989062 -0.00084870105 -0.00052218785
0.001262574 -0.00013576915 0.0 -0.0012393086 0.0005773615 -3.8537037e-13 -1.4549275e-20 1.4124442e-31
4.7643313e-13 -1.4128045e-20 5.6484296e-37 -5.233178e-27 -1.7033552e-26 0.0012900992 -0.0012779147 -0.0011893853

network_body._body_endoder.seq_layers.6.weight f4 [256, 256]
00000000: 2507 2fbd 00a4 d33d ee72 8f3c e915 60bd
00000010: d340 063e 35e8 85bc d2cb b13d 269a 8eba
00000020: e8e2 a13c b9df 95bd a996 a6bc 60cb 313d
00000030: 3143 2bbd fe87 6a3c 697f 583d 5c86 72bc
00000040: 04ee 35bc bc70 1b3d cba2 15bd e277 6fbd
00000050: d3fc 373d f9c2 383d 9490 2abd 5b67 2c3c
00000060: 6394 243d e0b2 ba3c b013 ee3b b59d 81bd
00000070: 8c06 f23d 3530 b7bc 7e61 67bd f05b b3bc
00000080: 758e c03d dbe5 573d 13f1 733d 845f 623d
00000090: 468e db3d 0f31 32bd e9d2 c43c 093c 62bd
000000a0: c6cf cf3d d6cd 01bd 3f0c 293d 8f69 8bbd
000000b0: 63cb d7bc 7cc4 4c3d 2edd ebbc c05f 3c3a
000000c0: 3837 b03d 4f18 4b3d 1e5d 21bd 9267 92bd
000000d0: 45ab 58bd a0ae 203d e1fc 13be 2d00 2ebe
000000e0: 3e92 f4bc 3ee1 093c d393 3dbc 2e55 6b3d
000000f0: 79be 3abd 7175 fe3d ff39 e73d bcc3 503d
00000100: 4fb7 783d e1fa 02bb 7950 cfbd e89b 9a3d
00000110: 713c d6bc dceb a83b 1513 493d bb61 88bd
00000120: 5881 a23d 225d 1fbd 6df4 8f3d 7721 833b
00000130: a071 f7bd 87fd 1dbe 1180 36bc 36a7 8fbd
00000140: eba5 7abd a572 dd3c 2be1 82bb 14b5 283b
00000150: 171b f33c d891 2f3d b0ba 78bd 2202 3ebd
00000160: ca23 0b3d 3346 0a3d d3f4 063d 2837 d63c
00000170: 42b1 a0bc 82aa 833d 0628 b6bc 0593 4a3d
00000180: 6b46 c4bc 95cd f43b fb37 553d 7b2a aabd
00000190: b4d5 85bb a52a a23c 1359 48bd 464f 01be
000001a0: 73c1 443c b592 743d 27d4 6e3d 370d ccbc
000001b0: 6160 abbd 6ab0 cd3d 642b 1abd 7626 b43c
000001c0: b4c8 34bd 91c3 9fbd 8d3e 7bbd 400d 513d
000001d0: d528 bcbc a94d 81bb 21cb 673d 456c 75bd
000001e0: c26a fe37 4e02 023d 8261 b5bd db70 723d
000001f0: 0f44 5cbc 1c9a 20bc 26ff a5bd ca7c 583b
00000200: 04dd 513c 9ac7 02be a0e2 423b 8c2f 673d
00000210: bf71 203e 8b44 63bd 9fdb 0f3d 1c82 a23b
00000220: dc63 313d ed42 32bd 953d 643b 2485 093d
00000230: eeee dbbd ab12 4a3c 0151 863d 0de5 2f3e
00000240: b426 f63c 6241 183e 5de2 1abd 847d 3dbc
00000250: 8d9e cdbc 57cf 603d 3c12 933d e323 7e3d
00000260: 1161 6ebd d7ad bf3d f3f9 99bd bd89 e1bd
00000270: 3435 35bc efe1 5f3d 7ad8 6fbd 3000 cbbc
00000280: c516 97bd a7ab f03d 8ce4 693d 8fcd 823d
00000290: 7319 a0bd 2d4e 0ebe 0681 95bd e10b 93bc
000002a0: e825 bc3c 5ad1 23ba a04a 18bd 7e5b 593d
000002b0: 310b 4bbd d15c 3cbc 535c a53d f2ba f0bd
000002c0: f29d d6bd 0482 2a3c 45ac ff3b 1a3a fcbb
000002d0: a535 dfbb cb28 07bd 18e0 013c 4d74 3d3c
000002e0: 17fb d53d de28 f03d d879 403d b02f f1bd
000002f0: 6e99 a83d f062 1f3d c7f5 5fbd fbee 5eba
00000300: 6b7b 6d3d f1d5 d1bc e91c a3bd d166 8b3d
00000310: ee71 3e3c 8ff5 703d fa5a 2dbc b085 eabc
00000320: cd6c b83d bf1a 143d 1aa7 8ebd 0820 e2bd
00000330: af5e 02bd 6fd2 76bd 587b 153d cd31 b83d
00000340: 74a4 603d 3a39 0d3e 8553 a13c 4991 8fb9
00000350: 92c7 243c 2cd5 9bbc 429d 67bc d65b c9bd
00000360: ad26 073e 08c7 c53d c559 b4bb fbe3 713d
00000370: 7acb 4bbd 689a 503d d1fe 88bd 415f c03c
00000380: f106 673c 0a7b 113d 1361 043e 17da 963d
00000390: a6b3 82bc 26d3 943c 1fd6 babd 6131 66bd
000003a0: dc84 8a3d e717 023d 43c5 233d 22b8 8abd
000003b0: ad1c 66bd f61b e0bb 982a 98bd fe46 82bd
000003c0: ac4b 67bd c4a9 903c b650 483d 3697 d9bd
000003d0: fc56 47bd ea7b 1b3d 18b6 07bc fc6a dfbc
000003e0: a34f b73d cea6 e53d 614b c3bd 2b73 7cbd
000003f0: 0679 5abd 4502 bc3d 658e 94bd f8f8 ca3d
-0.042731423 0.10334015 0.017510857 -0.054708395 0.13110666 -0.016346077 0.08681454 -0.001087968
0.019761518 -0.07318062 -0.020335512 0.043406844 -0.041812126 0.01431465 0.052855883 -0.014802542
-0.011104111 0.03794931 -0.036532205 -0.05846394 0.044918846 0.045107815 -0.041641787 0.010522689
0.040180575 0.022790372 0.0072655305 -0.06328908 0.11817655 -0.022361854 -0.05648946 -0.021894425
0.094021715 0.05270944 0.05955608 0.055266872 0.10720496 -0.043503817 0.024026351 -0.055233035
0.101470515 -0.03169044 0.041271444 -0.06807243 -0.0263421 0.04999207 -0.02879199 0.0007185899
0.08604282 0.04958373 -0.039395444 -0.07148661 -0.05289771 0.039229035 -0.14451934 -0.16992255
-0.02985489 0.008415518 -0.011570889 0.05745428 -0.045591805 0.12424744 0.11290359 0.050967917
0.06072169 -0.0019985961 -0.10122771 0.07549268 -0.026151868 0.0051550698 0.049090464 -0.066592656
0.079348266 -0.038907178 0.070290424 0.004001792 -0.12082219 -0.15428744 -0.011138932 -0.07014315
-0.061193388 0.027032206 -0.0039941273 0.0025742697 0.029676003 0.042863697 -0.060724914 -0.046388753
0.033969678 0.033758353 0.032948326 0.026149347 -0.019615773 0.06429006 -0.022235882 0.049456615
-0.02395936 0.0074707964 0.05205534 -0.08308884 -0.0040843133 0.019795725 -0.048913073 -0.12627897
0.0120090125 0.059710223 0.058307793 -0.024908645 -0.08367992 0.10043414 -0.037639037 0.021990996
-0.044136718 -0.07800973 -0.06133895 0.051038027 -0.022968689 -0.0039460254 0.056590203 -0.059917707
3.0328873e-05 0.03174048 -0.08856489 0.05918966 -0.013443961 -0.009802368 -0.08105306 0.0033033364
0.012809042 -0.12771454 0.002973713 0.05644183 0.1566839 -0.05548529 0.035121556 0.004959358
0.043308124 -0.043520857 0.0034826745 0.03357424 -0.107389316 0.012333552 0.06558419 0.1717722
0.030047752 0.14868692 -0.037813533 -0.01156557 -0.025100017 0.054885235 0.07181212 0.062045943
-0.05819804 0.09359329 -0.07518377 -0.110125996 -0.011060048 0.054658826 -0.058556058 -0.024780363
-0.0737739 0.1175149 0.057102725 0.063868634 -0.07817354 -0.13897009 -0.073 -0.01795
0.022967294 -0.00062491524 -0.037180543 0.05306577 -0.04957122 -0.0114967385 0.0807425 -0.11754407
-0.104793444 0.010406975 0.0078025186 -0.007697356 -0.006811815 -0.032997888 0.007926963 0.011563373
0.10448282 0.11726545 0.0469912 -0.11776674 0.082323894 0.038912714 -0.05467775 -0.0008504239
0.05797903 -0.02561471 -0.079644985 0.0680672 0.011623843 0.058827933 -0.0105807725 -0.0286282
0.09005127 0.03615832 -0.06965466 -0.11041266 -0.03182858 -0.06025928 0.036494583 0.08993874
0.054844335 0.13791361 0.019693146 -0.0002738333 0.010057347 -0.019022547 -0.014136614 -0.098319694
0.13198347 0.09657103 -0.0055038654 0.05905531 -0.049754597 0.050928503 -0.06689227 0.02348292
0.014100776 0.03551773 0.12927656 0.07365816 -0.015954804 0.01816709 -0.091228716 -0.056199435
0.06763622 0.031761076 0.039983045 -0.06773402 -0.05617969 -0.0068392707 -0.07429999 -0.06361197
-0.05646865 0.017659076 0.048905097 -0.10624544 -0.04866694 0.03795997 -0.008283161 -0.027272694
0.089507364 0.11213456 -0.09535862 -0.06163327 -0.053338073 0.091801204 -0.07253722 0.09910768
