Assets/ML_PPO/results/simpleLoop_2/BoatAgent.onnx (onnx, 868044 bytes, 21 tensors)

discrete_action_output_shape f4 [1, 6]
0	0x40000000	2.0
1	0x40000000	2.0
2	0x40000000	2.0
3	0x40000000	2.0
4	0x40000000	2.0
5	0x40000000	2.0

network_body._body_endoder.seq_layers.0.weight f4 [256, 57]
0	0x3e3ccb45	0.18436916
1	0x3d9e3ce6	0.07726459
2	0xbe0e6c3c	-0.13908476
3	0xbd8b8d59	-0.06814069
4	0xbe01bda3	-0.12669997
5	0xbaed2659	-0.0018093094
6	0xbe90b0f1	-0.28259996
7	0x3d20dbb2	0.039272018
8	0x3d2c9ea0	0.042143464
9	0xbbcd1e66	-0.0062597273
10	0xbd5375aa	-0.051625885
11	0xbd27ef66	-0.040999793
12	0xbdf9c4a2	-0.12195708
13	0x3e1a891b	0.15091364
14	0xbe849ae5	-0.25899425
15	0x3e88e240	0.26735115
16	0xbea1341c	-0.3148507
17	0x3e30dbe1	0.17271377
18	0x3cd27809	0.025692003
19	0xbdfac662	-0.1224487
20	0xbe3860f4	-0.18005735
21	0x3cb02dff	0.021506308
22	0x3d895383	0.06705382
23	0xbdb70a11	-0.08937467
24	0x3ddcb47f	0.107766144
25	0xbd759cb5	-0.0599639
26	0xbea1a4d5	-0.3157107
27	0xbd4e457b	-0.05035923
28	0x3d26c281	0.040712837
29	0x3d356420	0.04428494
30	0x3e44d248	0.19220841
31	0xbdcede79	-0.10101027
32	0xbc8ed6bc	-0.017436378
33	0xbdfa6587	-0.12226396
34	0x3dc07929	0.093981095
35	0xbe649847	-0.22323714
36	0xbd116647	-0.03549793
37	0x3e1ae473	0.15126209
38	0xbd997bdb	-0.07494327
39	0xbd9e7a37	-0.077381544
40	0xbe1aab40	-0.15104389
41	0xbb8ac74c	-0.004235184
42	0x3e72d671	0.23714615
43	0x3dc22ece	0.094815835
44	0xbdab03b1	-0.083503135
45	0xbdf11664	-0.11771849
46	0xbc65fd38	-0.014037423
47	0xbca79aae	-0.0204595
48	0xbb853c0e	-0.004065997
49	0x3e33c6a9	0.17556252
50	0x3e890627	0.26762506
51	0xbdf1e0e7	-0.11810475
52	0x3e0648d5	0.1311372
53	0x3da511fb	0.0806007
54	0xbd9c1af3	-0.07622328
55	0x3e8a8224	0.27052414
56	0x3e9bd143	0.30433092
57	0x3e7612a8	0.24030554
58	0xbdb7fed3	-0.08984151
59	0xbde85359	-0.11344022
60	0x3e1eb0cd	0.15497132
61	0xbe0623fe	-0.13099667
62	0x3e13e8cd	0.14444275
63	0xbcc6f5a0	-0.024287045
64	0x3da1eee4	0.07906893
65	0xbdcbdb52	-0.099539414
66	0xbe260625	-0.16213281
67	0x3df04017	0.11730974
68	0x3ce9babd	0.028531427
69	0x3d434218	0.047670454
70	0x3e3bcbc0	0.18339443
71	0x3c66d692	0.0140892435
72	0x3d93a66a	0.07209475
73	0x3e1f5ce7	0.15562783
74	0xbcb57909	-0.02215244
75	0x3c97179f	0.01844388
76	0xbd88e388	-0.06684023
77	0x3d1a5898	0.037682146
78	0x3dc13352	0.09433617
79	0xbe005b18	-0.1253475
80	0x3cc536fa	0.024074066
81	0xbda508c8	-0.080583155
82	0x3e1bd0da	0.1521639
83	0x3d9ae4b9	0.07563157
84	0xbdd0996f	-0.10185515
85	0xbddf2b3a	-0.10896917
86	0xbe0c6846	-0.13711652
87	0xbe1b503c	-0.15167326
88	0xbe11e123	-0.14246039
89	0xbd81e2e5	-0.06342105
90	0xbd3a1c11	-0.045436922
91	0xbd70e9dc	-0.058816776
92	0x3decb051	0.11557067
93	0xbe56a7b2	-0.20962408
94	0xbe5a1924	-0.21298653
95	0xbe06d8e7	-0.13168679
96	0xbd381905	-0.044945735
97	0xbc49a4e9	-0.012307384
98	0xbd2b1896	-0.041771494
99	0xbe9bec31	-0.30453637
100	0xbe3e539f	-0.18586586
101	0xbe9c4d94	-0.30527937
102	0xbe548757	-0.20754753
103	0x3cb668db	0.022266796
104	0xbcf88050	-0.030334622
105	0x3c83c8b2	0.01608691
106	0x3e62f4b7	0.22163664
107	0x3e21a94b	0.15787236
108	0x3e294999	0.16531982
109	0xbe33688b	-0.17520349
110	0x3c441aba	0.011969263
111	0x3d86b66b	0.06577762
112	0xbe336690	-0.17519593
113	0x3d04efda	0.032455303
114	0xbe20e963	-0.1571403
115	0xbd0bed6e	-0.034161977
116	0x3d8a767c	0.0676088
117	0xbe0e09eb	-0.13870971
118	0x3db9c132	0.09070052
119	0xbcf38b24	-0.029729433
120	0xbd0701f0	-0.032960832
121	0xbd007498	-0.031361192
122	0xbd8aeff6	-0.0678405
123	0x3e58d7b5	0.21176036
124	0x3d0232ad	0.03178661
125	0x3d220d05	0.039563198
126	0x3e2107c3	0.15725617
127	0x3cd378a7	0.025814367
128	0xbe805b8e	-0.2506985
129	0x3b4a9589	0.0030911884
130	0xbba1886d	-0.0049295933
131	0x3da7242e	0.081611976
132	0x3c1c9500	0.009557009
133	0x3d0817bf	0.03322577
134	0xbda20da4	-0.07912758
135	0xbdaef290	-0.08542359
136	0xbc997fdb	-0.018737724
137	0xbe16c868	-0.14724886
138	0x3e0439fd	0.12912746
139	0xbe77e899	-0.24209823
140	0x3d677e29	0.0565168
141	0xbe66d4d5	-0.22542126
142	0xbc24e5b3	-0.01006453
143	0xbe1c3dad	-0.15257902
144	0x3e426d33	0.18986969
145	0xbdbb40be	-0.09143208
146	0xbe3e9203	-0.18610387
147	0x3c8b3b7c	0.016996138
148	0x3dd24edb	0.10268947
149	0xbd2b66e8	-0.041846186
150	0x3d8be41b	0.06830617
151	0xbe1f775e	-0.15572879
152	0xbd9b3957	-0.07579296
153	0xbe72699b	-0.23673098
154	0xbd9c2414	-0.07624069
155	0x3da0c791	0.07850564
156	0x3da8df7c	0.08245751
157	0xbe365f27	-0.17809735
158	0x3df890ef	0.12137019
159	0x3db9e57f	0.09076976
160	0xbcb70808	-0.022342697
161	0xbe2e695e	-0.17032382
162	0xbdc91b08	-0.09819609
163	0xbe2fe506	-0.1717721
164	0x3df7d42a	0.12101014
165	0xbd4b9a84	-0.049707904
166	0x3d9d089e	0.07667659
167	0xbd1d1f77	-0.038360085
168	0xbc78f18b	-0.015194307
169	0xbdc906aa	-0.09815724
170	0xbea30c3f	-0.3184528
171	0x3d2fe6c8	0.0429447
172	0x3cdf8ca3	0.02728874
173	0x3cdd9e66	0.02705307
174	0xbc9ca3e0	-0.01912111
175	0x3c955344	0.01822818
176	0xbe8b5f5d	-0.27221194
177	0x3e91ef4a	0.28502876
178	0xbddd9af2	-0.10820569
179	0x3d064fea	0.032791056
180	0x3dae5d84	0.085139304
181	0xbe1e1d23	-0.15440802
182	0x3dabcb69	0.08388407
183	0xbe1aa46f	-0.15101789
184	0xbe5a9223	-0.21344809
185	0xbcb9360f	-0.022608785
186	0xbdfac870	-0.12245262
187	0xbe40206c	-0.18762368
188	0xbd413e0e	-0.04717832
189	0xbd877228	-0.066135705
190	0x3d70b8be	0.058769934
191	0xbddf465a	-0.1090209
192	0x3d774a3d	0.060373534
193	0x3deb2588	0.11481768
194	0xbeaa7f99	-0.33300474
195	0xbe0a11fa	-0.1348342
196	0x3d84c61e	0.064831
197	0xbdf33e9a	-0.11877175
198	0x3df683f6	0.12036888
199	0xbdae9f80	-0.08526516
200	0xbdf41764	-0.11918524
201	0x3d8dff2e	0.06933437
202	0xbe91833f	-0.28420445
203	0x3dbf1935	0.0933098
204	0xbe359bde	-0.1773524
205	0x3e0d082c	0.13772649
206	0x3d1c550c	0.038167045
207	0xbb0d0507	-0.002151789
208	0x3d43967d	0.04775094
209	0x3e1ae424	0.15126091
210	0x3e101e65	0.14074095
211	0x3e75e502	0.24013141
212	0xbdd481d0	-0.10376322
213	0x3dad07c4	0.08448747
214	0xbc9b28ab	-0.01894029
215	0x3cf76a80	0.03020215
216	0xbd82eee6	-0.063932225
217	0x3dc7c7d8	0.09754914
218	0xbceccdd8	-0.028906748
219	0x3a14683d	0.00056612847
220	0x3de0a600	0.10969162
221	0x3e3f7b85	0.18699463
222	0x3da27765	0.07932929
223	0xbd67d713	-0.056601595
224	0xbe26c05b	-0.16284315
225	0x3b2618d0	0.002534438
226	0x3e0db9fc	0.13840479
227	0xbdaa2ad5	-0.08308951
228	0xbe26ba1b	-0.16281931
229	0x3e1c3293	0.15253668
230	0x3e2f9800	0.17147827
231	0xbe41850c	-0.1889841
232	0x3e4698ad	0.19394179
233	0xbb39033d	-0.002823069
234	0xbd537da7	-0.051633503
235	0x3e1a78e5	0.1508518
236	0xbd136702	-0.035986908
237	0x3d88ca93	0.06679263
238	0x3e41eb95	0.18937524
239	0x3d68af54	0.05680783
240	0xba2d64b4	-0.0006614432
241	0x3e08d5c9	0.13362803
242	0x3e22da26	0.1590353
243	0x3e08479f	0.13308571
244	0xbe179c0a	-0.14805618
245	0xbe06f149	-0.1317798
246	0x3e32fa1f	0.17478226
247	0x3cae6bca	0.021291632
248	0x3e74619d	0.23865362
249	0xbcbe48e6	-0.02322812
250	0x3da15b70	0.078787684
251	0xbeab6647	-0.3347647
252	0x3be968d5	0.0071230927
253	0xbe0a6d80	-0.13518333
254	0x3e1fa2bd	0.15589423
255	0x3d302449	0.043003354

network_body._body_endoder.seq_layers.0.bias f4 [256]
0	0x3caef5ac	0.02135738
1	0x3c316978	0.010828368
2	0xbca33807	-0.019924177
3	0x3c6c92ee	0.014439328
4	0x39809ca5	0.00024530772
5	0xbb5025b9	-0.0031760766
6	0x3bed1654	0.0072353277
7	0x3bac3486	0.0052552847
8	0xbaea2c37	-0.001786596
9	0x3af38155	0.0018577973
10	0x3c17bbc5	0.009261076
11	0x3c87444f	0.016512064
12	0xbb55b2a9	-0.003260771
13	0xbc13ff70	-0.009033069
14	0xbcc3d6e1	-0.023906173
15	0xbb7d412c	-0.0038643582
16	0x3bd0f4cc	0.0063768383
17	0x3c342c37	0.01099687
18	0xbc03d1b1	-0.0080456
19	0x3baf06b5	0.0053413757
20	0xbbe7564b	-0.0070598475
21	0xbd1abaff	-0.03777599
22	0x3c13669b	0.008996631
23	0x3c26babf	0.01017636
24	0xbaedd5e5	-0.001814541
25	0xbaa2d9d2	-0.0012424535
26	0xbc5d8d31	-0.013522432
27	0x3bf8ad9f	0.0075890566
28	0xbd2203e7	-0.039554503
29	0x3ccac8ee	0.024754014
30	0xbb4f24a7	-0.003160754
31	0x3c5f2dce	0.0136217605
32	0x3afcf5f1	0.001929937
33	0xba6e9e48	-0.0009102565
34	0xbc5004b2	-0.012696432
35	0x3b6177c1	0.0034403654
36	0x3cb08b29	0.021550732
37	0x3b96bcea	0.004600157
38	0x3c296db0	0.010341093
39	0xbc0232b0	-0.007946655
40	0x3c1c5f09	0.0095441425
41	0x3babb147	0.005239639
42	0x3ca63b08	0.02029182
43	0xbc2d3f51	-0.010574178
44	0xbd131fb7	-0.035918918
45	0xbc0758cf	-0.00826092
46	0x3ba6c2d2	0.0050891424
47	0x3cb7c181	0.022431137
48	0xbc91988c	-0.017772935
49	0x3d093d79	0.03350589
50	0xbcf2ba60	-0.029629886
51	0x3b32e96f	0.0027299782
52	0x3b0f1c95	0.0021837105
53	0x3c44e0e4	0.012016509
54	0x3c82ca5a	0.01596563
55	0xbb987438	-0.004652526
56	0xbc07059a	-0.008241082
57	0x3b8ff131	0.004392766
58	0xbc602e19	-0.013682866
59	0xb9e0a087	-0.00042844212
60	0xbced9c02	-0.029005054
61	0xbbb11ccd	-0.0054050446
62	0x3c27c0c8	0.010238834
63	0xbd0f7b3b	-0.03502963
64	0x3bc9b98b	0.0061561516
65	0x3c5f8493	0.013642448
66	0x3c428264	0.011871908
67	0xbc58d133	-0.013233471
68	0x3c900db0	0.017584652
69	0x3cc7f5cb	0.024409195
70	0xbca7778a	-0.020442743
71	0xbd19bc85	-0.0375333
72	0x3affa99f	0.0019505507
73	0x3c473338	0.012158208
74	0x3cb8c97d	0.022557015
75	0x3c4c47c9	0.012468287
76	0x3c993c10	0.018705398
77	0x39f8ff7a	0.0004749259
78	0xbced159e	-0.028940972
79	0x3c04ed42	0.008113207
80	0x3bd812d4	0.0065940414
81	0x3bd5d63e	0.006525784
82	0x3cf7044c	0.030153416
83	0xbc429a17	-0.011877558
84	0xb827abf3	-3.9976043e-05
85	0xbc6973e8	-0.014248826
86	0x3b43c3c2	0.002987132
87	0x3c3d77d4	0.011564214
88	0xbc323529	-0.010876932
89	0xbce80b0c	-0.02832558
90	0x3c15ac62	0.009135338
91	0xbcc0d791	-0.02354029
92	0xbc3c1107	-0.011478669
93	0xbb9af948	-0.0047294237
94	0x3bf45777	0.0074567157
95	0xbcabc0d8	-0.020965979
96	0xbd09eb5c	-0.03367172
97	0x3a141cf1	0.00056500646
98	0xbb8f3f1e	-0.004371538
99	0xbc00bf72	-0.007858144
100	0x3c84bc06	0.016202938
101	0xbc316de8	-0.010829426
102	0x3bfaf0d0	0.0076581016
103	0xbd053459	-0.032520626
104	0xbceffc24	-0.029295035
105	0xbcdc3ca5	-0.026884386
106	0xb9c12691	-0.00036840563
107	0x3c4250a9	0.011860051
108	0xbcbf63cb	-0.023363015
109	0x3c3d9459	0.011571013
110	0x3cbe98d2	0.02326623
111	0xbbc1f181	-0.005918682
112	0xb8b51cc9	-8.636114e-05
113	0xbc21935d	-0.009861794
114	0xbc0f7a4d	-0.008757186
115	0xbc6cef0b	-0.014461289
116	0xbb8f39fc	-0.004370926
117	0xbc779242	-0.015110554
118	0x3c2c6a60	0.010523409
119	0x39a6dddf	0.00031827294
120	0x3bc1c83e	0.0059137633
121	0x3b83f8d7	0.0040274668
122	0x3b35914d	0.0027705014
123	0x3c7f9fc6	0.015602058
124	0xbc02bdc4	-0.007979814
125	0x3be1310b	0.0068723015
126	0x3a6042f3	0.0008554898
127	0xbc6f245b	-0.01459607
128	0xbca98d1d	-0.02069717
129	0xbcc5d4a4	-0.024149247
130	0x3becba4c	0.0072243568
131	0xbc427a60	-0.011869997
132	0xbc67c097	-0.014145038
133	0x3c18b074	0.009319413
134	0xbc38143f	-0.011235296
135	0x3a9d2031	0.0011987743
136	0x3c6bafa8	0.014385141
137	0xbc48ff62	-0.012267919
138	0x3d0b3d72	0.033994146
139	0xbad8fbee	-0.0016554573
140	0x3c1641e7	0.009170986
141	0xbc4c24a4	-0.012459908
142	0x3bfb17bf	0.007662743
143	0x3c0cad31	0.008586214
144	0xbc230f24	-0.00995234
145	0x3cba3697	0.022731109
146	0x3b9f2a2b	0.0048573217
147	0x3cef4154	0.029205956
148	0x3a3781ea	0.00070002547
149	0xbc8e1170	-0.0173423
150	0xbc17483e	-0.0092335325
151	0xbb0014c7	-0.0019543634
152	0x3be2f686	0.0069263605
153	0xbb1a15b2	-0.0023511467
154	0xbc873301	-0.016503813
155	0xbc82ec3f	-0.015981792
156	0xbbbc3866	-0.005744028
157	0xbc0247cc	-0.007951688
158	0xbb8d99bf	-0.0043213065
159	0x3c304386	0.010758286
160	0xbbaebacd	-0.005332327
161	0x3c378a65	0.011202429
162	0x3c56f99e	0.013121037
163	0x3c12e151	0.008964852
164	0xbbdd33c8	-0.0067505576
165	0xba5460b9	-0.0008101571
166	0xbc164cd6	-0.009173593
167	0xbbbf827b	-0.005844412
168	0xbcc4bf26	-0.024016928
169	0xbb44f241	-0.003005162
170	0xbbf4069f	-0.0074470784
171	0xbb94d22f	-0.0045416574
172	0xbce74ba7	-0.028234316
173	0xbcebde29	-0.028792458
174	0xbc82a481	-0.015947582
175	0x3bae7838	0.00532439
176	0x3c63686e	0.013879878
177	0x3b1ff2cd	0.0024406195
178	0xbcb30a2e	-0.02185544
179	0xbc7f2688	-0.015573151
180	0x3c2b1044	0.01044089
181	0xbc350b2f	-0.01105003
182	0x3cc066b7	0.023486478
183	0x3c7acf7c	0.015308257
184	0xba0d0548	-0.000537951
185	0xb549b8cb	-7.5147244e-07
186	0xbcee36da	-0.02907889
187	0xba4b8a4e	-0.00077644445
188	0x3aa19844	0.0012328704
189	0xbb4fe901	-0.0031724575
190	0x3aacfdb6	0.001319817
191	0xbb3b35a8	-0.0028565917
192	0xb9c5f779	-0.0003775915
193	0xbb289309	-0.0025722405
194	0xbc98e7e0	-0.018665254
195	0xbca6bfa3	-0.020355051
196	0x3b46757b	0.0030282426
197	0xbb6eccdf	-0.003643803
198	0x3a5101ef	0.00079730054
199	0xbd0e4d62	-0.034741767
200	0x3b5541a3	0.0032540343
201	0xbb0532cb	-0.0020324464
202	0x3b0e90c8	0.0021753777
203	0xbc0f5986	-0.008749371
204	0x3b2be775	0.0026230488
205	0x3b7bf13e	0.0038443352
206	0xbd17a36b	-0.037021082
207	0x3c4b0016	0.012390157
208	0xbcc11e80	-0.023574114
209	0xbb594110	-0.0033150353
210	0xbc852517	-0.016253037
211	0xba0e82be	-0.0005436352
212	0x3c07e81f	0.008295088
213	0xbc7ec6b9	-0.015550309
214	0xbb98272a	-0.0046433406
215	0x3c137ee5	0.009002422
216	0x3a5b5cf0	0.0008368036
217	0xbc30a6fe	-0.010782002
218	0xbbd8e7b9	-0.0066194204
219	0xbc2b671d	-0.010461596
220	0xbd01bab0	-0.03167218
221	0xbd300fd3	-0.04298384
222	0x3c8840d2	0.016632471
223	0xbca0bc64	-0.019621082
224	0xbb902a1e	-0.004399552
225	0x3ca71fad	0.020400846
226	0xbba498ca	-0.0050230967
227	0x3c118755	0.008882363
228	0xbc8fe1e5	-0.01756377
229	0xbcf6bbca	-0.030118842
230	0xbb6893ff	-0.0035488603
231	0xbc01bcb1	-0.007918523
232	0xbcad8738	-0.021182641
233	0xbc80e5f8	-0.015734658
234	0xbc1b0267	-0.009461022
235	0x3c0e3c6c	0.008681398
236	0xbb84043d	-0.0040288256
237	0xbc27591a	-0.010214115
238	0xb9fbe671	-0.00048046143
239	0xbb866544	-0.0041014273
240	0xbb3f1122	-0.00291545
241	0x3b8ce8ec	0.0043002274
242	0xbcac2dfe	-0.021018025
243	0xbcc051b0	-0.023476452
244	0x3ce7b016	0.028282207
245	0xbc82f0ef	-0.015984027
246	0xbc039b21	-0.008032591
247	0xbd0446a2	-0.032293923
248	0xbb1ff84c	-0.002440947
249	0xbd0dafbc	-0.03459142
250	0xb9b098cb	-0.00033683176
251	0xbc06e257	-0.008232675
252	0xbcbb22f4	-0.022843815
253	0x3b06b1dc	0.002055279
254	0xb9119cdd	-0.00013886714
255	0x3c82c8a7	0.01596482

network_body._body_endoder.seq_layers.2.weight f4 [256, 256]
0	0xbdd77058	-0.10519475
1	0x3d46a3b8	0.048495978
2	0x3d8584a3	0.06519439
3	0x3c70daa3	0.014700565
4	0xbc570c96	-0.013125559
5	0xbce64796	-0.028110307
6	0x3c182d6d	0.009288174
7	0x3c02166c	0.007939916
8	0xbc8053fa	-0.015665043
9	0xbdd15e34	-0.10223046
10	0x3d2c6b8f	0.042094763
11	0x3d5cd899	0.0539175
12	0xbd27a5db	-0.040929656
13	0x3cdee89c	0.027210526
14	0x3d743cb8	0.05962822
15	0x3bf1084a	0.0073557245
16	0x3d74ce08	0.0597668
17	0x3cccef7f	0.025016544
18	0xbdfec583	-0.12440016
19	0x3d959a06	0.07304768
20	0x3c9a722f	0.018853275
21	0x3d8b1db5	0.067927755
22	0x3d7dcdb3	0.06196375
23	0x3d231dd8	0.039823383
24	0xbe05d0d5	-0.13067944
25	0xbc6d96b1	-0.01450126
26	0xbc0dd836	-0.008657506
27	0x3d531104	0.0515299
28	0x3ce9c3d1	0.028535755
29	0xbd337839	-0.043815825
30	0xbd8f51e0	-0.06998038
31	0x3cae5b3b	0.021283736
32	0xbc34b41e	-0.011029271
33	0xbd8ba653	-0.06818833
34	0x3e3815b9	0.17977037
35	0xbb6d279b	-0.0036186937
36	0xbdb5654a	-0.0885721
37	0xbd8a3cf4	-0.06749907
38	0xbe1ff50e	-0.15620825
39	0x3a01e791	0.00049554656
40	0x3dc59344	0.09647229
41	0xbd6b7ad0	-0.05749017
42	0xbde91883	-0.11381628
43	0x3c8337ef	0.016017882
44	0xbd1097ea	-0.035301127
45	0xbd8ea960	-0.069658995
46	0xbcdac769	-0.026706414
47	0xbdef6593	-0.116892956
48	0x3b868161	0.0041047786
49	0x3d1ad2dc	0.037798747
50	0xba7ec09f	-0.0009718034
51	0x3d6579bb	0.056024294
52	0xbdedc2cb	-0.116094194
53	0x3d092f44	0.03349234
54	0xbd488a34	-0.048959926
55	0xbbe43831	-0.0069647064
56	0x3dc01f78	0.09381002
57	0xbe14bfcb	-0.14526288
58	0xbbc349c2	-0.0059597204
59	0xbe25528f	-0.16144775
60	0x3d5d8f2b	0.054091614
61	0xbd6eba98	-0.05828342
62	0x3ce7a19f	0.02827531
63	0x3ad25277	0.0016046305
64	0x3c6201d7	0.013794384
65	0xbc55d15d	-0.013050404
66	0xbd10218f	-0.035188254
67	0xbcd8912c	-0.02643641
68	0x3bb45e3d	0.005504398
69	0xbcc9f544	-0.024653085
70	0x3c8e1bfb	0.017347327
71	0xbd4ac75f	-0.04950654
72	0xbc7f29f4	-0.015573967
73	0xbe313589	-0.17305578
74	0x3def15d1	0.11674083
75	0xba8c7638	-0.0010716384
76	0x3d7f0207	0.062257793
77	0xbd23f7b0	-0.040031135
78	0x3d1d94d3	0.038472008
79	0x3dec13b2	0.11527194
80	0xbc96fce6	-0.018431138
81	0xbd884e17	-0.066555195
82	0x3d1f6d24	0.038922444
83	0xbd6465eb	-0.05576126
84	0xbc671839	-0.014104896
85	0x3bece20d	0.007229096
86	0x3d4555c5	0.0481775
87	0x3d942333	0.07233276
88	0x3c609fc7	0.013709969
89	0xbc581c37	-0.013190321
90	0xbd9d6571	-0.07685364
91	0x3c15c228	0.009140529
92	0x3ca97a70	0.020688266
93	0xbd037372	-0.03209252
94	0x3ce516f8	0.027965054
95	0x3dc4f537	0.096170835
96	0xbd42113b	-0.047379714
97	0xbd9103bf	-0.07080793
98	0xbd5102ab	-0.051027935
99	0xbd01ccf1	-0.031689588
100	0xbd00def5	-0.03146263
101	0xbd8e0232	-0.069340125
102	0x3e26204b	0.16223256
103	0xbd83ccc8	-0.06435543
104	0xbd81017c	-0.06299111
105	0x3baeec82	0.0053382525
106	0xbdfee070	-0.12445152
107	0x3d820c3f	0.06349992
108	0x3d173452	0.03691513
109	0x3c5ab96a	0.01334987
110	0x3dc04eac	0.093900055
111	0xbc8ec7c0	-0.017429233
112	0x3dd128fd	0.10212896
113	0xbe1a4427	-0.1506506
114	0xb988d6ea	-0.00026100065
115	0xbd775bad	-0.060390163
116	0xbd85b013	-0.06527724
117	0xbd8e132e	-0.06937252
118	0x3d763f95	0.06011923
119	0x3da542e4	0.08069399
120	0x3d5b766a	0.053579725
121	0x3d01e3d7	0.031711426
122	0xbdb76e79	-0.08956618
123	0x3c18c071	0.009323225
124	0x3cf544c1	0.029940011
125	0x3cee778c	0.029109739
126	0x3d82c014	0.06384292
127	0x3d642c63	0.055706393
128	0xbce601cc	-0.028077029
129	0x3d0885ed	0.033330847
130	0xbdf450f6	-0.119295046
131	0x3bfce658	0.007717889
132	0x3b12de34	0.0022410275
133	0x3d378e93	0.044813704
134	0x3c795f44	0.015220467
135	0x3aadaee2	0.0013250972
136	0xbbd594ad	-0.0065179677
137	0x3ccd4145	0.025055537
138	0xbc381e18	-0.011237644
139	0xbded3243	-0.11581852
140	0xbd989f55	-0.07452265
141	0xbde425b8	-0.11140007
142	0x3dcb58c1	0.09929038
143	0x3d8448de	0.06459211
144	0xbd98cdae	-0.07461105
145	0xbd0f0913	-0.034920763
146	0xbb731d69	-0.0037096387
147	0xbd083583	-0.033254158
148	0xbd2ab157	-0.04167303
149	0x3c8575df	0.016291557
150	0xbd800a98	-0.062520206
151	0x3e069dcc	0.13146132
152	0x3dd380f2	0.10327329
153	0x3d0c23f6	0.034213983
154	0xbc76bf9d	-0.015060333
155	0x3cf51a45	0.029919753
156	0x3c10d2e2	0.008839341
157	0x3d61d1ca	0.05513171
158	0xbcb10a60	-0.021611392
159	0x3ca3ce24	0.019995756
160	0x3d00c9c0	0.031442404
161	0xbd4aa4ac	-0.04947345
162	0x3d2727ef	0.040809568
163	0xbcb8dee9	-0.02256723
164	0xbd278414	-0.040897444
165	0xbd8a0abc	-0.06740329
166	0xbcad6fa1	-0.021171393
167	0xbd00e28c	-0.031466052
168	0xbcde4b8d	-0.027135635
169	0x3b021ff1	0.0019855464
170	0x3d3a956b	0.045552652
171	0xbc88b6e3	-0.01668877
172	0x3c7e9466	0.015538311
173	0x3d702559	0.058629368
174	0x3c02f80d	0.00799371
175	0xbe04836f	-0.12940763
176	0x3c7609ad	0.015016955
177	0xbd53a2e2	-0.05166901
178	0xb99d7ac6	-0.00030036847
179	0x3d951557	0.07279461
180	0x3c0b0161	0.0084842155
181	0x3d14f7de	0.036369197
182	0x3d1f035b	0.03882156
183	0x3d0b9dba	0.034085967
184	0x3d88bd2d	0.066767074
185	0x3dd7a87c	0.10530183
186	0x3dc1f521	0.09470583
187	0x3ded07a5	0.11573724
188	0x3d9c7bfa	0.07640834
189	0x3d688d12	0.05677516
190	0xbce2f484	-0.027704485
191	0x3d0cf21a	0.034410574
192	0xbd04d669	-0.03243104
193	0xbded57a8	-0.11588985
194	0xbbbe0e68	-0.005800057
195	0xbd6391c7	-0.055558946
196	0xbe08ec39	-0.13371362
197	0x3d3e2c41	0.046428923
198	0xbc081ffc	-0.008308407
199	0x3d1b0522	0.037846692
200	0xbd4fb1a3	-0.050706517
201	0x3cfe27b8	0.031024799
202	0x3d8fe8a3	0.07026794
203	0x3df1af3c	0.118010014
204	0x3cd98d0b	0.026556512
205	0xbc27a8f5	-0.010233154
206	0x3cbdb1d8	0.023156092
207	0x3c6cb3a4	0.014447127
208	0xbc71e082	-0.0147629995
209	0x3d53e4dd	0.051731933
210	0x3c567cc5	0.013091271
211	0xbcfa96ac	-0.030589424
212	0xbcb4b392	-0.022058282
213	0x3c776136	0.0150988605
214	0xbb30556d	-0.0026906386
215	0xbc2de65e	-0.010614006
216	0x3a41fa41	0.00073996565
217	0xbd373519	-0.044728372
218	0xbe025506	-0.12727746
219	0xbda2a21c	-0.07941076
220	0xbda13eb8	-0.07873291
221	0xbb2db1e3	-0.0026503734
222	0x3caba8aa	0.020954449
223	0x3e3ca49f	0.18422173
224	0xbcdaf183	-0.02672649
225	0x3c801ded	0.01563927
226	0xbd101117	-0.03517255
227	0xbd967a4f	-0.07347547
228	0x3da385d6	0.079845116
229	0xbd1eaebd	-0.038740862
230	0x3dabbd5d	0.083857276
231	0xbb69fc5e	-0.00357034
232	0xbd3a2b92	-0.04545171
233	0x3c297ab4	0.010344196
234	0xbd316244	-0.043306604
235	0x3d6b4c61	0.057445887
236	0x3d165ae3	0.03670777
237	0x3dcfdf49	0.1015001
238	0x3d84755b	0.06467696
239	0xbd8f1db9	-0.06988091
240	0x3d47919c	0.04872285
241	0xba05fc52	-0.0005111146
242	0xbdd1c80e	-0.102432355
243	0xbd29066f	-0.0412659
244	0x3d1f3bce	0.038875394
245	0x3ca7c7cd	0.020481015
246	0xbcf209a4	-0.029545613
247	0xbd0fed61	-0.03513849
248	0x3c90ce6c	0.017676555
249	0x3d8079d0	0.06273234
250	0x3ce356cb	0.027751347
251	0xbc823f07	-0.015899194
252	0xbcd9d643	-0.026591426
253	0x3d77f764	0.060538664
254	0x3d98307a	0.07431121
255	0xbcbf35a9	-0.023341017

network_body._body_endoder.seq_layers.2.bias f4 [256]
0	0xbc113ebd	-0.008865056
1	0x3c9ea9a5	0.019368002
2	0x3ca03c74	0.019560076
3	0xbc503231	-0.012707279
4	0xbc7d8b53	-0.015475112
5	0x3b8367f0	0.004010193
6	0xbbe08c63	-0.006852673
7	0x3c5fca64	0.0136590935
8	0x3b649029	0.0034875965
9	0xbca1ea54	-0.019765057
10	0xbcbbac73	-0.022909379
11	0xbcbfe487	-0.0234244
12	0xbb5b7940	-0.0033489019
13	0xbc0480c5	-0.008087342
14	0xbc820380	-0.01587081
15	0x3c446d0a	0.011988888
16	0x3b91435d	0.004433079
17	0xbc643375	-0.013928284
18	0xbbd98089	-0.006637637
19	0xbd0925dd	-0.033483375
20	0x3c3f7e34	0.011687804
21	0x3c883f21	0.016631665
22	0xbba05925	-0.0048934394
23	0x3cbbe78d	0.02293756
24	0xbb3860f3	-0.0028133958
25	0xbcd64257	-0.02615468
26	0xbc0fa627	-0.008767641
27	0xbb2b14c8	-0.0026104916
28	0x3c107bb9	0.00881856
29	0x3c40c245	0.011765067
30	0xbcd231ce	-0.025658514
31	0xbba9fcea	-0.0051876204
32	0xbcb5b3c7	-0.022180451
33	0xbce03d65	-0.027373025
34	0xbc31cfbd	-0.010852751
35	0xbbb6aca1	-0.005574778
36	0xbaf0825a	-0.0018349395
37	0xbbf99ab6	-0.00761732
38	0xba67b1e7	-0.000883846
39	0x3ab35b65	0.0013683854
40	0xbc5ee843	-0.01360518
41	0xbcfc3007	-0.03078462
42	0x3bcfe94c	0.00634495
43	0xbcd63f72	-0.0261533
44	0x3b98a7de	0.004658683
45	0xbc00daf7	-0.007864705
46	0xbb2f63cf	-0.0026762371
47	0xbc954399	-0.01822071
48	0x3b951265	0.004549312
49	0xbcb48079	-0.022033917
50	0xbc1ddd8e	-0.009635342
51	0x3cb9133e	0.022592183
52	0xbb9d6474	-0.0048032347
53	0xbcfaae66	-0.030600738
54	0x3c1799dd	0.009252992
55	0x3c44e231	0.012016819
56	0x3b8670cf	0.0041028033
57	0xbb0127b6	-0.0019707507
58	0xbc5c5a28	-0.013449229
59	0xbb84f80b	-0.0040578893
60	0xbcece106	-0.028915893
61	0x3bce8c48	0.006303344
62	0xbd10ce57	-0.03535303
63	0xbb9b0321	-0.0047305976
64	0x3acffc1f	0.0015867985
65	0x3b21605e	0.002462409
66	0xbcf341b3	-0.029694414
67	0xbbf07531	-0.007338189
68	0x3b23f227	0.002501616
69	0xbacdc47e	-0.0015698818
70	0xbbcfe1ab	-0.0063440404
71	0x3b7b7d0f	0.0038374101
72	0x3c47c525	0.012192999
73	0xbc4aa74e	-0.01236899
74	0xbcd51142	-0.026009206
75	0xbb8d1d4f	-0.0043064724
76	0x3ba1c529	0.0049368334
77	0x3ba34dda	0.004983646
78	0xbc3d7123	-0.011562618
79	0xba3cd93f	-0.0007204003
80	0xbc221fd1	-0.009895281
81	0x3c6a9089	0.014316686
82	0xbbf15de2	-0.007365928
83	0x3c427312	0.011868255
84	0xbccbcd5e	-0.0248782
85	0xbc33ef3e	-0.010982333
86	0xbc51f8c9	-0.012815663
87	0x3a28513a	0.0006420795
88	0xbc32fee1	-0.010925026
89	0x3c5d4517	0.013505242
90	0x3bcbc2ee	0.006218306
91	0xbc5241da	-0.012833083
92	0xbcd63c7c	-0.026151888
93	0xbc8b7cf0	-0.017027348
94	0xbca947ec	-0.020664178
95	0x3c2468b4	0.010034729
96	0xbcc68687	-0.02423407
97	0x3c623cea	0.013808468
98	0x3c467360	0.0121124685
99	0x3b1ed2db	0.0024234566
100	0xbbc7562a	-0.0060832696
101	0x3b5db277	0.0033828297
102	0xbb572505	-0.0032828462
103	0xbb6b98bf	-0.0035949198
104	0xbb05dbda	-0.0020425231
105	0xbc4c4252	-0.012466984
106	0x3a74d476	0.00093395205
107	0xbb9efb3f	-0.004851728
108	0x3a9d5ad0	0.0012005214
109	0x3a7fe57c	0.0009761674
110	0xbcc571ce	-0.024102118
111	0xbc8fef42	-0.017570142
112	0xbbfda380	-0.007740438
113	0x3c28e565	0.010308598
114	0xbcca8ef6	-0.024726372
115	0xbc1b62bc	-0.009483989
116	0xbaa90ccc	-0.001289749
117	0xbc6c0ca3	-0.01440731
118	0x3a939de7	0.0011262269
119	0xbba93570	-0.005163841
120	0x3c44f77d	0.012021896
121	0x3b77f83e	0.0037837173
122	0x3c9871fa	0.018609036
123	0xbca42791	-0.020038398
124	0xbc657ffe	-0.0140075665
125	0xbc2c1272	-0.010502445
126	0xbb96dade	-0.0046037277
127	0xbc818207	-0.015809072
128	0x3c9897d5	0.018627087
129	0xbbe21c1c	-0.0069003236
130	0xba9db46d	-0.001203192
131	0xbc3bfdcf	-0.011474087
132	0xbb02bb86	-0.0019948198
133	0xbc98d776	-0.018657427
134	0x3b11d864	0.0022254223
135	0xbc076274	-0.008263219
136	0xbb85298e	-0.0040637916
137	0xbd0575ab	-0.03258292
138	0x3c276c94	0.010218758
139	0xbd08093e	-0.03321194
140	0xbbe2c275	-0.0069201537
141	0x3c93ae43	0.01802743
142	0xbbc9947b	-0.0061517335
143	0x3c8e358b	0.017359516
144	0x3be90adc	0.0071118902
145	0xbc95b4f0	-0.018274754
146	0x3c2d1829	0.010564842
147	0xbbadcc71	-0.0053039123
148	0x3c05067e	0.008119224
149	0xbc9818ae	-0.018566456
150	0xbc93181f	-0.017955838
151	0x3894e43a	7.0997005e-05
152	0x3c237209	0.009975919
153	0x3b81aa4b	0.003957068
154	0x3c7cc11a	0.015426898
155	0x3c00faec	0.007872324
156	0xbb224aa4	-0.0024763728
157	0xbd1b52dc	-0.037920818
158	0x3cb9d3a1	0.02268392
159	0xbd021284	-0.03175594
160	0x3bc63c06	0.006049636
161	0x3c5a02dc	0.013306346
162	0xbb65a674	-0.003504184
163	0x3b6a3dea	0.003574247
164	0xbad928bf	-0.0016567929
165	0xbcdeee2d	-0.02721318
166	0xbccd2b63	-0.025045102
167	0xbc339baf	-0.010962411
168	0xbc0278ed	-0.007963401
169	0x3c3d6912	0.011560695
170	0xbc993f63	-0.018706983
171	0xbc4449c5	-0.011980479
172	0xb84f5094	-4.942769e-05
173	0xbcc593a2	-0.024118248
174	0xbc7ea849	-0.015543052
175	0x3c49c0a6	0.012313997
176	0x3cacfb2c	0.021115862
177	0xbb5bf867	-0.0033564807
178	0x3ce1b094	0.02755002
179	0xbcdd602e	-0.027023401
180	0x3b013e34	0.0019720914
181	0xbc8fe252	-0.017563973
182	0xb9b081d1	-0.00033666057
183	0x3bd5b258	0.0065215044
184	0x3c099bf3	0.008398998
185	0xbc143215	-0.009045144
186	0x3c023337	0.007946781
187	0xbbc04c31	-0.0058684577
188	0xbc519987	-0.012792951
189	0xbcf04b1d	-0.029332692
190	0x3ca5d395	0.020242492
191	0x3ad0cb8a	0.00159298
192	0x3cd4ded4	0.025985159
193	0xbba392ef	-0.004991881
194	0x38ef73dc	0.000114179886
195	0xbca21dfb	-0.019789686
196	0x3c0b0b1f	0.008486538
197	0xbcffd85a	-0.031231094
198	0x3c85aa8c	0.016316675
199	0xbc146f8f	-0.009059801
200	0xbcb07d1d	-0.021544034
201	0xbcfc1461	-0.030771436
202	0xbbd8d2bc	-0.0066169184
203	0x3b08d5c9	0.002087938
204	0x3c31564b	0.0108237965
205	0xb9838502	-0.00025085366
206	0xbcbd18cd	-0.023083115
207	0x3bb22ff8	0.005437847
208	0x3c3bb967	0.011457778
209	0x3c7a0903	0.015260938
210	0xbd18385b	-0.03716312
211	0xbbdce414	-0.006741056
212	0x3cb99711	0.022655042
213	0xbbbf1df5	-0.0058324286
214	0x398ad3b3	0.0002647914
215	0x3bd8416a	0.006599595
216	0xbafb9319	-0.0019193619
217	0xbc7189d1	-0.014742331
218	0x3b93cc9a	0.0045104744
219	0xbc06466d	-0.008195502
220	0xba713a05	-0.0009202066
221	0x3ba1cb8b	0.0049375943
222	0xbc66e6d9	-0.014093124
223	0x3992ee36	0.0002802477
224	0xbbb0d7d5	-0.005396823
225	0x3bb6b482	0.0055757174
226	0xb9c7615d	-0.0003802878
227	0x3ca8abdd	0.020589763
228	0xbca66188	-0.020310178
229	0xbcdb2737	-0.026752098
230	0x3ac287ca	0.0014841494
231	0xbcf3c062	-0.029754821
232	0xbcb5895c	-0.022160225
233	0xbc19ad03	-0.009379628
234	0xbc75f6af	-0.015012427
235	0xbb4638c6	-0.0030246242
236	0xbb22b21b	-0.0024825397
237	0x3afe3e3c	0.0019397209
238	0xbcbd33b7	-0.023095949
239	0xbb100bbc	-0.002197965
240	0x3c84be06	0.016203891
241	0x397cb481	0.00024099836
242	0x3bd04e54	0.0063569937
243	0x3c6e4af2	0.014544236
244	0x3bc67c9c	0.006057335
245	0x3c194a8c	0.009356152
246	0xbaf77f5d	-0.0018882562
247	0x3c05c31b	0.008164193
248	0xbd0a36f2	-0.033743806
249	0x3c8a4726	0.01687963
250	0xbc83b7f1	-0.016078921
251	0xbc35d961	-0.01109919
252	0x3c7015a5	0.014653598
253	0x3c3af4c8	0.011410899
254	0x3c461a8a	0.012091288
255	0xbb0e54f3	-0.0021718114

network_body._body_endoder.seq_layers.4.weight f4 [256, 256]
0	0xbe3e12e1	-0.18561889
1	0xbe2f2274	-0.17102987
2	0x3c5d4e9f	0.013507514
3	0x3da414ae	0.08011757
4	0x3c8fce02	0.017554287
5	0x3c0a3617	0.008435748
6	0x3cdd364d	0.027003432
7	0x3ca45fd8	0.020065233
8	0x3d03b36f	0.032153543
9	0x3d2fa434	0.042881206
10	0x3c2dc46e	0.0106059145
11	0x3c5623a8	0.013070025
12	0xbbbffe09	-0.005859141
13	0x3cc2494d	0.023716593
14	0xbd20cd5e	-0.039258353
15	0x3d9f631e	0.07782577
16	0x3d981669	0.074261494
17	0x3d055bf8	0.03255841
18	0x3d94cecb	0.07266005
19	0x3d140ad8	0.036143154
20	0xbded7506	-0.11594586
21	0x3b87deb5	0.004146422
22	0xbc97a4ff	-0.018511293
23	0x3cabb8df	0.020962177
24	0xbdb38a85	-0.08766655
25	0x3c58d1ca	0.013233611
26	0xbd8daa23	-0.06917217
27	0x3d631510	0.05544001
28	0x3dd22794	0.10261455
29	0x3cd3352b	0.025782188
30	0x3c875b4b	0.016523024
31	0x3b7422a6	0.0037252097
32	0x3db38a3f	0.08766603
33	0x3d8482fc	0.06470296
34	0xbc357ce7	-0.011077142
35	0x3c9be41a	0.019029666
36	0x3e02a5bb	0.12758534
37	0x3de8f587	0.113749556
38	0xbd022117	-0.03176984
39	0x3be6a344	0.0070385057
40	0x3d183c95	0.03716715
41	0x3dccb21d	0.0999491
42	0x3d864fee	0.06558214
43	0xbd2aa386	-0.041659854
44	0x3cc7d907	0.024395479
45	0x3d4cbb3f	0.04998326
46	0xbb9db419	-0.004812729
47	0xbda53b5e	-0.08067964
48	0xbde3dbeb	-0.111259304
49	0xbc95a17e	-0.018265482
50	0x3ca3f268	0.02001305
51	0xbd263135	-0.04057427
52	0x3dadd35a	0.08487578
53	0x3c808e13	0.015692746
54	0xbd2bc7f0	-0.041938722
55	0xbd903bba	-0.07042642
56	0x3cf1a58d	0.029497886
57	0xbe0975b9	-0.13423814
58	0x3def5225	0.1168559
59	0x3cd2ab62	0.025716487
60	0x3e05a8c6	0.13052663
61	0xbc9a043f	-0.018800853
62	0xbda72023	-0.081604265
63	0xbd9711ec	-0.07376465
64	0x3dc1d318	0.09464091
65	0x3b7d5c5e	0.0038659791
66	0x3c986b1e	0.018605765
67	0xba85880b	-0.0010187639
68	0xbd46afd9	-0.048507545
69	0xbd907960	-0.070544004
70	0xbd4f971c	-0.05068122
71	0x3c6c0117	0.014404557
72	0xbd080893	-0.033211302
73	0x3bcb9235	0.0062124976
74	0xbd2f851f	-0.042851564
75	0x3c9915ec	0.018687211
76	0xbb7e18b4	-0.0038772048
77	0x3da1f4ce	0.07908021
78	0xbca1b04e	-0.019737389
79	0xbc18419c	-0.009292986
80	0xbd7fd234	-0.062456325
81	0xbc80153b	-0.015635123
82	0xb9e8dacd	-0.00044413508
83	0xbd3f00b8	-0.046631545
84	0x3d35b9a2	0.044366486
85	0xbce0b4cf	-0.027429966
86	0x3df06f94	0.11740032
87	0x3d14d223	0.036333214
88	0x3db53446	0.08847861
89	0x3d83bcae	0.06432472
90	0xbd4b80fa	-0.04968355
91	0x3e30cce2	0.17265657
92	0x3db3688a	0.087601736
93	0xbc081151	-0.00830491
94	0xbcede48b	-0.029039642
95	0xbd2c4dff	-0.04206657
96	0x3cbe0d27	0.02319963
97	0xbdd7a3fc	-0.105293244
98	0xbd159448	-0.036518365
99	0xbd48d893	-0.049034666
100	0xbc81e865	-0.015857885
101	0x3de00d42	0.10940029
102	0xbd884914	-0.066545635
103	0x3c3a75c5	0.0113806175
104	0x3cbe0f2c	0.023200594
105	0xbd4e98d9	-0.050438736
106	0x3dc39427	0.09549742
107	0xbd28c29e	-0.041201226
108	0xbdc049de	-0.09389089
109	0xbd7d8096	-0.061890207
110	0xbcbe920c	-0.023263
111	0x3d57bb96	0.05266913
112	0x3c044b37	0.008074573
113	0xbc4d16e2	-0.012517663
114	0x3e05a42f	0.13050912
115	0x3c0d2b5e	0.008616297
116	0x3ca97f9b	0.02069073
117	0x3d8455ec	0.06461701
118	0x3dc0b97e	0.0941038
119	0x3cd2c2b9	0.025727617
120	0x3c4003b7	0.011719636
121	0xbd2d7464	-0.042347327
122	0xbddbc24c	-0.107304186
123	0x3ba61514	0.0050684307
124	0x3cc750e4	0.024330564
125	0x3d8261ad	0.063662864
126	0x3db80b09	0.0898648
127	0xbd18fbb9	-0.037349436
128	0xbdbe9cbb	-0.09307238
129	0x3daff597	0.085917644
130	0xbc4eacfb	-0.012614484
131	0xbd9c4e12	-0.07632078
132	0xbcfb58a3	-0.030681914
133	0xbe1203c7	-0.14259253
134	0xbde7b63a	-0.11314054
135	0xbca1b371	-0.019738885
136	0xbd57cd34	-0.05268593
137	0x3d95d9d7	0.0731694
138	0x3d3f2728	0.0466682
139	0xbc409bb8	-0.011755876
140	0x3c1f15dc	0.0097098015
141	0xbcf14a45	-0.02945436
142	0x3a634e59	0.00086710375
143	0xbd2dc617	-0.04242524
144	0xbd184312	-0.03717334
145	0xbce81e79	-0.028334843
146	0xbbb66f5d	-0.0055674748
147	0xbdf4da59	-0.11955709
148	0xbc735938	-0.014852814
149	0xbc913e7d	-0.017729992
150	0xbdaba7d3	-0.08381619
151	0xbdb97ecf	-0.0905739
152	0x3d54bfba	0.051940657
153	0xbad2b3f2	-0.0016075356
154	0xbd8a6d59	-0.06759138
155	0xba8bf3ff	-0.0010677575
156	0x3c94c992	0.018162522
157	0x3c9b288f	0.018940238
158	0xbd4ef107	-0.05052283
159	0x3cd39a0b	0.02583029
160	0x3c937ed2	0.018004809
161	0x3da4730a	0.080297545
162	0x3c3de5a3	0.011590394
163	0xbd0d6f3e	-0.034529917
164	0xbe2103c7	-0.15724097
165	0x3d363196	0.044480883
166	0x3dab77ae	0.083724365
167	0x3c7306f1	0.014833198
168	0x3dcb06ca	0.09913404
169	0x3bdfda3f	0.006831437
170	0xbde3993d	-0.11113212
171	0xbbf5da3d	-0.0075028227
172	0xbd817300	-0.06320763
173	0xbacb57c5	-0.0015513828
174	0xbb7a6a08	-0.0038210172
175	0x3cb48f03	0.02204085
176	0xbce8ca44	-0.02841676
177	0x3ccf87a5	0.025333235
178	0xbd1ca104	-0.038239494
179	0x3d82ade2	0.06380822
180	0x3c5820ce	0.013191415
181	0x3d9b86f4	0.075941
182	0xbcc15c85	-0.023603687
183	0xbd1a8e08	-0.037733108
184	0x3da2b76c	0.07945141
185	0x3db0e795	0.08637921
186	0xbddb682c	-0.107132286
187	0xbcd1b692	-0.025599752
188	0x3dc56c2b	0.09639772
189	0x3d6b09ca	0.057382382
190	0x3d0fa66a	0.035070814
191	0xbcdcce2a	-0.026953775
192	0xbd9c20c7	-0.07623439
193	0x3d60f621	0.054922227
194	0xbd7b7464	-0.061390296
195	0x3cb5112a	0.022102911
196	0x3c247245	0.01003701
197	0x3de7cb60	0.113180876
198	0xbd844167	-0.06457787
199	0x3a4fe6cb	0.0007930814
200	0x3be2f239	0.006925848
201	0x3a67cd87	0.00088425766
202	0x3dd2bf51	0.10290397
203	0x3daeb15e	0.08529924
204	0xba95d2f0	-0.0011430662
205	0xbd17e430	-0.03708285
206	0xbd0079d0	-0.03136617
207	0xbd049e59	-0.032377575
208	0xbdd10c95	-0.10207478
209	0xbda57f19	-0.080808826
210	0xbcb36a8b	-0.02190139
211	0x3df29cf1	0.118463404
212	0x3e25478e	0.16140577
213	0x3da5bb97	0.080924205
214	0xbd814471	-0.06311882
215	0x3d8f979d	0.0701134
216	0xbc8a1fc9	-0.01686086
217	0xbbbede1f	-0.0058248187
218	0x3d974fb8	0.07388252
219	0x3deb9f72	0.11505021
220	0x3dd23f73	0.10266008
221	0xbd704516	-0.058659635
222	0xbd2b059d	-0.0417534
223	0x3da68559	0.08130903
224	0xbbabeb24	-0.005246537
225	0x3cee1245	0.029061446
226	0x3d56fb63	0.052485835
227	0xbd822b76	-0.06355946
228	0x3d292a32	0.041300006
229	0x3c869b50	0.01643148
230	0xbdd22242	-0.102604404
231	0x3cb31bf4	0.021863915
232	0xbd088ff9	-0.033340428
233	0x3dbec6a2	0.0931523
234	0x3d1a4881	0.0376668
235	0x3d8ffe8b	0.07030972
236	0xbdb2dcab	-0.08733495
237	0xbcf0093c	-0.029301278
238	0x3d2468eb	0.04013912
239	0xbcea61b4	-0.028611042
240	0x3d70c7a9	0.05878416
241	0xbd2ef159	-0.042710636
242	0x3ca3d44a	0.019998688
243	0x3c88a3cd	0.016679669
244	0xbd8948cf	-0.0670334
245	0xbd0aa6aa	-0.03385035
246	0x3dcc627d	0.09979723
247	0xbd7b70c5	-0.061386842
248	0x3db3d223	0.08780315
249	0xbdbbe3b2	-0.09174289
250	0x3d6e9feb	0.05825798
251	0xbd2b0bc5	-0.04175927
252	0x3d896f0f	0.06710636
253	0xbc43bcb0	-0.011946842
254	0x3d391b5b	0.045192104
255	0x3d0111ee	0.03151124

network_body._body_endoder.seq_layers.4.bias f4 [256]
0	0x3aeec5ac	0.001821687
1	0xb9398e33	-0.00017695948
2	0xbc532980	-0.012888312
3	0xbc4e0a04	-0.01257563
4	0xbc942c26	-0.018087458
5	0xbb0af2cf	-0.0021201854
6	0xbccd71ea	-0.025078733
7	0xbca5383b	-0.020168414
8	0x3cb3e5b8	0.021960124
9	0x3c1f5027	0.0097237
10	0x3b0ee732	0.0021805284
11	0x3b6d97f4	0.0036253901
12	0x3cdb6b2f	0.026784508
13	0x3ce7b3d6	0.028283995
14	0xbc8b9567	-0.017039014
15	0xbbd1f22b	-0.0064070425
16	0x39f38676	0.00046448753
17	0x3aff1fe7	0.0019464464
18	0x3c5e8aad	0.013582868
19	0xbca0d333	-0.019631958
20	0xbcd83ba0	-0.026395619
21	0xbc9d8253	-0.019227182
22	0xbbf09c4b	-0.0073428503
23	0xbc6446e8	-0.013932921
24	0xbb91f5e1	-0.00445436
25	0x3c6f8ef1	0.014621482
26	0x3c365712	0.011129158
27	0x39c65cbe	0.000378346
28	0xba320520	-0.0006790925
29	0xbab6d8cb	-0.0013950107
30	0xbce3f9d3	-0.027829086
31	0xbcaa80c0	-0.020813346
32	0xbc3f980c	-0.011693966
33	0x3bc778a8	0.0060873814
34	0x3b64d4e1	0.0034916925
35	0xbc35daa0	-0.011099488
36	0xbbbbbdcb	-0.005729412
37	0x3c2d1d1d	0.010566023
38	0xbb8bce6d	-0.004266551
39	0x3c720c1f	0.014773398
40	0x3c50d696	0.012746474
41	0xbc09af77	-0.0084036505
42	0x3cd5c241	0.026093604
43	0xbd0682d0	-0.032839596
44	0x3b9a904f	0.00471691
45	0x3bd7f271	0.0065901806
46	0xbc82d08c	-0.015968584
47	0xbab7882e	-0.0014002377
48	0xbbd87c1e	-0.006606593
49	0x3c1c30a1	0.009533078
50	0xbcb9be85	-0.022673855
51	0x3c55da2f	0.013052507
52	0xb9f6101b	-0.00046932776
53	0x3c2bb9d8	0.01048132
54	0x3b0ee0a0	0.0021801367
55	0xbc6c3b0c	-0.014418375
56	0xbc975ca2	-0.018476788
57	0x3c97f4d7	0.018549366
58	0xbcc2e7ae	-0.023792114
59	0x3b9a14bc	0.0047021788
60	0x3b92bee7	0.0044783237
61	0x3be8e87c	0.0071077924
62	0x3b591587	0.0033124404
63	0xbc080f4c	-0.008304428
64	0xbc2dbaa5	-0.010603582
65	0xbc896d72	-0.01677582
66	0xbc1892f0	-0.009312376
67	0xbc203699	-0.009778642
68	0xbb97a9fb	-0.0046284175
69	0x3bd2889c	0.0064249765
70	0xbcbc011b	-0.022949746
71	0x3c90f33d	0.01769411
72	0x3bec6c36	0.007215048
73	0xbb31471e	-0.0027050446
74	0xbcadda03	-0.02122212
75	0x3b07d746	0.0020727678
76	0xbc3c990d	-0.0115110995
77	0x3a85e87b	0.0010216379
78	0xbc905248	-0.01761736
79	0xba673b42	-0.0008820781
80	0x3b85983c	0.0040769856
81	0x3be93b58	0.00711767
82	0xbc6ea1fb	-0.014564986
83	0xbb523ca6	-0.0032079606
84	0x3c3be608	0.011468418
85	0x3ba35cbe	0.004985421
86	0x3c569b17	0.0130985
87	0xbc77e401	-0.015130044
88	0xbbdc102e	-0.006715796
89	0xbbc4b652	-0.0060031796
90	0x3c0a4da2	0.008441361
91	0xbbd85a85	-0.0066025876
92	0x3c131068	0.0089760795
93	0xbb794dd1	-0.0038040767
94	0xbbad14cf	-0.0052820216
95	0x3ca1bab2	0.019742344
96	0x3ad3397d	0.0016115155
97	0xbc7dedc7	-0.015498585
98	0x3ad38739	0.0016138322
99	0xbaf8a980	-0.0018971413
100	0xbc84593a	-0.016155828
101	0xbc861f3b	-0.016372314
102	0xbc218bce	-0.009859992
103	0x3b08779d	0.0020823248
104	0xbb990ec0	-0.004670948
105	0x3c321dd3	0.010871368
106	0x3bbd3050	0.0057735816
107	0xbaf94051	-0.001901636
108	0xbc6f2d65	-0.014598225
109	0x3c7a06a5	0.015260373
110	0xbb3e9a72	-0.0029083756
111	0xbb9f406e	-0.0048599755
112	0x3c3b60c7	0.011436648
113	0xbc47c405	-0.012192731
114	0x3a480aec	0.0007631022
115	0xbbacd182	-0.0052739987
116	0xba123607	-0.0005577509
117	0x3aed0bf0	0.0018085223
118	0x3befc04d	0.007316625
119	0x3b5bfafc	0.0033566346
120	0xbcf5fe09	-0.03002836
121	0xbbbdfcb7	-0.005797948
122	0xb992a1b5	-0.0002796777
123	0xbbe58554	-0.0070044193
124	0x3c029490	0.00796999
125	0xbc5ed2aa	-0.013600031
126	0xbc2e926d	-0.010655028
127	0xbba7e92d	-0.0051242323
128	0x3beeca84	0.0072873253
129	0x3c9ff982	0.019528154
130	0x3af03755	0.0018327037
131	0x3b1773f1	0.0023109878
132	0x3baf2740	0.005345255
133	0x3c92c324	0.017915316
134	0xbc25be2a	-0.010116139
135	0x3b1a4e61	0.0023545253
136	0xbc1837d8	-0.009290658
137	0x388a0b09	6.582408e-05
138	0xbbd7f913	-0.0065909713
139	0xbc7c9dde	-0.015418498
140	0xb9ff2356	-0.00048663717
141	0x3ac06730	0.001467919
142	0x3bd38109	0.006454591
143	0x3c288a62	0.010286899
144	0xbc6141db	-0.013748611
145	0xbc72e6ac	-0.014825504
146	0x3c574630	0.013139293
147	0x3c2e1f9c	0.010627653
148	0x3bb83a77	0.005622204
149	0xbc9a2b91	-0.018819602
150	0xbc32f20a	-0.010921964
151	0xbc10ceac	-0.008838337
152	0x3c968a09	0.018376367
153	0xbc7b5b8d	-0.015341652
154	0x3c16c15b	0.009201373
155	0xbb494447	-0.0030710862
156	0xbad576c6	-0.0016286008
157	0xbb000a59	-0.0019537418
158	0xbc8ca2ad	-0.017167414
159	0xbb12dadd	-0.0022408285
160	0x3c380ea6	0.011233961
161	0xbb898fc3	-0.004198046
162	0x3c951722	0.018199507
163	0xbbe1f0e2	-0.0068951705
164	0x3c2b113f	0.0104411235
165	0x3c26e571	0.010186539
166	0xbc836cb9	-0.016043054
167	0xbcb7e8c1	-0.022449853
168	0x3a89f177	0.0010524233
169	0x3c3cbd4c	0.011519741
170	0xbc01942d	-0.007908863
171	0x3c15d297	0.009144447
172	0x3bb460d5	0.0055047073
173	0xbc990f45	-0.018684039
174	0xb8897ad8	-6.5555505e-05
175	0x3bbe2b71	0.0058035185
176	0xbcfe8c7f	-0.031072853
177	0x3c8ff6bc	0.017573707
178	0x3a03e21f	0.0005030948
179	0xbbb78928	-0.005601067
180	0x3c7f9b31	0.015600965
181	0x3b839042	0.0040149996
182	0x3bbe9546	0.0058161346
183	0xbce37eee	-0.027770486
184	0xbc160cc9	-0.009158322
185	0x3a86fa65	0.0010298012
186	0x3caeb151	0.021324785
187	0xbc6ec889	-0.0145741785
188	0xbb348ebd	-0.00275509
189	0x3c565baf	0.0130833825
190	0xbc82d79f	-0.015971957
191	0xbb644b3d	-0.0034834885
192	0xbb04e84f	-0.0020280068
193	0xbc99bb6c	-0.018766128
194	0xba79393d	-0.00095071254
195	0x3c3106c3	0.010804835
196	0x3ace1a4c	0.001572439
197	0xba559e08	-0.00081488537
198	0x3c22565d	0.009908286
199	0xbc3e87c6	-0.011629051
200	0xbbefb8de	-0.007315739
201	0xbb6d77ab	-0.0036234658
202	0xbcbd29fe	-0.023091312
203	0x3a865f31	0.0010251758
204	0xbafb48e7	-0.0019171507
205	0xbcb8d9a5	-0.022564718
206	0x3bcb67ba	0.0062074335
207	0x3bb94b8d	0.0056547583
208	0x3bb3b8ef	0.0054846923
209	0xbc26c2da	-0.010178292
210	0xbc6287ec	-0.013826352
211	0xbc5a7ade	-0.013334958
212	0xbbc0432e	-0.0058673834
213	0x3b32acba	0.0027263598
214	0xbbe67817	-0.007033359
215	0x3b99b89e	0.0046911975
216	0xbb968e1a	-0.0045945765
217	0x3c8169d3	0.015797531
218	0x3bc0eba5	0.005887466
219	0xbcfb9637	-0.030711276
220	0xbc8d4385	-0.01724411
221	0xbca502c6	-0.020142924
222	0xbca20914	-0.01977972
223	0x3c29c3c6	0.010361617
224	0xbcef419c	-0.02920609
225	0xbcde3ae1	-0.027127685
226	0x3bab9485	0.005236211
227	0xbad1a61f	-0.0015994943
228	0xbc0b8d95	-0.0085176425
229	0xbc9e9b9d	-0.019361312
230	0x3b1c2d9e	0.00238309
231	0x3c493ad4	0.012282092
232	0x3b79eb62	0.0038134684
233	0xbd052439	-0.032505248
234	0x3ad81e4a	0.0016488519
235	0xbca326b5	-0.019915918
236	0x3bd516a9	0.0065029454
237	0x3bd21758	0.006411474
238	0xbc889010	-0.016670257
239	0x3ce39960	0.027783096
240	0xbc897b8d	-0.016782546
241	0xbb6ec6a3	-0.0036434315
242	0xbcd4b900	-0.025967121
243	0xbb033876	-0.0020022667
244	0xbc223db4	-0.0099024065
245	0xbcf4e50b	-0.029894372
246	0xbb047ad8	-0.0020214822
247	0x3bedd41f	0.007257953
248	0xbca985b1	-0.020693632
249	0x3cc2a3f6	0.023759823
250	0x3cc8b4fe	0.024500366
251	0x3b863890	0.0040960982
252	0x3c04c5f7	0.008103839
253	0xbc92b315	-0.017907659
254	0xbb78585b	-0.003789446
255	0x3c9a4e7d	0.018836254

network_body._body_endoder.seq_layers.6.weight f4 [256, 256]
0	0xbc86755f	-0.016413389
1	0x3c18df80	0.00933063
2	0x3cecb776	0.028896075
3	0xbd10cbcd	-0.03535061
4	0xbe255422	-0.16145375
5	0x3bf4e1b4	0.007473195
6	0xbc0caee7	-0.008586622
7	0x3df66fce	0.12033044
8	0xbd0664e1	-0.03281105
9	0x3c0a669f	0.008447318
10	0x3cfc266b	0.030780038
11	0x3d200997	0.039071646
12	0xbdb4d2c8	-0.08829266
13	0xbdc736ea	-0.09727271
14	0xbdc13a7a	-0.09434982
15	0x3d36605d	0.044525493
16	0x3d9dcb41	0.07704783
17	0x3ce9006f	0.02844259
18	0xbb3a9111	-0.0028467814
19	0x3ca97b3e	0.02068865
20	0x3cdc440a	0.026887912
21	0xbd76956f	-0.060201105
22	0xbd6a90a9	-0.057266865
23	0x3d236091	0.039887015
24	0xbd81dee5	-0.06341342
25	0x3c1739dc	0.009230103
26	0xba78b408	-0.0009487276
27	0xbc2363bc	-0.009972509
28	0xbe0737ce	-0.13204882
29	0xbe26ff0d	-0.16308232
30	0xbc92e466	-0.017931174
31	0x3d6d3fa5	0.057922024
32	0x3c704113	0.014663952
33	0x3d706d63	0.05869807
34	0xbd854183	-0.06506636
35	0x3a773428	0.0009430074
36	0xbd315333	-0.043292236
37	0x3da3cd51	0.07998145
38	0x3d82995e	0.06376909
39	0x3d920bec	0.0713118
40	0x3d13f384	0.036120906
41	0x3d1e4a31	0.038644973
42	0xbd81df5b	-0.0634143
43	0xbcaced3d	-0.021109218
44	0x3d873a4d	0.06602917
45	0xbcbc2e30	-0.022971243
46	0x3d056bdf	0.032573577
47	0xbd4e1192	-0.050309725
48	0x3d9d3406	0.07675938
49	0xbd071ec4	-0.032988325
50	0xbb306f03	-0.0026921637
51	0x3c6fd298	0.014637612
52	0x3d2301b8	0.03979656
53	0x3c810f0b	0.015754243
54	0xbdc16384	-0.09442809
55	0x3e0a42b3	0.13502006
56	0xbd674720	-0.056464314
57	0xbc1b89a3	-0.009493264
58	0x3d8c7329	0.068579026
59	0x3d33f29c	0.043932542
60	0x3c2468b5	0.01003473
61	0x3d844657	0.06458729
62	0x3d97e0e2	0.0741594
63	0x3d191efe	0.037383072
64	0xbb416248	-0.0029508043
65	0xbd023138	-0.03178522
66	0xbb117850	-0.0022196956
67	0xbd292188	-0.041291744
68	0x3cb6e437	0.022325618
69	0xbdbcee5f	-0.09225153
70	0x3beec107	0.0072861942
71	0xbd1074e2	-0.035267718
72	0x3c90d19f	0.01767808
73	0x3c75eb7c	0.015009757
74	0x3cabf829	0.020992355
75	0xbda995d3	-0.0828053
76	0x3d4da2a4	0.050203934
77	0xbc156025	-0.009117161
78	0x3d8164e5	0.06318072
79	0xbd1a7bc1	-0.037715677
80	0xbc33e0b0	-0.010978863
81	0x3d66d72b	0.056357544
82	0xbd68508c	-0.05671744
83	0x3ddb4f33	0.107084654
84	0xbd786c61	-0.060650233
85	0x3cec6ca8	0.028860405
86	0x3ca78d3b	0.020453086
87	0x3d76ac68	0.060223013
88	0x3e054c0b	0.1301729
89	0xbcc7c06d	-0.024383748
90	0x3d284d01	0.04108906
91	0x3d967ca9	0.07347996
92	0x3bc71a1c	0.0060761105
93	0xbd396e1e	-0.04527103
94	0x3cc32e68	0.02382584
95	0x3d3eccbc	0.04658197
96	0xbd8a9dce	-0.0676838
97	0xbcf6d994	-0.030133046
98	0xbd111264	-0.03541793
99	0xbca4a6bb	-0.020099035
100	0x3ca83b06	0.020535957
101	0x3dad1dc4	0.08452943
102	0x3d33097f	0.043710228
103	0x3cadadc7	0.021201028
104	0xbc08244a	-0.008309433
105	0x3db0e827	0.086380295
106	0x3d0be022	0.034149297
107	0xbd3a7cce	-0.04552918
108	0x3e3b6d70	0.18303466
109	0xbd89d330	-0.06729734
110	0xbd87be48	-0.0662809
111	0xbb0e3e14	-0.0021704482
112	0xbd83237b	-0.06403252
113	0x3da3fba2	0.080069795
114	0x3d870321	0.06592394
115	0x3c8100f4	0.015747525
116	0xbc217a7a	-0.009855861
117	0x3d92dd97	0.07171171
118	0xbdb671ff	-0.08908462
119	0x3c97c189	0.018524902
120	0x3c68a90a	0.014200458
121	0xbd59000e	-0.052978568
122	0x3ca07757	0.019588156
123	0xbc0b0eec	-0.008487444
124	0x3d8f0a2d	0.06984363
125	0x3b40d605	0.002942444
126	0xbca1def3	-0.01975963
127	0xbd8b6f54	-0.068083435
128	0x3d8dc19c	0.06921694
129	0x3dd1c7e0	0.10243201
130	0x3c760c4f	0.015017583
131	0x3c15f977	0.009153715
132	0x3ce31c97	0.027723594
133	0xbd5e3b1a	-0.054255582
134	0xbbf918ab	-0.0076018176
135	0xbaee9bcc	-0.001820439
136	0xbd93e0c6	-0.072206065
137	0x3d461791	0.04836232
138	0xbe000b1e	-0.12504241
139	0xbd05bd65	-0.032651324
140	0x3cd629f4	0.026143052
141	0xbd85b273	-0.06528177
142	0x3cf13831	0.02944574
143	0x3d42e463	0.047581088
144	0x3e150549	0.14552797
145	0x3c5b858c	0.013398539
146	0x3a9cf683	0.0011975322
147	0xbb972f64	-0.0046138037
148	0xbda52fe6	-0.080657765
149	0x3d37be0f	0.04485899
150	0x3de60734	0.11231843
151	0x3d8bd515	0.068277515
152	0x3df036bb	0.11729189
153	0x3da996b2	0.08280696
154	0xbdd74dc5	-0.1051288
155	0x3d346c52	0.044048615
156	0xbbe69c2f	-0.0070376615
157	0xbca99410	-0.020700485
158	0x3d9c294d	0.07625065
159	0xbd9bf02a	-0.07614167
160	0x3d3347c9	0.04376963
161	0xbd8b19a1	-0.06791998
162	0xbcd3b5a6	-0.025843453
163	0x3cc66e5c	0.024222545
164	0x3cdf22e0	0.02723831
165	0x3e0ca00b	0.13732927
166	0x3d321aa7	0.04348245
167	0xbd00f957	-0.03148779
168	0xbc674cf7	-0.014117471
169	0xbb0d8ca8	-0.002159873
170	0x3d16a657	0.036779728
171	0xbd16e371	-0.036838
172	0x3b0eee04	0.002180935
173	0x3e1c0805	0.15237434
174	0x3dc6a36d	0.0969914
175	0x3d495800	0.04915619
176	0x3bb0c6b2	0.00539478
177	0x3d62d617	0.055379953
178	0xbd64cd12	-0.055859633
179	0x3d0a48bb	0.033760767
180	0xbcae94e6	-0.021311235
181	0xbdf527c2	-0.11970474
182	0xbc4b15d2	-0.012395339
183	0xbd2a3a4f	-0.041559514
184	0x3e04de5b	0.12975447
185	0xbc0272bb	-0.007961924
186	0xbd32cacc	-0.043650433
187	0xbc57e197	-0.013176343
188	0x3c5964b4	0.013268638
189	0xbc9cbd86	-0.01913334
190	0xbb92c490	-0.0044789985
191	0x3bba835b	0.0056919283
192	0x3e2062e3	0.15662722
193	0x3d45808b	0.04821829
194	0xbd95876b	-0.073012196
195	0xbd19eb1a	-0.037577726
196	0x3d09256f	0.033482965
197	0xbb1dd9ff	-0.0024086235
198	0x3dab5eec	0.08367714
199	0x3db1658b	0.08661946
200	0xbd6b5e07	-0.05746272
201	0x3d81a097	0.06329458
202	0x3d18ecc2	0.037335165
203	0x3dd00b7e	0.10158442
204	0x3bbea3a5	0.005817848
205	0x3dadb0a1	0.08480955
206	0x3c68e00c	0.014213573
207	0xbd60abba	-0.05485127
208	0xbd957fd2	-0.072997704
209	0x3d5cfb44	0.053950563
210	0xbc3f97c9	-0.011693903
211	0x3da4cc30	0.08046758
212	0x3d994a5f	0.07484888
213	0xbd0082a5	-0.031374592
214	0xbca9ffe3	-0.0207519
215	0x3d84cc9f	0.06484341
216	0xbc605cfd	-0.013694045
217	0xbc8cc88e	-0.017185476
218	0xbd56b368	-0.05241719
219	0x3ddc62d9	0.10761041
220	0x3d9d4778	0.07679647
221	0x3cd3d9e0	0.025860727
222	0xbd28a299	-0.04117069
223	0x3d924c20	0.07143426
224	0xbd6f9aac	-0.058497116
225	0x3d886e4d	0.06661663
226	0x3dbb9a22	0.09160258
227	0x3d9ddf01	0.0770855
228	0x3d72490a	0.059151687
229	0x3d8278e6	0.06370716
230	0x3dc8e14c	0.09808597
231	0x3c649086	0.013950473
232	0xbd9f227b	-0.077702485
233	0x3d780121	0.06054795
234	0xbd3ee47d	-0.046604622
235	0xbcbfbaa5	-0.023404429
236	0xbd34a6f1	-0.04410452
237	0xbd7901e6	-0.060792826
238	0x3d4e3d95	0.050351698
239	0xbc87afa0	-0.016563237
240	0x3cdecec6	0.027198207
241	0xbd89bc75	-0.067253985
242	0x3d4aed47	0.04954269
243	0xbbe2e780	-0.0069245696
244	0x3d03ba5f	0.03216016
245	0x3cc8f51f	0.024530945
246	0xbb5a9b77	-0.0033356824
247	0x3d84dbe8	0.06487256
248	0x3d35d162	0.044389136
249	0xbcb732fd	-0.02236318
250	0xbd23ddd1	-0.040006462
251	0x3d4e6206	0.05038645
252	0x3dd965c9	0.10615117
253	0x3d2739cf	0.040826615
254	0xbd7a6833	-0.06113453
255	0xbcb8884a	-0.022525925
