Assets/ML_PPO/results/headless_25/BoatAgent/BoatAgent-12345.onnx (onnx, 868044 bytes, 21 tensors)

discrete_action_output_shape f4 [1, 6]
000000 00 00 00 40 00 00 00 40 00 00 00 40 00 00 00 40
       2.0 2.0 2.0 2.0
000010 00 00 00 40 00 00 00 40
       2.0 2.0

network_body._body_endoder.seq_layers.0.weight f4 [256, 57]
000000 0a 6b f4 bd 1c 60 cb bd e9 74 ad 3c 9f 82 37 3d
       -0.119344786 -0.09930441 0.021173911 0.044802304
000010 81 53 a7 3c 88 78 8d bc 86 f7 5b 3d 45 7b 99 bd
       0.02042556 -0.017269388 0.053702854 -0.07494215
000020 fd dc c9 bd 84 b4 74 bd d2 d7 da bd 11 43 97 bd
       -0.09856603 -0.059742466 -0.10685696 -0.07385839
000030 93 e4 41 3e 86 04 bc bd 83 3c 19 3d 05 28 b8 3d
       0.1893485 -0.0918055 0.037411224 0.08992008
000040 62 2c 0c be 58 72 1b bd ce d0 df 3d 0b b5 0c 3e
       -0.13688806 -0.037950844 0.10928498 0.13740937
000050 12 47 03 3e 68 ca a0 bd 86 67 26 be fd 77 79 3e
       0.1282008 -0.07851106 -0.16250429 0.24362178
000060 33 7d 1e bd 36 17 da bd c6 f7 45 be bb 93 1b 3d
       -0.038693618 -0.106489584 -0.193328 0.037982684
000070 4a ec 64 3c 4b 0c e1 3d 6f 3c f3 bd de a5 9c be
       0.013972351 0.10988673 -0.11876761 -0.30595297
000080 c1 e2 7c bd c7 7b a7 3e d1 43 1f bc 87 f7 26 3e
       -0.061739687 0.32711622 -0.009720759 0.16305362
000090 5d 1f 1d 3e 96 08 6a 3e 6d 01 19 3d eb 47 52 be
       0.15343995 0.22854838 0.037354875 -0.20535247
0000a0 32 77 36 3e 9c 3d 26 3e 56 f7 ef bc 90 2a 00 3d
       0.17818907 0.1623444 -0.029292744 0.03129059
0000b0 ac 01 2c 3d 3e d8 5f 3d 11 a9 22 3e c3 39 0a be
       0.041993782 0.054649584 0.15884806 -0.13498597
0000c0 35 a6 77 3d 63 3d 92 3d ef 40 a2 3d 75 95 79 be
       0.06046124 0.07140615 0.07922541 -0.2437342
0000d0 27 24 df 3c bb 15 83 3d e6 b7 4f 3e dc b9 cd 3d
       0.027238918 0.06400629 0.20284995 0.100452155
0000e0 2e 85 a2 3c a7 02 e9 bd e4 40 94 3d 52 2a 18 be
       0.019838896 -0.11377459 0.072389394 -0.14859894
0000f0 28 ff 46 bc 64 0e 93 3d 17 82 1a be da a8 1b bc
       -0.012145795 0.07180479 -0.15088688 -0.009500707
000100 14 8d f2 bc a7 34 6b 3d b9 bc 01 3d de 62 9d bd
       -0.029608287 0.05742326 0.03167412 -0.07684873
000110 0e f1 90 3c 22 1b 22 3d c0 33 2a bc 8f 56 d8 3b
       0.017693069 0.039576657 -0.010388315 0.0066021155
000120 6e 33 80 bd de 39 d8 3d 20 15 d0 bc 5d b1 84 3d
       -0.062598094 0.10557912 -0.025400698 0.06479142
000130 2b 2a ad bd cb ba 8d bd 43 0c 65 3e 2e 53 0d 3e
       -0.084553085 -0.069203936 0.22367959 0.13801262
000140 19 0f f7 3b a8 b1 a9 3d 85 fc ad 3d db e4 95 3c
       0.0075396416 0.08285838 0.0849543 0.018297603
000150 9a 8b b8 3c 8f ae b7 bb ae 02 ae 3c 78 2a 88 3d
       0.022527505 -0.005605526 0.021241512 0.06648725
000160 dd bf 2b bb 57 b3 39 3d b6 25 80 3b 06 af bf 3b
       -0.0026206889 0.045337047 0.0039107455 0.005849722
000170 80 5b a8 be fd 01 e7 bd 86 93 ba bd 47 32 3c bd
       -0.3288231 -0.11279676 -0.09110169 -0.045946386
000180 8b 34 c3 3d ad 45 bf 3d d1 77 36 3d 46 49 f1 bd
       0.09531506 0.093394615 0.04454786 -0.11781554
000190 18 51 1e 3e 5f cb c6 bc fd 55 30 bd 67 71 4e 3e
       0.15460622 -0.024266897 -0.043050755 0.20160447
0001a0 e1 66 96 bd e9 e2 f6 3d 9a 14 1c 3d 91 3d d9 3d
       -0.07343841 0.120549984 0.038105585 0.10607446
0001b0 60 03 39 be 31 14 41 3e 06 39 10 be a1 50 0d bd
       -0.18067694 0.18855359 -0.14084253 -0.03450072
0001c0 4e 15 b4 bd 1c 25 af bd 99 db 40 3e 5f 12 35 3e
       -0.08793126 -0.08552 0.1883377 0.1768279
0001d0 8d c5 d2 bd c7 73 bd 3c 91 83 5d be fb 6f d9 bb
       -0.10291586 0.023126496 -0.2163222 -0.0066356636
0001e0 ab 2f 0d 3e 51 a0 22 bd 8a 3e 15 be 35 74 47 3d
       0.13787715 -0.03970367 -0.14574638 0.048694808
0001f0 9b 5f c5 3d a6 5a 04 be f4 d2 c3 3c 5e 84 a8 bc
       0.09637376 -0.12925205 0.023904301 -0.02057093
000200 8e 13 a2 3d d4 99 ca bd 42 08 97 3d b3 72 9c bd
       0.07913886 -0.09892622 0.07374622 -0.07639065
000210 c4 53 56 bd 5d de 3e 3b 29 db b8 bc cd b1 5e be
       -0.05232598 0.0029124238 -0.022565441 -0.21747513
000220 26 8b aa bd 39 dd 52 3e f5 dd 0d 3e 47 9c 49 bd
       -0.08327322 0.20592202 0.13854201 -0.049221303
000230 4a 72 77 bc f0 03 af 3b ab dc 4c 3d 1f 6b ec bd
       -0.015102932 0.0053410456 0.050015133 -0.11543869
000240 2f fb ef 3d ad 5c 12 3e 02 da c2 bd e8 a3 0b bd
       0.11717831 0.14293166 -0.09514238 -0.03409186
000250 08 9b d1 bd f6 29 7f 3e 79 d2 84 bd ee 91 81 bb
       -0.10234648 0.2491835 -0.06485457 -0.0039541638
000260 f9 86 30 be 0a e2 84 3c 15 07 27 bd 61 f2 01 bd
       -0.17238988 0.016221065 -0.04077824 -0.03172529
000270 19 48 59 bd 92 ad 29 bd 35 bf 45 bd 06 21 39 3e
       -0.053047273 -0.041425295 -0.048278052 0.18079004
000280 01 96 30 be d3 96 3f 3e 1a cf 64 bd 91 08 a5 bc
       -0.17244722 0.18709879 -0.05586157 -0.020145686
000290 3b 2a 5b be 03 ac 08 3e d8 34 14 bd 51 fa 0f 3e
       -0.21402828 0.13346867 -0.03618321 0.14060332
0002a0 96 b3 61 3e 73 ad 7f 3d c0 81 8d 3e f0 c3 c4 bd
       0.22041163 0.062421273 0.27638054 -0.096076846
0002b0 63 0f f9 bd 05 3f 8a 3e fe 82 b5 3d 08 dc 48 3e
       -0.12161138 0.27001205 0.088628754 0.19615185
0002c0 7f 55 b8 3d 7a 75 3a be 07 a0 35 3d ff 1a a4 3d
       0.09000682 -0.18208876 0.044342067 0.080129616
0002d0 c4 17 4d 3d f4 12 a3 3d 12 24 15 3e f6 66 25 3e
       0.050071493 0.079625994 0.14564541 0.16152558
0002e0 5b b5 29 3e 30 83 1e 3d d8 ec 2d bc f7 de 00 be
       0.16573088 0.03869933 -0.01061555 -0.12585054
0002f0 db 06 3a 3e 1e 3e 9e bd 69 be c0 bd 14 80 8b bd
       0.18166678 -0.07726692 -0.09411318 -0.06811538
000300 17 57 84 be 8e 20 d1 3d d3 4c 22 3e 9a fd 49 be
       -0.25847694 0.102112874 0.15849619 -0.19725648
000310 be 79 82 be 51 80 de bd 95 2a 4b be e7 6e 10 3e
       -0.25483507 -0.10864318 -0.19840463 0.14104806
000320 46 de 0a bd 14 d1 91 bb ee b5 34 bd c9 85 8c 3e
       -0.033903383 -0.004449973 -0.044118814 0.2744582
000330 6b 09 99 bc 26 79 2d 3d 60 19 a5 3d 70 bc 58 3d
       -0.018681249 0.042351864 0.080614805 0.052914083
000340 6d 19 c5 bd 3e ec cc 3c 5a f2 e5 3d 12 ff 5a be
       -0.0962399 0.025014993 0.112278655 -0.21386364
000350 60 d3 ac 3d 5b c7 eb 3d 08 5d 2e be 2a 0b 94 3e
       0.08438754 0.115126334 -0.17027676 0.28914768
000360 e1 a9 87 bb 42 80 76 3a 9e 4d 0c be dc 96 13 be
       -0.004140124 0.0009403267 -0.13701484 -0.14413017
000370 4f 74 83 3e b8 1c 9b bd 57 e6 3b 3d fc e2 4e 3d
       0.25674674 -0.07573837 0.045873966 0.050509438
000380 09 1f 68 be 2a 29 7c bd 75 76 f2 3b 76 d9 1c bd
       -0.22668089 -0.061562695 0.007399375 -0.038293324
000390 70 ea 0e 3e d7 8d 42 be e5 06 8c bd 97 53 46 be
       0.13956618 -0.1899942 -0.068372525 -0.19367824
0003a0 86 0b 27 be 8e ac 93 3d ac 84 29 be d6 c2 24 bc
       -0.1631299 0.072106466 -0.16554517 -0.010056218
0003b0 15 83 51 be a8 52 ec bd 46 e8 66 3e 5c 16 f1 3d
       -0.2046016 -0.11539203 0.22549543 0.11771843
0003c0 bf e3 7f bd f6 bb 59 be 32 84 aa be f7 b7 71 3e
       -0.062473055 -0.21263108 -0.33303982 0.23605333
0003d0 bd 12 32 3d 88 27 12 bd 20 d3 b9 bd 22 a3 48 be
       0.0434749 -0.03568223 -0.09073472 -0.1959348
0003e0 84 2c 2a be a4 0c 83 3c d4 06 97 bd a5 e5 37 be
       -0.16618544 0.015997238 -0.07374349 -0.17958696
0003f0 be 95 c3 3d 06 58 5a 3d ec 4e b8 3c c2 b8 d7 3d
       0.095500454 0.053306602 0.02249857 0.10533287

network_body._body_endoder.seq_layers.0.bias f4 [256]
000000 b3 66 58 3c 49 b5 c0 bc e2 48 a9 3c 1f 32 0f bb
       0.013208079 -0.023523943 0.020664636 -0.0021849943
000010 33 25 94 3c 37 d6 ad 3b e1 ee fb bc cc e9 7b 3b
       0.018084144 0.0053050774 -0.030753555 0.0038438914
000020 71 76 06 bd 9d f5 d8 3c ed 46 14 3c 2b db f1 bc
       -0.0328278 0.026484305 0.009050113 -0.029523453
000030 1a 58 13 bc 47 29 1a bc 87 91 42 bc c2 a7 cf 3c
       -0.008993173 -0.009409255 -0.011875517 0.025348548
000040 5e 0d e2 bc 70 26 9e bb 98 29 cf 3b 5e 94 da 3b
       -0.027594265 -0.0048263595 0.006322097 0.006670519
000050 f9 fd e3 bc b9 31 1a bc c2 45 03 bd 2c 70 87 bb
       -0.027831065 -0.009411269 -0.032048948 -0.004133245
000060 1c fd 18 bc 85 9a a2 bc f3 33 2c 3a de 34 23 bb
       -0.00933769 -0.019849071 0.00065690203 -0.0024903337
000070 0a c3 79 3b 9e 65 6d bb 27 2c fc bb 96 c7 aa bb
       0.0038110637 -0.0036223899 -0.007695693 -0.005211781
000080 45 b3 15 ba d8 18 93 3c c3 8f fa 3b 49 d2 07 3c
       -0.0005710612 0.017956182 0.0076465323 0.008289882
000090 a4 a0 08 bc bd 4d c5 bc 91 4b ba bc af dd 22 3b
       -0.008339081 -0.02408492 -0.022741111 0.0024851372
0000a0 8b cb 62 bb a7 94 02 3c bd 0c db bc fc 7b e1 3b
       -0.0034606184 0.007970012 -0.026739473 0.006881235
0000b0 3c 9d 15 bc 6c 3d 7f 3c 36 00 92 bc 7e fd 74 3c
       -0.009131726 0.015578609 -0.017822366 0.014953015
0000c0 47 d0 9c 3b 11 ad 85 3b 95 04 e1 3b c2 0d 26 bb
       0.004785571 0.004079469 0.0068670013 -0.002533779
0000d0 f2 4b e1 3b e6 39 8d bb 74 0e a8 3a f0 0f 19 bd
       0.0068755085 -0.0043098805 0.001282169 -0.037368715
0000e0 a6 86 57 bb b7 d3 ab 3b 2b 4f e4 3b cd 31 d0 3a
       -0.0032886653 0.0052437442 0.0069674454 0.0015883982
0000f0 06 ef e1 bc cf b3 72 bc 96 51 ce bb 66 ba 36 bc
       -0.027579796 -0.0148133775 -0.006296347 -0.011152839
000100 78 e8 2f bc 8b 8e e8 3b 78 10 18 3b 99 bf 02 bd
       -0.010736577 0.0070970706 0.0023203176 -0.031921003
000110 d1 67 17 3a 88 80 e6 bc db dc c1 3a 40 fb 8d bb
       0.0005775663 -0.02813746 0.0014790552 -0.00433293
000120 bd ec 95 bc cb ad e3 ba 94 0c 14 3c 47 78 81 3a
       -0.018301362 -0.001737052 0.009036202 0.0009877764
000130 5b 10 9d bc bb fe fe 3a 5c 50 01 bc 1a a4 eb 3b
       -0.019172838 0.0019454578 -0.007892694 0.0071911933
000140 d4 b6 df 3b fa ce 8c 3a 4e a9 05 bd c6 10 69 3c
       0.0068272147 0.0010742836 -0.032632165 0.0142251905
000150 6f c5 b2 bb f0 60 1b 3d 2e 57 2f bc aa 53 8e 3c
       -0.005455665 0.037934244 -0.010701938 0.017373879
000160 a4 e4 27 bb 71 b0 24 bd 60 14 89 3b 4c 7a 55 bb
       -0.0025618458 -0.04020733 0.004183337 -0.0032574115
000170 22 5a 00 bc a4 d5 00 bc 02 f2 9f bc 7d 16 ae bc
       -0.007833989 -0.007863436 -0.019524578 -0.021250958
000180 87 a4 5a bb f8 ea 1e 3b 56 2f 42 ba 06 df 23 ba
       -0.0033362226 0.002424894 -0.00074075663 -0.00062511896
000190 d7 10 a8 3b ff e4 69 3c 0e cf f4 bc 47 39 f9 3a
       0.0051289606 0.014275788 -0.029883888 0.0019014262
0001a0 e2 2c 99 3c e9 b4 e6 3c 7c 60 c8 3b 5c 72 12 bd
       0.01869816 0.028162437 0.0061150175 -0.035753593
0001b0 2d e7 42 3b 70 0b 33 bb db b2 5e 3b e0 f3 f3 bc
       0.0029739842 -0.002732005 0.0033981118 -0.029779375
0001c0 d5 c3 94 bc 93 de c8 3b f2 26 83 3c 0c 39 3e 3c
       -0.018159786 0.0061300485 0.016009782 0.011610281
0001d0 e0 68 de 3b 0e fe 99 bc ff e2 c3 bb 1f 2d 0e bb
       0.0067874044 -0.0187979 -0.005977988 -0.0021694375
0001e0 4d db 0a 3c bc 93 51 3c 67 02 3d bc e1 85 9f bb
       0.008475137 0.01279157 -0.011536217 -0.0048682545
0001f0 ce 8f c3 3c 99 7b ae 3c 6e 8e c1 3b 45 2b 88 bc
       0.023872282 0.02129917 0.0059068715 -0.016622195
000200 16 b5 29 3b 66 a4 d8 bb a4 e7 83 bc c3 78 c7 bb
       0.002589529 -0.0066113947 -0.016101666 -0.006087394
000210 07 d1 7b 3c 84 4f 6d 3b bc a9 1f 3c 04 fe 39 bd
       0.01536966 0.0036210725 0.009745058 -0.045408264
000220 99 8d db bb 4a 99 6b bb 8e 23 28 3b d3 40 e6 bc
       -0.0067002294 -0.0035949522 0.0025655958 -0.028107082
000230 9d 10 31 bb fc 3c 5c bc 3d 45 2e 3c 76 cc e0 3b
       -0.002701796 -0.013442274 0.010636625 0.006860311
000240 b3 17 fa 3a 24 68 4d ba 6f 4f 3a ba c3 0b 98 3c
       0.0019080549 -0.00078356476 -0.00071071734 0.018560296
000250 e6 6f 23 3c fe d2 71 3c c7 53 f0 ba c3 e3 82 bc
       0.009975409 0.014759777 -0.0018335514 -0.015977746
000260 bb 22 57 3c 9a d1 f9 b9 e3 d6 17 39 28 11 d7 bb
       0.013130839 -0.00047649146 0.00014480534 -0.0065633245
000270 ac ec 78 bc 01 f7 d5 bb d2 c4 84 3c 7f 1a 42 bb
       -0.015193146 -0.0065296893 0.016207132 -0.0029617844
000280 8e f1 83 bc ef fd 56 3c 96 94 e0 bc 2e 59 62 3c
       -0.016106393 0.013122066 -0.027414601 0.013815207
000290 35 f9 3f 3c cd 4c 01 bd 55 3b 0f bb e0 f2 a3 3b
       0.01171713 -0.031567384 -0.0021855433 0.005003318
0002a0 38 77 48 bc 10 5c 86 bc 8e 67 2b 3c 55 71 f3 bb
       -0.012235455 -0.01640132 0.010461701 -0.0074292817
0002b0 9d 0c eb bb 03 71 0b bb 76 39 cc 3b 6e 1b 1a 3c
       -0.0071731345 -0.0021277077 0.006232436 0.009405954
0002c0 28 c4 5c bc db 95 05 3c 48 ff 24 3c cd af 83 3b
       -0.013474502 0.008153404 0.010070629 0.00401876
0002d0 0f 69 1a bc dc ff 8b 3b ad b2 9d bc 8b bc 50 3c
       -0.009424462 0.004272444 -0.019250238 0.012740265
0002e0 44 13 a7 3b 3c 9c 62 bc 51 c3 07 3b 84 9f c3 bc
       0.005098732 -0.0138311945 0.0020715783 -0.023879774
0002f0 96 f3 8b bc 59 59 87 bc 18 e4 69 3b 12 6b 64 bc
       -0.017083924 -0.016522096 0.0035688933 -0.013941543
000300 f2 08 08 bd 05 0e b1 bc ad de d5 ba d5 b6 f5 bb
       -0.033211656 -0.02161313 -0.0016316973 -0.007498602
000310 ae 83 bc 39 d1 b7 ab 3b 2c e1 80 3b 36 09 2e bb
       0.00035956263 0.0052404185 0.0039330926 -0.0026555783
000320 46 9e 96 bb c6 b6 73 3c 4e 6f c3 3a 07 1a 81 bc
       -0.0045965044 0.01487512 0.0014910491 -0.015759481
000330 41 86 c4 3b 2f a7 97 bc 4b 2b 87 bb 3a 55 20 3c
       0.0059974496 -0.018512337 -0.004125034 0.009785945
000340 f5 fb e8 3b 89 57 a4 3a 31 5a 57 3c ae 91 f9 3a
       0.0071101137 0.0012538295 0.013144062 0.0019040608
000350 c4 a5 2b 3b be ca f4 bc 9c 4f 82 3b ff ba 95 bc
       0.0026191333 -0.029881831 0.0039767753 -0.018277643
000360 25 93 0b bd 6c 5e 41 ba b4 b8 de bb 36 0f 16 bb
       -0.034075875 -0.00073764357 -0.0067969207 -0.002289725
000370 57 74 6b 3b fa 20 f1 bc 52 5e 97 3a a9 35 6a 3b
       0.0035927498 -0.02943467 0.0011548495 0.003573755
000380 2f 02 08 bc ae 15 e7 bc d3 61 a0 3c 29 72 90 39
       -0.008301302 -0.02820858 0.019577896 0.00027550876
000390 61 0a 68 bc 3b a9 bd bc 83 f8 00 bc 21 1a 2e 3c
       -0.014162631 -0.023151984 -0.00787175 0.010626347
0003a0 87 0f e8 3b 18 a7 c2 bc a8 4b 2d bc db fd a1 3b
       0.007081929 -0.023761317 -0.01057712 0.004943592
0003b0 6a e4 73 3b a6 d1 63 bc 24 48 ee 3b ca 8e bb bb
       0.0037215003 -0.013904965 0.0072717834 -0.005723809
0003c0 e8 49 22 bc 06 bf 98 ba e9 91 10 bd 5d 71 06 bc
       -0.009905316 -0.0011653609 -0.0352954 -0.008205739
0003d0 a6 12 95 3b 78 5b 8c 3b fd c7 a0 3c 21 39 2f 3c
       0.004549342 0.004283365 0.019626612 0.010694773
0003e0 a8 75 db bb dd d6 8e 3c 71 34 89 3c df 15 85 3c
       -0.0066973753 0.01743644 0.016748639 0.01624578
0003f0 f4 67 84 3b 7a 84 9c 3b 50 5b 5b 3c e8 44 fc 3b
       0.0040407125 0.0047765346 0.01338847 0.007698644

network_body._body_endoder.seq_layers.2.weight f4 [256, 256]
000000 df 82 1e 3c 3d 70 50 3c f9 a8 41 bd ca e0 aa 3c
       0.009674757 0.012722072 -0.047280286 0.02085914
000010 c2 9a 07 be ab e8 2b bc 4c dd 90 bd f2 7b e0 3c
       -0.13242629 -0.010492484 -0.07073459 0.027402852
000020 45 41 1a 3d 8b e3 80 3d 73 24 09 3d 0c cd e1 3c
       0.037659902 0.062934004 0.033482026 0.027563594
000030 5b c3 22 bd 7c fb 30 bd 88 f6 4f bd 15 35 38 bd
       -0.039737087 -0.043208584 -0.05077222 -0.044972498
000040 26 65 88 bd 96 69 62 bc bd 2f 07 3d 47 43 8e 3d
       -0.066599175 -0.013819119 0.03300451 0.06946426
000050 a8 bd a5 bd 4c c6 b2 bd de 4a b8 bd 31 da f3 3d
       -0.08092815 -0.087292284 -0.08998655 0.11906851
000060 f1 d0 f7 3d 84 fa 44 3d fa f9 33 3d 27 89 95 3d
       0.12100399 0.048090473 0.043939568 0.0730155
000070 03 d4 b7 bc 93 03 ca bc 44 d3 cd 3d fc d3 c1 3d
       -0.022439962 -0.024659907 0.10050061 0.09464261
000080 37 ff 1f 3d 83 ab 31 bc ba 26 14 3b 17 e1 92 3b
       0.03906175 -0.010844114 0.002260609 0.004482399
000090 8c 0c 1d ba 01 34 a5 bb 15 e2 44 3d 4a 34 17 bd
       -0.00059909443 -0.0050415997 0.04806717 -0.0369151
0000a0 17 79 a3 3d ee 5c 8a bd 67 22 34 3d 72 fb f2 3d
       0.079820804 -0.06756006 0.04397812 0.11864366
0000b0 5d a0 cb bb 08 d3 35 3e b3 a2 53 3d 49 3f 8a bb
       -0.006214185 0.17756283 0.051668834 -0.00421897
0000c0 0c 97 01 bc 7e dd 3b bd 36 75 00 3e 37 56 87 bc
       -0.007909548 -0.04586553 0.12544712 -0.016520603
0000d0 68 3b 90 bd 4d f9 8d bd 6c 22 45 bd fe 99 bf bd
       -0.07042581 -0.06932316 -0.04812853 -0.093555436
0000e0 7e 47 51 bd 89 42 3d bd 2a c1 93 3c 6b c4 73 bb
       -0.05109357 -0.04620603 0.018036444 -0.0037195932
0000f0 33 68 c9 3b a6 f6 d6 3d 31 6a 93 bd e0 48 50 3d
       0.0061464547 0.10496263 -0.07197989 0.05085075
000100 48 d7 87 bc 9a 3a 86 bd a6 15 a6 3a 48 72 3e bd
       -0.016582146 -0.06554146 0.0012671247 -0.046495706
000110 f5 3f 74 bd d2 87 15 3d 38 25 e5 bd 82 6e fb bc
       -0.059631307 0.03650648 -0.111887395 -0.030692343
000120 b0 76 97 bd 6e bd 01 3e 39 57 1b 3e 6d 08 80 bb
       -0.07395685 0.12669918 0.15169992 -0.0039072544
000130 fb 0a 0f 3e af 9c eb bd ed 1a 91 bd 41 ff 7e bd
       0.13969032 -0.115044944 -0.07085214 -0.062255148
000140 81 8a cc 3d 68 bf 98 3d d3 39 e0 bd a3 df 98 3d
       0.09987355 0.07458383 -0.10948529 0.0746453
000150 b2 42 51 3d a3 9a 90 3c d6 6b b1 bd c1 dc 2b 3c
       0.051088996 0.017651862 -0.08663146 0.010489644
000160 e5 17 a3 bd 66 f0 b0 3c f3 1d 8b bd 10 88 0c bd
       -0.07963542 0.021599006 -0.06792822 -0.034309447
000170 be cf 5f 3c 85 b4 62 3d 39 93 bd bb f3 ec f3 3c
       0.013660369 0.055347938 -0.0057853726 0.029776072
000180 a6 fa 56 bd 65 83 d5 3c ac f6 ef bd be 4f 54 3b
       -0.05248513 0.02606363 -0.11716971 0.0032396163
000190 00 d1 8b bd 44 89 7c 3d cd 7d 4f 3c 7a 6e cf bd
       -0.06826973 0.061654344 0.012664271 -0.101284936
0001a0 39 90 9d 3d f2 62 7f 3d da 6a e4 bb 67 9c d5 bc
       0.07693524 0.06235022 -0.0069707455 -0.026075555
0001b0 4f 1d ce 3c 61 bd b1 3d 86 23 e9 3c 23 d4 ff 3c
       0.02516046 0.08678699 0.028459322 0.031229084
0001c0 17 98 d2 3b 16 20 57 3d 01 59 8b bb bd ac 2a be
       0.006426822 0.052520834 -0.0042525535 -0.16667457
0001d0 53 b2 1e bd 87 2d 35 be 76 32 98 bc c0 07 e1 bb
       -0.038744282 -0.17693149 -0.01857875 -0.006867379
0001e0 74 93 5d bd 24 54 12 3d da b9 79 bd 7c 83 2c 3d
       -0.0540957 0.035724774 -0.060968257 0.04211758
0001f0 81 e7 8a 3d 2d 26 b6 3d 41 a6 0a 3d a3 9f 3c bd
       0.06782437 0.08894 0.03384996 -0.04605068
000200 fe fb 80 3d c1 b9 a4 3b fa 7c af 3c 9d d6 35 bc
       0.06298064 0.0050270264 0.021421898 -0.011098531
000210 cd 2f a6 bd e2 6c bb 3b b8 7d ac 3d df 27 96 bd
       -0.08114586 0.005719767 0.084224164 -0.073318236
000220 55 96 6b 3d d6 92 11 3d 3d 28 af bd 08 8e 93 bb
       0.057516415 0.035540424 -0.08552597 -0.0045030154
000230 f2 b7 c6 bd 85 4a 62 bd 1b a1 9a bd 2b 2b 30 bc
       -0.097030535 -0.05524685 -0.0755026 -0.01075248
000240 d2 14 fd 3c 9e 86 35 bc 98 14 a0 3d 11 a9 ac 3b
       0.030893717 -0.0110794585 0.07816428 0.0052691777
000250 11 5d a0 bd ff 2c 66 bc 85 9f 23 3d fe a9 af bd
       -0.07830251 -0.014048814 0.03994705 -0.08577345
000260 f3 af 0b bc f1 6c 9e 3d eb fc 8d bc a5 2a 62 3d
       -0.008525836 0.07735623 -0.017332515 0.05521645
000270 52 02 8d 3b 91 f2 5a bb 46 d7 9c 3b 05 54 28 bd
       0.004303255 -0.003340874 0.004786405 -0.041095752
000280 d3 20 c7 bd 69 0b 64 bd bf 7d fd 3c 74 30 d0 3c
       -0.097230576 -0.055674944 0.03094375 0.02541373
000290 a0 22 55 bc e3 2e a0 3d d0 d3 b0 bd cd 6e 59 3d
       -0.0130087435 0.07821443 -0.0863415 0.053084183
0002a0 ea 3e 5f bb 68 38 83 bd be 55 62 3c 05 72 4c bc
       -0.00340646 -0.06407243 0.013814388 -0.012478356
0002b0 1d f9 22 bc c0 10 eb bd 84 85 3b 3e be 36 37 3d
       -0.009947089 -0.11477804 0.18312651 0.04472994
0002c0 97 dc 49 bd ba e1 61 bd 39 1b 09 bd a9 52 53 3c
       -0.049282636 -0.05514691 -0.033473227 0.012898126
0002d0 98 7c 4c bd 1c f2 22 be 0a 96 c2 3d 3b 18 7d 3c
       -0.04992351 -0.1591267 0.09501274 0.0154476715
0002e0 89 29 82 bd 95 09 29 3d 79 49 82 bd e1 ca be bd
       -0.063555785 0.041268904 -0.0636167 -0.0931604
0002f0 e6 aa 1d be a1 ed 51 3b 0f 01 56 bd 16 08 05 bd
       -0.15397224 0.0032032507 -0.052247103 -0.032478414
000300 94 82 d8 bc 7c a6 3c 3d e5 3e 22 3d 81 da 6e 3d
       -0.026429452 0.04605721 0.039610762 0.05831385
000310 79 ce 84 bd 11 d0 e0 bb 07 20 49 3c c5 3c ca 3d
       -0.06484694 -0.006860741 0.012275702 0.09874872
000320 7e 0a 2e 3d 7f b6 c1 3d b1 d5 ce 3d 90 4c 5b bd
       0.042490475 0.094586365 0.10099352 -0.053539813
000330 9c 9e 34 bd 9e 68 1b bd 94 fa c5 3d e9 7c 46 3d
       -0.044096574 -0.037941568 0.096669346 0.048458967
000340 72 be 09 3d 4c bc 0d bc e0 40 ee bb 04 61 af 3d
       0.03362889 -0.0086508505 -0.0072709173 0.08563426
000350 36 1e a7 bc d6 e9 8a bd 21 3c 20 3d 85 1c 26 bd
       -0.020400148 -0.06782882 0.039119843 -0.040554542
000360 25 67 fe bc d1 47 12 3d f8 60 dd bd 3b db 35 bd
       -0.031055043 0.03571302 -0.10809511 -0.044398528
000370 6e e4 8f 3d 8f aa b4 bc 40 de 43 bd a4 6b c0 3c
       0.070259914 -0.022053985 -0.047819376 0.023488827
000380 a2 b6 00 3d f6 f6 b8 3d 77 ed d3 3c 97 bd 41 bd
       0.031424172 0.09031479 0.025870068 -0.047299948
000390 cd 5a e0 bd 80 89 5c 3d be 30 c0 3d 07 7b 02 3d
       -0.10954819 0.053842068 0.09384297 0.03185561
0003a0 2c cc 88 bc 4c be 5c bd d7 b0 67 bd ae 9a 61 bd
       -0.01669892 -0.05389242 -0.056565132 -0.055079155
0003b0 ca f9 db 3d c5 79 67 bd 18 1c 5c 3d ae 20 c1 bc
       0.10741003 -0.056512613 0.05373773 -0.023575153
0003c0 d1 d2 84 3d b2 1e e3 bb 31 07 c9 3c 12 b0 96 3d
       0.064855225 -0.0069311494 0.024539562 0.073578015
0003d0 84 1a ae bc 6c 0a 94 bc 3c 6d f9 bc 20 50 95 bd
       -0.021252878 -0.018071376 -0.030447595 -0.07290673
0003e0 20 e0 9f bd f7 b0 4f ba 54 e4 30 3d dd eb f3 3c
       -0.0780642 -0.0007922793 0.0431865 0.029775554
0003f0 ea 0b 0e bd 0b 5a d9 3b be 44 37 3d 94 a7 82 bc
       -0.03467933 0.0066330484 0.044743292 -0.015949048

network_body._body_endoder.seq_layers.2.bias f4 [256]
000000 ff b2 61 3c 7b 32 30 bc 6e 52 62 3b 27 39 ab 3c
       0.013775586 -0.010754223 0.0034533995 0.020901276
000010 24 24 8e bb bb 0d 51 3c 5a 94 0c 3c e1 5f 9f bb
       -0.0043378044 0.012759621 0.008580292 -0.0048637246
000020 a0 af b6 3b 16 bf b4 bc 4e be 1d 39 f3 bb a3 bb
       0.0055751354 -0.022063773 0.00015043581 -0.0049967705
000030 04 2d df bb 72 f1 29 bc 89 f9 84 bc 17 83 e2 bc
       -0.006810786 -0.010372506 -0.016232269 -0.0276504
000040 32 85 88 bc ac f3 12 bd 1b 13 b7 3a 53 c4 4f 3c
       -0.016665075 -0.035876915 0.0013967486 0.012681085
000050 6a 29 c6 bc ad 4a c5 bb dc 56 70 bb e7 cf 4f 3c
       -0.02418967 -0.006020865 -0.0036672866 0.012683845
000060 79 ed 82 3c 21 dd e3 3b 10 68 45 3b d2 f0 f7 bb
       0.015982376 0.006953851 0.003012184 -0.00756655
000070 0a 1a 5e 3c 76 29 ef bc 3c dd 14 bb fe 0a b8 3c
       0.013556013 -0.029194575 -0.0022714874 0.022466179
000080 6b 71 72 bb b0 8c 13 3c 01 e1 13 bd bb 75 38 bb
       -0.0036993872 0.0090057105 -0.036103252 -0.0028146345
000090 be 4d 7b 3b 58 ce ca bc 3a f9 5b bc cb 29 94 bc
       0.0038345899 -0.024756595 -0.013426119 -0.018086335
0000a0 f6 6a 8a bb 41 1a 17 bb 14 73 c0 3b b5 e6 89 3c
       -0.0042241765 -0.002305642 0.0058730934 0.016833642
0000b0 1e 79 62 bb 38 b6 ca bb 58 ef 5a 3c c1 4d 18 3c
       -0.0034557055 -0.006186273 0.013362728 0.009295882
0000c0 30 48 00 bd 5c 6a 06 3b df 09 fe bc 9d 3d 6b 3c
       -0.031318843 0.0020510172 -0.031010566 0.0143579515
0000d0 92 07 d7 3a 05 ce d8 3c a7 4f d8 3b 50 70 5d 3c
       0.0016405454 0.026465425 0.006601292 0.013515547
0000e0 80 ea 15 3c 7e e8 73 3b 65 cf 65 3c 19 54 a8 bc
       0.009150147 0.0037217434 0.0140264975 -0.020547913
0000f0 cd c7 23 3c ce c1 af ba e7 f0 4f 3c 6c 49 04 bd
       0.009996367 -0.0013409199 0.012691713 -0.032296583
000100 7c 0a ab 3c da 93 5e 3c d9 b0 b8 bc e6 34 82 bc
       0.020879023 0.013585055 -0.022545265 -0.015894365
000110 ca dc da bc 0b 53 de bc 2a 5a 06 3c be cd 63 ba
       -0.026716609 -0.027139207 0.008200208 -0.0008690021
000120 85 a9 8f 3c 52 7c 31 bb 51 41 a0 3b 3f f0 d2 3b
       0.017536888 -0.0027082157 0.004890599 0.006437331
000130 dc 48 dc bb 7e be 36 ba fc a6 be 3b c8 33 3c bc
       -0.0067225527 -0.00069711346 0.005818246 -0.011486955
000140 10 d9 66 bb 29 96 de bc 55 d9 a0 bb a3 b3 1c bc
       -0.0035224594 -0.027171211 -0.0049087205 -0.009564313
000150 7c 4b 0d 3c 7f e2 53 3c 33 36 0f 3c c1 b0 82 bb
       0.008623954 0.012932419 0.008740949 -0.003988356
000160 2a 8d 05 bd 18 a3 ee bc e8 22 cd bc 3f 05 30 3c
       -0.032605328 -0.029130504 -0.025041059 0.010743438
000170 e7 13 c2 bc d2 85 5c 3c 8c 04 a8 3b 53 b8 82 bb
       -0.02369113 0.01345964 0.005127495 -0.0039892583
000180 61 8c 33 3c dc c9 7e bb b9 1f 9b 39 e8 1c 07 bd
       0.010958762 -0.0038877642 0.0002958754 -0.03298655
000190 af a7 cf ba e2 fd 17 bd ad b8 a5 bb f9 9c 5b bc
       -0.001584282 -0.037107356 -0.0050574155 -0.013404124
0001a0 bc e1 33 bb ab e7 cf 3b 14 e4 e5 3a 49 ba 8d bc
       -0.002744778 0.0063447556 0.0017539286 -0.017300742
0001b0 57 5d ef bc 5f 6d 80 3c 95 9e cd bc 76 3b f3 bb
       -0.029219313 0.015677152 -0.025100032 -0.00742286
0001c0 1c 3e 22 3c 5f 35 1f 3c 0f 17 87 bc da 73 06 3c
       0.009902503 0.0097173145 -0.016490487 0.008206332
0001d0 53 c3 06 bd 3a b4 8b 3c 59 7d 69 3c 43 d3 0c bd
       -0.03290112 0.017053712 0.014251077 -0.034381162
0001e0 b2 15 6b 3b 70 e5 3f 3c c5 26 de ba 5a 56 01 3b
       0.0035871086 0.011712417 -0.001694881 0.0019735307
0001f0 f6 74 50 bc cd 14 c3 3b 6b 57 c7 3b c5 24 ab bc
       -0.012723198 0.0059534074 0.006083419 -0.020891557
000200 24 f4 ce 3b f3 f5 93 bc 5f 4d 9f 3b 57 b2 24 bc
       0.006315725 -0.018061614 0.0048615183 -0.010052285
000210 59 7b 11 3c e7 86 b0 bc ec 8d e9 bc ad 34 0d 3c
       0.008879506 -0.021548701 -0.028510056 0.008618516
000220 a7 3e 64 3c 07 f8 b1 bb f0 8a 66 3b c5 49 ab 3b
       0.013930953 -0.0054311785 0.0035178028 0.0052273
000230 e7 2b d6 3b 4e 06 ea bc bb e3 80 3c c9 a5 2f bc
       0.0065359953 -0.02856746 0.01573359 -0.010720679
000240 88 7b 36 ba 80 15 00 bd a0 d1 76 3c 99 b3 10 bd
       -0.00069611566 -0.031270504 0.015064627 -0.035327528
000250 4f 5b de ba 97 aa 42 3a 4b f9 61 3b 1b 79 e8 3b
       -0.0016964468 0.00074259326 0.0034480866 0.007094515
000260 e8 ff bf bb bf c2 c5 3a 88 df 8d 3c 36 c1 bb 3b
       -0.005859364 0.0015087946 0.017318502 0.0057298196
000270 00 26 5a bb 88 a4 7e 3c ad de ad bb 01 0f 04 bd
       -0.003328681 0.015542157 -0.005306086 -0.03224087
000280 7e 3c 99 bb 14 e8 42 bb c0 99 ed 3a 48 47 cb ba
       -0.0046764007 -0.002974038 0.0018127486 -0.0015508914
000290 3c 67 4d 3c ef 92 a4 3c b5 1d 4d 3c df 0f 0b bd
       0.01253682 0.020089595 0.01251929 -0.033950683
0002a0 2b b6 c2 3a 7f 41 48 bc 03 a1 3f bb cb c4 af 3b
       0.0014855316 -0.012222647 -0.0029240258 0.0053640357
0002b0 ec 92 e1 bb 92 ea 35 3c 5a 55 02 3c e8 9d 40 3b
       -0.0068839695 0.011103289 0.00795492 0.0029390994
0002c0 df c0 74 3b 0e cb 5a 3c 5c e2 eb bc 87 bc 02 bc
       0.0037346405 0.013354076 -0.02879446 -0.007979519
0002d0 19 dd 5e 3c 96 17 24 bc bd 0d 6a 3b 15 aa 18 bb
       0.0136025185 -0.010015389 0.0035713755 -0.0023294736
0002e0 82 13 08 bd 8c 01 8a 3b e9 af 02 3b 14 37 1f 3c
       -0.03322173 0.00421161 0.0019941276 0.0097177215
0002f0 19 7f 36 bc f6 41 72 3c 07 22 3c 39 40 05 14 bc
       -0.011138701 0.014786234 0.00017941753 -0.009034455
000300 6c 69 c9 3c ec 2b 7c bc 04 e8 30 ba 72 c8 84 bc
       0.024586402 -0.015391331 -0.000674844 -0.016208861
000310 72 3c d9 bc 96 01 af bc 94 23 d4 bc 5e 19 00 3c
       -0.02651808 -0.02136306 -0.025895871 0.007818548
000320 a8 0a 02 bd f7 00 16 3c c1 9e 18 3c 44 ad bc 3b
       -0.031748444 0.0091555035 0.009315194 0.0057579596
000330 2d 0f 26 3c 94 e0 31 3c d1 b0 dc bb 30 b1 a2 bc
       0.010135454 0.010856766 -0.0067349453 -0.01985988
000340 26 aa 2a bc e4 89 8e bc b0 1a 97 bc 72 5b 98 3c
       -0.010416543 -0.017399736 -0.018445343 0.018598292
000350 d1 4a 52 3c b0 05 dc bc 96 4e 3e bc 16 1c a8 3b
       0.01283522 -0.02685818 -0.011615416 0.005130301
000360 38 4c 88 3c 33 5e 1f bc a8 e6 2f 3c f0 fe d2 bc
       0.016637906 -0.009727049 0.010736145 -0.02575633
000370 45 1e 06 bc 49 31 c9 bc 17 2f f9 bc 8b 2c 57 3c
       -0.008185928 -0.024559634 -0.030417962 0.013133178
000380 bd 11 63 bc ce b8 9a 3a 21 97 d4 ba 59 0e 86 bc
       -0.01385921 0.0011804344 -0.0016219356 -0.016364263
000390 af e7 b7 3b d3 e2 2c 3c a4 f6 df bc 3e 86 78 bc
       0.0056123356 0.010552126 -0.027339287 -0.015168725
0003a0 2a 85 58 bc 7a d4 51 3c 76 50 0f 3b 5a 44 ee bc
       -0.013215343 0.012807006 0.0021868027 -0.029085327
0003b0 8c e2 9a ba 16 1f 63 bc 05 ef 33 3c 1c 4d 3c 3c
       -0.0011816784 -0.013862392 0.01098228 0.011492994
0003c0 58 42 07 bd 62 35 1c bb bd aa 81 3a 96 79 8e bc
       -0.033022255 -0.002383553 0.0009892803 -0.017391961
0003d0 b4 36 cd bc 23 1d ab bb e1 9d e2 bc 3b b9 d2 3c
       -0.025050499 -0.005221979 -0.027663173 0.02572309
0003e0 0b 68 cb bc dc 8a cf 3b 4f a9 36 3c f2 ee f2 bc
       -0.024829885 0.006333692 0.011148765 -0.029654954
0003f0 74 41 a1 3c 5a e3 86 3c b9 01 0b bc 68 db f1 bb
       0.01968453 0.016465832 -0.008484297 -0.0073808916

network_body._body_endoder.seq_layers.4.weight f4 [256, 256]
000000 66 44 33 3d aa 2f de 3d 5c b5 a4 3d ae 3e 39 bd
       0.0437664 0.10848935 0.08042404 -0.04522579
000010 93 67 6f bd 03 29 a3 3b f8 04 0f 3d e1 b9 6b 3d
       -0.058448385 0.004979254 0.034916848 0.057550315
000020 43 92 5a bd ac 07 5b bd 1e 7b 7c 3d 87 37 69 bd
       -0.053362142 -0.053474113 0.06164085 -0.05693772
000030 56 46 51 bd ec 07 59 bd ed 56 98 3d 72 79 08 be
       -0.05109247 -0.05298607 0.07438455 -0.13327578
000040 79 69 2b 3e 97 55 0d 3d 8f ef cf 3c 9b 11 89 3d
       0.16739453 0.034505453 0.025382785 0.06692811
000050 50 cc 45 3c 29 74 c3 bd 1e a6 c2 bd 2b a8 14 3d
       0.012072638 -0.0954364 -0.095043406 0.03629319
000060 ff 15 3f bd a5 61 cb 3d 74 7e 09 3d ac 72 03 bd
       -0.046651836 0.099307336 0.03356786 -0.03209178
000070 df 44 7d 3b 94 85 53 bc e1 bc 45 bd 98 ad ab ba
       0.0038645787 -0.0129102655 -0.048275832 -0.0013098
000080 2c c1 c6 bb 5e 6c b8 3c 39 e1 05 3d a7 1f 39 3d
       -0.0060655084 0.022512611 0.032685492 0.0451962
000090 85 f5 40 bd 2c 4c 97 3d af 87 ba 3d 84 36 9c 3c
       -0.047109146 0.073875755 0.09107911 0.019068964
0000a0 72 f4 54 bd a4 8a cf 3d cf 75 ab 3b a2 2b 29 3d
       -0.051990934 0.101338655 0.0052325497 0.041301377
0000b0 c1 a8 36 3d f2 33 b1 bd e6 76 38 3d c6 af f7 bc
       0.04459453 -0.08652486 0.045035265 -0.030235182
0000c0 fa 0a 21 3d 93 79 f2 bd 52 eb 8a bd 46 64 df 3d
       0.03931711 -0.11839595 -0.06783165 0.109077975
0000d0 61 0d c6 bd 47 fb ba 39 15 d5 b2 3c d5 c8 d1 ba
       -0.096705206 0.000356639 0.021830121 -0.0016005287
0000e0 fa d9 98 bc 4e da 0c 3e f6 f5 d8 3d d5 dd b1 3c
       -0.018658627 0.13755152 0.10593788 0.021712223
0000f0 13 e5 01 3e b6 75 a1 bd be 83 1d 3a 4b fb 2d 3d
       0.12685041 -0.0788378 0.0006008706 0.04247598
000100 d1 d8 83 3d 64 63 3a 3c a6 1e 13 3d 70 08 1f bd
       0.06437839 0.011376236 0.0359179 -0.038826406
000110 ad 2b 39 bd b5 0b 6a bd da 7c 6c 3d 88 97 3c 3d
       -0.045207668 -0.05714007 0.057736255 0.04604295
000120 8a 74 f0 3b 2a fc ec bb 31 49 2d 3c 8b 76 80 3c
       0.0073381113 -0.0072322087 0.010576532 0.015681526
000130 e9 6e b7 bd e7 ee b1 3d 59 c7 fb bc 66 39 18 bd
       -0.08956701 0.08688145 -0.030734705 -0.037164114
000140 d5 32 2d 3d 72 ca dc bd 0d fd 05 3c b2 b3 1e 3d
       0.042284805 -0.10780801 0.008178008 0.03874559
000150 10 5f dd bc 81 77 44 bd d4 6f 39 3d 80 d1 90 3c
       -0.027022868 -0.04796553 0.045272663 0.017678022
000160 b4 87 0d 3d 7d 48 f3 3d 58 22 22 3d 52 46 aa 3d
       0.034553245 0.118790604 0.039583534 0.08314194
000170 a5 b7 17 bd f2 e9 93 bc 2f 16 12 bd 94 05 61 bd
       -0.03704037 -0.01805589 -0.035665687 -0.05493696
000180 38 88 fc 3d fc c1 1f bd cb 94 19 bc ac f0 f0 bc
       0.12330669 -0.039003357 -0.009373854 -0.029411636
000190 79 b6 e3 bd 25 83 18 3d d2 67 86 bd d8 a1 88 3d
       -0.11118788 0.037234444 -0.06562771 0.06671494
0001a0 69 65 3f 3e 8b 49 85 bd a7 66 53 bd 07 e8 3e 3d
       0.18691029 -0.06508168 -0.05161157 0.046607997
0001b0 08 8c 6b bd f6 0e d0 bd c3 03 00 bd 2f 23 f7 bc
       -0.05750659 -0.101591036 -0.031253587 -0.030168144
0001c0 7b 76 f1 bd ad 52 a7 3d 44 a6 3d 3d c4 82 67 3d
       -0.117901765 0.08170066 0.04630114 0.056521192
0001d0 91 66 63 3c 6e fb 1d 3b be 2d 03 3e 5e fd 4b bd
       0.013879434 0.0024106163 0.12810418 -0.049802177
0001e0 b9 59 57 3c 3a ba 6f 3d b5 d5 0a 3d 59 af 86 3d
       0.01314395 0.05852721 0.033895213 0.06576414
0001f0 5d 34 27 bd 10 e3 14 bd 5e 12 7e bd a0 b9 b1 3c
       -0.040821422 -0.036349356 -0.062029235 0.021694958
000200 b6 5e 10 3d d4 67 1b 3d fa 79 11 3e 94 63 42 bd
       0.035246573 0.037940815 0.14206687 -0.047458246
000210 91 c2 0a 3d b2 07 52 3d cd ca c0 3c de 10 a1 bd
       0.03387696 0.05127687 0.023534203 -0.07864545
000220 e7 af c9 bc 56 b5 a8 bd 65 60 81 bd 62 c3 f9 bd
       -0.02462001 -0.08237712 -0.06317214 -0.121954694
000230 f2 cc 07 bd b8 0f 90 3d 1c 82 42 bd f2 5d 5b 3c
       -0.033154435 0.07034248 -0.047487363 0.0133890975
000240 1f d5 6f 3d 99 3e f7 3c e0 6e ff bc 1d 7f 0f 3e
       0.058552857 0.030181216 -0.031180799 0.14013334
000250 63 c5 40 3c 43 27 9a bc 87 26 83 bd 59 4f 13 be
       0.011765811 -0.01881755 -0.06403833 -0.14385737
000260 a2 3a ff 3b 8b 6c 93 3c 92 e0 11 3d 79 80 85 bd
       0.007788972 0.017996093 0.035614558 -0.06518645
000270 b6 a4 9d bd 13 bd 00 3e d4 7e 9f bc 2a 87 c3 bd
       -0.07697432 0.12572126 -0.019469656 -0.09547265
000280 9d 98 a5 3d b9 6b b6 3c 7c 7f 66 3d 6a 44 a9 bd
       0.08085749 0.022268163 0.056273922 -0.08265002
000290 4a 61 9a 3c 2f c9 fe 3d 28 16 00 bd c9 91 6d bd
       0.01884522 0.124407165 -0.03127113 -0.05800036
0002a0 7b 5c f7 bd a9 65 a5 3d 0e 2a dd bd d3 20 c3 bd
       -0.12078186 0.08076031 -0.10799037 -0.09527745
0002b0 cf bb ba bc 41 f3 ca bc 41 3c ed 3c e4 cc de 3b
       -0.022794632 -0.024774196 0.028959395 0.006799327
0002c0 45 bc d1 bc 76 86 c8 3d 1c 71 87 bd 94 03 37 3d
       -0.02560247 0.097912714 -0.06613371 0.044681147
0002d0 6c 96 da bd ed 9d 6f bd 6f 0f 02 bb 3e f4 12 bd
       -0.10673222 -0.05850022 -0.0019845625 -0.03587746
0002e0 7d 7d 45 3b a9 ff 8e bd 45 22 c0 bd 73 88 ee 3c
       0.0030134611 -0.06982357 -0.093815364 0.029117798
0002f0 3f 40 17 3d 09 4f ea bc 80 43 b5 bc fd f5 57 bd
       0.036926504 -0.02860214 -0.022126913 -0.052724827
000300 18 da 84 3c 51 0a e2 3b 8d 63 d3 bc 2a 6e cf bd
       0.016217276 0.0068982025 -0.025804305 -0.10128434
000310 55 f8 a2 bd 14 ad 13 3d 70 2e d1 3c 0a 07 43 3d
       -0.07957522 0.036053732 0.025534838 0.047614135
000320 3f f2 84 bd 9e 68 36 bc c7 a6 aa bd ee af a4 bc
       -0.06491517 -0.011133341 -0.083325915 -0.020103421
000330 1b c3 d3 ba ab 19 b6 bc 47 67 9d bc fe 93 e4 3d
       -0.0016156168 -0.022229036 -0.019214286 0.1116104
000340 63 2c 55 bc 39 e0 da bc fa eb 4a bd e2 37 a4 3d
       -0.013011071 -0.026718246 -0.04954145 0.08018471
000350 ef 5b 2a 3d ab b3 04 bd 1b 93 62 bd de bf 76 bd
       0.04159158 -0.032397907 -0.055316072 -0.060241573
000360 97 9d fb 3c df df e9 3d 3f ac a1 bd 92 6a aa 3c
       0.030714793 0.11419653 -0.078941815 0.02080277
000370 dd 77 58 3d 19 34 b7 3d 49 4c ba bc a0 2f 3c bd
       0.052848686 0.08945484 -0.022741454 -0.045943856
000380 97 03 21 bc c3 ca c4 bd 3e aa 34 3d dc ad 9b 3c
       -0.009827516 -0.09608986 0.044107668 0.019003801
000390 9c 7a 97 bd c4 bc e0 ba 20 28 95 3d 02 17 05 3b
       -0.07396433 -0.00171461 0.07283044 0.0020307903
0003a0 55 88 ad 3c b9 48 81 3a db 18 77 bc e9 7f 67 3d
       0.021183172 0.0009863592 -0.01508161 0.05651847
0003b0 94 4a f6 3b e1 d4 7c bc 84 07 6b 3d 3d d7 1e bb
       0.0075162146 -0.015431614 0.057380214 -0.0024237179
0003c0 15 34 fd ba c3 b0 6e 3d f4 85 1d bd f2 d8 68 bc
       -0.001931789 0.05827404 -0.038457826 -0.01421188
0003d0 1a c4 9d 3d 7e c7 70 bd e8 61 20 3d 12 8f 31 be
       0.07703419 -0.058784 0.03915587 -0.17339733
0003e0 d8 f7 4c bd 42 e5 99 bd 83 84 b7 bd 14 1d 01 bd
       -0.05004105 -0.075144306 -0.089608215 -0.03152187
0003f0 40 50 6d bb 5c e9 60 3d 99 b2 b5 3d 15 f8 7c bd
       -0.0036211163 0.05491005 0.088719554 -0.061760027

network_body._body_endoder.seq_layers.4.bias f4 [256]
000000 f0 33 d8 3b df 41 8e 3b 7e 9f a1 3c 0e 3d bd 3b
       0.0065979883 0.0043413485 0.019729372 0.0057751006
000010 c0 0f f4 ba 9e a0 df 39 77 35 da 3b 87 cb ea bc
       -0.0018620417 0.00042653544 0.0066592055 -0.028661503
000020 ef e1 19 bc 42 21 48 3c 39 a9 34 3a 2e 2c 16 bd
       -0.009392246 0.0122149605 0.0006891671 -0.036663227
000030 3e 6b 9d 3a 8d dc 9d 3b 1f 62 46 bc fc ff e3 3b
       0.001201011 0.0048175515 -0.012108355 0.006958006
000040 07 61 05 bd c6 81 c7 3b 74 76 c3 bb 8a e8 cc bc
       -0.032563236 0.0060884682 -0.0059650484 -0.025013227
000050 31 7b ca bc 7b 6a 2b bc a2 c9 36 3b 7a df 1a 3c
       -0.024716945 -0.010462399 0.0027891179 0.009452695
000060 cc 8a 3e 3a 2c 9e 01 bc d2 b0 10 bb a0 e3 a6 3b
       0.0007268607 -0.007911246 -0.002207805 0.005093053
000070 7a b2 f1 bc cb 02 23 bc 64 e6 b3 3b a4 c6 ff 3b
       -0.02950405 -0.009949396 0.005490111 0.007805662
000080 a5 16 d5 bc f2 e6 a7 bc 36 4b aa 3b 9d 99 2a bc
       -0.026011774 -0.020495865 0.005196954 -0.010412601
000090 38 fa 8f bb 4d ea b2 bb e4 b6 88 3a b1 0e 4a 3c
       -0.004393842 -0.0054600597 0.0010430482 0.012332604
0000a0 4a 01 21 3c b7 43 2a 3c 1c 44 71 3c 0c 09 a3 bc
       0.0098269675 0.010392121 0.014725711 -0.019901775
0000b0 9d ca a4 3b 82 80 d0 3b 83 15 e5 39 e8 a9 9d 3a
       0.005029036 0.0063629756 0.0004369431 0.0012028785
0000c0 ba 8d d3 bc 86 6b be bb 2d 62 28 bc 41 cc 8e bb
       -0.025824416 -0.0058111576 -0.010277313 -0.004357845
0000d0 15 7c ac 3c 22 36 96 3c 40 af 9a bc 4e 33 7d 3c
       0.02105526 0.01833636 -0.018882394 0.0154541265
0000e0 e0 16 0b 3c de b0 af bb e3 81 38 bc 90 d1 da bc
       0.008489341 -0.0053616604 -0.011261436 -0.026711255
0000f0 6f b5 a8 bc ca c5 a8 bc d8 9c 49 3c 47 e2 f5 3b
       -0.020594327 -0.020602126 0.012305461 0.007503781
000100 e4 f2 a4 bc 48 c3 12 bc bf 71 9a 3a 53 11 29 3c
       -0.02013535 -0.0089576915 0.0011783167 0.010319072
000110 45 4a 57 3c ef d6 be bc a5 e4 0d 3b 5c de 23 3c
       0.013140266 -0.023295848 0.0021651175 0.010001745
000120 7a dc a3 3b 86 eb 4e bc 49 99 37 bc 46 1f bb bc
       0.005000648 -0.012629395 -0.01120598 -0.02284206
000130 63 5f 05 bd e5 60 9f bc 82 0b 66 3a 09 b8 96 bc
       -0.03256167 -0.019455383 0.00087755185 -0.018398302
000140 a9 4a 08 bc 8d 25 1b 3c 12 4d e3 bb c1 09 18 3c
       -0.008318582 0.009469402 -0.0069366777 0.009279669
000150 ca f3 47 bb e3 ef bf 3c 4a 2c 69 bb bb 8d f3 3b
       -0.00305103 0.023429817 -0.0035579377 0.007432667
000160 72 83 46 3b be 07 d3 3b fb a1 02 3c 08 b2 a2 bc
       0.003029075 0.006440132 0.0079731895 -0.019860283
000170 7c f3 02 bd c6 13 9b 3c 68 fd 4e 3c dd 2e 1e 3c
       -0.031970486 0.018930327 0.012633659 0.009654728
000180 87 7f f4 bc f9 ae 23 3a 9d 8d 1d 3c d2 59 78 3b
       -0.029845966 0.00062440295 0.009616283 0.0037895334
000190 77 07 5b bc 3a d9 8e bc b2 4a de 3b 85 79 12 3b
       -0.013368479 -0.017437566 0.0067838067 0.0022350263
0001a0 35 47 40 3c af ee 6d 3c fa 4b 4a bc 34 c0 b0 3c
       0.011735727 0.014522239 -0.012347216 0.021576025
0001b0 78 9b 8c bc fe a0 c2 3c f4 5d 2f bc ab 9e 09 bc
       -0.017163977 0.023758408 -0.0107035525 -0.008399646
0001c0 f7 28 38 bc d7 75 a4 3b 42 6a fb bc 91 ef 01 bc
       -0.0112402355 0.0050189304 -0.030690316 -0.007930652
0001d0 ba fb 64 37 71 3d 19 3c 34 b9 db 3c 9c 80 02 bd
       1.3648469e-05 0.009353028 0.02682171 -0.031860933
0001e0 13 ac a2 3b 5c cb 60 3c 4e e9 3d 3c 32 dc fa bc
       0.0049643605 0.01372036 0.011591269 -0.030622575
0001f0 fd 6f a4 bb f0 83 27 ba 5c 9a 91 3c 4a e1 de bc
       -0.005018233 -0.00063902047 0.0177738 -0.027207036
000200 40 f3 fc 3b 6b d8 a6 ba 6c d2 bc 3c b2 20 d6 bc
       0.0077194273 -0.0012729293 0.023049556 -0.026138637
000210 36 f6 f5 bc 4d fc 87 3b 14 f8 47 bb 10 a7 63 3c
       -0.03002463 0.0041499496 -0.0030512856 0.013894811
000220 77 b9 b6 bc 67 7b 27 bc f6 7c dc bc 28 c7 b3 bc
       -0.022305233 -0.0102222925 -0.026915055 -0.021945551
000230 52 71 7c 3c 97 08 5c bc 4f c5 d3 bc 18 cf 6c 3c
       0.015407877 -0.013429782 -0.02585092 0.014453672
000240 16 0a fa 3b 3e 81 26 3c 43 36 47 3c 1e 57 7e ba
       0.007630597 0.01016265 0.012158933 -0.00097023125
000250 88 30 91 3c d7 ad d1 3b 20 4f bb bc 98 08 d7 bc
       0.017723337 0.006398897 -0.022864878 -0.026249215
000260 d3 2a a2 3b 37 0a a6 3c 4d d1 47 3b 63 9a 6d 3c
       0.0049489527 0.020268543 0.0030489743 0.014502141
000270 6d 9a 88 3a 65 f9 44 bb 9b 97 e4 bb 57 d8 ec bb
       0.0010421999 -0.0030055877 -0.0069760806 -0.007227938
000280 8c 44 b6 bb 7c 35 55 bc cf 90 aa bc 4a 90 38 3c
       -0.0055623706 -0.01301324 -0.020821003 0.01126487
000290 c3 59 95 bc 6e 22 05 bc 5b ae 31 3c b8 a6 b9 bc
       -0.018231278 -0.008125884 0.010844792 -0.022662506
0002a0 06 94 18 bc 69 58 ce bb 22 2c c7 bc eb 3f 63 bc
       -0.009312635 -0.0062971604 -0.024313036 -0.01387022
0002b0 85 a6 85 3a d9 cc 6e 3c a6 04 43 bc b8 c1 85 bc
       0.0010196721 0.014575207 -0.011902964 -0.016327724
0002c0 f8 5c 28 3c e2 26 d3 bc ff 24 00 bd 41 1e 0f bd
       0.010276072 -0.025775377 -0.031285282 -0.03494096
0002d0 94 26 67 bc 9b c5 20 3c ae d9 f6 bc ff 88 bc bb
       -0.014108319 0.009812738 -0.030133095 -0.005753636
0002e0 c5 df f2 3b 3b 30 fc 3b dd 4c 30 3b f7 bb 69 bc
       0.0074119293 0.007696179 0.0026901283 -0.014266006
0002f0 84 e7 75 3c 18 41 c6 3b 1a 7e 21 bc 84 23 0c bd
       0.015008811 0.0060502402 -0.009856725 -0.034213558
000300 53 a3 d5 bc c4 01 13 bd 54 87 2d 3c 0e c3 c5 bb
       -0.026078856 -0.035890356 0.010591347 -0.006035215
000310 a5 02 5f 3c e9 69 d8 bc e8 d2 8c bb c1 6d e7 bc
       0.01361147 -0.02641769 -0.004297603 -0.028250577
000320 4f 34 13 bc 86 98 9d bb ed 3f c3 bc 19 3a 0b bb
       -0.008984639 -0.004809442 -0.023834193 -0.0021244346
000330 ef b1 98 3b 0c e2 52 bc cc df c5 bc 07 a0 75 bb
       0.004659883 -0.012871277 -0.024154566 -0.0037479417
000340 e8 55 ad bb 84 f4 da bc 49 5a 98 bc 6c b4 69 3c
       -0.005289782 -0.026727922 -0.018597739 0.014264207
000350 19 2c e4 bb 22 b7 65 bb f3 99 4e 3c 1e 8c d9 bb
       -0.0069632647 -0.0035051783 0.012609947 -0.0066390177
000360 0e 8c 3a 3b ac d8 78 bc f1 b3 15 bc 09 67 ee bc
       0.0028464827 -0.015188377 -0.00913714 -0.029101865
000370 42 6e 58 3b bc 0a 55 3c eb a6 5c bc 8d 87 5d 3c
       0.0033024703 0.013003048 -0.013467531 0.013521087
000380 bb fd e4 3b 2d 35 e1 bc cc e2 1c 3c e6 96 f1 3b
       0.006988255 -0.027491177 0.009575557 0.007372725
000390 35 62 87 3c 5d 9f 06 bc be d9 4a 3c 1e bc 5b 3c
       0.016526321 -0.008216706 0.012381015 0.01341155
0003a0 95 e1 ee 3a 29 9f cb ba cf 83 45 3c 93 7a 79 bc
       0.0018225188 -0.0015535104 0.012055351 -0.015226978
0003b0 fc c6 e3 bb 08 e3 93 bb 40 a3 aa ba 59 8d 8b bc
       -0.006951211 -0.004513148 -0.0013018623 -0.017035173
0003c0 72 29 a5 bb 0b 7c ba bc 15 70 7b 3c e1 79 e9 bc
       -0.005040341 -0.022764226 0.015346547 -0.0285005
0003d0 bd f2 ff 3b a3 67 eb 3b 1d d6 75 bc 82 35 0b 3c
       0.007810919 0.0071839853 -0.015004662 0.008496644
0003e0 37 4c 04 bb 9e 4b 18 3c 93 a5 de bc 3c ee 80 3b
       -0.002018703 0.009295372 -0.027178561 0.0039346498
0003f0 d5 eb 77 ba 19 f5 7a bc ea 1f 28 bc 44 fb 9b 3b
       -0.0009457444 -0.015317225 -0.010261515 0.004760178
