Assets/ML_PPO/results/1stgo_nav_21/BoatAgent.onnx (onnx, 963278 bytes, 21 tensors)

discrete_action_output_shape f4 [1, 6]
0	0x40000000	2.0
1	0x40000000	2.0
2	0x40000000	2.0
3	0x40000000	2.0
4	0x40000000	2.0
5	0x40000000	2.0

network_body._body_endoder.seq_layers.0.weight f4 [256, 150]
0	0x3b22e56d	0.0024855987
1	0x3dc04806	0.093887374
2	0xbd6975a5	-0.05699696
3	0xbdcff59a	-0.10154267
4	0x3db10618	0.086437404
5	0xbb8848b2	-0.0041590566
6	0xbd85ba1c	-0.06529638
7	0x3d7af00e	0.06126409
8	0xbd1e55a1	-0.03865588
9	0x3d66a254	0.056307152
10	0xbca970af	-0.020683615
11	0xbda2f0ae	-0.07956062
12	0x3ddbdaf2	0.1073512
13	0x3dc3b3fa	0.09555812
14	0xbd0da9b8	-0.034585685
15	0x3d88e16d	0.066836216
16	0xbcb57f11	-0.022155317
17	0xbc78941f	-0.015172034
18	0xbd004adf	-0.031321403
19	0x3d788c96	0.06068095
20	0x3dca4452	0.09876312
21	0xbd79ea01	-0.06101418
22	0x3ccf20bd	0.025284166
23	0x3dd477fd	0.103744484
24	0xbdd26616	-0.102733776
25	0xbd2089e2	-0.039193995
26	0x3d379d5e	0.04482781
27	0x3c0e1c9c	0.008673813
28	0x3c60875e	0.013704149
29	0xbca3f813	-0.020015752
30	0xbc367c9e	-0.0111381095
31	0xbe0c8235	-0.13721545
32	0xbd2bea52	-0.041971512
33	0xbd9c1ae7	-0.07622319
34	0x3d3ba631	0.04581279
35	0x3e2e04b7	0.16993986
36	0x3d548ef0	0.05189413
37	0xbdb365a3	-0.0875962
38	0xbccf3c39	-0.025297271
39	0xbcafa780	-0.021442175
40	0xbd99c493	-0.07508197
41	0x3dfbb1ab	0.12289747
42	0xbdc2a403	-0.09503939
43	0xbcbd0bd1	-0.023076924
44	0x3c27c5f6	0.010240069
45	0xbd6f5107	-0.058426883
46	0xbdb092f6	-0.086217806
47	0x3e3e43b4	0.18580514
48	0x3d6aeedc	0.0573567
49	0x3d03b6c5	0.032156724
50	0x3d821b25	0.06352834
51	0x3d9924b2	0.07477702
52	0xbd33d5a7	-0.043904927
53	0x3d667c7d	0.056271065
54	0xbbf0a141	-0.0073434417
55	0xbd90de68	-0.070736706
56	0xbdea7bb0	-0.11449373
57	0xbda4d64e	-0.08048688
58	0x3e003a62	0.12522271
59	0x3dbfaa21	0.093586214
60	0xbcff8120	-0.031189501
61	0xbe2925ef	-0.16518377
62	0xbdbeb5a8	-0.09311992
63	0x3cfbd4fc	0.030741207
64	0x3c724e2c	0.014789145
65	0xbe1d5a54	-0.15366489
66	0xbd88eb10	-0.066854596
67	0x3e199db6	0.15001568
68	0xbe2471d7	-0.16059051
69	0x3dcaffda	0.09912081
70	0x3d9caee8	0.07650548
71	0x3d9f8b52	0.07790245
72	0x3e09f4d8	0.13472307
73	0xbb520ea9	-0.0032052195
74	0x3cc8ad2a	0.024496634
75	0x3d00e615	0.031469423
76	0xbd5587bc	-0.0521314
77	0xbde91ba4	-0.11382225
78	0xbd15f57e	-0.036611073
79	0x3d3975a2	0.0452782
80	0x3dcc416c	0.09973416
81	0x3db90988	0.09035021
82	0xbc77f93b	-0.015135105
83	0xbd91f3f2	-0.07126607
84	0x3d2b996d	0.041894365
85	0xbcf90592	-0.030398164
86	0x3c2a2f06	0.010387188
87	0x3dad608b	0.0846568
88	0xbdc40c78	-0.09572691
89	0xbda2bd2e	-0.079462394
90	0x3cdc25d2	0.026873503
91	0x3d52234c	0.051303193
92	0xbd9ad713	-0.075605534
93	0xbc60c808	-0.013719566
94	0xbde7ec3d	-0.11324356
95	0x3c9777c1	0.01848972
96	0xbd4378ff	-0.047722813
97	0x3c5e451a	0.01356628
98	0xbc7cc4a6	-0.015427744
99	0xbd52586c	-0.051353857
100	0xbc7ae557	-0.015313468
101	0xbdaa5404	-0.08316806
102	0x3dd84242	0.10559513
103	0x3dae373c	0.08506629
104	0x3d074211	0.03302199
105	0xbd1b6b5f	-0.037944194
106	0x3e1035da	0.14083043
107	0xbda8a1c6	-0.08233981
108	0xbd87b238	-0.066257894
109	0xbd981f3d	-0.07427833
110	0xbca40849	-0.020023482
111	0xbca3a406	-0.019975673
112	0xbdace7b6	-0.08442633
113	0xbce30862	-0.027713958
114	0x3dcdc9f9	0.10048289
115	0x3d477468	0.048694998
116	0x3d60e7ba	0.05490849
117	0x3b5e4a11	0.0033918659
118	0xbd5a93be	-0.053363554
119	0xbe222802	-0.15835574
120	0x3d0907d2	0.033454724
121	0xbdcc5dea	-0.0997885
122	0xbd007236	-0.03135892
123	0xbe39a1c4	-0.18128115
124	0x3ba08fe8	0.0048999675
125	0x3deadd5f	0.114680044
126	0xbcb0d70d	-0.02158692
127	0xbd76c959	-0.060250614
128	0x3d945a85	0.07243828
129	0x3e02b5ad	0.12764616
130	0x3cd4757d	0.025934929
131	0x3c312922	0.0108130295
132	0xbd6f7932	-0.05846519
133	0xbcf6660c	-0.030077957
134	0x3d4a942a	0.049457707
135	0xbcf791ab	-0.030220827
136	0xbc4fdfda	-0.012687648
137	0x3d480296	0.04883059
138	0xbdcd2f8f	-0.10018837
139	0xbd43a9d0	-0.047769368
140	0x3d12aab2	0.03580732
141	0xbc7e5aa8	-0.015524544
142	0xbe0052f0	-0.12531638
143	0xbd8cec59	-0.06881017
144	0x3d538eb7	0.051649775
145	0xbc9dc987	-0.019261135
146	0x3b88f136	0.004179145
147	0xbd993114	-0.07480064
148	0xbd0f181e	-0.03493511
149	0xbde007b9	-0.10938973
150	0x3c3bd056	0.011463245
151	0xb965b0f5	-0.00021905063
152	0x3c99f59c	0.018793873
153	0x3d019444	0.031635538
154	0x3d23a7b8	0.03995487
155	0xbd933015	-0.07186905
156	0xbd9fa795	-0.077956356
157	0xbb3387cb	-0.0027394171
158	0xbd8789cd	-0.0661808
159	0x3d9fe528	0.0780738
160	0xbb25b93e	-0.0025287415
161	0x3d6f9a1b	0.058496576
162	0xbd86ba49	-0.065785
163	0x3cd08232	0.025452707
164	0xbd90e7c8	-0.07075459
165	0xbbbc2757	-0.0057419944
166	0xbd71e1ed	-0.05905335
167	0xbddf5015	-0.10903946
168	0xbd4e738d	-0.050403167
169	0x3ce22a78	0.027608141
170	0xbcae8576	-0.021303874
171	0x3d14f964	0.03637065
172	0xbdad5f9f	-0.08465504
173	0x3b0f7c1e	0.0021894048
174	0xbc611900	-0.013738871
175	0xbcb17043	-0.021659976
176	0x3d1da7ec	0.03849022
177	0x3d34cdab	0.044141453
178	0xbce2bb6a	-0.027677257
179	0x3d5aefdb	0.0534514
180	0x3c7f8db8	0.015597753
181	0xbdb26b80	-0.0871191
182	0xbd28c676	-0.041204892
183	0x3d8746e1	0.06605316
184	0xbd8dcf2d	-0.06924281
185	0x3d9ac762	0.075575605
186	0xbca6f0b5	-0.02037845
187	0xbd33eecf	-0.043928917
188	0x3e0b114e	0.1358082
189	0x3c907d7e	0.017637964
190	0xbdd359c4	-0.10319856
191	0x3ca3bb5f	0.019986806
192	0xbd8f745b	-0.07004615
193	0xbd2252c8	-0.039629728
194	0xbd287338	-0.041125506
195	0x3dc11aa6	0.09428911
196	0x3dfaecf5	0.12252227
197	0xbd65d316	-0.05610951
198	0xbd0a7588	-0.033803493
199	0x3bcaead6	0.0061925454
200	0x3d33f55d	0.04393517
201	0xbd6c086b	-0.057625216
202	0x3d8db4e8	0.06919271
203	0xbdc4e72c	-0.09614405
204	0xbd9f0401	-0.077644356
205	0x3ddfacaf	0.10921609
206	0xbd59325e	-0.05302655
207	0x3c5e573d	0.013570604
208	0x3d94ce33	0.07265892
209	0xbe232dae	-0.15935394
210	0x3c6e6f8b	0.014552961
211	0xbd80f1ab	-0.062960945
212	0x3e39408b	0.18091027
213	0x3d3156b4	0.043295577
214	0xbca09965	-0.019604394
215	0xbd8bcb4b	-0.068258844
216	0x3d40c7b0	0.047065437
217	0xbcbc0f4f	-0.022956518
218	0xbd2753a6	-0.040851258
219	0xbb2b698a	-0.0026155435
220	0x3bee1df4	0.0072667543
221	0xba841ff9	-0.0010080329
222	0x3c11932f	0.008885189
223	0xbd3b4b3c	-0.045726046
224	0xbd45de80	-0.048307896
225	0xbb08694f	-0.0020814722
226	0x3ce26ba5	0.02763922
227	0xbdab0ff3	-0.083526514
228	0xbd46c706	-0.048529647
229	0xbe38344c	-0.179887
230	0x3dfd0d59	0.123560615
231	0xbdb82bc0	-0.0899272
232	0xbddcdc9f	-0.10784268
233	0x3b567d1f	0.0032728387
234	0xbd2723c2	-0.040805586
235	0xbd8cb293	-0.06869998
236	0x3ca09588	0.019602552
237	0x3d56bcf1	0.052426282
238	0x3d96eb7c	0.07369134
239	0xbd4e7795	-0.05040701
240	0x3d503b57	0.05083784
241	0x3d5f4e80	0.054518223
242	0xbd292067	-0.041290667
243	0xbcb8d586	-0.022562753
244	0xbceb5b90	-0.028730184
245	0x3db18d28	0.086695015
246	0xbda51419	-0.08060474
247	0xbd7b3a0a	-0.061334647
248	0x3e0d8857	0.13821541
249	0xbceecf7b	-0.029151669
250	0xbdf96b9b	-0.12178727
251	0x3da07c9b	0.078362666
252	0x3dedb2f7	0.116064005
253	0xbcbf612e	-0.023361769
254	0x3d674b57	0.056468334
255	0x3d8cca85	0.06874565

network_body._body_endoder.seq_layers.0.bias f4 [256]
0	0x00000000	0.0
1	0x00000000	0.0
2	0x00000000	0.0
3	0x00000000	0.0
4	0x00000000	0.0
5	0x00000000	0.0
6	0x00000000	0.0
7	0x00000000	0.0
8	0x00000000	0.0
9	0x00000000	0.0
10	0x00000000	0.0
11	0x00000000	0.0
12	0x00000000	0.0
13	0x00000000	0.0
14	0x00000000	0.0
15	0x00000000	0.0
16	0x00000000	0.0
17	0x00000000	0.0
18	0x00000000	0.0
19	0x00000000	0.0
20	0x00000000	0.0
21	0x00000000	0.0
22	0x00000000	0.0
23	0x00000000	0.0
24	0x00000000	0.0
25	0x00000000	0.0
26	0x00000000	0.0
27	0x00000000	0.0
28	0x00000000	0.0
29	0x00000000	0.0
30	0x00000000	0.0
31	0x00000000	0.0
32	0x00000000	0.0
33	0x00000000	0.0
34	0x00000000	0.0
35	0x00000000	0.0
36	0x00000000	0.0
37	0x00000000	0.0
38	0x00000000	0.0
39	0x00000000	0.0
40	0x00000000	0.0
41	0x00000000	0.0
42	0x00000000	0.0
43	0x00000000	0.0
44	0x00000000	0.0
45	0x00000000	0.0
46	0x00000000	0.0
47	0x00000000	0.0
48	0x00000000	0.0
49	0x00000000	0.0
50	0x00000000	0.0
51	0x00000000	0.0
52	0x00000000	0.0
53	0x00000000	0.0
54	0x00000000	0.0
55	0x00000000	0.0
56	0x00000000	0.0
57	0x00000000	0.0
58	0x00000000	0.0
59	0x00000000	0.0
60	0x00000000	0.0
61	0x00000000	0.0
62	0x00000000	0.0
63	0x00000000	0.0
64	0x00000000	0.0
65	0x00000000	0.0
66	0x00000000	0.0
67	0x00000000	0.0
68	0x00000000	0.0
69	0x00000000	0.0
70	0x00000000	0.0
71	0x00000000	0.0
72	0x00000000	0.0
73	0x00000000	0.0
74	0x00000000	0.0
75	0x00000000	0.0
76	0x00000000	0.0
77	0x00000000	0.0
78	0x00000000	0.0
79	0x00000000	0.0
80	0x00000000	0.0
81	0x00000000	0.0
82	0x00000000	0.0
83	0x00000000	0.0
84	0x00000000	0.0
85	0x00000000	0.0
86	0x00000000	0.0
87	0x00000000	0.0
88	0x00000000	0.0
89	0x00000000	0.0
90	0x00000000	0.0
91	0x00000000	0.0
92	0x00000000	0.0
93	0x00000000	0.0
94	0x00000000	0.0
95	0x00000000	0.0
96	0x00000000	0.0
97	0x00000000	0.0
98	0x00000000	0.0
99	0x00000000	0.0
100	0x00000000	0.0
101	0x00000000	0.0
102	0x00000000	0.0
103	0x00000000	0.0
104	0x00000000	0.0
105	0x00000000	0.0
106	0x00000000	0.0
107	0x00000000	0.0
108	0x00000000	0.0
109	0x00000000	0.0
110	0x00000000	0.0
111	0x00000000	0.0
112	0x00000000	0.0
113	0x00000000	0.0
114	0x00000000	0.0
115	0x00000000	0.0
116	0x00000000	0.0
117	0x00000000	0.0
118	0x00000000	0.0
119	0x00000000	0.0
120	0x00000000	0.0
121	0x00000000	0.0
122	0x00000000	0.0
123	0x00000000	0.0
124	0x00000000	0.0
125	0x00000000	0.0
126	0x00000000	0.0
127	0x00000000	0.0
128	0x00000000	0.0
129	0x00000000	0.0
130	0x00000000	0.0
131	0x00000000	0.0
132	0x00000000	0.0
133	0x00000000	0.0
134	0x00000000	0.0
135	0x00000000	0.0
136	0x00000000	0.0
137	0x00000000	0.0
138	0x00000000	0.0
139	0x00000000	0.0
140	0x00000000	0.0
141	0x00000000	0.0
142	0x00000000	0.0
143	0x00000000	0.0
144	0x00000000	0.0
145	0x00000000	0.0
146	0x00000000	0.0
147	0x00000000	0.0
148	0x00000000	0.0
149	0x00000000	0.0
150	0x00000000	0.0
151	0x00000000	0.0
152	0x00000000	0.0
153	0x00000000	0.0
154	0x00000000	0.0
155	0x00000000	0.0
156	0x00000000	0.0
157	0x00000000	0.0
158	0x00000000	0.0
159	0x00000000	0.0
160	0x00000000	0.0
161	0x00000000	0.0
162	0x00000000	0.0
163	0x00000000	0.0
164	0x00000000	0.0
165	0x00000000	0.0
166	0x00000000	0.0
167	0x00000000	0.0
168	0x00000000	0.0
169	0x00000000	0.0
170	0x00000000	0.0
171	0x00000000	0.0
172	0x00000000	0.0
173	0x00000000	0.0
174	0x00000000	0.0
175	0x00000000	0.0
176	0x00000000	0.0
177	0x00000000	0.0
178	0x00000000	0.0
179	0x00000000	0.0
180	0x00000000	0.0
181	0x00000000	0.0
182	0x00000000	0.0
183	0x00000000	0.0
184	0x00000000	0.0
185	0x00000000	0.0
186	0x00000000	0.0
187	0x00000000	0.0
188	0x00000000	0.0
189	0x00000000	0.0
190	0x00000000	0.0
191	0x00000000	0.0
192	0x00000000	0.0
193	0x00000000	0.0
194	0x00000000	0.0
195	0x00000000	0.0
196	0x00000000	0.0
197	0x00000000	0.0
198	0x00000000	0.0
199	0x00000000	0.0
200	0x00000000	0.0
201	0x00000000	0.0
202	0x00000000	0.0
203	0x00000000	0.0
204	0x00000000	0.0
205	0x00000000	0.0
206	0x00000000	0.0
207	0x00000000	0.0
208	0x00000000	0.0
209	0x00000000	0.0
210	0x00000000	0.0
211	0x00000000	0.0
212	0x00000000	0.0
213	0x00000000	0.0
214	0x00000000	0.0
215	0x00000000	0.0
216	0x00000000	0.0
217	0x00000000	0.0
218	0x00000000	0.0
219	0x00000000	0.0
220	0x00000000	0.0
221	0x00000000	0.0
222	0x00000000	0.0
223	0x00000000	0.0
224	0x00000000	0.0
225	0x00000000	0.0
226	0x00000000	0.0
227	0x00000000	0.0
228	0x00000000	0.0
229	0x00000000	0.0
230	0x00000000	0.0
231	0x00000000	0.0
232	0x00000000	0.0
233	0x00000000	0.0
234	0x00000000	0.0
235	0x00000000	0.0
236	0x00000000	0.0
237	0x00000000	0.0
238	0x00000000	0.0
239	0x00000000	0.0
240	0x00000000	0.0
241	0x00000000	0.0
242	0x00000000	0.0
243	0x00000000	0.0
244	0x00000000	0.0
245	0x00000000	0.0
246	0x00000000	0.0
247	0x00000000	0.0
248	0x00000000	0.0
249	0x00000000	0.0
250	0x00000000	0.0
251	0x00000000	0.0
252	0x00000000	0.0
253	0x00000000	0.0
254	0x00000000	0.0
255	0x00000000	0.0

network_body._body_endoder.seq_layers.2.weight f4 [256, 256]
0	0x3cab58bd	0.020916337
1	0x3c45f657	0.012082658
2	0xbce03ac7	-0.027371777
3	0x3d6542fc	0.055972084
4	0xbd38438f	-0.044986304
5	0xbd7f115f	-0.062272426
6	0xbb8521e9	-0.0040628803
7	0xbd5340f5	-0.05157562
8	0x3d84a35d	0.064764716
9	0x3cd59b59	0.026075052
10	0x3c1b4dbb	0.009478982
11	0xbd171dcc	-0.03689365
12	0x3d83e13d	0.06439445
13	0x3dcf28fd	0.1011524
14	0x3c602108	0.01367975
15	0xbcf59f97	-0.029983325
16	0x3ba01b5f	0.0048860754
17	0xbd543f73	-0.051818322
18	0xbd29b0ae	-0.04142826
19	0xbbf4303e	-0.00745204
20	0x3c51e0a4	0.012809906
21	0xbc6b4da8	-0.014361776
22	0xbc955f63	-0.01823396
23	0x3ca2589b	0.019817641
24	0x3d1a695b	0.03769813
25	0xbd83c594	-0.064341694
26	0x3d8c2a78	0.06844038
27	0x3daf1509	0.08548934
28	0x3d8f7779	0.070052095
29	0xbd1ff753	-0.039054226
30	0xbde7bb49	-0.11315019
31	0xba844bb4	-0.0010093362
32	0x3c756b01	0.014979125
33	0xbc27139b	-0.010197545
34	0xbc59027b	-0.01324522
35	0xbd055b71	-0.03255791
36	0xbbd5f213	-0.0065291016
37	0x3d8144bf	0.063119404
38	0x3d402e74	0.0469193
39	0x3cf1818e	0.029480722
40	0x3cdae121	0.026718678
41	0x3d3bca28	0.045847088
42	0x3cc77526	0.024347853
43	0x3d9cb3d6	0.076514885
44	0x3d3ff2b8	0.046862334
45	0xbd4c643e	-0.049900286
46	0x3ca9c877	0.020725472
47	0xbd9cb92e	-0.07652508
48	0xbd620f64	-0.05519046
49	0x3d0b951d	0.034077752
50	0x3d453de0	0.04815471
51	0xbc4c8c55	-0.01248463
52	0x3d73fcc3	0.059567224
53	0xbc551d4b	-0.013007472
54	0x3d8b70f2	0.06808652
55	0xbb14186c	-0.0022597564
56	0xbd7d04d9	-0.0617722
57	0x3d77df6a	0.0605158
58	0x3d9afc0a	0.07567604
59	0xbdb9ab46	-0.09065871
60	0x3ca13022	0.019676272
61	0xbd53fa30	-0.05175227
62	0x3cd923ff	0.026506422
63	0xbc3c0c59	-0.011477553
64	0xbd40b4bb	-0.047047358
65	0x3d15536b	0.036456507
66	0x3d987522	0.07444216
67	0xbb17b20e	-0.00231469
68	0xbdb60c5a	-0.088890746
69	0x3e053f2a	0.13012376
70	0x3d6d2c14	0.057903364
71	0x3e052180	0.1300106
72	0x3da1b537	0.07895892
73	0xbd593925	-0.053033013
74	0x3e0efe5e	0.13964221
75	0x3d8adb76	0.0678014
76	0x3d1b239b	0.037875753
77	0x3d4160e3	0.04721154
78	0xbe0ee5c7	-0.1395484
79	0x3d624b55	0.055247623
80	0x3d3a54d1	0.045491043
81	0xbc816f90	-0.015800267
82	0x3d54aa69	0.05192033
83	0xbd44615a	-0.047944404
84	0xbdbeab51	-0.0931002
85	0x3b01129a	0.0019694925
86	0xbd57e018	-0.052703947
87	0xbcdddca4	-0.027082749
88	0x3e13cc68	0.14433444
89	0x3c2fff63	0.010742041
90	0x3d78b152	0.06071598
91	0xbd656393	-0.056003164
92	0x3d8267a4	0.06367424
93	0xbbc2eb0b	-0.0059484295
94	0x3ca073da	0.019586492
95	0xbcf354db	-0.029703548
96	0x3b848151	0.004043736
97	0xbd741c5e	-0.059597366
98	0x3da2d664	0.07951048
99	0x3ce21255	0.027596632
100	0xbc20d32d	-0.009815973
101	0xbc312200	-0.010811329
102	0xbcc7b09a	-0.024376202
103	0xbc841ae8	-0.016126111
104	0xbd3024a6	-0.0430037
105	0xbc853e95	-0.016265193
106	0x3b9efcdf	0.004851922
107	0x3d118a55	0.035532314
108	0xbcba83ef	-0.022767989
109	0x3cae89e3	0.021305984
110	0x3d8422e5	0.06451968
111	0x3d4284e0	0.04749
112	0xbd2e8073	-0.042602967
113	0xbc26cf23	-0.010181221
114	0xbd9e65de	-0.077342734
115	0xbdd24162	-0.10266377
116	0xbdb45fd7	-0.088073425
117	0xbc7f3655	-0.015576919
118	0xbd211355	-0.039325077
119	0xbd31c60e	-0.04340177
120	0x3d839142	0.0642419
121	0x3cb4c931	0.022068592
122	0x3d3f4fd7	0.046707
123	0x3d1e6482	0.03867007
124	0x3d474f2d	0.048659492
125	0xbb291992	-0.0025802595
126	0xbc9d9fa9	-0.019241171
127	0xbaf086f5	-0.0018350767
128	0x3d31cc34	0.043407634
129	0x3dcddc7a	0.10051818
130	0x3d2fe36c	0.042941496
131	0x3ccde803	0.025135046
132	0x3cb1708c	0.021660112
133	0x3c8ad277	0.01694606
134	0x3d1e8a34	0.03870602
135	0x3da61493	0.08109393
136	0xbe1bb112	-0.15204266
137	0x3d78b705	0.060721416
138	0x3d516c07	0.051128414
139	0x3d2633f1	0.04057688
140	0xbce869e4	-0.028370805
141	0xbd4f7a5e	-0.050653808
142	0xbd4c5c75	-0.04989286
143	0x3db833a3	0.08994224
144	0xbe1b24e2	-0.15150788
145	0xbd0592f4	-0.03261085
146	0x3cf261bb	0.029587617
147	0xbc373904	-0.011183027
148	0xbd1b6dac	-0.037946388
149	0x3d2d03d1	0.042239968
150	0x3dd36a1a	0.10322972
151	0x3d0fd021	0.035110597
152	0xbdb64382	-0.08899595
153	0xbd4d77ba	-0.05016301
154	0xbdb62ba8	-0.088950455
155	0x3df392e7	0.11893254
156	0xbdaa0123	-0.08300998
157	0x3e6a891e	0.22903869
158	0xba7b3268	-0.0009582401
159	0xbcaf0e63	-0.021369165
160	0xba30ec7c	-0.0006749106
161	0xbcc1b9af	-0.023648111
162	0x3d2638b0	0.040581405
163	0x3c74010f	0.0148928305
164	0xbe128af0	-0.14310813
165	0x3e0b82b9	0.13624085
166	0x3caa34c2	0.02077711
167	0x3c8401ab	0.016114077
168	0x3d0a48bb	0.033760767
169	0x3d71bdc8	0.05901888
170	0x3da54e25	0.080715455
171	0xbd12a32e	-0.03580015
172	0x3d958ee9	0.073026486
173	0xbd34505f	-0.04402196
174	0xbd131296	-0.035906397
175	0x3d174fbf	0.036941286
176	0x3cd477db	0.025936058
177	0x3d622612	0.055212088
178	0xba81b0c8	-0.0009894604
179	0x3ce66590	0.0281246
180	0x3c528c9f	0.0128509095
181	0x3dcfd86d	0.10148702
182	0x3ddaf706	0.10691647
183	0x3b0dadd2	0.0021618498
184	0xba8f7956	-0.0010946195
185	0x3db747d4	0.08949247
186	0x3db6b0d6	0.089204475
187	0xbd86b376	-0.06577198
188	0xbc46b259	-0.012127482
189	0x3d146686	0.036230586
190	0x3d795fcb	0.06088237
191	0x3e04a640	0.12954044
192	0xbd198722	-0.03748239
193	0xbbc02767	-0.005864072
194	0xbca15088	-0.01969172
195	0x3c6b5c6f	0.0143653
196	0xbdb2f3ba	-0.087378934
197	0x3bd3c659	0.006462854
198	0x3e13acb7	0.14421354
199	0xbd345fed	-0.044036794
200	0x3a4133e6	0.0007370099
201	0xbba642f8	-0.0050739013
202	0xbdde6764	-0.10859564
203	0xbcca04c2	-0.024660472
204	0xbdc57e9e	-0.09643291
205	0x3d93fa84	0.072255164
206	0xbc2bbc57	-0.010481915
207	0xbd618035	-0.05505391
208	0xbcb716f6	-0.022349816
209	0xbb923a7a	-0.0044625374
210	0x3cf761e0	0.030198038
211	0x3d5a941e	0.05336391
212	0x3cb9df67	0.022689534
213	0x3dfb9239	0.12283749
214	0x3da219a8	0.0791505
215	0xbd1e5e1d	-0.038663972
216	0x3c9db2ad	0.019250238
217	0x3cec74c8	0.02886428
218	0xbc2e0268	-0.010620691
219	0x3ba0d3d1	0.004908063
220	0xbc87deed	-0.016585791
221	0xbe3c9e60	-0.1841979
222	0x3da20da5	0.07912759
223	0x3ba12c30	0.0049185976
224	0xbdb2a25a	-0.08722372
225	0xbd5bf9d9	-0.05370507
226	0xbc58be59	-0.013228976
227	0x3e1417ca	0.144622
228	0x3d499da1	0.049222592
229	0x3d8bf49f	0.06833767
230	0xbd6138e0	-0.05498588
231	0x3daac070	0.08337486
232	0xbc5171da	-0.012783492
233	0x3e086d01	0.13322832
234	0x3d9abc0e	0.075554
235	0xbc50f875	-0.012754549
236	0xbd3ab315	-0.045580942
237	0x3d6eeaae	0.058329277
238	0xbc5ed616	-0.013600847
239	0xbd173f14	-0.03692539
240	0xbd30cf2d	-0.04316633
241	0x3ccfe231	0.025376411
242	0x3d99ffc6	0.07519488
243	0xbc3e28df	-0.011606424
244	0xbc89dea5	-0.016829798
245	0x3c912b45	0.017720828
246	0xbdfff55e	-0.12497972
247	0xbb3c57a1	-0.0028738754
248	0x3d673e56	0.056455933
249	0xbd4981e0	-0.049196124
250	0xbe0ec638	-0.13942802
251	0x3acfc48f	0.0015851426
252	0x3d645dae	0.055753402
253	0x3e0773a9	0.13227715
254	0xbd9f3a08	-0.077747405
255	0x3ccd0f11	0.025031598

network_body._body_endoder.seq_layers.2.bias f4 [256]
0	0x00000000	0.0
1	0x00000000	0.0
2	0x00000000	0.0
3	0x00000000	0.0
4	0x00000000	0.0
5	0x00000000	0.0
6	0x00000000	0.0
7	0x00000000	0.0
8	0x00000000	0.0
9	0x00000000	0.0
10	0x00000000	0.0
11	0x00000000	0.0
12	0x00000000	0.0
13	0x00000000	0.0
14	0x00000000	0.0
15	0x00000000	0.0
16	0x00000000	0.0
17	0x00000000	0.0
18	0x00000000	0.0
19	0x00000000	0.0
20	0x00000000	0.0
21	0x00000000	0.0
22	0x00000000	0.0
23	0x00000000	0.0
24	0x00000000	0.0
25	0x00000000	0.0
26	0x00000000	0.0
27	0x00000000	0.0
28	0x00000000	0.0
29	0x00000000	0.0
30	0x00000000	0.0
31	0x00000000	0.0
32	0x00000000	0.0
33	0x00000000	0.0
34	0x00000000	0.0
35	0x00000000	0.0
36	0x00000000	0.0
37	0x00000000	0.0
38	0x00000000	0.0
39	0x00000000	0.0
40	0x00000000	0.0
41	0x00000000	0.0
42	0x00000000	0.0
43	0x00000000	0.0
44	0x00000000	0.0
45	0x00000000	0.0
46	0x00000000	0.0
47	0x00000000	0.0
48	0x00000000	0.0
49	0x00000000	0.0
50	0x00000000	0.0
51	0x00000000	0.0
52	0x00000000	0.0
53	0x00000000	0.0
54	0x00000000	0.0
55	0x00000000	0.0
56	0x00000000	0.0
57	0x00000000	0.0
58	0x00000000	0.0
59	0x00000000	0.0
60	0x00000000	0.0
61	0x00000000	0.0
62	0x00000000	0.0
63	0x00000000	0.0
64	0x00000000	0.0
65	0x00000000	0.0
66	0x00000000	0.0
67	0x00000000	0.0
68	0x00000000	0.0
69	0x00000000	0.0
70	0x00000000	0.0
71	0x00000000	0.0
72	0x00000000	0.0
73	0x00000000	0.0
74	0x00000000	0.0
75	0x00000000	0.0
76	0x00000000	0.0
77	0x00000000	0.0
78	0x00000000	0.0
79	0x00000000	0.0
80	0x00000000	0.0
81	0x00000000	0.0
82	0x00000000	0.0
83	0x00000000	0.0
84	0x00000000	0.0
85	0x00000000	0.0
86	0x00000000	0.0
87	0x00000000	0.0
88	0x00000000	0.0
89	0x00000000	0.0
90	0x00000000	0.0
91	0x00000000	0.0
92	0x00000000	0.0
93	0x00000000	0.0
94	0x00000000	0.0
95	0x00000000	0.0
96	0x00000000	0.0
97	0x00000000	0.0
98	0x00000000	0.0
99	0x00000000	0.0
100	0x00000000	0.0
101	0x00000000	0.0
102	0x00000000	0.0
103	0x00000000	0.0
104	0x00000000	0.0
105	0x00000000	0.0
106	0x00000000	0.0
107	0x00000000	0.0
108	0x00000000	0.0
109	0x00000000	0.0
110	0x00000000	0.0
111	0x00000000	0.0
112	0x00000000	0.0
113	0x00000000	0.0
114	0x00000000	0.0
115	0x00000000	0.0
116	0x00000000	0.0
117	0x00000000	0.0
118	0x00000000	0.0
119	0x00000000	0.0
120	0x00000000	0.0
121	0x00000000	0.0
122	0x00000000	0.0
123	0x00000000	0.0
124	0x00000000	0.0
125	0x00000000	0.0
126	0x00000000	0.0
127	0x00000000	0.0
128	0x00000000	0.0
129	0x00000000	0.0
130	0x00000000	0.0
131	0x00000000	0.0
132	0x00000000	0.0
133	0x00000000	0.0
134	0x00000000	0.0
135	0x00000000	0.0
136	0x00000000	0.0
137	0x00000000	0.0
138	0x00000000	0.0
139	0x00000000	0.0
140	0x00000000	0.0
141	0x00000000	0.0
142	0x00000000	0.0
143	0x00000000	0.0
144	0x00000000	0.0
145	0x00000000	0.0
146	0x00000000	0.0
147	0x00000000	0.0
148	0x00000000	0.0
149	0x00000000	0.0
150	0x00000000	0.0
151	0x00000000	0.0
152	0x00000000	0.0
153	0x00000000	0.0
154	0x00000000	0.0
155	0x00000000	0.0
156	0x00000000	0.0
157	0x00000000	0.0
158	0x00000000	0.0
159	0x00000000	0.0
160	0x00000000	0.0
161	0x00000000	0.0
162	0x00000000	0.0
163	0x00000000	0.0
164	0x00000000	0.0
165	0x00000000	0.0
166	0x00000000	0.0
167	0x00000000	0.0
168	0x00000000	0.0
169	0x00000000	0.0
170	0x00000000	0.0
171	0x00000000	0.0
172	0x00000000	0.0
173	0x00000000	0.0
174	0x00000000	0.0
175	0x00000000	0.0
176	0x00000000	0.0
177	0x00000000	0.0
178	0x00000000	0.0
179	0x00000000	0.0
180	0x00000000	0.0
181	0x00000000	0.0
182	0x00000000	0.0
183	0x00000000	0.0
184	0x00000000	0.0
185	0x00000000	0.0
186	0x00000000	0.0
187	0x00000000	0.0
188	0x00000000	0.0
189	0x00000000	0.0
190	0x00000000	0.0
191	0x00000000	0.0
192	0x00000000	0.0
193	0x00000000	0.0
194	0x00000000	0.0
195	0x00000000	0.0
196	0x00000000	0.0
197	0x00000000	0.0
198	0x00000000	0.0
199	0x00000000	0.0
200	0x00000000	0.0
201	0x00000000	0.0
202	0x00000000	0.0
203	0x00000000	0.0
204	0x00000000	0.0
205	0x00000000	0.0
206	0x00000000	0.0
207	0x00000000	0.0
208	0x00000000	0.0
209	0x00000000	0.0
210	0x00000000	0.0
211	0x00000000	0.0
212	0x00000000	0.0
213	0x00000000	0.0
214	0x00000000	0.0
215	0x00000000	0.0
216	0x00000000	0.0
217	0x00000000	0.0
218	0x00000000	0.0
219	0x00000000	0.0
220	0x00000000	0.0
221	0x00000000	0.0
222	0x00000000	0.0
223	0x00000000	0.0
224	0x00000000	0.0
225	0x00000000	0.0
226	0x00000000	0.0
227	0x00000000	0.0
228	0x00000000	0.0
229	0x00000000	0.0
230	0x00000000	0.0
231	0x00000000	0.0
232	0x00000000	0.0
233	0x00000000	0.0
234	0x00000000	0.0
235	0x00000000	0.0
236	0x00000000	0.0
237	0x00000000	0.0
238	0x00000000	0.0
239	0x00000000	0.0
240	0x00000000	0.0
241	0x00000000	0.0
242	0x00000000	0.0
243	0x00000000	0.0
244	0x00000000	0.0
245	0x00000000	0.0
246	0x00000000	0.0
247	0x00000000	0.0
248	0x00000000	0.0
249	0x00000000	0.0
250	0x00000000	0.0
251	0x00000000	0.0
252	0x00000000	0.0
253	0x00000000	0.0
254	0x00000000	0.0
255	0x00000000	0.0

network_body._body_endoder.seq_layers.4.weight f4 [256, 256]
0	0xbd71e4e9	-0.059056196
1	0x3d22acc9	0.039715562
2	0x3d95d388	0.07315737
3	0x3d0bb4b7	0.03410789
4	0x3b96f1ac	0.0046064463
5	0x3988f589	0.0002612288
6	0x3c4482a9	0.011994042
7	0xbd5a6164	-0.053315535
8	0x3da89c90	0.08232987
9	0xbd67a9d5	-0.05655845
10	0xbcae5008	-0.021278396
11	0xbd29ace1	-0.041424636
12	0x3b6981be	0.003563031
13	0x3cf896fe	0.030345436
14	0xbcca1031	-0.024665924
15	0xbcf4e219	-0.029892968
16	0xbbe43bee	-0.006965152
17	0xbd642212	-0.055696554
18	0x3de87e2a	0.11352189
19	0x3dbd010d	0.09228716
20	0xbde61ae1	-0.112355955
21	0xbddc8b8b	-0.10768803
22	0x3d515d18	0.05111417
23	0xbd797a75	-0.0609078
24	0x3cef3a29	0.029202538
25	0x3d6fc95c	0.05854164
26	0xbcf07f32	-0.029357526
27	0xbc18e4a8	-0.00933186
28	0x3b0a6424	0.0021116817
29	0x3d695ad5	0.05697139
30	0x3d948904	0.07252696
31	0x3d24f505	0.04027273
32	0xbc0a968f	-0.0084587475
33	0xbdd00994	-0.10158077
34	0x3d1bb1ec	0.038011476
35	0x3d3d08d2	0.04615099
36	0x3d06276f	0.03275245
37	0x3d29e9c5	0.041482706
38	0x3d671b25	0.05642237
39	0x3c8fadef	0.017538993
40	0xbd34e3ab	-0.044162434
41	0xbb81cab8	-0.0039609335
42	0xbc60bbc8	-0.013716646
43	0xbdbae8a3	-0.09126403
44	0x3d214f21	0.039382104
45	0xbdcae2e1	-0.09906555
46	0xb9fd74f3	-0.00048343054
47	0xbd59fa0e	-0.053216986
48	0x3dc00844	0.093765765
49	0x3d4ac848	0.04950741
50	0x3c17478b	0.009233366
51	0xbd200fdc	-0.039077625
52	0xbce31cde	-0.027723726
53	0xbce44822	-0.027866427
54	0xbd503d15	-0.050839502
55	0xbe00e289	-0.12586416
56	0xbd8321dc	-0.064029425
57	0xbc6bcd8e	-0.01439227
58	0x3b90d7c7	0.004420254
59	0xbd20f1ee	-0.039293222
60	0x3d8b4bee	0.06801592
61	0x3d3f4344	0.04669501
62	0xbd8071a9	-0.06271679
63	0xbd807961	-0.06273151
64	0x3d4cae8d	0.049971152
65	0xbd9f269f	-0.07771038
66	0xbe3b3db2	-0.18285254
67	0xbda09e15	-0.07842652
68	0xbdb105fa	-0.08643718
69	0xbd089a5d	-0.033350337
70	0xbc966930	-0.018360704
71	0x3a7de26a	0.00096849224
72	0xbdad3e2a	-0.084591225
73	0xbd532b72	-0.051555105
74	0xbd4dfe1d	-0.05029117
75	0x3e04207d	0.12903018
76	0x3cbf7357	0.023370428
77	0xbc6adc32	-0.014334725
78	0x3d9167b6	0.070998594
79	0x3c36d419	0.011158966
80	0xba9c1eab	-0.0011910995
81	0xbc909e8d	-0.017653728
82	0xbd8eb56a	-0.06968196
83	0xbcab35cb	-0.020899674
84	0xbc1d2adb	-0.009592737
85	0x3da09b21	0.078420885
86	0x3d3dcbb7	0.046336856
87	0x3cc19d43	0.023634559
88	0xbd88690a	-0.066606596
89	0xbd212f88	-0.03935197
90	0xbcc615cd	-0.024180317
91	0xbd2e67d9	-0.042579506
92	0x3d6abb8e	0.057307772
93	0x3cb88c2b	0.022527775
94	0xbab6949d	-0.0013929788
95	0x3c942d5a	0.018088032
96	0xbd86584a	-0.065598086
97	0x3d728949	0.059212957
98	0x3d79ee37	0.061018195
99	0x3d92a374	0.071600825
100	0x3dc25803	0.09489443
101	0xbd585567	-0.05281582
102	0xbd10f73f	-0.035392042
103	0xbc923dad	-0.017851675
104	0x3d4d5a2a	0.050134815
105	0x3d93d8b1	0.07219065
106	0x3e10e3d0	0.14149404
107	0xbd1647ad	-0.03668945
108	0xbdbd4140	-0.09240961
109	0x3d8e3d44	0.06945279
110	0x3d4a9d7e	0.049466603
111	0x3d1a93e7	0.037738707
112	0xbd6ad0d0	-0.057328045
113	0x3d49cc26	0.049266957
114	0xbd861db0	-0.06548631
115	0xbcb8b4e5	-0.022547195
116	0xbd87058c	-0.06592855
117	0x3d2053db	0.03914247
118	0xbb940af9	-0.0045179096
119	0x3d48826c	0.048952505
120	0x3d76490f	0.060128268
121	0x3cd20db2	0.025641296
122	0x3b3a6da0	0.002844669
123	0x3e0a680f	0.13516258
124	0xbd34c4e0	-0.044133067
125	0xbd35e4be	-0.0444076
126	0xbe0dd513	-0.13850813
127	0xbc8d5a15	-0.017254869
128	0x3ba21881	0.0049467687
129	0xbd825ac2	-0.06364967
130	0xbbeb6a49	-0.007184301
131	0x3d39293f	0.04520535
132	0x3cd4b267	0.025963975
133	0x3d37e301	0.044894222
134	0xbdb407af	-0.08790528
135	0x3c9cc79c	0.01913815
136	0xbd07619e	-0.03305208
137	0xbce5bda2	-0.028044526
138	0xbcc90c5e	-0.02454203
139	0x3d134884	0.03595783
140	0x3ccb890c	0.024845622
141	0x3d9d95e9	0.07694609
142	0x3bb6cc31	0.0055785407
143	0x3d85f1f6	0.06540291
144	0xbd3c3f02	-0.045958526
145	0x3c486887	0.0122319525
146	0xbc2e7e67	-0.010650254
147	0xbdad226b	-0.0845383
148	0xbcebfc4f	-0.028806834
149	0x3e0f8cb7	0.14018522
150	0xbdabd881	-0.08390904
151	0xbdc16636	-0.09443323
152	0x3d73172a	0.059348263
153	0x3db50930	0.08839643
154	0xbcc1fdaf	-0.023680536
155	0xbd1f9b6b	-0.038966578
156	0xbc837fa9	-0.016052084
157	0xbb3e1456	-0.002900382
158	0xbd7c0a06	-0.061532997
159	0xbd2be843	-0.04196955
160	0x3cd71089	0.026253002
161	0x3d4f428a	0.050600566
162	0x3d90b853	0.07066407
163	0xbd983c65	-0.07433394
164	0x3db6b5a0	0.08921361
165	0x3d1c8e63	0.038221728
166	0xbd0b877d	-0.03406476
167	0xbd035794	-0.032065943
168	0xbdfac9a5	-0.12245492
169	0x3d27c1ce	0.04095631
170	0x3dc97043	0.09835865
171	0xba2df0a6	-0.00066352857
172	0xbcb83909	-0.022488134
173	0xbd184270	-0.037172735
174	0xbd6dcaf3	-0.058054876
175	0xbc730254	-0.014832098
176	0x3b06491f	0.002049036
177	0x3d3cead0	0.046122372
178	0xba345cd8	-0.000688029
179	0x3cda3cb5	0.026640275
180	0xbccb76a2	-0.024836842
181	0x3d874478	0.06604856
182	0xbd69272f	-0.056922134
183	0xbd665d00	-0.056241035
184	0xbccbbac0	-0.024869323
185	0xbcd8beb3	-0.02645812
186	0x3da7d894	0.08195606
187	0xbcc7268c	-0.024310373
188	0xbd799258	-0.06093058
189	0x3dc23f09	0.09484679
190	0x3dff2e79	0.12460036
191	0x3d0964e9	0.0335435
192	0x3bb1ed98	0.0054299347
193	0x3cb095cd	0.021555806
194	0x3d85c9a7	0.06532603
195	0x3da8951e	0.08231567
196	0x3c36cfa2	0.011157902
197	0xbdee3239	-0.11630673
198	0xbd79aee2	-0.060957797
199	0xbc626ab0	-0.013819382
200	0xbc30dfe9	-0.010795572
201	0xbd67f68b	-0.056631606
202	0x3db931df	0.09042715
203	0x3d2c8f0e	0.042128615
204	0xbc80758f	-0.015681056
205	0xbd899a61	-0.067188986
206	0x3d9f6997	0.077838115
207	0x3bc5c7db	0.0060357875
208	0x3c838114	0.01605276
209	0x3c66006e	0.014038188
210	0xbc8155c0	-0.01578796
211	0xbcead6c4	-0.028666861
212	0xbde9e694	-0.114209324
213	0xbcd62af0	-0.026143521
214	0x3c2d6777	0.01058375
215	0x3c454ade	0.0120417755
216	0x3cfd5acc	0.030927084
217	0xbbdab5a6	-0.006674486
218	0x3d9c0b60	0.07619357
219	0xbd2d8fd2	-0.042373486
220	0xbda153c9	-0.07877309
221	0xbba12202	-0.004917384
222	0x3dba90bc	0.09109637
223	0xbcad1820	-0.021129668
224	0x3d4d60eb	0.050141256
225	0x3c32909b	0.010898734
226	0xbd596b9c	-0.05308114
227	0x3dc79a6d	0.09746251
228	0x3d834b08	0.064107955
229	0xbdf94ae2	-0.12172486
230	0xbd6666f7	-0.05625054
231	0x3b88e7a8	0.004178006
232	0x3c674a73	0.014116871
233	0xbd86b17a	-0.0657682
234	0x3db5564e	0.08854352
235	0xbcdf22b3	-0.027238226
236	0x3d208610	0.039190352
237	0x3cb35d62	0.021895114
238	0x3d492db3	0.049115848
239	0x3d63deea	0.05563251
240	0xbcf1e07e	-0.029525992
241	0xbd4ed91c	-0.05050002
242	0x3cedbf0f	0.029021768
243	0x3c6f1a74	0.014593709
244	0xbdd208df	-0.10255598
245	0xbd686fd8	-0.056747288
246	0xbd85d55a	-0.06534834
247	0xbd80457a	-0.062632516
248	0xbd817558	-0.0632121
249	0xbd0782a8	-0.033083588
250	0xbcb3b657	-0.021937532
251	0x3cc4dbce	0.024030592
252	0xbad2274f	-0.0016033443
253	0xbda25105	-0.079256095
254	0x3c34a92f	0.011026665
255	0x3e297c84	0.16551405

network_body._body_endoder.seq_layers.4.bias f4 [256]
0	0x00000000	0.0
1	0x00000000	0.0
2	0x00000000	0.0
3	0x00000000	0.0
4	0x00000000	0.0
5	0x00000000	0.0
6	0x00000000	0.0
7	0x00000000	0.0
8	0x00000000	0.0
9	0x00000000	0.0
10	0x00000000	0.0
11	0x00000000	0.0
12	0x00000000	0.0
13	0x00000000	0.0
14	0x00000000	0.0
15	0x00000000	0.0
16	0x00000000	0.0
17	0x00000000	0.0
18	0x00000000	0.0
19	0x00000000	0.0
20	0x00000000	0.0
21	0x00000000	0.0
22	0x00000000	0.0
23	0x00000000	0.0
24	0x00000000	0.0
25	0x00000000	0.0
26	0x00000000	0.0
27	0x00000000	0.0
28	0x00000000	0.0
29	0x00000000	0.0
30	0x00000000	0.0
31	0x00000000	0.0
32	0x00000000	0.0
33	0x00000000	0.0
34	0x00000000	0.0
35	0x00000000	0.0
36	0x00000000	0.0
37	0x00000000	0.0
38	0x00000000	0.0
39	0x00000000	0.0
40	0x00000000	0.0
41	0x00000000	0.0
42	0x00000000	0.0
43	0x00000000	0.0
44	0x00000000	0.0
45	0x00000000	0.0
46	0x00000000	0.0
47	0x00000000	0.0
48	0x00000000	0.0
49	0x00000000	0.0
50	0x00000000	0.0
51	0x00000000	0.0
52	0x00000000	0.0
53	0x00000000	0.0
54	0x00000000	0.0
55	0x00000000	0.0
56	0x00000000	0.0
57	0x00000000	0.0
58	0x00000000	0.0
59	0x00000000	0.0
60	0x00000000	0.0
61	0x00000000	0.0
62	0x00000000	0.0
63	0x00000000	0.0
64	0x00000000	0.0
65	0x00000000	0.0
66	0x00000000	0.0
67	0x00000000	0.0
68	0x00000000	0.0
69	0x00000000	0.0
70	0x00000000	0.0
71	0x00000000	0.0
72	0x00000000	0.0
73	0x00000000	0.0
74	0x00000000	0.0
75	0x00000000	0.0
76	0x00000000	0.0
77	0x00000000	0.0
78	0x00000000	0.0
79	0x00000000	0.0
80	0x00000000	0.0
81	0x00000000	0.0
82	0x00000000	0.0
83	0x00000000	0.0
84	0x00000000	0.0
85	0x00000000	0.0
86	0x00000000	0.0
87	0x00000000	0.0
88	0x00000000	0.0
89	0x00000000	0.0
90	0x00000000	0.0
91	0x00000000	0.0
92	0x00000000	0.0
93	0x00000000	0.0
94	0x00000000	0.0
95	0x00000000	0.0
96	0x00000000	0.0
97	0x00000000	0.0
98	0x00000000	0.0
99	0x00000000	0.0
100	0x00000000	0.0
101	0x00000000	0.0
102	0x00000000	0.0
103	0x00000000	0.0
104	0x00000000	0.0
105	0x00000000	0.0
106	0x00000000	0.0
107	0x00000000	0.0
108	0x00000000	0.0
109	0x00000000	0.0
110	0x00000000	0.0
111	0x00000000	0.0
112	0x00000000	0.0
113	0x00000000	0.0
114	0x00000000	0.0
115	0x00000000	0.0
116	0x00000000	0.0
117	0x00000000	0.0
118	0x00000000	0.0
119	0x00000000	0.0
120	0x00000000	0.0
121	0x00000000	0.0
122	0x00000000	0.0
123	0x00000000	0.0
124	0x00000000	0.0
125	0x00000000	0.0
126	0x00000000	0.0
127	0x00000000	0.0
128	0x00000000	0.0
129	0x00000000	0.0
130	0x00000000	0.0
131	0x00000000	0.0
132	0x00000000	0.0
133	0x00000000	0.0
134	0x00000000	0.0
135	0x00000000	0.0
136	0x00000000	0.0
137	0x00000000	0.0
138	0x00000000	0.0
139	0x00000000	0.0
140	0x00000000	0.0
141	0x00000000	0.0
142	0x00000000	0.0
143	0x00000000	0.0
144	0x00000000	0.0
145	0x00000000	0.0
146	0x00000000	0.0
147	0x00000000	0.0
148	0x00000000	0.0
149	0x00000000	0.0
150	0x00000000	0.0
151	0x00000000	0.0
152	0x00000000	0.0
153	0x00000000	0.0
154	0x00000000	0.0
155	0x00000000	0.0
156	0x00000000	0.0
157	0x00000000	0.0
158	0x00000000	0.0
159	0x00000000	0.0
160	0x00000000	0.0
161	0x00000000	0.0
162	0x00000000	0.0
163	0x00000000	0.0
164	0x00000000	0.0
165	0x00000000	0.0
166	0x00000000	0.0
167	0x00000000	0.0
168	0x00000000	0.0
169	0x00000000	0.0
170	0x00000000	0.0
171	0x00000000	0.0
172	0x00000000	0.0
173	0x00000000	0.0
174	0x00000000	0.0
175	0x00000000	0.0
176	0x00000000	0.0
177	0x00000000	0.0
178	0x00000000	0.0
179	0x00000000	0.0
180	0x00000000	0.0
181	0x00000000	0.0
182	0x00000000	0.0
183	0x00000000	0.0
184	0x00000000	0.0
185	0x00000000	0.0
186	0x00000000	0.0
187	0x00000000	0.0
188	0x00000000	0.0
189	0x00000000	0.0
190	0x00000000	0.0
191	0x00000000	0.0
192	0x00000000	0.0
193	0x00000000	0.0
194	0x00000000	0.0
195	0x00000000	0.0
196	0x00000000	0.0
197	0x00000000	0.0
198	0x00000000	0.0
199	0x00000000	0.0
200	0x00000000	0.0
201	0x00000000	0.0
202	0x00000000	0.0
203	0x00000000	0.0
204	0x00000000	0.0
205	0x00000000	0.0
206	0x00000000	0.0
207	0x00000000	0.0
208	0x00000000	0.0
209	0x00000000	0.0
210	0x00000000	0.0
211	0x00000000	0.0
212	0x00000000	0.0
213	0x00000000	0.0
214	0x00000000	0.0
215	0x00000000	0.0
216	0x00000000	0.0
217	0x00000000	0.0
218	0x00000000	0.0
219	0x00000000	0.0
220	0x00000000	0.0
221	0x00000000	0.0
222	0x00000000	0.0
223	0x00000000	0.0
224	0x00000000	0.0
225	0x00000000	0.0
226	0x00000000	0.0
227	0x00000000	0.0
228	0x00000000	0.0
229	0x00000000	0.0
230	0x00000000	0.0
231	0x00000000	0.0
232	0x00000000	0.0
233	0x00000000	0.0
234	0x00000000	0.0
235	0x00000000	0.0
236	0x00000000	0.0
237	0x00000000	0.0
238	0x00000000	0.0
239	0x00000000	0.0
240	0x00000000	0.0
241	0x00000000	0.0
242	0x00000000	0.0
243	0x00000000	0.0
244	0x00000000	0.0
245	0x00000000	0.0
246	0x00000000	0.0
247	0x00000000	0.0
248	0x00000000	0.0
249	0x00000000	0.0
250	0x00000000	0.0
251	0x00000000	0.0
252	0x00000000	0.0
253	0x00000000	0.0
254	0x00000000	0.0
255	0x00000000	0.0

network_body._body_endoder.seq_layers.6.weight f4 [256, 256]
0	0xbd0c477b	-0.034247857
1	0xbd5c85d7	-0.053838577
2	0x3d8edf38	0.06976169
3	0xbd0046cb	-0.031317513
4	0x3be77c76	0.0070643974
5	0x3d01f76c	0.0317301
6	0xbcbc3071	-0.022972317
7	0x3d5b20f6	0.05349823
8	0x3cd7cbb4	0.02634225
9	0xbb903cf9	-0.0044017998
10	0xbcde3fe7	-0.02713008
11	0x3ca00d36	0.01953755
12	0x3cf0130f	0.029305963
13	0xbda6b587	-0.08140092
14	0xbd0db832	-0.03459949
15	0x3e12079c	0.14260715
16	0xbca07c92	-0.01959065
17	0xbd7e0943	-0.06202055
18	0x3a81204e	0.0009851546
19	0xbdbccfe7	-0.09219342
20	0xbd83cc59	-0.064354606
21	0xbdad7a83	-0.08470633
22	0xbb51bcd4	-0.003200342
23	0x3d3f29ec	0.04667084
24	0xbd72de60	-0.059294105
25	0x3dd1460d	0.10218439
26	0x3d014ce5	0.031567473
27	0xbd98e8b5	-0.0746626
28	0x3d6e6b5c	0.058207855
29	0x3d1168e8	0.035500437
30	0x3c02b13e	0.007976828
31	0xbe00fcc7	-0.12596427
32	0x3d7fc7c4	0.06244637
33	0xbc4b64c2	-0.012414159
34	0xbda0a89e	-0.07844661
35	0xbac7e87c	-0.0015251781
36	0x3dfa3908	0.12217909
37	0xbc598f47	-0.013278789
38	0x3cdea447	0.027177943
39	0xbd1797e5	-0.037010092
40	0xbdc33d71	-0.095332034
41	0xbd2e5449	-0.04256085
42	0xbd5b126f	-0.053484377
43	0x3cced012	0.0252457
44	0xbddb662f	-0.10712849
45	0xbd70ebab	-0.0588185
46	0x3d331bc9	0.04372767
47	0x39f36650	0.000464248
48	0xbca6efdc	-0.020378046
49	0x3b96ce0a	0.0046021985
50	0x3de2d534	0.110758215
51	0xbc97d634	-0.018534757
52	0xbd8446d1	-0.0645882
53	0x3d0382f8	0.032107323
54	0xbe01f7f7	-0.12692247
55	0xbcc3f08d	-0.023918414
56	0x3d16913a	0.036759593
57	0xbcf56b4c	-0.02995839
58	0x3dc86403	0.09784701
59	0x3e0b07c3	0.1357718
60	0xbd72522b	-0.059160393
61	0x3c3399c8	0.010961957
62	0x3e05e47c	0.13075441
63	0x3dca1e81	0.098690994
64	0xbcd75a68	-0.026288226
65	0xbda6d3ba	-0.081458524
66	0xbc70a19d	-0.014686969
67	0x3d4828b7	0.048866954
68	0x3a90debd	0.0011052709
69	0x3ca5e864	0.020252414
70	0xbd8e84ea	-0.06958945
71	0x3d833f65	0.06408576
72	0xbd21b2ec	-0.039477274
73	0x3d3bbe86	0.045835994
74	0x3ce5d964	0.028057761
75	0x3dc5cf0d	0.096586324
76	0x3d0a1d48	0.03371933
77	0xbd840173	-0.06445589
78	0xbce478c3	-0.027889615
79	0x3dead90a	0.11467178
80	0x3df2b268	0.118504345
81	0xbd9a46e0	-0.075330496
82	0xbd9e02af	-0.077153556
83	0xbc9e4fd9	-0.019325184
84	0x3daa9799	0.08329696
85	0xbcc51b71	-0.024060937
86	0xbda69678	-0.081341684
87	0xbd6ba434	-0.057529643
88	0xbd43a366	-0.04776325
89	0xbc8bba9a	-0.017056752
90	0xbd436b9b	-0.047710042
91	0x3cbf9435	0.0233861
92	0x3d8cd2c9	0.068761416
93	0xbe08330a	-0.1330072
94	0xbc4a5ee5	-0.012351726
95	0x3d5b1143	0.05348326
96	0x3c2cbc89	0.010542997
97	0x3db5b762	0.08872868
98	0x3d4ca725	0.04996409
99	0xbcd58f58	-0.026069328
100	0x3cf8c034	0.030365087
101	0xbc989403	-0.018625265
102	0xbdc33069	-0.09530718
103	0x3cb66a21	0.022267403
104	0x3df8c3f0	0.12146747
105	0xbdb133e9	-0.08652479
106	0xbd32435a	-0.043521263
107	0x3d6018c4	0.05471112
108	0xbd3f8a77	-0.04676291
109	0x3c469331	0.012120054
110	0x3d98a4ba	0.07453294
111	0x3d41bf30	0.04730147
112	0x3d3957b1	0.045249645
113	0xbd4ff128	-0.050767094
114	0xbcb6144a	-0.022226471
115	0xbd20b6cc	-0.03923683
116	0x3c733e20	0.014846355
117	0x3c739330	0.014866635
118	0xbda6c442	-0.08142902
119	0xbd8e3cd9	-0.069451995
120	0xbd15fb60	-0.036616683
121	0x3ba911c0	0.0051595867
122	0x3b0c2476	0.0021384037
123	0x3dc6ab80	0.0970068
124	0x3d87a172	0.0662259
125	0x3bcb183e	0.0061979583
126	0x3d9dede8	0.07711393
127	0x3cfd2d44	0.030905373
128	0x3c886491	0.016649516
129	0xbdd0a5f0	-0.101879
130	0x3bdde259	0.0067713675
131	0xbdef23bc	-0.11676738
132	0xbca49376	-0.020089846
133	0x3ceb9ce7	0.02876134
134	0x3c5c2a19	0.013437771
135	0xbbbed3ce	-0.005823589
136	0x3e088d0b	0.13335054
137	0x3d2a9b3b	0.041651946
138	0x3d3e47c7	0.04645517
139	0xbd8236d3	-0.06358113
140	0xbd2dfcb7	-0.042477336
141	0x3e55e10b	0.20886628
142	0x3dc8a335	0.09796754
143	0xbcac643c	-0.02104389
144	0x3c2ae457	0.010430417
145	0xbd4134e2	-0.047169574
146	0x3dc7987d	0.09745882
147	0x3c9b78db	0.018978527
148	0x3db77509	0.089578696
149	0x3c787118	0.015163682
150	0xbdc9eb0e	-0.09859286
151	0xbc342cda	-0.010997022
152	0xbd968563	-0.0734966
153	0xbdc9c96b	-0.098528706
154	0xbca97ce7	-0.02068944
155	0x3d85cb6d	0.06532941
156	0xbdaa69d0	-0.083209634
157	0x3c119e0d	0.00888778
158	0x3d3fd17b	0.046830636
159	0xbd380d35	-0.04493447
160	0xbd8ecb1d	-0.069723345
161	0xbcd2c2e0	-0.02572769
162	0x3c330129	0.01092557
163	0x3d7b9c35	0.061428268
164	0xbd8cec3c	-0.06880996
165	0xbdb25d5f	-0.087092154
166	0xbcd35c6b	-0.025800904
167	0xbc92c407	-0.017915739
168	0xbba24677	-0.0049522477
169	0xbceee7e1	-0.029163303
170	0x3d826a24	0.06367901
171	0x3d86450a	0.06556137
172	0x3d6a89dc	0.05726038
173	0xbc7d69f0	-0.015467152
174	0xbdbcb742	-0.09214641
175	0xbd032c31	-0.032024566
176	0x3aba64a4	0.0014220667
177	0xbdad3680	-0.08457661
178	0xbd80c8d6	-0.062883064
179	0xbd159947	-0.03652313
180	0x3c4be20e	0.012444032
181	0x3e138b32	0.14408568
182	0x3d4d61e0	0.05014217
183	0x3d31ff7e	0.043456547
184	0xbca9b80e	-0.020717647
185	0x3c4d2dec	0.012523156
186	0xbc434f9a	-0.011920834
187	0x3b4b1280	0.0030986369
188	0xbda42ab7	-0.0801596
189	0xbcfd4242	-0.030915383
190	0xbd7133d4	-0.058887318
191	0x3d6f18f6	0.058373414
192	0x3caf3960	0.021389663
193	0xbd361709	-0.04445556
194	0x3aa3ce19	0.0012497335
195	0x3c41bafd	0.011824367
196	0xbe118f26	-0.14214763
197	0xbdbae5bc	-0.091258496
198	0x3d5d4889	0.054024253
199	0x3e24c3dc	0.1609034
200	0xbd937b2a	-0.07201226
201	0xbdc5caa9	-0.09657795
202	0x3b145248	0.0022632051
203	0xbdc30c2c	-0.09523806
204	0x3dc14eae	0.09438835
205	0x3c8658e5	0.01639981
206	0x3dbfbcf0	0.09362209
207	0xbdb24762	-0.087050214
208	0xbe047a7e	-0.12937352
209	0xbc8cc2f2	-0.0171828
210	0xbd43f542	-0.047841318
211	0xbce626dd	-0.028094703
212	0x3cdae0d9	0.026718544
213	0xb8d164fa	-9.984705e-05
214	0x3c0d7c6b	0.008635621
215	0xbbb52338	-0.00552788
216	0x3c47faa4	0.0122057535
217	0x3da55441	0.08072711
218	0x3d2c9555	0.0421346
219	0x3d4ce295	0.050020773
220	0x3d8d8c7f	0.06911563
221	0xbd71d9b2	-0.0590455
222	0x3d870524	0.06592777
223	0xbc7ea8e3	-0.015543195
224	0x3da38c07	0.079856925
225	0xbc1969ff	-0.00936365
226	0x3c064660	0.00819549
227	0x3c942703	0.018085008
228	0x3c969ff8	0.018386826
229	0x3e05d5bf	0.13069819
230	0x3dd002e9	0.10156805
231	0xbc3f08fe	-0.011659859
232	0xbc5ca841	-0.013467849
233	0x3da5dc4f	0.08098661
234	0x3d416b16	0.047221266
235	0xbd8a835f	-0.06763338
236	0x3cdb1073	0.026741242
237	0xbd730e59	-0.059339855
238	0x3be38fe8	0.006944645
239	0xbcd45f32	-0.025924299
240	0xbdf61601	-0.12015916
241	0x3afead42	0.0019430297
242	0x3d3adfc8	0.04562357
243	0x3e127958	0.14304101
244	0x3ce651bc	0.028115146
245	0x3bbd7992	0.0057823146
246	0xbc310aad	-0.010805768
247	0x3d793c90	0.060848773
248	0x3ba1de86	0.004939857
249	0x3ccc10f1	0.024910422
250	0x3a92d23d	0.0011201572
251	0x3b04c949	0.0020261577
252	0x3d2a8428	0.04162994
253	0xbd015a06	-0.031579994
254	0xbe0b1e3d	-0.13585754
255	0xbc8c673e	-0.017139073

network_body._body_endoder.seq_layers.6.bias f4 [256]
0	0x00000000	0.0
1	0x00000000	0.0
2	0x00000000	0.0
3	0x00000000	0.0
4	0x00000000	0.0
5	0x00000000	0.0
6	0x00000000	0.0
7	0x00000000	0.0
8	0x00000000	0.0
9	0x00000000	0.0
10	0x00000000	0.0
11	0x00000000	0.0
12	0x00000000	0.0
13	0x00000000	0.0
14	0x00000000	0.0
15	0x00000000	0.0
16	0x00000000	0.0
17	0x00000000	0.0
18	0x00000000	0.0
19	0x00000000	0.0
20	0x00000000	0.0
21	0x00000000	0.0
22	0x00000000	0.0
23	0x00000000	0.0
24	0x00000000	0.0
25	0x00000000	0.0
26	0x00000000	0.0
27	0x00000000	0.0
28	0x00000000	0.0
29	0x00000000	0.0
30	0x00000000	0.0
31	0x00000000	0.0
32	0x00000000	0.0
33	0x00000000	0.0
34	0x00000000	0.0
35	0x00000000	0.0
36	0x00000000	0.0
37	0x00000000	0.0
38	0x00000000	0.0
39	0x00000000	0.0
40	0x00000000	0.0
41	0x00000000	0.0
42	0x00000000	0.0
43	0x00000000	0.0
44	0x00000000	0.0
45	0x00000000	0.0
46	0x00000000	0.0
47	0x00000000	0.0
48	0x00000000	0.0
49	0x00000000	0.0
50	0x00000000	0.0
51	0x00000000	0.0
52	0x00000000	0.0
53	0x00000000	0.0
54	0x00000000	0.0
55	0x00000000	0.0
56	0x00000000	0.0
57	0x00000000	0.0
58	0x00000000	0.0
59	0x00000000	0.0
60	0x00000000	0.0
61	0x00000000	0.0
62	0x00000000	0.0
63	0x00000000	0.0
64	0x00000000	0.0
65	0x00000000	0.0
66	0x00000000	0.0
67	0x00000000	0.0
68	0x00000000	0.0
69	0x00000000	0.0
70	0x00000000	0.0
71	0x00000000	0.0
72	0x00000000	0.0
73	0x00000000	0.0
74	0x00000000	0.0
75	0x00000000	0.0
76	0x00000000	0.0
77	0x00000000	0.0
78	0x00000000	0.0
79	0x00000000	0.0
80	0x00000000	0.0
81	0x00000000	0.0
82	0x00000000	0.0
83	0x00000000	0.0
84	0x00000000	0.0
85	0x00000000	0.0
86	0x00000000	0.0
87	0x00000000	0.0
88	0x00000000	0.0
89	0x00000000	0.0
90	0x00000000	0.0
91	0x00000000	0.0
92	0x00000000	0.0
93	0x00000000	0.0
94	0x00000000	0.0
95	0x00000000	0.0
96	0x00000000	0.0
97	0x00000000	0.0
98	0x00000000	0.0
99	0x00000000	0.0
100	0x00000000	0.0
101	0x00000000	0.0
102	0x00000000	0.0
103	0x00000000	0.0
104	0x00000000	0.0
105	0x00000000	0.0
106	0x00000000	0.0
107	0x00000000	0.0
108	0x00000000	0.0
109	0x00000000	0.0
110	0x00000000	0.0
111	0x00000000	0.0
112	0x00000000	0.0
113	0x00000000	0.0
114	0x00000000	0.0
115	0x00000000	0.0
116	0x00000000	0.0
117	0x00000000	0.0
118	0x00000000	0.0
119	0x00000000	0.0
120	0x00000000	0.0
121	0x00000000	0.0
122	0x00000000	0.0
123	0x00000000	0.0
124	0x00000000	0.0
125	0x00000000	0.0
126	0x00000000	0.0
127	0x00000000	0.0
128	0x00000000	0.0
129	0x00000000	0.0
130	0x00000000	0.0
131	0x00000000	0.0
132	0x00000000	0.0
133	0x00000000	0.0
134	0x00000000	0.0
135	0x00000000	0.0
136	0x00000000	0.0
137	0x00000000	0.0
138	0x00000000	0.0
139	0x00000000	0.0
140	0x00000000	0.0
141	0x00000000	0.0
142	0x00000000	0.0
143	0x00000000	0.0
144	0x00000000	0.0
145	0x00000000	0.0
146	0x00000000	0.0
147	0x00000000	0.0
148	0x00000000	0.0
149	0x00000000	0.0
150	0x00000000	0.0
151	0x00000000	0.0
152	0x00000000	0.0
153	0x00000000	0.0
154	0x00000000	0.0
155	0x00000000	0.0
156	0x00000000	0.0
157	0x00000000	0.0
158	0x00000000	0.0
159	0x00000000	0.0
160	0x00000000	0.0
161	0x00000000	0.0
162	0x00000000	0.0
163	0x00000000	0.0
164	0x00000000	0.0
165	0x00000000	0.0
166	0x00000000	0.0
167	0x00000000	0.0
168	0x00000000	0.0
169	0x00000000	0.0
170	0x00000000	0.0
171	0x00000000	0.0
172	0x00000000	0.0
173	0x00000000	0.0
174	0x00000000	0.0
175	0x00000000	0.0
176	0x00000000	0.0
177	0x00000000	0.0
178	0x00000000	0.0
179	0x00000000	0.0
180	0x00000000	0.0
181	0x00000000	0.0
182	0x00000000	0.0
183	0x00000000	0.0
184	0x00000000	0.0
185	0x00000000	0.0
186	0x00000000	0.0
187	0x00000000	0.0
188	0x00000000	0.0
189	0x00000000	0.0
190	0x00000000	0.0
191	0x00000000	0.0
192	0x00000000	0.0
193	0x00000000	0.0
194	0x00000000	0.0
195	0x00000000	0.0
196	0x00000000	0.0
197	0x00000000	0.0
198	0x00000000	0.0
199	0x00000000	0.0
200	0x00000000	0.0
201	0x00000000	0.0
202	0x00000000	0.0
203	0x00000000	0.0
204	0x00000000	0.0
205	0x00000000	0.0
206	0x00000000	0.0
207	0x00000000	0.0
208	0x00000000	0.0
209	0x00000000	0.0
210	0x00000000	0.0
211	0x00000000	0.0
212	0x00000000	0.0
213	0x00000000	0.0
214	0x00000000	0.0
215	0x00000000	0.0
216	0x00000000	0.0
217	0x00000000	0.0
218	0x00000000	0.0
219	0x00000000	0.0
220	0x00000000	0.0
221	0x00000000	0.0
222	0x00000000	0.0
223	0x00000000	0.0
224	0x00000000	0.0
225	0x00000000	0.0
226	0x00000000	0.0
227	0x00000000	0.0
228	0x00000000	0.0
229	0x00000000	0.0
230	0x00000000	0.0
231	0x00000000	0.0
232	0x00000000	0.0
233	0x00000000	0.0
234	0x00000000	0.0
235	0x00000000	0.0
236	0x00000000	0.0
237	0x00000000	0.0
238	0x00000000	0.0
239	0x00000000	0.0
240	0x00000000	0.0
241	0x00000000	0.0
242	0x00000000	0.0
243	0x00000000	0.0
244	0x00000000	0.0
245	0x00000000	0.0
246	0x00000000	0.0
247	0x00000000	0.0
248	0x00000000	0.0
249	0x00000000	0.0
250	0x00000000	0.0
251	0x00000000	0.0
252	0x00000000	0.0
253	0x00000000	0.0
254	0x00000000	0.0
255	0x00000000	0.0
