Assets/ML_PPO/results/headless_19/BoatAgent/BoatAgent-1699976.onnx (onnx, 945870 bytes, 21 tensors)

discrete_action_output_shape f4 [1, 6]
00000000: 0000 0040 0000 0040 0000 0040 0000 0040
00000010: 0000 0040 0000 0040
2.0 2.0 2.0 2.0 2.0 2.0

network_body._body_endoder.seq_layers.0.weight f4 [256, 133]
00000000: ebda dd3c d1f0 90bc f88c 93bd be8b 1ebe
00000010: ab64 143d 62af a43d 8dc7 5f3e 31dd 753b
00000020: 737a 8d3d 5b63 acbd a7ed a6bc 009f f93c
00000030: 19c8 07be f71f 883d 6039 5f3d 3b59 4bbc
00000040: 6ff1 aa3d 2ac3 e1bc d68d 15be f23a c13c
00000050: 338d 2fbd ebe0 f53c b37a 3c3e 88e5 8e3b
00000060: d73c 11bc 2da9 abbc f3ce 19be b285 9fbb
00000070: c6f7 0f3e 5540 eabd 484f f23d baca 07bd
00000080: 3536 4dbd 9d66 4f3c 0482 25bc 8f72 0bbd
00000090: bb4e 78bc 2c02 49bc 9e68 81bc 2bac ab3d
000000a0: b6fa 0d3d 5470 9d3b a160 f73d ae36 603d
000000b0: 42ee 263d 8c88 da3c e99e feb8 7dc3 81bd
000000c0: 9688 cebd e7d8 ad3d d49f e1bd aaad 613b
000000d0: 8c6e 99be 35e3 9fbd a740 a13a d729 b33d
000000e0: fbbe 083e 27bd 0a3c fe4e 32bd e59e 0d3d
000000f0: f391 1dbe 696c 283d d230 3f3d 0f80 383e
00000100: 8b42 123d c822 db3d 66a0 9f3d 2772 d13d
00000110: 3b12 47bd f831 daba 532b ecbd 091d a1bc
00000120: 0d6d ed3c dd44 f03a 1357 b03d 4fd0 3c3e
00000130: 2b36 0ebd 6e4b a53d 9295 82bb 913a a73c
00000140: ab93 47bc cf5d 653d cd17 09be 1998 4d3d
00000150: 8d5e a03d 2d21 f039 3548 853d 3b98 5cbc
00000160: ab60 38bd 35f8 123d 9ad3 c4bd 44c3 c0bc
00000170: 9995 87bb 2fa4 09be a8b4 bd3c 162d b13d
00000180: 6405 4dbd 338d 43be 7c6c 543d 50d5 33be
00000190: 59de 8cbc f997 08be 0b33 23bd 37f3 3e3d
000001a0: 0384 b0bd 8683 46bd 36e2 04be 7b3b 15be
000001b0: 3f12 9dbd 3c58 203d 0912 62bd ce6f 20bd
000001c0: 15d4 9ebd 8400 5ebe 4f77 c5bd 6c7d 37be
000001d0: 907c 0fbe e0a2 de3d ff15 c13d f073 0dba
000001e0: a114 c8bd 8613 73bd 4648 373d 7ba7 293e
000001f0: d2f7 dbbd 7bf0 a9bd f242 a23e b02a 2a3c
00000200: e57b 613e 752b 12be c9a6 cf3d 22fe 9a3d
00000210: b11d 00bd f537 4fbd b3fa 98bd a27b 73bd
00000220: 36bb 533c da36 c3bc c5d2 66bc a377 583c
00000230: eb72 173d 6977 31bd 570b 64bd 45a0 963d
00000240: f27b 023e 36e5 7bbc 1b47 523c 9ac8 f93d
00000250: 886d c83d 995d 793c 2c06 1a3d 6b73 193e
00000260: 3426 453d ec58 c5bd 4b04 dabd 6b1d f93d
00000270: a0f2 49bd bfed 27bd d321 353e 26f4 01bd
00000280: ad1b edbc 934d 22be 757a d2bd f563 4bbc
00000290: f403 86bd b9b4 333e 5734 ad3d 65ca 103d
000002a0: 7b12 3bbe 70a5 0e3d 89bd 003d 43a6 073d
000002b0: 511d 223c b207 763d 78ae 0dbd 6520 f3bd
000002c0: f700 a03d c244 1cbd defc 833d 3b4c 3c3d
000002d0: eda6 313e 9a23 363d 35c7 38bd 503d 68bd
000002e0: fe9d 37bd 340d 13bd b179 b93d e8fb 1bbc
000002f0: 6592 d23d 1945 9a3d 07f8 003e 95ba bdbd
00000300: 9383 4e3d 914a 193e d9e0 74bd 17f5 213e
00000310: bd83 e13b cc69 4b3d 71b0 9fbc f58f 763d
00000320: b22d 65bd 26d8 713d 4b68 0b3e cb0a 89bd
00000330: 528b 923d d5d9 963d f932 c53c b2b4 8f3e
00000340: 3087 07be bcf9 de3d e3b6 ce3c 7516 1bbe
00000350: 4f7f b5bd 6ece bd3d 8930 e7bb 2af0 903c
00000360: 9e66 043e 0c75 92bd a134 21bd fdf3 98bd
00000370: a70b c4bc c306 083d a511 26bd 85d5 233e
00000380: 5481 02be bc04 a83d 432e a13a bc2e 03bd
00000390: a04f d5bc 6e68 273a 3230 e23d ae25 c63b
000003a0: 4ce8 84bd 4b48 f0bc 19a3 073d 393b 4f3d
000003b0: 8662 57bd 3a24 8a3d 77e8 7d3d d676 ba3c
000003c0: 813a c9bc d337 0dbe e286 c83d 11ba 883d
000003d0: d5d0 2e3e 2bd8 02be 6674 8b3d f120 453d
000003e0: 144f 58bc eef9 d33d d674 3b3d 7179 063e
000003f0: 4dd4 b0bc ecd1 093e 4768 e7bd de99 aabd
0.027081927 -0.017692955 -0.07204622 -0.15482995 0.036228817 0.08041264 0.21853466 0.0037515874
0.06908121 -0.08417388 -0.020376993 0.030471325 -0.13259925 0.06646722 0.054498076 -0.012411411
0.08346831 -0.027558882 -0.14604887 0.023587678 -0.042859267 0.030014476 0.18406181 0.0043608584
-0.008864603 -0.020954693 -0.15020351 -0.0048682326 0.14059362 -0.114380516 0.11831528 -0.03315232
-0.050100524 0.012658742 -0.010101799 -0.0340448 -0.01515549 -0.012268584 -0.015796956 0.08382448
0.034662925 0.0048046503 0.120789774 0.054739647 0.040754564 0.026676439 -0.00012141263 -0.063361146
-0.100846455 0.084886365 -0.11016813 0.0034435787 -0.29967153 -0.07807008 0.0012302593 0.08748215
0.13354103 0.008467949 -0.043532364 0.03457536 -0.15387706 0.041119013 0.046677418 0.180176
0.03570799 0.10699993 0.077942654 0.10226851 -0.04860137 -0.0016646972 -0.11531701 -0.019667165
0.028982664 0.001833107 0.08610358 0.18438838 -0.034719627 0.08071028 -0.0039851153 0.020413669
-0.012181203 0.055997666 -0.13387986 0.05019388 0.07830534 0.00045801085 0.06507913 -0.013464029
-0.045014065 0.03588124 -0.09610672 -0.02353061 -0.0041377065 -0.13441537 0.023157433 0.086511776
-0.05005397 -0.19096832 0.05186127 -0.17561841 -0.017195867 -0.13339223 -0.0398436 0.046618666
-0.08618929 -0.048465274 -0.12976918 -0.14573471 -0.07669496 0.039146647 -0.05519298 -0.039169125
-0.07755295 -0.21679884 -0.09641897 -0.17918938 -0.1401236 0.1087091 0.094280235 -0.0005395999
-0.0976956 -0.05934479 0.04474666 0.16567795 -0.10740627 -0.08297821 0.316917 0.010386154
0.22019918 -0.1427439 0.101392336 0.07568003 -0.031278316 -0.050590474 -0.07469692 -0.059444077
0.012923053 -0.023829866 -0.014088337 0.013212117 0.03697483 -0.04332677 -0.055674877 0.07354788
0.12742594 -0.015374472 0.012834336 0.12196465 0.097865164 0.015220069 0.037603542 0.14985435
0.048132136 -0.09636101 -0.1064535 0.12163814 -0.04930365 -0.040998217 0.17688684 -0.03172698
-0.02894386 -0.15849905 -0.10277263 -0.012413968 -0.06543723 0.17549409 0.08457249 0.03534927
-0.18268768 0.034825742 0.031430755 0.033117544 0.009894685 0.060065933 -0.034590214 -0.11871413
0.07812684 -0.03815151 0.06444715 0.045971137 0.17348833 0.044467546 -0.045111854 -0.056699097
-0.044828407 -0.035901263 0.09056414 -0.009520508 0.10281829 0.075327106 0.12594615 -0.09264103
0.050418448 0.14969851 -0.059784744 0.1581615 0.0068821595 0.049661443 -0.019493314 0.060195882
-0.05595178 0.059044026 0.13614003 -0.06691512 0.071554795 0.07365767 0.024072157 0.28067547
-0.13235164 0.10887477 0.025233692 -0.15145285 -0.08862173 0.09267889 -0.0070553464 0.017692644
0.1292977 -0.07151231 -0.03935683 -0.07468412 -0.023931338 0.033209573 -0.04054417 0.1599942
-0.12744647 0.08204028 0.0012297112 -0.03202699 -0.026038945 0.00063861057 0.11044349 0.0060469722
-0.064896196 -0.029331347 0.033114526 0.05059359 -0.052584194 0.06745191 0.061989274 0.022761744
-0.02456403 -0.13790826 0.09791352 0.06676114 0.1707185 -0.12777774 0.068093106 0.04812712
-0.013202447 0.10350405 0.04576572 0.13132264 -0.021585608 0.13458985 -0.11299186 -0.08330129

network_body._body_endoder.seq_layers.0.bias f4 [256]
00000000: c31b b0bc 86b4 133c 019f 56bd fc50 86bd
00000010: fcad 693d 1dc3 5cbc d3df 7cbd 8551 c5bc
00000020: 2f73 bfbc 506e d93c cee1 c1bc 55dc 9ebd
00000030: 41af 013c 6916 6abd b618 b13c ea70 9bbc
00000040: 8603 a8bd 1f9f 26bc a170 adbd ca2d 08bd
00000050: f66a bb3c 3553 c6bc ae84 43bd d3ca 1fbd
00000060: 8b00 5fbc fc69 373d 18a4 1dbd e02b c13c
00000070: 6d11 3fbd c7ac d5bc 12e5 d5bc 36dd a4bd
00000080: cb28 c0bc d0ec c0bd bce5 dbbc 8342 c0bc
00000090: bcbc ea3b 1d1c c63a 26ab 0fbd a0ba 01bd
000000a0: 8227 fcbc e446 f93c ba3d 20bc 91b0 823b
000000b0: f781 7dbd 7e26 933c bcba acbb 0872 883d
000000c0: fc34 17bd 7e48 313c 3c7a a2bc 6090 59bd
000000d0: 72fe 2e3d acef 2c3d 50f6 34bb fe0f a3bc
000000e0: a288 96bd cc6c 54bd 803f b6bc 728c 273d
000000f0: f7eb 3fbd 65e7 42bd 3652 19bc 804d 1cbd
00000100: 3695 623d 4712 15bc 95ec db3c 971c 1bbd
00000110: 4ccb d9bd 5517 293d 169a 2abc 2c56 f3bc
00000120: 5158 373d 4451 b7bd c2dd cf3c 8ac3 203c
00000130: ade8 debc 44f3 c83c 476e 94bd d9e0 97bd
00000140: 1072 233d 9b15 40bc 8957 0d3c 623b 24bd
00000150: 3c9d 1dbd 951a 323d 7d45 373d a6cf 0fbc
00000160: 1b5d 223c 9492 95bc e926 ae3d 4ffa 2abd
00000170: f41b 81bb 915f ebbc df4a d73c 2205 a9bd
00000180: f855 01bd 165a 763d 4b3a f8bd 8bde 83bc
00000190: bef9 71bd 2e50 c1bd 5f73 413b a2ff d8bb
000001a0: 0df2 143d df50 6b3c e37c 15bd 53db 87bd
000001b0: fb72 1ebd e56c 1cbc 1606 43bd ac42 ec3c
000001c0: 4f0f 5dbd 7313 92bd 53d3 913c 790a 443d
000001d0: 8e20 243b 2179 17bd 9995 efbd 2bc0 443b
000001e0: a75d 1abd 1223 95bd 5f35 81bd 20b1 cbbc
000001f0: c457 0abd 8f4c e0bb 6aae 1bbb a4aa a53d
00000200: 58ec 96bd 84d8 9dbc 8ede 43bd 4db4 f83c
00000210: 5d16 1c3d 8b83 343d d50a 7ebd 3b4d 133d
00000220: 87eb d0bc 236d cfbc 1020 00bc e014 d3bc
00000230: 858a 403d f8a0 47bc f98e 0a3d 0996 083b
00000240: def3 643b dd58 04bb 430a 3fbc d785 9a3c
00000250: 1efc 033d 41fc 913d 52b3 0b3c 0e56 23bd
00000260: 2b0a 1abd 2fd3 8b3c 6569 8cba 8804 3cbd
00000270: 2456 73bd a452 b13c 1fde d9bc f5a5 8a3c
00000280: fcc6 a2bc 3170 bdbd 54c7 ccbc bcc0 4bbc
00000290: 97b2 79bd de76 adbc 40b2 d63c 3f63 34bd
000002a0: edec 48bc 9ea4 03bd 54b1 c2bd 72e0 93bd
000002b0: b3aa 78bd 8cd7 07bd 03a3 6dbc 5c17 10bc
000002c0: e8f5 39bd 5578 8f3d 00db 74bd f148 093c
000002d0: 3a82 673d 768d 253d 3463 40bd 5309 9dbd
000002e0: 33b4 1c3c 2c28 72bc f413 fb3c e0ae 6a3b
000002f0: 75d4 a1bd 298a 8a3c 525b 35bd 0a64 713d
00000300: faf7 0fbd b1ba 6c3d 5ba5 7b3b d28d 7ebd
00000310: df93 67bd 048f 923d d7be c7bb 59fe 06bd
00000320: c673 25bb 4b97 383d 9a02 1fbd 4cf7 03bd
00000330: 0a8b 55bd 678d 15ba 761f c9bc d079 dabc
00000340: 87a0 3e3b 4738 b3bd eaa9 30bc 706b 60bd
00000350: 835c 92bd 4986 f6bc 78fe f6bc 5cd1 b63b
00000360: 35f2 3fbd 1e72 2e3c 1562 b8bd 1041 b7bc
00000370: d682 503c 95fb 73bd f42c 46bd f716 7abd
00000380: 33c0 f3bc 0476 36bd 39ed 68bd 61e4 d03c
00000390: 7049 d7bd a7ec 04bd 8920 10bc 1028 183c
000003a0: 5ed0 ebbc 3438 093d ad90 8d3d 4275 85bc
000003b0: 4d79 cdbc 29e9 43bc b7be 8b3c 27a8 6e3a
000003c0: 22f9 593d 0196 c13d 887b 0c3c 13f3 3f3d
000003d0: dc45 febd 9cae cbbc 60fa aabc 8357 12bc
000003e0: 3dd1 27bd 0434 ecbb ed9c 37bd a859 cc3c
000003f0: 68cd cf3d 76cf c13c 0181 f4bd 2771 b1bd
-0.021497613 0.009015208 -0.05239773 -0.06558415 0.05705069 -0.013474253 -0.061736893 -0.024086723
-0.023370354 0.026541859 -0.023667242 -0.07756869 0.007915319 -0.05715028 0.021618228 -0.01897474
-0.08203797 -0.010169773 -0.08468748 -0.033246793 0.022878151 -0.024209598 -0.047733955 -0.039011788
-0.013610969 0.04477881 -0.03848657 0.023580492 -0.046647478 -0.026083363 -0.026110206 -0.08050005
-0.023456952 -0.094201684 -0.026842944 -0.023469215 0.007163612 0.001511458 -0.03507533 -0.03167212
-0.030780558 0.030429311 -0.009780342 0.0039883335 -0.061891522 0.01796269 -0.005271284 0.06662375
-0.036915764 0.010820506 -0.019833677 -0.053116202 0.042723127 0.042220756 -0.0027612634 -0.019905087
-0.073502794 -0.05186157 -0.022247076 0.040905423 -0.046855893 -0.047583956 -0.0093579795 -0.038159847
0.05531808 -0.009098596 0.02684621 -0.037869062 -0.10634479 0.041282017 -0.0104127135 -0.029704176
0.04476196 -0.08951047 0.025374297 0.009812245 -0.027210558 0.02453006 -0.07247596 -0.07415933
0.0399037 -0.011723901 0.008626827 -0.040095694 -0.03848003 0.04348238 0.044744004 -0.008777535
0.009909893 -0.01825837 0.08503515 -0.04174262 -0.0039401 -0.028732093 0.026280819 -0.08252932
-0.031576127 0.060144506 -0.121204935 -0.016097328 -0.059076063 -0.09439121 0.002951823 -0.0066222707
0.03636365 0.014362543 -0.036496054 -0.0663363 -0.038683873 -0.009547447 -0.047613226 0.028840385
-0.053969678 -0.07132616 0.017800963 0.04786155 0.0025043818 -0.036980752 -0.11698455 0.0030021768
-0.03768697 -0.0728208 -0.06309008 -0.024864733 -0.033775106 -0.006845064 -0.0023755082 0.08089188
-0.07369298 -0.019268282 -0.047819667 0.030359412 0.038107265 0.04407076 -0.06202205 0.035962325
-0.025502933 -0.025320595 -0.007820144 -0.02576679 0.047007103 -0.012184374 0.033827756 0.002084138
0.0034935395 -0.0020194568 -0.011660161 0.018862648 0.03222286 0.07128192 0.00852664 -0.03987699
-0.037607353 0.017068474 -0.0010712562 -0.04590276 -0.059408322 0.021645851 -0.026595173 0.016924838
-0.019870274 -0.092499144 -0.02499739 -0.012436088 -0.060961332 -0.021174844 0.026208043 -0.04403996
-0.012263519 -0.032139413 -0.09506479 -0.07220544 -0.060709666 -0.033164546 -0.014504197 -0.008794632
-0.04540053 0.070053734 -0.059779167 0.008379207 0.056520678 0.04041811 -0.046969607 -0.07667794
0.009564447 -0.0147800855 0.030649163 0.00358098 -0.07901851 0.016911583 -0.044276543 0.058933295
-0.0351486 0.05779523 0.003839812 -0.06214697 -0.056537505 0.07156184 -0.006095748 -0.03295741
-0.0025246008 0.04506616 -0.03882084 -0.032218263 -0.05213455 -0.00057049695 -0.024551135 -0.026669413
0.002908738 -0.087509684 -0.010782698 -0.05478996 -0.071465515 -0.030093329 -0.030150637 0.005579157
-0.046861846 0.010647325 -0.09003083 -0.022369891 0.012726506 -0.0595661 -0.048382714 -0.061057057
-0.029754734 -0.044546142 -0.05686686 0.025499525 -0.10512054 -0.03245225 -0.0087968195 0.009286895
-0.02878588 0.033500865 0.0691236 -0.016291264 -0.025082255 -0.011957445 0.017058713 0.0009104036
0.053216107 0.09452439 0.008574374 0.046862673 -0.12415668 -0.024863534 -0.020871341 -0.008931997
-0.04097103 -0.007208349 -0.04482739 0.024945095 0.101466 0.023658495 -0.11938668 -0.0866416

network_body._body_endoder.seq_layers.2.weight f4 [256, 256]
00000000: 7fb2 5a3d 57c9 e03b 6f5f 87bd 5755 81be
00000010: 0200 03bd 33ec dc3c f238 8fbb 73a8 17be
00000020: a4a0 aebc 13ac 18be d81c 8d3d 77f3 9d3c
00000030: 5eb8 813d 354f 82bd 914d 9dbc 60c1 47bd
00000040: 2c44 a43d 381a 94bd 5ab8 42bd 94ad 6dbb
00000050: 73f2 d0bd 7a84 ddbd 4787 86bc 23af 03be
00000060: 7f6a 783c 53f7 90bd 6b7b d9bd 4979 c5ba
00000070: c52c 6a3d b966 3cbe a0dc 0fbb 9547 8c3d
00000080: 59b8 ffbd f8e1 e53d db0f a03d d908 c73b
00000090: b220 edbc 8ca3 2bbd 16f6 2e3d 2c1c d13a
000000a0: e953 1fbd b52a 853c 1e76 81bd 77d4 83bd
000000b0: 63c6 743d 49de a2bb 3210 c23b b976 81be
000000c0: 406f 073d efe7 933b 1f07 18bb f118 92bd
000000d0: d50f f4bd 4406 bebd c05f c3bd a13c ed38
000000e0: 1734 fabc a7fc d83c 3748 84bd e210 493d
000000f0: 46db babb 876c 133c dbd9 823d d680 bebc
00000100: 0c05 4fbe 8cf9 b2bd a457 25bd bdc0 223d
00000110: 3867 a1bd f4b3 14bd 16d6 05be 4ec9 8e3d
00000120: 9fce 33be 949f 65bd 9acd 8cbd b15f de3d
00000130: 8d77 7fbd 3f2b 77be 0721 0abe 6543 23bd
00000140: 29d6 693d a6f3 25be e895 c63d 7888 933d
00000150: 564d dc3c 61bc 11be 90d9 00bc 4943 8ebd
00000160: 12fa c6bd a7bb 483d 9df3 febd f556 263d
00000170: 4873 abbc 169a dfbc a66b da3c cb1b f4bc
00000180: 5a88 03be 9f12 0fbe 8812 95bd f6cf 9b3c
00000190: 84fe 66bc 0c5b e53d a1cd 88bc 01f7 27bd
000001a0: 420b 2739 1596 6ebc 6682 1b3d f715 a33d
000001b0: 3cb8 e3bc 0bb0 d4bc bcde efbd 9cc7 b83d
000001c0: 9fdc 933c 59e6 e0bc 5a6d 38be e249 2dbe
000001d0: a539 c03c c80c e4bd c01e 08bd 4bb1 363e
000001e0: 0bf5 dd3c 2dfa 3fbe 1ad1 43bd 0f4e 4abd
000001f0: d63a a8bc 7f2e 0fbe 90ec b3bd 47f0 51bd
00000200: 8746 673b 29bf 38bd c288 743d 62b8 f6bd
00000210: 1ae5 bd3d 1df1 353d 8625 69bc b63f 6a3d
00000220: 12d1 77bd 0885 283c 6a7b 9a3d 04f1 23bd
00000230: 1696 a5bd 562c 153d a032 82bd db44 8e3b
00000240: b58a 07bd 08cf cbbd a051 63be 7ba2 92bc
00000250: 1f60 5dbe 254d 2cbe 6e19 89bd 4b6a 873b
00000260: c8bd 48bd c780 e23d a9df 8cbc e49d 99bd
00000270: 488b 89bd e83d 31be 066b 6bbd 0b0b f2bd
00000280: bfad 35bc dedc 8c3c f13f 41bb 7cb3 5ebd
00000290: bd4e 203c 6b7d d5bd 910d a7bd 96e9 143e
000002a0: 8f8e 52bd fda2 b13b b181 39bd d186 02be
000002b0: 674f dfbd e953 6f3d 7a3b e33c 7ac5 8bbd
000002c0: 7982 11be 38e1 44bd 896c 94bd cfd4 60bc
000002d0: 1fff 8dbd 29ff 143a 8764 943b 5dad 45bd
000002e0: 6a5b d0bd 294d 1fbe dee4 fa3c 6733 a8bc
000002f0: e705 91bb e648 413d a501 2fbc b48e 1fbe
00000300: 1331 ae3d d3ab c2bd 7f80 51bb b778 f1bd
00000310: 3efe dd3d 2caa bc3d ae45 06bc ade5 f0bc
00000320: e74c 8bbd d691 babb 0634 44bd b977 5bbd
00000330: 9356 6dbd 7f06 3ebd 7cfe 71bd 1694 9a3d
00000340: 2781 2ebd 9e91 13be 6c36 c83d edb6 4ebd
00000350: 16f9 913c 7441 87ba 4275 793d afc4 cd3d
00000360: 44dc 36bd c0c2 fdbb 8a56 06be b468 81bc
00000370: 5d9c 9dbc b656 a4bc af49 2b3e 5204 05bd
00000380: 53da 4abc 7227 85bd 9b03 18be 46b1 6ebd
00000390: 879a a43d 6859 1dbc b6a9 39bb 53d4 e33c
000003a0: a53e 91bd 3dba 01be 8049 a1bd b058 d2bc
000003b0: 7a83 d73c 2436 3aba e6e5 0ebe 6ebe c9bd
000003c0: ebae ce39 6f24 2ebd 0a16 16bc f663 e13c
000003d0: 4b9a e5bd a63f bbbc 8e1f d7bc afe7 963d
000003e0: e919 f5bc 5ac0 b9bd a557 6cbc 225c cdbd
000003f0: c49b 12be 74ab d0bd 6bf8 73bc 77d8 92bd
0.053392883 0.006859939 -0.066099994 -0.25260422 -0.03198243 0.026968097 -0.004370802 -0.14810352
-0.021316834 -0.14909391 0.06890267 0.019281132 0.063339934 -0.06362764 -0.019202026 -0.0487684
0.08020815 -0.07231563 -0.047539093 -0.003626679 -0.102024935 -0.108162835 -0.016421927 -0.12859778
0.015162109 -0.07078423 -0.10619243 -0.0015066053 0.0571716 -0.1839856 -0.002195157 0.06849591
-0.124863334 0.11224741 0.07815524 0.006074053 -0.028946254 -0.041904017 0.042715155 0.001595383
-0.038898382 0.016255716 -0.06321357 -0.06437009 0.05975951 -0.004970346 0.005922341 -0.2528589
0.03306508 0.0045137326 -0.0023197604 -0.071336634 -0.11917082 -0.09278539 -0.09539747 0.00011312334
-0.030542416 0.026487662 -0.064590864 0.049088366 -0.005702409 0.008998043 0.06389209 -0.023254793
-0.20216769 -0.087390035 -0.040366784 0.03973459 -0.078810155 -0.03630443 -0.13069949 0.069719896
-0.17559288 -0.05606039 -0.06875153 0.108580954 -0.062369872 -0.24137591 -0.13489161 -0.039859194
0.057089005 -0.16206226 0.09696561 0.07203764 0.026892345 -0.14232017 -0.007864371 -0.069464274
-0.09715666 0.049007084 -0.12448809 0.040610272 -0.020928994 -0.027295154 0.026662659 -0.029798409
-0.12844983 -0.13971947 -0.07278925 0.019020062 -0.014098767 0.111990064 -0.016699614 -0.041007046
0.00015930555 -0.0145621495 0.037966155 0.07963174 -0.02779781 -0.02596285 -0.11712405 0.090224475
0.018049536 -0.027453588 -0.18010464 -0.16922715 0.023464987 -0.1113525 -0.03323245 0.1784107
0.027094385 -0.18747778 -0.047806837 -0.04939085 -0.020535868 -0.1398258 -0.08785355 -0.051254537
0.003528984 -0.04510418 0.059700735 -0.12046887 0.09272213 0.044419397 -0.014230138 0.057189666
-0.06050212 0.010285623 0.075430706 -0.040024772 -0.08085267 0.036419235 -0.06357312 0.0043417043
-0.033091266 -0.099515975 -0.22199106 -0.017899742 -0.21618699 -0.16826303 -0.066943035 0.004132544
-0.049009115 0.110597186 -0.017196493 -0.07500818 -0.06716019 -0.17308772 -0.057475112 -0.118185125
-0.011088788 0.017195161 -0.0029487575 -0.05437039 0.009784398 -0.10424312 -0.081568845 0.14542231
-0.051405486 0.005421041 -0.0452897 -0.12746741 -0.10903817 0.058429632 0.027738322 -0.06824775
-0.14209928 -0.048066348 -0.07247264 -0.0137226125 -0.06933426 0.0005683774 0.0045285854 -0.048261035
-0.10173686 -0.15556778 0.03062671 -0.020532323 -0.0044257524 0.047188662 -0.010681544 -0.1558178
0.08505454 -0.09505429 -0.0031967459 -0.11790603 0.108395085 0.09212145 -0.008195324 -0.029406393
-0.06801777 -0.0056936545 -0.047901176 -0.053580973 -0.05794389 -0.046392914 -0.059080586 0.075477764
-0.042603638 -0.14411017 0.09776005 -0.05046742 0.017818969 -0.0010319189 0.06090284 0.1004728
-0.044643655 -0.0077441633 -0.1311895 -0.015796997 -0.019239599 -0.020060878 0.16727327 -0.032474823
-0.012381154 -0.06501664 -0.14845125 -0.05827453 0.08037286 -0.009603836 -0.0028329915 0.027811205
-0.070920266 -0.126687 -0.07875347 -0.025677055 0.02630781 -0.00071034045 -0.13954887 -0.09850775
0.00039421706 -0.042515215 -0.009160528 0.027513485 -0.1121107 -0.022857498 -0.026260164 0.07368409
-0.029919581 -0.09069891 -0.014425193 -0.100273386 -0.14317232 -0.10188952 -0.01489077 -0.07170194

network_body._body_endoder.seq_layers.2.bias f4 [256]
00000000: 9454 2a3d a1f3 2cbd e9e8 323c 9594 7f3c
00000010: a379 fcbd b1df afbc 7241 603d 01a5 f4bd
00000020: 4e79 1cbd 2423 24be 3245 47bc 4f6c d63c
00000030: c0ec 26be d281 7abd 30d6 1a3c 7c24 473d
00000040: 4225 88bd fed5 8fba f3f9 5abe 735e af3c
00000050: 7072 f4bb e1a1 db3c 99d2 83bd 6ba3 b4bd
00000060: 64ce ddbd b9ff 7ab9 14b9 22bc 9e51 5ebd
00000070: b88b 973d b29f d5bd cd3a d2bd f0a4 fb3b
00000080: 8a3e a4bd 82c1 653c ee78 31bd 3757 fdbb
00000090: 1821 0e3d b639 b93c fcc1 d4bc 8477 1fbe
000000a0: 350b 1e3c cd77 243c df2e 873c 79ca 41bd
000000b0: 38ba 18be eb32 3d3c c689 0c3d 87ce 6c3b
000000c0: 8b31 6abd e05e 3fbe 3eca cd3c 12f5 1c3d
000000d0: 84a0 d1bc 114e a3bc 14ac 3bbd 463f a63c
000000e0: 308f f9bd acca 51bb bad4 053d c9b5 693d
000000f0: f6b6 16be f304 aabc 1b91 83bd 0502 e1bd
00000100: 54ca 703d 3f7d 203c 200f 8bbd 081d 943b
00000110: a6c4 55bd 2e71 b73c 9567 0cbe cdd0 333c
00000120: b163 01be c790 12be 69e1 bc3c 1e97 56bc
00000130: fa95 e5bc 86fc 0abe a7bc 0dbe a9a7 d7bd
00000140: 0cae 153c 02a5 35bc 7548 3c3c 710f ac3b
00000150: e98d 833d 8ac5 893c abb9 22be a2a3 69bc
00000160: 3381 c4bc 43ff cdbd 6145 05be e7c2 83bd
00000170: eda5 98bd e788 97bd 2f9b cbbd daf8 7f3c
00000180: 7439 07be 89aa 1e3d 6cee 8dbc 5e57 6bbd
00000190: 4ffc bebd 4bbe 1fbe 9a1f 4cbe 421f 773d
000001a0: 252d 0e3d fbb4 933c 6f47 6fbc f602 1e3d
000001b0: b0fc 74bc a6af dcbb 0dd2 61bd 871a b0bc
000001c0: 7a43 ae3a 7a91 ffbd 08e9 d03c 90f2 0fbd
000001d0: 07e5 c7bd 0492 02be 3037 e4bb 874e 26be
000001e0: baba 99bd ecdb e9bd 0ce4 06be 2fad 013d
000001f0: 9774 0ebc 2e53 17bd dd8d 28be bcde e1bd
00000200: 35eb 6bbd d0c8 103d caac f93b 127b 06be
00000210: 241c 933c 0c26 ff3c 753b f4bd 429f d4bc
00000220: e416 57bd f523 6dbd 527e 053d d886 bcbd
00000230: 4f6f cbbd 14c9 68bb 5ade 403c f860 883c
00000240: 8cbb 9abd dbd6 07be 4006 c5bd 4e11 91bd
00000250: bf93 eb3c 84f4 cdbd 4310 e93b 148e c4bb
00000260: 86a7 743c a27b c0bd 9147 05be ac93 153c
00000270: f9ed 1e3d 1088 993a afd8 a8bc 779b e9bd
00000280: db35 893a ad99 b7bd 10e2 50bd 9b2e 063d
00000290: 68e3 693d 2bf8 d2bd d5bf 1cbe dfc0 d83c
000002a0: 3cd4 8e3c c0dc bf3d 2b90 073d 147f f7bd
000002b0: d90a ecbd 867e e3bd e2fe a83b e75f 0ebe
000002c0: f8a1 adbd 7f8e 02be 165c c2bd 8089 1cbe
000002d0: 8802 d1bd b1c0 50be def6 ddbd cc42 e0bd
000002e0: 4d49 4fbc 93ec 12bd 6ff8 29bd eaf7 153d
000002f0: f9ef 423d c233 dc3c 4043 233c 7fec 36bd
00000300: 408d 853d aa5b 38bc 45a8 c9bc 61ba 623d
00000310: ce45 adbd 495a 55bd 4216 17bd 88e2 f23b
00000320: d1a0 9ebc 9adb b4bc 06ed ea3c 0c15 15bd
00000330: 04cd b93b 01be 7cbd 9dad 11bd 0751 8ebd
00000340: ced4 753d 6dff 58bd 3d42 b83c b220 053d
00000350: d016 033d 0142 5039 94f5 b3bd 8d8d 6dbd
00000360: c663 1d3d b6aa adbd efb1 8bbd 18d3 8bbc
00000370: d42a 333c 181a 073c 8b6e 84bc 31b0 023d
00000380: 545d 67bd 1cb6 b0bd aa92 59bc 70fb 223d
00000390: 77c2 23be f8b6 06bd 3d1f d8bb 4c52 0abe
000003a0: 01a2 08bd fb53 88bd e48f 91bd 1e06 273a
000003b0: 09f6 c9bd 758d 50be 9306 273d bfd3 e2bd
000003c0: 6eed f73c 751d d8bc 12ba 0a3d 36e0 30bd
000003d0: f840 8a3d 00d9 98bd 8563 9a3c fd45 c6bd
000003e0: 736a b0bd 0f97 17be dc3e 0bbe c3ff 98bb
000003f0: 2ba7 f23c a592 9bbd 93e8 07bd ec1d 83bd
0.041584566 -0.04222453 0.010919788 0.01559939 -0.12327888 -0.021468969 0.054749914 -0.119455345
-0.038201623 -0.1602903 -0.012162494 0.026174692 -0.1630125 -0.061158963 0.00945048 0.04861878
-0.06647731 -0.0010973809 -0.2138441 0.021407342 -0.007459931 0.026810588 -0.06436653 -0.08820232
-0.108303815 -0.00023937122 -0.009931821 -0.054277055 0.07399696 -0.1043085 -0.102651216 0.007679574
-0.08019741 0.014023187 -0.04332822 -0.007731344 0.03469953 0.022610527 -0.025971405 -0.15572935
0.009646227 0.010038328 0.016501842 -0.047312234 -0.14914787 0.011547784 0.03431108 0.0036133842
-0.057176154 -0.18688536 0.02512085 0.038319655 -0.025589235 -0.019934686 -0.045818403 0.020293843
-0.12185514 -0.003201167 0.032673575 0.05705813 -0.14718232 -0.020754313 -0.06424161 -0.10986713
0.058786705 0.009795486 -0.06789994 0.0045200624 -0.05218949 0.022392835 -0.13711388 0.010975075
-0.12635686 -0.1431304 0.023056703 -0.013097553 -0.028025616 -0.13572893 -0.13841496 -0.105300255
0.009135734 -0.011086704 0.0114918845 0.005250864 0.064235516 0.016817827 -0.15891139 -0.0142602045
-0.023987388 -0.10058453 -0.13014747 -0.06433659 -0.07453523 -0.07399159 -0.09941708 0.015623296
-0.1320551 0.038736854 -0.017325602 -0.057456367 -0.09325468 -0.15599935 -0.1993393 0.060332544
0.034711022 0.018030634 -0.014604433 0.038577043 -0.0149528235 -0.006734806 -0.05513196 -0.021497024
0.0013295256 -0.12478919 0.025501743 -0.035143435 -0.097604804 -0.12751013 -0.0069645867 -0.16240893
-0.075063184 -0.114189 -0.1317293 0.0316593 -0.008694789 -0.03694456 -0.16460367 -0.11028811
-0.057597358 0.03534776 0.007619475 -0.13132885 0.017957754 0.031146072 -0.11925403 -0.025954846
-0.052512065 -0.05789562 0.03259117 -0.09205407 -0.0993334 -0.0035520243 0.011771763 0.0166478
-0.07555303 -0.13265555 -0.09620333 -0.07083379 0.028756974 -0.10056403 0.0071125343 -0.0059983823
0.014932519 -0.09398581 -0.13015582 0.009129446 0.038801167 0.0011713523 -0.020611135 -0.11406606
0.0010468321 -0.08964858 -0.05099684 0.03275929 0.057101637 -0.103012405 -0.15307553 0.026459156
0.017435186 0.093682766 0.033096474 -0.12084785 -0.115255065 -0.11108117 0.0051573375 -0.13903771
-0.08478159 -0.1274967 -0.0949022 -0.15286827 -0.10205561 -0.20386006 -0.10838102 -0.109502405
-0.012651754 -0.035870146 -0.04149669 0.036613382 0.047592137 0.026880149 0.009964764 -0.044659134
0.06521082 -0.011252323 -0.02461637 0.055353526 -0.0846058 -0.052088056 -0.03688646 0.0074122585
-0.019363793 -0.02207737 0.028677475 -0.036397025 0.0056701917 -0.06170464 -0.03556596 -0.069490485
0.0600174 -0.052977968 0.022492522 0.032501884 0.032004178 0.00019861014 -0.08787075 -0.05799632
0.03842523 -0.08479826 -0.068210475 -0.01706843 0.010935504 0.008245967 -0.016165992 0.03190631
-0.05648549 -0.086284846 -0.013279596 0.03979057 -0.15992151 -0.032889336 -0.006595521 -0.13507956
-0.033357624 -0.06656643 -0.07107523 0.0006371456 -0.098613806 -0.20366462 0.040777754 -0.110755436
0.030264582 -0.026381234 0.033868857 -0.043182574 0.06750673 -0.074632645 0.018846283 -0.09681318
-0.086140536 -0.14803718 -0.13598198 -0.004669161 0.029620728 -0.075963296 -0.033180784 -0.064021915

network_body._body_endoder.seq_layers.4.weight f4 [256, 256]
00000000: c729 c43b b680 27bd 01b0 883d 56c3 9a3d
00000010: b72e b73c 31fe 8fbd 0783 d0bc 4370 79bc
00000020: 3958 5d3b 3755 d3bc 68b9 e83d 319b 74bc
00000030: 173c 1abd 038a 3cbc 6b11 8bbd 243d 34bd
00000040: fe4b bebd 82a8 933c 0724 703d 93da 61bc
00000050: 680d 78bd 52af 0abe f877 a1bd 8418 9dbd
00000060: 35a1 863d dc0a 44be 99f9 19be fa10 e1bd
00000070: 89e5 6c3d 2a33 283d 7280 67bd 4be6 93bb
00000080: e70d d3bc db1c d2bc da02 bcbc 9bc8 85bd
00000090: af4f 6a3d ac1f 803d 533a 0abe a98c fdbd
000000a0: 85e3 2d3d fcf6 7bbd c3d7 e33c 3b39 1d3c
000000b0: dec7 57bc ef87 5a3c 4ccd ba3b decf 1ebe
000000c0: c403 133d 6d05 bb3c 5d73 1d3c 614a 903d
000000d0: 8883 233d 4680 343d c39d a53d 0c3b f9bd
000000e0: b147 62bd 9573 9bbd 1104 02bd 6d27 4b3d
000000f0: 8185 4a39 dbdd 09be b502 c43d f670 213e
00000100: eab6 8fbd 35b9 bcbc 2a26 063c 469e c03d
00000110: e19e 283e e6d5 b4bd d216 5cbc 8fa1 99bd
00000120: deb3 d83c 8d34 77bd f52b 87bd 46f0 00bb
00000130: 5001 9f3c dd3d dbbd cfde 10bd 2b44 41be
00000140: 9d97 323d 3b12 8abd 6b15 333e a701 073c
00000150: 4f09 9fbc 2e70 a4bc 1f42 03be 9bb7 34bd
00000160: 72ea ad3c b66a 13bb 5b5f 8ebc 61f3 99bd
00000170: ec77 373c d0f0 473d 3ed1 9f3c 9e62 d43c
00000180: 50b2 a3bd a4ee 6cbc 323e 09be ef35 e53d
00000190: 5a95 9cbd 66d0 ab3c 35b7 073d af96 a6bb
000001a0: 0597 05be d82e b33d b58c 853d d2e6 9fbd
000001b0: 2237 e63c 5eb5 523d d7d4 25bb e5c9 c33d
000001c0: b635 4cbd eb2e 03bd 6a74 2c3d fc67 74bc
000001d0: b092 69bd f736 d83d 613e 0c3c 1a11 0bbd
000001e0: b7fc b23c 3d70 2abd 6569 b4bc 9e48 86bd
000001f0: 8ba5 023e 8538 05bd 86a1 12bd 9fcc c23c
00000200: 1635 f43b fb41 8e3d 1fee 55bd 7c1b 77bd
00000210: a70f 393e 68f1 e0bd 2f41 ffbd ee1d 0cbe
00000220: 2305 22bd bf45 1abb f8bc 5d3c 03e4 6cbe
00000230: 1288 9a3d 49b2 8b3d 2db0 353c 072a ef3c
00000240: f33a 143e 6a93 443c 61d4 06be 1bd4 853c
00000250: b6f6 c43b 613c 31be 7efd abbd cadd 6e3d
00000260: eccd 07be 36d7 fcbc 522f 473d b16f cc3d
00000270: bace 243c 05f1 123c 431a 563c 9ea0 96bd
00000280: c884 d7bc d50e 1e3d dec9 953d 1162 523c
00000290: 10df e3bb eb5c f33a 1ecc 69bd ca12 7fbd
000002a0: 78ab 18be 3404 b73a d6f4 2abd 6317 af3d
000002b0: edec 783d fc9b c5bd 541c 8d3b b1bd 49bd
000002c0: 7ca7 cfbd 0126 d43c e357 0c3d 8ac7 d93b
000002d0: f9c5 92bd f5ef 863a d434 a43c 4b44 c23c
000002e0: 5da4 d5bc 7d78 ecbc 2f51 3dbe 5175 573b
000002f0: e766 33bd cce4 2fbc 83a8 12bd dee1 643c
00000300: 2043 e9bd 0b56 66bd 6a5d 85bd 9295 bbbd
00000310: 677e e83d cc20 adbd bb5d 6d3d cd85 b43b
00000320: 177a a3bd 27d7 d33b 58eb 1b3b 21a5 853d
00000330: 9164 c13c b506 9e3c 3597 32bd f627 b83c
00000340: 4071 873d bbf2 d63d 1720 05bc 8b8b e6bb
00000350: 4e33 83bd 4a73 373d caf0 403d 62f1 92bd
00000360: 0859 f5bc d072 d43c 175e 01be 5e6c 643d
00000370: f2e7 5eba a63e e23d 213a f5bd d8f2 2ebe
00000380: 9871 d4bd d955 9cbd a07b 3abd ca84 bcbd
00000390: f3db 953d 52cd b8bd be50 b03c 9e39 103d
000003a0: 978e 55bd 41a2 acbc f8bc 4abd 3f7c 1c3d
000003b0: 9b70 d3bd 39d2 b1bd 6e23 3c3d b3e4 253d
000003c0: a4d9 d4bc 6b6d b4bd 2fd9 08bd 3eec 48bd
000003d0: 0fc2 9ebc 9241 22bd 9ba8 23bd 17fa 2d3d
000003e0: 209c d83b 76fe fabc 8fd0 82ba d5db 293d
000003f0: b316 253d 8525 6d3d b157 a2bd 9cd5 40be
0.0059864256 -0.040894233 0.06674195 0.075567886 0.022361143 -0.07030905 -0.025453104 -0.015224519
0.0033774509 -0.02579747 0.113634884 -0.014929579 -0.037654962 -0.011507514 -0.067904316 -0.04400362
-0.09291838 0.018024687 0.05862811 -0.013785022 -0.06055966 -0.13543442 -0.0788421 -0.076706916
0.065737166 -0.19144768 -0.1503662 -0.10989566 0.05783609 0.04106442 -0.05651898 -0.004513537
-0.025763465 -0.025648525 -0.022950578 -0.06532403 0.0572049 0.06256041 -0.13498811 -0.123803444
0.042453308 -0.06151484 0.027812844 0.009596164 -0.013170211 0.013338073 0.005700743 -0.15508983
0.035892263 0.022829736 0.009610024 0.07045437 0.03992036 0.044067644 0.08086731 -0.121694654
-0.05524415 -0.07590405 -0.03174216 0.049598146 0.00019313955 -0.13463537 0.09570829 0.15765747
-0.0701731 -0.023037532 0.00818781 0.09405188 0.16466857 -0.088298604 -0.013433175 -0.07501518
0.026452955 -0.06035285 -0.06600181 -0.0019674464 0.019409806 -0.10705159 -0.035368737 -0.1887366
0.04360162 -0.067417584 0.17488639 0.00824014 -0.019413618 -0.020073023 -0.12818192 -0.044120412
0.021229956 -0.0022494025 -0.017379453 -0.07517124 0.011198025 0.04881364 0.019508954 0.02592593
-0.07992995 -0.014461193 -0.13402632 0.11191928 -0.07645674 0.020973396 0.033133704 -0.005083881
-0.1304589 0.08749169 0.06520978 -0.07807697 0.028102461 0.051442496 -0.0025303864 0.09559993
-0.04985591 -0.032027166 0.04210321 -0.01491737 -0.057024658 0.10557359 0.008559794 -0.033951856
0.02184902 -0.041610945 -0.022022912 -0.065568194 0.12758462 -0.032524604 -0.035798572 0.023779212
0.0074526174 0.069461785 -0.052229043 -0.060328946 0.18072377 -0.109835446 -0.12463605 -0.13683292
-0.03955568 -0.0023540107 0.013533823 -0.23133855 0.075454846 0.068211146 0.011089367 0.029194845
0.14475612 0.011998037 -0.13166954 0.016336491 0.0060108555 -0.17308189 -0.08397959 0.058316983
-0.13262147 -0.03086434 0.048629113 0.09982241 0.010059053 0.008968596 0.013067785 -0.07354854
-0.026308432 0.038588364 0.07313894 0.012840764 -0.0069540814 0.001856712 -0.057079427 -0.062273778
-0.1490916 0.0013963045 -0.0417374 0.085493825 0.060772825 -0.09648892 0.0043063555 -0.04925317
-0.10139367 0.025897028 0.034263503 0.0066461014 -0.071666665 0.0010294901 0.020044722 0.023714205
-0.026079351 -0.028866047 -0.18488 0.0032876323 -0.043799307 -0.010735702 -0.035805237 0.013969867
-0.11389756 -0.0562344 -0.06511958 -0.09159388 0.11352234 -0.08453521 0.057950716 0.0055091144
-0.07982271 0.006464857 0.00237914 0.065256365 0.023607524 0.019290308 -0.043601234 0.022479992
0.066133976 0.10495516 -0.008125327 -0.007035678 -0.0640627 0.044787683 0.047104634 -0.07174946
-0.02994968 0.025933653 -0.12633549 0.05576741 -0.00085031905 0.110471055 -0.11973978 -0.17084825
-0.10373229 -0.07633562 -0.045528054 -0.09205015 0.073173426 -0.09023537 0.021522876 0.035211198
-0.052137937 -0.021073462 -0.04949662 0.038204428 -0.10324212 -0.08682675 0.045932226 0.040501308
-0.025982685 -0.08809932 -0.033410247 -0.049053423 -0.019379644 -0.039613314 -0.039955717 0.042474832
0.0066104084 -0.030638915 -0.0009980368 0.041469414 0.04030485 0.05789711 -0.07926882 -0.18831486

network_body._body_endoder.seq_layers.4.bias f4 [256]
00000000: 2b1b 87bc 5977 253b 5682 2e3c 2138 79bc
00000010: 02a2 cb3c 167c 2f3a 93f6 d73c 52de 59bc
00000020: 227c 833c ada1 b83b 91e8 e53a 54e6 383b
00000030: d60f dcbc b5e8 b1bc be5f 1ebd 038c 37bc
00000040: 96d9 5e3c 7ff2 d4bc a19a 1fbb e1c0 4ebc
00000050: 82ee e3bb f153 e2bc 739f fcbc 5575 6d3b
00000060: 6b7a a53b 7b35 1dbd 0c3b d0ba a602 1bbc
00000070: 8020 0d3b 01c3 81bc d52f ef3c 9727 4ebe
00000080: b3ba d8bb 3f85 cebc 7f1c b3bb bbc7 b4ba
00000090: 3cb8 a03c c30b 2cbd cf38 8f3c 827c c136
000000a0: 8eea e9bc ec87 44bd aaa5 38bc fa1c 0abc
000000b0: d877 f8bb cbe3 b23c ff47 91bc a51c 39bc
000000c0: 7f43 1f3d c880 4939 1769 553b 8202 b6bc
000000d0: 44fe 72bc 8b7c b83b dc2d 75bc 9ee3 bfbc
000000e0: eb7c 8cbc a860 55bc ece8 16bb 3d82 45bd
000000f0: fbf3 b73b 561e 37bd 1a35 14bb b7e1 993b
00000100: 9044 bfbc 19d6 a4bc a0b4 8dbc 81df 823a
00000110: 4b2d 6fbd 73d8 733c fe02 06bd 7a55 5bbc
00000120: 523e 8f39 cb9f 843c 12b4 35bc 430e d0bd
00000130: 9c9b dabb 01f0 193b 7632 853a 0aa2 e93c
00000140: 43d2 44bd 19c4 f33b 98bc 68bc ea37 923c
00000150: 9f11 fbbc 0238 c73c 3a68 13bd 4c07 35bc
00000160: c0b5 a7bb 807f eabc 0882 1aba eaa9 083c
00000170: 13f0 ec3b 91d7 a3ba 1e7f aeb9 da8d 59bc
00000180: ef45 193c c67a 79bb 2126 50bb 2074 ac3a
00000190: f36d ad3c b344 ab3b 422d e6bc 6dce 123c
000001a0: 5837 a3bc 0a24 bd3c 596e caba bcc4 0fbd
000001b0: 47f3 63bc a596 193c 34f6 96bc 0460 683b
000001c0: 3269 20bc e751 d63b 5462 94ba 34a9 563c
000001d0: 51f4 173d 1f80 9d3c 8cf6 c3bc 8917 323c
000001e0: 2237 93bb 80fa e63c f386 d5bc 671f 583d
000001f0: 55bd 25bd 2b45 e7bb 6830 fa3c a6bd 223c
00000200: 1a7f 323b eac0 99bc 7598 043c f637 b1b9
00000210: ee4e 21bc 576f 29bd 259c 1c3c 41df 0cbd
00000220: e575 15bc be42 32bb 3d2a 333c 419b bf3c
00000230: 0ec7 03bb b225 d9bc ab10 4dbc afe8 bebb
00000240: aab0 33be 2f7a 84bc eb1c 6f3c defe 183b
00000250: 44d2 a8bc c1ce 263c a0c6 00bd 22ea 263b
00000260: 42b7 7fbb 7dc7 00bd 8083 c83c 6e60 43bc
00000270: 9ee9 29bd 7756 b0bc 10f6 8a3c 0b05 83bb
00000280: a5d9 56bd e752 d3bc bab9 02bc 2ed0 46bc
00000290: 1705 d3bb 7826 d6bc 8698 0bbc cd24 edbc
000002a0: d0a3 973a 0122 47bc 671f 12bd b157 f4bc
000002b0: eb43 dcbb 1195 3bbc 285a 34bc 3f41 b63c
000002c0: b8e6 dd3c 1df5 cbbb 06a0 0abc d9c3 12bd
000002d0: 9443 64ba 37e2 e9bb aa70 af3c 9b8c 17bd
000002e0: 0c73 10bc f4c8 65bc 98f5 60bb 01e8 b3bc
000002f0: c7be 53bd 08cc 11bc 4c88 f7bc e2f1 9fbc
00000300: 5ccc cdbc 309f 80bc c975 97bb ac2e b0bc
00000310: fd16 47bd ac63 c83c 2ad4 a83c 4603 9ebc
00000320: 6b05 883c 7731 12bd 1509 d6bb a33a 0cbd
00000330: 7217 dabc 3af0 5f3c ec63 0cbc b066 b7bc
00000340: fa97 0ebd 32ba ee3b 0e16 043d b985 83bd
00000350: 44b0 103c 6ad3 53bd 0f97 893c dd49 8fbc
00000360: 08b7 61bc 98b7 fc3b bf64 11bd 5eee a0bc
00000370: e513 4fbd 2a4f adbc 27b9 583b 8238 c6bc
00000380: b449 19bd 0694 823c 2f0a 623c 33f1 34bd
00000390: 5bf5 bdbc 41cd 11bc be94 683c 36d6 493c
000003a0: 5591 e1bc b516 86bc 7caa 983b e1f1 1bbd
000003b0: 3d63 d5bb 7503 a7bb cc65 46bd f78d 50bc
000003c0: 1121 ebbc 51d6 3cbd 996b 2e3c 8902 f2bc
000003d0: e43e 903c ec14 57bc f92f 3dbc 8548 a3bb
000003e0: 74b4 a2bc 0365 0b3b 8e4a fcba e88b 073d
000003f0: 470c 04bd 8ed6 bdbc f45a 8a3c a3f4 39bc
-0.016492447 0.0025248139 0.010651192 -0.015211136 0.024857525 0.00066942105 0.026362693 -0.013297634
0.016050402 0.0056345076 0.0017540624 0.0028213458 -0.02686302 -0.021717409 -0.038665526 -0.011202815
0.013601681 -0.025994537 -0.002435364 -0.012619228 -0.0069559226 -0.027627917 -0.03083775 0.0036233265
0.0050499937 -0.03838108 -0.0015886738 -0.009461081 0.0021534264 -0.015840055 0.029197613 -0.2013229
-0.006614053 -0.025210021 -0.0054660435 -0.0013792434 0.0196191 -0.042003404 0.017483143 5.766343e-06
-0.028554227 -0.047981188 -0.011269966 -0.00842976 -0.007582646 0.021837136 -0.017734526 -0.011298333
0.03888273 0.00019216829 0.003256386 -0.022217993 -0.014831129 0.005630081 -0.014964547 -0.023423966
-0.01714941 -0.013023533 -0.0023027016 -0.048219908 0.0056138015 -0.044706665 -0.0022614659 0.0046960968
-0.023348123 -0.020121621 -0.017298043 0.0009984822 -0.058392804 0.0148831485 -0.032717697 -0.013387078
0.00027321518 0.016189476 -0.011090295 -0.1015897 -0.006671382 0.0023489 0.0010162133 0.028519649
-0.048052084 0.007439148 -0.0142051205 0.017848928 -0.03064805 0.024318699 -0.03598807 -0.011049103
-0.005118102 -0.02862525 -0.000589401 0.008341292 0.0072307675 -0.0012500157 -0.00033282576 -0.013278449
0.009355052 -0.0038067563 -0.0031761008 0.0013157167 0.021170592 0.0052266954 -0.028097752 0.008960349
-0.01992385 0.023088474 -0.0015444263 -0.03509973 -0.013912982 0.009374295 -0.018427946 0.003545762
-0.0097907055 0.0065405252 -0.0011320808 0.013101865 0.037098233 0.019226132 -0.023921274 0.010869869
-0.0044926563 0.02819562 -0.026065325 0.052764323 -0.040463764 -0.007057806 0.03054066 0.009932911
0.0027236403 -0.018768746 0.008092989 -0.00033801765 -0.009845478 -0.041365948 0.009558712 -0.0343926
-0.0091223465 -0.0027200426 0.010935363 0.02338946 -0.002010766 -0.026507232 -0.012516181 -0.005826078
-0.1754786 -0.016171543 0.014594297 0.0023345272 -0.020608075 0.01018113 -0.031439424 0.0025469144
-0.0039019142 -0.031440247 0.024476767 -0.011924846 -0.04148256 -0.021525605 0.016963035 -0.003998404
-0.052453656 -0.025796367 -0.007978851 -0.012134595 -0.0064398157 -0.02614139 -0.008520251 -0.028948212
0.0011569206 -0.012154103 -0.03567448 -0.02982697 -0.0067219636 -0.011449114 -0.011007823 0.022247909
0.027087554 -0.006224288 -0.008461004 -0.035831306 -0.00087075797 -0.0071375626 0.021416027 -0.036999326
-0.008816492 -0.014024962 -0.0034326073 -0.021961214 -0.05169561 -0.0088987425 -0.030216359 -0.019524518
-0.02512186 -0.015700907 -0.0046221954 -0.02150663 -0.048605908 0.02446159 0.02060898 -0.01928867
0.016604146 -0.035691705 -0.0065318444 -0.034235608 -0.026622508 0.013668114 -0.008568745 -0.022387832
-0.034812905 0.00728538 0.032247595 -0.0642199 0.0088310875 -0.051715292 0.016795663 -0.017491275
-0.013776548 0.007712316 -0.03549647 -0.019644912 -0.050556082 -0.021155912 0.0033069344 -0.024196867
-0.037423804 0.015939724 0.013796373 -0.044175338 -0.023188284 -0.008899034 0.014195619 0.012319138
-0.02753512 -0.01636825 0.004658995 -0.03807247 -0.0065120743 -0.0050968477 -0.048436925 -0.01272916
-0.02870229 -0.046102826 0.0106457705 -0.029542224 0.017608114 -0.013127547 -0.011547082 -0.0049830102
-0.019861437 0.0021269924 -0.0019248293 0.03309241 -0.03223827 -0.023173597 0.016889073 -0.01134983

network_body._body_endoder.seq_layers.6.weight f4 [256, 256]
00000000: 1cfc cbbc 7b56 ecbd 949e c63d 2f3f 49bc
00000010: aef2 5a3c ca12 a2bd 6d73 e03c 6b95 3e3d
00000020: 4199 113d 829f 0dbe b272 cb3a 6c2d 0a3c
00000030: 5967 51bd f1ad bebd 09c6 85bc a726 163d
00000040: c051 75bd ce3e 19bd 3aba bcbc 45d6 88bd
00000050: 3af0 77bd b899 003e 047e 18be ccb8 15bd
00000060: a4ea 4c3d 16fc 2fbd 02f4 5d3c 1a81 46bd
00000070: 90ef a6bd e83e 083b c1d4 74bd 8ce5 e8bc
00000080: abcc 47bd 102a 943d 7462 92bc 838d 01bd
00000090: 626d 703c e0e6 9d3d 2da5 ccbc 635e d4bc
000000a0: 9b24 c5bc 8a5f 35bc 43ac bcbd de25 86bd
000000b0: 1078 583b d362 ddbb 381b cfbc dc61 31bd
000000c0: 766d 573c a3e2 0f3e dc72 fc3c 6fbc 82bd
000000d0: 563e 7d3d 9df3 97bc 8db1 f53d be08 0e3c
000000e0: c900 ea3c 3f4e 7dbd 122e 9fbd cabe 9a3b
000000f0: 890a 9e3c 52cf c2bc c961 063c e62d 95bd
00000100: af27 b9bd d3b0 3dbd bd1c 413d 8abf ae3c
00000110: d309 3fbd 7693 673e 1d99 ee3d ccc9 85bc
00000120: 1261 abbc a024 14bd 5f14 4b3a 58ca 293c
00000130: 154f 923c 4e38 0ebd d868 d0bc fd4e b03d
00000140: 5852 59bd 9424 f7bc c5dc e93d 40ee 99bd
00000150: af33 323d aa03 fabc a6a1 133d 4431 113d
00000160: 2c90 3dbc 7401 04bd 2bdc 373d 107b 053d
00000170: c436 bdbd 23b5 7a3d 070e a4bd defb 6b3d
00000180: 4766 fcbc e954 27bd 24ee d73d 36be a73d
00000190: a4ed ffbd d8ff 00bd 3c58 0c3d 696f a7bd
000001a0: b1c9 deba a130 65bd abb6 14bd 178d 10bd
000001b0: 8d9a 94bc 3697 cd3d 1c70 bb3b 1783 bbbc
000001c0: 2476 3ebd 7ca4 89bb 71c3 e8bc b607 183c
000001d0: 9c29 0bbd 9561 25be 45c6 04be 961c 4dbb
000001e0: 054f 11bd 4ba1 163d cdc6 b5ba 8e9a 22bd
000001f0: ab6e 40be ca00 b8bc 9994 6abb ed86 0cbe
00000200: 052e cf3d 4d0e 433d 8651 4c3c 0aa5 fa3d
00000210: 45e2 f63c 3599 b2bc 3aed 5fbd 7e41 0dbe
00000220: 00f8 bcbc 4adb 97bd 7a4d bb38 be97 b53c
00000230: 0ca9 ebbc f608 82bd da53 b13d 2aa9 873b
00000240: 8735 51bd fd15 35bd 23a8 ed3d d7d4 c6bd
00000250: 3664 8c3c 1d3d 55bc c67d b1bc 4226 213e
00000260: 90e5 b9bd 3639 8dbd 1593 a23c 9d22 1b3b
00000270: 2f55 12bd 557d 423d 4067 103d 45b9 0a3e
00000280: 6c29 843d 4443 94bb a20b 29bd 32e7 afbd
00000290: 831f c93c 61b4 22bd 48bb 8b3d 4850 31bd
000002a0: aea0 82bd bc76 f8bd b681 bfbd 2701 583d
000002b0: f63c e6bd 8937 1a3d 77a4 0e3d 3a14 453c
000002c0: f4df 99bc e58c 06bd 0099 793c 21cf d2bc
000002d0: 1284 d4bd 9867 ae3d 5648 103e 28d5 98bd
000002e0: 6bc0 e9bc 99e2 71bd 420b a9bb b546 533c
000002f0: 1152 973d 56d5 09bd 5254 15be db08 00bd
00000300: 28be 0d3d 7706 0b3d e6f0 3dbd d7da b2bc
00000310: 5572 abbd fbc1 85bd 9d32 e9bc 4dd7 58bc
00000320: 3da3 743d 6563 a2bb c1aa a8bd 4066 bfbd
00000330: fc27 e23c 517d 1dbd 6e62 0cbd f8e6 97bc
00000340: 394d c1bd a66a 64bd 3a86 563d 7c07 b83d
00000350: 3f5a 3b3d b381 33bb 0a35 02bd 75ed 2abd
00000360: fc50 873d e994 dcbd 7e3a 853d 9a1c 94bc
00000370: c296 94bc 1bdf d3bd e881 25bd bbc4 d4bd
00000380: a13b caba 5f6a 1abe 32e4 97bc 8132 0fbd
00000390: 7ec0 f3bc 1c73 0fbd 8fcd afbd 3340 193d
000003a0: 2445 80bc 7e27 a8bd 7808 0a3d 8bcf 223d
000003b0: 4d55 e6bd e530 2f3d 1599 6abd 2dd9 c0bd
000003c0: 4391 af3b 6a38 0fbb ace2 1bbe e521 4ebc
000003d0: fb0e 94bd 553b ab3d 57a9 71bd 800d fe3d
000003e0: 35ba 40be 942b 5cbd 0f1a 153d 445e 18be
000003f0: 1f17 82bd 25d2 003d 1409 28bd 8b7a 8f3b
-0.024900489 -0.11539932 0.09698215 -0.012283131 0.013363523 -0.0791374 0.02739879 0.046529215
0.035546545 -0.13830379 0.0015521853 0.008433681 -0.05112395 -0.093105204 -0.016329782 0.036657955
-0.059892416 -0.03741341 -0.023038018 -0.06681494 -0.060531832 0.12558639 -0.14891821 -0.03655319
0.05002846 -0.042965017 0.0135469455 -0.048462965 -0.08151162 0.0020789448 -0.05977321 -0.028429769
-0.04877917 0.07234585 -0.017869212 -0.031629097 0.014674516 0.077100515 -0.024981106 -0.025923913
-0.024065306 -0.011070142 -0.09212544 -0.06550191 0.0033030547 -0.0067561655 -0.025281534 -0.043306217
0.013148656 0.14051299 0.030816488 -0.06383597 0.061827026 -0.018548781 0.11996756 0.0086690765
0.028564828 -0.0618422 -0.07772459 0.004722451 0.019292133 -0.023780499 0.008202025 -0.07284145
-0.09040772 -0.04631121 0.047146548 0.021331567 -0.04664023 0.22614846 0.11650298 -0.016331576
-0.02092031 -0.03616774 0.0007746871 0.010363184 0.017859975 -0.034721665 -0.025440618 0.08608816
-0.053057045 -0.030168809 0.114190616 -0.07516146 0.04350632 -0.030519325 0.03604283 0.035447374
-0.011570018 -0.03222795 0.044887703 0.032588065 -0.09238961 0.0612079 -0.08010488 0.057613246
-0.030810488 -0.04085246 0.105434686 0.08190577 -0.12496498 -0.03149399 0.034263834 -0.08175547
-0.0016997365 -0.05595458 -0.03630702 -0.035290804 -0.018140102 0.10038607 0.0057201516 -0.022889657
-0.046499386 -0.0042005163 -0.028413506 0.009279182 -0.03397523 -0.16150506 -0.12966259 -0.0031297556
-0.03547575 0.036774915 -0.0013868451 -0.039698176 -0.18792216 -0.022461314 -0.0035794138 -0.13723345
0.101161994 0.04762106 0.012470609 0.1223851 0.03013719 -0.02180157 -0.054669596 -0.13794515
-0.023067474 -0.07414873 8.931286e-05 0.022167083 -0.028767131 -0.063493654 0.086585715 0.004140039
-0.05107644 -0.044210423 0.11604335 -0.09708565 0.017137628 -0.013015059 -0.021666419 0.1573725
-0.09076989 -0.06895678 0.019845525 0.0023671754 -0.03572577 0.047482807 0.035254717 0.13547237
0.06453213 -0.0045246202 -0.04127086 -0.08589019 0.024551159 -0.039722804 0.068228304 -0.043289453
-0.063783035 -0.12132022 -0.09350912 0.052735474 -0.11242096 0.03765062 0.034824815 0.012028748
-0.018783547 -0.03284921 0.015234232 -0.025733532 -0.10376753 0.08515853 0.14090094 -0.07462531
-0.028534135 -0.05905399 -0.0051588127 0.012895276 0.073887 -0.03365072 -0.14582947 -0.031258445
0.034605175 0.033941712 -0.046372317 -0.021832867 -0.083714165 -0.065311395 -0.028466517 -0.013234925
0.05972599 -0.0049556964 -0.08235694 -0.093456745 0.027606957 -0.03844959 -0.034273557 -0.018542752
-0.09438557 -0.05576577 0.052374102 0.089858025 0.045740362 -0.002739054 -0.031788863 -0.041730363
0.066072434 -0.1077059 0.06505297 -0.018080045 -0.018138293 -0.10345288 -0.04040709 -0.10389086
-0.0015429148 -0.1507964 -0.01854143 -0.034960274 -0.029754873 -0.035021886 -0.08584129 0.03741474
-0.015657969 -0.082106575 0.033699483 0.03974871 -0.112467386 0.04277124 -0.057274897 -0.09416423
0.0053578927 -0.0021853694 -0.15223187 -0.012581323 -0.0722942 0.08360926 -0.058999386 0.12404919
-0.18821032 -0.053752497 0.036401805 -0.1487971 -0.06352066 0.03145041 -0.041024283 0.004378622
