Assets/ML_PPO/results/headless_19/BoatAgent/BoatAgent-899961.onnx (onnx, 945870 bytes, 21 tensors)

discrete_action_output_shape f4 [1, 6]
2.0 2.0 2.0 2.0 2.0 2.0
00000000: 0000 0040 0000 0040 0000 0040 0000 0040
00000010: 0000 0040 0000 0040

network_body._body_endoder.seq_layers.0.weight f4 [256, 133]
-0.0055882 -0.017692955 -0.05291702 -0.14501733 0.035764378 0.062514484 0.26365545 -0.03012199
0.06908121 -0.06420034 -0.009870596 0.03309722 -0.15053158 0.110564746 0.020796565 -0.012411411
0.10407809 -0.014957869 -0.14968364 0.0056682685 -0.0025101104 -0.0023059442 0.18406181 0.025045797
0.004897285 -0.025656259 -0.16807064 0.0320429 0.101556554 -0.114380516 0.13777502 -0.019834172
-0.050395884 -0.0052262875 0.02665289 -0.071549825 -0.01515549 0.0079382155 -0.0018574173 0.08683973
0.016773863 0.031251386 0.0780696 0.054739647 0.060099304 0.040680125 0.005439414 -0.08125952
-0.074938394 0.04283026 -0.11016813 0.022866786 -0.28464916 -0.07125921 -0.01664092 0.10648736
0.08787173 0.008467949 -0.023284916 0.047415115 -0.15234305 0.022066921 0.06875296 0.13118982
0.03570799 0.1341106 0.07948112 0.0801053 -0.072647594 0.010506476 -0.16472879 -0.019667165
0.06081251 -0.005429604 0.05435429 0.15677488 -0.024622194 0.03059545 -0.0039851153 0.05101902
-0.01645549 0.023888156 -0.16039443 0.06790919 0.027738819 0.00045801085 0.09089341 -0.010936046
-0.054032758 0.01348557 -0.112935685 -0.06925969 -0.0041377065 -0.10824693 0.02432827 0.06283084
-0.07279804 -0.1923617 0.010709116 -0.17561841 0.009498534 -0.1305684 -0.063719414 0.024462106
-0.09298868 -0.08304498 -0.12976918 -0.12197619 -0.06808641 0.016894594 -0.07393009 -0.046373095
-0.10431238 -0.21679884 -0.08412216 -0.1486637 -0.15593024 0.10069412 0.100267634 -0.03901676
-0.0976956 -0.023443373 0.033317618 0.1276567 -0.13710469 -0.07590638 0.28417748 0.010386154
0.24489775 -0.14088687 0.063133985 0.055889867 -0.028508399 -0.067357466 -0.07469692 -0.048940722
0.016218757 -0.02008807 -0.022841683 0.055905387 0.04120704 -0.04332677 -0.044399735 0.07449664
0.12125195 -0.02497415 0.03980305 0.13280594 0.097865164 0.026836269 0.038559865 0.13794768
0.038636334 -0.08050885 -0.07744507 0.12163814 -0.037605274 -0.040354036 0.14229447 -0.04089272
-0.019805524 -0.12253591 -0.10277263 4.6012152e-05 -0.063098155 0.12984811 0.07511251 0.042421754
-0.15515488 0.034825742 0.043843515 0.03382152 -0.037468053 0.05062627 -0.03644562 -0.08874943
0.07812684 -0.026243256 0.06536812 -0.002831225 0.16477643 0.0136815915 -0.021577323 -0.056699097
-0.03170304 -0.038481515 0.06743796 -0.019737134 0.049929544 0.09549745 0.12594615 -0.08200811
0.05377544 0.12739865 -0.06783769 0.10730625 0.030306369 0.049661443 -0.0038506198 0.05389208
-0.084754005 0.046187174 0.06951323 -0.033212915 0.071554795 0.088249505 0.020099571 0.23473659
-0.14390573 0.050202843 0.05113605 -0.15145285 -0.07381238 0.08868863 -0.05008782 0.0057582175
0.08096808 -0.04897693 -0.03935683 -0.059941877 -0.028825767 -0.0020027559 -0.05264183 0.09365817
-0.11138779 0.08204028 0.016658518 -0.038792823 -0.064428926 -0.012209184 0.028814912 0.01576756
-0.064896196 -0.01396024 0.026280193 0.014612134 -0.06510717 -0.027756697 0.06233213 0.022761744
-0.008727414 -0.14608869 0.05524938 0.053488772 0.08867854 -0.117109396 0.068093106 0.062432893
-0.018312054 0.07209805 0.033987004 0.06993976 -0.00985447 0.13458985 -0.0991322 -0.08590471
00000000: 381d b7bb d1f0 90bc 84bf 58bd 6c7f 14be
00000010: ab7d 123d 9807 803d d9fd 863e 64c2 f6bc
00000020: 737a 8d3d 787b 83bd 48b8 21bc f390 073d
00000030: f324 1abe c56f e23d 8f5d aa3c 3b59 4bbc
00000040: e526 d53d da11 75bc ab46 19be e2bc b93b
00000050: aa80 24bb 531f 17bb b37a 3c3e d82c cd3c
00000060: 6779 a03b 132d d2bc b61a 2cbe 6a3f 033d
00000070: e2fc cf3d 5540 eabd e514 0d3e 467b a2bc
00000080: ea6b 4ebd 4741 abbb 2957 da3c b788 92bd
00000090: bb4e 78bc 4a0f 023c 9574 f3ba 07d9 b13d
000000a0: 5769 893c 7401 003d f4e2 9f3d ae36 603d
000000b0: b02a 763d 34a0 263d 1d3d b23b 646b a6bd
000000c0: 4d79 99bd c86e 2f3d d49f e1bd 2053 bb3c
000000d0: 89bd 91be 59f0 91bd 8a52 88bc 0c16 da3d
000000e0: 18f6 b33d 27bd 0a3c 02c0 bebc 5a36 423d
000000f0: d1ff 1bbe b0c5 b43c 5ace 8c3d a056 063e
00000100: 8b42 123d 4a54 093e ffc6 a23d 3f0e a43d
00000110: 43c8 94bd 5b23 2c3c aaae 28be 091d a1bc
00000120: 8a16 793d d2ea b1bb 9ba2 5e3d 9889 203e
00000130: 7cb4 c9bc 4fa3 fa3c 9295 82bb 52f9 503d
00000140: aacd 86bc 18b1 c33c 703e 24be f913 8b3d
00000150: 853c e33c 2d21 f039 5326 ba3d 1a2d 33bc
00000160: 7451 5dbd 95f2 5c3c d34a e7bd 06d8 8dbd
00000170: 9995 87bb 91b0 ddbd 154c c73c 75ad 803d
00000180: 2417 95bd 77fa 44be 4a75 2f3c 50d5 33be
00000190: bd9f 1b3c b9b3 05be 537f 82bd c164 c83c
000001a0: d970 bebd 7d13 aabd 36e2 04be a7ce f9bd
000001b0: e370 8bbd 8866 8a3c a968 97bd b7f1 3dbd
000001c0: bba1 d5bd 8400 5ebe 3d48 acbd 4c3b 18be
000001d0: 2dac 1fbe b838 ce3d 1e59 cd3d 0ad0 1fbd
000001e0: a114 c8bd 510c c0bc 0e78 083d 70b8 023e
000001f0: 2c65 0cbe ce74 9bbd b67f 913e b02a 2a3c
00000200: 7ac6 7a3e a644 10be 644c 813d c6ec 643d
00000210: 728a e9bc b6f2 89bd b3fa 98bd 1176 48bd
00000220: 33dd 843c bc8f a4bc 7b1e bbbc 0cfd 643d
00000230: b7c8 283d 6977 31bd 7fdc 35bd b291 983d
00000240: f152 f83d 9796 ccbc 8608 233d 48fe 073e
00000250: 886d c83d bcd7 db3c f3f0 1d3d 2842 0d3e
00000260: 2241 1e3d d3e1 a4bd 859b 9ebd 6b1d f93d
00000270: fd07 1abd 464a 25bd a4b5 113e 207f 27bd
00000280: 323f a2bc 1bf4 fabd 757a d2bd 2cfd 4038
00000290: 9b39 81bd e7f6 043e 96d4 993d 6fc2 2d3d
000002a0: ece0 1ebe 70a5 0e3d 4295 333d 6f88 0a3d
000002b0: 1a78 19bd 7e5d 4f3d 0148 15bd 43c2 b5bd
000002c0: f700 a03d 19fc d6bc b9df 853d 138c 39bb
000002d0: 27bb 283e c128 603c edc2 b0bc 503d 68bd
000002e0: 0cdb 01bd cb9e 1dbd ea1c 8a3d c5af a1bc
000002f0: ec82 4c3d 2b94 c33d 07f8 003e def3 a7bd
00000300: a343 5c3d cb74 023e 7dee 8abd 61c3 db3d
00000310: 1045 f83c cc69 4b3d ae5a 7cbb f1bd 5c3d
00000320: 8293 adbd c32e 3d3d f45c 8e3d 440a 08bd
00000330: 528b 923d 28bc b43d dba7 a43c ca5e 703e
00000340: 065c 13be 7fa1 4d3d 0974 513d 7516 1bbe
00000350: f22a 97bd 62a2 b53d e328 4dbd 6eaf bc3b
00000360: 98d2 a53d 099c 48bd a134 21bd 9d85 75bd
00000370: 0424 ecbc ab40 03bb f69e 57bd dbcf bf3d
00000380: 481f e4bd bc04 a83d 7277 883c 39e5 1ebd
00000390: 50f3 83bd 0709 48bc 400d ec3c f82a 813c
000003a0: 4ce8 84bd 7eb9 64bc 8f49 d73c bb67 6f3c
000003b0: e856 85bd 0362 e3bc fa4f 7f3d d676 ba3c
000003c0: 6dfd 0ebc 4698 15be 2d4d 623d 0b17 5b3d
000003d0: 189d b53d 0dd7 efbd 6674 8b3d a2b9 7f3d
000003e0: 2903 96bc 24a8 933d f535 0b3d 943c 8f3d
000003f0: a574 21bc ecd1 093e d305 cbbd cfee afbd

network_body._body_endoder.seq_layers.0.bias f4 [256]
-0.041287817 -0.0049593924 -0.06494706 -0.040674895 0.024313897 0.00955205 -0.011680424 -0.034821283
-0.019295616 0.00056751893 -0.062356643 -0.06562744 -0.012840558 -0.03803143 0.00455109 -0.0033841408
-0.067407176 -0.0033632603 -0.056484498 -0.03263091 -0.018501576 -0.020100093 -0.043301992 -0.04472169
-0.03018981 0.042794872 -0.025235852 0.004522062 -0.018725017 -0.019135745 -0.033781424 -0.02425528
-0.0127844475 -0.023756003 -0.011014769 -0.012275359 -0.008022835 0.01883661 -0.038422428 -0.036669187
-0.03477099 0.027882962 -0.023358043 0.009307738 -0.03349528 0.018640248 0.0010727899 0.028630802
-0.020780016 -0.012212194 0.0035106044 -0.04752156 -0.002915138 0.020532053 -0.006154831 -0.0019051199
-0.036656175 -0.039353352 -0.016735611 0.028473506 -0.035937697 -0.038224522 -0.0043576863 -0.014348834
0.038536042 -0.018759422 0.015306611 -0.014361037 -0.076754436 0.03150741 -0.010193261 -0.066096425
0.028191274 -0.026751755 0.0067365267 0.016208738 -0.0075192875 0.014101631 -0.02533284 -0.02140825
0.021060014 -0.013703462 -0.01662489 0.0017245284 -0.009558271 0.048534747 0.017707128 0.0073862174
0.01562503 -0.024197511 0.062284593 -0.015423701 -0.017796708 -0.00036234903 0.04814905 -0.019630471
-0.038908098 0.035133768 -0.066286094 0.00909398 -0.012272258 -0.021449383 -0.01846827 0.0017244178
0.026185313 0.012300193 -0.010228378 -0.044910025 -0.033185657 -0.036448456 -0.017499398 0.040536813
-0.056422345 -0.040931627 -0.005234664 0.031328153 0.016688414 -0.041169323 -0.033324182 0.0053611477
-0.021027822 -0.065027654 -0.035594795 -0.029621875 0.007985 -0.0064998064 -0.027014064 0.04982699
-0.043098193 -0.012631189 -0.037401732 0.02958616 0.011277335 0.03994754 -0.03986414 0.05569104
-0.026325708 0.0005116718 0.005094549 -0.01691676 0.03885993 -0.034027606 0.015440042 0.024801295
-0.0060154772 0.002742017 -0.0077048093 0.036429495 0.019649697 0.04396157 0.0016757953 -0.0064715683
-0.04648314 0.017076487 -0.042008158 -0.016598517 -0.057426315 0.009427423 -0.012748902 0.0026169966
-0.02435809 -0.06738971 -0.0811288 -0.003770562 -0.059636228 -0.013627061 0.0030424208 -0.039293967
-0.038412098 -0.00853515 -0.01790741 -0.038054068 -0.042045362 -0.037306312 -0.017026113 -0.015229188
-0.043044157 0.05346272 -0.019856684 0.0039187493 0.04157432 0.034999616 -0.051400345 -0.056218755
0.0075951973 0.0048902943 0.03354092 -0.0022948286 -0.054257344 0.026373727 0.006726258 0.056433592
-0.02402835 0.03250687 -0.028296929 -0.040399935 -0.010073866 0.046589807 0.014782767 -0.027870487
0.017447142 0.030655604 -0.037803587 -0.019924087 -0.046391934 0.012322415 -0.039279114 -0.014618072
0.002553464 -0.03748763 -0.029678078 -0.01223046 -0.02272588 -0.0054084803 -0.017512891 0.0040339087
-0.040876877 0.011863768 -0.044490818 -0.03534383 0.015585859 -0.041926265 -0.048490584 -0.038964313
-0.03592509 -0.035194606 -0.01995001 0.001156717 -0.04017233 -0.017876565 -0.0036190671 0.0013058629
-0.008067516 -0.0012298856 0.055234116 -0.016564501 -0.023222622 -0.0072933217 0.06316731 -0.008727438
0.024924781 0.073517255 0.03734337 0.026130551 -0.057046644 -0.022973662 5.236834e-06 -0.06301398
-0.030042764 -0.022897813 -0.016797101 0.016284198 0.06242852 0.024176791 -0.06318866 -0.046610177
00000000: 6a1d 29bd 6682 a2bb f702 85bd b89a 26bd
00000010: f02d c73c 3480 1c3c 405f 3fbc c3a0 0ebd
00000020: d711 9ebc 8dc5 143a ae69 7fbd ae67 86bd
00000030: 3461 52bc d8c6 1bbd 4f21 953b 76c8 5dbb
00000040: c60c 8abd 256a 5cbb 4a5c 67bd fda7 05bd
00000050: 9e90 97bc f3a8 a4bc 6e5d 31bd 172e 37bd
00000060: 9f50 f7bc ad49 2f3d 6bbb cebc ce2d 943b
00000070: 3565 99bc 91c2 9cbc 645e 0abd 02b3 c6bc
00000080: dc75 51bc f39b c2bc 4a77 34bc 961e 49bc
00000090: 3572 03bc 3c4f 9a3c d660 1dbd 6e32 16bd
000000a0: 076c 0ebd cf6a e43c 5e59 bfbc 7c7f 183c
000000b0: 5932 09bd 6fb3 983c db9c 8c3a 258b ea3c
000000c0: da3a aabc a715 48bc 2b12 663b f8a5 42bd
000000d0: e60b 3fbb d632 a83c 77ae c9bb 37b5 f9ba
000000e0: c924 16bd fb30 21bd 1f19 89bc 4541 e93c
000000f0: 6833 13bd 5191 1cbd ecca 8ebb 5f17 6bbc
00000100: f8d7 1d3d 5cad 99bc 94c8 7a3c 8e4a 6bbc
00000110: 6e31 9dbd ea0d 013d a301 27bc 905d 87bd
00000120: 63f1 e63c 7f26 dbbc 15be dc3b 30c8 843c
00000130: 5b64 f6bb 870a 673c d186 cfbc 5b60 afbc
00000140: 0d86 ac3c 7c84 60bc ec30 88bc 9209 e23a
00000150: 4b9a 1cbc 5fcc 463d 8a0e 913c 1508 f23b
00000160: 1000 803c dc39 c6bc 211e 7f3d b1b3 7cbc
00000170: 67ca 91bc aaf9 bdb9 f037 453d 15d0 a0bc
00000180: 195e 1fbd 6de8 0f3d 01c1 87bd ebfe 143c
00000190: 9511 49bc 9eb6 afbc c54a 97bc dc05 e23a
000001a0: 9582 d63c c086 493c ed94 27bc 93f3 37bd
000001b0: afed 07bd fa4a 15bd e65a 8fbc ee09 263d
000001c0: 1e1b 67bd eca7 27bd 8b87 abbb f351 003d
000001d0: 24b6 883c 2aa1 28bd f07e 08bd 91ac af3b
000001e0: 8a42 acbc 382d 85bd d9cb 11bd 93a9 f2bc
000001f0: 84d3 023c 54fc d4bb 994c ddbc 6317 4c3d
00000200: bb87 30bd 0cf3 4ebc 8f32 19bd ad5e f23c
00000210: 92c4 383c 08a0 233d 9548 23bd 4a1c 643d
00000220: 03a9 d7bc b721 063a 2df0 a63b 0495 8abc
00000230: 972b 1f3d 8860 0bbd 3bf8 7c3c 162c cb3c
00000240: 7b1d c5bb 69b3 333b a078 fcbb 1837 153d
00000250: 67f8 a03c 0c11 343d 5ca6 db3a 730f d4bb
00000260: 1b65 3ebd fde3 8b3c bf10 2cbd 9df9 87bc
00000270: db37 6bbd 7a75 1a3c c5e0 50bc eb81 2b3b
00000280: 9e8a c7bc 9e03 8abd db26 a6bd 881b 77bb
00000290: 1e45 74bd 0944 5fbc 5a63 473b b6f2 20bd
000002a0: 0156 1dbd 04d7 0bbc 90b2 92bc 95de 1bbd
000002b0: c237 2cbd 81ce 18bd 597a 8bbc d883 79bc
000002c0: 124f 30bd bafb 5a3d 7caa a2bc da68 803b
000002d0: d649 2a3d c25b 0f3d 2b89 52bd a345 66bd
000002e0: 22e1 f83b c33e a03b 3462 093d d664 16bb
000002f0: f33c 5ebd b70d d83c f167 dc3b e926 673d
00000300: 1ad7 c4bc ec25 053d f6ce e7bc 677a 25bd
00000310: db0c 25bc f4d4 3e3d 6b33 723c a650 e4bc
00000320: 4fed 8e3c 7621 fb3c efd7 1abd d737 a3bc
00000330: 7805 3ebd f4e3 493c 23e3 20bd a380 6fbc
00000340: 0458 273b a18c 19bd 711f f3bc 4462 48bc
00000350: a02b babc 9f39 b1bb 3277 8fbc e12e 843b
00000360: 836e 27bd 4060 423c 013c 36bd b1c4 10bd
00000370: d55b 7f3c e0ba 2bbd 109e 46bd 0b99 1fbd
00000380: 3026 13bd 3828 10bd 346e a3bc fb9c 973a
00000390: be8b 24bd e071 92bc df2d 6dbb 7d29 ab3a
000003a0: 9d2d 04bc 1d34 a1ba 2b3d 623d 47b2 87bc
000003b0: 5e3d bebc d1fc eebb dd5d 813d 87fd 0ebc
000003c0: 0e2f cc3c 3790 963d 5df5 183d bd0f d63c
000003d0: bea9 69bd 4333 bcbc 10b8 af36 790d 81bd
000003e0: 3e1c f6bc 3294 bbbc 139a 89bc 7066 853c
000003f0: 0cb5 7f3d 680e c63c 0e69 81bd 50ea 3ebd

network_body._body_endoder.seq_layers.2.weight f4 [256, 256]
0.023775538 0.011630276 -0.08522523 -0.20782176 -0.01148885 0.031562086 -0.022140244 -0.1244958
-0.07194922 -0.08987598 0.05766722 0.018677289 0.032939635 -0.072783396 -0.0044612694 -0.042615246
0.060621854 -0.06358659 -0.035283312 0.004361929 -0.09035409 -0.050865922 -0.042092472 -0.09609534
0.00909589 -0.064562306 -0.084249154 -0.005489668 0.067664646 -0.121622756 -0.00091080775 0.05756781
-0.14673865 0.09677887 0.045001935 0.006456205 0.023309158 -0.04191232 -0.011077888 -0.014158076
-0.059165798 0.029645775 -0.069411844 -0.034127682 0.059503455 0.047622878 0.011785331 -0.20388854
0.0339349 0.025936728 0.019977987 -0.04932995 -0.108572096 -0.05511596 -0.09369788 0.029331736
-0.04641805 7.9316065e-05 -0.03955028 0.07050852 -0.010351399 0.018422415 0.016879773 -0.034814745
-0.18375666 -0.077567495 0.0039938246 0.033287153 -0.06557636 -0.028552584 -0.11781279 0.0071648504
-0.15529792 -0.046126932 -0.017020449 0.11308782 -0.01480401 -0.22221798 -0.109803505 -0.043095704
0.06672921 -0.17582227 0.092934944 0.055839237 0.041098714 -0.11709757 0.04356691 0.036397677
-0.09114328 0.0695363 -0.09885803 0.0375653 -0.0059076957 -0.052276246 0.033652663 -0.041142117
-0.103623375 -0.116303526 -0.10259336 0.02107229 -0.03980619 0.07603036 0.0003352964 0.0011759612
0.02461847 0.0052059367 0.02002523 0.07560011 -0.003017675 0.025146164 -0.12163022 0.099176705
0.02006837 0.019592755 -0.15619771 -0.12117974 0.056434702 -0.08822239 -0.052496314 0.1682966
0.031566657 -0.1814456 -0.052508723 0.0012266765 -0.0044220043 -0.1317782 -0.08255568 -0.036994427
0.010758484 -0.050394177 0.05026498 -0.12515551 0.06308831 0.06924766 -0.014819125 0.07093454
-0.082500964 0.01592213 0.114971176 -0.02189501 -0.04504673 0.033589467 -0.07449847 0.0012338429
-0.015530989 -0.092309624 -0.112630546 0.0037634415 -0.19462043 -0.13712762 -0.09558174 -0.00041911824
-0.02596042 0.11414751 0.0015426767 -0.07030282 -0.03191065 -0.15494886 -0.016708847 -0.12211622
-0.0041233995 -0.033931304 -0.006891805 -0.033232078 0.0018960771 -0.110614434 -0.045832615 0.06140319
-0.054124974 0.05187665 -0.03658538 -0.09705839 -0.11349233 0.027364574 0.01477587 -0.031057468
-0.1082208 -0.032855984 -0.034926523 0.013806293 -0.035071366 0.05856961 0.024394417 -0.053081106
-0.09803307 -0.14629626 -0.012909831 -0.010724045 -0.014874789 0.033962607 -0.038514785 -0.13916694
0.10481952 -0.07440863 -0.009527909 -0.12350382 0.10257891 0.092708185 -0.017230641 -0.04626208
-0.059767053 0.009541782 -0.045212116 -0.03982974 -0.048561476 0.007987221 -0.050184563 0.09058524
-0.025499798 -0.07098745 0.08529508 -0.051436637 0.018397544 0.03471784 0.09103961 0.090289965
-0.012044351 -0.025375044 -0.09319193 -0.006468725 0.03538533 -0.008793771 0.17046794 -0.02786124
-0.0042496515 -0.064481206 -0.16025643 -0.031487092 0.0874355 -0.020701228 0.047306035 0.038137566
-0.061840948 -0.12552966 -0.056413073 -0.02835427 0.026474496 -0.018290067 -0.13878782 -0.030831166
0.012469423 -0.020346673 0.006910952 0.04909513 -0.106646165 -0.033149082 -0.023446243 0.05742573
-0.022374015 -0.07925734 -0.046530817 -0.049458895 -0.13731016 -0.09464065 -0.014444298 -0.071794584
00000000: ebc4 c23c ea8c 3e3c 918a aebd 3acf 54be
00000010: bb3b 3cbc 3f47 013d 755f b5bc a7f7 febd
00000020: 1d5a 93bd e610 b8bd 7634 6c3d 1d01 993c
00000030: b6eb 063d 760f 95bd d72f 92bb 538d 2ebd
00000040: 9f4e 783d b039 82bd 3c85 10bd 83ee 8e3b
00000050: 910b b9bd c958 50bd 2869 2cbd a2cd c4bd
00000060: ee06 153c 3e39 84bd d28a acbd ace2 b3bb
00000070: c393 8a3d 5a15 f9bd 46c3 6eba 39cc 6b3d
00000080: a842 16be 0034 c63d f353 383d 938e d33b
00000090: d9f2 be3c 41ac 2bbd 0880 35bc 46f7 67bc
000000a0: d657 72bd b2db f23c cc27 8ebd 78c9 0bbd
000000b0: e5b9 733d 3510 433d 4317 413c 28c8 50be
000000c0: 52ff 0a3d 4379 d43c e0a8 a33c 340e 4abd
000000d0: 0c5b debd 46c1 61bd ade4 bfbd 1c49 f03c
000000e0: da20 3ebd 7d56 a638 79ff 21bd c566 903d
000000f0: ea98 29bc 9bea 963c 7347 8a3c e899 0ebd
00000100: b52a 3cbe b5db 9ebd a1de 823b 1c58 083d
00000110: e64c 86bd 1ce7 e9bc d547 f1bd 1fc7 ea3b
00000120: 6b06 1fbe 98ef 3cbd 786e 8bbc 969a e73d
00000130: 858c 72bc 1c8d 63be a9e0 e0bd 1f85 30bd
00000140: 53a9 883d c10a 34be ad54 be3d afb7 643d
00000150: 2057 283d dad0 efbd 3773 323d bb15 153d
00000160: 54a9 babd 0c69 8e3d 1476 cabd 12de 193d
00000170: 5895 c1bb 9e1f 56bd 60d7 093d a384 28bd
00000180: 7e38 d4bd 8b30 eebd 781c d2bd cc9f ac3c
00000190: d10b 23bd ceb5 9b3d b9ca af39 b622 9a3a
000001a0: acac c93c 9096 aa3b f30b a43c 3bd4 9a3d
000001b0: 2fc4 45bb 54ff cd3c 4419 f9bd 281d cb3d
000001c0: 6c66 a43c fc80 a03c 4bf2 1fbe 152d f8bd
000001d0: 1328 673d f1ad b4bd 6006 57bd f255 2c3e
000001e0: 0a4c 013d e0cc 39be 6313 57bd 6fc8 a03a
000001f0: 76e6 90bb ddf0 06be f412 a9bd 7887 17bd
00000200: 5a44 303c 206a 4ebd a7e2 4d3d c428 00be
00000210: 7234 813d b8d1 8d3d eacb 72bc 2146 913d
00000220: 44f6 a8bd 206f 823c 0276 eb3d 2a5d b3bc
00000230: ec82 38bd 1c95 093d a792 98bd e6b8 a13a
00000240: b075 7ebc d40c bdbd d8aa e6bd 12a4 763b
00000250: 944a 47be 2f6b 0cbe 5cc0 c3bd 19bd dbb9
00000260: f2aa d4bc 2bc6 e93d a433 ca3a edfa 8fbd
00000270: beb4 02bd eaaa 1ebe fee0 88bc 1218 fabd
00000280: 951d 87bb 8dfb 0abd a7d4 e1bb 5c1e 08bd
00000290: ca85 f83a d289 e2bd fbba 3bbd e981 7b3d
000002a0: 26b2 5dbd 9c7c 543d 8dda 15bd 8dc6 c6bd
000002b0: ab6e e8bd ac2b e03c 7e16 723c 3b6c febc
000002c0: dea2 ddbd ff93 06bd 1d0f 0fbd ca33 623c
000002d0: fea6 0fbd b0e6 6f3d cdd6 c73c 936b 59bd
000002e0: 90c5 c8bd b0ce 15be c183 53bc e8b3 2fbc
000002f0: 63b5 73bc 601c 0b3d aec1 1dbd c781 0ebe
00000300: 9eab d63d 8d63 98bd f21a 1cbc 92ef fcbd
00000310: e414 d23d cadd bd3d 4627 8dbc 4f7d 3dbd
00000320: 4cce 74bd 2255 1c3c 5730 39bd 8224 23bd
00000330: 66e8 46bd d5dc 023c 548e 4dbd c184 b93d
00000340: f4e4 d0bc de61 91bd 30af ae3d 39af 52bd
00000350: 72b6 963c 4b34 0e3d fa72 ba3d f2e9 b83d
00000360: ab55 45bc 53df cfbc 69db bebd 99f7 d3bb
00000370: 35f0 103d c013 10bc 268f 2e3e 413d e4bc
00000380: a940 8bbb b90e 84bd 431a 24be 9cf8 00bd
00000390: 6211 b33d 9f95 a9bc f9c3 413d 2336 1c3d
000003a0: ef4c 7dbd d98a 00be 6511 67bd 3747 e8bc
000003b0: 0be1 d83c 0dd5 95bc 651e 0ebe a491 fcbc
000003c0: 8d4c 4c3c 11ae a6bc 4475 e23b fa17 493d
000003d0: 4e69 dabd 55c7 07bd 5612 c0bc 3e37 6b3d
000003e0: b649 b7bc ac51 a2bd 1997 3ebd 6995 4abd
000003f0: 099b 0cbe f5d2 c1bd c7a7 6cbc 0a09 93bd

network_body._body_endoder.seq_layers.2.bias f4 [256]
0.025402298 -0.019754076 0.040363494 0.0172975 -0.09022065 -0.0001799811 0.042351093 -0.08002447
-0.04430658 -0.10967886 -0.026237795 0.025301429 -0.14009042 -0.05200361 0.0048005013 0.0151384175
-0.007441409 0.0055624573 -0.1224651 0.013108079 -0.0056706946 0.03467239 -0.030519972 -0.0709184
-0.061598793 -0.009347739 -0.0075580017 -0.028760869 0.05010856 -0.08713249 -0.07163987 0.0021035667
-0.03853351 -0.021017818 -0.026872084 0.009473843 -0.004130234 0.007858504 -0.008720724 -0.12203759
-0.0018950062 -0.0069886036 -0.0051981867 -0.026883712 -0.09917726 -0.011108832 0.027050434 0.009014583
-0.037351005 -0.09227742 -0.0027088216 0.039569102 -0.015534674 0.032611087 -0.04317443 0.008073517
-0.093118206 -0.005122088 0.0019653211 0.020062912 -0.10828648 -0.016085936 -0.039856013 -0.07254651
0.061396953 0.022830753 -0.047398347 -0.038240187 -0.033477496 0.020568127 -0.09742085 0.024198033
-0.07923719 -0.11106488 0.029760035 -0.0065394477 -0.0048412215 -0.096595086 -0.10287795 -0.04926167
-0.004190264 -0.014456882 -0.0024917915 0.020611513 0.031035572 0.006812047 -0.1118324 -0.03064799
-0.00017798193 -0.07218036 -0.079985194 -0.05131547 -0.040700257 -0.052722804 -0.06611069 0.024149612
-0.0710298 0.02753387 0.0030539227 -0.040387925 -0.0687819 -0.06678969 -0.10934468 0.05880138
0.031676173 0.02229689 -0.011285873 0.046076585 -0.019571403 0.012447253 -0.011868977 -0.022055171
0.00070875214 -0.07202084 0.0281624 0.0031165895 -0.05569096 -0.10357489 0.016010456 -0.07835519
-0.024320235 -0.047769163 -0.100668594 0.038829695 -0.02161026 -0.0014052953 -0.16202524 -0.062001962
-0.040690653 0.016888645 0.013954215 -0.066375904 0.02521735 0.016676834 -0.06976212 -0.015648779
-0.039293356 -0.039430223 0.014544706 -0.05120532 -0.082880825 0.014492035 0.020571241 -0.0056154616
-0.03796848 -0.077013776 -0.08185235 -0.04835292 0.042645704 -0.04861919 0.014503755 0.002353609
0.018838627 -0.05989396 -0.08989382 0.012193111 0.03916684 0.011685092 -0.017641256 -0.09494462
-0.0019226498 -0.069595665 -0.042308286 0.028763818 0.04827286 -0.025309455 -0.10700155 0.02297921
0.017615926 0.09319181 0.03773572 -0.09402366 -0.09828082 -0.06541819 0.015227555 -0.10506255
-0.045992836 -0.07793848 -0.024565063 -0.10703402 -0.074165046 -0.11898087 -0.059753083 -0.05528878
0.0039333077 -0.017958596 -0.034404468 0.030371416 0.016671455 0.03493001 0.017488347 -0.031644423
0.066203505 -0.002341112 0.0019667652 0.034338932 -0.051739767 -0.04111387 -0.019180419 0.018978048
-0.017501162 -0.019582657 0.019958142 -0.014387791 0.034172796 0.019419143 -0.041451022 -0.03866857
0.066845424 -0.034059517 0.022161711 0.031977855 0.033154666 -0.008442853 -0.09508425 -0.039025966
0.036550812 -0.06694872 -0.044229433 -0.003607257 0.017827658 0.018936507 -0.010514317 0.030627038
-0.03250253 -0.08769454 0.003819327 0.040488463 -0.10619498 -0.0230559 0.03248416 -0.08463814
-0.011814239 -0.0072150906 -0.016558241 -0.002285327 -0.061582845 -0.11901881 0.021801744 -0.07922329
0.033784583 0.006201749 0.021771953 -0.02218411 0.05883782 -0.0667964 0.015591514 -0.061526377
-0.07983501 -0.08402237 -0.079691626 -0.0038157958 0.034754906 -0.028476048 -0.027325805 -0.044255164
00000000: 7b18 d03c 4dd3 a1bc 3154 253d 7db3 8d3c
00000010: 9bc5 b8bd 4fb9 3cb9 5778 2d3d dfe3 a3bd
00000020: d17a 35bd 4f9f e0bd a5f0 d6bc f144 cf3c
00000030: dd73 0fbe bd01 55bd 864d 9d3b 2007 783c
00000040: 10d7 f3bb 4645 b63b fbce fabd 45c3 563c
00000050: 3cd1 b9bb a304 0e3d 0505 fabc ab3d 91bd
00000060: 044f 7cbd 4227 19bc 1da9 f7bb ea9b ebbc
00000070: a23e 4d3d 8572 b2bd edb7 92bd fedb 093b
00000080: 50d5 1dbd 8f2d acbc d822 dcbc 2d38 1b3c
00000090: ea56 87bb f4c0 003c 5ee1 0ebc d8ee f9bd
000000a0: db61 f8ba a800 e5bb 8d55 aabb 3b3b dcbc
000000b0: 731d cbbd d201 36bc df98 dd3c e7b1 133c
000000c0: 5efd 18bd f2fb bcbd 7c86 31bb 3613 223d
000000d0: 2585 7ebc 3493 053d acd7 30bd c946 043c
000000e0: c2b4 bebd 30d7 a7bb 9ecc 003b fa5a a43c
000000f0: 4dc5 ddbd a7c6 83bc 0f40 23bd 4493 94bd
00000100: 5f7b 7b3d 8f07 bb3c c524 42bd bea1 1cbd
00000110: b31f 09bd 7d7e a83c 9584 c7bd f43a c63c
00000120: 1c47 a2bd fc75 e3bd 51cb f33c dd48 d6bb
00000130: 1ca3 9ebb a5d3 c5bd adb1 d2bd 9bc6 49bd
00000140: 7b4e 89bb 8fdc 6cbc 534d 23bb 7ad9 a83c
00000150: 503e fe3c 9837 df3b 6308 e5bd 7e11 fbbc
00000160: a9a0 3ab9 4cd3 93bd 47cf a3bd 2c30 52bd
00000170: 50b5 26bd def3 57bd 0b65 87bd 68d5 c53c
00000180: 1278 91bd b68e e13c 5224 483b cf6d 25bd
00000190: 86dd 8cbd 08c9 88bd 1bf0 dfbd b7d9 703d
000001a0: e0be 013d f8a7 b63c 62e8 38bc cdba 3c3d
000001b0: 3554 a0bc 90ef 4b3c 1976 42bc 0cad b4bc
000001c0: 8dcb 393a aa7f 93bd d5b4 e63c b23f 4c3b
000001d0: 341c 64bd 121f d4bd 5c28 833c b078 a0bd
000001e0: 3b3b c7bc 99a9 43bd 562b cebd e30b 1f3d
000001f0: 0008 b1bc e331 b8ba f2e9 25be c5f5 7dbd
00000200: 3eab 26bd 0e5a 8a3c 38a0 643c 17f0 87bd
00000210: 9e94 ce3c db9d 883c 71df 8ebd de31 80bc
00000220: 12f2 20bd 9681 21bd eb4c 6e3c abbc 51bd
00000230: 6cbd a9bd 0070 6d3c 0585 a83c e801 b8bb
00000240: d684 1bbd 66b9 9dbd 34a2 a7bd b60d 46bd
00000250: 43ad 2e3d ea24 47bd 28a1 6d3c 023f 1a3b
00000260: 7753 9a3c 5e53 75bd 401a b8bd 9dc5 473c
00000270: 696d 203d d472 3f3c 6584 90bc 5372 c2bd
00000280: 6c01 fcba 2c88 8ebd 744b 2dbd 19a2 eb3c
00000290: c3b9 453d c655 cfbc a123 dbbd e53e bc3c
000002a0: 464f 903c 59db be3d c590 1a3d 7a8f c0bd
000002b0: 7447 c9bd f9f9 85bd ff7c 793c 092b d7bd
000002c0: fc62 3cbd 369e 9fbd ac3c c9bc a734 dbbd
000002d0: d8e3 97bd 3eac f3bd a6bf 74bd 7d76 62bd
000002e0: fae2 803b e81d 93bc b3eb 0cbd 7acd f83c
000002f0: 9392 883c c512 0f3d b943 8f3c 959d 01bd
00000300: b495 873d 576d 19bb d8e4 003b fba6 0c3d
00000310: 14ed 53bd 0467 28bd 4120 9dbc da77 9b3c
00000320: 995e 8fbc cf6b a0bc 427f a33c c5ba 6bbc
00000330: c6f8 0b3d e514 9f3c 8cc8 29bd ef62 1ebd
00000340: 41e6 883d fe81 0bbd 7a8c b53c 36fb 023d
00000350: 30cd 073d e453 0abc 88bb c2bd b1d9 1fbd
00000360: 4eb6 153d 691c 89bd ec29 35bd bb67 6cbb
00000370: 4f0b 923c bc20 9b3c 3e44 2cbc 8ee5 fa3c
00000380: 5f21 05bd 3299 b3bd ad4d 7a3b 3bd7 253d
00000390: c17c d9bd badf bcbc 1c0e 053d c356 adbd
000003a0: 8390 41bc 916c ecbb 26a5 87bc 6dc5 15bb
000003b0: 4b3e 7cbd 22c0 f3bd 9299 b23c d23f a2bd
000003c0: b461 0a3d 0b38 cb3b 185b b23c 73bb b5bc
000003d0: edff 703d 8dcc 88bd 8d73 7f3c 1503 7cbd
000003e0: 8a80 a3bd ec13 acbd 5d35 a3bd 6e12 7abb
000003f0: 295b 0e3d 9a46 e9bc 5eda dfbc e744 35bd

network_body._body_endoder.seq_layers.4.weight f4 [256, 256]
-0.0483121 -0.016254352 0.095370635 0.05469411 0.044329513 -0.0820615 -0.00059026 0.011383547
-0.01589392 -0.010322338 0.16674605 -0.007748703 -0.011082924 -0.022176743 -0.06798865 -0.0732205
-0.070867606 0.0062042307 0.08064524 -0.036631543 -0.021144977 -0.10318748 -0.0817174 -0.061289538
0.07420966 -0.17949621 -0.13996577 -0.089070946 0.08977133 0.045458965 -0.038597334 -0.06262208
-0.024883982 -0.008517131 -0.014326825 -0.09397002 0.032721594 -0.0016108347 -0.10197766 -0.096163735
0.07130027 -0.08423474 -0.024463538 0.03621043 0.018229434 0.019686256 0.018577347 -0.1187292
0.08754714 0.05753723 -0.0034087198 0.032126855 0.006167313 0.042834304 0.10291758 -0.18504699
-0.036686487 -0.0575665 -0.037297875 0.043115906 0.022266278 -0.12452135 0.11303957 0.1835187
-0.056357887 -0.021035053 0.018738758 0.096225284 0.16715902 -0.047944456 0.004116181 -0.04228165
0.049060848 -0.037425853 -0.029890256 -0.015840521 0.04793593 -0.104194924 -0.023075785 -0.18013497
0.037750077 -0.08618164 0.1598424 -0.04459412 -0.08858179 0.013671372 -0.122366644 -0.032293227
0.043183398 -0.019469338 0.012327581 -0.112789 0.031306982 0.058622103 0.03248773 0.03087762
-0.053234197 -0.03044744 -0.11193615 0.11043245 -0.052250527 0.035738576 0.061120436 -0.025824985
-0.09476651 0.09150549 0.057505336 -0.048825115 0.03209229 0.07704877 0.017751357 0.1174088
-0.037067577 -0.012698525 -0.010770811 -0.06925039 -0.031548105 0.1331354 0.05775373 -0.0063725444
0.03706752 -0.024136439 0.01291782 -0.03221366 0.0724314 -0.09392307 -0.026388127 0.045205448
0.025452388 0.050481103 -0.037055433 -0.04964349 0.17487484 -0.05262687 -0.097923435 -0.13602398
-0.013383738 0.025926614 -0.017141303 -0.20826942 0.055738058 0.06534445 0.012399881 -0.0015130944
0.14329632 0.014884754 -0.100562185 0.034313146 -0.013459619 -0.15039891 -0.11222309 0.077461734
-0.10465945 -0.0029681039 0.055427235 0.062830865 -0.017462956 0.0330091 -0.00648362 -0.032027226
-0.022251813 0.06331706 0.09283043 0.03196525 -0.05600431 0.02440561 -0.081817165 -0.06764221
-0.14056687 0.02924173 -0.040354487 0.09595617 0.0610334 -0.08543488 -0.03377259 -0.028713005
-0.0846217 0.043583315 0.056146838 0.02830164 -0.05143037 0.01770298 0.04579992 0.041990705
-0.06512448 0.00032972865 -0.15380698 -0.03396214 -0.047193285 -0.033057176 -0.029820284 0.0058785384
-0.09339919 -0.05517349 -0.05363414 -0.062131878 0.12853841 -0.12998214 0.073285215 0.018019956
-0.041289516 -0.022242388 -0.039499078 0.07038524 -0.008366187 0.042114466 -0.025698423 0.05973681
0.09921843 0.12782712 -0.03279699 0.054290015 -0.009085141 -0.0053259055 0.08283304 -0.054416608
-0.04334952 0.011920439 -0.10133808 0.05086152 -0.024671977 0.10091985 -0.093793586 -0.21053042
-0.15324977 -0.0467965 -0.023853073 -0.06434468 0.09143917 -0.069294125 0.02484595 0.046510357
-0.059593406 -0.0041786027 -0.021727124 0.038774036 -0.06972956 -0.074855134 0.04724121 0.06069576
-0.003676206 -0.08094656 -0.049451277 -0.030173572 -0.021969646 -0.014920516 -0.0042352085 0.046476245
0.02163402 0.0044670803 0.016295696 0.05753248 -0.0069813663 0.0708657 -0.052605987 -0.15853447
00000000: e9e2 45bd d927 85bc ae51 c33d ee06 603d
00000010: dd92 353d dc0f a8bd aebb 1aba 0f82 3a3c
00000020: f733 82bc 061f 29bc 7abf 2a3e d5e8 fdbb
00000030: 2795 35bc 00ac b5bc a23d 8bbd a1f4 95bd
00000040: 0923 91bd dc4c cb3b 5529 a53d f50a 16bd
00000050: 3b38 adbc f553 d3bd 745b a7bd bd0a 7bbd
00000060: 3cfb 973d dbcd 37be 3053 0fbe d46a b6bd
00000070: 08da b73d 2e33 3a3d 3d18 1ebd 0140 80bd
00000080: 7ed9 cbbc 708b 0bbc 0fbb 6abc 5b73 c0bd
00000090: 1407 063d a522 d3ba aad9 d0bd 7ef1 c4bd
000000a0: e005 923d 4383 acbd c267 c8bc 6351 143d
000000b0: e555 953c 1245 a13c 852f 983c 4b28 f3bd
000000c0: ea4b b33d 29ac 6b3d d464 5fbb 7397 033d
000000d0: 2c17 ca3b 0673 2f3d 74c6 d23d f57c 3dbe
000000e0: 9244 16bd daca 6bbd a8c5 18bd 4e9a 303d
000000f0: c567 b63c 0d05 ffbd 4a81 e73d 53ec 3b3e
00000100: 87d7 66bd b451 acbc 0682 993c c311 c53d
00000110: bc2b 2b3e 6861 44bd 07e1 863b 862f 2dbd
00000120: 07f4 483d da4b 19bd 69dc f4bc fbc3 81bc
00000130: 7758 443d 2664 d5bd 6e09 bdbc 4d75 38be
00000140: d39f 1a3d 0080 b0bd baad 233e 53a8 36bd
00000150: 5f6a b5bd e4fd 5f3c 5d9b fabd e745 04bd
00000160: 13e1 303d 297e 9fbc 9ff9 493c ebfd e6bd
00000170: c03b 003d bb1d 703d db11 053d 10f3 fc3c
00000180: 1a0c 5abd e96c f9bc c83e e5bd 692a e23d
00000190: a604 56bd 9d62 123d 6c59 7a3d eb8e d3bc
000001a0: f214 c2bd 3b67 bb3d b78a 6b3d d8fc 47bd
000001b0: 3573 033d bfcb 9d3d 4b6b 913c 0674 f03d
000001c0: 2cd4 17bd 790d 50bc 0e78 30bc 26d3 8dbd
000001d0: 9638 01bd a554 083e 2d8f 6c3d c7d0 d0bb
000001e0: 1dd4 173d c8b9 c5bc 44a5 533c 79f2 03bd
000001f0: ea56 943d bd5a c0bd ea2b d8bc 5929 393d
00000200: 8781 d03c 46c5 4e3d 70c7 17bd f956 4bbd
00000210: 6412 333e 468f 57bd 158c c8bd df49 0bbe
00000220: 7747 5bbc 0d64 d43c eb6b 8cbc 9444 55be
00000230: 974d 643d 50d3 853d df28 4b3c 0653 c6ba
00000240: 45bc 123e 2fdf 733c 8cf3 cdbd f18b 0c3d
00000250: bc85 5cbc 2c02 1abe 38d5 e5bd 42a4 9e3d
00000260: b257 d6bd 8584 42bb ab07 633d 78ad 803d
00000270: 790e 8fbc 8d34 073d 8c74 d4bb fb2e 03bd
00000280: 6f49 b6bc 60ac 813d e11d be3d feed 023d
00000290: c664 65bd 46ee c73c c28f a7bd 0088 8abd
000002a0: c3f0 0fbe 5a8c ef3c bf4a 25bd ab84 c43d
000002b0: 29fe 793d 7bf8 aebd 2155 0abd 8937 ebbc
000002c0: 244e adbd 6b84 323d 3afa 653d d7d8 e73c
000002d0: a7a8 52bd d705 913c b298 3b3d 72fe 2b3d
000002e0: fc5f 85bd 6edf ac39 947f 1dbe e31b 0bbd
000002f0: bf4d 41bd f666 07bd ab49 f4bc c1a0 c03b
00000300: 1348 bfbd 99fd 61bd 79af 5bbd ff7d 7ebd
00000310: 939f 033e 0a1a 05be 8f16 963d 969e 933c
00000320: 321f 29bd ab35 b6bc c9c9 21bd 2326 903d
00000330: 5512 09bc 3880 2c3d 8085 d2bc 96ae 743d
00000340: 0833 cb3d 1de5 023e 2356 06bd 355f 5e3d
00000350: d8d9 14bc ef84 aebb 5ea4 a93d f3e3 5ebd
00000360: 448f 31bd f24d 433c 578a cfbd 2b54 503d
00000370: e31c cabc 11af ce3d da16 c0bd 4995 57be
00000380: 82ed 1cbe b0ad 3fbd 8567 c3bc 25c7 83bd
00000390: 7644 bb3d 14ea 8dbd bc89 cb3c a581 3e3d
000003a0: 3718 74bd a9ec 88bb 15fd b1bc 86d1 1e3d
000003b0: 5fce 8ebd a64d 99bd 0080 413d 1e9c 783d
000003c0: 81ec 70bb 4fc7 a5bd 6c8d 4abd 912e f7bc
000003d0: b0f9 b3bc 2e75 74bc 81c7 8abb e05d 3e3d
000003e0: d439 b13c 9660 923b 8d7e 853c 2ea7 6b3d
000003f0: f2c3 e4bb 0922 913d 6079 57bd dc56 22be

network_body._body_endoder.seq_layers.4.bias f4 [256]
-0.02000549 0.001318086 0.0045919805 -0.0066560716 0.008720922 0.008938826 0.02362213 -0.0030974327
0.011458527 0.0113666365 0.0016191972 0.025156697 -0.022615265 -0.05681179 -0.009924986 -0.012006038
0.0064359293 0.027980162 -0.018068878 -2.7732107e-05 0.0017808226 -0.0013328022 -0.026554713 -0.0054592686
-0.010535704 -0.019897457 -0.005815963 -0.025879638 0.005758314 -0.028957104 0.0008346901 -0.15620622
0.006398813 -0.012910248 -0.021129157 -0.0018748895 0.02569955 -0.05250838 0.0009396113 0.0039880844
-0.025422407 -0.017551493 0.009400839 -0.019655788 -0.023418386 -0.0064279633 -0.010504335 -0.016779844
0.025331179 0.0011823176 -0.019323207 0.0070855743 -0.006810505 0.01285252 -0.004059208 -0.027518004
-0.024533683 -0.0144975 -0.0060809245 -0.016984519 0.00071018445 -0.029646441 -0.016142895 -0.015013216
-0.044308584 -0.00013316773 -0.020949021 -0.0070150793 -0.013974465 -0.0110110985 -0.020326305 -0.006489821
-0.02254394 0.012262401 0.018556649 -0.08337092 -0.033316955 -0.0023747475 0.0054276553 0.027798822
-0.015404647 0.00023017633 -0.013812837 -0.0060547693 -0.03832237 0.011747702 -0.025806505 -0.029607786
-0.006062304 -0.04059545 -0.02386718 0.0015749277 0.0060121967 -0.007220402 -0.016252542 -0.009486749
-0.003094749 -0.03046883 0.0024124538 -0.01567199 0.013365022 -0.013422777 -0.01071375 0.009108426
-0.0060119703 -0.0024877694 -0.0033309727 -0.047413748 -0.008087879 -0.0024422356 -0.022517966 0.016300565
-0.014903753 -0.020505873 -0.01012528 -0.010547415 0.021255556 0.013545875 -0.011487693 -0.006332265
0.0031164568 0.03038378 -0.04434261 0.010127381 -0.008089151 0.0014990908 0.021125412 0.0073803416
-0.022029623 -0.016398616 0.0071331454 0.007267036 -0.025408879 -0.007873134 0.011128601 -0.03530396
0.0040208385 -0.0035453318 -0.008626648 0.019660877 -0.012174719 -0.027789904 -0.03191287 -0.007046277
-0.12181876 -0.027878566 -0.0063710907 -0.004077107 -0.028572213 0.01646525 -0.005322284 -0.006203785
0.019239718 -0.017378954 0.018787144 0.002133651 -0.029173372 -0.005845339 0.0036216485 -0.013043829
-0.039371803 -0.027376628 -0.01664303 -0.009154619 -0.01997802 -0.02879237 -0.014822844 -0.017630892
-0.0023704849 -0.00097084924 -0.029149659 -0.025764043 0.0011466617 0.021105587 -0.009367358 0.01518188
0.009948243 -0.009453158 -0.023322068 -0.00874792 -0.020090532 -0.01473562 0.0197926 -0.007881034
-0.0056249527 -0.008352742 -0.012365333 -0.010667882 -0.02586044 0.0026899925 -0.029728059 -0.008809125
-0.016174443 -0.0071492614 -0.0006613235 -0.031742357 -0.03869911 0.0013559823 0.022237176 -0.009616822
0.0069787516 -0.01415231 -0.008633842 -0.01212277 -0.009340919 -0.0016643069 0.0024160275 -0.004320089
-0.005070537 0.0004911548 0.018310523 -0.04635692 -0.020702982 -0.03902171 0.03100606 -0.0313801
-0.0056454465 -0.00403704 -0.03307361 -0.0331427 -0.05146714 -0.0061040837 -0.0075882724 -0.00753392
-0.039859466 0.010152661 -0.0034186626 -0.028991543 -0.007530078 -0.00839359 -0.00037681533 0.0061318735
-0.015602585 0.0015301912 -0.0027116959 -0.02429818 -0.03024655 -0.00905341 -0.053320702 -0.01460737
-0.023418408 -0.013864381 -0.0075922133 -0.027628483 0.01320969 -0.02174589 0.0005575713 -0.025543734
-0.014427029 0.011754741 -0.014004868 0.016746346 -0.016882055 0.0007954581 0.010806858 -0.021252496
00000000: 8ee2 a3bc a1c3 ac3a 5378 963b 2d1b dabb
00000010: 33e2 0e3c 2774 123c 3283 c13c 4cfe 4abb
00000020: 8cbc 3b3c 213b 3a3c 3e3b d43a 6b15 ce3c
00000030: a643 b9bc 7bb3 68bd 699c 22bc f9b4 44bc
00000040: 7de4 d23b a736 e53c 2f05 94bc 3fa2 e8b7
00000050: 7e6a e93a 6cb1 aeba 4589 d9bc aae3 b2bb
00000060: f29d 2cbc feff a2bc d593 bebb 8901 d4bc
00000070: 3db0 bc3b 7337 edbc 1bcf 5a3a 86f4 1fbe
00000080: 22ad d13b 8185 53bc 0e17 adbc dabe f5ba
00000090: dd87 d23c 0713 57bd 3f50 763a 7aae 823b
000000a0: a742 d0bc 26c8 8fbc fa05 1a3c 2d05 a1bc
000000b0: ead7 bfbc aaa1 d2bb 601a 2cbc e275 89bc
000000c0: 5583 cf3c fff7 9a3a b44b 9ebc 1b2e e83b
000000d0: a82a dfbb 6093 523c 1b03 85bb 706d e1bc
000000e0: ddfa c8bc ec86 6dbc 7e42 c7bb 1e23 8bbc
000000f0: ac2b 3a3a 18dd f2bc 1b3e 84bc fef9 75bc
00000100: eb7c 35bd f1a2 0bb9 489d abbc c0de e5bb
00000110: 28f5 64bc e567 34bc 5a83 a6bc 90a8 d4bb
00000120: 12ae b8bc 3de8 483c 1d04 983c 5fbe aabd
00000130: 5c77 08bd a7a1 1bbb 79da b13b 5bba e33c
00000140: c663 7cbc 7d5b 7139 3d4f 62bc 1667 c6bb
00000150: ebf7 1cbd 6f79 403c 2a68 d3bc 078c f2bc
00000160: 4ba6 c6bb 6a47 26bd 1b85 c3bc ce6d ce3a
00000170: f601 c53b 1f99 ecbb 0d24 85bc 4f6e 1bbc
00000180: 46d1 4abb c599 f9bc 421a 1e3b 8c62 80bc
00000190: f7f8 5a3c 35eb 5bbc b988 2fbc 823b 153c
000001a0: 1000 c5bb d809 23bb 734c 5abb eb34 42bd
000001b0: 0683 04bc ea0d 20bb 9977 b8bc c388 853c
000001c0: df2e 74bc effb a7bc 81e4 25bc 11cf 2cbc
000001d0: 2220 ae3c 85ef 5d3c e036 3cbc e47e cfbb
000001e0: 783d 4c3b 68e7 f83c 99a0 35bd 51ed 253c
000001f0: 5c88 04bc 247d c43a 330f ad3c cbd6 f13b
00000200: 7877 b4bc 6456 86bc 29bd e93b 5120 ee3b
00000210: 4826 d0bc 51fe 00bc bc54 363c e39a 10bd
00000220: 3dc1 833b cc58 68bb c956 0dbc d90f a13c
00000230: 7978 47bc a7a7 e3bc 12b7 02bd 75e4 e6bb
00000240: 1d7c f9bd 9761 e4bc 95c4 d0bb 4199 85bb
00000250: 4610 eabc 22e2 863c 8e66 aebb 1f49 cbbb
00000260: 9d9c 9d3c 4f5e 8ebc 7fe7 993c b9d4 0b3b
00000270: fffc eebc 428a bfbb 2e59 6d3b c9b5 55bc
00000280: 5444 21bd f344 e0bc f756 88bc 41fd 15bc
00000290: f2a8 a3bc fadd ebbc 84db 72bc a96e 90bc
000002a0: 235a 1bbb 9780 7eba 44cb eebc 1d0f d3bc
000002b0: 954b 963a a0e5 ac3c 8c79 19bc 6cbd 783c
000002c0: f5fd 223c 6be1 1abc ec0d bfbc 7053 0fbc
000002d0: e694 a4bc ab6d 71bc 1724 a23c 741f 01bc
000002e0: 8651 b8bb f0d9 08bc f797 4abc 57c8 2ebc
000002f0: 46d9 d3bc 964a 303b 4288 f3bc 2654 10bc
00000300: 4480 84bc 5a44 eabb ab5c 2dba 4604 02bd
00000310: f582 1ebd 37bb b13a bd2a b63c e08f 1dbc
00000320: 03ae e43b 17df 67bc f574 0dbc 959e 46bc
00000330: a70a 19bc df24 daba 3756 1e3b 888f 8dbb
00000340: bf26 a6bb d7c0 003a f3ff 953c c1e0 3dbd
00000350: 4d99 a9bc 3bd5 1fbd 6c00 fe3c 6b88 00bd
00000360: 70fd b8bb 2549 84bb 3278 07bd a4c0 07bd
00000370: 35cf 52bd c404 c8bb 0ba7 f8bb 1adf f6bb
00000380: ae43 23bd 5957 263c a40b 60bb ac7f edbc
00000390: dfbe f6bb 4585 09bc 4c8f c5b9 e2ed c83b
000003a0: fca1 7fbc b290 c83a b5b6 31bb fa0c c7bc
000003b0: 9dc7 f7bc c154 14bc cf66 5abd c053 6fbc
000003c0: f6d7 bfbc 6e27 63bc 1ac8 f8bb 2155 e2bc
000003d0: 756d 583c 7024 b2bc fa29 123a 1841 d1bc
000003e0: 585f 6cbc f596 403c ad74 65bc a22f 893c
000003f0: 3c4c 8abc 4a86 503a 3f0f 313c b719 aebc

network_body._body_endoder.seq_layers.6.weight f4 [256, 256]
-0.045158982 -0.08330734 0.089134015 -0.0017167031 -0.0043419953 -0.055194117 0.042287346 0.09490277
0.040470738 -0.11748517 -0.0013123043 0.0071692257 -0.019514093 -0.10562071 0.0033157773 0.033594526
-0.0335196 -0.0059895418 -0.045796636 -0.027320454 -0.03245522 0.15786631 -0.11757214 -0.04364576
0.030702347 -0.05669139 0.032234356 -0.069772765 -0.05930895 -0.019398881 -0.061399724 -0.0032070798
-0.07283555 0.049990352 -0.047104456 -0.04842693 0.02056998 0.053127564 -0.00371086 -0.020230519
-0.025100436 0.0149722975 -0.04775136 -0.07615262 -0.016302543 -0.012844651 -0.017218646 -0.035737466
0.051378876 0.18389106 0.017852828 -0.06978358 0.038969405 0.0097421035 0.09201864 0.010666876
0.033899248 -0.08972928 -0.03838851 0.046955343 -0.02239162 -0.054985974 0.005485207 -0.08044567
-0.095299505 -0.06569726 0.043781232 0.01003388 0.0007160213 0.16390732 0.12293639 -0.012454816
-0.049581587 -0.03177493 0.011943927 0.032536518 0.0026701929 0.00034057556 -0.02582745 0.095552735
-0.05429837 -0.024432408 0.13237882 -0.10142638 0.032521915 -0.04349798 0.077650666 -0.011451748
-0.013093846 -0.0071365703 -0.007651271 0.021148633 -0.112780415 0.031373892 -0.10649681 0.02660379
0.034207635 -0.035392266 0.107848726 0.05439912 -0.07761482 -0.020138932 0.029049752 -0.09008922
-0.014268534 -0.08973821 -0.035469946 -0.03463813 -0.010424656 0.07483714 -0.019258669 0.01357022
-0.05045663 -0.035786945 -0.07163383 0.026945218 -0.06876605 -0.121808454 -0.094413936 0.0041949823
0.00525229 -0.0004524765 -0.009713421 -0.033221494 -0.16765083 -0.004857597 -0.042252406 -0.10202402
0.09783678 0.0062130145 0.0017315681 0.09880102 0.017232358 -0.015750399 -0.07446644 -0.12985088
-0.071908176 -0.03966856 0.03044191 0.00021665603 -0.026845053 -0.06217574 0.060598813 0.0031596767
-0.034828547 -0.018810386 0.06517115 -0.12076103 0.017106825 0.0044144397 -0.015380809 0.122922875
-0.07795463 -0.046335604 0.058458615 0.042642232 -0.0069014323 0.059068374 0.026098391 0.13665928
0.05042942 -0.019460255 -0.049529538 -0.070315406 0.013832856 -0.04002634 0.06783792 -0.0650254
-0.08062177 -0.08587769 -0.062160622 0.048718046 -0.09126378 0.07593605 0.038782526 -0.012778456
-0.049387295 -0.043177366 -0.01789693 0.011855049 -0.09323215 0.09083895 0.10250142 -0.07698655
-0.03150814 -0.069212236 -0.027325932 0.04271039 0.08933926 -0.04814464 -0.13481674 -0.036239147
0.007920693 0.055185895 -0.078642294 -0.047620356 -0.09067509 -0.018912256 -0.039676793 -0.03452249
0.017137872 0.025434213 -0.049965955 -0.07596677 0.049500525 -0.044790044 -0.040884018 -0.0048254
-0.04717959 -0.027289407 0.028352272 0.13012525 0.06713714 0.017204413 -0.03348158 -0.031540543
0.05657908 -0.12363412 0.042766854 -0.05670405 -0.07020582 -0.08560997 -0.0674044 -0.07043167
-0.010888453 -0.09758731 -0.022370754 0.013857389 -0.039075043 -0.033687793 -0.10959014 0.032546733
-0.03438787 -0.06018815 0.030553404 0.063964024 -0.1284815 0.04717624 -0.049454145 -0.12556668
-0.0057896245 0.009173406 -0.14078982 -0.006226413 -0.08509547 0.09168759 -0.05578323 0.08357299
-0.12318023 -0.017876592 0.027173521 -0.13928871 -0.048863478 0.016203936 0.012429356 0.027157672
00000000: a0f8 38bd 0a9d aabd e58b b63d ff02 e1ba
00000010: 4c47 8ebb 3a13 62bd 7f35 2d3d 625c c23d
00000020: a5c4 253d 119c f0bd a001 acba d3eb ea3b
00000030: 05dc 9fbc ac4f d8bd 834d 593b 6a9a 093d
00000040: d94b 09bd eb43 c4bb 4195 3bbd 25cf dfbc
00000050: c4ef 04bd b5a7 213e aac9 f0bd e5c5 32bd
00000060: 7d83 fb3c 3b35 68bd 2c08 043d 06e5 8ebd
00000070: f1ed 72bd 67ea 9ebc 477e 7bbd df2d 52bb
00000080: ce2a 95bd afc2 4c3d 9af0 40bd 515b 46bd
00000090: 6082 a83c 4a9c 593d e631 73bb 79ba a5bc
000000a0: 6e9f cdbc 5e4e 753c ee96 43bd e8f5 9bbd
000000b0: e98c 85bc 5f72 52bc 1e0e 8dbc 7361 12bd
000000c0: a872 523d f04d 3c3e 1840 923c b2ea 8ebd
000000d0: 629e 1f3d 589d 1f3c 4574 bc3d 1fc4 2e3c
000000e0: f0d9 0a3d fcc3 b7bd 453d 1dbd 3f54 403d
000000f0: a16e b7bc f938 61bd 40bd b33b b3c0 a4bd
00000100: 632c c3bd 498c 86bd f353 333d 2565 243c
00000110: 60b3 3b3a 52d7 273e 13c6 fb3d 490f 4cbc
00000120: 1016 4bbd 6e26 02bd 76b0 433c 0345 053d
00000130: 67fe 2e3b 478f b239 1794 d3bc 27b1 c33d
00000140: f867 5ebd 7926 c8bc 508e 073e a2b8 cfbd
00000150: b335 053d f02a 32bd 5007 9f3d 1da0 3bbc
00000160: 9287 56bc e4d9 e9bb 83b7 fabb e63f ad3c
00000170: 6bf9 e6bd e981 003d 001b dabd 31f0 d93c
00000180: 4e1d 0c3d 7bf7 10bd cbdf dc3d 9dd1 5e3d
00000190: 85f4 9ebd 67fa a4bc bff9 ed3c b280 b8bd
000001a0: 92c6 69bc abc8 b7bd ef48 11bd b6e0 0dbd
000001b0: 2dcc 2abc 3744 993d 5bc4 9dbc a155 5e3c
000001c0: 9cab 4ebd 5595 12bd c2b4 92bd 38bc dc3c
000001d0: 37d5 8cbd b676 f9bd 185c c1bd 1076 893b
000001e0: 671b ac3b 5e3a edb9 0a25 1fbc 4313 08bd
000001f0: a9ac 2bbe 7a2c 9fbb dc10 2dbd f8f1 d0bd
00000200: a65e c83d 8b96 cb3b c9f5 e23a 3058 ca3d
00000210: e02a 8d3c fb06 81bc dc81 98bd a1f7 04be
00000220: 9844 93bd 807b 22bd 5061 f93c 292e 6339
00000230: 28ea dbbc fdab 7ebd 7636 783d 9412 4f3b
00000240: 61a8 0ebd 3d18 9abc 7478 853d 8f51 f7bd
00000250: 9d23 8c3c 01a7 903b caff 7bbc fdbe fb3d
00000260: ada6 9fbd 67ca 3dbd 4d72 6f3d 9fa9 2e3d
00000270: 6925 e2bb aef1 713d 4bcc d53c 69f0 0b3e
00000280: 148f 4e3d 1d6b 9fbc 7cdf 4abd 8601 90bd
00000290: 34a3 623c a9f2 23bd 9bee 8a3d 092c 85bd
000002a0: 071d a5bd a4e0 afbd 239c 7ebd 938c 473d
000002b0: 81e8 babd 5c84 9b3d 6dda 1e3d bb5c 51bc
000002c0: 554a 4abd c0da 30bd 959c 92bc ae3b 423c
000002d0: 7ff0 bebd c509 ba3d 44ec d13d 20ab 9dbd
000002e0: ae0e 01bd 25bf 8dbd a2da dfbc 17f1 2e3d
000002f0: 80f7 b63d 5033 45bd 660d 0abe 806f 14bd
00000300: cbc5 013c 9b0a 623d 360f a1bd 900d 43bd
00000310: ddb3 b9bd e0ed 9abc 2284 22bd 7467 0dbd
00000320: b964 8c3c 695b d03c 1aa9 4cbd 7794 9bbd
00000330: 10c1 4a3d c475 37bd 0076 27bd 641e 9ebb
00000340: 633f 41bd 098e dfbc 0643 e83c 8e3f 053e
00000350: 327f 893d 45f0 8c3c fb23 09bd a830 01bd
00000360: 77bf 673d e333 fdbd 4c2c 2f3d 8242 68bd
00000370: 12c8 8fbd 4854 afbd 510b 8abd 7b3e 90bd
00000380: 7b65 32bc dbdb c7bd df42 b7bc 1a0a 633c
00000390: 270d 20bd 36fc 09bd cc70 e0bd b94f 053d
000003a0: 4cda 0cbd d987 76bd 224b fa3c 92ff 823d
000003b0: a890 03be df3b 413d 6e90 4abd 8d94 00be
000003c0: e4b6 bdbb 0e4c 163c 352b 10be f006 ccbb
000003d0: 8946 aebd b4c6 bb3d f57c 64bd 5128 ab3d
000003e0: eb45 fcbd ee71 92bc 019b de3c b3a1 0ebe
000003f0: 1225 48bd 1ebe 843c 7fa4 4b3c c479 de3c
