Assets/ML_PPO/results/2nd_go_29/BoatAgent.onnx (onnx, 834984 bytes, 13 tensors)

discrete_action_output_shape f4 [1, 2]
000000 00 00 40 40 00 00 40 40
       3.0 3.0

network_body._body_endoder.seq_layers.0.weight f4 [256, 34]
000000 eb 1b 80 be 57 0b 56 3e 22 4b 19 bd 0c 82 9d 3e
       -0.250213 0.20902763 -0.037425168 0.3076328
000010 e9 29 41 be 03 a3 b0 be fe 84 3d be f3 3d ca 3c
       -0.18863644 -0.34499368 -0.18507764 0.024687743
000020 d1 88 0a be 29 19 1d bd 1e 53 02 3e 38 10 81 3c
       -0.13528754 -0.038354073 0.12727019 0.015754804
000030 7c 4b b0 bd d4 af 92 3e c5 92 f0 3e ea f6 3f 3e
       -0.086081475 0.2864977 0.46986976 0.18746534
000040 e1 72 2f be 00 7f 67 3d 6a 82 05 be 2d 7f 3c bd
       -0.17133667 0.0565176 -0.1303803 -0.04601972
000050 0f c1 12 bd e4 24 18 3e f3 72 31 be 39 77 4a 3e
       -0.035828646 0.14857823 -0.17329006 0.19772042
000060 49 4c c3 3d 02 7d ee 3d 2d 5f c3 bd 49 30 e3 bc
       0.095360346 0.11644937 -0.09539638 -0.027732985
000070 07 8b ac 3e 01 d6 98 3e f4 c0 11 bd 25 7b 30 3d
       0.3369982 0.29850772 -0.035584405 0.04308619
000080 b0 c4 40 be 86 6b 4a 3d 96 0b d5 3d a2 1e 07 3e
       -0.1882503 0.04941895 0.104026005 0.13195279
000090 ea 5e ed 3c ab c6 6e 3d 47 2f 35 be 3b 14 cb bd
       0.028975923 0.058294933 -0.17693816 -0.09915968
0000a0 81 67 7c 3e 70 77 30 be d9 59 0e be c2 58 25 3e
       0.24648859 -0.17233062 -0.13901462 0.1614714
0000b0 5f 0f 1b bc f3 33 c0 3c 6d 5d 7f 3c dc 4a 74 3d
       -0.009464114 0.023462271 0.015586239 0.059641704
0000c0 13 25 eb bd d2 cf df 3d 14 49 7d be 16 53 6d 3e
       -0.11481681 0.109283105 -0.24734908 0.23176226
0000d0 3f 8f 18 3d 9f 59 40 3e 38 d8 6a 3d 0f 2f 69 3d
       0.037245985 0.18784188 0.05733511 0.056929644
0000e0 40 5a 5d 3e d2 a2 df bd 89 ae a1 3e f4 c5 a1 3c
       0.21616459 -0.109197274 0.31578472 0.019747712
0000f0 a6 ec 44 be 0b 81 7b 3c b1 f4 2e be 46 23 0d bd
       -0.19230899 0.01535059 -0.1708553 -0.034457467
000100 40 ed b3 bc 00 72 2e 3d e1 7e 0f 3d c3 d6 09 be
       -0.021963716 0.042589188 0.03503311 -0.13460831
000110 7e 21 36 be 6f 45 2a 3c 73 2f 5c 3d 1e ad 94 bb
       -0.17786214 0.010392531 0.05375619 -0.0045372387
000120 c5 ea 73 3d 80 02 99 3b 2d b0 77 bd 2d 87 c4 bd
       0.059550066 0.0046694875 -0.06047075 -0.09596095
000130 96 01 f2 bc f8 33 c9 3d 8e 16 88 3e 02 2d 10 be
       -0.029541772 0.098243654 0.26579708 -0.14079669
000140 2b 3c c9 3d 45 3c 42 3e 4c 04 a3 3e b0 3f 01 be
       0.09825929 0.18968304 0.31839216 -0.12621951
000150 a9 c1 16 be 64 cb 0a 3b d7 44 46 be fc 7f 5e be
       -0.14722313 0.002117836 -0.19362198 -0.2172851
000160 17 a5 42 3e a3 00 b4 bd 84 3e 83 bc 22 9f 2b be
       0.1900829 -0.08789184 -0.01602102 -0.16759923
000170 7a eb 4d 3d 9d 3e a3 3c 0a fb 0d 3e 1b 04 40 3d
       0.050273396 0.019927317 0.13865295 0.046878915
000180 8a a9 7a ba 71 24 08 bd d6 63 41 be 34 2a 60 bd
       -0.00095620065 -0.03323788 -0.1888574 -0.054727748
000190 e8 48 24 be 5f 8d 0f bd 83 c5 b0 bb d0 16 e3 3d
       -0.16043437 -0.03504693 -0.005394639 0.110883355
0001a0 07 4d 17 be 9f 6b d7 3d 00 b0 4e 3d a6 bb 16 3d
       -0.14775477 0.10518574 0.050460815 0.03680005
0001b0 8c 47 c2 be a1 1e 55 3e 65 92 7b 3e 76 29 f8 bd
       -0.3794521 0.20812465 0.24567564 -0.12117283
0001c0 f6 24 08 3e bf 60 96 be 7e 51 f3 3d f8 3a e4 3d
       0.1329535 -0.29370686 0.11880778 0.1114406
0001d0 38 e1 85 be 19 19 8a 3d 2f b9 0b be 6d 62 81 3d
       -0.2614839 0.06743068 -0.1364486 0.06317601
0001e0 55 30 c8 3d cc 17 dd 3c 74 34 08 3e bf e0 aa 3c
       0.097748436 0.026988886 0.1330126 0.02085912
0001f0 47 85 1b bd 02 d2 9f bc 6e 2b 83 bd 20 10 ec 3e
       -0.0379689 -0.01950932 -0.06404768 0.46106052
000200 a4 d7 84 3d f5 c7 e1 bd 2f 3b ae bd 1e ec 38 be
       0.06486443 -0.11024467 -0.08507382 -0.18058822
000210 1f 97 51 3e fb a9 be be 8d 94 5e 3d e0 29 68 be
       0.20467804 -0.3723906 0.054340888 -0.22672224
000220 9a 89 30 bc f0 f8 4e be 39 d2 6a 3e b8 3d 92 bb
       -0.010774994 -0.2021215 0.22931756 -0.004462924
000230 d1 9e 44 be 19 09 df 3d 09 a3 55 be 1f f6 70 3d
       -0.19201209 0.10890407 -0.20862974 0.05882847
000240 e1 95 e4 3d 2e da a7 bd 18 16 06 3e d6 80 ab bd
       0.111614 -0.08195911 0.13094366 -0.08374183
000250 7e 8b 6a bd 48 0d 3c 3e 26 90 f3 3c 1d 6b 16 bd
       -0.057261936 0.18364441 0.029731821 -0.036723245
000260 92 0f c7 3d 36 29 99 3e 3e f7 2c be 04 62 27 3e
       0.09719767 0.29914254 -0.1689119 0.16345984
000270 28 2b ea 3e 65 ff 48 be 43 0a ae be 32 65 31 bb
       0.4573605 -0.19628675 -0.33992204 -0.0027068374
000280 ac 07 8c 3d 21 0a 32 3e 93 d7 05 3f 80 34 d1 bd
       0.06837401 0.17386676 0.52282065 -0.10215092
000290 69 b9 06 be c8 58 1c be 7a 21 4b 3e 05 2f 21 3e
       -0.13156666 -0.15268242 0.19836989 0.15740593
0002a0 e1 4e 57 be 0a d4 67 be ac b4 c8 3d 54 7a 00 3d
       -0.21026184 -0.2263948 0.098000854 0.03136666
0002b0 3b 0e e5 bd 56 64 14 3e a0 35 27 3e d4 5c c3 3d
       -0.11184355 0.144914 0.1632905 0.0953919
0002c0 39 88 ec ba 33 59 e8 bd 56 2d 59 3d c1 bf 16 bd
       -0.0018045969 -0.113451384 0.05302175 -0.036803965
0002d0 10 7c 48 bd 47 9e 96 bd 4b d1 24 bc 08 62 b4 bd
       -0.04894644 -0.07354408 -0.010059665 -0.088077605
0002e0 67 9f 14 3e bf a0 91 3d 9b b1 15 3e eb 16 63 be
       0.14513932 0.07110738 0.14618532 -0.22176711
0002f0 ab d7 31 bd 0a a4 29 bc 39 6b a8 be 32 c0 1b 3e
       -0.043418568 -0.010354051 -0.32894304 0.15210035
000300 d0 c6 1b 3d 23 2b 91 3e c0 94 f4 3a 2a 84 90 be
       0.0380314 0.28353223 0.0018660054 -0.28225833
000310 08 9e e1 bd e5 f7 96 be e4 dc 1e be d5 3b 16 3e
       -0.1101647 -0.29486004 -0.1551395 0.14671262
000320 38 18 c9 3c ce 4b 1e 3e e6 00 e4 3e 1b 0d 3d 3e
       0.024547681 0.15458605 0.44531935 0.1846203
000330 62 6a e6 be 97 26 49 be d1 35 88 3e 90 94 b7 be
       -0.4500304 -0.19643627 0.2660356 -0.35855532
000340 c5 db 60 bd 0a 5f 83 3e 7c cd 72 3d 22 25 66 bd
       -0.05489709 0.25658447 0.059277996 -0.056187756
000350 cc d4 89 be db c2 29 be be a3 97 bc 54 0c 54 bd
       -0.26920164 -0.16578238 -0.018510696 -0.05176957
000360 0e c1 4f bd cb 3e 96 3d f0 fe 34 3b 28 30 a1 bd
       -0.05072122 0.073361956 0.0027617775 -0.07870513
000370 4e b6 0b be cb d6 b1 bd 75 01 6c be c1 0f 35 3d
       -0.13643762 -0.08683547 -0.23047431 0.044204477
000380 e5 cf 7e 3e a2 1c 95 3e 74 2c 2a be b6 6a 1c 3c
       0.24883993 0.29123408 -0.1661852 0.009546926
000390 33 af e4 3d 5b 48 ed bb 9e e3 47 3e b5 ab ec 3d
       0.11166229 -0.0072412915 0.19520423 0.11556188
0003a0 43 a9 e1 bd 8c 56 3d 3d 68 08 6f be 09 e0 ea 3c
       -0.11018612 0.046225116 -0.2334305 0.028671281
0003b0 6c da 03 3e c5 1f 0c be f2 a3 28 3e 48 6e 83 3d
       0.1287629 -0.13683994 0.1646879 0.06417519
0003c0 b7 cd 42 3e 17 de d1 bd bb c1 a7 3c 7a cb b8 3e
       0.19023786 -0.102474384 0.02047812 0.3609274
0003d0 62 71 a3 3d 96 62 e8 bd af b1 b1 3e 7e cc 0e be
       0.079806104 -0.11346929 0.34705874 -0.13945195
0003e0 71 22 19 3d d4 3c 85 be e0 f7 0d 3e 73 57 09 bd
       0.03738636 -0.2602297 0.13864088 -0.033530664
0003f0 bf 4a 83 be 65 03 f8 3d cf d1 2b bd a3 46 18 3d
       -0.25642964 0.121100225 -0.041948136 0.03717674

network_body._body_endoder.seq_layers.0.bias f4 [256]
000000 d6 e3 cc 3a f6 ef e4 3a 98 3f 50 38 fe 97 eb ba
       0.0015631865 0.0017466533 4.965029e-05 -0.0017974374
000010 00 00 00 00 3c 6c eb ba 47 0c e6 ba 00 00 00 00
       0.0 -0.0017961334 -0.0017551266 0.0
000020 c3 0a eb 3a d4 45 e5 3a 16 8f e3 3a 8f 33 e8 3a
       0.0017932284 0.0017492124 0.0017361369 0.0017715561
000030 d8 b9 5d 39 c0 d8 27 a4 49 9f eb ba 9a 75 eb ba
       0.00021145435 -3.6395947e-17 -0.0017976548 -0.0017964125
000040 00 00 00 00 25 22 3d af 00 00 00 00 00 00 00 00
       0.0 -1.720158e-10 0.0 0.0
000050 14 5d e9 ba 62 4e eb ba 0a ab 90 9e 00 00 00 00
       -0.0017804229 -0.0017952437 -1.5317333e-20 0.0
000060 0f 9b c3 3a e3 67 eb ba a1 ea 07 a9 00 00 00 00
       0.001492353 -0.0017960038 -3.017953e-14 0.0
000070 d1 f4 01 9f 60 6b eb ba fc a3 eb 3a b0 38 d4 ba
       -2.751932e-20 -0.0017961077 0.0017977948 -0.0016191211
000080 62 0a 01 99 9a 61 eb 3a 00 00 00 00 00 00 00 00
       -6.6712405e-24 0.0017958165 0.0 0.0
000090 c8 a1 e4 ba a3 e3 df ba 4c 6c c8 3a 00 00 00 00
       -0.0017443234 -0.0017081391 0.0015291064 0.0
0000a0 00 00 00 00 f7 eb 4f 97 60 00 d7 ba e3 94 df ba
       0.0 -6.7183137e-25 -0.001640331 -0.0017057922
0000b0 65 01 4a 15 92 6b eb 3a 9b d1 11 82 43 1b eb ba
       4.0794675e-26 0.0017961136 -1.0713071e-37 -0.0017937202
0000c0 00 00 00 00 9e e4 ea ba f3 cc eb 3a 00 00 00 00
       0.0 -0.0017920916 0.0017990157 0.0
0000d0 00 00 00 00 6a 44 83 21 90 9a e3 81 1e 6d eb ba
       0.0 8.895014e-19 -8.3608417e-38 -0.0017961597
0000e0 91 ee 41 9a d8 2a d3 ba 3f 62 e9 ba 00 00 00 00
       -4.0104177e-23 -0.0016110791 -0.0017805769 0.0
0000f0 ef a7 d9 ba 9d 00 eb ba 9a 4a d9 39 5c c1 e9 ba
       -0.0016605834 -0.001792926 0.00041445048 -0.0017834115
000100 f0 51 eb ba 96 5c f5 3a 00 00 00 00 11 1f e9 ba
       -0.0017953496 0.0018719609 0.0 -0.0017785748
000110 0d 4f e9 ba 83 67 eb 3a 1b 18 eb 3a 00 00 00 00
       -0.0017800048 0.0017959926 0.0017936261 0.0
000120 00 00 00 00 94 21 eb ba 7a 64 eb 3a 45 74 e9 ba
       0.0 -0.0017939084 0.0017959021 -0.001781114
000130 cc 15 eb ba 00 00 00 00 76 a1 df a4 00 00 00 00
       -0.0017935573 0.0 -9.698436e-17 0.0
000140 70 b2 eb 3a 15 f4 ea ba ac 9b eb ba 00 00 00 00
       0.0017982256 -0.0017925525 -0.0017975471 0.0
000150 b3 ea a1 90 77 48 eb ba 5c 22 eb 3a a8 38 ff 08
       -6.3864914e-29 -0.0017950673 0.0017939317 1.5360574e-33
000160 46 d0 7c 33 5b 04 ea 3a 93 ab bc ba 6b 51 12 8d
       5.8862746e-08 0.0017854081 -0.0014394395 -4.5087727e-31
000170 cc d1 eb 3a 99 eb ea 3a 59 86 e9 3a 8b 49 e8 ba
       0.0017991601 0.0017922997 0.0017816528 -0.0017722113
000180 6c f8 ea 3a c8 5f da 3a c7 35 3c a6 3b 3c ea ba
       0.0017926819 0.0016660625 -6.5298485e-16 -0.0017870733
000190 5a 9f eb 3a 00 00 00 00 92 62 e5 ba 9f a5 ea ba
       0.0017976568 0.0 -0.001750069 -0.0017902142
0001a0 28 33 eb ba 00 00 00 00 0b e1 eb ba 2e 60 ea ba
       -0.0017944323 0.0 -0.0017996145 -0.0017881447
0001b0 47 ce ea 3a 90 8d e9 ba ce 34 eb ba fa 21 eb ba
       0.0017914259 -0.0017818678 -0.0017944814 -0.0017939203
0001c0 6c 05 eb 3a b7 59 eb ba 39 93 cd ba 0d 15 eb 3a
       0.0017930693 -0.0017955814 -0.0015684135 0.0017935351
0001d0 c9 84 eb 3a 83 d4 ab 82 30 28 14 a4 00 00 00 00
       0.001796865 -2.5248167e-37 -3.2126424e-17 0.0
0001e0 00 00 00 00 6b b8 e9 3a e7 fd ea 3a c4 cf eb 3a
       0.0 0.001783145 0.0017928452 0.0017990996
0001f0 56 ae ea ba e4 cf ea 3a d8 cb e9 ba 8e 81 8d ba
       -0.0017904739 0.001791474 -0.001783724 -0.0010796057
000200 8f e5 dc ba 09 71 be 34 ec c2 e8 3a eb c7 ea ba
       -0.0016853082 3.5472502e-07 0.0017758287 -0.0017912363
000210 00 00 00 00 4e 82 e3 3a a2 d2 ea ba cd f0 e9 3a
       0.0 0.0017357559 -0.0017915557 0.0017848253
000220 00 00 00 00 b1 22 eb 3a dd 40 eb ba 5b 86 ca 3a
       0.0 0.0017939416 -0.0017948408 0.0015451418
000230 00 00 00 00 d7 aa ea 3a 00 00 00 00 09 52 eb 3a
       0.0 0.0017903697 0.0 0.0017953526
000240 b1 ad eb ba 00 00 00 00 ca 15 e3 ba 00 00 00 00
       -0.0017980841 0.0 -0.0017325219 0.0
000250 e6 3b e8 ba 1d 72 eb 3a 00 00 00 00 14 66 ea ba
       -0.0017718046 0.0017963086 0.0 -0.0017883205
000260 00 00 00 00 fa 42 e7 3a da cf eb ba 91 c2 eb ba
       0.0 0.0017643862 -0.0017991022 -0.0017987062
000270 00 00 00 00 be 2f 84 36 95 50 e2 ba 97 b1 fc 07
       0.0 3.9394645e-06 -0.0017266447 3.8021124e-34
000280 02 86 eb ba 4a 7c eb ba c2 cd eb 3a 00 00 00 00
       -0.0017969015 -0.0017966118 0.0017990398 0.0
000290 81 94 2c 1f 4e 56 ea 3a f2 a8 eb ba 50 73 0f 37
       3.6545256e-20 0.0017878504 -0.0017979427 8.5503125e-06
0002a0 f9 b1 e1 3a 96 2b b5 3a 6a d4 eb ba 7e 62 45 9a
       0.0017219178 0.0013822194 -0.0017992381 -4.0818207e-23
0002b0 58 87 d7 ae 00 00 00 00 9f 03 eb 3a 0e 9e ba 3a
       -9.80111e-11 0.0 0.0017930156 0.0014237778
0002c0 b7 d0 ea 3a 84 d0 eb ba 8d 51 eb 3a 00 00 00 00
       0.0017914985 -0.001799122 0.0017953381 0.0
0002d0 e3 64 e8 ba 2a 06 eb 3a d8 b6 d1 3a 12 b6 ab 88
       -0.0017730262 0.0017930914 0.0015999926 -1.0334493e-33
0002e0 61 e5 ea ba 0e cc ea 3a 94 9f ca 3a 00 00 00 00
       -0.0017921143 0.0017913596 0.0015458935 0.0
0002f0 00 00 00 00 2e 66 eb ba 00 00 00 00 27 ce eb ba
       0.0 -0.0017959529 0.0 -0.0017990515
000300 a1 a6 31 3a ba e9 99 89 82 5e eb 3a 6f 68 ea ba
       0.0006776844 -3.7053206e-33 0.0017957243 -0.0017883907
000310 4c 14 a2 ba 17 10 ea 3a bf 13 eb 3a 3e 18 eb 3a
       -0.0012365668 0.0017857578 0.0017934962 0.0017936302
000320 00 00 00 00 dc 59 be 1f aa ca cc ba 8d b5 ea ba
       0.0 8.061679e-20 -0.0015624363 -0.001790689
000330 e9 e5 1a ad cd 90 ea 3a 3d 1f eb 3a 00 00 00 00
       -8.804937e-12 0.0017895937 0.0017938387 0.0
000340 9a 8c eb 3a 00 00 00 00 08 3f eb ba 3e c2 e1 ba
       0.001797098 0.0 -0.0017947862 -0.0017224026
000350 a1 15 ea 3a 7b 29 e7 b9 33 f3 ea 3a 00 00 00 00
       0.0017859229 -0.0004409066 0.0017925262 0.0
000360 00 00 00 00 47 15 e8 ba ab dd ea ba 00 00 00 00
       0.0 -0.0017706536 -0.0017918845 0.0
000370 3c 25 06 a4 00 b6 eb 3a 00 00 00 00 4a 13 eb 3a
       -2.9088157e-17 0.0017983317 0.0 0.0017934826
000380 00 00 00 00 04 53 eb 3a 2b d0 ea ba 14 c3 e6 3a
       0.0 0.0017953818 -0.0017914822 0.0017605745
000390 00 00 00 00 f0 ac 5a 98 14 b7 8d 35 00 00 00 00
       0.0 -2.826315e-24 1.0558601e-06 0.0
0003a0 b1 b5 e9 3a 54 28 81 0e fe 96 ea 3a ce 7f 06 af
       0.0017830638 3.183979e-30 0.0017897782 -1.2232634e-10
0003b0 b0 4a eb ba 75 c8 e7 3a 05 32 eb 3a 00 00 00 00
       -0.0017951336 0.0017683642 0.0017943984 0.0
0003c0 bc 15 eb ba 00 00 00 00 de d1 ea ba 67 36 ea 3a
       -0.0017935554 0.0 -0.0017915328 0.0017868996
0003d0 d8 bd e9 3a e4 bd eb ba 00 00 00 00 5f 4f ea ba
       0.0017833067 -0.0017985669 0.0 -0.0017876438
0003e0 ab 80 ae ba e4 c2 ea ba a0 d1 90 0e 85 c5 dd ba
       -0.0013313493 -0.0017910865 3.5700602e-30 -0.0016919827
0003f0 9a f2 3b ba 54 a8 ea 3a 00 00 00 00 00 00 00 00
       -0.00071696343 0.0017902949 0.0 0.0

network_body._body_endoder.seq_layers.2.weight f4 [256, 256]
000000 54 97 e6 bc c2 d1 40 bc de 1f 23 bd c1 e5 e1 3d
       -0.02814833 -0.01176876 -0.039825313 0.1103015
000010 37 48 8d bd 7a 52 bc 3d 0f 08 0b 3e 7e fe c0 bc
       -0.068985395 0.09195419 0.13577293 -0.023558851
000020 c5 ee 43 3d 40 11 c3 3d 89 a7 ed bd 06 16 88 3c
       0.04783513 0.095247746 -0.116042204 0.016612064
000030 00 63 76 bd ac ab 05 3c 78 0d 1e 3d 54 aa 5d bd
       -0.060153008 0.008158606 0.038587064 -0.054117516
000040 37 a3 6c 3d 5e 4d 53 bd 06 45 90 bd 81 2f cd ba
       0.05777284 -0.051587455 -0.07044415 -0.0015654416
000050 37 e5 ca 3d c9 0e e0 bc 5c 59 00 3e 05 20 90 bc
       0.099070005 -0.0273508 0.12534088 -0.017593393
000060 d7 ce 1a 3d 2f 56 00 be 88 54 a6 3d 3a 1d cf 3c
       0.037794914 -0.12532876 0.08121592 0.025282491
000070 67 f6 2d 3c 54 0c 3f bc b2 5b c4 bc 9d 0a 00 bb
       0.010617829 -0.011660654 -0.023969505 -0.0019537576
000080 c8 64 27 3d bf c4 e8 bc fc c2 33 3d 26 8e 58 bd
       0.040867597 -0.028414128 0.043887123 -0.05286994
000090 02 f3 12 bd bd 93 94 bd 7e ff ba bd 2a 4a 67 3d
       -0.03587628 -0.07254741 -0.091307625 0.056467213
0000a0 98 78 d4 bd a3 ba c8 3c 4e 40 e6 bc 18 fd 9c bd
       -0.10374564 0.024503058 -0.028106835 -0.07665461
0000b0 bd 73 c0 3d 19 4d e6 bc cf fe c7 3c 2d 6e 9c bd
       0.09397075 -0.028112935 0.024413494 -0.07638202
0000c0 67 ea f6 bc 6b 04 2d ba 7a d2 d6 3d fd 6c 9b 3b
       -0.030141069 -0.00066000846 0.10489364 0.004743217
0000d0 5f 89 00 bc f9 7d 1b 3c 09 3a b0 bd e9 5b d5 bb
       -0.007845252 0.009490483 -0.08604819 -0.0065112007
0000e0 f6 ed 81 3c 09 fb 12 bd 00 d7 4f bd 04 82 68 bd
       0.015860539 -0.035883937 -0.05074215 -0.056764618
0000f0 de 59 25 bd 4c e3 1c bd 6a 03 1c bd e2 b8 8b 3d
       -0.040368907 -0.038302705 -0.038089193 0.06822373
000100 03 4e 72 bd a8 da fb bd ec 15 36 bd da b1 b3 bc
       -0.05915643 -0.12297565 -0.0444545 -0.021935392
000110 d4 de a9 bc 81 63 4d bd ca c0 9a 3d c7 ef 42 bd
       -0.020736136 -0.050143722 0.07556303 -0.04759195
000120 22 f9 d3 bc e1 b9 1a bd 9c 27 14 3d d1 97 a8 3d
       -0.025875632 -0.037774924 0.036170587 0.08232082
000130 21 83 07 3e ce 3e 87 3c 7a 0b be bd ad 1e 1a bc
       0.13233615 0.01650944 -0.09279533 -0.009406728
000140 16 e1 e4 bc 85 66 80 3d b1 ca d2 bc c3 16 95 bd
       -0.02793936 0.06269554 -0.025731416 -0.07279732
000150 74 25 ab 3d 5e e8 26 bd b2 69 73 3d fd 90 72 bd
       0.08356753 -0.040748946 0.05942697 -0.059220303
000160 45 dc 86 3d 75 6a 2c be 01 2d 98 3d 21 c0 ea bc
       0.06584982 -0.16837485 0.07430459 -0.028656067
000170 e4 bd 0f be 2c 4f 83 3c 6e 53 38 bd 06 f3 8d 3d
       -0.14037281 0.016028963 -0.04500144 0.06931119
000180 85 af ac bb 3c 17 88 3d 76 83 cb bd c9 b6 e0 3c
       -0.005269947 0.066450566 -0.099371836 0.027430909
000190 d1 b6 af bc f6 f5 98 3d 2d 3c 09 bd c0 ed 02 3d
       -0.021449478 0.07468788 -0.033504654 0.031965017
0001a0 86 51 bb 3c d8 68 58 bd 58 db b2 bd 81 e5 83 3d
       0.022866022 -0.05283436 -0.08733243 0.06440259
0001b0 4e 82 8c bd cd 0c 96 3d 28 5e 4c 3d 8d 0e 18 3e
       -0.06860791 0.0732666 0.049894482 0.148493
0001c0 12 73 d8 3c d7 0c 5f 3d a7 26 02 be 02 1a c3 bd
       0.026422057 0.054455604 -0.12710057 -0.09526445
0001d0 50 70 69 bd 18 f9 8e 3d a5 9d 4b 3d 09 23 e4 bd
       -0.056991875 0.069811046 0.04971089 -0.11139495
0001e0 f7 0f 79 bd cf 9a a5 3c f1 db db bc a7 29 02 bd
       -0.06080624 0.02021542 -0.026838275 -0.031778004
0001f0 9a 5a 67 3d e2 c7 87 3c af 6f 1e bd 06 ab b5 3d
       0.05648289 0.016574804 -0.03868073 0.08870511
000200 70 2b 47 3d 9a 57 2f bd ca 8b 7d 3c f5 bd b3 bd
       0.04862541 -0.042808153 0.015475223 -0.08776466
000210 58 a6 54 bc 7a b2 18 bd 60 c4 23 bd e7 e6 13 3e
       -0.012979113 -0.037279584 -0.0399822 0.14443551
000220 b2 bd 0b 3d d6 a4 9f 3b f0 f2 b7 3d 4a 90 15 3d
       0.034116454 0.004871945 0.089818835 0.036514558
000230 0f 12 d1 bc ef f9 25 3c 8b a2 07 be 2f 74 07 be
       -0.025521306 0.01013039 -0.13245599 -0.13227914
000240 c0 0a d0 3d 80 1e f2 bd 6f af 38 3b 64 45 b3 bd
       0.101583004 -0.11822224 0.0028180738 -0.087534696
000250 24 6d 21 bd ab 36 e7 3d 25 83 df bc 9e df 2d bd
       -0.039410725 0.11289724 -0.027284214 -0.042449586
000260 df 94 59 bd b0 41 80 3d 96 7b 4b 3d b7 bd 84 38
       -0.05312049 0.06262529 0.049678408 6.3295876e-05
000270 98 f6 82 bd a7 f5 98 3a f2 f1 75 3d d3 50 18 3c
       -0.0639469 0.001166989 0.06004519 0.009296614
000280 85 58 89 3d 72 fc 2a 3c 14 2b 9e bb a0 68 c1 3c
       0.06706337 0.010436164 -0.0048269127 0.02360946
000290 c5 5c 92 3d c3 35 11 bc bc 07 c7 bd 2c c8 6c bb
       0.07146601 -0.008862915 -0.09718272 -0.0036130054
0002a0 71 13 11 ba 83 2f 54 3d 76 7f 95 bc e0 e6 4a bd
       -0.0005534208 0.051803123 -0.018249255 -0.049536586
0002b0 24 2a 3e 3c 49 9b d3 bd 20 44 9d bd ad c7 e1 bd
       0.011606727 -0.10332353 -0.076790094 -0.11024413
0002c0 d9 b9 b8 3d e9 40 2d 3d 1c 8d ef bc ed 68 9e bd
       0.090198226 0.04229823 -0.02924209 -0.07734857
0002d0 35 7e af bd c6 ca 2b 3d 30 a2 1a 3d db 31 65 bd
       -0.08568994 0.041941427 0.03775233 -0.05595575
0002e0 2e ac 01 be 40 29 fa bd 4d 8a fd 3b ab d5 87 bc
       -0.12663338 -0.12214899 0.007737434 -0.016581377
0002f0 dc 04 d1 3b 8a f7 de bb 77 91 2f bc be 0d b9 bc
       0.006378753 -0.0068044113 -0.010715834 -0.02258956
000300 06 0c 88 3c 63 a1 98 bd 56 d9 81 bd 70 e5 ec bd
       0.016607296 -0.07452657 -0.06340282 -0.11567199
000310 c1 23 f7 bc 08 7a 13 3e e6 47 ce bd c3 f6 19 3d
       -0.030168416 0.1440202 -0.10072307 0.037588846
000320 24 d0 97 bc e4 99 a5 bc ae c5 27 3a cb c3 d8 3d
       -0.018531866 -0.020214982 0.0006400001 0.105842195
000330 24 1d 23 bd 9a 89 bf bd 5c d5 12 bd fd f7 a4 bd
       -0.039822713 -0.09352417 -0.035848007 -0.080551125
000340 7e 93 76 3d c5 1f 06 be f6 54 dc bb cc 39 97 3d
       0.060199253 -0.13098057 -0.0067239953 0.07384071
000350 60 7a 59 bb 36 0e 18 3d c8 83 e6 3b a1 a5 23 3b
       -0.0033184513 0.037122928 0.0070347525 0.0024970549
000360 43 04 89 bc b3 8e b6 bd ab 01 dc 3b c7 82 dd 3c
       -0.016725665 -0.089139365 0.006714066 0.027039899
000370 65 26 26 3c 0d 44 b3 ba 93 75 41 3d 58 43 ac 3b
       0.01014099 -0.0013676897 0.04723127 0.0052570514
000380 9a 04 27 3d 24 10 59 3c e2 a6 cc 3d 01 33 01 bc
       0.040775873 0.013248477 0.09992768 -0.007885695
000390 55 c5 49 3c cb 18 ad bc ef 60 fa 3c ce b8 b1 3d
       0.012315114 -0.021129986 0.0305638 0.08677827
0003a0 ef 3b c7 3c ed 03 80 bd e5 09 e2 3c ad f5 89 bd
       0.02432057 -0.06250749 0.027592609 -0.06736312
0003b0 7a 78 3d 3d 9b ca 60 3d 88 00 29 3d e3 be 16 bc
       0.046257474 0.05488072 0.041260272 -0.009200784
0003c0 43 3f 2e 3d a3 32 ad bd c2 fa 83 bd 74 7e 13 bd
       0.0425408 -0.08456924 -0.06444313 -0.036009267
0003d0 57 6d 7f bc 66 10 fc bb 7b 03 a2 3c 18 97 8a 3c
       -0.0155900335 -0.0076923845 0.01977705 0.01691775
0003e0 3f 6e 69 bc 76 96 68 bd 7f 1f d9 bc ac 61 08 3d
       -0.014247476 -0.056784116 -0.026504276 0.033296272
0003f0 9d 7d 5b bd c7 e2 a0 3c 89 81 85 bb 9e fb 48 bd
       -0.05358659 0.019639386 -0.0040742797 -0.049068086

network_body._body_endoder.seq_layers.2.bias f4 [256]
000000 82 f5 ea 3a 11 60 eb 3a 88 c9 eb 3a 36 67 93 b9
       0.001792595 0.0017957707 0.0017989138 -0.00028114923
000010 77 ff ea ba 00 00 00 00 85 9a eb ba 53 86 59 1b
       -0.0017928918 0.0 -0.0017975128 1.7993222e-22
000020 2e 34 eb ba 9b cb eb ba 1c ec d5 ba 5e 97 ea 3a
       -0.0017944628 -0.0017989756 -0.0016320976 0.0017897894
000030 e0 6c eb 3a a8 f4 cb ba 8b 90 e2 3a a5 49 a3 ba
       0.0017961524 -0.0015560584 0.0017285509 -0.0012457861
000040 dd 7d 5e 3a 81 ba eb ba 7c b1 eb ba 00 00 00 00
       0.0008487383 -0.001798466 -0.0017981972 0.0
000050 4f 57 14 02 48 ab 1f 88 36 f4 aa 99 60 3a ea ba
       1.0898379e-37 -4.804866e-34 -1.7676224e-23 -0.001787018
000060 ba 85 db 22 93 9e 86 9a 6f ad ea ba 7e e4 d0 3a
       5.9501657e-18 -5.567729e-23 -0.001790447 0.0015937237
000070 1b f0 01 bb 4d 9c e5 14 14 ae eb ba ca b2 ea 3a
       -0.0019826952 2.318474e-26 -0.0017980956 0.0017906066
000080 ac ed cd 0e 19 8b 7b 9e 20 16 df 08 52 3c eb ba
       5.076527e-30 -1.3316594e-20 1.3426526e-33 -0.0017947054
000090 a9 af eb ba 65 20 93 ab bf 2a eb ba a9 6b eb ba
       -0.0017981428 -1.045397e-12 -0.0017941816 -0.0017961162
0000a0 64 ea ea 3a 96 06 e9 ba 00 00 00 00 eb ca ea ba
       0.0017922637 -0.0017778452 0.0 -0.0017913257
0000b0 10 68 e9 3a 2f 81 eb ba 00 00 00 00 8a 1f 05 a2
       0.0017807502 -0.0017967577 0.0 -1.8041558e-18
0000c0 b3 75 e9 3a 8f 50 ea ba 6f 07 eb ba 64 97 eb 3a
       0.0017811566 -0.0017876792 -0.0017931293 0.0017974195
0000d0 f6 ac 4d ac 62 79 eb ba 4a f4 de ba 51 f9 ea ba
       -2.9228265e-12 -0.0017965252 -0.001701006 -0.0017927085
0000e0 d4 bb e8 ba 20 ad eb ba 00 00 00 00 5b 14 2d a3
       -0.0017756172 -0.0017980672 0.0 -9.382659e-18
0000f0 a2 b0 86 0c 9a 66 03 39 1b 2e e9 3a f6 6f eb 3a
       2.0752276e-31 0.00012531356 0.001779023 0.0017962444
000100 d1 ea e7 ba c8 5f e9 3a 1d 11 a3 9c cc 7c ea ba
       -0.0017693882 0.0017805034 -1.0790859e-21 -0.0017889976
000110 f1 9a bf 0c a6 19 eb ba 95 6a eb 3a b8 aa ea 3a
       2.9521462e-31 -0.0017936721 0.0017960841 0.0017903661
000120 1a d6 60 06 00 00 00 00 b8 a4 21 08 00 00 00 00
       4.2287015e-35 0.0 4.86428e-34 0.0
000130 74 8b cf 2e 00 00 00 00 00 00 00 00 ea f2 e9 3a
       9.438042e-11 0.0 0.0 0.0017848883
000140 4c 3f ed 3a c3 aa fe b4 00 00 00 00 93 cd 9c 36
       0.0018100529 -4.7435432e-07 0.0 4.6730943e-06
000150 31 8b e9 ba 14 80 eb 3a 5c fe 2a a2 38 44 5f a7
       -0.0017817972 0.0017967247 -2.3173953e-18 -3.0984448e-15
000160 df cc 89 12 f7 91 eb ba 40 7a f6 3a 67 21 ea 3a
       8.69642e-28 -0.0017972578 0.0018804744 0.0017862738
000170 7a 31 89 97 56 ae eb ba 37 e5 e3 26 e1 08 eb 3a
       -8.865907e-25 -0.0017981033 1.5813418e-15 0.0017931723
000180 e3 64 ec ba b3 0e ea ba ad cc 25 1e fd 85 eb ba
       -0.0018035438 -0.0017857164 8.777353e-21 -0.0017969009
000190 00 00 00 00 1c 92 a8 3a eb e8 f8 ba b7 01 e7 3a
       0.0 0.0012860927 -0.0018990313 0.0017624412
0001a0 9f c0 ea 3a 00 00 00 00 1e 09 d0 ba 6a 1f ab 32
       0.0017910189 0.0 -0.0015871858 1.9921305e-08
0001b0 00 00 00 00 38 d1 d0 b7 ad 43 e9 ba 00 00 00 00
       0.0 -2.4892957e-05 -0.0017796658 0.0
0001c0 00 00 00 00 d7 57 5c a4 16 ae ea 3a fe 26 ea ba
       0.0 -4.77793e-17 0.0017904665 -0.0017864404
0001d0 38 30 eb ba 00 00 00 00 4c b4 43 9d 0d 2b eb ba
       -0.0017943447 0.0 -2.5901246e-21 -0.0017941907
0001e0 00 00 00 00 00 00 00 00 00 00 00 00 cb b0 a7 32
       0.0 0.0 0.0 1.9521755e-08
0001f0 b1 8a d0 3a 1d a7 ca 0a d9 89 ea ba 0a ff ea ba
       0.0015910474 1.9514753e-32 -0.0017893865 -0.0017928791
000200 0f 3d 4e 2f ee d5 dd 3a e7 44 e8 3a c3 72 eb 3a
       1.8757283e-10 0.0016924718 0.001772073 0.0017963279
000210 e7 0e eb ba 7b af ea ba 00 00 00 00 00 00 00 00
       -0.0017933518 -0.001790508 0.0 0.0
000220 51 b2 02 12 79 ac eb 3a 7f 22 13 ba ed c5 06 03
       4.124056e-28 0.0017980478 -0.00056127453 3.960627e-37
000230 28 ed db 3a f8 81 eb ba 00 00 00 00 8f b1 05 b2
       0.0016779052 -0.0017967811 0.0 -7.781991e-09
000240 d4 14 54 14 a3 5f 97 97 c1 68 dc a9 b9 d2 ea 3a
       1.07073724e-26 -9.782288e-25 -9.7881345e-14 0.0017915583
000250 c8 fe ae 21 31 8f d9 2f 94 10 e9 ba 57 5d 97 9e
       1.1858139e-18 3.9573814e-10 -0.001778143 -1.6026351e-20
000260 00 00 00 00 00 00 00 00 01 00 e8 3a 19 4d a1 9a
       0.0 0.0 0.0017700196 -6.67126e-23
000270 a9 9c e9 3a 14 47 b5 ba e4 c5 ea ba 91 f4 fb 17
       0.0017823178 -0.0013830387 -0.0017911759 1.6282232e-24
000280 00 00 00 00 2b 4c c6 3a d0 e6 de 8a d3 a2 49 2a
       0.0 0.0015128901 -2.1464644e-32 1.7908877e-13
000290 2a 45 11 85 95 07 fd ba 00 00 00 00 51 6f eb ba
       -6.830571e-36 -0.0019304628 0.0 -0.0017962252
0002a0 80 c8 eb ba db 50 e1 ba 02 23 62 ba 37 a8 0a a7
       -0.0017988831 -0.0017190235 -0.00086264324 -1.9242537e-15
0002b0 55 88 e9 3a cc f2 eb 3a 00 00 00 00 97 b3 eb 3a
       0.0017817119 0.0018001436 0.0 0.0017982599
0002c0 80 bc eb 3a 00 00 00 00 53 bd 45 b7 02 52 f1 9f
       0.0017985255 0.0 -1.17861955e-05 -1.0220314e-19
0002d0 10 99 a6 3a f3 54 eb 3a 5a f6 78 a3 d7 08 ea 3a
       0.0012710411 0.0017954394 -1.3496274e-17 0.0017855418
0002e0 95 f1 7b ba 5d 6b eb ba f3 9c eb ba 14 a4 db 3a
       -0.00096108887 -0.0017961074 -0.0017975852 0.0016757273
0002f0 95 52 e9 ba 13 ec da 3a 30 76 ea ba 48 02 28 2c
       -0.0017801101 0.0016702436 -0.0017888006 2.3875502e-12
000300 a5 22 e9 3a 20 86 ef 3a b3 d7 eb ba 52 72 eb ba
       0.0017786814 0.0018274225 -0.001799336 -0.0017963147
000310 db 10 8c a9 a7 49 7d b3 d6 4e cc ba a7 45 d2 96
       -6.220173e-14 -5.897314e-08 -0.001558746 -3.3971287e-25
000320 ee bb d8 3a f8 61 eb 3a 28 d3 18 02 cb 5a e9 3a
       0.00165355 0.0017958274 1.1227795e-37 0.0017803548
000330 2e 81 eb 3a d0 7e ea ba 31 7a 69 29 b9 b5 e8 3a
       0.0017967576 -0.0017890576 5.1842377e-14 0.0017754353
000340 00 cc ea ba 65 22 ea 3a 04 49 7e b5 47 eb 87 0c
       -0.001791358 0.0017863034 -9.4728625e-07 2.0941646e-31
000350 00 00 00 00 5e cc fe ba 00 00 00 00 d3 01 a2 2b
       0.0 -0.0019439568 0.0 1.1511299e-12
000360 05 e6 ea 3a c9 ff ea ba a2 a7 eb ba fe 45 ea 3a
       0.0017921334 -0.0017929013 -0.0017979036 0.0017873643
000370 98 b3 ba 29 61 3b d7 ba b2 82 a3 3a 74 95 b5 8f
       8.291214e-14 -0.0016420895 0.0012474863 -1.7905545e-29
000380 5f a2 eb 3a 99 a4 eb ba a8 ea ea 3a 45 31 e9 ba
       0.0017977468 -0.0017978131 0.0017922716 -0.0017791173
000390 6d b5 ea ba 00 00 00 00 0d 64 eb 3a a6 ac 57 ab
       -0.0017906852 0.0 0.0017958895 -7.662294e-13
0003a0 00 00 00 00 c0 cb 8a 2e 85 82 c0 3a b6 d0 eb ba
       0.0 6.311707e-11 0.0014687335 -0.0017991278
0003b0 f6 cf e6 ba b8 81 b9 26 c0 a7 df 91 57 f8 9e 1d
       -0.0017609585 1.2872114e-15 -3.528658e-28 4.207903e-21
0003c0 da da c6 89 00 00 00 00 35 db 8e 99 7f 5e 16 8b
       -4.7872573e-33 0.0 -1.4770993e-23 -2.896004e-32
0003d0 c7 67 eb 3a 00 00 00 00 76 3f e5 3a 75 46 eb 3a
       0.0017960005 0.0 0.0017490226 0.0017950075
0003e0 81 dd eb 3a 78 e1 ea ba 27 50 9f 07 00 00 00 00
       0.001799509 -0.0017919978 2.397077e-34 0.0
0003f0 30 1d 0c 1c 32 2e a6 ba 62 23 c2 3a 91 c2 ea 3a
       4.635984e-22 -0.0012678562 0.001481157 0.0017910769

network_body._body_endoder.seq_layers.4.weight f4 [256, 256]
000000 01 63 b9 bc 69 bf 82 bd da 88 25 bc 64 4a 6e 3d
       -0.022630217 -0.06384165 -0.010103429 0.058176413
000010 18 29 2c 3e 03 b1 33 3d 36 17 8c bc 11 77 9e 3d
       0.16812551 0.043869983 -0.017100912 0.07737554
000020 e8 3f bd 3c 7e 05 28 3d 6b 55 63 3d 6c 1c 9b 3d
       0.023101762 0.041020863 0.055501383 0.075737804
000030 91 52 b2 bb bd f9 42 3d da e4 7f bd ba 1b c1 3d
       -0.0054419716 0.04760145 -0.06247411 0.094291165
000040 1e 84 85 bb d6 06 07 3d 04 8b 34 bd cc ea 08 bc
       -0.0040745875 0.032965504 -0.044077888 -0.008356761
000050 ff 36 8c 3d 93 31 2f bd 26 9a f8 bd 22 02 8f bd
       0.06846427 -0.042771887 -0.121387765 -0.06982829
000060 f3 d5 88 bc 3b e8 a0 bc a0 2f ed bc e4 3e c9 bd
       -0.016703581 -0.019641986 -0.028953373 -0.098264486
000070 1a c0 8b bd 82 5d 61 3d 97 85 c0 bc 00 9c 01 be
       -0.0682375 0.055020817 -0.0235012 -0.12657166
000080 d8 ed 94 3d 6b 1b 06 bb a7 96 3b 3d 22 ef 79 3d
       0.072719276 -0.002046312 0.04579797 0.06101907
000090 af 35 6a 3e 3a c0 a8 3c 5d 93 7d 3d 04 ae dd 3a
       0.22872041 0.020599473 0.061908115 0.0016912823
0000a0 f6 7a e5 3b ba bd 83 bc a1 fd f6 bd e4 ab c7 bd
       0.0070031835 -0.01608168 -0.120600946 -0.097495824
0000b0 18 30 b5 3d 90 a2 98 3d 5c b6 bb 3d 7f a2 92 bd
       0.08847064 0.07452881 0.09165642 -0.071599
0000c0 6a ef 26 bb aa 76 b0 bd a2 bc 05 bb ee ee 12 3d
       -0.0025472292 -0.086163834 -0.0020406623 0.035872392
0000d0 3e 01 13 3b 0c 2b be 3c 47 2f 79 bd 6f 26 27 be
       0.002243116 0.023213886 -0.060836103 -0.16323255
0000e0 e2 a8 d1 3d 95 18 70 bb 93 15 68 3d cb 6a e4 3c
       0.1023729 -0.0036635746 0.0566612 0.027882954
0000f0 7e c0 34 3d 3b 92 b9 3d f3 91 fc bd cf 2b 1c 3d
       0.044128887 0.090610944 -0.12332525 0.038127717
000100 cb f5 d9 bd bb 20 dc bc fc d7 14 be 27 4d 51 bc
       -0.106425844 -0.026871076 -0.14535517 -0.012774742
000110 bb 8d 26 3d f2 d0 5d 3d f9 e3 1e 3d 1d bb df 3d
       0.04066251 0.054154344 0.03879163 0.10924361
000120 a5 ea f0 3c ba 86 a7 3c 13 77 03 3e db 91 11 3d
       0.029408762 0.020449985 0.12838392 0.03553949
000130 db dc c3 3d 2b c2 c3 bc 04 18 ad 3d ba 9a c3 3a
       0.09563609 -0.023896297 0.08451846 0.0014923431
000140 35 30 45 bd 0e 3e cd 3c fe e8 d8 3d 84 bb 86 3d
       -0.048141677 0.025054004 0.10591315 0.065787345
000150 f8 5f e3 ba 1e 3a dd bd 51 a1 d0 3a 74 12 a8 bd
       -0.0017347327 -0.108021006 0.0015917217 -0.08206645
000160 92 54 58 3c 2f 69 f8 3d 88 96 50 bd 1d d0 1a bd
       0.013203757 0.12129437 -0.050924808 -0.03779613
000170 ea a9 11 bd 66 1b 7b bd 10 a6 88 bd 22 fd 3e 3b
       -0.035562433 -0.061305426 -0.06672299 0.0029142578
000180 ca 66 7f 3d fc 7a 27 3d 95 dc 20 3d 9f 1c 00 3d
       0.062353887 0.04088877 0.039272863 0.031277295
000190 7e bc 22 bd 47 94 1d ba 68 d1 8a 3c 91 a1 0f 3d
       -0.03973054 -0.000601117 0.016945556 0.03506619
0001a0 f7 6d 48 bc 87 1d 74 3c 84 e2 88 3d 8d 75 f4 3d
       -0.012233249 0.014899618 0.066838294 0.119364835
0001b0 39 42 51 3c 34 02 86 bd 79 55 47 be fc 8c f6 3c
       0.012772136 -0.06543389 -0.19466199 0.030096523
0001c0 71 17 d2 3c e4 50 e1 bb 2a 8b 24 3c 16 29 bb 3d
       0.025645943 -0.006876098 0.010042945 0.09138696
0001d0 5b 01 45 bd fd a7 86 3d 97 79 a9 3c 11 d0 1f 3d
       -0.048096996 0.0657501 0.020687861 0.039016787
0001e0 10 ec 4d 3d 2d f1 55 3d 19 5e a2 3c 20 b6 9f 3d
       0.050273955 0.052231956 0.01982026 0.077984095
0001f0 51 03 ff 3b 13 33 fa 3c ed a2 d1 3c 7c 4b ee 3b
       0.007782378 0.030541932 0.025590384 0.007272182
000200 aa 69 e3 bb 6e 4c 80 bd 05 42 18 bd d6 5c 92 ba
       -0.0069400864 -0.06264578 -0.037172336 -0.0011166583
000210 17 77 60 bd c1 93 ce 3d 62 38 8b 3c 13 40 33 bc
       -0.054801073 0.100867756 0.016994659 -0.010940569
000220 c1 a4 b5 3d b7 a3 68 bd 16 e3 89 bd bf 3b 26 3c
       0.08869315 -0.056796756 -0.06732766 0.0101460805
000230 93 8f ed bd 3e 13 85 3a 39 ab 23 bc 03 60 ca bd
       -0.1159965 0.0010152829 -0.009989553 -0.09881594
000240 3a e1 a8 3c e7 e8 7a 3d 20 01 ab bd 2c 8e e2 bc
       0.020615209 0.06125727 -0.08349824 -0.027655683
000250 84 90 b9 bd 17 08 d5 bc 79 43 03 bc 40 01 ab bb
       -0.09060767 -0.026004834 -0.008011692 -0.005218655
000260 ce 3d 39 b9 ef 0b f2 3c 7a de 24 bd f0 48 d8 bd
       -0.00017665999 0.029546706 -0.040251233 -0.10560787
000270 53 e1 91 3c 96 bc 72 39 da 42 4a bb 54 4f 7a 3d
       0.017807638 0.00023149172 -0.00308626 0.06111081
000280 8e 33 78 3c 63 7a e8 3c b4 6a 87 bd 37 ad 28 3b
       0.01514901 0.028378671 -0.06612149 0.002573801
000290 d4 df a7 3d 15 dc 26 bd 04 50 b7 3d c6 c4 23 3c
       0.08196989 -0.04073723 0.08950809 0.009995645
0002a0 00 f3 eb 3d 41 1d 27 3d 62 97 2a bd a8 94 cb bd
       0.11520958 0.040799383 -0.041648276 -0.09940463
0002b0 ff 0c ec 3c a3 75 29 bc 80 e7 4f bc e4 65 f5 bc
       0.02881479 -0.010342988 -0.012689471 -0.029955812
0002c0 db 36 79 3c d4 6a d3 3c 9a 72 ca 3b 24 2c c1 bb
       0.0152108325 0.025807776 0.0061782124 -0.0058951546
0002d0 6e be 0f bd 0b 29 2b bd da b8 a3 3d 13 2d dc bc
       -0.035093717 -0.04178719 0.07994242 -0.026876962
0002e0 2b f4 35 3d 03 09 47 3d bd 67 fb 3c b0 5b 9d bd
       0.04442231 0.04859258 0.030689115 -0.07683504
0002f0 67 47 cf bc 17 62 90 bd 4e 0c 82 3d 57 d8 bb bd
       -0.025302602 -0.07049959 0.06350003 -0.09172123
000300 1c 6d 24 3d 66 1f 3d 3c bb e7 82 3d 46 e4 de 3d
       0.040143117 0.0115431305 0.06391855 0.108833835
000310 bd e7 23 3d 55 39 5e bd 5d f0 01 bc 8e 69 8b bc
       0.040015925 -0.054253895 -0.007930842 -0.017018106
000320 40 ef 21 3d 53 6b 0f bd 06 01 03 3d f9 7e be bd
       0.039534807 -0.03501446 0.031983398 -0.09301562
000330 b3 6d 85 3d cb 3f 25 bd eb 9e b4 3d 20 3e b9 bd
       0.06515064 -0.04034404 0.08819374 -0.090450525
000340 d9 2e 9e bc 21 d1 9f 3d 3a ff e4 bb 4a 80 26 bc
       -0.019309448 0.0780356 -0.006988433 -0.010162422
000350 1f f7 80 bc 87 a7 5c 3d 3b c1 2d 3c d1 81 b2 3c
       -0.015742837 0.053870704 0.010605152 0.021790417
000360 6a 52 17 ba b6 6e c9 bc dd 80 47 bd e8 49 06 3e
       -0.00057724735 -0.024588924 -0.048706878 0.1311413
000370 92 52 e3 3c e1 9f cc bd 13 a8 54 3d fc f2 7b bd
       0.027749334 -0.09991432 0.0519181 -0.061511025
000380 4f ac 41 bd 0e 2f a7 bc 16 7c ad 3d 88 25 22 bd
       -0.047283467 -0.02040818 0.08470933 -0.039586574
000390 f7 ff fd 3d a9 74 40 bc 07 8e d4 bc 14 1d a2 bd
       0.12402337 -0.011746564 -0.02594663 -0.079157025
0003a0 d5 2e 71 bd 0f 13 29 3e c1 94 87 3d fc 84 00 3d
       -0.058882553 0.16511177 0.066201694 0.031376824
0003b0 cc 2a 90 3d 72 94 de 3a e3 f2 ff bc a0 dd f5 3c
       0.07039413 0.0016981496 -0.031243747 0.030012906
0003c0 4e 18 ad bc fa a4 d2 bc f4 ee 00 bd 7f 3e a0 bd
       -0.021129753 -0.025713433 -0.031477883 -0.0782442
0003d0 72 a7 84 bd 61 1d 9b 3d 24 2e 11 bd ca 9e d5 3d
       -0.0647725 0.07573963 -0.035444394 0.10430677
0003e0 b4 65 e3 bd 27 90 b0 3d b4 5e 8f bd cb 76 02 3d
       -0.11103383 0.08621245 -0.07000485 0.03185157
0003f0 be 2d 87 3d b3 a9 74 bb 64 fd 06 bd 20 38 5b bd
       0.066005215 -0.0037332594 -0.032956496 -0.05352032

network_body._body_endoder.seq_layers.4.bias f4 [256]
000000 20 c7 eb ba 8f 6b eb 3a 7a d6 16 ba 00 00 00 00
       -0.0017988421 0.0017961132 -0.00057540054 0.0
000010 2d e1 eb ba ab 24 0c 2b d2 ef e9 3a 09 50 88 26
       -0.0017996185 4.978888e-13 0.0017847961 9.458589e-16
000020 43 b8 2a 19 c7 bc b9 ba 10 04 ec 3a 3c 6c 45 94
       8.826005e-24 -0.001417064 0.0018006582 -9.967304e-27
000030 80 c9 e8 3a 00 00 00 00 7d 48 eb ba 7a 0b eb 3a
       0.0017760247 0.0 -0.001795068 0.0017932497
000040 c5 3e eb ba 7e 2b af 28 00 00 00 00 00 00 00 00
       -0.0017947784 1.9447765e-14 0.0 0.0
000050 67 57 eb ba 96 a7 eb 3a 56 b2 eb 3a 53 2a eb ba
       -0.0017955125 0.0017979022 0.0017982225 -0.0017941691
000060 94 a4 ba b8 b5 53 ad 37 c8 80 b5 94 1d 73 df 80
       -8.899826e-05 2.0662186e-05 -1.8327125e-26 -2.052061e-38
000070 b7 46 fb 3a 10 35 2b 13 05 1b 92 15 dc fb e7 ba
       0.0019170855 2.1609396e-27 5.901156e-26 -0.0017698961
000080 54 e9 eb ba 6e 9d eb ba 4f c9 c3 a3 e9 94 eb 3a
       -0.0017998614 -0.0017975995 -2.12272e-17 0.0017973456
000090 c8 5c eb 3a 4e 50 eb 3a a4 07 78 8d 85 9b eb ba
       0.0017956728 0.001795301 -7.6430097e-31 -0.0017975426
0000a0 af b4 52 98 45 d1 ea ba 00 00 00 00 79 b9 df ba
       -2.7233086e-24 -0.001791515 0.0 -0.0017068825
0000b0 bb c3 e9 3a 7b 2b dd 0b d2 64 eb ba 1d 47 eb 3a
       0.0017834821 8.5191526e-32 -0.0017959124 0.001795027
0000c0 8a b1 f8 10 85 96 eb 3a fb 94 b1 8b 44 71 eb 3a
       9.8092294e-29 0.0017973935 -6.840208e-32 0.0017962833
0000d0 12 48 e9 3a 2f 69 eb ba 38 7b a2 ab 7f cb e9 ba
       0.0017797968 -0.0017960424 -1.1544992e-12 -0.0017837136
0000e0 fb eb eb ba 44 3a eb 3a 33 90 eb ba f8 74 eb ba
       -0.0017999405 0.0017946442 -0.0017972052 -0.0017963937
0000f0 31 5f 95 1b 2c c4 eb 3a 6b a3 eb 3a f5 55 92 ab
       2.4711498e-22 0.0017987541 0.001797778 -1.0397782e-12
000100 4e 64 b9 ba 55 11 eb ba 67 ea ea 3a 00 00 00 00
       -0.0014144273 -0.0017934242 0.001792264 0.0
000110 0b 97 e2 3a c8 e3 ea 3a 8b 70 eb 3a c2 46 03 3b
       0.0017287446 0.0017920667 0.0017962618 0.0020031189
000120 00 00 00 00 24 c8 c8 17 dc f0 84 07 00 00 00 00
       0.0 1.297522e-24 2.0002717e-34 0.0
000130 a5 8a eb ba 56 c4 89 b8 8d c7 87 ab 20 e5 ea 3a
       -0.0017970396 -6.5692395e-05 -9.647713e-13 0.0017921068
000140 ab 24 ea ba 65 33 e9 ba 14 2a 67 09 8a 57 88 a8
       -0.0017863711 -0.0017791806 2.7825399e-33 -1.5136997e-14
000150 00 00 00 00 c7 ac a0 93 e9 3f eb 3a 44 50 57 33
       0.0 -4.056005e-27 0.0017948124 5.013159e-08
000160 f9 48 eb 3a 00 00 00 00 3e 86 eb 3a 00 00 00 00
       0.0017950825 0.0 0.0017969084 0.0
000170 3a 07 eb 3a 26 ae ea ba ce 0e a2 ae f7 64 eb ba
       0.0017931231 -0.0017904683 -7.369537e-11 -0.0017959167
000180 a7 c4 ea 3a fa 8b eb ba 01 24 f8 3a f3 60 eb 3a
       0.001791139 -0.0017970793 0.0018931628 0.001795797
000190 d5 22 dd 1f 84 70 eb 3a 8d 7b e7 ba e9 3f eb 3a
       9.3654765e-20 0.0017962609 -0.0017660722 0.0017948124
0001a0 9c bb eb ba cf b8 eb 3a de d6 eb 3a 93 4b 1f 29
       -0.0017984989 0.0017984154 0.0017993113 3.5370642e-14
0001b0 6f 22 eb ba 1c 8e eb ba 1b ab eb ba 5f 93 eb ba
       -0.0017939339 -0.0017971429 -0.001798007 -0.0017972997
0001c0 e7 c3 2d 94 ea 0e 94 0e 12 73 eb 3a 39 07 f3 3a
       -8.772903e-27 3.649918e-30 0.0017963371 0.0018541581
0001d0 e8 fd ea 3a 58 06 6b 92 00 00 00 00 fc b4 eb ba
       0.0017928453 -7.4160744e-28 0.0 -0.0017983015
0001e0 00 00 00 00 93 51 66 a8 e5 d5 ea 3a a9 3c 06 90
       0.0 -1.2785253e-14 0.0017916529 -2.647357e-29
0001f0 48 d7 ea 3a 00 00 00 00 8c 8d eb ba a5 22 ea 3a
       0.0017916942 0.0 -0.0017971261 0.0017863108
000200 21 c2 ea 3a 2b f0 eb 3a 32 aa eb ba 85 a3 45 18
       0.0017910638 0.0018000653 -0.0017979799 2.554421e-24
000210 be 05 70 05 1c d0 eb ba bc 71 4b 23 a4 a8 eb ba
       1.12858004e-35 -0.0017991099 1.1028736e-17 -0.0017979336
000220 42 4b d2 9e 00 00 00 00 da 81 eb 3a c8 6c 89 02
       -2.226574e-20 0.0 0.0017967776 2.0192778e-37
000230 5b 82 eb ba 65 69 ea ba 04 42 1a 21 32 20 eb ba
       -0.0017967926 -0.0017884193 5.22646e-19 -0.0017938672
000240 00 00 00 00 58 59 eb 3a d5 7b eb 3a a5 fa 05 3b
       0.0 0.0017955704 0.0017965982 0.0020443585
000250 56 96 a7 01 4f 75 ec 3a 1f fa ea ba 9b 79 ce b1
       6.1561833e-38 0.0018040332 -0.0017927325 -6.009214e-09
000260 c2 88 eb 3a bd ad eb 3a 16 63 e9 ba 00 00 00 00
       0.0017969834 0.0017980855 -0.0017806019 0.0
000270 42 36 eb ba 0f 80 8a ba 98 d9 66 16 dd fc ea 3a
       -0.0017945247 -0.0010566729 1.8647913e-25 0.0017928142
000280 21 9e ed 3a 16 17 e6 ba b0 71 1f 93 a0 24 f4 ba
       0.0018128791 -0.0017554488 -2.0124674e-27 -0.0018626638
000290 9f 70 eb 3a 89 c3 eb 3a f8 3f 97 9a 00 00 00 00
       0.0017962641 0.0017987351 -6.2555483e-23 0.0
0002a0 00 00 00 00 4d 65 eb 3a 0b b7 eb 3a e6 7f ea ba
       0.0 0.0017959267 0.0017983628 -0.00178909
0002b0 cf c5 61 39 49 e1 77 a9 00 00 00 00 c8 bd eb 3a
       0.00021531362 -5.504042e-14 0.0 0.0017985636
0002c0 6c ff e1 b2 35 a7 eb ba 5a 2c cc 26 2d 0c eb ba
       -2.63096e-08 -0.0017978909 1.4167365e-15 -0.0017932706
0002d0 fa 95 2b 18 0f dc 8a 3a 3a ac eb 3a 53 a6 eb ba
       2.217695e-24 0.0010594147 0.0017980405 -0.0017978646
0002e0 6b fc 91 31 00 00 00 00 fb ef 52 b2 05 49 d2 9a
       4.248752e-09 0.0 -1.2278174e-08 -8.6971934e-23
0002f0 b2 6d eb ba 91 8b eb ba c7 ee e9 ba 5b ec e9 3a
       -0.0017961769 -0.0017970671 -0.001784765 0.0017846929
000300 ad d1 eb ba 00 00 00 00 85 2a ec ba 00 00 00 00
       -0.0017991565 0.0 -0.0018018043 0.0
000310 51 1e 06 bb eb 63 eb ba 20 9a eb ba de e0 3c 9c
       -0.0020464847 -0.0017958855 -0.001797501 -6.2494616e-22
000320 41 2a fe 04 0b 9c ea 3a 0f 0d e6 3a 00 00 00 00
       5.9753917e-36 0.0017899288 0.0017551499 0.0
000330 66 93 d6 86 10 0f c4 9e 01 c4 da ba 86 59 ff 3a
       -8.0714436e-35 -2.0758537e-20 -0.0016690494 0.0019481636
000340 24 8c e2 9b c7 33 91 9d bc 99 85 3a 36 c6 ac 83
       -3.7479127e-22 -3.8434717e-21 0.0010192911 -1.0154758e-36
000350 b9 e4 eb 3a dd 68 ea ba 93 08 eb 3a 69 da 27 a1
       0.0017997242 -0.0017884035 0.0017931632 -5.6870864e-19
000360 5f 3f 41 94 02 95 e9 ba 00 00 00 00 71 63 af 26
       -9.756508e-27 -0.0017820897 0.0 1.2170018e-15
000370 b9 d2 24 2f dc 30 ea ba 9c b3 eb ba 1c 60 eb 3a
       1.4990577e-10 -0.0017867344 -0.0017982605 0.001795772
000380 bd 71 eb ba e9 60 2e 94 5f 69 eb 3a f0 f5 ea 3a
       -0.0017962974 -8.803867e-27 0.001796048 0.0017926078
000390 89 19 ec ba 7c d0 ea ba 4f ee ea 3a 2b 78 ea 3a
       -0.0018012981 -0.0017914916 0.0017923805 0.0017888596
0003a0 22 d0 eb 3a 83 a3 eb ba da 8e 46 22 ac 6a eb ba
       0.0017991106 -0.0017977807 2.6909629e-18 -0.0017960868
0003b0 00 00 00 00 91 bb eb ba 70 b4 02 b9 02 7b eb 3a
       0.0 -0.0017984976 -0.00012464984 0.0017965736
0003c0 0c 83 e8 3a b3 dd dc 3a 80 be ea ba a4 42 ea 3a
       0.001773925 0.001685074 -0.0017909557 0.0017872644
0003d0 e5 d2 e8 3a e9 a8 e7 3a eb fe ea ba 35 8d eb 3a
       0.0017763047 0.001767424 -0.0017928755 0.001797116
0003e0 3e 99 eb 3a 0e 6e eb ba 72 92 eb 3a ad 79 eb 3a
       0.0017974747 -0.0017961876 0.0017972721 0.0017965339
0003f0 01 ef e8 3a 1a 37 eb 3a 1d 73 df 00 3e c0 eb 3a
       0.0017771424 0.0017945499 2.052061e-38 0.001798637

network_body._body_endoder.seq_layers.6.weight f4 [256, 256]
000000 8f d7 83 bd f5 1b 22 3d 17 a5 ba 3d 18 4d fd bd
       -0.06437599 0.039577443 0.0911352 -0.1236822
000010 de 1c f7 3c 04 b7 65 3d c2 a1 11 be 86 04 cf 3d
       0.030165132 0.05608274 -0.14221862 0.10108285
000020 eb 82 e2 3c d4 ab d6 3d 04 56 b8 ba 71 5a 9c 3d
       0.027650317 0.10481992 -0.0014063721 0.07634438
000030 30 bc ef bd 64 65 0f 3e 24 25 80 bc e0 50 6a bd
       -0.11705816 0.14003521 -0.01564271 -0.057206035
000040 02 7c ee ba 21 ae 01 3d 28 57 21 3d a3 db a3 bd
       -0.0018194916 0.031660203 0.03938976 -0.08000877
000050 17 18 b0 bc 1c 63 d6 3c c3 69 fd bd ca d3 a2 3c
       -0.021495862 0.026170306 -0.12373688 0.01987638
000060 27 b0 8b bc d9 2d 96 bd 27 d8 f7 3d 4a e3 c5 bd
       -0.01705177 -0.073329635 0.12101775 -0.096624926
000070 be 30 d9 3c e0 00 bd bd a1 24 4f 3d 76 07 b7 3d
       0.0265125 -0.092286825 0.05057204 0.0893697
000080 26 16 0d bc 2e c4 9a bd 01 aa 4f bc 5c dd 57 bd
       -0.008611238 -0.075569496 -0.012674809 -0.05270134
000090 b0 ee f5 3a 9d cb 85 ba f9 27 c6 3d 7f b0 ea bd
       0.0018763151 -0.0010207776 0.09675593 -0.11459445
0000a0 1a 35 89 bd d4 fc e0 bd 29 95 76 3d 94 0b 80 3d
       -0.066995814 -0.10985723 0.060200844 0.06252208
0000b0 02 3a f5 ba 67 a9 08 3e 60 b3 33 3d 26 5c bc bc
       -0.0018709304 0.13345872 0.043872237 -0.022993159
0000c0 e1 41 ad 3d 38 27 df bd 58 ea 55 bd 71 2e 8f 3d
       0.08459831 -0.10896152 -0.05222544 0.0699128
0000d0 29 b6 28 3d f6 15 70 3d d0 e6 90 3b aa 1d 75 3d
       0.041189346 0.058614694 0.0044220462 0.059842743
0000e0 08 3e bd bd 07 02 ec bc f4 72 a8 bb 5d 44 a5 3c
       -0.09240347 -0.02880956 -0.0051406566 0.0201742
0000f0 a1 88 4d bc 0d af 5a bc cf 14 af bd dc 3f 54 bd
       -0.012544782 -0.013347399 -0.08548891 -0.051818714
000100 06 d3 46 bd 76 da 2c bb 32 24 f4 3d fa 05 41 3d
       -0.04854109 -0.002637533 0.11920966 0.04712484
000110 33 4d 12 bd 17 76 2e 3a ec c9 85 3b ac ad be 3d
       -0.035718154 0.000665517 0.004082909 0.09310469
000120 72 08 3c 3d 2a 5b 22 bc 46 a1 0c be ed 93 27 3d
       0.04590649 -0.0099094305 -0.13733396 0.040912557
000130 9a 9d 46 bb 4b 2b 8f 3d 92 39 6d 3d 23 9e 5d bc
       -0.003030634 0.06990679 0.05791623 -0.013526472
000140 4d e4 ef bc f6 d2 a2 3b 38 71 8a ba 8c b1 0c bd
       -0.029283667 0.004968996 -0.0010562306 -0.03434901
000150 1c 07 71 ba d5 98 c2 bb 9a be 18 3c e7 2c 0c bd
       -0.000919448 -0.005938629 0.009322787 -0.03422251
000160 d1 c0 61 3d e0 ba 2c 3d d7 3d 13 bd 86 81 c0 bd
       0.055115525 0.042170405 -0.035947647 -0.09399705
000170 6e 3c 8b 3d ea c3 0f 3d 2e 82 df bc f1 e7 b7 3c
       0.067986354 0.035098948 -0.027283754 0.022449465
000180 08 78 83 bb 63 5f 89 bd c8 cd b5 3c 63 9d 99 3d
       -0.0040121116 -0.06707647 0.02219285 0.07500722
000190 8b b1 86 3b e6 36 04 bd 4a a7 ff 3d 78 5f 39 3d
       0.0041105202 -0.032278918 0.1248308 0.04525706
0001a0 99 2d 5e bd f3 1f 6e bd 69 ae 22 3d 1d c9 15 3e
       -0.054242704 -0.058135938 0.03971711 0.146275
0001b0 c4 cf 69 3c 1c 13 63 3d 8c 1b 6a 3d 1f 88 a4 bd
       0.014270727 0.055438146 0.057155177 -0.080337755
0001c0 18 95 2f bd 25 ea 45 3b 75 ac 53 3d be 15 79 3b
       -0.042866796 0.0030199375 0.05167814 0.0038007344
0001d0 cd a0 91 3b 2b 23 ae bc 8a 6d 71 bb a5 e3 11 bd
       0.004444218 -0.021257004 -0.0036838972 -0.03561749
0001e0 4a 46 b9 3d f6 f0 21 3c 05 2f eb 3c ef ad ec bc
       0.0904661 0.00988411 0.028708944 -0.028891532
0001f0 88 81 f8 bc 85 73 47 3c 82 60 a1 bd ab 03 09 3e
       -0.030335203 0.012173538 -0.078797355 0.13380305
000200 ee f2 12 3c 44 a5 c1 3d f6 f5 27 bd d7 ef 39 bd
       0.008969052 0.0945535 -0.04100605 -0.045394745
000210 db b0 be 3d 25 35 4d 3c c6 78 2e bd 84 e5 7c 3d
       0.09311076 0.012524878 -0.042595647 0.06174232
000220 66 7d f6 bc 71 ea 99 bd f1 83 ce 3d 94 b9 3d 3d
       -0.030089092 -0.07515419 0.100837596 0.04631956
000230 de ba b1 bd 07 9e 17 bd 89 3e 2d 3d df 33 94 3c
       -0.0867822 -0.03701594 0.042295966 0.01809114
000240 0b 57 3b be 96 d5 84 bd c9 75 1d bd 2e 8b 60 bc
       -0.18294923 -0.06486051 -0.038442407 -0.013705058
000250 c2 00 31 be 57 4d 93 3d c3 b5 1d 3d 17 3b 4e bd
       -0.17285445 0.07192486 0.03850342 -0.05034932
000260 05 5a b0 3c c4 3e 54 bc 7c be e4 3c 71 18 e2 3d
       0.0215273 -0.012954418 0.027922861 0.11039818
000270 a1 75 88 3c b4 b6 ad 3d c2 ba 2f 3e 70 1c 5f 3c
       0.016657652 0.084821135 0.17161086 0.01361762
000280 0d 20 09 3d 5a 6c 40 bd 4c ee d0 3d 9f eb 06 bc
       0.03347783 -0.046978332 0.102017015 -0.008234887
000290 c8 91 01 bb a1 05 83 bd 19 ca 27 bd fa 10 15 3d
       -0.001977073 -0.06397558 -0.04096422 0.036393143
0002a0 e2 25 91 3d 84 73 5e 3d 96 59 a9 3c 81 22 bc bd
       0.07087304 0.054309383 0.0206726 -0.091862686
0002b0 53 4d 70 3d 6f 69 db bd 99 1a cd 3d af 3f 3d 3d
       0.058667492 -0.10713469 0.10014839 0.04620331
0002c0 0f c6 66 bd aa db 88 3d 4e 07 fc 3d c4 59 81 bd
       -0.056341227 0.066825226 0.12306081 -0.063159496
0002d0 57 e4 97 bd c9 c9 2f bd cf 3e a0 b8 bc 32 2c bd
       -0.07416599 -0.042917047 -7.6410935e-05 -0.04204057
0002e0 0d c4 19 3c 54 c4 4a be b4 e8 59 bd ba 01 8b 3d
       0.009385121 -0.19801456 -0.05320044 0.06787439
0002f0 a8 88 2d 3d 5b cd a3 bd b3 27 81 3d cc bd 52 bd
       0.042366654 -0.07998153 0.063064 -0.051450536
000300 3b ee 77 3d 0e b3 9c 3d f6 3c b1 bd fb e7 e4 3c
       0.06052993 0.076513395 -0.086542055 0.027942648
000310 62 a0 8d bc 3a d8 d1 bc e8 1d 96 3c 11 22 49 3d
       -0.01728839 -0.0256158 0.018324807 0.049104754
000320 46 a3 93 bd 54 61 53 3d ad 53 da 3c 81 3c c3 3d
       -0.07208876 0.05160649 0.026651228 0.095330246
000330 a7 43 2d 3d a0 50 bf 3d 2d c6 62 3d b1 99 21 bd
       0.042300846 0.0934155 0.055364776 -0.039453212
000340 80 e8 00 bd f7 b6 84 bd 49 b9 08 bc dd a0 3f 3d
       -0.03147173 -0.0648021 -0.008344957 0.04678427
000350 ae a9 0e 3d a6 bf b4 3d 35 69 a9 3d 51 86 1a 3d
       0.034829788 0.088256165 0.0827202 0.03772575
000360 49 c4 f0 3c f9 64 f3 3b 4e 6a 41 bd 31 73 88 bc
       0.029390471 0.0074278084 -0.04722052 -0.01665649
000370 91 d3 2f be c3 13 12 bd 66 2b e3 bd be 54 aa bd
       -0.1717055 -0.035663377 -0.11092262 -0.083169445
000380 2c 4d 6d bd 27 53 54 3a 44 18 86 3c 78 c9 8f bd
       -0.057934925 0.0008099549 0.016368993 -0.07020849
000390 d3 e0 b1 bd 85 66 03 bd 16 8a 82 bd d9 2b a1 bb
       -0.0868546 -0.032080192 -0.06373994 -0.004918557
0003a0 2f e8 02 bd a6 cd 06 bd 56 72 7f bc 5d 90 a0 3d
       -0.03195971 -0.032910965 -0.015591225 0.07840035
0003b0 d1 ca 1a bd 38 af 42 be 30 90 86 bd 0b 4d 9f 3c
       -0.037791077 -0.19012153 -0.0657047 0.019445917
0003c0 5f 66 5d bd a2 33 0b 3c 1c 5b 25 bc df 63 2f 3d
       -0.054052707 0.008496197 -0.010092523 0.042819854
0003d0 75 39 13 bd d5 e5 da 3d d9 27 23 be 75 07 05 3d
       -0.035943467 0.10688368 -0.1593317 0.032477815
0003e0 b9 0d 89 3d cc 9d 87 bd 74 b0 36 bc 8c 20 bb 3d
       0.066920705 -0.06621894 -0.011150468 0.09137067
0003f0 8f a6 06 bd 55 a8 d3 3d 9a 8e c1 bc 36 73 47 bc
       -0.032873686 0.10334841 -0.023627568 -0.0121734645
