Assets/ML_PPO/results/simpleLoop_4/BoatAgent/BoatAgent-99951.onnx (onnx, 868044 bytes, 21 tensors)

discrete_action_output_shape f4 [1, 6]
0	0x40000000	2.0
1	0x40000000	2.0
2	0x40000000	2.0
3	0x40000000	2.0
4	0x40000000	2.0
5	0x40000000	2.0

network_body._body_endoder.seq_layers.0.weight f4 [256, 57]
0	0x3d988d00	0.074487686
1	0xbe52a869	-0.20572056
2	0xbdaee80f	-0.085403554
3	0x3cec5093	0.028847015
4	0x3d0fa9a5	0.035073895
5	0x3d35f1be	0.044419996
6	0xbd53fe38	-0.051756114
7	0x3d6c8984	0.057748333
8	0x3d364e21	0.044508103
9	0xbd999437	-0.07498973
10	0xbd038943	-0.032113325
11	0xbc669f53	-0.014076072
12	0xbe712d7c	-0.23552507
13	0x3e35a01d	0.1773686
14	0xbda77c31	-0.081779845
15	0xbce8885a	-0.02838533
16	0x3dae0d43	0.08498623
17	0xbd7343c2	-0.05939079
18	0x3e81fafd	0.253868
19	0xbcf01d68	-0.029310897
20	0xbd7471d9	-0.059678886
21	0x3dd045f3	0.10169592
22	0xbd6740a6	-0.056458138
23	0xbcfab4d1	-0.030603798
24	0x3dd46acd	0.10371933
25	0x3df53dcf	0.1197468
26	0x3e542028	0.20715392
27	0x3d328188	0.043580562
28	0x3c869961	0.016430559
29	0x3ebc9400	0.36831665
30	0x3e1806b3	0.14846306
31	0xbc42eaa4	-0.011896763
32	0xbc892d43	-0.016745215
33	0xbd2ede78	-0.04269263
34	0x3dfee7f6	0.12446587
35	0xbd147755	-0.036246616
36	0x3e8012de	0.25014395
37	0x3dd37093	0.10324206
38	0x3c0367df	0.00802037
39	0x3e0ac313	0.13550977
40	0x3dd86338	0.105657995
41	0xbe040111	-0.12891032
42	0xbdf3890c	-0.11891374
43	0x3d6c1f7a	0.057647206
44	0xbd3696e6	-0.0445775
45	0xbde1dc16	-0.11028306
46	0xbe149423	-0.14509635
47	0xbdf658a6	-0.12028627
48	0x3da09b60	0.078421354
49	0xbd988b72	-0.07448472
50	0xbdf02783	-0.11726286
51	0x3e439d7c	0.19103044
52	0x3e8a6682	0.27031332
53	0xbd8f5991	-0.06999505
54	0xbcadd284	-0.021218546
55	0x3cf7425c	0.03018301
56	0xbd9a58ad	-0.07536445
57	0x3ca267e6	0.019824933
58	0xbe2fb9af	-0.17160676
59	0xbd7e168c	-0.06203322
60	0xbc514410	-0.012772575
61	0xbebb3f15	-0.36571565
62	0x3d98bef0	0.074582934
63	0x3dea8545	0.114512004
64	0x3dc811cc	0.097690195
65	0x3dc54fbb	0.09634348
66	0xbe57b8a6	-0.21066532
67	0xbe2ac327	-0.16676007
68	0xbba7960d	-0.005114323
69	0x3da88128	0.082277596
70	0xbd20d5c0	-0.039266348
71	0xbbf7cf18	-0.0075625293
72	0xbdbec1d0	-0.093143106
73	0xbd731f92	-0.05935628
74	0xbe9d2a3c	-0.30696285
75	0x3cdb7e27	0.026793553
76	0xbe01a598	-0.12660825
77	0xbcc443c3	-0.023958093
78	0x3e9d5aa1	0.30733207
79	0x3d744bf5	0.05964275
80	0xbdd30317	-0.10303324
81	0x3e370c0c	0.1787569
82	0xbeb50e5b	-0.35362515
83	0xbda08862	-0.07838513
84	0xbe86509b	-0.26233372
85	0xbeb0a59f	-0.3450136
86	0xbde8a8d6	-0.11360328
87	0x3d7133b1	0.058887187
88	0xbdb7e447	-0.08979087
89	0xbe3c44df	-0.18385647
90	0xbda7e9ed	-0.08198915
91	0x3e7abdea	0.24486509
92	0xbe0e2e75	-0.1388491
93	0x3e7ebdf3	0.24877147
94	0xbe4f22c3	-0.20228104
95	0x3d93f8c3	0.07225182
96	0x3e38228c	0.17981929
97	0xbe4c1ba3	-0.19932418
98	0x3e4e4f37	0.20147406
99	0xbe6d7920	-0.23190737
100	0x3e4e854a	0.20168033
101	0xbcd6b0a4	-0.026207276
102	0xbdd73ed9	-0.10510034
103	0xbca16139	-0.01969968
104	0xbd2a81c1	-0.04162765
105	0xbc5589d9	-0.013033354
106	0x3a72ec03	0.0009266736
107	0x3e28c28a	0.16480461
108	0x3e0c61d7	0.13709198
109	0xbd00e5b4	-0.031469062
110	0x3e381dec	0.17980164
111	0x3e892f38	0.26793838
112	0x3d826482	0.063668266
113	0xbdbed63c	-0.09318206
114	0x3dd2eab9	0.10298676
115	0xbdf7b2af	-0.12094628
116	0xbd05adc7	-0.03263643
117	0xbe4a9ed9	-0.19787158
118	0x3dbbf63a	0.09177823
119	0x3dd35c87	0.103203826
120	0xbe1f985f	-0.15585469
121	0xbda8c7cf	-0.082412355
122	0xbd6df2c9	-0.058092866
123	0x3a0c20cc	0.0005345463
124	0x3de055ac	0.109538406
125	0xbe83a75d	-0.25713626
126	0xbdda782b	-0.106674515
127	0x3cfb47e5	0.03067393
128	0xbeacd516	-0.33756322
129	0xbe0c1ff3	-0.13684063
130	0xbdd1851a	-0.10230465
131	0xbdce05b4	-0.100596815
132	0x3daba08d	0.08380232
133	0xbd84ee1f	-0.064907305
134	0xbd84f723	-0.0649245
135	0xbd2d41a9	-0.042298947
136	0x3d833332	0.06406249
137	0x3cc1aa6e	0.023640838
138	0xbd7be177	-0.061494317
139	0x3deb3f0f	0.11486637
140	0xbb98a60c	-0.004658466
141	0x3dc50f53	0.096220635
142	0x3d6f9db4	0.058500007
143	0xbd88542a	-0.06656678
144	0xbd9b1d96	-0.075740024
145	0x3e3ab2dd	0.18232293
146	0xbd23a3d1	-0.03995115
147	0xbe7444a5	-0.23854311
148	0xbc51b6c7	-0.012799925
149	0xbeadeace	-0.33968204
150	0xbd702504	-0.05862905
151	0x3ddb799e	0.10716556
152	0x3de1807c	0.110108346
153	0xbdb72f5b	-0.08944579
154	0x3d7cdec1	0.061735872
155	0xbb3d3aa2	-0.002887406
156	0xbda5c1dc	-0.08093616
157	0x3aa59aa8	0.0012634592
158	0xbc82119c	-0.015877537
159	0x3e01ab80	0.12663078
160	0xbed12573	-0.40848884
161	0x3d6e456c	0.058171675
162	0x3e249819	0.16073646
163	0x3db6144c	0.0889059
164	0x3d66ee90	0.056379855
165	0x3e7c7950	0.24655652
166	0xbd89e354	-0.067328125
167	0xbe34c879	-0.17654599
168	0xbc0c9db4	-0.008582521
169	0xbbe85411	-0.0070900996
170	0xbdd9b8ef	-0.106309764
171	0xbbe49bdc	-0.0069765877
172	0xbe89f7e3	-0.26946935
173	0xbe1f2d30	-0.15544581
174	0x3e3109f2	0.1728895
175	0x3e10b4ac	0.14131421
176	0x3b3957db	0.0028281126
177	0x3e76b55b	0.24092619
178	0xbc4729eb	-0.01215599
179	0x3e498b9d	0.19682164
180	0x3d6b213a	0.057404734
181	0xbeaf8773	-0.34283027
182	0x3c6c141b	0.01440909
183	0x3d805cdb	0.06267711
184	0xbda6d23b	-0.08145567
185	0x3dbc18f5	0.09184448
186	0x3e1a79af	0.15085481
187	0x3e9431ea	0.2894433
188	0x3e149b21	0.14512302
189	0xbe0962f5	-0.13416655
190	0xbe57b62a	-0.21065584
191	0xbe027962	-0.12741616
192	0x3b56793a	0.0032726065
193	0x3d8c3631	0.06846274
194	0x3e624cc9	0.22099604
195	0x3d03dd9d	0.03219377
196	0xbd1a3dda	-0.037656642
197	0xbd336421	-0.043796662
198	0xbd795e68	-0.06088105
199	0x3db53239	0.0884747
200	0x3dfdfb07	0.12401395
201	0xbda7fa6b	-0.0820206
202	0xbc1daa70	-0.009623155
203	0x3c5cce69	0.013476946
204	0x3e1a9341	0.15095235
205	0x3ddf934a	0.10916765
206	0xbb1a51a2	-0.0023547192
207	0xbd5e2878	-0.054237813
208	0xbd662421	-0.0561868
209	0x3d3f0605	0.0466366
210	0xbda4fd84	-0.08056167
211	0x3d7a2967	0.06107464
212	0xbd8417d8	-0.0644986
213	0xbb93eaf1	-0.004514091
214	0xbe049d1a	-0.12950554
215	0x3d5d3a5b	0.05401073
216	0xbe208a23	-0.15677695
217	0xbb935d85	-0.0044972324
218	0xbe1b0137	-0.15137182
219	0xbd4ed72b	-0.05049817
220	0x3cfa84c9	0.030580895
221	0xbe1d2d22	-0.15349248
222	0x3d9875da	0.074443534
223	0x3c7291a7	0.014805234
224	0x3dfd3a22	0.123646036
225	0x3e0b07b8	0.13577163
226	0x3db79ee5	0.089658536
227	0xbe2254a5	-0.15852602
228	0x3b082f26	0.0020780056
229	0xbe1b7bb0	-0.15183902
230	0xbe34c6a0	-0.17653894
231	0x3e6ff32d	0.23432608
232	0xbe045aef	-0.12925313
233	0xbe85b620	-0.26115513
234	0x3e2dbd1c	0.16966671
235	0xbe006bde	-0.12541148
236	0x3e3aff34	0.18261415
237	0xbddbf7e2	-0.10740639
238	0xbe586563	-0.21132426
239	0xbe6586aa	-0.22414652
240	0x3cb9e069	0.022690015
241	0xbe5de694	-0.2166999
242	0x3e404e85	0.18779953
243	0x3dc85ba5	0.09783105
244	0xbe12087a	-0.14261046
245	0xbd98672a	-0.07441552
246	0x3cd8746e	0.026422706
247	0x3e15ea52	0.14640167
248	0xbdd0cc0d	-0.101951696
249	0xbd8bba32	-0.06822623
250	0xbe661bde	-0.22471568
251	0x3e3aa713	0.18227796
252	0xbd1bf8f5	-0.03807922
253	0xbdbd85fc	-0.09254071
254	0xbe0f541a	-0.13996926
255	0xbd818c11	-0.06325544

network_body._body_endoder.seq_layers.0.bias f4 [256]
0	0x3be91c80	0.007113993
1	0xbc0e0fc7	-0.008670754
2	0xbc7d4c35	-0.015460064
3	0x3b7307c8	0.0037083495
4	0xbca998f4	-0.020702817
5	0xbc792d29	-0.015208521
6	0x3c1186c9	0.008882233
7	0xbaab8e9d	-0.0013088767
8	0x3ab64496	0.0013905938
9	0xbb6752ff	-0.0035297272
10	0xbcfbd50c	-0.030741237
11	0xbb685d17	-0.0035455876
12	0x3c01aa48	0.007914133
13	0xbc9287a3	-0.017886942
14	0xbbae387e	-0.005316793
15	0xbb596207	-0.003317
16	0xbc9c5949	-0.019085543
17	0x3bc744f1	0.0060812165
18	0x3c1baab1	0.009501145
19	0x3c32b410	0.010907188
20	0xbb7f7c35	-0.0038983945
21	0xbb661b27	-0.00351114
22	0xbc8f5ef8	-0.01750134
23	0x3bf49f04	0.007465245
24	0xb926f14b	-0.00015920882
25	0xbcfb2434	-0.030656911
26	0xbc7f99cc	-0.015600633
27	0xbcbe5547	-0.023234023
28	0x3c18be52	0.00932272
29	0xbb0731a7	-0.002062896
30	0xb9cc8cf3	-0.00039014927
31	0xbbeb4e44	-0.007180961
32	0xbca97016	-0.02068333
33	0xbc481cb4	-0.012213875
34	0xbc73eb8a	-0.0148877
35	0x3ba092ae	0.004900298
36	0xbbfdc4e9	-0.007744421
37	0x3ba8a369	0.005146433
38	0xbc1b3481	-0.009472967
39	0xb9c9fbf9	-0.00038525442
40	0x3c826909	0.015919225
41	0x3bb8903b	0.005632428
42	0xbc019efd	-0.007911441
43	0x3bb80be7	0.0056166532
44	0x3b701750	0.003663499
45	0x3c45689c	0.012048867
46	0xbc08259c	-0.008309748
47	0xbbf24f1a	-0.0073946835
48	0xbc1aaa45	-0.0094400095
49	0xbb8b651a	-0.0042539956
50	0x3b02b9ad	0.0019947097
51	0xbbf45a4a	-0.0074570524
52	0xbbb011c4	-0.0053732116
53	0xbaed970a	-0.0018126678
54	0xbc17ccae	-0.009265108
55	0x3b9f9424	0.0048699547
56	0x3bf28d3c	0.0074020904
57	0xbc0ec4f7	-0.008713952
58	0x3ba33d55	0.0049816766
59	0xbbe77cfa	-0.007064459
60	0xbaa5ed99	-0.0012659311
61	0xbc3e37d5	-0.011609991
62	0x3bb5ee15	0.005552063
63	0x3c2e757a	0.010648126
64	0x3c72816d	0.014801365
65	0x3b7f0ece	0.0038918736
66	0x3bba62dd	0.005688055
67	0xbb6f13cb	-0.0036480303
68	0x3b5c2c38	0.0033595692
69	0xbcb0c28b	-0.02157714
70	0x3c07f511	0.0082981745
71	0x3c543344	0.012951676
72	0xbc759ff6	-0.014991751
73	0xbc231ec2	-0.009956064
74	0x3bc6073b	0.0060433424
75	0xbafb0497	-0.0019151148
76	0xbc789d02	-0.015174152
77	0xba365f99	-0.0006956994
78	0x3af68bb5	0.0018809946
79	0xbc8bf641	-0.017085196
80	0xba08111d	-0.00051905384
81	0xbc35af0f	-0.0110891005
82	0xbcca979a	-0.024730492
83	0x3ce34bd4	0.027746119
84	0xbce032ed	-0.027368033
85	0x3b472293	0.0030385598
86	0xbbe67127	-0.007032532
87	0x3b9febfe	0.0048804274
88	0x3ab06eb7	0.001346073
89	0x3ac76e52	0.0015215373
90	0x3baa1634	0.005190635
91	0x3b9a7051	0.004713096
92	0xbca926c7	-0.020648373
93	0x3c5328b3	0.012888121
94	0xbc700654	-0.014649946
95	0xbc2fc69e	-0.010728506
96	0xbb70b1e5	-0.0036727127
97	0xbbafa86b	-0.005360653
98	0x3bee965c	0.007281108
99	0xbbfab8a3	-0.007651405
100	0xbb34d7b4	-0.002759439
101	0xbc447772	-0.011991369
102	0x3ab22c03	0.0013593439
103	0xbb520a3c	-0.0032049557
104	0xbc2d7919	-0.010587954
105	0x3c7a7b4f	0.015288188
106	0xbc715d46	-0.014731711
107	0x3ccb6758	0.024829552
108	0xbca47a46	-0.020077836
109	0xbc6c5462	-0.014424415
110	0x3b854535	0.004067088
111	0x3c057600	0.008145809
112	0x3bfb9d2a	0.0076786475
113	0xbc054aed	-0.0081355395
114	0x3b883783	0.004157008
115	0xbb8ab2a0	-0.0042327195
116	0xbc278270	-0.01022397
117	0xbd130876	-0.03589674
118	0xbcf6b91b	-0.030117562
119	0xb9ec68fc	-0.00045091647
120	0xbc442a41	-0.011972965
121	0x3c85c75a	0.01633041
122	0x3b6ae1b3	0.0035840094
123	0x3bbed950	0.0058242455
124	0x3beeb3c6	0.0072846143
125	0x3c4e04d7	0.012574396
126	0x3c59e7b1	0.013299868
127	0xbc9c4cd1	-0.019079598
128	0xbd09b1a6	-0.033616684
129	0xbba75dd8	-0.0051076226
130	0xbccd8de6	-0.025092077
131	0x3c447b64	0.011992309
132	0xbbf6a64f	-0.0075271497
133	0xbcf11bfc	-0.02943229
134	0xbc88f015	-0.016716043
135	0xbc2ac437	-0.010422758
136	0xbc521a76	-0.012823692
137	0x3ae4123a	0.0017400451
138	0x3c35d359	0.0110977525
139	0xbc85441d	-0.01626783
140	0xbc131359	-0.008976781
141	0x3cbe9ee8	0.023269132
142	0xbc465dba	-0.012107307
143	0xbcaea9c6	-0.021321189
144	0x3bec1c7c	0.007205544
145	0xbc8d5faa	-0.01725753
146	0xbbe832f3	-0.0070861517
147	0x390bb9a5	0.00013325231
148	0xbb5f1e20	-0.0034045056
149	0xbb9bf774	-0.0047597233
150	0xba70896b	-0.00091757503
151	0xbb97335e	-0.0046142777
152	0x395bcf81	0.00020962769
153	0x3a96c405	0.001150251
154	0xbc938ec8	-0.01801242
155	0x3aac8e67	0.0013164998
156	0xbcde3817	-0.027126355
157	0xbb669b11	-0.0035187642
158	0x3c277ceb	0.010222654
159	0x3a45ea71	0.0007549888
160	0x3c003814	0.00782587
161	0x3b9672c1	0.0045913165
162	0xbce9bb08	-0.028531566
163	0xbaa472ff	-0.0012546479
164	0x3c3514e4	0.011052344
165	0x3cacb56a	0.021082599
166	0x3d005fe0	0.031341434
167	0xbbce755f	-0.006300613
168	0xbc811519	-0.01575713
169	0xbb132896	-0.002245461
170	0x3b9f394f	0.0048591266
171	0xbc212d3a	-0.009837443
172	0x3bef4f86	0.007303181
173	0xbca58591	-0.020205291
174	0xbc217c38	-0.009856276
175	0x3cbb4b17	0.022862954
176	0xbbb8417f	-0.005623042
177	0x3b014acf	0.0019728427
178	0xbbdd1fd7	-0.0067481804
179	0xbc87910f	-0.016548662
180	0xbc2fa366	-0.01072011
181	0xbc7c4acd	-0.015398693
182	0xba8ac8b1	-0.0010588375
183	0xbc838ae7	-0.016057445
184	0x3d21249f	0.039341565
185	0x3a073a6a	0.00051585457
186	0xbb9215ec	-0.0044581797
187	0xbc3be53c	-0.011468228
188	0x3aa7dc34	0.0012806715
189	0xbc6d14f4	-0.014470328
190	0xbc0360df	-0.008018701
191	0x3b119cb8	0.0022218656
192	0xbc4e80bd	-0.012603936
193	0x3ba929ef	0.0051624696
194	0x3a398121	0.00070764316
195	0xbc5d93b2	-0.013523983
196	0xbc0f8e24	-0.008761916
197	0xba45a976	-0.0007540205
198	0xbc82e9f7	-0.015980704
199	0xbbf6ace3	-0.007527934
200	0xbca473f0	-0.020074815
201	0xbca86a13	-0.020558393
202	0xbb9e9432	-0.0048394436
203	0xbb64404d	-0.0034828365
204	0xbb150144	-0.002273635
205	0xbba9a1f2	-0.005176776
206	0xbb24e20d	-0.002515915
207	0x3bcb6698	0.0062072985
208	0xbbc44abb	-0.005990354
209	0x3bbbe310	0.005733855
210	0xbaf61389	-0.0018774132
211	0xbc47f765	-0.01220498
212	0xba28e287	-0.00064424466
213	0x3c40e32c	0.011772912
214	0xbc328114	-0.010895032
215	0xbccc3da7	-0.024931742
216	0x3c15c53c	0.009141263
217	0xbce50d41	-0.027960422
218	0xbbe6c7f5	-0.0070428797
219	0xbb323034	-0.0027189376
220	0xba80c3d1	-0.0009823983
221	0xbcae8cb6	-0.02130733
222	0xbbf6ac68	-0.0075278766
223	0xbc39b7f6	-0.011335364
224	0x3b695531	0.0035603757
225	0xbc39a60e	-0.011331094
226	0x3a13c045	0.00056362554
227	0x3b072916	0.0020623854
228	0x3ad720ec	0.001641301
229	0x3c02ebef	0.007990821
230	0x3b230502	0.002487481
231	0xbc6c753c	-0.014432248
232	0xb94c1ed0	-0.00019466435
233	0x3bc15856	0.005900423
234	0x3c553db2	0.013015198
235	0xbb9fa011	-0.0048713763
236	0xbc818e74	-0.015814997
237	0xbc86c77a	-0.01645254
238	0xbb031fde	-0.0020008008
239	0x3bd0391e	0.006354465
240	0xbb259564	-0.0025266046
241	0xbc89338b	-0.01674821
242	0x3bd37420	0.006453052
243	0xbd0c9540	-0.034322023
244	0xbbd6d0fe	-0.0065556755
245	0xbc30060f	-0.010743632
246	0x3b3736db	0.002795628
247	0xbc8372e4	-0.016045995
248	0x3bcc4b89	0.0062345904
249	0xbc4c8ca4	-0.012484703
250	0xbb4b5906	-0.0031028404
251	0xbc479508	-0.012181528
252	0xba843e43	-0.0010089356
253	0xbccb90bc	-0.024849288
254	0xbc7798d6	-0.0151121225
255	0xbbfe6fda	-0.0077647986

network_body._body_endoder.seq_layers.2.weight f4 [256, 256]
0	0xbd893716	-0.0669996
1	0x3da0587e	0.078293785
2	0xbdc63dc6	-0.09679751
3	0x3da9396c	0.082629055
4	0xbcde4c11	-0.02713588
5	0x3c565d8f	0.01308383
6	0x3dc127db	0.0943143
7	0xbc080cf5	-0.00830387
8	0x3bfa65d2	0.0076415325
9	0xbca4585d	-0.020061666
10	0x3c8dd5c1	0.01731384
11	0xbd8f09de	-0.06984304
12	0xbd952425	-0.07282285
13	0x3d45faa7	0.048334744
14	0x3d0a60fd	0.0337839
15	0x3db0faf1	0.08641613
16	0xbc53c24e	-0.012924744
17	0x3cc32ff1	0.023826571
18	0xbc138170	-0.009003028
19	0xbbcb9f44	-0.0062140543
20	0xbdda18ac	-0.10649237
21	0xbc9b596d	-0.01896354
22	0xbc32febe	-0.010924993
23	0xbe4f7af7	-0.20261751
24	0xbd17102c	-0.036880657
25	0xbc67d38f	-0.014149561
26	0x3d8ad871	0.06779564
27	0x3d50ee5d	0.05100857
28	0xbd4f9a27	-0.05068412
29	0xbd1f6b46	-0.038920663
30	0x3c932c93	0.01796559
31	0x3bb0c403	0.00539446
32	0x3d97bd9a	0.074092105
33	0xbd997342	-0.07492687
34	0xbd6baf06	-0.057539962
35	0xbcf3b716	-0.029750388
36	0xbd6388aa	-0.055550255
37	0xbc86040b	-0.01635935
38	0xbdcd15e5	-0.10013942
39	0xbca1812e	-0.019714918
40	0x3d3ee6b1	0.046606723
41	0xbdbd99e3	-0.09257867
42	0x3cd8cefe	0.026465889
43	0xbde417ba	-0.11137338
44	0x3d021fed	0.031768728
45	0x3cb9ab64	0.022664733
46	0x3d4efeb1	0.05053586
47	0xbceacbf0	-0.028661698
48	0x3d4b34ac	0.04961078
49	0x3d9cc79e	0.076552615
50	0xbd84783d	-0.06468246
51	0xbd4c0928	-0.04981342
52	0x3c0938a5	0.0083753215
53	0x3d51be0b	0.05120663
54	0xbc72443e	-0.014786778
55	0x3be64eb3	0.0070284246
56	0xbcb04768	-0.021518424
57	0xbd153be5	-0.036434073
58	0xbdaa5880	-0.08317661
59	0xbd3e3bdb	-0.0464438
60	0xbdaec949	-0.08534486
61	0x3c90bcda	0.017668176
62	0xbc9590a5	-0.018257448
63	0x3c969ba3	0.01838476
64	0xbe0a7387	-0.13520633
65	0xbd7fabb9	-0.062419627
66	0x3d9aed86	0.07564835
67	0x3ca714f4	0.020395733
68	0xbd51a38c	-0.05118136
69	0xbcde3b66	-0.027127933
70	0x3d6c4ec2	0.057692297
71	0xbdbbd8ab	-0.091721855
72	0x3c8b138e	0.016977098
73	0x3aada443	0.0013247806
74	0xbd6028a4	-0.054726258
75	0xbc82d633	-0.015971279
76	0x3dba2f04	0.09090999
77	0xbcac37ef	-0.021022765
78	0x3d8906a7	0.06690722
79	0xbb87ba0d	-0.004142052
80	0xbdcc2dcb	-0.09969672
81	0x3ce76f35	0.02825127
82	0xbc3061b2	-0.01076548
83	0x3d281f6e	0.0410456
84	0x3beea9df	0.007283434
85	0xbccf31f9	-0.025292384
86	0xbe1543e8	-0.14576685
87	0xbdbdd8b2	-0.09269847
88	0xbde6a5f9	-0.112621255
89	0xbd199a7b	-0.03750084
90	0x3cf292af	0.02961096
91	0xbd3441b1	-0.04400796
92	0xbd81131a	-0.063024715
93	0xbd5e7c7d	-0.05431794
94	0xbcb97127	-0.022636963
95	0x3d92b0ba	0.07162614
96	0x3df807c8	0.12110859
97	0xbc7d9997	-0.015478513
98	0xbd41e75d	-0.047339786
99	0x3d637885	0.05553486
100	0xbd377a40	-0.04479432
101	0xbdaef62f	-0.085430495
102	0x3d2f9dd2	0.04287512
103	0xbd89b5c3	-0.067241214
104	0xbb57444c	-0.0032847105
105	0x3cd98adc	0.026555471
106	0x3d463663	0.04839171
107	0x3d2f033c	0.042727694
108	0x3cf4a730	0.029864877
109	0x3cc91b24	0.024549074
110	0xbd2228ef	-0.03958982
111	0x3ddac26e	0.10681616
112	0xbbbbc3eb	-0.0057301424
113	0xbd0e43c7	-0.034732606
114	0x3d349a8b	0.044092696
115	0x3d42ffc7	0.04760721
116	0xbcf86cea	-0.030325372
117	0xbdf5f11b	-0.12008878
118	0xbc93d324	-0.018045016
119	0x3d978178	0.07397741
120	0x3dd731b9	0.10507531
121	0x3d19327f	0.037401672
122	0xbbce45e4	-0.0062949527
123	0x3cd5f77d	0.026118988
124	0xbcc6f2c4	-0.024285682
125	0xbd5ac4d6	-0.053410374
126	0x3db26dd0	0.08712351
127	0x3d2d9eac	0.04238765
128	0x3d13c56d	0.03607695
129	0xba3e3182	-0.0007255302
130	0x3d0efd63	0.034909617
131	0xbdb46b4b	-0.08809527
132	0xbbdad9e8	-0.0066788085
133	0x3c413ff1	0.01179503
134	0xbdc8e941	-0.09810115
135	0xbd52c699	-0.05145893
136	0x3d55cbb6	0.052196227
137	0xbcdccf05	-0.026954183
138	0xbd46788b	-0.048454802
139	0xbc93e9ab	-0.018055758
140	0xbd8115f0	-0.06303012
141	0x3c2eccbe	0.0106689315
142	0x3da7e585	0.08198074
143	0x3d2410c9	0.04005507
144	0x3b24c61c	0.0025142496
145	0xbd6d5ffc	-0.057952866
146	0xbdac5aa2	-0.08415724
147	0xbe2370c3	-0.15960984
148	0xbdb8033c	-0.08984992
149	0xbc5bf9af	-0.013426228
150	0xbd851db2	-0.064998046
151	0xbd50d94f	-0.05098849
152	0x3db8a989	0.09016711
153	0x3cbeeda0	0.023306668
154	0xbdae3965	-0.08507041
155	0xbd87e708	-0.066358626
156	0xbd1281bb	-0.035768252
157	0x3b1439e2	0.0022617509
158	0xbc2219c2	-0.009893836
159	0x3dc3425c	0.095341414
160	0x3cca25f0	0.024676293
161	0x3cf02789	0.029315727
162	0xbb4727fe	-0.0030388827
163	0xbc19909a	-0.009372855
164	0xbc736a74	-0.014856923
165	0xbce33ff4	-0.027740456
166	0xbe0fa042	-0.14025977
167	0xbca372c1	-0.01995218
168	0x3ca156e9	0.019694762
169	0x3dda48fa	0.106584504
170	0x3d1eba7e	0.03875207
171	0xbcd576dc	-0.026057653
172	0x3d2bfb2d	0.041987587
173	0x3d97476e	0.07386671
174	0xbde93b09	-0.11388213
175	0xbcedc437	-0.029024227
176	0x3e1fc5b1	0.15602757
177	0xbdf853f6	-0.12125389
178	0x3da129d2	0.07869305
179	0xbc309a17	-0.010778925
180	0xbde5f9f3	-0.11229315
181	0xbd095645	-0.03352954
182	0xbc91fa05	-0.017819414
183	0xbcd23503	-0.025660044
184	0x3dca6c9e	0.09883998
185	0x3dbd50db	0.092439376
186	0xbc82db04	-0.015973575
187	0xbbb232f6	-0.005438204
188	0xbdc0c9c0	-0.09413481
189	0xbbb67865	-0.0055685514
190	0x3d051040	0.0324862
191	0x3dabcfcc	0.083892435
192	0x3cbc8f6c	0.023017608
193	0x3d544742	0.05182577
194	0x3db162c6	0.08661418
195	0xbc98f9d0	-0.018673807
196	0xbd16480b	-0.0366898
197	0xbcaab711	-0.020839246
198	0xbd4bdfee	-0.049774103
199	0xbd88ec9e	-0.06685756
200	0x3d3a85da	0.045537807
201	0xbd6b4313	-0.057437014
202	0xbd76891e	-0.06018936
203	0xbd87c385	-0.06629089
204	0xbdd2923d	-0.10281799
205	0xbd4c5a4b	-0.049890798
206	0xbc5f830c	-0.013642084
207	0x3d3fc0ec	0.046814844
208	0x3caf1564	0.021372505
209	0xbe12edd0	-0.14348531
210	0xbab1fbb4	-0.0013579042
211	0x3d21bf19	0.039488886
212	0xbdab7ff2	-0.08374013
213	0xbd345179	-0.04402301
214	0xbdbab483	-0.09116461
215	0xbd9a56b9	-0.07536072
216	0xbe0565be	-0.13027093
217	0xbd7ccf57	-0.061721172
218	0x3b40b107	0.0029402392
219	0xbd14471a	-0.03620062
220	0x3d203e2c	0.03912179
221	0x3da256d5	0.07926718
222	0xbcc351cf	-0.02384272
223	0x3d165ed1	0.036711518
224	0xbcf2e0f7	-0.029648287
225	0xbdd463e4	-0.10370615
226	0xbcdf9cb9	-0.02729641
227	0xbd30b481	-0.043140892
228	0xbcff530a	-0.031167526
229	0x3d07ad93	0.033124518
230	0x3c81ec5d	0.015859777
231	0xbcb4fca0	-0.022093117
232	0xbd7d684e	-0.06186705
233	0xbcb535ea	-0.022120435
234	0xbd76e9a6	-0.06028142
235	0xbe0d1a28	-0.13779509
236	0xbc93ce91	-0.018042834
237	0xbd6ac938	-0.057320803
238	0xbd08f8ed	-0.03344052
239	0x3e2fa880	0.17154121
240	0xbc09781a	-0.008390451
241	0x3d9d6a84	0.07686332
242	0x3d6847bc	0.056709036
243	0xbd6edb62	-0.05831469
244	0xbd78b290	-0.060717165
245	0xbd22758f	-0.039662894
246	0x3d5cc083	0.05389453
247	0x3d013305	0.031542797
248	0xbd3ea411	-0.046543185
249	0xbb05c541	-0.0020411762
250	0x3d615640	0.055013895
251	0xbbeb8849	-0.0071878773
252	0xbc4d34dd	-0.012524811
253	0x3dfaebe7	0.12252026
254	0x3d430953	0.047616314
255	0xbd08904c	-0.033340737

network_body._body_endoder.seq_layers.2.bias f4 [256]
0	0xbc039deb	-0.008033256
1	0xbbc7d05e	-0.0060978374
2	0xbbbec931	-0.0058223237
3	0x3b910b96	0.00442643
4	0x3987dad3	0.00025912243
5	0x3c46500a	0.012104044
6	0xbb7d7c94	-0.003867899
7	0xbc84c942	-0.016209248
8	0xbbed4d44	-0.007241877
9	0x3aaca94a	0.0013173011
10	0x3ad4354f	0.0016190204
11	0x3b8f6623	0.0043761893
12	0xbc1c43ed	-0.009537679
13	0xbc2c9de4	-0.010535691
14	0xbb6212de	-0.003449611
15	0x3c6f2953	0.014597255
16	0xbc69ebee	-0.014277441
17	0xbc1129f0	-0.008860096
18	0xbc87f28b	-0.016595146
19	0xbcf1f000	-0.029533386
20	0x3b526372	0.003210273
21	0xbc683bf1	-0.014174447
22	0xbbadc1ab	-0.005302628
23	0x3b305497	0.0026905888
24	0x3baaa0fc	0.005207179
25	0x3baab1f1	0.0052092005
26	0xbb31fc71	-0.0027158523
27	0x3c90e12f	0.0176855
28	0x3bc8695e	0.0061160764
29	0xbc1679e7	-0.009184337
30	0xbc3c26b0	-0.011483833
31	0xbb74b8b4	-0.0037341537
32	0x3c105985	0.008810406
33	0xbbc59ef8	-0.0060309134
34	0x3bc8d4a7	0.0061288658
35	0x3bc76a22	0.00608565
36	0xbbf5b4fb	-0.007498381
37	0xbc8b6b0c	-0.017018817
38	0xbc2f2e51	-0.010692195
39	0xbbb4d6b9	-0.005518761
40	0xba94a9a6	-0.0011342063
41	0x3ba7d7be	0.005122154
42	0x3bbe9403	0.005815984
43	0x3b0b4e2f	0.0021256318
44	0x3b9e1805	0.0048246407
45	0xbbd4af61	-0.0064906334
46	0xbbba9c14	-0.0056948755
47	0xbbac4634	-0.0052573923
48	0xbb219fb0	-0.0024661832
49	0xbc484525	-0.012223517
50	0xbc03e3fc	-0.008049961
51	0x3af0d2e6	0.00183734
52	0xbd025110	-0.03181559
53	0xbc3c9f78	-0.01151263
54	0x3c5a5ac0	0.013327301
55	0xbc806241	-0.015671851
56	0xbcff2b63	-0.031148618
57	0xbb53aacf	-0.0032297855
58	0xbcf13816	-0.02944569
59	0xbccd240b	-0.0250416
60	0xb9c4f43d	-0.00037566005
61	0xbc65f6ff	-0.014035939
62	0xbc50f8d7	-0.012754641
63	0x3b858765	0.004074978
64	0x3caf9dfc	0.021437638
65	0xbc2d9496	-0.010594508
66	0x3c6b4583	0.014359835
67	0x3aaa6599	0.0013000249
68	0xbbbc7292	-0.0057509625
69	0xbbedbb50	-0.0072549954
70	0xbc77da53	-0.015127736
71	0x3baea02d	0.005329153
72	0xbba21e0b	-0.004947429
73	0x3b5fcd09	0.003414931
74	0x3bbb756c	0.005720785
75	0xbbc742b7	-0.006080951
76	0xbb87e2f2	-0.004146927
77	0xbc04d6a5	-0.008107816
78	0xbc1dd30e	-0.009632839
79	0xbc56855b	-0.013093318
80	0xbc261a84	-0.010138158
81	0xbc2f5cd8	-0.010703288
82	0x3bc29ff7	0.0059394795
83	0x3a1a539c	0.00058870926
84	0xbc83f95d	-0.016110117
85	0xbc4fd079	-0.012683981
86	0x3c4d9f40	0.012550175
87	0x3b51caae	0.0032011676
88	0xbb7242fa	-0.003696619
89	0x3ba16820	0.0049257427
90	0xba2645ae	-0.00063427805
91	0x3c2c76f9	0.010526412
92	0xbb149652	-0.0022672606
93	0x3bcf55fc	0.006327389
94	0xbc16ebc3	-0.009211483
95	0xbc06b986	-0.008222943
96	0xbcad3d96	-0.02114753
97	0xbbfa0a89	-0.0076306504
98	0x3b86166d	0.004092029
99	0xba8a714d	-0.0010562331
100	0xbbb96b2a	-0.005658527
101	0x3b275efa	0.0025538788
102	0xbc53d8b3	-0.012930083
103	0x3c232036	0.00995641
104	0x3c7cfd7b	0.015441294
105	0xbc778dd7	-0.015109501
106	0xbb1157d7	-0.00221776
107	0x39dfd8d4	0.00042695424
108	0x3c350a6a	0.011049846
109	0xbba12438	-0.0049176477
110	0x3b97a640	0.004627973
111	0xbbfcd678	-0.0077159964
112	0x3c3d45a9	0.011552253
113	0x3b32ae6c	0.0027264608
114	0x3a8089e4	0.000980672
115	0x3a03926d	0.00050190726
116	0xba7ee39b	-0.0009723247
117	0xbcbdaed5	-0.023154655
118	0xbc870e9d	-0.01648646
119	0xbb6f1661	-0.0036481845
120	0x3b8e4866	0.0043421267
121	0x3be1a6c0	0.006886333
122	0xbc86fe51	-0.01647869
123	0x3c6fc994	0.014635462
124	0xbc49d15c	-0.012317982
125	0x3c34ad71	0.01102768
126	0xbcb3da4c	-0.021954678
127	0x3b4e9f25	0.0031527963
128	0x3b184a06	0.002323748
129	0x3c3861c7	0.011253781
130	0xbbe930f1	-0.00711643
131	0xbb9969ea	-0.0046818154
132	0xbc2198bd	-0.009863076
133	0xbc69a813	-0.014261263
134	0x3c1b9710	0.009496465
135	0xba43965a	-0.0007461064
136	0x3beb98a1	0.0071898256
137	0xbc1608ab	-0.00915734
138	0xbc22b415	-0.00993063
139	0x3b86b8e2	0.004111395
140	0xbc657cda	-0.014006818
141	0x39a21851	0.00030917165
142	0x3b5dd0ab	0.00338463
143	0x3c44bd72	0.012008058
144	0xbb1a8b5c	-0.00235816
145	0x3c01e454	0.007927973
146	0x3c0008e8	0.007814623
147	0x3c387155	0.011257489
148	0xbbedbd48	-0.00725523
149	0xbc026a65	-0.007959937
150	0xbbb6e5d4	-0.005581597
151	0x3bdc7b9e	0.0067286035
152	0x3c8060df	0.015671192
153	0x3b81caf0	0.0039609596
154	0xbca1dd84	-0.019758947
155	0x3ab3042e	0.0013657862
156	0xbc0c286d	-0.00855456
157	0xbc05524c	-0.008137297
158	0xbc28184e	-0.010259701
159	0xba6a4d56	-0.00089379156
160	0xbb7ab773	-0.0038256317
161	0x3a76db79	0.0009416859
162	0x3bf80261	0.007568643
163	0xbb38ac1f	-0.0028178764
164	0xbc5316f6	-0.012883892
165	0xbcab8dbf	-0.020941613
166	0x3c0ef625	0.008725678
167	0xbc8b238d	-0.016984725
168	0xbb81cb6a	-0.0039610164
169	0xbabb4665	-0.0014287947
170	0xbb11a17c	-0.0022221496
171	0xb9c80eb0	-0.00038157916
172	0xbb8ddebb	-0.00432953
173	0x3a3ba5d3	0.00071581936
174	0x39268ee6	0.00015884227
175	0xbb2e44de	-0.002659134
176	0x3be06576	0.0068480326
177	0xba3ef41b	-0.00072842994
178	0xbc0dc382	-0.00865257
179	0xbc205fec	-0.009788495
180	0xbbd5fa35	-0.006530071
181	0xbbadb28a	-0.0053008245
182	0xbb29db9d	-0.0025918253
183	0xbad27c6a	-0.0016058807
184	0xbc342094	-0.010994095
185	0xbca5f926	-0.020260405
186	0x3b7691e8	0.0037623588
187	0x3c814ab8	0.015782699
188	0xbc0c9de2	-0.008582564
189	0xbb5cb1ba	-0.003367527
190	0xbc244b23	-0.01002768
191	0x3c3c6c57	0.01150044
192	0xbada6199	-0.0016661166
193	0xbc1d2bdf	-0.009592979
194	0x3ba72832	0.005101227
195	0x3bedfaba	0.007262555
196	0xbad88557	-0.001651923
197	0xbc5bcba4	-0.013415251
198	0xbbfe746a	-0.0077653425
199	0x3b1b85ef	0.0023730954
200	0x3c0a7462	0.008450599
201	0x3c093f0f	0.008376851
202	0xbc24166f	-0.010015114
203	0xbc1d5932	-0.009603785
204	0xbb95eefe	-0.004575609
205	0xbc4f1a5a	-0.01264056
206	0xbc0bd8f6	-0.008535614
207	0x3c32c621	0.010911495
208	0x3c210195	0.009827037
209	0xbb077739	-0.0020670427
210	0xbcc3c0ba	-0.02389561
211	0x3b855429	0.0040688706
212	0xbbba13f3	-0.0056786477
213	0x3c3902d1	0.011292175
214	0xbad1dc93	-0.0016011171
215	0xbc18b78f	-0.0093211075
216	0x3b4d5718	0.003133243
217	0xbbbc865b	-0.005753321
218	0xbc17cdd9	-0.0092653865
219	0xbcb70596	-0.02234153
220	0xbb91b5e6	-0.004446733
221	0xbc1f3d5d	-0.00971922
222	0xbc802ec7	-0.015647305
223	0xbc4a266a	-0.01233826
224	0x3c9b046a	0.018923003
225	0xbc3cae8b	-0.011516224
226	0x3bc438d9	0.005988222
227	0x39eec0c2	0.00045538513
228	0xbc9e42bd	-0.019318933
229	0xbba98004	-0.0051727314
230	0x3bf93506	0.007605198
231	0x3b9f6fe4	0.0048656333
232	0x3c2bc92c	0.010484975
233	0xbc5ba0f9	-0.013405078
234	0xbabf4111	-0.0014591535
235	0xbc6182f8	-0.013764136
236	0x3b038cf8	0.0020073038
237	0xbbc73d0d	-0.006080276
238	0x39a84468	0.00032094424
239	0x39be08db	0.00036246222
240	0x3ba8c27d	0.005150138
241	0xbc7e099c	-0.015505221
242	0xba003307	-0.0004890416
243	0x3b3ff3b2	0.002928954
244	0xbc7459a4	-0.01491395
245	0xbb2bf6cc	-0.0026239632
246	0xbccceda5	-0.025015661
247	0xba113275	-0.000553883
248	0xbc711149	-0.014713594
249	0xbc8664f8	-0.016405568
250	0xbc80356a	-0.01565047
251	0x3a96e82c	0.0011513284
252	0xbc5bdeb9	-0.0134198
253	0x3bfab413	0.007650861
254	0xbba3117a	-0.0049764486
255	0xbc25c736	-0.010118296

network_body._body_endoder.seq_layers.4.weight f4 [256, 256]
0	0x3d26e50d	0.040745784
1	0x3cca9d20	0.024733126
2	0xbd454c6a	-0.048168577
3	0xbd696daa	-0.05698935
4	0x3e7c6050	0.24646115
5	0xbc96e953	-0.018421805
6	0xbc2f6c5b	-0.010706986
7	0x3dc6aaf7	0.09700578
8	0xb9cbf0fc	-0.00038898725
9	0xbcc32ad3	-0.023824131
10	0xbcac23fb	-0.02101325
11	0xbd1452e5	-0.036211867
12	0x3be6d13d	0.007043986
13	0xbd9bb0ad	-0.076020576
14	0x3b95cc41	0.004571468
15	0x3b77a0e3	0.0037785105
16	0xbd87199b	-0.06596681
17	0xbc6eea40	-0.014582217
18	0xbc188c23	-0.009310755
19	0xbd148f82	-0.036269672
20	0x3d8a25b8	0.067454755
21	0x3cd382bc	0.025819175
22	0x3b0e8225	0.0021745053
23	0xbcb2990c	-0.021801494
24	0xbdb7a025	-0.08966092
25	0x3c968b10	0.018376857
26	0xbc919705	-0.017772207
27	0xbd64f26f	-0.055895265
28	0xbcb339d7	-0.021878166
29	0x3cebb5be	0.028773185
30	0x3d47c89c	0.0487753
31	0x3c8efbb0	0.017453998
32	0x3c95370f	0.01821473
33	0xbce56c2a	-0.028005678
34	0x3d599d51	0.053128544
35	0x3bcad95f	0.0061904634
36	0x3d48286b	0.04886667
37	0xbd6c8fa4	-0.057754174
38	0x3d251fbd	0.04031347
39	0xbca3bd35	-0.019987682
40	0xbb4cc438	-0.0031244885
41	0xb9caf3bc	-0.0003871004
42	0xbdaa0eba	-0.0830359
43	0x3a8b30b5	0.0010619374
44	0xbe0b7fbf	-0.1362295
45	0x3d2b68ce	0.041847996
46	0x3d00a3d8	0.031406254
47	0xbd0d0f33	-0.034438323
48	0x3b29309e	0.0025816332
49	0x3d63c6a4	0.05560936
50	0xbd2c5a20	-0.042078137
51	0x3dd4f93e	0.10399102
52	0xbbd9e13f	-0.006649166
53	0xbd3e6112	-0.046479292
54	0xbd232f43	-0.039839994
55	0xbd9f2d67	-0.07772332
56	0xbc781b47	-0.015143222
57	0xbd597f0b	-0.053099673
58	0xbd3a35bd	-0.045461405
59	0xbd2d20a5	-0.04226746
60	0x3d460654	0.04834588
61	0x3c569839	0.013097816
62	0x3b29655b	0.0025847766
63	0x3dc9c8d7	0.0985276
64	0x3dda83db	0.10669681
65	0xbe14f834	-0.14547807
66	0x3d35f14a	0.044419564
67	0xbc89e75d	-0.016833955
68	0xbc67af7a	-0.014140958
69	0xbcc5f1f9	-0.024163233
70	0x3d0b077a	0.033942677
71	0x3d64af37	0.05583116
72	0x3d2a95c1	0.041646723
73	0xbdb59e8c	-0.08868131
74	0x3d150b61	0.036387805
75	0xbd0ed062	-0.034866698
76	0xbc0e6545	-0.008691137
77	0xbd25e35c	-0.04050003
78	0xbb3fa6ff	-0.0029243825
79	0xbc2836aa	-0.010266939
80	0xbdcd2a8f	-0.10017883
81	0x3d928168	0.071535885
82	0x3bf735ac	0.00754424
83	0xbd795f96	-0.060882173
84	0xbacaed44	-0.0015482088
85	0x3dd79844	0.10527089
86	0x3df0bb49	0.11754472
87	0x3de7aaaf	0.11311852
88	0x3cfda18c	0.03096082
89	0x3c040d8e	0.008059872
90	0x3d528109	0.05139259
91	0x3e15acbb	0.14616673
92	0xbd976f71	-0.07394303
93	0x3c77a036	0.015113881
94	0xbcc64ae7	-0.024205638
95	0xbd11d4e5	-0.035603423
96	0x3de8eb61	0.1137302
97	0xbd36b498	-0.04460582
98	0x3d17c58d	0.037053633
99	0x3d99648d	0.07489882
100	0x3c08f6d8	0.008359633
101	0xbd18c977	-0.037301507
102	0x3c02351d	0.0079472335
103	0xbde18f36	-0.110136434
104	0x3d83d34f	0.06436788
105	0x3ca0f3ff	0.019647596
106	0xbd9613ea	-0.07328017
107	0xbdba1123	-0.090853
108	0x3dbbdfc3	0.091735385
109	0xbe112914	-0.14175826
110	0x3e1a901e	0.15094039
111	0x3cf18536	0.029482465
112	0xbd01e098	-0.03170833
113	0xbc0e511f	-0.008686333
114	0x3d8a6a86	0.06758599
115	0x3d08c764	0.03339328
116	0xbe007c32	-0.12547377
117	0x3c353bce	0.011061622
118	0xbc1aa83f	-0.009439527
119	0x3c5ab5f1	0.013349042
120	0xbd8cb2f2	-0.068700686
121	0x3d95ff08	0.07324034
122	0xbd59d3a2	-0.053180344
123	0x3d383a72	0.044977613
124	0x3cac3b91	0.021024497
125	0xbb4a45a9	-0.0030864275
126	0xbd25f89c	-0.040520296
127	0xbd1a83eb	-0.037723463
128	0x3d93ad6a	0.072108105
129	0xbc9ed784	-0.019389875
130	0x3cd88b03	0.026433473
131	0xba7765fb	-0.00094374985
132	0xbd6c0f37	-0.057631698
133	0x3cb9aec9	0.022666352
134	0xbd86ae01	-0.06576157
135	0x3d81dcb3	0.06340923
136	0x3d533882	0.051567562
137	0x3c8aeab5	0.01695762
138	0xbd36d5a1	-0.044637326
139	0x3cbc8118	0.023010775
140	0x3c2756fb	0.010213609
141	0xbb0f2a2f	-0.0021845212
142	0x3c234a9d	0.00996652
143	0xbd8f8a59	-0.070088096
144	0x3d733fdb	0.05938707
145	0xbd552f9c	-0.052047357
146	0xbc097209	-0.0083890045
147	0xbca3ba62	-0.019986335
148	0x3ccdb4d4	0.02511064
149	0xbd105238	-0.03523466
150	0x3cb3c0d0	0.021942526
151	0x3dc7246f	0.09723746
152	0x3d1c6fe2	0.038192637
153	0x3df36ef5	0.11886398
154	0x396894ab	0.00022180627
155	0xbda19912	-0.07890524
156	0xbb1f8b73	-0.0024344593
157	0xbdcd4f57	-0.100248985
158	0x3d5cf3d0	0.053943455
159	0xbce883d2	-0.02838317
160	0xbdb87fdd	-0.09008763
161	0xbdeab0f8	-0.11459535
162	0x3d6baef3	0.05753989
163	0xbcbd1f60	-0.02308625
164	0x3d12b794	0.035819605
165	0xbca120db	-0.019668987
166	0xbcdf5820	-0.027263701
167	0xbda44b2c	-0.080221504
168	0xbc133132	-0.008983897
169	0x3d0b4d09	0.034009013
170	0x3d8ce9d9	0.068805404
171	0x3d40c305	0.047060985
172	0x3ba0928c	0.0049002822
173	0xbaf1b135	-0.0018439653
174	0x3cf61d01	0.030043127
175	0xbd1c67a1	-0.038184766
176	0x3cbfd40f	0.023416547
177	0x3dac2116	0.08404748
178	0xbd22e937	-0.039773192
179	0x3d9cfa46	0.07664923
180	0xbd216db5	-0.039411265
181	0x3d95488b	0.07289227
182	0xbdef3ac0	-0.116811275
183	0xbd6528ec	-0.05594723
184	0xbda72d81	-0.08162976
185	0x3d8e8e1c	0.06960699
186	0xbc8708b9	-0.016483651
187	0xbe1fedc9	-0.15618052
188	0x3dafb569	0.08579523
189	0x3d6ddcef	0.058072027
190	0xbd454a03	-0.048166286
191	0x3dcfd3ad	0.10147796
192	0x3d09630e	0.03354173
193	0x3d8a1b99	0.06743545
194	0x3aebb496	0.0017982896
195	0x3d2a0b6c	0.0415148
196	0xbddc7de8	-0.10766202
197	0x3d294872	0.041328855
198	0xbd1770ed	-0.03697293
199	0x3cbdc987	0.023167385
200	0x39c248be	0.0003705676
201	0x3b91d71a	0.004450691
202	0x3dce3b78	0.100699365
203	0xbe1440cb	-0.14477842
204	0xbe1f203f	-0.15539645
205	0x3d6aa8b5	0.057289798
206	0xbca0ca8a	-0.019627828
207	0xbc153fbd	-0.009109435
208	0xbd205900	-0.039147377
209	0x3e08c95c	0.13358063
210	0xbceffb5a	-0.029294658
211	0xbd879e49	-0.066219874
212	0x3d859d8a	0.06524189
213	0xbc8443ab	-0.016145548
214	0xbd092a94	-0.03348787
215	0x3d786c8e	0.0606504
216	0x3b23fee1	0.0025023746
217	0x3d3a00ea	0.045411028
218	0x39964c0f	0.00028666898
219	0xbd3cd006	-0.046096824
220	0xbe035005	-0.12823494
221	0x3d7cc885	0.061714668
222	0xbd7fc3ee	-0.062442712
223	0xbd131511	-0.035908762
224	0x3d157adc	0.03649412
225	0x3d2b97ea	0.041892923
226	0x3d387f07	0.045043018
227	0x3e38a103	0.18030171
228	0xbde75e6f	-0.11297309
229	0xbb8d44d3	-0.004311183
230	0xbcdd6abb	-0.027028432
231	0xbd83aac0	-0.06429052
232	0xbdb8461e	-0.08997749
233	0x3d163039	0.036667082
234	0xbdc6f320	-0.09714341
235	0xbdcca976	-0.099932596
236	0x3d61bcc5	0.055111665
237	0x3ae5bfd5	0.0017528484
238	0xbd341b4c	-0.043971345
239	0x3d234957	0.039864864
240	0x3d28505a	0.041092254
241	0xbe03e5c7	-0.12880622
242	0xbcfcb6fc	-0.030848972
243	0x3d215f00	0.03939724
244	0xbd3d1950	-0.046166718
245	0x3d2d3bcf	0.042293366
246	0xbd7edacf	-0.06222039
247	0xbd47a660	-0.048742652
248	0x3cd53fbf	0.026031373
249	0xbdb05797	-0.086104564
250	0x3dee5d19	0.11638851
251	0xbdc4e00d	-0.09613047
252	0x3d96d905	0.07365612
253	0xbd9f4809	-0.077774115
254	0x3dea8f84	0.11453155
255	0xbc912b90	-0.017720968

network_body._body_endoder.seq_layers.4.bias f4 [256]
0	0xbb798490	-0.0038073398
1	0xbd00bcc5	-0.031430025
2	0xbc689fd7	-0.014198265
3	0xbc96c2a8	-0.018403366
4	0xbbb5c276	-0.005546863
5	0xbc223cfd	-0.009902236
6	0x3bc3fd2f	0.0059811096
7	0xbaf3f398	-0.0018612025
8	0xbbc4c300	-0.006004691
9	0x3a9f6e08	0.0012163529
10	0xbc91a566	-0.017779063
11	0x3b898ebc	0.0041979235
12	0xbaeee489	-0.0018226068
13	0xbc5308a0	-0.012880474
14	0xbb37eba3	-0.0028064034
15	0x3a6091ae	0.000856663
16	0xbb1dfa7c	-0.00241056
17	0xbb1c03e6	-0.0023806035
18	0xbaaacf64	-0.0013031778
19	0x3b991d59	0.004672688
20	0xbc869bf2	-0.016431782
21	0x3be94ca1	0.0071197306
22	0xbc8c99d6	-0.017163198
23	0xbcb6978c	-0.02228906
24	0xbca24973	-0.019810414
25	0x3bd3449e	0.006447389
26	0xbca77d73	-0.020445561
27	0x3b11e19f	0.0022259725
28	0xbb5803c8	-0.0032961238
29	0x3ca446f5	0.020053366
30	0xba1b557d	-0.00059255195
31	0xbbbdc6c4	-0.005791517
32	0xbcf3b1a3	-0.02974779
33	0xbadf9c60	-0.0017060153
34	0xbc43030c	-0.011902582
35	0xbc0b10a7	-0.008487857
36	0xbbf605c4	-0.0075080115
37	0xbb9088bb	-0.004410831
38	0x3c70f593	0.014706987
39	0xbbc9ec93	-0.006162235
40	0xbce03e18	-0.027373359
41	0x3c74ffac	0.014953535
42	0x3be4c49e	0.0069814464
43	0x3b05c3ae	0.0020410824
44	0xbb784d63	-0.0037887923
45	0x3a7c8741	0.00096331915
46	0xbad7dee7	-0.0016469628
47	0xbc676678	-0.014123552
48	0xbc113a08	-0.008863933
49	0xbbadb2fc	-0.0053008776
50	0xba5e3cce	-0.00084776885
51	0xbbd29028	-0.006425876
52	0xbc378354	-0.011200745
53	0xbc6035d2	-0.013684707
54	0x3ba38527	0.004990238
55	0xbbc06e86	-0.0058725504
56	0xba0d19ca	-0.0005382566
57	0x3ca55286	0.020180952
58	0xbc571033	-0.013126421
59	0xbbc52195	-0.006015966
60	0x3c2fb8a4	0.010725174
61	0xbcb52d7a	-0.022116411
62	0xbc3ba44b	-0.011452745
63	0xbc912533	-0.017717933
64	0xbc0b9262	-0.008518787
65	0xbc9b013d	-0.018921489
66	0xbbf5c9be	-0.007500856
67	0x3c82e9af	0.01598057
68	0xbc91d854	-0.017803349
69	0xbb757d34	-0.003745866
70	0x3939889c	0.00017693866
71	0xbbb17b4a	-0.0054163085
72	0x3c4dc309	0.012558707
73	0xbb481dd9	-0.0030535369
74	0xbbc4a9f5	-0.006001706
75	0x3a901834	0.0010993541
76	0xbb559c15	-0.0032594253
77	0xbc1d9733	-0.009618568
78	0xbbd6e055	-0.006557504
79	0xbc4c56be	-0.012471853
80	0x3c14f8a5	0.009092485
81	0xbc3299eb	-0.010900955
82	0x3c47d184	0.0121959485
83	0xbc1725a1	-0.00922528
84	0xba3ffcdf	-0.00073237525
85	0xbceeb395	-0.029138366
86	0xbabf5311	-0.0014596899
87	0x3c2ecd0a	0.010669002
88	0xba3a9e0c	-0.0007118888
89	0x3aaf9260	0.0013395064
90	0x3ae6728f	0.0017581749
91	0x3c002db8	0.0078234
92	0x3c899484	0.01679445
93	0x3c8864fd	0.016649717
94	0x3b856786	0.004071179
95	0xbbaac309	-0.0052112383
96	0xb9c82cc8	-0.00038180337
97	0xbc458dd8	-0.012057744
98	0x3a80cd36	0.0009826783
99	0x3b527a16	0.0032116226
100	0xbc89f01a	-0.016838122
101	0xbc2f36e3	-0.010694238
102	0x3bba6878	0.005688723
103	0x3b11fd42	0.0022276198
104	0xbabe01f8	-0.0014496436
105	0xbbade2b4	-0.005306566
106	0x3b1a717f	0.0023566184
107	0x3b8f1ab3	0.0043671965
108	0xbb7ba0a2	-0.0038395305
109	0x3b39f099	0.0028372167
110	0xbb4e9d47	-0.003152685
111	0xbbd2d917	-0.0064345705
112	0xba9febed	-0.0012201049
113	0xbbca17a9	-0.0061673713
114	0x3c262223	0.010139975
115	0xbb80f2b3	-0.003935182
116	0x3c416e9f	0.011806159
117	0xbc0e47de	-0.008684127
118	0xbc560b94	-0.013064284
119	0xbaf43d9d	-0.0018634085
120	0x3c1e5b3d	0.009665308
121	0x3c731c8d	0.01483835
122	0xbc6919c9	-0.014227339
123	0xbcaffda6	-0.021483254
124	0xba6c60c6	-0.0009017106
125	0xbc508e73	-0.012729275
126	0xbb47a7df	-0.003046505
127	0xbaca01a2	-0.0015411864
128	0xbc3a1fc2	-0.011360111
129	0xbc81e49c	-0.01585608
130	0xba10bf34	-0.00055216555
131	0x3b92b1e7	0.004476774
132	0x3c6758c5	0.014120285
133	0x3b80e0d6	0.0039330525
134	0xbb76eb07	-0.0037676708
135	0xbc630df2	-0.013858305
136	0x3b158dec	0.0022820188
137	0xbbd75ddb	-0.0065724677
138	0xbb9ba9b0	-0.004750453
139	0xbc62ba43	-0.013838354
140	0xbb9c59c6	-0.004771444
141	0xbafa2526	-0.0019084557
142	0xbc41c336	-0.011826327
143	0x3b0a73f4	0.0021126242
144	0xbb515d3d	-0.0031946443
145	0xbad908ea	-0.0016558443
146	0x3bdc4573	0.006722146
147	0x3c712cce	0.014720155
148	0x3b5cbe66	0.0033682822
149	0xbb5ee89b	-0.0034013155
150	0xbccf9685	-0.025340328
151	0xbb9c7f03	-0.004775883
152	0x3c18f931	0.009336756
153	0xbc36c3ee	-0.011155112
154	0xbbdf97ef	-0.006823532
155	0x3b1ccdda	0.0023926408
156	0xbc83c9fe	-0.016087528
157	0xbc19239e	-0.009346871
158	0x3c441d3a	0.011969859
159	0xb9d17da8	-0.00039957208
160	0xbc811b92	-0.015760217
161	0x3c0675ac	0.008206766
162	0xbcad0e37	-0.021124942
163	0x3b424a1d	0.0029646226
164	0xbc451ecb	-0.012031267
165	0xbc31965d	-0.010839072
166	0x3c30a4fb	0.010781522
167	0x3c270e99	0.010196351
168	0x3bab132c	0.0052207913
169	0x3a2f55e7	0.00066885207
170	0x3c072060	0.008247465
171	0xbb8ccf57	-0.004297178
172	0xbcdf0cb3	-0.027227735
173	0xbabb59c7	-0.0014293724
174	0xbb2447e3	-0.0025067262
175	0xbba62e05	-0.005071404
176	0x3bbdc898	0.005791735
177	0x39c635a5	0.0003780547
178	0xbc35cb2b	-0.011095802
179	0x3b9a563f	0.0047099884
180	0xbb9ad8bf	-0.004725545
181	0xbca90768	-0.020633414
182	0xbc889611	-0.01667312
183	0xbc59dde3	-0.013297531
184	0xbcbc3ac3	-0.022977239
185	0x3c946dbd	0.018118734
186	0xbc549954	-0.012976009
187	0xbbe47c75	-0.0069728442
188	0xbbb3744e	-0.005476511
189	0xbc69c411	-0.014267937
190	0xbba8fa22	-0.0051567713
191	0x3b0384de	0.0020068209
192	0xbbaadc11	-0.0052142222
193	0xbb160142	-0.0022888933
194	0x3c9b124c	0.018929623
195	0x3b9708d2	0.0046092058
196	0xbc83c063	-0.016082948
197	0xbc849914	-0.016186275
198	0x3ba240b6	0.004951562
199	0xbbdfa6bb	-0.0068252957
200	0xbc0b8625	-0.008515869
201	0xba322eb9	-0.00067971234
202	0xbafd5221	-0.0019326844
203	0xbbfc2a3c	-0.0076954644
204	0x3b612cfa	0.0034359084
205	0xbc83c2d7	-0.016084118
206	0x3ba5a8d6	0.005055527
207	0xbc953080	-0.018211603
208	0xbb5c2f89	-0.003359767
209	0x3be6fde1	0.0070493077
210	0x3bd0efb7	0.0063762325
211	0xbc545fff	-0.01296234
212	0xb7d237bb	-2.5059902e-05
213	0xbc71a19b	-0.014748002
214	0xbbf2870f	-0.007401354
215	0x3bb5dc08	0.0055499114
216	0xbb94db67	-0.0045427564
217	0xbc7452bf	-0.014912306
218	0x3b405c92	0.0029352051
219	0x3a811a88	0.0009849826
220	0xbb298825	-0.0025868502
221	0xbc3d4d5c	-0.011554088
222	0xbc996178	-0.018723235
223	0xbb88e806	-0.00417805
224	0x3c119f14	0.008888025
225	0xbc83659c	-0.016039662
226	0xbc354623	-0.011064085
227	0x3c5020f8	0.012703173
228	0x3bfae8d3	0.0076571493
229	0x3c242c2d	0.010020298
230	0x3c0fb745	0.008771722
231	0xbacdbf7a	-0.0015697323
232	0x3bc1eb0c	0.0059179123
233	0xbcf110ee	-0.029427018
234	0xbca2ca2c	-0.019871794
235	0xbc81c85c	-0.01584261
236	0xbbca1f57	-0.006168287
237	0x3c01a506	0.00791288
238	0xbc4ccd9c	-0.012500193
239	0x3b206218	0.002447253
240	0x3b5bc308	0.0033532996
241	0xbc857c2d	-0.016294563
242	0xbca58582	-0.020205263
243	0xbb37eb86	-0.0028063967
244	0x39d62056	0.00040841353
245	0xbc7c8c48	-0.015414305
246	0xbbfa2405	-0.0076336884
247	0xbc0b75c5	-0.008511965
248	0xbc7d55a2	-0.015462311
249	0xba2c6f59	-0.00065778714
250	0xbc168d8a	-0.009189019
251	0x3ba2c915	0.0049678185
252	0xbc624b4a	-0.013811896
253	0xbc74e11c	-0.014946248
254	0xbb8990c4	-0.0041981656
255	0xb9447935	-0.0001873717

network_body._body_endoder.seq_layers.6.weight f4 [256, 256]
0	0x3c131358	0.00897678
1	0xbb221cd1	-0.0024736414
2	0xbd97499b	-0.07387086
3	0xbba4c519	-0.0050283787
4	0xbd75fc8e	-0.060055308
5	0x3bf13e11	0.007362135
6	0x3d1e8bfa	0.03870771
7	0x3e0bdc49	0.13658251
8	0x3ba464b1	0.005016886
9	0x3d940a6c	0.0722855
10	0x3da0d345	0.078527965
11	0xbda129ae	-0.07869278
12	0x3cea5396	0.02860431
13	0xbc12e48b	-0.008965622
14	0x3cca3a2b	0.02468594
15	0xbcdf71c9	-0.027275937
16	0x3cd39a1d	0.025830323
17	0x3d6dc352	0.0580476
18	0xbcd2b99e	-0.025723275
19	0x3d1cc39a	0.038272478
20	0x3a2c945b	0.0006583386
21	0xbb80b286	-0.0039275317
22	0x3db792a3	0.089635156
23	0xbd8008f2	-0.06251706
24	0xbc9442c8	-0.01809825
25	0xbc2f8c40	-0.010714591
26	0x3c75851e	0.014985351
27	0x3d626c8e	0.055279307
28	0x3d67c6f6	0.05658623
29	0xbc0116c8	-0.007878967
30	0xbdb87ce2	-0.090081945
31	0xbdce60cf	-0.100770585
32	0x3d8716dd	0.06596158
33	0x3e28e710	0.16494393
34	0xbda7ac39	-0.08187146
35	0xbd94fae3	-0.07274415
36	0xbe227b54	-0.15867358
37	0x3cd91ba6	0.026502442
38	0x3d884378	0.06653494
39	0xbd27a1b2	-0.04092569
40	0xbd5e6713	-0.054297518
41	0xbba1aa91	-0.004933663
42	0x3c21b903	0.00987077
43	0x3c68b020	0.014202148
44	0xbd82f79d	-0.06394885
45	0x3d2c4622	0.04205907
46	0xba1a236c	-0.0005879912
47	0x3dbd1481	0.092324264
48	0xbc833f8f	-0.016021518
49	0xbdb84bb3	-0.089988135
50	0x3d2088f7	0.03919312
51	0x3b5bb9a5	0.00335274
52	0xbddd88c2	-0.108171
53	0x3b8fa972	0.004384213
54	0x3dc28c32	0.094993964
55	0x3dc82f65	0.09774665
56	0x3dcc7fab	0.09985288
57	0xbbd409ce	-0.0064708954
58	0x3bf63cc9	0.0075145704
59	0x3d626bcd	0.055278588
60	0xbd2920e9	-0.04129115
61	0x3de9c2ae	0.11414085
62	0x3c73fd87	0.014891989
63	0xbd704d79	-0.058667634
64	0xbd649045	-0.05580165
65	0xbd95c08c	-0.07312116
66	0xbc75ce6a	-0.015002826
67	0x3bcd6cf5	0.006269092
68	0xbe1ac125	-0.15112741
69	0xbc15e667	-0.0091491705
70	0xbdc070c1	-0.09396506
71	0xbd6a1b33	-0.057154845
72	0xbd4acf5a	-0.049514152
73	0xbbcff205	-0.0063459896
74	0xbbc1409a	-0.0058975937
75	0xbdaaec72	-0.083458796
76	0x3c04dad7	0.008108816
77	0xbdf931b3	-0.121676825
78	0x3d968bd7	0.07350891
79	0x3ce1429a	0.027497578
80	0xbccc95ca	-0.024973769
81	0x3d7b7963	0.06139506
82	0x3d2a4b63	0.0415758
83	0x3d4fb7cd	0.050712395
84	0x3d6ed631	0.058309738
85	0x3dd13e51	0.10216964
86	0x3dd73300	0.10507774
87	0x3b7d1f10	0.003862325
88	0x3c96d701	0.018413069
89	0xbd0e8a5d	-0.034799922
90	0xbdb00809	-0.085952826
91	0xbaab688a	-0.001307742
92	0xbd8b0cdc	-0.06789562
93	0x3db76424	0.08954647
94	0xbd4e018e	-0.05029445
95	0x3a51c8c6	0.0008002635
96	0xbd046977	-0.03232714
97	0xbca6687e	-0.020313498
98	0xbd33838b	-0.04382662
99	0x3cbc652c	0.022997461
100	0x3cee00e5	0.02905316
101	0xbb870b64	-0.004121231
102	0xbda51c12	-0.080619946
103	0xbafff557	-0.0019528073
104	0x3af8f38a	0.0018993479
105	0x3ddf5b07	0.10906034
106	0xbb80f17b	-0.0039350367
107	0xbd4d2562	-0.05008448
108	0x3c176ea6	0.009242689
109	0xbd9fa67c	-0.07795426
110	0x3db3b91e	0.08775543
111	0x3dd3c6ce	0.10340653
112	0x3d67de96	0.05660876
113	0x3c01634b	0.007897208
114	0xbd835a4a	-0.06413706
115	0xbe01423b	-0.12622921
116	0x3cb1df31	0.021712871
117	0x3c51aece	0.012798024
118	0x3deadc26	0.11467771
119	0x3d6b15f2	0.057393976
120	0x3dc69e31	0.09698141
121	0x3ce0ad80	0.027426481
122	0x3c3f7787	0.011686212
123	0xbdc27516	-0.094949886
124	0xbb5a8355	-0.003334244
125	0xbd032502	-0.032017715
126	0x3e0c5ae6	0.1370655
127	0x3d90de4a	0.07073648
128	0xbda1d8bb	-0.07902666
129	0x3c507311	0.0127227465
130	0xbd1ddfc2	-0.03854347
131	0xbbaa6c4f	-0.0052008997
132	0x3c24edf3	0.010066497
133	0xbb683df4	-0.0035437318
134	0xbdc39dce	-0.09551583
135	0xbd916e67	-0.07101136
136	0x3d7e83fa	0.06213758
137	0x3c143336	0.009045413
138	0xbd82882e	-0.063736305
139	0xbbd2b664	-0.006430434
140	0x3d2b38a8	0.04180208
141	0x3bc0552b	0.005869528
142	0xbd0fb0c0	-0.03508067
143	0xbc60aa65	-0.0137125
144	0xbd21b89e	-0.039482705
145	0xbd01055a	-0.031499244
146	0x3d269d8a	0.040677585
147	0xbc64064a	-0.013917515
148	0xbc9e28c9	-0.019306557
149	0xbce2f68a	-0.02770545
150	0x3d38d4e1	0.045124892
151	0x3d42183f	0.047386404
152	0x3d38b053	0.04509003
153	0xbcaaf22b	-0.020867428
154	0xbe1c9b9c	-0.15293735
155	0xbd3aec58	-0.04563555
156	0xbdcdeab0	-0.10054529
157	0x3dd82678	0.10554212
158	0x3cc2f797	0.0237997
159	0xbe464e24	-0.19365746
160	0xbb917542	-0.004439027
161	0x3d64ef5f	0.055892345
162	0x3c89c84d	0.016819144
163	0xbb8617f6	-0.004092212
164	0x3cfafba2	0.030637566
165	0xbd44a1f2	-0.048006006
166	0x3de7b539	0.11313862
167	0x3d71846e	0.058964185
168	0xbd65531a	-0.055987455
169	0xbd1aad48	-0.03776291
170	0x3d12cbab	0.035838764
171	0xba8caed3	-0.0010733254
172	0xbde3c5ab	-0.111216865
173	0x3d6a005e	0.057129256
174	0xbdabbcb5	-0.083856024
175	0xbcf3ed26	-0.029776167
176	0x3d068311	0.03283984
177	0x3d12bb26	0.03582301
178	0x3d97a18e	0.07403861
179	0xbd6cede6	-0.057844065
180	0xbd8f7b51	-0.070059426
181	0x3d89b81a	0.06724568
182	0xbd3ca5d9	-0.046056602
183	0x3b808e21	0.003923193
184	0xbdddf18c	-0.10837087
185	0xbd75cd87	-0.06001046
186	0x3d2fcb7e	0.042918675
187	0xbdde5263	-0.10855558
188	0x3c89bd2d	0.016813839
189	0x3c2f23a2	0.010689648
190	0xbd0e90eb	-0.034806173
191	0x3dcf9b45	0.10137037
192	0x3ba92ec7	0.005163047
193	0xbbfefa21	-0.0077812825
194	0x3d823a80	0.06358814
195	0x3e16f5b2	0.14742163
196	0xbd1e5380	-0.03865385
197	0xbca07dc6	-0.019591223
198	0xbd80835e	-0.06275056
199	0x3cc53f06	0.024077903
200	0xbbd49fcf	-0.006488777
201	0x3d49d0a7	0.049271252
202	0xbd66ff01	-0.056395534
203	0xbc687c3f	-0.014189779
204	0x3c88aaf8	0.016683087
205	0xbd145abf	-0.036219355
206	0x3df59c2d	0.11992679
207	0x3da20d25	0.07912663
208	0x3dba6f26	0.09103231
209	0x3bdcade4	0.0067345966
210	0x3d999cf6	0.07500641
211	0xbd659c14	-0.05605705
212	0xbc4c7e67	-0.012481309
213	0xbd9c994d	-0.07646427
214	0x3d3fdf3a	0.046843745
215	0x3e0bca8f	0.13651489
216	0x3d734035	0.059387404
217	0x3d11b8f9	0.035576794
218	0xbc918d7a	-0.017767657
219	0xbd2b01f4	-0.04174991
220	0x3bd1c5b5	0.0064017423
221	0x3d9405d3	0.072276734
222	0xbdd5983e	-0.104294285
223	0x3c81879e	0.015811738
224	0xbbc52c44	-0.0060172398
225	0xbd898c3f	-0.06716203
226	0x385e9656	5.3068936e-05
227	0x3da13e62	0.07873227
228	0xbda28fb3	-0.07937565
229	0xbda15cba	-0.07879014
230	0xbd701ba0	-0.058620095
231	0xbd5a658a	-0.05331949
232	0x3ce7b2f3	0.028283572
233	0x3c525d96	0.012839695
234	0xbd825b50	-0.06365073
235	0x3ae060d1	0.0017118697
236	0x3c3a08fe	0.011354683
237	0x3d0ef197	0.034898367
238	0x3b9b90b9	0.004747477
239	0xbdb2d01e	-0.087311015
240	0x3dc268e1	0.0949266
241	0xbd264744	-0.040595308
242	0x3d951aea	0.07280524
243	0xbb5bffbb	-0.0033569175
244	0x3d8c13d0	0.068397164
245	0x3d94b6af	0.07261407
246	0xbdbc9d9f	-0.09209751
247	0x3d8685d5	0.06568495
248	0x3d2b54da	0.041828968
249	0xbc2f76b6	-0.010709455
250	0x3d53630f	0.05160814
251	0xbe1a1e01	-0.15050508
252	0xbd8f73ab	-0.07004484
253	0x3c9afffd	0.018920893
254	0xbceb04d1	-0.02868882
255	0x3ce2b083	0.027672058
