Assets/ML_PPO/results/simpleLoop_4/BoatAgent/BoatAgent-168408.onnx (onnx, 868044 bytes, 21 tensors)

discrete_action_output_shape f4 [1, 6]
2.0 2.0 2.0 2.0 2.0 2.0
00000000: 0000 0040 0000 0040 0000 0040 0000 0040
00000010: 0000 0040 0000 0040

network_body._body_endoder.seq_layers.0.weight f4 [256, 57]
0.08527768 -0.21271308 -0.09456017 0.037493583 0.02808525 0.037901763 -0.046684224 0.05071273
0.03130532 -0.07509621 -0.03918462 -0.027143626 -0.23798195 0.17043886 -0.095425434 -0.03718025
0.07806127 -0.07754214 0.24548434 -0.036084272 -0.06863667 0.08923687 -0.063137166 -0.044035327
0.099168785 0.11301881 0.19668955 0.036093738 0.00959677 0.3487565 0.14075172 -0.018902952
-0.032820627 -0.0456047 0.11742394 -0.049970783 0.24694467 0.09612076 -0.0027992781 0.13324508
0.0985431 -0.14552625 -0.12039997 0.05052848 -0.047665216 -0.10971323 -0.15212236 -0.13093153
0.08047379 -0.081544966 -0.12941551 0.19421688 0.2633614 -0.082571104 -0.01734741 0.02330058
-0.08838202 0.032052383 -0.16808757 -0.055043217 -0.00029003166 -0.3620108 0.077523954 0.12632833
0.10127082 0.09879629 -0.19853756 -0.16315255 -0.0028114785 0.09256646 -0.035493813 -0.0069437516
-0.0812908 -0.05565398 -0.30973166 0.03730298 -0.12271753 -0.02969225 0.31782684 0.06352714
-0.11412432 0.18793838 -0.34970203 -0.09003503 -0.25562698 -0.34112692 -0.1303575 0.06468752
-0.08600042 -0.20105144 -0.075701244 0.24990271 -0.1415023 0.2510867 -0.19534753 0.06340891
0.1814132 -0.19644032 0.18701908 -0.23004949 0.20325293 -0.043404426 -0.103928186 -0.019330395
-0.063263334 -0.011576385 -0.00031307287 0.1358134 0.13809305 -0.03629588 0.1663716 0.26666436
0.06186973 -0.11525005 0.09750642 -0.12234477 -0.043513186 -0.20171541 0.090393186 0.09717829
-0.16130291 -0.08383821 -0.06397845 -0.004062432 0.10811539 -0.26928246 -0.10778082 0.029241549
-0.34399408 -0.1395187 -0.10373909 -0.10460804 0.08258687 -0.06634019 -0.06970857 -0.042092126
0.0626693 0.02596167 -0.059920263 0.11353294 0.0015795402 0.0987138 0.057161022 -0.054027397
-0.07367386 0.18093163 -0.021459874 -0.23771317 -0.014154601 -0.33269137 -0.0594281 0.10577397
0.119028956 -0.08925599 0.060263693 0.007253545 -0.08243173 -6.118716e-05 -0.009140029 0.12235495
-0.40988335 0.07397353 0.15821265 0.08779778 0.062826484 0.24255446 -0.06842713 -0.16955896
-0.012802499 -0.008222005 -0.104713045 -0.001819792 -0.25788382 -0.13635395 0.17523783 0.152563
0.023824641 0.24498704 -0.0015225722 0.21735351 0.055727854 -0.3304146 0.03587654 0.053276442
-0.06966715 0.112585574 0.14148107 0.3012666 0.16370453 -0.14380927 -0.1981759 -0.11345553
-0.0073363003 0.080267325 0.23911676 0.026972525 -0.026822701 -0.03812606 -0.060024098 0.09956826
0.12527761 -0.08411422 0.0020618667 0.017254744 0.15373214 0.12035201 0.013737399 -0.058916174
-0.04464773 0.061694372 -0.083558165 0.07283339 -0.052803647 -0.0057619815 -0.117929146 0.06957717
-0.15515335 0.00719495 -0.15107122 -0.047537588 0.04211772 -0.15428098 0.0789773 0.026689563
0.11796028 0.1417244 0.10130744 -0.15884784 -0.0051525044 -0.13495955 -0.18706074 0.22804421
-0.11237422 -0.27123943 0.16409631 -0.108517066 0.17515808 -0.1136296 -0.19384359 -0.23536606
0.017863905 -0.19928582 0.17857061 0.095183976 -0.12515861 -0.08214885 0.024017552 0.16500537
-0.11251944 -0.0709041 -0.20642112 0.17103416 -0.04226856 -0.07485221 -0.1491443 -0.06661934
00000000: 10a6 ae3d 75d1 59be c3a8 c1bd df92 193d
00000010: 0a13 e63c e13e 1b3d f537 3fbd 27b8 4f3d
00000020: 023a 003d 0bcc 99bd 0d80 20bd 4f5c debc
00000030: 8ab1 73be 8687 2e3e 696e c3bd 514a 18bd
00000040: 96de 9f3d 6ace 9ebd 3f60 7b3e 1acd 13bd
00000050: 6291 8cbd d2c1 b63d 0f4e 81bd 635e 34bd
00000060: 0119 cb3d 6876 e73d fc68 493e 07d7 133d
00000070: c53b 1d3c 3690 b23e 3821 103e 5dda 9abc
00000080: ec6e 06bd fecb 3abd f67b f03d 2aae 4cbd
00000090: 10df 7c3e f6da c43d 1874 37bb 6671 083e
000000a0: f7d0 c93d d504 15be 4294 f6bd f4f6 4e3d
000000b0: 9a3c 43bd 54b1 e0bd f7c5 1bbe ea12 06be
000000c0: 71cf a43d 0c01 a7bd 8085 04be cae0 463e
000000d0: 4ed7 863e 0a1b a9bd 281c 8ebc dce0 be3c
000000e0: a201 b5bd 5c49 033d 261f 2cbe ff74 61bd
000000f0: 640f 98b9 7b59 b9be e1c4 9e3d 375c 013e
00000100: 1367 cf3d b655 ca3d 6e4d 4bbe 7611 27be
00000110: c840 38bb 7c93 bd3d f661 11bd 6988 e3bb
00000120: ca7b a6bd 6df5 63bd 2695 9ebe 02cb 183d
00000130: 5453 fbbd 293d f3bc 33ba a23e 841a 823d
00000140: 03ba e9bd eb72 403e 250c b3be 4964 b8bd
00000150: 8ae1 82be 30a8 aebe 707c 05be e47a 843d
00000160: fd20 b0bd 6ee0 4dbe 4109 9bbd 7fe6 7f3e
00000170: fbe5 10be 708e 803e 2f09 48be 88dc 813d
00000180: 62c4 393e a727 49be ee81 3f3e 1892 6bbe
00000190: 8921 503e d7c8 31bd 4dd8 d4bd c75a 9ebc
000001a0: 3590 81bd e1aa 3dbc ee23 a4b9 ab12 0b3e
000001b0: 4468 0d3e fdaa 14bd 515d 2a3e 3b88 883e
000001c0: 1d6b 7d3d 3808 ecbd 72b1 c73d e58f fabd
000001d0: e23a 32bd 7c8e 4ebe 1020 b93d 6905 c73d
000001e0: 972c 25be 5eb3 abbd 2207 83bd 261e 85bb
000001f0: 9a6b dd3d 64df 89be 31bc dcbd f98b ef3c
00000200: fe1f b0be fddd 0ebe 2975 d4bd bd3c d6bd
00000210: 4e23 a93d 5edd 87bd 5ec3 8ebd cb68 2cbd
00000220: c358 803d 91ad d43c f36e 75bd f583 e83d
00000230: 9308 cf3a 762a ca3d ad21 6a3d d54b 5dbd
00000240: 52e2 96bd 2446 393e 9ecc afbc 156b 73be
00000250: b3e8 67bc 8656 aabe e16a 73bd 06a0 d83d
00000260: 74c5 f33d d8cb b6bd 10d7 763d 25af ed3b
00000270: f8d1 a8bd 9b51 80b8 0fc0 15bc 3b95 fa3d
00000280: 3bdc d1be 6f7f 973d 7f02 223e 53cf b33d
00000290: 2cab 803d 3260 783e 8623 8cbd dda0 2dbe
000002a0: 93c1 51bc 97b5 06bc cb73 d6bd 1686 eeba
000002b0: 5909 84be 5fa0 0bbe 8c71 333e 7a39 1c3e
000002c0: e52b c33c e2dd 7a3e 0c91 c7ba eb91 5e3e
000002d0: e442 643d 1a2c a9be 47f3 123d 6638 5a3d
000002e0: a7ad 8ebd 4493 e63d 6ae0 103e 9e3f 9a3e
000002f0: 29a2 273e bd42 13be a0ee 4abe 5f5b e8bd
00000300: 5965 f0bb 3263 a43d 06db 743e 7cf5 dc3c
00000310: 48bb dbbc 122a 1cbd d4db 75bd 72ea cb3d
00000320: c648 003e 1444 acbd 6220 073b d259 8d3c
00000330: f56b 1d3e 1d7b f63d d412 613c 1652 71bd
00000340: 8ae0 36bd 3db3 7c3d 8b20 abbd ac29 953d
00000350: a348 58bd 01cf bcbb d684 f1bd 7a7e 8e3d
00000360: 85e0 1ebe 9dc3 eb3b 6ab2 1abe c6b6 42bd
00000370: a183 2c3d d5fb 1dbe dabe a13d 12a4 da3c
00000380: 2995 f13d 3320 113e 467a cf3d 02a9 22be
00000390: 57d6 a8bb d632 0abe da8c 3fbe 6c84 693e
000003a0: 7424 e6bd e5df 8abe dd08 283e 323e debd
000003b0: a45c 333e a3b6 e8bd ef7e 46be cd03 71be
000003c0: 5357 923c 9511 4cbe 37db 363e d1ef c23d
000003d0: 9429 00be a83d a8bd 75c0 c43c 2bf7 283e
000003e0: 9870 e6bd 2b36 91bd 0f60 53be 9423 2f3e
000003f0: cc21 2dbd 1e4c 99bd 49b9 18be b86f 88bd

network_body._body_endoder.seq_layers.0.bias f4 [256]
0.00036628539 -0.01652197 -0.016924027 0.016067896 0.0016731358 -0.023573888 0.0058416077 -0.009547811
0.009206249 -0.0014787483 -0.022319237 -0.01430182 0.0038469543 -0.01696571 -0.005925259 -0.011576545
-0.030376097 0.01646632 0.01056509 0.0082690455 -0.006274505 -0.0013151127 -0.021705367 -0.0007192484
-0.008452916 -0.044548824 -0.014723397 -0.027108278 0.008224762 -0.00063160626 -0.0030366026 -0.0053404975
-0.016764907 -0.0040710587 -0.011354787 -0.0010794342 -3.9689807e-05 -0.0023522133 -0.010605113 -0.0047362274
0.008812911 -0.0056865714 -0.0050856816 0.00051957415 -0.005069228 0.0027259835 -0.005206063 -0.0015407088
0.0034562491 -0.0115419375 0.004055184 -0.009485112 0.00026309188 -0.0068354113 -0.0038318196 0.011065287
0.014724141 -0.009626394 -0.0011308296 -0.011685835 -0.0030641197 -0.015136617 0.0014370438 0.006563335
0.035556313 0.0077982554 -0.0012768231 0.0005493442 -0.0038167154 -0.025833359 0.017345324 0.008900724
-0.016924443 -0.020448744 -0.0049800375 0.002891226 -0.010607331 0.0060959524 -0.005012842 -0.021600185
0.011331022 -0.0071256403 -0.028785767 0.03140249 -0.03213505 -0.0068790815 -0.015296499 0.0003403156
0.0028417415 -0.014417384 -0.0007672672 0.0009972653 -0.03297286 0.016448684 -0.021351853 -0.012958343
-0.0064087855 -0.0033439382 0.00022640021 -0.01797035 -0.0038894694 -0.013499725 -0.0013048076 -0.0058330623
-0.010407931 0.013544052 -0.011837861 0.025556523 -0.025637515 -0.030077824 0.0031734093 0.008933683
0.0012933223 -0.007571761 -0.004285905 -0.012046132 0.0051208767 -0.03711719 -0.02795639 -0.009419947
-0.026711173 0.011770372 -0.0033288668 0.0064301533 0.0032313084 0.012806808 0.01006741 -0.01716653
-0.03931101 -0.009139458 -0.029347196 0.0050736186 -0.001929547 -0.03326019 -0.014614723 -0.010134172
-0.015401288 -0.008689731 0.006812714 -0.019775873 -0.009266393 0.025880773 -0.011799559 -0.026417507
0.018084837 -0.018939082 -0.009557602 -0.0098589705 0.007257398 -0.010908533 -0.004426055 -0.014027118
-2.9515037e-05 -0.0060324096 -0.013371851 -0.0041143 -0.030068183 -0.009744372 0.003985347 -0.0050422214
0.011479921 -0.001347761 -0.03271301 -0.00025523923 0.0083414735 0.023204789 0.04164181 -0.009458514
-0.010271968 -0.004395768 -0.001267874 -0.013833029 -0.0012586206 -0.03074134 -0.007340013 0.012300728
-0.008664103 -0.00011291673 -0.016332014 -0.005666997 -0.02435675 -0.010791125 -0.0008208285 -0.009852086
0.04774682 -0.0061375136 -0.0047865 -0.013853251 0.009057003 -0.014890389 -0.006526967 0.0019900438
0.0049634194 7.166677e-05 0.004790299 -0.021716703 0.0010560987 0.0035683517 -0.01809197 -0.00850804
-0.020878408 -0.024815962 -0.0076086842 -0.008176712 -0.008318874 -0.013199329 -0.011770814 0.007786171
-0.020341553 -0.0013396974 0.0036948556 -0.0072915563 -0.0059044957 0.016363133 -0.018724496 -0.029829662
0.015334709 -0.020971479 -0.0012880507 -0.0012366155 0.0012007682 -0.027512738 -0.017427566 -0.0076556616
-0.0009788818 -0.025856176 0.008080604 -0.00583152 -0.013706045 0.0027796184 -0.004865538 -0.008456638
0.009449425 0.004731049 0.017582541 0.004543596 -0.017994622 -0.016532134 -0.013578661 0.007776553
-0.011936004 -0.015887778 0.006461353 -0.035291914 0.007098656 -0.011428007 0.008125684 -0.020034527
-0.0015498729 -0.022700625 -0.0010789463 -0.016717706 3.4474804e-05 -0.02760558 -0.022085281 -0.008605694
00000000: fe09 c039 1559 87bc 42a4 8abc d2a0 833c
00000010: 1f4d db3a 071e c1bc f56a bf3b 6c6e 1cbc
00000020: cfd5 163c 8fd2 c1ba d5d6 b6bc 2e52 6abc
00000030: 2f1d 7c3b acfb 8abc ad28 c2bb 8dab 3dbc
00000040: 4bd7 f8bc 60e4 863c 3319 2d3c e47a 073c
00000050: 5d9a cdbb dc5f acba 74cf b1bc f18b 3cba
00000060: 197e 0abc d478 36bd 673a 71bc 2e12 debc
00000070: 27c1 063c 6192 25ba bd01 47bb 57ff aebb
00000080: 8f56 89bc 8466 85bb 6e09 3abc cd7b 8dba
00000090: 9b78 26b8 9727 1abb 11c1 2dbc 5b32 9bbb
000000a0: 0764 103c 6b56 babb caa5 a6bb 0834 083a
000000b0: c41b a6bb 6aa6 323b 9f97 aabb 9cf1 c9ba
000000c0: 3d82 623b 651a 3dbc 59e1 843b 7167 1bbc
000000d0: 98ef 8939 96fb dfbb 441f 7bbb 2d4b 353c
000000e0: 863d 713c 06b8 1dbc 5838 94ba f275 3fbc
000000f0: 66cf 48bb 93ff 77bc 305b bc3a 3f11 d73b
00000100: 7fa3 113d 8288 ff3b 135b a7ba dd01 103a
00000110: dc21 7abb 7ba0 d3bc c817 8e3c 58d4 113c
00000120: 21a5 8abc 2084 a7bc 952f a3bb b97a 3d3b
00000130: 5fca 2dbc 8ec0 c73b c442 a4bb dff2 b0bc
00000140: c0a5 393c 347e e9bb 21d0 ebbc e69f 003d
00000150: 0ba0 03bd eb69 e1bb 2b9e 7abc 636c b239
00000160: 833c 3a3b e436 6cbc 6e22 49ba acb6 823a
00000170: 8d0e 07bd 64bf 863c 15ea aebc 3b4f 54bc
00000180: ca00 d2bb f925 5bbb d865 6d39 8e36 93bc
00000190: 78e6 7ebb f32d 5dbc 1406 abba 4623 bfbb
000001a0: 0786 2abc dfe7 5d3c 96f3 41bc ea5b d13c
000001b0: c405 d2bc c565 f6bc f9f8 4f3b 955e 123c
000001c0: b284 a93a 891c f8bb c770 8cbb 245d 45bc
000001d0: 07cd a73b 3208 18bd cd04 e5bc 1f56 1abc
000001e0: 64d1 dabc 85d8 403c 1e29 5abb 09b4 d23b
000001f0: 5cc4 533b a5d3 513c c7f1 243c d3a0 8cbc
00000200: 9504 21bd aabd 15bc 8869 f0bc 9940 a63b
00000210: dbe8 fcba d63b 08bd 9772 6fbc cc09 26bc
00000220: af55 7cbc 605f 0ebc 303d df3b 0301 a2bc
00000230: 12d2 17bc ea03 d43c f052 41bc 8769 d8bc
00000240: a726 943c 2226 9bbc 7d97 1cbc 8587 21bc
00000250: 78cf ed3b b4b9 32bc 7108 91bb ffd1 65bc
00000260: 0f97 f7b7 85ab c5bb 9c15 5bbc 40d1 86bb
00000270: 8d51 f6bc dca6 1fbc 8497 823b 3839 a5bb
00000280: 4716 3c3c 5ba7 b0ba 14fe 05bd a1d1 85b9
00000290: adaa 083c f817 be3c 9a90 2a3d e2f7 1abc
000002a0: c24b 28bc 600a 90bb cb2e a6ba eea3 62bc
000002b0: 4df8 a4ba 43d5 fbbc 7e84 f0bb fe88 493c
000002c0: e2f3 0dbc b5cd ecb8 b7ca 85bc 37b2 b9bb
000002d0: cf87 c7bc 42cd 30bc de2c 57ba a56a 21bc
000002e0: 2b92 433d 321d c9bb 12d8 9cbb bff8 62bc
000002f0: d363 143c d1f6 73bc 2be0 d5bb 656b 023b
00000300: 2ea4 a23b ce4b 9638 f1f7 9c3b 3ae7 b1bc
00000310: cb6c 8a3a 02db 693b 9c35 94bc 4e65 0bbc
00000320: 3209 abbc d84a cbbc 4552 f9bb 9ef7 05bc
00000330: e34b 08bc 0042 58bc 5fda 40bc 2323 ff3b
00000340: 54a3 a6bc c998 afba 6425 723b 02ee eebb
00000350: 807a c1bb fa0b 863c 1d64 99bc 565d f4bc
00000360: 6e3e 7b3c 61cc abbc cfd3 a8ba ee15 a2ba
00000370: 1863 9d3a 6562 e1bc 41c4 8ebc 58dc fabb
00000380: d34d 80ba 55d0 d3bc 8264 043c 5616 bfbb
00000390: 528f 60bc 422a 363b 176f 9fbb b68d 0abc
000003a0: c3d1 1a3c ea06 9b3b 4309 903c 72e2 943b
000003b0: 7569 93bc 666e 87bc 0879 5ebc 74d2 fe3b
000003c0: 3b8f 43bc 1627 82bc c2b9 d33b 418e 10bd
000003d0: d89b e83b 893c 3bbc 9721 053c 731f a4bc
000003e0: 1b25 cbba a9f6 b9bc 6e6b 8dba 92f3 88bc
000003f0: 0a99 1038 1925 e2bc 31ec b4bc e6fe 0cbc

network_body._body_endoder.seq_layers.2.weight f4 [256, 256]
-0.062877096 0.066691056 -0.09737461 0.09272085 -0.033152133 0.01545289 0.08941437 0.0032163768
0.013402351 -0.030794732 0.007546397 -0.067643024 -0.08052049 0.049332917 0.032978717 0.09196489
-0.007897746 0.021350652 -0.016134584 0.0010596486 -0.100543275 -0.008028081 -0.005076469 -0.22123703
-0.025291458 -0.011601487 0.0756094 0.04705501 -0.039944727 -0.03664578 0.021564372 0.007909156
0.07392642 -0.075039335 -0.061525635 -0.016456608 -0.066783816 -0.012903828 -0.09631803 -0.027783362
0.056291606 -0.09428826 0.022132427 -0.105297714 0.029110402 0.012447888 0.05102089 -0.018902427
0.04174531 0.08525239 -0.067411005 -0.04493095 0.024480509 0.055187985 -0.0058539878 0.021763869
-0.02007674 -0.038676888 -0.07171062 -0.04851454 -0.07555697 0.03255754 -0.0094298525 0.020305162
-0.14588211 -0.06652251 0.077521175 0.019122925 -0.0470708 -0.031614333 0.05158817 -0.09005981
0.020054847 0.01126327 -0.043120287 -0.007400196 0.08583592 -0.009472205 0.07147646 -0.0045133973
-0.08772871 0.026739962 -0.0037106816 0.043840464 0.011508167 -0.014237961 -0.14948623 -0.07984191
-0.11715669 -0.044516895 0.036057156 -0.03903455 -0.07227351 -0.05000565 -0.020533528 0.076922424
0.13284516 -0.011478611 -0.035293877 0.058098663 -0.044645447 -0.09223837 0.04785184 -0.0611206
-0.007861588 0.029030856 0.048426945 0.042365663 0.038439557 0.016245406 -0.033373337 0.108400084
0.004209146 -0.020849682 0.04569651 0.059004612 -0.028313957 -0.12477089 -0.023487894 0.085963175
0.09504178 0.03472121 -0.0025964505 0.029395716 -0.02008685 -0.03818616 0.07572718 0.050065473
0.037837896 0.0019435536 0.03849887 -0.08579468 -0.00271477 0.016391594 -0.10222422 -0.056155313
0.05738562 -0.024834607 -0.047384653 -0.0059900703 -0.055273477 0.0042216005 0.07739022 0.02061479
0.019239923 -0.044946995 -0.089609124 -0.16360857 -0.099166326 -0.00029334213 -0.05017853 -0.047742262
0.10020125 0.026416104 -0.08537663 -0.06359652 -0.033279996 0.012136439 0.0044694976 0.10027446
0.0344049 0.03334058 0.0013090208 0.006240418 -0.017839903 -0.0247159 -0.14867646 -0.019530436
0.020652425 0.09994793 0.05019207 -0.03714363 0.039683852 0.08122451 -0.118415244 -0.028784893
0.15791273 -0.13120636 0.077419505 -0.020726692 -0.10580058 -0.03613169 -0.0062378095 -0.030214638
0.11027692 0.09807288 -0.010496812 0.0012510495 -0.08241502 -0.0006358176 0.044920526 0.09371378
0.02526245 0.05570929 0.078979276 -0.014220929 -0.040718723 -0.0028720845 -0.054044552 -0.06795496
0.053804744 -0.05127338 -0.066079006 -0.06274708 -0.10891752 -0.045218162 -0.0052327635 0.057121325
0.022884414 -0.14855903 0.00618995 0.029560609 -0.093165495 -0.046211675 -0.08630742 -0.069103286
-0.1417186 -0.05817338 0.018694684 -0.04108736 0.029393226 0.08215594 -0.01669272 0.04399205
-0.016640984 -0.09741052 -0.0284461 -0.054527726 -0.0249577 0.03634723 0.006191121 -0.017306384
-0.075466506 -0.029340768 -0.053690042 -0.13514076 -0.006578521 -0.06588167 -0.029174112 0.16996759
-0.0038540005 0.086263835 0.06295711 -0.061044686 -0.050913487 -0.049017407 0.06293125 0.03022072
-0.06032032 -0.0072492077 0.053866204 0.0005407969 -0.019541318 0.12120321 0.042878423 -0.020849032
00000000: b5c5 80bd 5295 883d 576c c7bd 6ee4 bd3d
00000010: 88ca 07bd 1e2e 7d3c e21e b73d d9c9 523b
00000020: 8995 5b3c 3c45 fcbc c447 f73b 6d88 8abd
00000030: ede7 a4bd 5011 4a3d b114 073d 1758 bc3d
00000040: 8c65 01bc 90e7 ae3c ad2c 84bc e8e3 8a3a
00000050: a2e9 cdbd 3688 03bc 8258 a6bb f68b 62be
00000060: 0830 cfbc 2a14 3ebc 1ad9 9a3d c1bc 403d
00000070: 159d 23bd e319 16bd c4a7 b03c 6895 013c
00000080: bc66 973d 39ae 99bd 4e02 7cbd 02d0 86bc
00000090: f4c5 88bd 946a 53bc 6342 c5bd ef99 e3bc
000000a0: 0792 663d 341a c1bd 104f b53c 54a6 d7bd
000000b0: f078 ee3c 3af2 4b3c 48fb 503d 43d9 9abc
000000c0: 21fd 2a3d ce98 ae3d c80e 8abd 8409 38bd
000000d0: 598b c83c cc0c 623d cfd2 bfbb 244a b23c
000000e0: fa77 a4bc a86b 1ebd 04dd 92bd 2fb7 46bd
000000f0: 9dbd 9abd 0e5b 053d ab7f 1abc 0357 a63c
00000100: 1f62 15be f43c 88bd 6cc3 9e3d aea7 9c3c
00000110: 50cd 40bd 087e 01bd 1e4e 533d 4771 b8bd
00000120: 104a a43c 9489 383c e69e 30bd 587d f2bb
00000130: beca af3d 4f31 1bbc 4062 923d 1fe5 93bb
00000140: 1cab b3bd c40d db3c e82e 73bb 0f92 333d
00000150: c08c 3c3c 5646 69bc eb12 19be 2884 a3bd
00000160: d9ef efbd 5957 36bd abb0 133d b1e2 1fbd
00000170: 2204 94bd b9d2 4cbd ee35 a8bc 8189 9d3d
00000180: 9008 083e c910 3cbc 5090 10bd ddf8 6d3d
00000190: 25de 36bd 78e7 bcbd 4a00 443d 9859 7abd
000001a0: e4cd 00bc 1ed2 ed3c 555b 463d 9e87 2d3d
000001b0: cc72 1d3d 1615 853c 7bb2 08bd dd00 de3d
000001c0: e0ec 893b f4cc aabc 432c 3b3d d2ae 713d
000001d0: acf2 e7bc e187 ffbd af69 c0bc 760d b03d
000001e0: 44a5 c23d d437 0e3d 3629 2abb 49cf f03c
000001f0: 2d8d a4bc 1769 1cbd da16 9b3d 7411 4d3d
00000200: e9fb 1a3d d6be fe3a feb0 1d3d 1fb5 afbd
00000210: 48ea 31bb aa47 863c ef5a d1bd 1d03 66bd
00000220: 2f0d 6b3d f271 cbbc 6916 42bd 5a48 c4bb
00000230: 7166 62bd 5a55 8a3b c37e 9e3d 59e0 a83c
00000240: 0b9d 9d3c 571a 38bd fd84 b7bd 0189 27be
00000250: b717 cbbd b7cb 99b9 0188 4dbd 648d 43bd
00000260: 5036 cd3d 9666 d83c f1d9 aebd e43e 82bd
00000270: 9b50 08bd ead7 463c dd74 923b b25c cd3d
00000280: 27ec 0c3d 2290 083d 7393 ab3a 6c7c cc3b
00000290: fd24 92bc 0079 cabc a43e 18be 4bfe 9fbc
000002a0: 462f a93c 80b1 cc3d 3396 4d3d eb23 18bd
000002b0: 898b 223d 0959 a63d b183 f2bd 4cce ebbc
000002c0: e0b3 213e f65a 06be 1e8e 9e3d 06cb a9bc
000002d0: f9ad d8bd d3fe 13bd 8a66 ccbb b084 f7bc
000002e0: ded8 e13d 6fda c83d d2fa 2bbc 41fa a33a
000002f0: 35c9 a8bd ffac 26ba 96fe 373d 03ed bf3d
00000300: 33f3 ce3c 6d2f 643d e3bf a13d e6fe 68bc
00000310: adc8 26bd 9539 3cbb d25d 5dbd f82b 8bbd
00000320: 5d62 5c3d 0904 52bd 6e54 87bd 8b81 80bd
00000330: 2610 dfbd ae36 39bd 9a77 abbb 0df8 693d
00000340: 1878 bb3c dc1f 18be 10d5 ca3b 1729 f23c
00000350: 8dcd bebd 7448 3dbd f2c1 b0bd 0686 8dbd
00000360: ae1e 11be 3647 6ebd 9825 993c 384b 28bd
00000370: 10ca f03c 6041 a83d 2cbf 88bc 0231 343d
00000380: ac52 88bc 2b7f c7bd cc07 e9bc 7758 5fbd
00000390: 1774 ccbc d5e0 143d e3de ca3b 1ec6 8dbc
000003a0: 2f8e 9abd 0d5c f0bc 17ea 5bbd 5762 0abe
000003b0: a290 d7bb f8ec 86bd 8cfe eebc fc0b 2e3e
000003c0: 6693 7cbb 18ab b03d a8ef 803d fe09 7abd
000003d0: a98a 50bd 7ac6 48bd 19e2 803d 7291 f73c
000003e0: 7112 77bd c38a edbb cfa2 5c3d 44c4 0d3a
000003f0: 1d15 a0bc 6339 f83d 49a1 2f3d 97cb aabc

network_body._body_endoder.seq_layers.2.bias f4 [256]
0.001805599 -0.011449119 -0.007531451 0.012940187 0.0038515348 0.01009531 -0.007161782 -0.01062902
-0.00044848406 0.011794887 -0.0049098437 0.0007889801 -0.009227656 -0.0052032964 -0.009344109 0.016878307
-0.011667194 -0.004227729 -0.012014707 -0.017827602 0.008514743 -0.0105471285 -0.0011646327 -0.0003530426
0.0024119082 0.0017602184 -0.010257851 0.018431533 0.0031396344 -0.0024493106 -0.010425876 -0.003626826
0.007680847 -0.0026954277 0.002481493 0.004796656 -0.0008739566 -0.0052674212 -0.010021988 -0.0034525024
-0.011640395 -0.0034845476 -0.0006191211 -0.0060065947 0.008166149 -0.009132307 -0.0057416474 -0.004839709
-0.005510343 -0.015865648 -0.007138007 0.0014543146 -0.022373872 -0.009110008 0.010502866 -0.008487169
-0.011656852 -0.008067671 -0.019367384 -0.026939023 -0.00022688086 -0.011207587 -0.01935413 -0.0005968908
0.01726092 -0.0002479814 0.009192972 0.008999171 -0.00045537672 -0.0053946953 -0.018660005 0.0052710176
-0.009534952 -6.539635e-05 0.006241202 0.0031266017 -0.010607708 -0.013484533 -0.0109904 -0.014173334
-0.0116812 -0.008105432 0.0051012714 -0.01082283 -0.012903903 -0.0066502746 0.016594177 -0.0057573835
-0.0025996491 0.009708602 -0.004437263 0.009519891 0.0011583866 0.011448639 -0.007080805 -0.001030297
-0.02013323 -0.0026295383 0.0030340839 -0.0062473263 -0.0020250857 -0.0052569206 -0.009283662 0.014359122
0.018537404 -0.015772207 -0.0009774775 -0.0019254886 0.011105747 -0.010436092 0.013089795 -0.010444034
0.016977914 0.004405448 0.0038272585 0.0072462833 -0.0028676766 -0.014083079 -0.022111336 -0.010430182
-0.0034373112 0.014693054 -0.019983992 0.0046349363 -0.005952392 0.010303075 -0.026856842 -0.0029530916
-0.003351505 0.0037504863 0.00034295366 -0.0055043465 -0.013316296 -0.01454888 0.005451862 0.0017329338
0.0065746265 -0.0036540315 -0.00815949 -0.0044522327 -0.013670246 0.011240349 -0.00085908873 0.007947974
0.001946603 0.010266787 0.0042919572 0.0045150863 -0.0066316524 -0.012299698 0.0021641708 0.0014974623
0.017121647 0.0074504055 -0.024579499 0.008888376 -0.013604295 -0.0136073055 0.004831118 -0.0004065825
0.0036962735 -0.004874896 0.0024637887 0.0008962313 -0.019657621 -0.017914057 0.004198838 -0.018655106
-0.009177265 0.00012028562 0.0102395285 0.0028218569 -0.007453248 -2.0864216e-05 0.00087133254 0.0046650395
0.01097621 0.0014069093 -0.004147404 -0.002887165 -0.008720807 -0.0102122985 0.008144627 0.0047832695
-0.0017409858 -0.009154679 0.005826472 0.019527895 -0.01483384 -0.0007767115 -0.012527947 0.007817339
0.0013871912 -0.008315141 0.0026800907 0.0054381764 0.0029775992 -0.012930746 -0.0065544914 0.0038564678
0.011644995 0.003745515 0.0043106126 -0.007906579 -0.000651 -0.012823259 -0.006741065 0.014546828
-0.0017673459 -0.0032044468 -0.015390865 0.0008192425 0.0032097965 0.017623752 -0.0020276306 -0.013175546
0.009575716 0.002507804 -0.011440333 -0.021336213 -0.0026542526 -0.016598586 -0.019183995 -0.011975199
0.013214373 -0.008909651 -0.00020355944 0.002019331 -0.017798552 -0.00093963515 0.011473785 0.004393201
-0.0043371846 -0.0019014166 -0.002093731 -0.014914162 -0.00069163577 0.0014130535 0.0047168387 -0.0044020116
-0.00026610907 -0.01426234 0.0011193379 -0.0025698887 -0.014689619 -0.0064683426 -0.03065064 -0.00526136
-0.013932138 -0.0069029764 -0.015718684 0.0036451146 -0.012368215 0.007324246 0.0033805869 -0.009926305
00000000: d9a9 ec3a 1695 3bbc 64ca f6bb 1403 543c
00000010: 086a 7c3b cd66 253c 62ad eabb 5725 2ebc
00000020: 8322 ebb9 573f 413c c1e2 a0bb 8fd3 4e3a
00000030: 982f 17bc 6a80 aabb 0918 19bc 6044 8a3c
00000040: c227 3fbc c388 8abb 55d9 44bc 310b 92bc
00000050: 6c81 0b3c ddcd 2cbc 97a6 98ba 9318 b9b9
00000060: 1b11 1e3b 21b7 e63a 8c10 28bc bafd 963c
00000070: 53c2 4d3b 9d84 20bb 4bd1 2abc 0bb0 6dbb
00000080: 9daf fb3b c6a5 30bb 8ba0 223b 442d 9d3b
00000090: 3c1a 65ba 559a acbb 4433 24bc 6143 62bb
000000a0: 5bb7 3ebc 025d 64bb 844c 22ba f8d2 c4bb
000000b0: 50cb 053c ac9f 15bc 6e24 bcbb 6c96 9ebb
000000c0: 1b90 b4bb adf8 81bc f1e5 e9bb b39e be3a
000000d0: 6949 b7bc 2542 15bc 3614 2c3c c40d 0bbc
000000e0: 62fc 3ebc 442e 04bc 59a8 9ebc 3aaf dcbc
000000f0: dee6 6db9 07a0 37bc 8d8c 9ebc aa78 1cba
00000100: c666 8d3c 8003 82b9 1f9e 163c 4271 133c
00000110: a1bf eeb9 fcc5 b0bb dedc 98bc 80b8 ac3b
00000120: 7d38 1cbc 6625 89b8 ff82 cc3b ace7 4c3b
00000130: f4cb 2dbc 3bee 5cbc 1411 34bc 4637 68bc
00000140: 8162 3fbc a5cc 04bc 9128 a73b 3d52 31bc
00000150: e46a 53bc 8cea d9bb 83f0 873c 6fa8 bcbb
00000160: e05e 2abb d410 1f3c 7666 91bb 51f9 1b3c
00000170: 01d5 973a 1393 3b3c 1906 e8bb 080b 87ba
00000180: 72ee a4bc 5554 2cbb 7bd7 463b 5fb6 ccbb
00000190: 4db7 04bb 3f42 acbb 801a 18bc 8642 6b3c
000001a0: c1db 973c b734 81bc b41e 80ba ad60 fcba
000001b0: e1f4 353c 24fc 2abc 9476 563c 741d 2bbc
000001c0: 4415 8b3c 945b 903b bed2 7a3b 3b72 ed3b
000001d0: a1ef 3bbb b7bc 66bc d522 b5bc 5be3 2abc
000001e0: 8344 61bb 23bb 703c 78b5 a3bc aae0 973b
000001f0: 480c c3bb 3bce 283c e102 dcbc a888 41bb
00000200: eca4 5bbb b8ca 753b 76ce b339 ce5d b4bb
00000210: 982c 5abc 6d5e 6ebc 88a5 b23b 9c23 e33a
00000220: f76f d73b 7a78 6fbb 62af 05bc 09e4 91bb
00000230: 2bf9 5fbc 7129 383c 7834 61ba 3838 023c
00000240: 2825 ff3a 0736 283c 8ca3 8c3b 4af3 933b
00000250: 554e d9bb ac84 49bc c3d4 0d3b 7f46 c43a
00000260: b242 8c3c 8822 f43b f25a c9bc 8da0 113c
00000270: 8de4 5ebc 2df1 5ebc 5b4e 9e3b 942a d5b9
00000280: 2e3d 723b 97bd 9fbb 8477 213b 10f1 6a3a
00000290: 0509 a1bc 80c0 92bc 6896 893b 98d2 98bc
000002a0: 3d5c 16bc da41 fc38 b2c3 273c e7ee 383b
000002b0: 603a f4bb 9005 afb7 236a 643a 30dd 983b
000002c0: 90d5 333c 0b68 b83a f2e6 87bb 9736 3dbb
000002d0: b7e1 0ebc 7c51 27bc 0b71 053c f9bc 9c3b
000002e0: ca31 e4ba 82fd 15bc fdeb be3b f7f8 9f3c
000002f0: a209 73bc 3a9c 4bba 0542 4dbc 4c14 003c
00000300: 6ad2 b53a 3b3c 08bc 76a4 2f3b bb32 b23b
00000310: d323 433b 7bdb 53bc 0fc7 d6bb cbbc 7c3b
00000320: a6ca 3e3c 5077 753b 0a40 8d3b 998a 01bc
00000330: dfa7 2aba a618 52bc 27e4 dcbb d255 6e3c
00000340: 4aa6 e7ba b201 52bb f729 7cbc 6fc2 563a
00000350: 735b 523b b05f 903c ffe1 04bb 3fde 57bc
00000360: 77e3 1c3c f859 243b 3c70 3bbc 48c9 aebc
00000370: f8f2 2dbb c2f9 87bc c127 9dbc a033 44bc
00000380: 1981 583c c9f9 11bc 9272 55b9 c156 043b
00000390: 45ce 91bc d951 76ba 8bfc 3b3c d7f4 8f3b
000003a0: f11e 8ebb f438 f9ba fa36 09bb 885a 74bc
000003b0: e44e 35ba 3536 b93a b68f 9a3b c03e 90bb
000003c0: 8e84 8bb9 97ac 69bc bfb6 923a 946b 28bb
000003d0: baac 70bc 64f4 d3bb 0d17 fbbc 7d67 acbb
000003e0: 9f43 64bc 5d32 e2bb 78c4 80bc e0e2 6e3b
000003f0: 0ea4 4abc 3b00 f03b d68c 5d3b f1a1 22bc

network_body._body_endoder.seq_layers.4.weight f4 [256, 256]
0.037063375 0.025051255 -0.04053927 -0.080356 0.24577172 -0.025356663 -0.017747546 0.095391385
0.0072739515 -0.029234875 -0.027747532 -0.030587934 0.0054430068 -0.06723502 0.0019682196 -0.0039476273
-0.07006419 -0.01170283 -0.011944702 -0.031564526 0.06319107 0.03205801 0.0047420706 -0.025799885
-0.09220732 0.015067636 -0.0034530326 -0.051642157 -0.02307507 0.031530153 0.04652487 0.035356842
0.0025184965 -0.030545494 0.061579913 0.0045155315 0.046503875 -0.05741768 0.041772358 -0.009023068
-0.008096649 0.0021197707 -0.077853024 -0.007578505 -0.12771998 0.040950533 0.034983356 -0.035096552
0.008588768 0.052046735 -0.04844062 0.107618906 0.0019792547 -0.049921133 -0.037547003 -0.08229204
-0.0088779 -0.049092412 -0.045490727 -0.04195494 0.039789658 0.02010496 0.0021477614 0.094884336
0.11013841 -0.1345227 0.041016925 -0.020900907 -0.008637659 -0.022032166 0.024859708 0.053168368
0.033747412 -0.07508634 0.034806 -0.03560615 -0.0029765384 -0.053273473 -0.007846329 -0.0066569783
-0.10832124 0.08163081 0.01245226 -0.058471177 0.00199368 0.113527566 0.12156044 0.10838531
0.027365802 0.020369526 0.039852716 0.14865656 -0.06942758 0.0021532862 -0.02603244 -0.037016734
0.11669154 -0.05731904 0.027392717 0.069873646 0.009688427 -0.041439813 0.0013200083 -0.11061341
0.06314132 0.015376394 -0.0786451 -0.09599541 0.08955018 -0.1424298 0.17005976 0.028901316
-0.03045031 -0.010689987 0.07404208 0.023275038 -0.12846522 0.01894166 -0.007862163 0.0058247424
-0.07402667 0.08213322 -0.05885843 0.04105826 0.02188272 -0.0038478363 -0.037233934 -0.042027984
0.075114 -0.024965156 0.02600032 -0.0016541758 -0.052770954 0.022761464 -0.07839783 0.048671346
0.07303715 0.016910378 -0.044464137 0.0014096531 0.008923277 -0.0006658439 0.0011158566 -0.081042916
0.058464784 -0.04603385 -0.014361247 -0.022334863 0.025758127 -0.037951745 0.024598533 0.09541912
0.062085602 0.124827415 -0.0021365527 -0.06259436 -0.0022762576 -0.09287137 0.062000245 -0.034987994
-0.10182654 -0.11808228 0.05163136 -0.009119057 0.03240527 -0.021304479 -0.035395257 -0.08925593
-0.01918522 0.030023456 0.074557014 0.0683987 0.016218424 -0.0075751506 0.02708939 -0.02861383
0.017926631 0.08203998 -0.037303675 0.08542974 -0.04385344 0.06925799 -0.11402662 -0.07036945
-0.0884399 0.066497445 -0.017420594 -0.14592987 0.09356598 0.05528446 -0.055092525 0.09837191
0.040777232 0.063879065 0.00052098447 0.040760323 -0.10847153 0.0438899 -0.035595737 0.016966922
0.0016597551 -0.0013463649 0.100394964 -0.12999944 -0.14125463 0.072190754 -0.02675454 -0.01883712
-0.046378072 0.13000867 -0.038750794 -0.067861125 0.05843395 -0.0072003095 -0.039375562 0.05707368
-0.0008108985 0.06918734 0.0015475698 -0.04266835 -0.12867287 0.06190674 -0.06622477 -0.038702138
0.026930312 0.043559626 0.03954426 0.17960015 -0.110924475 0.005386726 -0.033212375 -0.073810674
-0.0950893 0.03907153 -0.098520294 -0.101334415 0.058059227 0.005429647 -0.053940773 0.033617377
0.043389346 -0.1395571 -0.032001533 0.03597385 -0.046257045 0.04120648 -0.06659793 -0.05013896
0.025039086 -0.07172541 0.11168148 -0.096185364 0.08184833 -0.07270283 0.113283314 -0.022043379
00000000: c4cf 173d 4a38 cd3c 810c 26bd b091 a4bd
00000010: 95ab 7b3e c7b8 cfbc 4d63 91bc 8f5c c33d
00000020: 545a ee3b fa7d efbc cb4e e3bc 8c93 fabc
00000030: 405b b23b 84b2 89bd 3ffd 003b 195b 81bb
00000040: d07d 8fbd 3abd 3fbc b6b3 43bc ce49 01bd
00000050: 526a 813d 434f 033d 5f63 9b3b 485a d3bc
00000060: 31d7 bcbd 3fde 763c 464c 62bb ba86 53bd
00000070: ee07 bdbc c325 013d dd90 3e3d 56d2 103d
00000080: 5c0d 253b 8b3a fabc 383b 7c3d 06f7 933b
00000090: d97a 3e3d cd2e 6bbd 7e19 2b3d 7dd5 13bc
000000a0: cfa7 04bc daeb 0a3b 6871 9fbd 1c55 f8bb
000000b0: 07c9 02be bfbb 273d b54a 0f3d 67c1 0fbd
000000c0: e7b7 0c3c f52e 553d ac69 46bd 4d67 dc3d
000000d0: 62b6 013b 1a7a 4cbd e3ca 19bd bb88 a8bd
000000e0: 9d74 11bc 2015 49bd 7c54 3abd f1d8 2bbd
000000f0: 7bfa 223d 28b3 a43c 75c1 0c3b b852 c23d
00000100: 3f90 e13d 52c0 09be 5d01 283d 6138 abbc
00000110: f884 0dbc cd7c b4bc 96a6 cb3c 13c7 593d
00000120: ba3a 0a3d dec6 99bd bc90 0e3d c1d7 11bd
00000130: 0712 43bb 4935 5abd e48d 00bc c822 dabb
00000140: 87d7 ddbd 0e2e a73d 9004 4c3c 797f 6fbd
00000150: 66a8 023b 2481 e83d aef4 f83d 1ef9 dd3d
00000160: 3f2e e03c fedd a63c 9a3c 233d 6d39 183e
00000170: 0c30 8ebd 261e 0d3b fc41 d5bc dc9e 17bd
00000180: f9fb ee3d 5fc7 6abd b166 e03c ea19 8f3d
00000190: 35bc 1e3c cbbc 29bd 2104 ad3a 4989 e2bd
000001a0: 3d50 813d 45ed 7b3c af10 a1bd 3e99 c4bd
000001b0: 1666 b73d 1ed9 11be 2524 2e3e 74c2 ec3c
000001c0: ee72 f9bc 0e25 2fbc 60a3 973d 4bab be3c
000001d0: 638c 03be 8a2b 9b3c 4dd0 00bc 7bdd be3b
000001e0: 4b9b 97bd 7635 a83d 8915 71bd b52c 283d
000001f0: 6443 b33c fb2b 7cbb 9c82 18bd 8925 2cbd
00000200: 5ed5 993d ba83 ccbc a0fe d43c eed0 d8ba
00000210: 5b26 58bd 4076 ba3c 0b8f a0bd 9b5b 473d
00000220: 8094 953d a287 8a3c 0720 36bd 1cc4 b83a
00000230: f032 123c 078c 2eba ef41 923a d4f9 a5bd
00000240: c578 6f3d fe8d 3cbd 704b 6bbc 9af7 b6bc
00000250: b502 d33c 4a73 1bbd dd82 c93c 196b c33d
00000260: 794d 7e3d 84a5 ff3d 6805 0cbb 7931 80bd
00000270: 442d 15bb 5833 bebd f8f3 7d3d 924f 0fbd
00000280: 6f8a d0bd 1fd5 f1bd 687b 533d 1968 15bc
00000290: 63bb 043d bb86 aebc 9efa 10bd d0cb b6bd
000002a0: 532a 9dbc c0f3 f53c 59b1 983d 9e14 8c3d
000002b0: 80dc 843c f838 f8bb 92ea dd3c 8d67 eabc
000002c0: dfda 923c 9404 a83d bdcb 18bd caf5 ae3d
000002d0: aa9f 33bd 22d7 8d3d ca86 e9bd dc1d 90bd
000002e0: fa1f b5bd d02f 883d a2b5 8ebc a46e 15be
000002f0: 859f bf3d f571 623d b3a8 61bd 3677 c93d
00000300: 0706 273d 07d3 823d ad92 083a 4cf4 263d
00000310: 5226 debd e5c5 333d d6cc 11bd 37fe 8a3c
00000320: 248c d93a 8278 b0ba e09b cd3d 931e 05be
00000330: 0ea5 10be bfd8 933d 562c dbbc 4e50 9abc
00000340: eff6 3dbd fe20 053e 27b9 1ebd c6fa 8abd
00000350: 7058 6f3d 93f0 ebbb 4548 21bd 17c6 693d
00000360: 7a92 54ba 18b2 8d3d d3d7 ca3a 02c5 2ebd
00000370: d2c2 03be ec91 7d3d daa0 87bd 2286 1ebd
00000380: f59c dc3c 946b 323d 29f9 213d 1ae9 373e
00000390: 5f2c e3bd 2283 b03b b309 08bd 0d2a 97bd
000003a0: 2ebe c2bd 7809 203d 02c5 c9bd 6b88 cfbd
000003b0: 83cf 6d3d 2eeb b13b 00f1 5cbd 60b2 093d
000003c0: 07b9 313d 0ee8 0ebe 0a14 03bd 5159 133d
000003d0: 0778 3dbd 20c8 283d 7f64 88bd 835e 4dbd
000003e0: c51e cd3c c6e4 92bd 43b9 e43d d5fc c4bd
000003f0: 19a0 a73d 39e5 94bd 1501 e83d 5194 b4bc

network_body._body_endoder.seq_layers.4.bias f4 [256]
-0.0074865944 -0.028940862 -0.021704089 -0.021155993 0.004287503 -0.003954674 -0.0034963032 -0.0031508391
-0.014493499 -0.00875742 -0.01482098 0.0027629097 -0.0031455236 -0.018971862 -0.009223139 0.0037790888
-0.010579424 -0.0036321522 0.0020127092 0.0027586906 -0.016970947 0.010452013 -0.018633595 -0.007887728
-0.01740076 0.00088426814 -0.020517757 0.003635414 -0.012575508 0.021350555 -0.0050633615 -0.002379819
-0.039629772 -0.0027537446 -0.008955431 -0.020045482 -0.008276113 -0.0054237847 0.0061597168 0.0071964073
-0.019958265 0.0060107377 0.0088726 -0.0007341764 -0.00617568 -0.00025643138 0.0033816749 -0.024208033
-0.0022652883 -0.012724346 -0.01192097 -0.0015643523 -0.00832806 -0.012393088 -0.004291949 -0.0065281307
-0.0035444768 0.014349596 -0.016210943 -0.010968872 0.0083615985 -0.029855505 -0.007111987 -0.010107433
-0.010291631 -0.022299109 -0.006326923 0.0043637883 -0.01233776 0.00087861397 -0.00407314 -0.010944655
0.011674238 -0.003461512 -0.0042125676 -0.0031259845 -0.0004964539 -0.01267727 -0.0016535488 -0.012235411
0.012855869 -0.015971972 0.008196039 0.0010004677 0.00088336697 -0.031174062 -0.009539735 0.014043382
-0.006965519 -0.006126085 0.0037490998 -0.00073429506 0.016682908 0.022264209 0.0007754356 -0.012737388
-0.0016580733 -0.0065841074 -0.0012111075 0.0030655232 -0.011055369 -0.0065011056 0.0017248638 0.009192607
-0.0040003182 -0.005550249 0.0015726319 -0.0026491848 -0.0002160319 -0.0021506876 -0.0007761834 0.003780381
0.004497786 -0.00671697 0.008626128 -0.014666816 0.0076027093 0.0006303636 0.0025855384 -0.006775216
0.011341227 0.007080062 -0.006203882 -0.026869087 -0.01023753 -0.014081426 -0.015167398 -0.011961194
-0.018577244 -0.014529576 -0.00034314682 -0.004982698 0.0136982165 0.0023892485 -0.007392031 -0.0066205864
-0.0005361726 0.0036329033 -0.0046702405 -0.0051127584 -0.002170667 -0.0013992718 -0.022855815 -0.002063935
-0.009452685 0.0007871772 0.0021488257 0.011233498 -0.0065663 0.008764971 -0.028863387 -0.0045276796
0.002810662 -0.008504533 -0.0076884637 0.00048203257 -0.015504783 -0.010655305 0.0020284315 -0.001212666
-0.01484776 0.0127484165 -0.03218454 -0.00024868626 -0.0068681105 -0.00840515 0.009855311 0.0056437547
-0.00013766567 0.001925824 0.008363279 -0.0039027676 -0.0287877 0.0052874726 -0.0011614509 -0.005099565
0.012899286 -0.005291781 -0.0088199945 -0.0017777953 -0.0066420585 -0.01024973 -0.008036898 -0.010049917
-0.021754036 0.013979691 -0.007743488 -0.0012099382 -0.016000858 -0.012766297 -0.0033036042 0.00039997706
0.00080791896 0.0018344552 0.02121578 0.0062381015 -0.029066069 -0.0032249042 0.011144589 -0.00314575
-7.158141e-05 -0.003308024 -0.0061241393 -0.0071968646 0.004697247 -0.008502544 0.0060170353 -0.02796506
-0.00082973146 0.00217274 0.0038490328 -0.01424234 -0.002897406 -0.007732945 -0.005125491 0.0077622514
-0.0038563756 -0.009836415 0.009735349 -0.0004884406 -0.0039780424 -0.021813937 -0.020679986 0.00011276213
0.006789771 -0.014559797 -0.012243281 0.00020355484 0.006450163 0.011063127 0.013156021 0.013591258
0.00021304114 -0.027680669 -0.025796998 -0.01913097 -0.006293659 0.0005871249 -0.018077733 0.002034708
-0.0056509557 -0.004199538 -0.018112704 0.008613079 0.00044160231 -0.0005055654 -0.015366631 -0.003864284
-0.0058474205 0.0002755212 -0.0050512794 0.009732523 -0.009108074 -0.015348792 -0.008976503 -0.0049515776
00000000: 1b52 f5bb 6315 edbc c6cc b1bc 554f adbc
00000010: 2f7e 8c3b 3696 81bb 3c22 65bb 4f7e 4ebb
00000020: 2476 6dbc 487b 0fbc b2d3 72bc ef11 353b
00000030: 2125 4ebb e16a 9bbc a61c 17bc 97aa 773b
00000040: 5255 2dbc 6709 6ebb a8e7 033b 26cb 343b
00000050: a806 8bbc ec3e 2b3c 7ba5 98bc 873b 01bc
00000060: 0a8c 8ebc 3bce 673a db14 a8bc 2040 6e3b
00000070: 8109 4ebc 5ce7 ae3c 8eea a5bb bdf6 1bbb
00000080: d452 22bd 2b78 34bb cdb9 12bc 6c36 a4bc
00000090: 8998 07bc 01ba b1bb 73d7 c93b d7cf eb3b
000000a0: 847f a3bc b9f5 c43b 625e 113c bf75 40ba
000000b0: 5c5d cabb a371 86b9 179f 5d3b ed4f c6bc
000000c0: 3b75 14bb c679 50bc 2c50 43bc f40a cdba
000000d0: 6a72 08bc 610c 4bbc 7aa3 8cbb eee9 d5bb
000000e0: 744a 68bb 911a 6b3c d0cc 84bc c9b6 33bc
000000f0: 16ff 083c 8893 f4bc ac0b e9bb a699 25bc
00000100: 3b9e 28bc 9fac b6bc 1452 cfbb 1cfe 8e3b
00000110: 5124 4abc c952 663a fa77 85bb 3651 33bc
00000120: 4e45 3f3c 89da 62bb 9409 8abb 51dd 4cbb
00000130: 7524 02ba 53b4 4fbc e4bb d8ba 0977 48bc
00000140: 6ca1 523c a7d7 82bc ae48 063c 2022 833a
00000150: c191 673a bf60 ffbc 8c4c 1cbc 3716 663c
00000160: 023f e4bb 53bd c8bb 75b3 753b b57d 40ba
00000170: 98aa 883c 6e63 b63c 9a46 4b3a 7ab0 50bc
00000180: b553 d9ba 7fbf d7bb 06be 9eba f2e6 483b
00000190: 9421 35bc 3a07 d5bb d314 e23a 979c 163c
000001a0: 1a15 83bb ddde b5bb c520 ce3a f29d 2dbb
000001b0: 9f86 62b9 8df2 0cbb c978 4bba 45c0 773b
000001c0: 2a62 933b 071a dcbb 9a54 0d3c 164d 70bc
000001d0: 2620 f93b fc3e 253a 2372 293b a202 debb
000001e0: 8ed0 393c ddff e73b ef49 cbbb 8f1c dcbc
000001f0: 50bb 27bc c8b5 66bc ae80 78bc e2f8 43bc
00000200: 4e2f 98bc 750d 6ebc 63e8 b3b9 e645 a3bb
00000210: 7c6e 603c f094 1c3b da38 f2bb 81f1 d8bb
00000220: ef8d 0cba 0116 6e3b d108 99bb ed88 a7bb
00000230: c041 0ebb c567 b7ba 1e3c bbbc 1543 07bb
00000240: 6fdf 1abc 915a 4e3a 50d3 0c3b b50c 383c
00000250: 1e2a d7bb f49a 0f3c e972 ecbc ee5c 94bb
00000260: 1533 383b 9956 0bbc 82ef fbbb 51b9 fc39
00000270: c607 7ebc 9793 2ebc 6fef 043b 52f2 9eba
00000280: 0544 73bc bcde 503c f0d3 03bd 1b62 82b9
00000290: e30d e1bb c1b5 09bc 2c78 213c 3fef b83b
000002a0: 595a 10b9 ee6b fc3a 2206 093c 93c5 7fbb
000002b0: 2fd4 ebbc 8942 ad3b d33b 98ba 401a a7bb
000002c0: 8757 533c ad66 adbb bd81 10bc e904 e9ba
000002d0: a0a5 d9bb 7cee 27bc 32ad 03bc 68a8 24bc
000002e0: 8535 b2bc 130b 653c 16bd fdbb ca96 9eba
000002f0: 3b14 83bc bb29 51bc 4881 58bb 03b4 d139
00000300: 86ca 533a 1a72 f03a b7cc ad3c fd68 cc3b
00000310: f71b eebc ea58 53bb cb97 363c ed28 4ebb
00000320: fa1d 96b8 6fcb 58bb 01ad c8bb add3 ebbb
00000330: 5deb 993b 414e 0bbc 8d2a c53b fb16 e5bc
00000340: 5682 59ba 8764 0e3b 0e40 7c3b b458 69bc
00000350: 68e2 3dbb a564 fdbb bcf3 a7bb 7c5a fe3b
00000360: 3fbb 7cbb ea28 21bc 0381 1f3c b20a 00ba
00000370: 3d5a 82bb 24b3 b2bc 1369 a9bc b57a ec38
00000380: ba7c de3b 378c 6ebc 0b98 48bc 5671 5539
00000390: e45b d33b 1e42 353c 5a8c 573c dead 5e3c
000003a0: cc63 5f39 92c2 e2bc 3a54 d3bc 8db8 9cbc
000003b0: 0a3b cebb 49e9 193a c117 94bc bc58 053b
000003c0: a72b b9bb 479c 89bb 1861 94bc df1d 0d3c
000003d0: dc86 e739 eb87 04ba 52c4 7bbc ed3f 7dbb
000003e0: b89b bfbb d473 9039 3485 a5bb 2975 1f3c
000003f0: 083a 15bc 8079 7bbc 2f12 13bc d840 a2bb

network_body._body_endoder.seq_layers.6.weight f4 [256, 256]
0.003818027 0.006568431 -0.069862895 -0.007097124 -0.064692505 0.013199689 0.037407413 0.14392993
0.010951632 0.058864105 0.067602396 -0.087755285 0.031661198 -0.0013963779 0.014526706 -0.02187499
0.0442613 0.0635147 -0.01644726 0.045877207 -0.00939399 -0.0027064953 0.0730796 -0.05047299
-0.01634386 -0.0064658113 0.026884453 0.060576174 0.03858634 -0.0047291177 -0.08753395 -0.096309826
0.074490346 0.16389091 -0.08671413 -0.07102262 -0.14628153 0.036148023 0.057661984 -0.04278227
-0.054290205 -0.009577726 0.005898973 0.017854318 -0.045678057 0.041889776 0.0032037972 0.1000107
-0.017945712 -0.060870256 0.018387431 0.017639035 -0.10176805 -0.0071460325 0.08622723 0.09603471
0.09365218 -0.005957609 0.0013186899 0.04519831 -0.03454231 0.09839806 0.0059324107 -0.057061024
-0.04721736 -0.06350389 -0.013281456 -0.008907299 -0.14249831 -0.013398891 -0.07217395 -0.06811456
-0.041884527 -0.011613707 -0.008871346 -0.07294384 0.0028188988 -0.11941716 0.07237365 0.021511618
-0.02919333 0.06766399 0.04920563 0.052768297 0.07040381 0.10015212 0.11377294 0.011781949
0.003287365 -0.038864948 -0.09130632 -0.00097092986 -0.057047915 0.08249431 -0.039363623 0.0017441581
-0.024358928 -0.01854966 -0.05023107 0.021559056 0.02347986 0.0013684131 -0.066157445 -0.0137243755
0.009575128 0.11586144 0.019103063 -0.059052575 0.015736919 -0.07414668 0.09499947 0.11126488
0.06182743 0.0037510495 -0.055709317 -0.12066653 0.014445173 0.015164661 0.11456641 0.055446118
0.09410562 0.014762909 0.009858758 -0.084517725 -0.010299665 -0.03465305 0.12981692 0.07603551
-0.054339018 0.008899253 -0.03656931 -0.0026108918 0.0009909323 0.00297606 -0.08945825 -0.061492376
0.06845312 0.011832331 -0.062777825 -0.01056737 0.057498712 0.007930388 -0.023204107 -0.0036113998
-0.03182287 -0.022831706 0.0350946 -0.01554843 -0.017560776 -0.027053421 0.039626546 0.03993937
0.04204926 -0.022151101 -0.13437316 -0.057072844 -0.09513476 0.100668564 0.0067339246 -0.19190328
-0.00069480366 0.05671665 0.011926773 0.0006921315 0.02550877 -0.050433345 0.1061583 0.04805211
-0.047369156 -0.03556799 0.029512169 -0.012726294 -0.11448756 0.07141382 -0.08916272 -0.01872617
0.030627862 0.026679501 0.07621525 -0.058955595 -0.056894694 0.06517486 -0.043078616 0.004513749
-0.10149956 -0.057135582 0.029779393 -0.10226922 0.02265066 0.014192969 -0.0314414 0.09599487
0.011094976 -0.0070215915 0.062806755 0.13860287 -0.019757612 -0.011618727 -0.058038767 0.02491417
-0.009088861 0.057975344 -0.046945233 -0.0146653205 0.02492778 -0.034198787 0.11980812 0.08899013
0.08433751 0.0049899574 0.06320425 -0.057567917 -0.020794028 -0.073126145 0.03828349 0.13596024
0.05979549 0.040733833 -0.009113898 -0.054265156 0.016636632 0.067735285 -0.09989025 0.021159908
-0.003582149 -0.06380084 -0.007645295 0.07387709 -0.079124 -0.06853834 -0.05123424 -0.048185077
0.024046626 0.025328605 -0.058532946 0.007313249 0.0018546443 0.0360869 0.010256618 -0.08862582
0.09325595 -0.036188744 0.075562514 0.0075272033 0.08492622 0.079148084 -0.0890692 0.06286453
0.050031133 -0.02086307 0.059254523 -0.14205593 -0.04963421 0.0013889064 -0.008660669 0.027895493
00000000: dd37 7a3b fe3b d73b 4714 8fbd fe8e e8bb
00000010: 817d 84bd 8243 583c 8438 193d 5e62 133e
00000020: 796e 333c 7d1b 713d 2073 8a3d 0bb9 b3bd
00000030: 2caf 013d ab06 b7ba 6c01 6e3c 2e33 b3bc
00000040: 564b 353d ff13 823d 67bc 86bc bde9 3b3d
00000050: 40e9 19bc 755f 31bb c2aa 953d c4bc 4ebd
00000060: 8fe3 85bc 28df d3bb c93c dc3c b91e 783d
00000070: b60c 1e3d b7f6 9abb 0045 b3bd 163e c5bd
00000080: 658e 983d 05d3 273e 2e97 b1bd 4f74 91bd
00000090: d3ca 15be f30f 143d f92e 6c3d 763c 2fbd
000000a0: 685f 5ebd e5eb 1cbc 2c4c c13b 3843 923c
000000b0: ea18 3bbd 9d94 2b3d ccf6 513b 69d2 cc3d
000000c0: e302 93bc 1753 79bd 3da1 963c bd7f 903c
000000d0: c46b d0bd 4429 eabb e797 b03d d9ad c43d
000000e0: b7cc bf3d 0c38 c3bb e4d7 ac3a dd21 393d
000000f0: 3d7c 0dbd ec84 c93d ab64 c23b d2b8 69bd
00000100: fe66 41bd 540e 82bd 779a 59bc ebef 11bc
00000110: 14eb 11be 0687 5bbc f0cf 93bd a57f 8bbd
00000120: 1c8f 2bbd 6b47 3ebc 1f59 11bc 9463 95bd
00000130: 46bd 383b fc90 f4bd a338 943d 2239 b03c
00000140: da26 efbc 6b93 8a3d d88b 493d 9223 583d
00000150: df2f 903d 8e1c cd3d ca01 e93d 1309 413c
00000160: d570 573b da30 1fbd cffe babd 0086 7eba
00000170: 13ab 69bd c7f2 a83d c03b 21bd 3c9c e43a
00000180: 608c c7bc 75f5 97bc 18bf 4dbd 9e9c b03c
00000190: d658 c03c 535c b33a 8e7d 87bd 34dc 60bc
000001a0: ffe0 1c3c c348 ed3d 077e 9c3c 1de1 71bd
000001b0: b6ea 803c 37da 97bd 158f c23d d7de e33d
000001c0: c23e 7d3d 2bd4 753b 742f 64bd 0420 f7bd
000001d0: 72ab 6c3c 3375 783c cba1 ea3d 781b 633d
000001e0: 73ba c03d 21e0 713c a186 213c a117 adbd
000001f0: edbf 28bc 5bf0 0dbd baee 043e 81b8 9b3d
00000200: 9792 5ebd 2cce 113c b3c9 15bd 7f1b 2bbb
00000210: 2ce2 813a 000a 433b e335 b7bd 6edf 7bbd
00000220: 2631 8c3d 65dc 413c a991 80bd c322 2dbc
00000230: c583 6b3d 75ee 013c 8a16 bebc 3cad 6cbb
00000240: b358 02bd 8f09 bbbc 5bbf 0f3d d8be 7ebc
00000250: 9edb 8fbc 239f ddbc 724f 223d 7797 233d
00000260: d83b 2c3d 3a76 b5bc 1e99 09be 37c5 69bd
00000270: 03d6 c2bd 522b ce3d 41a8 dc3b 4b82 44be
00000280: 7c23 36ba b84f 683d 8368 433c 2970 353a
00000290: c5f7 d03c 3293 4ebd 8669 d93d 4ad2 443d
000002a0: 2906 42bd beaf 11bd 81c3 f13c f281 50bc
000002b0: 7478 eabd 6941 923d f29a b6bd a067 99bc
000002c0: 48e7 fa3c f88e da3c be16 9c3d 6c7b 71bd
000002d0: 690a 69bd 667a 853d 3473 30bd 12e8 933b
000002e0: 00df cfbd 0007 6abd eaf3 f33c 8672 d1bd
000002f0: e08d b93c a089 683c b3c8 00bd f598 c43d
00000300: b4c7 353c 6115 e6bb d4a0 803d e9ed 0d3e
00000310: b7da a1bc 795c 3ebc 0fba 6dbd cd18 cc3c
00000320: 72e9 14bc 8e77 6d3d a549 40bd d046 70bc
00000330: 5835 cc3c 0714 0cbd f65d f53d 7540 b63d
00000340: 25b9 ac3d cc82 a33b 3b71 813d 56cc 6bbd
00000350: 3d58 aabc 29c3 95bd 26cf 1c3d 2939 0b3e
00000360: 1eec 743d 85d8 263d 7552 15bc 2445 5ebd
00000370: 8c49 883c ccb8 8a3d 4293 ccbd 8b57 ad3c
00000380: 7dc2 6abb 04aa 82bd 6285 fabb df4c 973d
00000390: c40b a2bd d45d 8cbd ffda 51bd b75d 45bd
000003a0: 6efd c43c ef7d cf3c 3ec0 6fbd fba3 ef3b
000003b0: 8917 f33a dbcf 133d 600b 283c 7481 b5bd
000003c0: fafc be3d a63a 14bd 85c0 9a3d c2a6 f63b
000003d0: cced ad3d 6418 a23d ea69 b6bd 1ebf 803d
000003e0: 72ed 4c3d 07e9 aabc dfb4 723d 1c77 11be
000003f0: 3e4d 4bbd f70b b63a 7be5 0dbc 1785 e43c
