Assets/ML_PPO/results/2nd_go_28/BoatAgent.onnx (onnx, 865704 bytes, 13 tensors)

discrete_action_output_shape f4 [1, 2]
00000000: 0000 4040 0000 4040
3.0 3.0

network_body._body_endoder.seq_layers.0.weight f4 [256, 64]
00000000: 92e1 f23d 8f38 17be ace2 973e 28e1 3dbd
00000010: ed6b a7be ad78 abbc e3a3 35be 0e6e aabc
00000020: 5bb0 f6bd a6f7 f53d 5205 8ebd 3147 c33b
00000030: 194b b6bb 1848 cabd 1f41 843d 2738 8abc
00000040: fa76 c63c 42fb 71be dd44 a63d 5bd4 313e
00000050: 013a b73d 552f 9a3d 9353 54be f96a f03d
00000060: dc4b a73d 0120 a63c bbc7 bf3d 3191 353d
00000070: 1d7b efbd 42f4 50be ad7a db3b a1a9 90be
00000080: 03a8 563e 63a4 0bbe c773 403c 7185 35bd
00000090: e352 c63d c52c f0bd 383c c2bb ce5a a53c
000000a0: 3398 463d c7cc 9d3d 3e56 cbbc 293a cdbd
000000b0: ce88 5cbe 08b7 4b3d e8f1 9abd 1455 ecbd
000000c0: 5e3e 3dbc 11e1 c1bd 99c7 9fbc 1ba7 373e
000000d0: 1230 093e b1ec a4be 20cf 46be 5f1f 153e
000000e0: ea20 86bd b981 4b3c b211 b23d 8340 5f3d
000000f0: 3af4 ebbe b2cf 2ebe ff8f 1c3c d712 cabd
00000100: 12a0 013e 851e 19be 263b 60bb 880f b0bd
00000110: 9cb3 d5bc 3051 e3bd 8169 afbd 5107 d03d
00000120: 801a d53d 2f0f de3d 4950 9dbd 04ac 14bd
00000130: 0b70 dabd b2b7 debc 0658 b1bd f013 833e
00000140: 5822 66bd dac4 ec3c 3e63 45be e987 eabd
00000150: 2537 12be d5fa b6bd 2d6d ad3b c2a9 413d
00000160: 06a8 6fbe 5c71 133e b796 e5bd 748d 1dbc
00000170: 7f22 21bd e574 fe3c 788e 99bd bc0c 633d
00000180: bb3f f2bc 65d6 1a3d c3b6 6a3d e1d7 ff3d
00000190: 960f 0dbe 9db9 443e f61c 7ebd 9ef9 5ebd
000001a0: 7059 ab3d 2363 ed3d 49ce 913c 52a8 6bbc
000001b0: 081e 053d 8f82 e43d aadd 6bbd 6efb c23d
000001c0: 576a 583c 5636 4abc 9958 783d dfd2 38bd
000001d0: 4ef0 d03b ea21 8fbe 7693 453e accd 0c3e
000001e0: 696e 0c3e 528e 86be 7936 b6bc 5e4d 973c
000001f0: 46eb 64be 7ac2 613d 59f0 823d 82b3 dfbd
00000200: 239e 2f3e 2f29 7d3d 28b4 043e dadf af3e
00000210: fa27 62be 9308 8e3d c7db 413e f07f 123e
00000220: fca3 dbbd 4b61 b7bd f936 b0bd 88a2 0fbd
00000230: 5f70 0dbe 8347 073e 0c34 30be b866 2abe
00000240: c5f5 13be 1eed a13d b5fd a9bd d73e 04be
00000250: 7098 033e 5870 3bbe ad8f 1f3d 8967 1cbd
00000260: 4d1c 6abe 70be dfbc 13a4 123e a0c9 193e
00000270: e15a 9abc 0c55 1d3d 4c88 1abc db64 97be
00000280: 92f4 d73d 8101 82bd 2c2b c4bd 194d 23bd
00000290: 48cf c2bd c26b e9bd efe4 993c 236d 103d
000002a0: 2f8d c33d 0d37 2bbd 9d76 c23c ef06 fdbc
000002b0: ee65 9dbe f306 213e 3548 51bd 2fc3 5b3e
000002c0: 7232 21be 92d8 e73d 4e6d bebd 7a4e 5c3e
000002d0: d68b a73c 2d75 88bc f599 bb3c 230c 3e3e
000002e0: 11d4 19bd 6000 483e a221 3dbc b294 25be
000002f0: cc4a 25be 5762 a03d 2ff1 38be f404 27bd
00000300: 8b5b 54bd 2738 ba3c 37cb 09bd 36dc 703d
00000310: c1eb 66bc 8224 dbbd 6d57 b53d dee9 963e
00000320: 23de 413e 4fea 133e c7c5 5cbe 62fe 8d3e
00000330: 36c9 c13c 3020 93bc 939f 7fbd 1fd0 9abd
00000340: 6302 7b3d 7dd9 f23c 6ca3 bcbd d9e0 f03d
00000350: e8a0 4ebe d7ee e23d 2fb2 53bd f662 04be
00000360: 8883 20bb 8c05 f93d a8cc 2ebe 2ffb 40be
00000370: cbbf 1a3e 5e25 0d3e dd4b 8f3d 62dc 00be
00000380: e971 03bd 5a6d 8ebd d025 86bd c0bf e83c
00000390: 38ad 87be ef5a 7d3c db16 a4bb 28d2 0abe
000003a0: 2097 533d 94ff 073e 6a83 1fbe 504e 8b3c
000003b0: c4a2 743e 6d2e df3d 0af0 d23d e04a abbe
000003c0: ce0b 703d d01c ebbd 76c8 ff3d 2a0b 043c
000003d0: 7dc8 aa3d 128a 263b 42b8 c2bc 5144 613d
000003e0: 0f55 933d c31e 503e 0d7b a63d 0906 663d
000003f0: 327c 26bc 8803 593e 3c24 81bd 2810 e3bd
0.118594304 -0.14767669 0.29665124 -0.046357304 -0.32699528 -0.020931566 -0.17738299 -0.020804431
-0.12045356 0.12010126 -0.069346085 0.0059594144 -0.0055631516 -0.09877032 0.06457733 -0.016872479
0.024226654 -0.23631003 0.081186034 0.17366163 0.0894661 0.07528559 -0.20735006 0.117391534
0.08168766 0.020278933 0.093642674 0.04432792 -0.11693404 -0.20405677 0.0066979737 -0.28254417
0.20962529 -0.13636927 0.0117463535 -0.044316713 0.09683778 -0.11727289 -0.005927589 0.0201849
0.048484992 0.07705074 -0.024821397 -0.10020859 -0.21536562 0.0497351 -0.07565671 -0.11539665
-0.011550514 -0.09466756 -0.019504355 0.1793484 0.13397244 -0.3221183 -0.1941495 0.14562748
-0.065492466 0.012421065 0.08694781 0.054504883 -0.46084768 -0.17071417 0.009555816 -0.09866875
0.12658718 -0.14953049 -0.0034214943 -0.08596712 -0.026086621 -0.1109947 -0.08565045 0.101576455
0.10405445 0.1084274 -0.07681329 -0.03629686 -0.10665902 -0.027187202 -0.08659367 0.2560115
-0.056185097 0.02890246 -0.19276139 -0.11451704 -0.14278848 -0.08934561 0.005292556 0.047281034
-0.2340394 0.14398712 -0.11210387 -0.009616245 -0.03933954 0.031061599 -0.07497877 0.055432066
-0.029571405 0.03780212 0.0573032 0.124923475 -0.13775477 0.19211431 -0.062039338 -0.054437272
0.08366668 0.115911745 0.01779856 -0.014383392 0.032499343 0.111577146 -0.057584442 0.09520613
0.013208947 -0.012342056 0.06063137 -0.045122977 0.006376303 -0.27955562 0.19294533 0.13750333
0.13713993 -0.26280457 -0.022242771 0.018469509 -0.22355375 0.055117108 0.06393499 -0.1092291
0.17150168 0.061806854 0.12959349 0.34350473 -0.22085562 0.06935229 0.18931495 0.14306617
-0.10724637 -0.08954104 -0.08604235 -0.03506711 -0.13812397 0.13210873 -0.17207354 -0.16640747
-0.14449222 0.07906555 -0.08300344 -0.12914596 0.12851119 -0.18304574 0.03895538 -0.038184676
-0.22862358 -0.027312487 0.14320402 0.1501832 -0.018842163 0.038411185 -0.00943191 -0.29569134
0.10544695 -0.06347943 -0.09578547 -0.039868448 -0.09512192 -0.11397506 0.018785922 0.03526033
0.09548413 -0.041800547 0.0237382 -0.030887095 -0.3074183 0.15725307 -0.051094253 0.21461175
-0.157419 0.113206044 -0.09298192 0.21514311 0.020452421 -0.016657436 0.02290056 0.18559317
-0.037555758 0.19531393 -0.011543663 -0.16170004 -0.16141814 0.07831257 -0.18060754 -0.040776208
-0.051845115 0.022731854 -0.033641066 0.05880376 -0.014094294 -0.10700323 0.08854566 0.29475302
0.18932395 0.1444485 -0.21559821 0.2773314 0.023655515 -0.017959684 -0.06240804 -0.07559227
0.061281573 0.029644722 -0.09210858 0.11761636 -0.20178568 0.11080711 -0.0516836 -0.12928376
-0.0024492461 0.12159261 -0.17070258 -0.18845819 0.15112226 0.13783786 0.06996892 -0.1258407
-0.032091055 -0.06954451 -0.06550181 0.028411746 -0.26499343 0.015463575 -0.0050076074 -0.13556731
0.051657796 0.13281089 -0.15577474 0.017005116 0.23890215 0.10897527 0.1029969 -0.33455563
0.058605008 -0.11480105 0.12489407 0.008059302 0.08339021 0.0025411886 -0.023769502 0.054996792
0.07193958 0.20324235 0.08128939 0.0561581 -0.010161446 0.21192753 -0.06305739 -0.11087066

network_body._body_endoder.seq_layers.0.bias f4 [256]
00000000: 2f4c d5bc 28a4 3f3c 375e d6bb 1e4b dfbc
00000010: 2d40 52bc a8bb aebb 3cd1 1fbc e3f7 1f3a
00000020: d526 f7bc 2dc6 15ba 3053 112d 4321 43bb
00000030: 0c71 6ebc ecac 313b 2a16 50bc 630a 733b
00000040: da92 3f3b d938 233b e357 f4bb 335e f639
00000050: becf 67bc 4346 9bbb 046a a1bb ff47 9eba
00000060: 88c6 e7b9 4387 56ba 48be aebc f07d 4cbc
00000070: dc85 0fbc 7f13 01bd cd43 afbb 59bb 973c
00000080: 63f7 573b 086e 953c 8f60 f9bb a926 c13a
00000090: a2d7 4abc b1ea 3bbc bb8a b03a 1d04 80ba
000000a0: 7f16 85ba dfb8 8a3b c4c2 a8bc b234 87bc
000000b0: a3e7 b8ba 3579 afbb 39f7 ff3a 1aa5 393a
000000c0: 4109 b8ba 2022 78bc 38b4 7cba a64d e6bb
000000d0: 1182 7f3c c957 5d3b fa56 07bc 3bbc fbbc
000000e0: 5e24 b2ba b821 61bb 4923 03bc 04a7 feba
000000f0: 0cd1 7dba aff5 abba e4ab acbc 20a0 14bc
00000100: b33f 2cbc 355d e93a d5a2 01bc 3f0b cbbc
00000110: b402 82bc fca1 183b 5191 a5bc 2ebf 95ba
00000120: 887c 8fbc 9f9d 5bbb cb5c 7dbc d6b2 dcbb
00000130: 4205 84ba 5adf 883b 539c 42bc 5d26 9c3c
00000140: 5bfc 6ebc 26bb 2fbc 7ee2 78bc 7029 9dbc
00000150: 9476 953b e564 1abb cca9 4cbc ffbc 1839
00000160: 36d9 96bb 4c31 943a 9b02 6fb9 2410 5fbb
00000170: 9c27 51bc 80ef e8ba fefa 4ebc a983 7fbc
00000180: a12d 39bc fb11 02bc c803 8f3c d016 c539
00000190: 9ba5 613c 67d5 23bb 27d5 ddbb bebc e7bb
000001a0: 2fb5 4abb 5073 e6bb 11da f3ba f1a9 fdbb
000001b0: 7c2c 65bb ec31 29bb 2ea7 5d3b a4bb e5ba
000001c0: 4b66 8dba f088 7ebc c3bd 9e3c 439f 633c
000001d0: cf23 7abc d17d 19bb 60f3 2e3b ee93 8bbc
000001e0: 6755 dbbc 00de fcba cdc0 9e3a 26e1 f9ba
000001f0: efa5 913b a9d5 083c 3489 a2ba a942 25bb
00000200: 205e 72bc a3c5 beb9 9219 86bc dd36 92bb
00000210: 7938 9aba 6ce8 8ab7 f8b2 c1bb 4962 78ba
00000220: 97df d53b 783f e23a bd13 6d3b af7f 81bc
00000230: 75df 72bb 79f6 10bc 91a2 b436 ff76 95bb
00000240: 8231 4ebb bd04 1f3b 4c60 e93b a12f fdbb
00000250: 87a6 8dbb c41d 46ba ef6f 5ebc dfe1 013b
00000260: cf20 c33a 71c1 afb9 ab1f 3a3a 15bf 01bb
00000270: fc21 bebb d35d 0b3c e2b6 553b 8c4b e13b
00000280: 3d30 223b d91f c43a 6439 02bc 4785 64bb
00000290: 1b78 adba edbb 98bc 71ca 963a 25f8 733b
000002a0: 26cd a83a 8d8e 20bb 7b6b 75bc 6b83 9ebb
000002b0: 0f7b b0bc 8d58 0b3b 4a4e c0bb 2ced 50bb
000002c0: ae37 4ebc f6f3 b63a 2f41 66bc 020b 0e3b
000002d0: bd86 15bd 3180 d4bb 0b31 8f3a 2e8b 66ba
000002e0: 655b cf3a 8002 a8bb 33c2 ccbb a086 783c
000002f0: d898 27bc 0dda d03a 8a20 d3bb 0230 2539
00000300: c30f 1ebb 725d 31ba 6d3e f6bb 2c0e 2abc
00000310: 434c cfbc c247 89bb 6da7 59bc 259c a8aa
00000320: 3b5a 9cbc b14c 1bbc e263 7233 079c 62bc
00000330: 5ad5 05ba 2613 37bc 125f 5abc 6361 f2bb
00000340: 77f2 9dba 4fe9 d4bb acaf 913a 3fe3 e0bc
00000350: ac4d f4bb 95a5 c1bc 00f7 94b9 0983 1fbc
00000360: e0a0 2b3b 01ad 59bc d72e c0ba bd3c 0abc
00000370: 4035 a5ba 0315 80bc 292e 88bc 66bb 58ba
00000380: 63dc 9cbc e0c4 03bb 2c1d 70bb a24b c23a
00000390: 6a68 bcbb 6daa 1f3b 814f a93b 0b8d 2f3a
000003a0: 9a82 b7bc 0edc cbba 9530 a4bb 553b 7fbc
000003b0: b62e c839 3149 b039 e56b dfbc 777e 7cbb
000003c0: 6e39 64bc 15e8 32bc 1fc7 8cbc 7156 4f3c
000003d0: 30a1 4ebc 34bc 873c cadb 593c 3720 493c
000003e0: 7281 483b 8472 ee3a 7aab e0bb b901 e4ba
000003f0: dd49 90bc 98ae c2bb 0fa1 073b 78a4 81bb
-0.026037304 0.011696853 -0.006541993 -0.027257498 -0.0128326835 -0.005332429 -0.009754475 0.00061023067
-0.030169884 -0.00057134294 8.260767e-12 -0.0029774464 -0.01455332 0.0027111126 -0.012700597 0.0037085048
0.0029231817 0.002490571 -0.007456766 0.0004699096 -0.014148651 -0.0047386005 -0.004925968 -0.00120759
-0.0004420767 -0.0008183608 -0.021330968 -0.012481198 -0.008759942 -0.031512734 -0.0053486587 0.018521952
0.003295385 0.018240944 -0.0076103876 0.0014736253 -0.012380512 -0.011469529 0.0013469079 -0.0009766851
-0.0010153799 0.004233464 -0.020600684 -0.01650462 -0.0014107119 -0.005355025 0.0019528634 0.0007081792
-0.0014040844 -0.015144855 -0.0009639892 -0.0070282994 0.015594975 0.0033774248 -0.008260483 -0.030729404
-0.001359116 -0.0034352373 -0.008004018 -0.0019428437 -0.00096823345 -0.0013119484 -0.021078058 -0.00907138
-0.010513234 0.0017804267 -0.007912357 -0.024785636 -0.01587043 0.002328991 -0.020210894 -0.0011424774
-0.017515436 -0.0033510698 -0.015464018 -0.006735186 -0.0010072368 0.004177016 -0.011878091 0.019061262
-0.014586533 -0.010725772 -0.015190719 -0.019184798 0.0045612548 -0.0023558673 -0.012491655 0.00014566256
-0.0046035303 0.0011306196 -0.00022793787 -0.003403672 -0.012765791 -0.0017771572 -0.012633083 -0.015595355
-0.011302383 -0.007938857 0.017457858 0.00037591765 0.013772394 -0.0024999024 -0.0067697945 -0.0070720604
-0.0030930748 -0.0070327893 -0.0018604418 -0.007741206 -0.0034969142 -0.002581711 0.003382157 -0.0017527235
-0.0010787932 -0.015535578 0.019377595 0.013892951 -0.0152673265 -0.002342094 0.0026695356 -0.017038312
-0.026774121 -0.0019292235 0.0012111902 -0.0019064292 0.0044448297 0.008351722 -0.0012400509 -0.0025216735
-0.014792949 -0.00036386875 -0.016369615 -0.0044621066 -0.0011766098 -1.6559112e-05 -0.0059112273 -0.0009475095
0.006526898 0.0017261347 0.0036175095 -0.015807955 -0.003705946 -0.008847826 5.3833433e-06 -0.0045613046
-0.0031462614 0.00242643 0.007122075 -0.007726625 -0.00432283 -0.0007557536 -0.013576492 0.0019818468
0.0014887097 -0.00033522726 0.0007100056 -0.0019797732 -0.005802391 0.008506256 0.0032610227 0.006875461
0.002474799 0.0014963105 -0.007948253 -0.0034869479 -0.0013234647 -0.018644297 0.0011504424 0.0037226763
0.0012878522 -0.002449903 -0.014979239 -0.0048374436 -0.021543054 0.0021262497 -0.005868708 -0.0031879647
-0.012586517 0.0013958204 -0.014053627 0.0021674042 -0.03650545 -0.006485008 0.001092465 -0.0008794543
0.0015820084 -0.005127251 -0.0062487363 0.015168816 -0.010229312 0.0015934125 -0.006443088 0.0001575351
-0.0024118281 -0.00067659386 -0.007514766 -0.010379355 -0.02530492 -0.0041894624 -0.013284546 -2.9951142e-13
-0.019085994 -0.009478734 5.643586e-08 -0.013831145 -0.0005105339 -0.011173999 -0.013328331 -0.0073968633
-0.001205041 -0.006497539 0.0011114976 -0.02745211 -0.0074555483 -0.023638526 -0.0002841279 -0.009735831
0.0026188418 -0.013285876 -0.0014662397 -0.008437333 -0.0012604371 -0.01563502 -0.016623573 -0.00082676706
-0.019148057 -0.002010636 -0.0036638482 0.0014823566 -0.005749752 0.0024363056 0.0051669483 0.0006696737
-0.022401143 -0.0015553252 -0.0050106742 -0.015578111 0.00038181775 0.00033623868 -0.027273128 -0.0038527527
-0.013929708 -0.0109195905 -0.017184792 0.012654887 -0.012611672 0.016569234 0.013297031 0.012275747
0.0030594734 0.0018192087 -0.006856379 -0.0017395533 -0.017613346 -0.0059412234 0.0020695364 -0.003956374

network_body._body_endoder.seq_layers.2.weight f4 [256, 256]
00000000: 8a14 063e 9a76 fabd 2cdb 363d e81d a1bd
00000010: 7235 853d 7455 aabd 1e35 1d3d c3d1 43bd
00000020: fc5f fd3c 9f91 a93c 89e1 bbbd a17b ed3a
00000030: 35a9 d8bc 01c2 873d 3458 7e3d 0fd5 4dbb
00000040: e98e ddbc 028e 353d 2d47 3bbb cfca a03d
00000050: 77e5 ee3c 1355 ba3d d39a 31bd fecf 653c
00000060: d7f1 0e3e 755b febd 9c58 0d3d a302 883d
00000070: e275 22bd 29fd d7bd da44 693d 813c 083d
00000080: 11c1 a5b9 873f 22bd 576c a23c 01fe 42bb
00000090: 02cf 853d 151b 2ebd c670 e5bb 4331 d0bb
000000a0: 8687 e83c c6a1 b4bc 7154 9c3d acdc 86bc
000000b0: c05e 1ebd 86da 383c 765b c9bd fd49 533d
000000c0: fbf8 be3b 0ee8 3fbd 1d5a 89bc 97d9 d43c
000000d0: 8397 e9bc 8b0f 01bc 5bf5 003e 0c22 5cbc
000000e0: f47f a93d 40e8 71bd 3713 9b3d 85c7 dc3b
000000f0: e5eb eb3d f6ef 93bd f390 33bc 6699 11bd
00000100: dc6d bc3c ac5c 433d 086d 2bbe 6b51 a43d
00000110: e354 b2bd 0f13 ad3c 094c b0bc cbb3 883d
00000120: a20b a9bd 2456 e73c 46c9 543c 2d08 88bd
00000130: f788 b5bd d605 c7bd 53bc 7dbd 56c3 f7b9
00000140: a496 863c d5c9 8ebd 2bc1 88bd eeab 15bc
00000150: c5e4 ba3b 6d56 a0bd 08ac 8d3d 0638 02be
00000160: 6b06 ae3d 11b1 423c 1ec2 b03c 647f a6bb
00000170: d6b8 063b e9b3 b83d 8e53 2bbd 3b18 3ebe
00000180: fac3 afbc 351e af3d bc72 02bc 4d54 b4bc
00000190: 0051 adbd 66a8 933d 4bdb c03a 0e40 a1bd
000001a0: 711c 02bc bf63 6bbd 399f 3ebc 7e2a 543d
000001b0: 734e 413c 29e2 50bd a9fe a6bc 99f1 84bd
000001c0: 7053 b93d d121 543d ad8a c13d 96a1 2bbc
000001d0: b3fc 393d 5bfd b13d ca6d f03c 57f0 b5bc
000001e0: f2bc dfbc 1f28 d03c 33a4 1b3e 6bbb 4c3c
000001f0: a754 353d da86 c33a 61e9 72bd 72e7 51bd
00000200: a95f 6d3d 34cd b5bb 8103 63bd b0fb 443b
00000210: 870c 3a3d 2752 d5bc 127e 123d 99ff cc3d
00000220: 0748 13be deff 4a3d 2824 fe3c 02fb 12be
00000230: c790 683d 03c6 8fbd 0352 a03c c221 e6bb
00000240: 53f9 2c3d 21c1 0f3a 6b3c 90bd c3a7 37be
00000250: a01b b7bd 07ab 2ebe 43ad 0339 ab9c eabc
00000260: 8f3f 4d3d 67cd 4dbb 2617 0c3d 5c2a 71bc
00000270: 0273 823d 98a3 88bc e1b0 32bb 5f28 cc3d
00000280: c4af c7bc 2f99 a93d 1aa5 413d 39cf 80bb
00000290: 511f 873c b4a3 43be 9b8a 403e 5977 d33c
000002a0: 83b4 15bd 2f54 85bc d604 dabd 349f a73d
000002b0: 41b2 213d b56d a9bc fafd e73c ae35 c6bc
000002c0: dd77 383d 1783 2a3d b55e 4c3c d0a6 093e
000002d0: 3dda a83d fd54 76bd 4826 06bd ea24 13bc
000002e0: 16a8 453d e59c b83c c003 45bd 903f d93d
000002f0: 9dc4 8c3d d235 2b3d 25ab a7bd cb27 113d
00000300: 601e a3bd 8927 9f3d 8b44 f83b 1ece be3b
00000310: 5570 723d 12be 52bc ca18 febc 2470 9d3d
00000320: 1fab a8bd 0182 753b 88d0 0f3e 46a9 303e
00000330: beef 7d3d b0e5 4e3c 38f6 d7bc d581 d3bc
00000340: 3aa6 99bc ae50 333d b288 863d ecd0 04be
00000350: c404 c3bc 5ca3 4fbd 77f9 b5bd 8262 0ebe
00000360: 8596 803c 1756 033c 3aa0 1d3d 1055 0abd
00000370: ddc1 97bd f9b7 c5bd d1a7 febc 6a74 cf3d
00000380: 5fc2 f93b c595 a93c 2c96 313d 30c5 29be
00000390: d808 35bd 25af 673d be18 bebd 93f4 0b3e
000003a0: cfa1 9dbd 5220 60bd 3b82 2fbd 7574 35bc
000003b0: ed45 92bd 7d09 67bd f650 27bd dbe5 c43d
000003c0: 27b1 53bd 5b12 aa3c f7fe 35bd 84e2 9cbd
000003d0: 6cf6 753c 9638 993d d63d ae3d 646e 313b
000003e0: 1d2b c53d bde8 0dbc 75e0 80bd bdd1 3bbe
000003f0: fee5 1bbb fdbc 1b3d d6d4 c3bd 6493 b4bd
0.13093773 -0.12229653 0.044642612 -0.07867032 0.065043345 -0.0831708 0.038380735 -0.047807466
0.030929558 0.02069932 -0.09173877 0.0018118509 -0.026447872 0.066288 0.062095836 -0.003140751
-0.027045684 0.044324882 -0.002857636 0.07851183 0.029162152 0.09098258 -0.043360543 0.01402664
0.13959442 -0.12419788 0.034508333 0.06641128 -0.039663203 -0.10546333 0.056950428 0.033260826
-0.00031615098 -0.039611366 0.019827051 -0.002975345 0.06533624 -0.042506296 -0.007001969 -0.0063535287
0.028384935 -0.022049796 0.076332934 -0.016462646 -0.03866458 0.011282569 -0.09831898 0.051584233
0.0058280206 -0.046852164 -0.016766602 0.025982661 -0.02851463 -0.007877241 0.12593596 -0.013435852
0.08276358 -0.05905938 0.07572024 0.006737652 0.11519603 -0.07223503 -0.010959852 -0.035546683
0.023001604 0.0476958 -0.16740811 0.08023342 -0.08707597 0.021127252 -0.021520631 0.06674918
-0.08254172 0.028239317 0.01298744 -0.066421844 -0.088640146 -0.0971791 -0.061947178 -0.00047257048
0.016429253 -0.0697209 -0.06677469 -0.0091352295 0.005703541 -0.078289844 0.06917578 -0.12716684
0.08497318 0.011883036 0.021576937 -0.005081104 0.0020556948 0.0901869 -0.04182773 -0.1856393
-0.021455754 0.085506834 -0.007961925 -0.022012854 -0.08462715 0.07209854 0.0014713792 -0.078735456
-0.007941351 -0.057468172 -0.011634641 0.051798336 0.011798489 -0.050996933 -0.020385103 -0.064913936
0.090491176 0.051790062 0.094502784 -0.010475537 0.04540701 0.08690902 0.029349227 -0.02220933
-0.027311776 0.025409756 0.15199356 0.012495856 0.044270184 0.0014917508 -0.0593046 -0.051246114
0.057952557 -0.0055481438 -0.055423263 0.0030057244 0.045422103 -0.02604015 0.03576476 0.10009689
-0.14382945 0.04956042 0.0310231 -0.14353564 0.056778695 -0.070201896 0.019570356 -0.007023067
0.04222996 0.00054837955 -0.07042774 -0.1793509 -0.08940816 -0.17057429 0.00012557679 -0.028639158
0.050109442 -0.0031402947 0.034201764 -0.014719572 0.06369592 -0.01667957 -0.0027266073 0.09968638
-0.024375804 0.082811706 0.047276594 -0.003930953 0.016494425 -0.19105417 0.18802874 0.025813745
-0.036549103 -0.016275493 -0.10645454 0.081846625 0.039476637 -0.020682195 0.028319348 -0.024195518
0.045036186 0.041628923 0.012473752 0.1344254 0.08244751 -0.060139645 -0.03275135 -0.008980969
0.048256002 0.02253575 -0.04809928 0.10607827 0.068734385 0.041799374 -0.0818694 0.03543834
-0.07964778 0.077712126 0.0075765303 0.005822911 0.05918916 -0.012862699 -0.03101768 0.07687405
-0.08235764 0.0037461522 0.14044392 0.17252073 0.061996214 0.012628004 -0.026362523 -0.025818745
-0.01875602 0.043778114 0.06569041 -0.12970322 -0.023805983 -0.0506929 -0.08885472 -0.13904765
0.015696773 0.008016131 0.038482882 -0.03377253 -0.07410023 -0.096542306 -0.03108588 0.10129626
0.007622048 0.020701298 0.043356106 -0.16579127 -0.044197887 0.056563515 -0.09282063 0.13667516
-0.07696878 -0.054718323 -0.042848807 -0.011075129 -0.071422435 -0.056405533 -0.040848695 0.09614154
-0.051682618 0.020760706 -0.044432607 -0.07660392 0.015012365 0.07481496 0.08507888 0.0027073855
0.09627364 -0.008661446 -0.06292812 -0.18341728 -0.002378821 0.03802203 -0.095620796 -0.08817175

network_body._body_endoder.seq_layers.2.bias f4 [256]
00000000: 0081 4db9 80f6 07bc 985a f7ba 7363 f1bb
00000010: de3c 18bb 7d7f 80ba 5c8e 7fbb 2652 48b9
00000020: 57b6 9bba 4603 9ebb dfab 333a 6ea2 403b
00000030: 11ee c1bb 7b83 dd3a cc81 17bc 10cb 72bc
00000040: e749 45bc 8330 c9bb aead 81bb d6a8 38bc
00000050: 9cca afbb 65cb 18bb eb43 bbbb bdeb c0bb
00000060: ddf2 9bbb 7907 a4bb 6311 07bc 2690 843a
00000070: 2f9b ba3a a9d4 c0bb 4567 45bc b403 29bc
00000080: 3838 edba ca6b bebb 4bad cdbb 62aa c6bb
00000090: 8e89 c9b7 8a2c 82bc 5ccf 36bc 4e73 00bc
000000a0: d075 96bc 0abf 26bb 449d b5ba e845 e63a
000000b0: 46d7 6abc 3602 ab3b a3eb 67bc eb87 36bc
000000c0: cebc debb 0c80 123b 5894 c7ba b375 1bbc
000000d0: fc26 39bb a789 e1ba 0ce0 5ebb d0e9 deba
000000e0: ccd1 893b 62e4 caba 6479 cfb8 245e f7bb
000000f0: c0cd 79bb 689f 7abb f755 19ba 683a c139
00000100: e487 eb3a 9c4f 65b9 6ef2 22ba fba0 943b
00000110: 5c01 18bc 8fcc 12bb 86cf fdba 9f05 94b9
00000120: acbc d2bb 6991 333a b9b6 a6bb 9625 99bb
00000130: 3c86 31bc 1e44 1a37 b2ae 9dbb 00d8 65bc
00000140: f971 5dba cf30 99bb 867e 3bbc 1da4 39bc
00000150: 74ba eabb 330a 46bb a157 483c 8032 05bc
00000160: 8fa1 fb33 d514 99b4 90a9 4fbc 976a 9b3b
00000170: e898 0f3b 2ac8 6a3a bba7 bb3b f5df 3a3b
00000180: 6a89 a4bc 5a00 a9bb b37e 46bb 4f86 dbbb
00000190: bb25 9cbb 0dfa b8bb 5a52 01bc b0e4 5dbc
000001a0: 0665 62bb 581f bcbb f8ee 5cbb d2dd aeba
000001b0: 824c 98bb f709 4cb8 3528 203b a877 84b5
000001c0: 2a8c 0cbb 75d0 03bb 30f2 3bbc 0ed6 9f3a
000001d0: 8797 50bc 6107 46ac e91d 7e3b fbc7 45bc
000001e0: fb55 1fbb 82a0 70bb c4fe 83ba ee16 b7bb
000001f0: b2ee 72bc 6362 9eba 21a4 123c 4e3e 02bb
00000200: e492 1fbb 90c1 25ba 3dea 0bbc f591 1cbc
00000210: 5793 f7bb a677 29bb a4f9 17bc dcf3 efbb
00000220: 4046 fa38 4cd3 20b9 cee9 4fbb 205a 6dbc
00000230: 77ff 10bc 9c89 3abc 3e36 27bb 4023 e3bb
00000240: 0913 0abc fad6 0ab9 1250 f0bb 6130 6dba
00000250: 2b4b a1bb 8813 d5bb 4ad6 e5bb 829d edb9
00000260: 5787 88ba 32ef 83bb 6be3 0bba 1d06 79b8
00000270: 8508 02bc 8d61 76b9 a1ac 75bc e7fa a6ba
00000280: d915 a9ba edaa 6fbc 4b2e e7ba f63b 623b
00000290: c032 f3bb dac0 282e b00a 26bb abdd f7bb
000002a0: 94ab c3bb 47f0 24bc 6a02 c139 e157 2b3a
000002b0: 9a7d 19bc 9405 6abb f3b6 5abb a393 87bb
000002c0: 11e3 11bc 4390 02bc b900 13bb 3237 19bc
000002d0: c81b b5bb 4477 9ebb c9bc f23b 18e8 ccba
000002e0: 733b 2433 2094 15ba 92cc 3a3a 9060 18bb
000002f0: b2f0 45b9 49af b3bb 4c87 62bb 8868 aebb
00000300: 91b4 3cba e761 edbb 9e02 87bb a68b b8b8
00000310: 25fc 70bb 374e 98bb 2a7d 6bbb cc12 02bb
00000320: 3965 f3bb 19b5 4bbb 972f 13bc d019 37bb
00000330: 9fca be3b e185 a6bb 0de6 36bb 6886 803a
00000340: 31de b7ba 8b87 adbb dfe5 cfbb ea01 c1bb
00000350: 569a 74bb c236 39bb 80e9 7bba c02b 92bb
00000360: 0cbb d63b 0b77 fabb 207b f3ba 98f7 32bc
00000370: 1699 57ba e49c 93bb c6cf 31bc 7c46 5a3a
00000380: c7a7 b1ba 6d59 8bbc 2e50 3fbb 6960 24bc
00000390: 51c0 2bbc f0bd 2bbc 2c1b e9bb c7e5 85bb
000003a0: 6c36 2dbc c9e5 bebb eab1 84bb 6c72 dbbb
000003b0: b7c4 3ebc a1fd d5b8 0ae9 5d3b 637a c7bb
000003c0: 59c3 a4bb 48aa 5cbb 2b52 89bc 63a5 8cbb
000003d0: 2937 43bb dcda 03bc 3f59 2a38 47b5 80ba
000003e0: 6327 4bbb a63b 34b9 aca8 2ebc 1dea 89bb
000003f0: c2bd 33bb a125 04bc 7bef b1bb 16df 9cbb
-0.0001959838 -0.008298516 -0.0018871604 -0.0073665916 -0.002322964 -0.000980362 -0.0038994765 -0.00019104089
-0.0011879903 -0.0048221676 0.0006853919 0.002939369 -0.0059182723 0.0016900146 -0.009247255 -0.014818922
-0.0120415455 -0.0061398163 -0.003957472 -0.011270722 -0.005364729 -0.0023314592 -0.0057148836 -0.005887477
-0.004759176 -0.0050057736 -0.008243891 0.001011376 0.0014236922 -0.005884726 -0.012048547 -0.010315824
-0.001809842 -0.0058111893 -0.0062767616 -0.0060627917 -2.4025121e-05 -0.015890379 -0.011157837 -0.007839991
-0.018366724 -0.0025443458 -0.0013856073 0.0017568441 -0.014333552 0.0052187694 -0.014155301 -0.011140804
-0.0067974096 0.0022354154 -0.0015226705 -0.009488511 -0.0028251996 -0.0017207161 -0.0034008054 -0.0017006937
0.004205918 -0.001547944 -9.89314e-05 -0.0075490642 -0.0038117021 -0.0038241986 -0.00058492966 0.00036855345
0.0017969576 -0.00021868799 -0.00062159344 0.004535792 -0.009277668 -0.0022399758 -0.0019364215 -0.00028232948
-0.006431183 0.0006849976 -0.0050877 -0.00467367 -0.010835227 9.194975e-06 -0.004812085 -0.014028549
-0.0008447464 -0.004675008 -0.01144374 -0.011330632 -0.00716334 -0.0030218482 0.012227924 -0.008129716
1.1717486e-07 -2.8513628e-07 -0.012674704 0.004742931 0.0021911208 0.00089562184 0.005726782 0.0028514836
-0.020085055 -0.0051575126 -0.003028792 -0.0066993604 -0.00476524 -0.0056450428 -0.007893169 -0.013543293
-0.0034545078 -0.005741041 -0.0033711772 -0.0013341254 -0.0046477923 -4.864667e-05 0.0024438028 -9.869591e-07
-0.002144585 -0.0020113264 -0.011471316 0.001219453 -0.012731439 -2.8141588e-12 0.0038775152 -0.012071605
-0.0024312723 -0.0036716764 -0.0010070433 -0.00558745 -0.014827417 -0.0012083765 0.008950264 -0.0019873562
-0.0024349028 -0.00063230935 -0.0085397335 -0.009556283 -0.007555406 -0.002585867 -0.009275828 -0.0073227715
0.00011934014 -0.00015337503 -0.0031725052 -0.0144868195 -0.00884997 -0.011385348 -0.0025514509 -0.0069316924
-0.00842739 -0.0001324079 -0.007333764 -0.00090480415 -0.004922291 -0.0065025724 -0.0070140706 -0.00045321515
-0.0010416311 -0.004026317 -0.0005336317 -5.937192e-05 -0.0079366015 -0.00023496729 -0.014994771 -0.001273957
-0.0012900188 -0.014628154 -0.0017637698 0.0034520603 -0.0074218214 3.8370064e-11 -0.002533596 -0.0075642667
-0.0059713814 -0.010067052 0.00036813627 0.00065362273 -0.009368325 -0.0035708891 -0.0033373206 -0.0041374727
-0.0089042345 -0.007968965 -0.002243085 -0.0093515385 -0.0055269934 -0.004835995 0.007407759 -0.0015633134
3.8238294e-08 -0.0005705971 0.000712582 -0.0023250915 -0.0001887705 -0.005483542 -0.0034565507 -0.0053225197
-0.00071985374 -0.007244337 -0.004120185 -8.799815e-05 -0.0036771384 -0.004647996 -0.0035932758 -0.001984763
-0.007427838 -0.0031083284 -0.008983514 -0.002793897 0.005822494 -0.0050818776 -0.0027908117 0.0009805681
-0.001402801 -0.005295699 -0.0063445414 -0.0058901208 -0.0037323437 -0.0028261398 -0.00096096843 -0.004460782
0.0065530594 -0.0076435856 -0.0018576123 -0.010923289 -0.00082244107 -0.004504787 -0.01085276 0.0008326543
-0.001355403 -0.017010415 -0.0029192078 -0.010032752 -0.0104828635 -0.010482296 -0.007113835 -0.0040862295
-0.010572057 -0.0058257324 -0.0040495293 -0.0066969898 -0.01164358 -0.000102038735 0.0033860826 -0.0060875877
-0.00502817 -0.0033670831 -0.016762814 -0.0042921766 -0.0029787517 -0.008047786 4.0614275e-05 -0.000981965
-0.0030998818 -0.00017188358 -0.010660332 -0.0042088167 -0.0027426337 -0.008065612 -0.0054301596 -0.004787336

network_body._body_endoder.seq_layers.4.weight f4 [256, 256]
00000000: c085 41bc 2c8f 003d e5ba b03c 2d3b 73bc
00000010: f2d6 7d3c 978e c73c 20dc 913c 81c1 e4bc
00000020: 356b 123d c12e 863b 4b8d 1bbd c34a 173b
00000030: bbae b5bb d92d 143d 38cd ce3c 0270 423d
00000040: 2b53 0d3c 0dc3 14bd 5684 8c3d 60d6 58bc
00000050: 743a f8bd 97a8 c0bc 9f91 393d 3c8e b3bc
00000060: 34b4 eb3d 4bb5 0abd f510 9f3c 8cc5 efbc
00000070: 859f cabd cb15 1e3e e9f9 85bc 0820 4b3d
00000080: 3277 dcbd ce76 32bd 5bf1 533d 91b3 f6bd
00000090: 3dec 313c 70f7 243d 4675 3bbe 0d4e 88bb
000000a0: 4ee6 54bd 99fe f0b9 3701 f93d 08bc 343d
000000b0: d0e2 273d 5b04 c6bc cdf7 933d 30c6 adbb
000000c0: 65ca c8bc 6120 68bc 1886 ca3d 8fec 0abd
000000d0: 7d18 d6bd 2c48 f5bc 6adc 18bd b45d 723c
000000e0: 9759 93ba 44f9 cc3c 2ba8 98bd 936f 9e3a
000000f0: 14b1 2d3c 5285 e13c 2276 01be f9f6 de3c
00000100: eb61 40be 94b2 8abd 476e 06bd 5fda 3f39
00000110: 5c25 7f3d da41 09bd 36a9 cbbd 8a89 0dbd
00000120: 2d66 c93c 592d 4ebd 734d d63c f4f3 38bc
00000130: 5a66 e6bc cf1e 00bd f4ac bb3d 48eb 013e
00000140: a394 0e3d 7be8 14bd 016a 2cbd cb8b 923d
00000150: 6379 b53d 1c46 ce3d c387 b63c ba1e dc3b
00000160: 2144 b13c 74f3 c8bd 8b77 e83d fc90 0b3e
00000170: 3905 0f3a 68c8 7cbd 9320 8b3d 3e6e 303d
00000180: da92 b23c fd3e fabd 260c cebd b764 ebbb
00000190: bcf4 a0bc 1299 1d3d 8040 b73c 0907 ab3c
000001a0: 18b3 57bd d12d 1abe 34a3 e1bc e22a 983d
000001b0: 45a1 43bd aef4 82bd a9f4 0cbd 16b6 89bc
000001c0: 5261 5c3c 9107 123d 5d61 bdbc 2385 6d3c
000001d0: 262d a13d 17fe b33d 6555 27bd 32ce ecbd
000001e0: 61e4 ec3d 398b 1bbc 6560 92bd 085f 08bc
000001f0: 7dda 1e3d 67f6 bebc 8685 79bb 7961 ef3b
00000200: c72b 4bbe 4fc7 04bd 4e56 ec3c ae35 c3bc
00000210: ac6a 01bd 578a 183b 8aef adbc c6cb 2ebd
00000220: e5d7 1bbd c5e3 85bd b9a9 02bc 1219 92bc
00000230: 90fd 8fbc 008e 1d3d a4f1 abbc f4d1 d3bc
00000240: 5a3d 863d 3414 09bc 5a0d c33d 7c35 c83c
00000250: a518 08bd e07f 7cbd 8053 683c 4139 16bc
00000260: 2b93 89bd 34e4 b8bd 9688 c1bd 08de ba3d
00000270: 4609 633d bfa6 a6bc 1f62 fb3d 450f f43c
00000280: e023 97bd df36 0e3d fdeb 5e3d 0989 473d
00000290: 46a5 b13d 41d9 e1bd 9f2f 48bd bcb5 9dbc
000002a0: b9df ba3d d65a 853d ef94 94bb 472d 263d
000002b0: a226 84bd fad8 6dbd f448 30bd abe1 87bd
000002c0: dc78 c8bd 3a91 cbbd 3e43 2e3c 64b0 10bd
000002d0: 1dc4 b3bd 47d5 43bd 59e2 07bd e37a 8a3d
000002e0: b715 5c3a e0d0 753c 75fe 583d 0385 863c
000002f0: 5108 89bd 343a b0bd 8d66 fabd c0a1 7bbc
00000300: 50cd 1ebc 5f26 9f3c 516d 243d 0231 c9ba
00000310: f21d af37 94c8 223a 7e55 a1bd d898 1a3d
00000320: 9321 8a3c d904 d93c 864d c83d 99b7 f83c
00000330: 5b72 8d3c 4526 c43c 5500 cbbb ac13 a7bd
00000340: ce9b 5fbd b758 303d 646d 95bd 4056 66bc
00000350: 0f4d 953d cff5 43bd d9bc 25bd bfd6 033d
00000360: ae28 29bd 32f9 6c3d 23de 983d ada4 313c
00000370: a4ab 13bd e183 163c d6b4 8f3d f6dd 56bd
00000380: b747 b8bd e3a5 853c c112 5c3e db66 043a
00000390: 55ce 09bd bcfb 103b d605 b3bc 8b7a 2fbd
000003a0: 4db6 933d a895 8a3b 404d 3fbc 4d7d 5d3d
000003b0: 035b 12bd 679c 043c f845 333e a95b 553d
000003c0: 91a8 13bd 5eed e8bc 8591 f7bd 3024 fb3d
000003d0: f009 2c3b d503 15bd 256a 87bd 5139 123d
000003e0: 12d2 18bd 8df3 08bc 2b30 243d 2f97 053d
000003f0: fe52 6c3c dc95 abbc 3fae ab3c 7db3 38bc
-0.011811674 0.03138654 0.021573493 -0.014845652 0.0154931415 0.024359984 0.01780516 -0.027924301
0.03574677 0.004094929 -0.037976544 0.0023085333 -0.005544511 0.036176536 0.02524434 0.0474701
0.008625786 -0.036318827 0.068611786 -0.013234705 -0.12120524 -0.02351789 0.04530489 -0.021918409
0.115089804 -0.0338643 0.019417265 -0.029269002 -0.09893707 0.15438001 -0.016354518 0.049591094
-0.10764922 -0.043570332 0.051743846 -0.12045968 0.010859546 0.040275037 -0.18306455 -0.004159695
-0.05197745 -0.00045966057 0.12158435 0.044124633 0.04098779 -0.024171999 0.072249986 -0.005303167
-0.024510572 -0.014167876 0.098888576 -0.033917006 -0.104538895 -0.02994164 -0.03731958 0.014792848
-0.001124191 0.025021203 -0.074539505 0.0012087695 0.010601301 0.027529392 -0.1264272 0.027217375
-0.18787353 -0.06772342 -0.032820012 0.00018296529 0.062291488 -0.033510067 -0.09944384 -0.034554996
0.024584854 -0.050336216 0.026159978 -0.011288632 -0.028124977 -0.03127938 0.091638476 0.12687409
0.03480972 -0.036354523 -0.04209328 0.0715557 0.08861043 0.10071966 0.022281533 0.00671753
0.021638932 -0.0981206 0.11350926 0.13629526 0.00054557953 -0.06171456 0.067933224 0.043073885
0.02179854 -0.12219045 -0.10060911 -0.007183637 -0.019647948 0.038476057 0.022369623 0.020877378
-0.05266103 -0.1505654 -0.027543642 0.07430054 -0.04776122 -0.06394325 -0.034413014 -0.016810458
0.013450937 0.035651747 -0.023117715 0.014497074 0.078699395 0.08788698 -0.040852923 -0.11562766
0.11566997 -0.0094936425 -0.07147292 -0.008323438 0.038782585 -0.023310853 -0.003807397 0.007305321
-0.19840918 -0.032416638 0.028849747 -0.023829307 -0.03159587 0.0023275816 -0.021232385 -0.042674802
-0.03804769 -0.06537584 -0.007975035 -0.01783422 -0.017576963 0.0384655 -0.020989247 -0.02585695
0.06554671 -0.008366633 0.09524031 0.024439566 -0.033226628 -0.06164539 0.014180064 -0.009168924
-0.06717523 -0.09027901 -0.0944988 0.0912438 0.055428766 -0.020343183 0.122745745 0.029792437
-0.073798895 0.034720298 0.054424275 0.04871467 0.086741015 -0.11027766 -0.04887354 -0.019251697
0.09124703 0.06511466 -0.004534356 0.040570524 -0.06452681 -0.058068253 -0.043038324 -0.066348396
-0.09788677 -0.09939809 0.010636149 -0.03532447 -0.0877764 -0.04781082 -0.033174846 0.0676172
0.000839557 0.015003413 0.052977044 0.016420847 -0.06691039 -0.08604851 -0.12226591 -0.015358388
-0.009692505 0.019427476 0.040143315 -0.0015349688 2.087557e-05 0.0006209698 -0.078776345 0.03774342
0.016861713 0.02649157 0.097804114 0.030360984 0.017266443 0.02394403 -0.006195108 -0.08158049
-0.054591946 0.043053355 -0.07296255 -0.01405865 0.072900884 -0.047841843 -0.040463302 0.03218722
-0.04129856 0.05785484 0.07464244 0.010842484 -0.03605236 0.009186716 0.070169136 -0.052457772
-0.089980535 0.016314453 0.21491529 0.0005050727 -0.03364404 0.0022122702 -0.021853369 -0.042841475
0.072125055 0.004229266 -0.011676133 0.054074574 -0.035731327 0.00809393 0.1750716 0.052089367
-0.03604943 -0.028433498 -0.120883025 0.122627616 0.002625104 -0.036380608 -0.06612042 0.035699192
-0.037309714 -0.008358848 0.040085 0.032614883 0.014424084 -0.020945482 0.02095711 -0.011273262

network_body._body_endoder.seq_layers.4.bias f4 [256]
00000000: 5690 adbb ca7f 90bb 020e 6bbc 8ee4 8c3a
00000010: f2b1 72bb 2dc0 6dbc 65d7 0f3c f94b 48bc
00000020: 0e73 d33b 6a77 f33a 27f3 05bb 2fc2 b3bb
00000030: e918 63bc 7c7d bb3a eb4c 1cbb e64c 08bc
00000040: 8122 973a fbc9 72bc ee8a 84bc c58e 62bc
00000050: 8c2c 0fbc 124f 2bbc 4919 6ebc d4d3 0bbb
00000060: 37ad 9cbb f00e 02bc 82cb 06bc 4269 34b7
00000070: d411 10bc 9349 3abb 270a 52bb 42fc 3dbc
00000080: d333 3fbc 2ca5 89bc 4543 08bb 58c4 b7bb
00000090: d369 05bc 0c8e 80bc a3eb 5cbc 582a d8bb
000000a0: e79b 93bb 92bf 0abc 407a 78bc 222e dbbb
000000b0: cdb5 61bc 87d5 003c 75a2 b6bb 79a8 1cbc
000000c0: 6d69 fb3a d192 05bc 4169 72bc 15b4 3cbc
000000d0: 602d 4cbb 1d0c 37bb 7f48 17bc c8f4 75bc
000000e0: 4e0f dcbb 9453 c3bb 8e96 acba 080d aebb
000000f0: ad8c 5fbc 98fb e33a d715 37bc 2a35 1bbc
00000100: 7e0d 2fbc ec9c 52bc 583c efbc a57a a3bb
00000110: 5907 b8bb 3719 46bb aabd 2dbc e76c 19bc
00000120: 085f 7cbb 10a6 33bc ab75 2a3c df4a aabb
00000130: 81f9 7dbb dad6 fe39 6057 32bc 6fdf 7dbc
00000140: 0896 8a3a 59ae 86b9 e607 85bc 4d16 4dbc
00000150: b1ef a2bb b51a 9f39 2c28 53ba d156 5abc
00000160: 61fe 943a ee4e 8839 21db 8fbc 3467 a9bb
00000170: 963a 86bb 4ed2 2fbc d503 b6bb 1cc0 52bc
00000180: df53 beb9 6eda 60bc ef2b f33a b4d8 6fb8
00000190: 6bc9 14bc 68bc 71bb e943 01bc 3c39 f4bb
000001a0: a4dc 51bc ef64 c3ba 39d1 a3bb 0f57 383c
000001b0: e023 89bc 632c 3abc 20d0 5dbb 4558 e4ba
000001c0: 2e08 a1bb 715c b4ba fa08 8dbb fbc4 4c3b
000001d0: 87e9 35bb 16a4 3cbc 54e5 1cbc 7354 83bb
000001e0: fe33 8fbb 7aaa 28bc ab0c 0dbc 87cf 94bb
000001f0: 68b9 e2bb cfd4 1cbc e5ad 89bc 1331 07bb
00000200: 87fc d8bb 74c2 c5ba 9a52 a5bb 0ff7 163c
00000210: c983 babb f009 1e3c 9866 31bc c7b4 b73b
00000220: bfc1 09bb c3c2 17bc 7144 14bc f824 93bc
00000230: 73a6 083a 700a d1bb de49 ccba 3f3a 57bb
00000240: 5265 4abb 5411 8eb9 5437 b5bb 8862 043b
00000250: b379 8bbb e346 97bc bb9b 283b 74c8 a9bb
00000260: 7cd2 adbc 0b32 8fbc 7cb1 4fbc 0391 183c
00000270: 9824 14bc 7e88 7ebb db0d b9ba 2fbb d2bb
00000280: 5c5a 0dbb 637f 21ba 06a1 2ab9 da4f 5abb
00000290: 5c7b 693c da9d 423b 3c71 dbbb 1a17 a4bc
000002a0: cfe9 78bc e711 98bc 91a6 4fbc 88d7 e23a
000002b0: bc8f d1bb eb00 87ba d6d6 36bc 0605 5dbc
000002c0: e9eb 103b 8ef0 c639 bee8 b4bb 2d73 2bbc
000002d0: ee3a 42bc 53a2 82bc 950b 74ba c5c4 b23a
000002e0: cdb2 0ebc d853 f43b 63e7 88bc 7e5a c8bb
000002f0: 4ff2 51bc 4c28 fcbb c839 03bc 8f5a 743c
00000300: e05a 87bc 3e41 17bc d504 a23b 993e ca3a
00000310: 13c3 41bc 2a29 5b3b fc19 583b 4f5d 65bb
00000320: d965 b1ba c692 19bc a5a8 a5bc f340 42bb
00000330: ef28 9aba e54f 2cba 84f3 e4ba 1d35 e13b
00000340: 8ba9 8cbc e91e 0abb 00b6 c8bb dd96 5dbb
00000350: e341 aab9 9b97 09bb 59c8 f43b 607b 33bb
00000360: b50f 153b 97de cdbb c80f 9bbc 056a 5f3b
00000370: b82b f73b 578e c7ba 4531 b2bb d423 76bc
00000380: e29e 68bc db57 c63b 5da7 acbb b413 9fba
00000390: 876a 5dbc 1c6c fb3b 664e fcbc 3b62 693b
000003a0: 3851 febb 002c e73a d408 27ba a241 0f3a
000003b0: 6b4b 06bb 7163 ac3a 9015 13bc 67a3 1c3c
000003c0: 6e10 1abc cbe5 0a3c a26e 1eba 20d3 04bc
000003d0: f332 b4bc 4b2e 8c3a f1cb 733b 9f1c 913b
000003e0: 6552 75bc ea0a 4abc 90f6 10bc 4ecf 87bb
000003f0: 6f2a 093c f56e 40ba fae3 313b 404c c3bb
-0.005296747 -0.004409765 -0.014346601 0.0010749267 -0.0037032333 -0.01451115 0.008779381 -0.012225145
0.0064529246 0.0018575017 -0.002043912 -0.005485795 -0.0138609195 0.0014304365 -0.0023849558 -0.008319115
0.0011530669 -0.014818664 -0.016179528 -0.013827984 -0.008738648 -0.010455864 -0.014532396 -0.0021335976
-0.004781391 -0.007938132 -0.008227231 -1.0753343e-05 -0.008793313 -0.0028425201 -0.0032049508 -0.0115957875
-0.011670071 -0.016802393 -0.002079205 -0.005608123 -0.008142906 -0.015692733 -0.013483915 -0.0065968446
-0.004504669 -0.0084685255 -0.015165865 -0.006688849 -0.013776255 0.007863409 -0.0055735656 -0.009561651
0.00191812 -0.00815268 -0.014795602 -0.011517544 -0.0031154975 -0.0027930804 -0.009233593 -0.015011974
-0.0067156916 -0.005960891 -0.0013167427 -0.005311612 -0.01364438 0.0017393706 -0.011174641 -0.0094731245
-0.010684369 -0.012854796 -0.029203579 -0.0049889856 -0.0056161103 -0.0030227432 -0.0106043015 -0.009364343
-0.0038508791 -0.010964885 0.010404031 -0.0051969136 -0.0038753452 0.00048606732 -0.01088509 -0.015495165
0.0010573277 -0.0002568837 -0.016239118 -0.012517524 -0.004972421 0.00030346742 -0.00080549973 -0.013326363
0.0011367315 0.0002599875 -0.017560543 -0.0051697735 -0.0040963395 -0.010731293 -0.005554656 -0.012863185
-0.00036302113 -0.013723953 0.0018552522 -5.718386e-05 -0.009081225 -0.003688598 -0.007889726 -0.007453112
-0.0128089525 -0.00149074 -0.0049993065 0.011251225 -0.01674074 -0.011363122 -0.0033845976 -0.0017421326
-0.004914305 -0.001376046 -0.0043040486 0.003124534 -0.0027757601 -0.0115137305 -0.00957616 -0.00400787
-0.0043702116 -0.010294551 -0.008608977 -0.0045413407 -0.006919075 -0.009572222 -0.016806552 -0.0020628616
-0.0066219005 -0.0015087859 -0.0050452473 0.009214177 -0.0056919795 0.009645924 -0.010827683 0.005606267
-0.0021020023 -0.009262743 -0.009049521 -0.017961964 0.0005212791 -0.006379418 -0.0015585979 -0.0032841114
-0.0030883146 -0.0002709726 -0.0055302773 0.002020033 -0.004256451 -0.018466419 0.0025727588 -0.0051813666
-0.02121853 -0.017479917 -0.012676593 0.009311917 -0.009041928 -0.003883868 -0.0014118509 -0.0064310054
-0.002156875 -0.00061606447 -0.0001627245 -0.0033311755 0.014250603 0.0029696138 -0.006696848 -0.020030547
-0.015192463 -0.018563224 -0.01267399 0.0017306665 -0.0063953083 -0.0010299956 -0.011159619 -0.013489967
0.002211327 0.0003794473 -0.005520909 -0.010464472 -0.01185487 -0.015946543 -0.0009309587 0.0013638964
-0.008709622 0.007456284 -0.016711896 -0.006114303 -0.0128141185 -0.0076952334 -0.008009382 0.014914169
-0.016522825 -0.009231864 0.0049444237 0.0015430033 -0.0118262945 0.0033441284 0.0032974472 -0.0034998243
-0.0013534381 -0.009373372 -0.020222018 -0.0029640764 -0.0011761467 -0.00065731845 -0.0017467593 0.0068727867
-0.017170688 -0.0021075553 -0.0061252117 -0.0033811845 -0.00032474016 -0.0020994905 0.0074701724 -0.002738677
0.0022744958 -0.0062826383 -0.018928424 0.0034090292 0.0075430535 -0.0015224916 -0.0054380023 -0.0150231905
-0.014198037 0.0060529537 -0.0052689747 -0.0012136609 -0.013514168 0.0076727998 -0.030799102 0.0035611528
-0.007761147 0.0017637014 -0.000637186 0.0005464797 -0.002049173 0.0013152194 -0.008977309 0.0095604425
-0.009403331 0.0084776385 -0.0006043707 -0.008106977 -0.02199695 0.0010694949 0.0037200416 0.0044284607
-0.014973258 -0.012331704 -0.008847848 -0.0041445857 0.008371933 -0.00073407526 0.0027143941 -0.0059600174

network_body._body_endoder.seq_layers.6.weight f4 [256, 256]
00000000: 1598 283d a9f8 81bd 0433 55bd 3335 8bbd
00000010: cd3a 11bd 1ed9 2fbd 418b cdbd 25a6 fabb
00000020: 6c51 3ebc b6e8 063c 9569 dbbd 5718 2c3d
00000030: e88f 96bd e90e 5dba 5eb5 b93d 8f83 9d3d
00000040: 59e5 813d a896 243d e136 ac3c 72b6 ad3d
00000050: 611e f2bc 3c23 31ba d493 eebb 17ab 68bd
00000060: 45a3 fe3d bfab 3bbc 8381 ccbd 84b3 91bb
00000070: 23fe 113c 7ff7 19bc 3c9f fd3c 08de 353d
00000080: 1fe3 25bd 3d64 763c bf9c 4bbd c328 eb3c
00000090: 931f c83d 80ec 12bd 1e32 723d 9c52 713b
000000a0: 0960 083d c807 9ebd cebb f5bd a29b 92bc
000000b0: bcaa 5fbd 2e57 bfbd ace4 a5bc 3307 063e
000000c0: 217f 1a3d 050b af3d ce9e 6ebd 961c 063c
000000d0: d5c3 1b3d cfd2 8abd 9738 c0bd a32a 99bd
000000e0: 0613 09be aa7c bf3d f4f3 783a 6828 8dbd
000000f0: 5627 be3d fdbc d03d 7a8c 1dbd 2716 24bc
00000100: 3477 2b3d d0ff 55bc 6ef0 2bbd e8b9 92bd
00000110: be85 9d3d 1f97 963a 2ab3 89bc 5ec3 dd3c
00000120: e927 c4bd 7b18 863d b874 b63c 5c8e e7bc
00000130: 6bd8 aa3c 9134 703d c44e 163e b825 803d
00000140: 0e94 33bd 5c61 e2bd ff1e d63c f5be 6abc
00000150: 1d86 9ebd 8d97 e63c 4827 a6bb 7f6b b43b
00000160: 91bb 38bd a601 3cbd f054 b23c cc8f d23c
00000170: dc00 5bbd c672 eebc 3fa9 8fbd 9368 23bc
00000180: ef76 9e3c d42a 6cbd 2244 98bc 663f 673d
00000190: cf25 84bd 8f0b c3bd d690 853c 676e 2e3d
000001a0: 2e2b c43d c89a 05bd e1ce aebc ecf4 21bd
000001b0: b3b5 ca3c d097 54bd 6604 eebc 8ce2 20bd
000001c0: 7944 253d c52c d7bd e8db 1e3d 3829 093c
000001d0: ffb7 0cbc cc64 85bc a5a1 cb3c 8424 c0bb
000001e0: 8151 adbd fcf8 43bd e5fb fb3d d195 94bc
000001f0: eec5 05be 96e6 bdbd e9ad 56bd d025 adbd
00000200: 59eb 99bd e344 7cbd 6d87 e03d 2f72 333d
00000210: 0a5b 7d3d 7b1e 8eba ee6b 6b3d 5ef4 de3c
00000220: a340 3b3a 93ff 04bd 0a96 d13d eca5 bb3d
00000230: 17fa 0b3d 86d9 5cbd 6401 43bc 3630 2cbd
00000240: 6be7 533c 8a07 f6bc e78d b4bc 06a1 a13d
00000250: 3766 053d 512a 21bc 2f76 0cbe 68ba f1bd
00000260: b460 693d ce74 2d3d 2e12 dd3c 9a63 723d
00000270: c55d 023d 565a 783d c640 4ebd 32ac d5bd
00000280: 6be4 acbd 875c 503b 044a d6bd 3dfc 333a
00000290: 32c0 51bc c511 a43b 0d4b 89bc c109 63bd
000002a0: 711a b93c a7a9 273d 40fc 7d3b cac9 a43d
000002b0: 8487 1c3d 728f 61bc 2af4 3cbd a0ee 0abe
000002c0: 511e 28be 693d 58bd 3e6b 6c3b 2db7 41bd
000002d0: e325 113d b696 18bd d499 4a3d 2ef4 eebd
000002e0: 43df 8dbd 4841 2bbd 6dc3 e43c 8ce7 013d
000002f0: bb3a 44bd eb56 1abd e4f6 e2bd 44a8 1f3d
00000300: c7e1 51bd a1a8 0dbe 7f22 0e3d d6f8 bebd
00000310: 53c2 26bd 410c fdbd b7be 24bc 52c3 5b3c
00000320: e0a1 cbbc 5989 153d f762 7cbd a824 a0bd
00000330: 54e0 463d 4bbc a83c 4c9f b1bc 2a7f 893d
00000340: 8eda 2b3c befa ef3c ed23 473d 4a84 d7bb
00000350: eced cdbd c9db 8f3d a739 c7bc 4841 41bd
00000360: a23a f03c bfa6 f43d 8aa2 783c aadc 7f3c
00000370: b59d db3c 95fa 1cbd 1711 e23c 805a b6bd
00000380: dfc9 95bd 82fb 11be 06cd 87bd 8a07 87bd
00000390: 032b 323d 75bb 893d 041e 3abd fb49 29bc
000003a0: 3388 ccbd 3310 1f3c 65b2 e1bd 31bb c8bb
000003b0: 89a2 793d e4df 24be 1600 80bd f6b8 2f3d
000003c0: 08df db3c 52c9 b03c 7f85 18bd cf8b 29be
000003d0: f8ef 5fbe 8338 e7bc 6043 d03d 2f13 6d3d
000003e0: d2e2 103d 4d15 eabb 8bad e7bc e01c 04bc
000003f0: 1055 7ebc b4ad cfbd fad0 a0bd c701 84bd
0.04116066 -0.06346256 -0.052050605 -0.06797256 -0.035456467 -0.04293167 -0.10036326 -0.0076492005
-0.011616092 0.008234194 -0.107134975 0.0420154 -0.07351667 -0.0008432703 0.09067796 0.076911084
0.06342573 0.04018274 0.021022262 0.08482064 -0.029555501 -0.00067572645 -0.007280806 -0.05680379
0.12433485 -0.011454522 -0.0998564 -0.0044464488 0.008910689 -0.009397387 0.030959718 0.0444012
-0.040499803 0.015038547 -0.04971003 0.02870596 0.09771647 -0.035870075 0.059129827 0.003682292
0.03329471 -0.07716328 -0.119987115 -0.017896477 -0.054606184 -0.093428 -0.02025064 0.13088684
0.037718896 0.08547024 -0.058256917 0.008185526 0.038028557 -0.0677849 -0.09385794 -0.074788354
-0.13386163 0.0934995 0.0009496801 -0.068924725 0.092848465 0.10192297 -0.038464047 -0.010015047
0.041861728 -0.013061479 -0.04197734 -0.07164365 0.07691525 0.0011489129 -0.016809065 0.027070697
-0.09577925 0.06547638 0.022272453 -0.028266124 0.02085515 0.05864388 0.14678484 0.06257194
-0.043842368 -0.11053726 0.026137827 -0.014327754 -0.07740424 0.028148437 -0.0050706007 0.0055059786
-0.045100752 -0.04590001 0.021769017 0.025703333 -0.053467616 -0.029107463 -0.07014703 -0.009973663
0.019343821 -0.05765803 -0.018587176 0.056456946 -0.06452524 -0.09523689 0.016304415 0.042585757
0.09578548 -0.032618314 -0.021338882 -0.039540216 0.024744844 -0.051902592 -0.029054832 -0.039278552
0.040348504 -0.10506586 0.038783938 0.008371644 -0.00858879 -0.016283415 0.024857352 -0.005863728
-0.08462811 -0.047844872 0.123039044 -0.018137844 -0.13063785 -0.092724964 -0.052411947 -0.08454478
-0.07515592 -0.061589133 0.109633304 0.043810066 0.0618544 -0.0010842824 0.057475977 0.027216133
0.00071431155 -0.032470297 0.10233696 0.091625065 0.03417405 -0.053918384 -0.011902187 -0.042038165
0.012933592 -0.030032892 -0.02204032 0.07892041 0.032568183 -0.009836749 -0.13716958 -0.11803132
0.05697699 0.04234772 0.026986208 0.05917702 0.031827707 0.060633026 -0.05035474 -0.10433234
-0.08442005 0.0031793432 -0.10463336 0.00068658945 -0.012802171 0.005007001 -0.01675942 -0.055429224
0.022595616 0.040933277 0.003875509 0.08046301 0.038215175 -0.01376711 -0.04613129 -0.1356759
-0.16417815 -0.05279294 0.0036074664 -0.04729383 0.035436522 -0.037253104 0.04946311 -0.11667667
-0.069273494 -0.041810304 0.027925218 0.03171496 -0.047907572 -0.037680548 -0.11082247 0.03897883
-0.05124071 -0.13833858 0.034700867 -0.093248054 -0.040712666 -0.12355853 -0.010055236 0.013413267
-0.024857461 0.036507938 -0.061617818 -0.078194916 0.04855378 0.020597598 -0.021682404 0.06713708
0.010489119 0.029294368 0.048618246 -0.0065770494 -0.100551456 0.070243426 -0.024319483 -0.047181398
0.029324833 0.11945867 0.015175471 0.015616575 0.026808599 -0.03832491 0.02759604 -0.0890398
-0.073138945 -0.14256099 -0.06630902 -0.06593235 0.04349805 0.06725208 -0.04543878 -0.01033258
-0.099869154 0.009708452 -0.11020354 -0.0061258306 0.06094602 -0.16101032 -0.062500164 0.042901002
0.026839748 0.021580372 -0.037236687 -0.16557239 -0.21868885 -0.02822519 0.10169101 0.057879623
0.035372563 -0.0071436525 -0.028280994 -0.008063525 -0.01552321 -0.10140553 -0.07852359 -0.064456515
