Assets/ML_PPO/results/simpleLoop_6/BoatAgent/BoatAgent-149984.onnx (onnx, 868044 bytes, 21 tensors)

discrete_action_output_shape f4 [1, 6]
0	0x40000000	2.0
1	0x40000000	2.0
2	0x40000000	2.0
3	0x40000000	2.0
4	0x40000000	2.0
5	0x40000000	2.0

network_body._body_endoder.seq_layers.0.weight f4 [256, 57]
0	0x3daeb173	0.085299395
1	0xbc614efa	-0.01375174
2	0xbd040bec	-0.032237932
3	0x3db46aa9	0.08809406
4	0xbe2b1e44	-0.16710764
5	0x3ca4050f	0.020021943
6	0x3ac8df93	0.0015325419
7	0x3d8b6f7b	0.068083726
8	0xbdea688b	-0.11445721
9	0xbe165a52	-0.14682892
10	0x3e38af89	0.18035711
11	0xbd371870	-0.04470104
12	0xbe584374	-0.21119481
13	0x3e6524dd	0.22377343
14	0x3dbabcf1	0.09118069
15	0x3b8e6bf8	0.004346367
16	0x3d067b6b	0.032832544
17	0x3db15882	0.0865946
18	0xbda95c3c	-0.082695454
19	0xbde282bd	-0.110600926
20	0xbe1957b7	-0.14974867
21	0xbe45faf0	-0.19334006
22	0x3e436cd1	0.19084479
23	0xbe039e5d	-0.1285338
24	0x3d6f0fce	0.058364682
25	0x3d6f2ccd	0.058392335
26	0xbe67fa6a	-0.22654119
27	0xbd89042b	-0.06690248
28	0x3da48ac7	0.08034282
29	0x3de60bea	0.11232741
30	0x3e04a725	0.12954386
31	0x3d645e71	0.05575413
32	0x3d0e7406	0.034778617
33	0x3e7b6845	0.24551494
34	0x3d89aeed	0.067228176
35	0x3dfe07f9	0.124038644
36	0xbcc999ea	-0.024609525
37	0xbddf85d5	-0.10914198
38	0xbd636432	-0.055515476
39	0x3cbef8bb	0.023311963
40	0xbcb76af4	-0.022389866
41	0xbe2a2f00	-0.16619492
42	0x3d71cbdd	0.05903231
43	0xbddf3359	-0.10898466
44	0xbe6d28cd	-0.23160096
45	0xbd80d5fd	-0.06290815
46	0xbd8458ac	-0.06462225
47	0x3d072a61	0.0329994
48	0x3c83c3b7	0.016084535
49	0x3d3dde44	0.046354547
50	0xbe2161f9	-0.1576003
51	0x3d395416	0.045246206
52	0xbb208eb7	-0.0024499127
53	0x3ebce89e	0.36896223
54	0xbde92480	-0.11383915
55	0x3bcd25f0	0.006260626
56	0x3d0a2d7f	0.033734795
57	0x3e5cd47e	0.21565434
58	0xb8f13e7b	-0.000115034134
59	0xbd22bcba	-0.039730765
60	0x3e664850	0.22488523
61	0x3de57f09	0.11205871
62	0xbd1569c8	-0.036477834
63	0x3e18fdaa	0.14940515
64	0xbe7b15c7	-0.24520026
65	0x3cce8887	0.025211586
66	0xbe4d1479	-0.20027341
67	0xbdd38127	-0.10327368
68	0xbe3fa471	-0.18715073
69	0x3b9b43cf	0.004738308
70	0x3dd833c2	0.10556747
71	0xbe0e223c	-0.13880247
72	0xbb6fd6d7	-0.003659656
73	0x3ace084d	0.0015719027
74	0xbe521cf4	-0.20518857
75	0x3d477579	0.048696015
76	0xbc1600dd	-0.009155479
77	0x3cd85b69	0.026410775
78	0xbc4b88d6	-0.012422761
79	0xbe5c3733	-0.21505432
80	0x3ce56509	0.028002279
81	0x3b1aa91c	0.0023599332
82	0xbe8b87d7	-0.27252075
83	0xbe685588	-0.22688878
84	0x3d93422a	0.07190354
85	0x3d3d1c1c	0.046169385
86	0x3d8939c4	0.06700471
87	0xbce68f89	-0.028144615
88	0x3e7556b9	0.23958863
89	0x3cad0072	0.021118376
90	0xbea8955b	-0.3292645
91	0x3b244f86	0.0025071814
92	0xbd1af1b4	-0.037828162
93	0x3e1a52e6	0.15070686
94	0xbcf12f09	-0.029441373
95	0xbe0abcd7	-0.13548599
96	0x3cdb6ed7	0.026786251
97	0x3dc8bf08	0.09802061
98	0x3e08d96a	0.13364187
99	0xbd5fd6fd	-0.05464839
100	0x3e6461bb	0.22302906
101	0xbc2056f7	-0.009786359
102	0xbdb3164b	-0.087444864
103	0xbe2e3cf6	-0.17015442
104	0xbda53726	-0.08067159
105	0xbcb55d40	-0.022139192
106	0xbcd7eb4a	-0.026357312
107	0xbd29bc62	-0.04143942
108	0xbd809ab0	-0.06279504
109	0xbdc0a514	-0.09406486
110	0x3e3c04d4	0.18361217
111	0x3d925328	0.07144767
112	0xbdb52433	-0.08844795
113	0xbe4d7d74	-0.20067388
114	0x3e3c9c3d	0.18418975
115	0xbd1d00bc	-0.03833078
116	0x3df0ed01	0.11763955
117	0x3e74d128	0.23907912
118	0xbdf67eff	-0.12035941
119	0x3e5d723e	0.21625611
120	0x3cd0190b	0.025402566
121	0xbd088197	-0.03332671
122	0xbd709103	-0.058732044
123	0x3d5d3d8d	0.054013778
124	0xbe8af229	-0.2713788
125	0x3e314edb	0.17315237
126	0xbe201f89	-0.1563703
127	0x3d6805b2	0.056646056
128	0x3dd70288	0.1049853
129	0xbe36fa0c	-0.17868823
130	0x3d02c723	0.031928193
131	0x3dd79d50	0.10528052
132	0xbea6a412	-0.3254705
133	0x3e327f74	0.17431432
134	0x3d9df541	0.07712794
135	0xbe146df8	-0.14495075
136	0x3e948d01	0.29013827
137	0xbe3fe873	-0.18741016
138	0xbd1270c4	-0.035752073
139	0xbe077356	-0.13227591
140	0xbd88bcd0	-0.06676638
141	0xbd142a04	-0.03617288
142	0x3e5a2a75	0.21305259
143	0x3c9d096a	0.019169528
144	0x3c14d701	0.009084464
145	0x3d9f6695	0.07783238
146	0xbc91abbb	-0.017782083
147	0xbcc472ca	-0.023980517
148	0xbdb9ecd7	-0.09078377
149	0xbd8a3c25	-0.06749753
150	0x3e5bbddd	0.21459146
151	0xbe0c5f93	-0.13708334
152	0x3e81fc99	0.2538803
153	0xbb600fb5	-0.003418905
154	0xbda8e850	-0.08247435
155	0xbd768b73	-0.060191583
156	0x3e8109c8	0.25202775
157	0xbb2368c1	-0.0024934264
158	0xbe28f9e5	-0.16501577
159	0xbd8e4ce1	-0.06948257
160	0xbdf2cb73	-0.11855211
161	0x3e2b51e7	0.16730462
162	0x3d67b28d	0.056566764
163	0x3e062777	0.13100992
164	0x3e31fafa	0.17380896
165	0xbe010530	-0.12599635
166	0x3dfb8e87	0.12283044
167	0x3dccf20a	0.10007103
168	0xbc3451db	-0.011005844
169	0xbde2eec5	-0.11080698
170	0x3d844687	0.064587645
171	0x3d0c2301	0.03421307
172	0xbdfb90f4	-0.12283507
173	0xbe2d42bf	-0.16919993
174	0x3e08dbc7	0.13365088
175	0xbe8a2d1e	-0.26987547
176	0x3d81831b	0.063238345
177	0xbe2b6329	-0.16737045
178	0xbdbc487f	-0.09193515
179	0xbe222dea	-0.15837827
180	0x3e6556d2	0.223964
181	0x3e468433	0.19386367
182	0xbdea3f45	-0.11437849
183	0xbd3aef2d	-0.045638252
184	0x3d549d42	0.051907785
185	0x3e274e4f	0.16338466
186	0xbe19fb27	-0.15037213
187	0xbdb20b92	-0.08693613
188	0x3d9b0a68	0.07570344
189	0x3e3af6d3	0.18258218
190	0xbd75cfbe	-0.06001257
191	0xbdbdb19e	-0.092623934
192	0xbdcfc9f9	-0.10145945
193	0x3dcff9fa	0.10155101
194	0xbe89894a	-0.26862556
195	0x3dead140	0.114656925
196	0xbe381c12	-0.17979458
197	0x3e629b17	0.22129475
198	0x3e5de697	0.21669994
199	0x3db08ea4	0.086209565
200	0x3b75d2c9	0.003750967
201	0x3ceedab2	0.029157016
202	0xbdb273c3	-0.08713486
203	0xbe3396c6	-0.17537984
204	0xbe50b9f8	-0.20383441
205	0xbd26230d	-0.04056077
206	0x3da1fd75	0.07909671
207	0x3ddaed50	0.10689795
208	0x3d6a5f8e	0.057220034
209	0x3ea13d90	0.3149228
210	0x3cfe04da	0.031008173
211	0xbe843bc8	-0.2582686
212	0xbd80fb22	-0.062979
213	0x3d7681cf	0.06018239
214	0x3d516a5a	0.051126815
215	0x3e0326dd	0.12807794
216	0xbccde584	-0.025133856
217	0x3d7a4601	0.061101917
218	0x3e51d804	0.2049256
219	0xbdf3c43a	-0.119026616
220	0xbbfd15f0	-0.0077235624
221	0xbccdef66	-0.025138568
222	0x3dba8c4e	0.09108792
223	0x3bcfc03e	0.0063400557
224	0x3d1b4dfd	0.037916172
225	0xbdba47c4	-0.090957195
226	0xbe97a03c	-0.29614437
227	0x3ddbbdf7	0.10729592
228	0x3e07255c	0.13197845
229	0xbe0c80d9	-0.13721026
230	0x3e017129	0.12640823
231	0x3e49f49d	0.19722219
232	0x3c87a02f	0.016555874
233	0xbe09e41c	-0.13465923
234	0x3e3712d6	0.17878279
235	0x3cb87f6e	0.0225217
236	0x3d9993c5	0.07498888
237	0x3db8ce09	0.09023673
238	0x3ece9fc2	0.4035626
239	0xbe0bb4f8	-0.13643253
240	0xbd57432d	-0.0525543
241	0x3d29cbe3	0.041454207
242	0xbe8b38d3	-0.2719179
243	0x3e8a1bf9	0.26974466
244	0xbde92793	-0.11384501
245	0xbe25f382	-0.16206172
246	0xbd4af4f3	-0.049550008
247	0x3c1720ff	0.0092241755
248	0xbe4d13cb	-0.20027082
249	0x3df7f1fe	0.12106703
250	0x3b95070c	0.004547959
251	0xbe2793f8	-0.1636504
252	0xbda7b163	-0.08188131
253	0xbe1fe856	-0.15615973
254	0xbda00574	-0.0781354
255	0xbe105fe9	-0.14099087

network_body._body_endoder.seq_layers.0.bias f4 [256]
0	0xbc7a8ad6	-0.01529189
1	0x3ba911e5	0.005159604
2	0xbbd22aed	-0.0064138086
3	0xbc8dbb9e	-0.017301377
4	0x3bdbb796	0.0067052348
5	0x3c985860	0.018596828
6	0xbb298c2d	-0.0025870905
7	0xbc0a00b1	-0.008423016
8	0xbb0506f1	-0.0020298327
9	0xbc1ed4fe	-0.009694336
10	0x3c961ecd	0.018325234
11	0xbc3045ed	-0.010758859
12	0xbc1539eb	-0.009108047
13	0x3c1bdd4d	0.009513211
14	0xbcab3f41	-0.020904185
15	0xbc31f740	-0.010862172
16	0xbc22ffb0	-0.009948656
17	0xbc29537a	-0.010334844
18	0xbc69a917	-0.014261506
19	0xbca2412a	-0.019806463
20	0xbbaf09a0	-0.0053417236
21	0xbbb0a1a0	-0.005390361
22	0xbbb25cc8	-0.0054431893
23	0x3ae20972	0.0017245247
24	0xbb97cfb1	-0.004632913
25	0xbcfd0701	-0.030887129
26	0xbbf62569	-0.007511784
27	0x3cfe0326	0.03100736
28	0x3c089da4	0.008338366
29	0xbcf2a933	-0.029621696
30	0xbc71fa83	-0.014769199
31	0xbc31a824	-0.0108433105
32	0x3bfd5e20	0.007732168
33	0x3b3ca4aa	0.002878467
34	0xbc993df5	-0.018706301
35	0x3cb81b7e	0.022474047
36	0xbc68616f	-0.014183386
37	0x3c097082	0.00838864
38	0x3c7f7880	0.015592694
39	0x3c33bf02	0.010970833
40	0xbc72734f	-0.0147979995
41	0xbd061aa6	-0.032740258
42	0x3cabc36b	0.020967206
43	0x3c7da920	0.015482217
44	0x3c441036	0.011966756
45	0xbcc4ed24	-0.024038859
46	0x3be08b3b	0.006852535
47	0xbcf9d2aa	-0.03049596
48	0x3a9c02a7	0.0011902646
49	0x3c3c7f5a	0.011504972
50	0x3bdc037e	0.0067142835
51	0xbc143fcc	-0.0090484135
52	0x3c4c85df	0.012483089
53	0x3c8257df	0.01591104
54	0x3d31c625	0.043401856
55	0xbc8f4e77	-0.01749347
56	0x3b9f7800	0.0048666
57	0x3ce2c48b	0.02768161
58	0xbc0d0937	-0.008608154
59	0xbc54057b	-0.01294076
60	0x3c63a590	0.013894454
61	0xbbaabc16	-0.00521041
62	0x3c704289	0.014664301
63	0x3c3862e3	0.011254045
64	0x3b908069	0.004409839
65	0x3c683adc	0.014174189
66	0xbb25ca09	-0.0025297424
67	0xbb205537	-0.0024464855
68	0x3d0c701f	0.034286615
69	0x3ce0676e	0.02739307
70	0x3cb2bdc1	0.021818997
71	0xbc220518	-0.00988891
72	0xbcdc5a26	-0.026898455
73	0x3cbd21dc	0.023087434
74	0xbc095d0f	-0.008384003
75	0xbc3d0325	-0.011536394
76	0xbce8552a	-0.028360922
77	0xbc0277d7	-0.007963142
78	0x3d0f5c4a	0.035000123
79	0x3c867b48	0.016416207
80	0xbbc799ef	-0.0060913484
81	0xbb8248b6	-0.003975953
82	0x3b351dec	0.0027636243
83	0x3cdb45d9	0.026766704
84	0xbcc18f16	-0.023627799
85	0x3c838376	0.016053896
86	0x3c3a1fcb	0.011360119
87	0x3d93a667	0.07209473
88	0x3cc4c8b4	0.024021484
89	0xbc39ec93	-0.011347908
90	0x3b84c098	0.0040512793
91	0xbb02cc3d	-0.0019958161
92	0xbc04d0ff	-0.008106469
93	0xbd18f906	-0.037346862
94	0xbc4135f8	-0.011792652
95	0xbc06c3c1	-0.008225382
96	0xbc3f33b3	-0.011670041
97	0xbcbc3732	-0.022975538
98	0x3c105260	0.008808702
99	0x3c8d0559	0.017214464
100	0x3bb383d5	0.005478362
101	0x3c2cf9e5	0.010557626
102	0xbcc0e182	-0.02354503
103	0x3c32ad36	0.0109055545
104	0x3c9d2f0b	0.01918747
105	0x3c624eda	0.013812745
106	0x3c4dc796	0.012559792
107	0xbd3d0e4c	-0.046156213
108	0x3b01aaab	0.0019785564
109	0xbb511d25	-0.003190824
110	0xba85cd43	-0.0010208267
111	0x3d22a1d7	0.039705124
112	0xbd0962c2	-0.03354145
113	0x3c64bcdd	0.013961044
114	0x3bee3b04	0.007270219
115	0x3c8923e6	0.01674075
116	0x3bf1a2b8	0.007374134
117	0x3d15f26e	0.036608152
118	0x3b0ca46f	0.0021460315
119	0x3c6543b4	0.013993192
120	0xbc6b290d	-0.014353049
121	0x3c18b030	0.00931935
122	0xbc75398c	-0.0149673335
123	0x3d2889a0	0.041146874
124	0xbc908d73	-0.017645573
125	0xbba72eab	-0.005101999
126	0xbcd67fe7	-0.026184035
127	0xbc3cf2bb	-0.011532481
128	0xbcb694a8	-0.022287682
129	0x3cdd719e	0.027031716
130	0x3c42a2ce	0.011879636
131	0x3c00cad5	0.007860859
132	0xbc99a8cf	-0.018757252
133	0x3c0b6f5c	0.008510437
134	0x3bb1e276	0.0054286076
135	0x3cc4e120	0.02403313
136	0xbc4307ad	-0.0119036855
137	0xbcab83e4	-0.020936914
138	0xbb411668	-0.0029462818
139	0xbc5f780b	-0.01363946
140	0x3be41337	0.0069602984
141	0x3cf90d22	0.03040177
142	0x3c37ef90	0.01122655
143	0xbc8c218a	-0.017105836
144	0xbcd806f8	-0.02637051
145	0x3ba95fbe	0.005168884
146	0x3c922cbe	0.0178436
147	0xbb1d387a	-0.0023989961
148	0xbc86bf2f	-0.016448585
149	0xbcdb615b	-0.026779821
150	0xbaf63370	-0.001878364
151	0xbc00807c	-0.007843133
152	0x3babfc73	0.0052486
153	0xbbe9753b	-0.0071245707
154	0xbb98593f	-0.004649311
155	0x3b825dda	0.003978473
156	0x3bbd3d87	0.005775157
157	0x3c0405d4	0.00805803
158	0xbb6b4f66	-0.003590548
159	0x3c9cb725	0.019130299
160	0x3c24d78d	0.010061157
161	0x3b2ccab0	0.0026365928
162	0x3c1c8024	0.0095520355
163	0xbcf21eca	-0.029555697
164	0xbc6954ab	-0.014241378
165	0x3ce7ce3c	0.028296582
166	0x3a614ec6	0.0008594807
167	0x3ac5c0e7	0.0015087397
168	0xbada2f81	-0.0016646237
169	0xbc2bdc7a	-0.010489577
170	0x3b03c527	0.0020106526
171	0x3d06be9f	0.032896634
172	0x3cc248af	0.023716299
173	0x3a887a31	0.0010412392
174	0xbc323f84	-0.010879401
175	0xbd00a9a1	-0.03141177
176	0xbc2063ef	-0.009789451
177	0xbcf9d789	-0.030498283
178	0x3ce6596b	0.02811881
179	0x3ca8df3a	0.020614255
180	0xbbe6a767	-0.007038999
181	0xbb45b37c	-0.0030166795
182	0x3c28710d	0.01028086
183	0xbc814f4f	-0.015784888
184	0x3c8a25a2	0.016863648
185	0xbc4246f3	-0.011857736
186	0xbd0cf2f6	-0.034411393
187	0xbc2a933e	-0.010411082
188	0xbcc3770f	-0.023860482
189	0xbc828785	-0.015933761
190	0x3c261a7b	0.010138149
191	0xbc32cf47	-0.010913677
192	0x3cdc5053	0.02689377
193	0xbd16822d	-0.03674524
194	0xbc83a24a	-0.016068596
195	0x3c9f68d2	0.019459162
196	0x3c773bc5	0.015089934
197	0x3c881e53	0.016616022
198	0xbd07f89c	-0.033196077
199	0x3c8622b0	0.016373962
200	0xbbcdf6ee	-0.00628554
201	0x3c416200	0.01180315
202	0x3c40c393	0.0117653785
203	0x3cbb9980	0.022900343
204	0x3c9b0fbf	0.018928407
205	0xba21904a	-0.00061631633
206	0x3a17fee9	0.00057981774
207	0x3bbebb84	0.0058206934
208	0x3cf82559	0.030291246
209	0xbbb66fe6	-0.0055675386
210	0x3ba409c9	0.0050060493
211	0x3c279d48	0.01023037
212	0x3c3aeebc	0.011409458
213	0xbccc2ef4	-0.024924733
214	0x3cf1139e	0.0294283
215	0xbc4fa52d	-0.012673658
216	0xbd11303d	-0.035446394
217	0x3c264223	0.010147604
218	0x3c1e519c	0.009663012
219	0xbca244cd	-0.019808197
220	0x3b018916	0.0019765547
221	0xbc0925bd	-0.008370814
222	0x3ca6e826	0.020374369
223	0x3beec1aa	0.00728627
224	0x3bb8ebc9	0.005643342
225	0xbb0d6ec0	-0.0021580905
226	0xbce0c2a8	-0.02743657
227	0x3c9aca47	0.018895281
228	0x3beab35e	0.0071624955
229	0x3cab4592	0.020907197
230	0x3c2ccb33	0.010546493
231	0xb99096a4	-0.00027578056
232	0xbc393993	-0.011305231
233	0xbcebea26	-0.028798174
234	0xbcc68940	-0.024235368
235	0x3d0b6807	0.034034755
236	0xbbb96f02	-0.005658985
237	0xbb528950	-0.0032125302
238	0xbb0e1e05	-0.0021685374
239	0xbc49ef89	-0.012325176
240	0x3b336453	0.002737303
241	0xbc0c750f	-0.008572831
242	0xbbf18f4f	-0.00737182
243	0xbc9f1d4a	-0.019423146
244	0xbcacd1b3	-0.021096086
245	0xbc8ee29b	-0.017442038
246	0xbc1f4512	-0.0097210575
247	0xbc5133ee	-0.012768729
248	0xbca6fd9c	-0.020384602
249	0x3cb12f08	0.021628872
250	0xbc0d08ed	-0.008608085
251	0x3c265621	0.010152371
252	0xbc58ba5d	-0.013228026
253	0xbc9b20a6	-0.018936466
254	0xbb0a5261	-0.002110623
255	0x3b0ec28d	0.0021783442

network_body._body_endoder.seq_layers.2.weight f4 [256, 256]
0	0x3cb06893	0.02153424
1	0x3d047da3	0.03234638
2	0xbd9d846d	-0.07691274
3	0x3d11e83d	0.03562187
4	0x3c556711	0.013025061
5	0xbd17b6b1	-0.037039462
6	0x3dbfe91b	0.09370633
7	0x3d3e5fa3	0.046477925
8	0xbda0faa8	-0.07860309
9	0x3d27c284	0.04095699
10	0xb9de8c36	-0.00042447605
11	0x3d305393	0.043048453
12	0xbc1188cc	-0.008882713
13	0xbd16b1ba	-0.036790587
14	0xbd380110	-0.04492289
15	0xbcf73052	-0.030174408
16	0xbb8bc8b3	-0.0042658686
17	0xbc2fb059	-0.010723197
18	0xbd47544e	-0.048664384
19	0xbc3964c1	-0.0113155255
20	0x3ddd527f	0.108067505
21	0xbdbdf4c1	-0.09275199
22	0xbda85888	-0.08220011
23	0xbce6660e	-0.028124835
24	0x3cfe5505	0.0310464
25	0xbd0a0c39	-0.033703063
26	0xbc35d528	-0.011098184
27	0x3dec87d5	0.115493454
28	0xbba213fd	-0.0049462304
29	0xbb330d22	-0.002732106
30	0x3d99463d	0.074841
31	0xbdaf808b	-0.085694395
32	0xbc2c65be	-0.010522304
33	0x3d95537a	0.072913125
34	0x3ce01abb	0.027356496
35	0x3d985915	0.07438866
36	0xbc9fd168	-0.019509032
37	0x3d4cf2ec	0.050036356
38	0xbd59ba1b	-0.053156
39	0xbd8f01ce	-0.06982766
40	0x3bffa191	0.0078012426
41	0x3db4dc87	0.08831125
42	0x3d9c76ee	0.076398715
43	0x3d6f134a	0.058368005
44	0xbc8bf363	-0.01708383
45	0x3c13afa8	0.009014048
46	0xbddc95ea	-0.10770781
47	0xbd0fbb37	-0.03509065
48	0x3d2bbfd5	0.041930992
49	0xbe1a033c	-0.15040296
50	0xbd869206	-0.065708205
51	0x3d5e54bb	0.054280024
52	0x3cb343a1	0.021882834
53	0xbc4117a2	-0.01178542
54	0x3c29ef6e	0.010372026
55	0x3adc42b6	0.0016804549
56	0xbc600db8	-0.013675146
57	0xbdec82f3	-0.11548414
58	0xbdcf07d8	-0.10108918
59	0x3cc85f2f	0.02445945
60	0x3e16de25	0.14733179
61	0x3d02139c	0.031756982
62	0xbd8bbd1f	-0.06823181
63	0x3c402e90	0.011729851
64	0x3d8a8bd6	0.06764953
65	0xbcf52d9b	-0.029928973
66	0xbd5d742d	-0.054065872
67	0x3d103388	0.035205394
68	0x3cbafcde	0.022825655
69	0xbc62a118	-0.013832353
70	0xbd62c70d	-0.05536561
71	0x3ddaaa92	0.10677065
72	0x3c8ea5bb	0.01741301
73	0xbc2ab279	-0.010418528
74	0x3b377dc8	0.0027998555
75	0xbcbc7b4c	-0.023008011
76	0x3cc69c86	0.024244558
77	0xbcf6b141	-0.030113818
78	0xbe259e98	-0.1617378
79	0x3cdeb398	0.027185246
80	0xbd86e28b	-0.065861784
81	0x3d687b04	0.05675794
82	0xbda1ad67	-0.07894402
83	0x3d5a0c8a	0.053234614
84	0x3d400e0c	0.046888396
85	0xbcffbf43	-0.03121913
86	0x3d2d8f66	0.042373084
87	0x3c8f5535	0.017496685
88	0x3c51f375	0.012814392
89	0xbbd0d35a	-0.0063728513
90	0xbd2db776	-0.04241129
91	0x3c84e2fb	0.016221514
92	0xbda14fd5	-0.07876555
93	0x3d62b06b	0.055344027
94	0x3b05f110	0.0020437874
95	0x3d9488d3	0.0725266
96	0xbd200c61	-0.039074305
97	0xbd9330bd	-0.071870305
98	0x3d9fa3ec	0.077949375
99	0xbca3a752	-0.019977245
100	0xbd7b1f19	-0.061308954
101	0x3d4a3818	0.0493699
102	0x3c96b435	0.018396476
103	0x3d7ed5da	0.062215663
104	0xbcb4c110	-0.022064716
105	0xbce34f93	-0.027747905
106	0xbc8d9d3c	-0.01728689
107	0x3d11e666	0.035620116
108	0x3d81b41b	0.063331805
109	0x3cd371fc	0.025811188
110	0xbe06b675	-0.1315554
111	0xbc5edc47	-0.013602323
112	0xb8cefbd8	-9.869755e-05
113	0xbd350a43	-0.04419924
114	0x3d34a9ed	0.044107366
115	0x3d86aec3	0.06576302
116	0x3c1d7072	0.009609329
117	0x3bdc195b	0.00671689
118	0xbd8aa5ed	-0.06769929
119	0x3cc10c61	0.023565473
120	0x3d22bc0d	0.03973012
121	0xbe1fdc2e	-0.15611336
122	0x3cd085be	0.025454398
123	0xbc165afe	-0.009176968
124	0x3de01ef5	0.109434046
125	0xbd6d3c86	-0.057919048
126	0x3db2d12a	0.08731301
127	0x3bc45d3d	0.00599256
128	0xbc773b13	-0.015089768
129	0x3dabdf65	0.083922185
130	0xbe42878e	-0.18997023
131	0xbcc3c1a1	-0.02389604
132	0x3c445ee0	0.011985511
133	0xbd60516a	-0.054765143
134	0xbc391c68	-0.0112982765
135	0xbd770ad7	-0.060313072
136	0xbdb4abe1	-0.08821846
137	0xbb0b4942	-0.0021253382
138	0xbcf19300	-0.02948904
139	0x3ba45657	0.0050151753
140	0xbe1372c8	-0.14399254
141	0xbac26a46	-0.0014832697
142	0x3cb918a4	0.022594757
143	0x3caf7923	0.021420067
144	0x3d1ce1e4	0.038301364
145	0xbcab32d2	-0.020898256
146	0xbd957172	-0.072970286
147	0x3d498e75	0.049208123
148	0x3d1f49dc	0.038888797
149	0xbd590493	-0.052982878
150	0xbcf9bc4c	-0.030485295
151	0xbdffd3ae	-0.124915466
152	0xbd01c36d	-0.031680513
153	0xbccb176e	-0.024791446
154	0xbe02f258	-0.1278776
155	0xbda6787b	-0.081284486
156	0xbd1574c4	-0.03648831
157	0x3ca7d1f7	0.020485861
158	0xbcc1a3ce	-0.023637678
159	0xbdd4017c	-0.103518456
160	0x3bbfaf19	0.0058497307
161	0x3d6aec9a	0.057354547
162	0x3d38df0a	0.04513458
163	0x3d7ba601	0.06143761
164	0xbdf70123	-0.12060764
165	0x3da53c64	0.08068159
166	0xbb8f186f	-0.0043669264
167	0xbdf2b67a	-0.11851211
168	0xbd7ccd7e	-0.06171941
169	0x3cf5d706	0.030009758
170	0x3be280b4	0.0069123153
171	0x3bb91599	0.0056483266
172	0x3d155aae	0.036463432
173	0xbd5ceee6	-0.05393877
174	0x3da1c014	0.07897964
175	0x3c9d14f0	0.019175023
176	0xbcd3dc32	-0.025861833
177	0xbc0d4548	-0.008622475
178	0xbd1c8922	-0.038216718
179	0xbcadace1	-0.0212006
180	0x3c297395	0.010342498
181	0xbd0bb44a	-0.034107484
182	0x3cba2002	0.02272034
183	0xbd33e5dd	-0.043920387
184	0x3bc6894b	0.006058847
185	0xbe05c4cf	-0.13063358
186	0xbc9ce53f	-0.019152282
187	0xbd931ced	-0.071832515
188	0x3b83eb75	0.0040258714
189	0xbd528211	-0.051393572
190	0xbd9d8558	-0.07691449
191	0x3c2d6776	0.010583749
192	0xbdc3aeec	-0.09554848
193	0xbe47054a	-0.19435611
194	0xbd72e9d7	-0.05930504
195	0xbd247770	-0.040152967
196	0xbbc7263a	-0.006077555
197	0xbcdd2a64	-0.026997752
198	0xbdbba887	-0.091630034
199	0xbe282bc8	-0.16422951
200	0xbd2d38b4	-0.042290404
201	0x3c1d649b	0.009606506
202	0x3dd76079	0.105164476
203	0x3c4f5223	0.01265386
204	0x3d1d14d3	0.038349938
205	0xbc03fe24	-0.008056197
206	0xbda1a6f8	-0.07893175
207	0xbd06800a	-0.03283695
208	0x3d8a95d8	0.06766862
209	0xbd44e20e	-0.048067145
210	0x3d9990fe	0.07498358
211	0x3cf50167	0.029907895
212	0x3d2a88fe	0.041634552
213	0xbd939a45	-0.07207159
214	0xbd6c0cc1	-0.05762935
215	0x3c3a48d9	0.011369907
216	0xbd93f155	-0.07223765
217	0x3c1251c6	0.008930629
218	0x3d5cbe8a	0.05389265
219	0x3ca4da04	0.02012349
220	0xbacd9557	-0.0015684766
221	0xbde80b12	-0.113302365
222	0xbc0c2590	-0.0085538775
223	0x3d8826f6	0.06648056
224	0xbd444b64	-0.04792346
225	0xbdc6d4b0	-0.09708536
226	0x3cdb527f	0.026772736
227	0x3cc6f0d1	0.024284752
228	0x3c4bfcea	0.012450436
229	0xbd54bae5	-0.05193605
230	0xbd5e4405	-0.054264087
231	0xbd00d328	-0.031451374
232	0xbc402ea1	-0.011729867
233	0xbd90a8e6	-0.07063465
234	0x3d67ff0d	0.05663972
235	0x3e056329	0.13026108
236	0xbd72b2c1	-0.059252504
237	0xbd30443f	-0.043033835
238	0x3e0c89d5	0.13724454
239	0xbd7ecc74	-0.0622067
240	0x3cc0aa4b	0.023518702
241	0xbc9ca02b	-0.019119343
242	0x3d929379	0.071570344
243	0xbe0b7885	-0.13620193
244	0x3d8aa56a	0.067698315
245	0x3d07df2c	0.033171818
246	0xbcde9991	-0.027172836
247	0x3da92147	0.082583
248	0xbc3ac94e	-0.011400534
249	0xbcc33c65	-0.02383251
250	0xbdb14445	-0.086555995
251	0xbd0fb472	-0.035084195
252	0x3c9b3b34	0.018949129
253	0xbd321a18	-0.043481916
254	0xbd28823f	-0.041139837
255	0xbd4a2ec1	-0.049360994

network_body._body_endoder.seq_layers.2.bias f4 [256]
0	0xbc073bb6	-0.008253982
1	0xbba56c80	-0.0050483346
2	0xbc0bb617	-0.0085273
3	0xbcc7180f	-0.024303464
4	0xbc9c9172	-0.019112322
5	0xbc3557d3	-0.011068302
6	0xbbcad4c5	-0.006189915
7	0x3b24e7ab	0.00251625
8	0x3c39448f	0.01130785
9	0x3c9bc84f	0.019016413
10	0xbcbe7482	-0.023248915
11	0xbb9d4d26	-0.0048004566
12	0xbcb0c458	-0.021577999
13	0x3c3bdae7	0.011465765
14	0xbcb25fd7	-0.021774216
15	0xbc3e25a1	-0.011605651
16	0xba0f5f38	-0.0005469206
17	0xbc89a2b3	-0.016801214
18	0x3bbec7f5	0.0058221766
19	0x3c2ff6d9	0.010740005
20	0x3ab854a3	0.001406331
21	0xbc774820	-0.0150928795
22	0x3c7d59a5	0.015463267
23	0x3b5adfbe	0.003339752
24	0xbba63154	-0.0050717983
25	0x3b23c3fc	0.0024988642
26	0x3ccdce7a	0.02512287
27	0xbb8564eb	-0.0040708682
28	0xb9b54277	-0.0003457253
29	0x3b1d0dce	0.0023964527
30	0xbc5c6fc4	-0.013454381
31	0xbc131d84	-0.008979205
32	0xbb1a5d19	-0.0023554026
33	0x3c700705	0.014650111
34	0xbc7d894d	-0.01547463
35	0x3d369114	0.04457195
36	0x3c2ca645	0.010537689
37	0x3cab29ed	0.020894015
38	0x3c0af661	0.008481593
39	0xbcf9604d	-0.030441428
40	0xbbf52cc6	-0.007482144
41	0x3ca13e2b	0.019682964
42	0x3ce6bd4f	0.028166441
43	0xbc6d6122	-0.01448849
44	0xbbaefe1e	-0.0053403517
45	0x3d09bfef	0.033630308
46	0x3c1c81e8	0.009552456
47	0x3ae18009	0.0017204295
48	0xbc21223a	-0.00983482
49	0x3c96ac91	0.018392833
50	0xbc961e4e	-0.018324997
51	0x3bf92982	0.007603825
52	0xbc825839	-0.015911208
53	0x3c54d43a	0.012990052
54	0x3b8e64cf	0.0043455134
55	0x3b1bf1c0	0.0023795217
56	0x3c5489b2	0.012972282
57	0x3c7e2497	0.015511653
58	0xbb4df408	-0.0031425972
59	0x3a565523	0.00081761385
60	0xb993e013	-0.00028204973
61	0x3ad0d287	0.0015931883
62	0xbc18c5ab	-0.0093244715
63	0xbcaa22b0	-0.020768493
64	0x3c75804b	0.014984201
65	0x3bde3eb7	0.0067823785
66	0x3acd0bff	0.0015643834
67	0x3baa23ea	0.0051922696
68	0x3ce5021f	0.027955113
69	0x394265ad	0.00018539159
70	0xbbdfc31f	-0.00682868
71	0xbc20631c	-0.0097892545
72	0xbafd3dca	-0.0019320783
73	0x3ac2a2c9	0.0014849539
74	0x3c1b8691	0.009492532
75	0x3cb5a752	0.022174511
76	0x3b24f346	0.0025169416
77	0x3ad3e4a9	0.0016166168
78	0x3bff2b46	0.007787141
79	0xbc3f32de	-0.0116698425
80	0x3d2033d2	0.03911192
81	0x3bb6364b	0.0055606714
82	0xbcb0ae5b	-0.021567514
83	0x3bf8e4be	0.0075956276
84	0x3b30218d	0.0026875467
85	0xbc7ddee5	-0.015495037
86	0xbb9b9e9e	-0.0047491333
87	0x3b8d449f	0.004311159
88	0xbbf6844d	-0.0075230957
89	0x3c9eb520	0.019373477
90	0x3c5e8a6b	0.013582806
91	0xbcf7fbf4	-0.030271508
92	0x3c332c27	0.01093582
93	0x3c8bc3f7	0.017061217
94	0xbb04ec9d	-0.0020282634
95	0xbb28e6f4	-0.0025772424
96	0xbb55cdc9	-0.0032623878
97	0x3b84ed85	0.004056635
98	0x3cec33f6	0.02883337
99	0x3a6e501f	0.00090909185
100	0x39cda741	0.0003922526
101	0xbc13ad86	-0.009013539
102	0xbbbbc3a2	-0.0057301084
103	0x3c85cb43	0.016332274
104	0x3bce5441	0.006296665
105	0xbb009552	-0.0019620252
106	0x3c857664	0.016291805
107	0x3c92688d	0.01787212
108	0x3a97b806	0.0011575229
109	0xbcb4c06e	-0.022064414
110	0x3cc13d8f	0.023588924
111	0x3c170097	0.009216449
112	0xbb5f345f	-0.0034058315
113	0x3bcdf617	0.0062854397
114	0xbcae3cf7	-0.021269305
115	0x3bcce527	0.006252903
116	0xbc8ea1a4	-0.01741106
117	0xbc0e22f3	-0.008675325
118	0xbbcd2b2c	-0.00626125
119	0x3b21413c	0.0024605533
120	0xbbc066d8	-0.005871635
121	0x3cc89715	0.024486104
122	0xbc19bb59	-0.009383046
123	0xbc057c5f	-0.008147328
124	0xbaab4f68	-0.001306993
125	0xbb08a390	-0.0020849444
126	0xbc93b438	-0.018030271
127	0xbbdbf5a4	-0.0067126323
128	0x3c8b3149	0.016991274
129	0xbccf86bd	-0.025332803
130	0xbbbd41fc	-0.005775688
131	0x3bb3bdd0	0.005485274
132	0xbcb4e146	-0.022080075
133	0x3b75dc71	0.0037515427
134	0xbbe20c19	-0.006898415
135	0x3cda7dee	0.026671376
136	0xbcb12d77	-0.021628125
137	0x3a0c0c44	0.0005342404
138	0x3c00c6e6	0.007859921
139	0xbb675af4	-0.0035302015
140	0xbc1bfe8c	-0.009521138
141	0x3c0b923c	0.008518752
142	0x3c2135f0	0.00983952
143	0xbc4207e1	-0.011842699
144	0xbb9280a1	-0.0044709
145	0xbc4b6a78	-0.012415521
146	0xbb02fb7e	-0.0019986327
147	0x3c895017	0.016761823
148	0xbb05122e	-0.0020305025
149	0xb9c87681	-0.00038235265
150	0xbb9ec442	-0.004845173
151	0xbc9c38dd	-0.019070083
152	0x3bcc321f	0.006231561
153	0x3b99c47c	0.004692612
154	0x3c295de0	0.010337323
155	0x3c8803d4	0.016603388
156	0xbd14feac	-0.036375687
157	0xbc289e97	-0.010291717
158	0x3b5426dd	0.0032371797
159	0xbc429deb	-0.011878471
160	0xbcca4106	-0.024689209
161	0xbb439383	-0.0029842563
162	0xbbdf8541	-0.006821305
163	0x3cd850ea	0.02640577
164	0xbcc227f9	-0.023700701
165	0x3bec9928	0.007220406
166	0xbcb8d7a0	-0.022563756
167	0xbc8c0347	-0.017091407
168	0x3c83297e	0.016010996
169	0xbc89e69a	-0.016833592
170	0xbbb5c736	-0.0055474294
171	0xbc1bfeb9	-0.00952118
172	0x3b73e02b	0.0037212472
173	0xbca7a559	-0.020464586
174	0xbb4ae35f	-0.0030958278
175	0x3a07243f	0.00051552424
176	0xbc681e7d	-0.014167425
177	0x3c503654	0.012708265
178	0x3ba14a7c	0.0049222093
179	0x3cee3099	0.029075908
180	0xbc22e5ac	-0.009942453
181	0x3a4a384a	0.0007714076
182	0x3c05bc5e	0.008162586
183	0xbc1b7e65	-0.009490584
184	0xbc19fc34	-0.009398509
185	0xbc1ce53e	-0.00957614
186	0x3d3657eb	0.04451744
187	0x3cf00599	0.029299544
188	0xb89ee866	-7.577315e-05
189	0xbc8dba31	-0.017300697
190	0xbbc72cbf	-0.006078332
191	0x3c7a1be6	0.015265441
192	0xba97e2b6	-0.0011587951
193	0x3c29f9fe	0.010374544
194	0x3d1cfea5	0.038328785
195	0xbc0375bf	-0.008023678
196	0xbc9f0a24	-0.019414015
197	0xbc43e204	-0.011955742
198	0xbc265ce1	-0.01015398
199	0x3c181ddb	0.009284462
200	0x3a7352f4	0.00092820753
201	0xbb776fcd	-0.0037755847
202	0xbab2f1c5	-0.0013652375
203	0xbbdeaf4c	-0.0067957994
204	0xbcaf142d	-0.021371925
205	0xbc1d52f0	-0.009602293
206	0x3cdac3c8	0.026704684
207	0xbcf99edd	-0.03047126
208	0x3cb47c4c	0.022031926
209	0xbc99e6eb	-0.018786868
210	0xbbb1dae2	-0.005427704
211	0xbc208207	-0.009796626
212	0x3d079168	0.033097655
213	0xbc8d893f	-0.017277358
214	0xbbdaf50e	-0.006682045
215	0x3c5806c1	0.013185204
216	0xba9a1e4d	-0.0011758298
217	0xbb41dfa2	-0.0029582758
218	0x3c3cffd2	0.011535602
219	0xbc267518	-0.010159753
220	0x3c929a68	0.017895892
221	0x3afa8c2d	0.0019115262
222	0xbc9fd511	-0.019510778
223	0x3cbd4c45	0.023107657
224	0x3bada3a5	0.005299049
225	0xbb91ac61	-0.004445598
226	0xbb817711	-0.0039509614
227	0x3af6b3b5	0.0018821867
228	0x3b6ea743	0.0036415614
229	0x3bea3ae2	0.0071481327
230	0x3c8beaff	0.017079828
231	0x3c59591a	0.013265872
232	0xbba90f2b	-0.005159279
233	0xba87c541	-0.0010358469
234	0xbc658c31	-0.014010475
235	0x3b973aca	0.0046151625
236	0x3c1c3c2d	0.009535831
237	0xbb4045ae	-0.0029338407
238	0x3bac1121	0.0052510654
239	0x3b119145	0.0022211832
240	0xbbb051c6	-0.005380842
241	0x3b9511a8	0.004549224
242	0x3c9de683	0.019274956
243	0x3ca17fb4	0.019714214
244	0x3ca9dd41	0.020735385
245	0x3cc66bcb	0.024221322
246	0x3c295c91	0.010337011
247	0xbad59368	-0.0016294541
248	0xbbb595fe	-0.005541562
249	0x3bb524c8	0.0055280663
250	0x3c0816e5	0.00830624
251	0x3c228170	0.009918556
252	0x3c1530ee	0.009105904
253	0x3cd328d1	0.025776299
254	0xbabf1ccc	-0.0014580726
255	0xbb12eb2a	-0.0022418

network_body._body_endoder.seq_layers.4.weight f4 [256, 256]
0	0x3c075a21	0.0082612345
1	0xbd7fe7de	-0.062476985
2	0x3d15825c	0.036501274
3	0x3d8ed6c1	0.06974555
4	0x3ce4b6a2	0.027919117
5	0x3d5d6c19	0.054058168
6	0xbc8b4473	-0.017000413
7	0x3dd479ce	0.10374795
8	0x3ca3090b	0.019901773
9	0xbd15fbba	-0.03661702
10	0xbb0bd35d	-0.00213357
11	0xbd9321a5	-0.071841516
12	0xbd04155a	-0.032246925
13	0xbd398145	-0.045289297
14	0xbcf087ec	-0.029361688
15	0x3d4bb793	0.049735617
16	0x3dcc2d5c	0.09969589
17	0x3d554ddc	0.052076206
18	0xbca8c0c1	-0.020599725
19	0xbd0915e0	-0.033468127
20	0x3c3f136f	0.011662348
21	0xbd8a3e37	-0.06750148
22	0xbd9df23e	-0.0771222
23	0xbc59c17c	-0.013290759
24	0x3b9698ce	0.0045958525
25	0xbda32b82	-0.07967283
26	0xbad53a15	-0.001626792
27	0xbaf0a7ea	-0.0018360589
28	0xbd61121d	-0.054948915
29	0xbcc409df	-0.023930488
30	0xbdfe8a96	-0.12428777
31	0x3dd2c5cf	0.10291635
32	0xbcd2453b	-0.025667777
33	0x3d4522b9	0.048128817
34	0x3de9d016	0.11416642
35	0xbd093bd8	-0.033504337
36	0xbdd02d2a	-0.10164864
37	0x3d8d5c75	0.069024004
38	0x3d646b19	0.0557662
39	0xbe0b89d7	-0.136268
40	0xbd890f7d	-0.06692407
41	0x3c3a9b5d	0.011389581
42	0x3d0e9c82	0.034817226
43	0xbd22c40c	-0.039737746
44	0xbdc330e2	-0.09530808
45	0x3dd89253	0.10574784
46	0xbd1631ce	-0.03666859
47	0x3d40a25a	0.04702983
48	0xbc271f03	-0.010200265
49	0xbd9ec579	-0.07752509
50	0xbd86ac9f	-0.065758936
51	0xbd517aec	-0.051142618
52	0xbd8d5f96	-0.06902997
53	0xbdbcca23	-0.09218242
54	0xbc207d32	-0.009795474
55	0xbd7860c0	-0.060639143
56	0xbd9eb3e7	-0.077491574
57	0xbcca58a0	-0.024700463
58	0xbdd1bab1	-0.10240687
59	0x3c053e2a	0.008132497
60	0x3dce0a02	0.100605026
61	0xbcb11c25	-0.021619866
62	0x3da51aa7	0.08061724
63	0xbc872a75	-0.016499737
64	0xbcbdabf4	-0.023153283
65	0x3cd0a69b	0.025470069
66	0x3dcc2e6f	0.09969794
67	0xbd46b093	-0.048508238
68	0xbd658024	-0.056030408
69	0xbc1a40a6	-0.009414827
70	0xbd8e8430	-0.069588065
71	0xbdf1eab6	-0.11812346
72	0x3d1e7803	0.03868867
73	0xbc5f05cc	-0.013612222
74	0x3c16f103	0.009212735
75	0x3cd9bbe0	0.026578844
76	0xbdfa75df	-0.122295134
77	0xbdd64c8c	-0.10463819
78	0xbbc19b7f	-0.005908429
79	0x3e260971	0.16214539
80	0xbd506fe5	-0.05088796
81	0xbc16b86c	-0.009199243
82	0x3b0bf3af	0.0021354964
83	0x3ddffbe8	0.10936719
84	0xbdc40848	-0.09571892
85	0xbd0878d1	-0.033318345
86	0x3c31cfc5	0.010852759
87	0x3d9e68cb	0.077348314
88	0x3d1e0e9a	0.038588144
89	0x3decd61b	0.11564275
90	0xbcda6393	-0.026658809
91	0xbcf85f44	-0.030318864
92	0x3d5b8213	0.053590845
93	0x3c0731f2	0.008251654
94	0x3d019a2a	0.031641163
95	0xbcdb598a	-0.026776094
96	0x3bf5da79	0.0075028506
97	0xbdcffcc7	-0.10155635
98	0x3d63be3b	0.05560134
99	0x3c92164c	0.017832898
100	0xbd97dbba	-0.074149564
101	0xbe2b0c8f	-0.1670401
102	0x3d15c5c7	0.03656557
103	0x3caa1fd1	0.020767124
104	0xbc412d18	-0.011790536
105	0xbd406910	-0.046975195
106	0xbd40c547	-0.04706314
107	0x3e12028d	0.14258786
108	0xbdb936bf	-0.09043645
109	0xbcf3c463	-0.02975673
110	0xbcb74fcf	-0.022376923
111	0x3d8b896c	0.068133205
112	0xbd41164e	-0.047140412
113	0xbdd38415	-0.10327927
114	0xbd2d388a	-0.042290248
115	0x3c269c34	0.010169078
116	0xbd041028	-0.03224197
117	0xbe0765c6	-0.13222417
118	0x3d528038	0.05139181
119	0xbe58a5c0	-0.21156979
120	0x3d64d76e	0.055869512
121	0xbc87812a	-0.016541082
122	0xbc50abc2	-0.012736263
123	0x3c3312a9	0.010929742
124	0x3bb270a3	0.0054455562
125	0xbcbd6855	-0.023121038
126	0xbd1ad30c	-0.037798926
127	0x3cad43eb	0.02115055
128	0xbdb9addf	-0.090663664
129	0x3c024e28	0.007953204
130	0xbc64b5f6	-0.0139593985
131	0x3d6d60df	0.05795371
132	0xbda479d0	-0.080310464
133	0xbae7f83c	-0.0017697881
134	0x3d835f32	0.064146414
135	0xbc914bf3	-0.01773641
136	0x3bb8b661	0.0056369756
137	0x3d263284	0.04057552
138	0xbce93f78	-0.028472647
139	0xbd6ba021	-0.057525758
140	0xbd3e027c	-0.046389088
141	0xbe1457f1	-0.14486672
142	0xbd30df46	-0.04318168
143	0xbd841bbd	-0.06450603
144	0x3d59794d	0.053094197
145	0xbc7cfa76	-0.015440574
146	0xbd88e11f	-0.066835634
147	0x3d723b4d	0.059138585
148	0xbdd6e966	-0.10493736
149	0xbcdc15b8	-0.026865825
150	0xbd1da710	-0.0384894
151	0x3d8e8130	0.06958234
152	0x3c9137da	0.017726827
153	0x3de5c692	0.11219515
154	0xbdbb0909	-0.09132583
155	0xbda50a3e	-0.08058594
156	0xbd28d44d	-0.04121809
157	0x3dda8ae2	0.10671021
158	0xbd43af0a	-0.047774352
159	0xbc5aa571	-0.013345108
160	0x3cb7d53c	0.022440545
161	0x3bd399c5	0.0064575397
162	0x3d40d58e	0.04707866
163	0xbdb6964f	-0.08915388
164	0xbd829f84	-0.063780814
165	0xbcd586a7	-0.026065184
166	0x3da94f3c	0.08267066
167	0xbcf91d38	-0.03040944
168	0xbcce0d3f	-0.0251528
169	0xbc5a93a3	-0.013340863
170	0xbdafeb5a	-0.085898116
171	0xbcd3a259	-0.02583425
172	0xbccb4d3d	-0.024817104
173	0xbda40457	-0.0800864
174	0x3dbe848f	0.09302627
175	0xbc804d8f	-0.015661983
176	0xbd9a2fd1	-0.075286515
177	0xbcb5ccf3	-0.022192454
178	0x3ccb0d41	0.024786593
179	0x3d6bf990	0.05761105
180	0x3d00a328	0.031405598
181	0xbdb6483a	-0.08900495
182	0xbd8bd494	-0.068276554
183	0x3cdf63d4	0.027269281
184	0xbc9f502e	-0.019447412
185	0x3d70b136	0.05876275
186	0x3ca41814	0.020031013
187	0x3bdd5909	0.0067549986
188	0x3cda897e	0.02667689
189	0x3c9ae82d	0.018909538
190	0x3b43207f	0.0029774008
191	0x3da886ec	0.08228859
192	0xbe3690b9	-0.17828645
193	0x3d841297	0.06448858
194	0x3bebe8fe	0.0071994057
195	0x3d199c64	0.03750266
196	0xbd1031e1	-0.03520382
197	0x3d08e485	0.03342106
198	0x3cdc0260	0.026856601
199	0xbd5856f4	-0.0528173
200	0xba3050a0	-0.0006725881
201	0xbd306d70	-0.043073118
202	0xbd7c5020	-0.06159985
203	0xbca2c2ee	-0.01986834
204	0xbd837c6f	-0.06420218
205	0x3d848b8f	0.06471931
206	0x3d00d39b	0.031451803
207	0xbd0f41a3	-0.034974705
208	0x3d15f66b	0.036611956
209	0xbdb03db1	-0.08605517
210	0x3d315dcf	0.043302353
211	0x3d82e910	0.063921094
212	0x3ce2fb91	0.027707847
213	0xbc8db21d	-0.017296845
214	0x3d7eb7a2	0.062186845
215	0xbdc5db0c	-0.096609205
216	0xbd7e62b4	-0.06210585
217	0xbcbfc0b7	-0.023407323
218	0xbcf8f6eb	-0.030391177
219	0x3db10feb	0.08645614
220	0x3ddd4594	0.108042866
221	0xbc3e83d5	-0.011628111
222	0xbd8799f7	-0.06621163
223	0x3b49764e	0.003074068
224	0xbd0c4217	-0.034242716
225	0xbd21aeb3	-0.039473247
226	0x3c8871e5	0.016655872
227	0x3dac4165	0.084109105
228	0x3c38ed39	0.011287027
229	0xbd033796	-0.032035433
230	0x3dd0507f	0.101716034
231	0x3ddcae2a	0.10775407
232	0xbcc940ab	-0.024566969
233	0x3d998686	0.074963614
234	0x3e07b85b	0.1325392
235	0x3d59acf4	0.053143457
236	0x3d1e2140	0.03860593
237	0x3c16c662	0.009202572
238	0xbce3f512	-0.02782682
239	0x3b81ccb2	0.003961169
240	0x3deb2cf4	0.114831835
241	0xbd31176a	-0.04323522
242	0x3cd8d108	0.026466861
243	0x3d820ba4	0.063498765
244	0x3e03b929	0.12863602
245	0x3da098c9	0.078416415
246	0x3bdcd97f	0.0067397947
247	0xbd323a4d	-0.04351263
248	0xbe2ecf91	-0.17071368
249	0x3cd72423	0.026262349
250	0x3de2cea7	0.11074572
251	0x3a7f747b	0.0009744835
252	0xbdc4f883	-0.09617712
253	0x3cd33bf8	0.025785431
254	0xbd78dcae	-0.06075733
255	0xbd52efea	-0.05149833

network_body._body_endoder.seq_layers.4.bias f4 [256]
0	0x3c2b489c	0.010454323
1	0xbcb46ada	-0.022023607
2	0xbc083266	-0.008312797
3	0x3cb0cf21	0.021583142
4	0x3c38dfe3	0.0112838475
5	0x3cf5b7ad	0.02999481
6	0xbaede7b2	-0.0018150716
7	0x3ca49065	0.020088384
8	0x3c436fb4	0.011928488
9	0xbc7831bb	-0.015148575
10	0xbcf27db3	-0.029600954
11	0x3c0db0b6	0.008648088
12	0x3c0d84cc	0.008637618
13	0x3b3ae243	0.002851621
14	0xbd18c3a8	-0.037295967
15	0xbbeb3e9c	-0.0071790945
16	0x3bd3552c	0.0064493623
17	0x3bc51446	0.0060143797
18	0x3cf1be27	0.029509617
19	0xbb051c68	-0.002031112
20	0x3cd701d6	0.026245993
21	0xbd032a87	-0.03202298
22	0x38edd877	0.000113413604
23	0xbcdb3a9a	-0.026761342
24	0x3c0bc46c	0.008530717
25	0xbbd0aa6a	-0.006367971
26	0xbc07ca69	-0.008288004
27	0xbc9b3200	-0.01894474
28	0xbccf5843	-0.025310641
29	0x3cd02fbe	0.02541339
30	0x3cbe2677	0.0232117
31	0x3833f1f3	4.290226e-05
32	0x3c5880af	0.013214274
33	0x3ab49730	0.0013777968
34	0x3b04f0d6	0.002028515
35	0x3b48f41c	0.0030663079
36	0x3cc9a64b	0.024615427
37	0x3c8a5789	0.016887443
38	0x3b932f8f	0.0044917534
39	0x3b27606c	0.002553965
40	0x3cc5c01c	0.024139456
41	0x3c6208b6	0.013796022
42	0x3bba76c4	0.0056904275
43	0xbc8116a7	-0.015757872
44	0x3c8f6e2c	0.017508589
45	0x3bc74545	0.0060812556
46	0x3c308efd	0.010776279
47	0x3c91c45a	0.017793823
48	0xbc6fec94	-0.014643807
49	0x3bbd8b58	0.0057844333
50	0x3c253a0e	0.010084642
51	0x3c15fb08	0.009154089
52	0xbd48f367	-0.04906025
53	0x3c0f07bf	0.008729874
54	0xbc4d6eb6	-0.012538603
55	0xbb8540fe	-0.0040665856
56	0xbb96a6b1	-0.004597508
57	0xbc877669	-0.016535955
58	0xba206612	-0.0006118725
59	0xba9470f5	-0.0011325168
60	0xba0a57e6	-0.000527738
61	0x3bbadf59	0.0057028946
62	0x3c4f340c	0.012646686
63	0x3ca7b609	0.020472543
64	0x3c650c4f	0.013979985
65	0x3c579ee5	0.013160442
66	0x3c454a04	0.0120415725
67	0xbb93fb9d	-0.0045160786
68	0xbc0e9bb9	-0.008704119
69	0x3bb69836	0.005572344
70	0x3bcfdfd4	0.006343821
71	0x3bd44504	0.006477954
72	0xbc926e17	-0.01787476
73	0xbc58bd03	-0.013228658
74	0xbd135c40	-0.03597665
75	0xbc5dc481	-0.01353562
76	0x37471198	1.1865421e-05
77	0xbb8ded16	-0.0043312414
78	0x3c30a97e	0.010782598
79	0xbcbdaf44	-0.023154862
80	0xbcc86c38	-0.024465665
81	0xba9b62bf	-0.001185499
82	0xba445a45	-0.0007490258
83	0x3bd9b04f	0.006643332
84	0xbcdcc3e4	-0.026948877
85	0xbc8cf937	-0.017208679
86	0x3b9775ce	0.0046221977
87	0xbc495ad4	-0.0122897215
88	0xbb9c71a4	-0.004774289
89	0xbbbd6219	-0.0057795164
90	0x3bc66793	0.0060548275
91	0x3bbf763c	0.005842952
92	0xbc05bad3	-0.008162218
93	0x3c4071d0	0.011745885
94	0xbb3ecfa9	-0.0029115474
95	0x3ba393a8	0.004991967
96	0x3c6855c1	0.014180602
97	0xbbcaa7f9	-0.0061845747
98	0xbd015452	-0.031574555
99	0x3c9849b5	0.018589834
100	0x3b4f90fe	0.0031672115
101	0x3bf0ee30	0.007352613
102	0x3c83e906	0.016102325
103	0xbd33124c	-0.04371862
104	0x3c2931f1	0.010326848
105	0x3c895a8e	0.016766813
106	0xbb6a2ec1	-0.0035733434
107	0x3c29230c	0.010323297
108	0xbc6cc8db	-0.014452185
109	0x3b823d55	0.0039745965
110	0xbc22e58f	-0.009942426
111	0x3c1a4ec6	0.009418195
112	0x3c05916d	0.008152348
113	0x3c28203f	0.010261594
114	0x3aaf18db	0.0013358848
115	0xbb530fdf	-0.0032205505
116	0x3b7d9289	0.0038692078
117	0x3c177156	0.00924333
118	0xbc21bf1e	-0.009872226
119	0xbbc58d6f	-0.006028823
120	0x3c80d054	0.015724339
121	0xbc2bcc64	-0.010485742
122	0x3b5a410c	0.003330293
123	0x3ca742f7	0.020417674
124	0xbc23a896	-0.0099889245
125	0x3cdc8fca	0.026924033
126	0xbc79a538	-0.015237145
127	0xbcc846ce	-0.024447825
128	0xbc469b27	-0.012121952
129	0xbce67e2c	-0.028136335
130	0xbbce48ba	-0.006295291
131	0x3ba53132	0.005041265
132	0x3b833468	0.00400405
133	0xbc6ddfec	-0.014518719
134	0xbc874951	-0.016514452
135	0x3b6dc708	0.0036281962
136	0xbd413fd9	-0.04718003
137	0xbc63fa5a	-0.013914669
138	0x3ce92873	0.02846167
139	0xbb079348	-0.0020687152
140	0x3ac910c9	0.0015340085
141	0x3c10727d	0.008816359
142	0x3b20f509	0.0024560115
143	0x3bad0bdc	0.0052809548
144	0x3cf6ebb6	0.030141693
145	0xbd08d6c5	-0.033407945
146	0x3c1fc35d	0.009751168
147	0x3b978867	0.0046244147
148	0xbd0f32ac	-0.034960434
149	0xbbbc70b9	-0.0057507423
150	0xba122ad5	-0.00055758405
151	0x3af70f83	0.0018849227
152	0xbb63746f	-0.003470685
153	0xbc86da19	-0.016461419
154	0x3c560e0d	0.013064873
155	0xbb05ac17	-0.0020396763
156	0x3baf4114	0.005348334
157	0xbce2dc5c	-0.027692966
158	0x3c0430a8	0.008068241
159	0x3c666013	0.014060992
160	0x3ad46f40	0.0016207471
161	0x3c949db6	0.018141609
162	0xbcdb4fc5	-0.026771436
163	0xbd5a3e97	-0.053282347
164	0x3b1ad081	0.0023622813
165	0x3c396d35	0.011317541
166	0x3cac9fb6	0.02107225
167	0x3c251a00	0.010077
168	0x3ca772d1	0.02044049
169	0x3bc2af9a	0.0059413435
170	0xbbaa1e22	-0.0051915804
171	0x3bc3491c	0.005959643
172	0x3c9be313	0.019029176
173	0xbd3df3e6	-0.046375178
174	0x3cba1879	0.022716748
175	0xbc90a3b2	-0.017656181
176	0xbb34cf52	-0.0027589393
177	0x3b8028e7	0.003911126
178	0xb478b9fc	-2.316446e-07
179	0x3c3608c3	0.011110487
180	0xbc834fa5	-0.016029188
181	0xbcb72fdf	-0.022361694
182	0x3cafbc07	0.021451963
183	0xbb286c6e	-0.0025699395
184	0xbca28422	-0.019838396
185	0xbc031c21	-0.008002312
186	0x3cb83c47	0.02248968
187	0x3cc1ac6b	0.023641786
188	0x3b9dce17	0.0048158276
189	0xbd28b9e7	-0.041192915
190	0x3b776304	0.0037748227
191	0x3a4dbd54	0.00078483415
192	0xbcb5f55e	-0.022211727
193	0x3c15559b	0.009114648
194	0xbc5f9743	-0.013646903
195	0x3c819747	0.015819205
196	0x3b45f176	0.0030203736
197	0x3b14c38b	0.002269956
198	0xbd01e3be	-0.031711332
199	0xbd823d75	-0.06359378
200	0xbbfc17d5	-0.0076932707
201	0x3ac8c7c7	0.0015318327
202	0xbd63e4e9	-0.055638228
203	0x3a1ccd80	0.00059815496
204	0xbd070725	-0.032965798
205	0x3c392536	0.011300376
206	0xbc0c74bb	-0.008572753
207	0xbb4fdb53	-0.003171642
208	0xbc62ef60	-0.013851017
209	0x3cc5cbda	0.024145056
210	0x3c38692a	0.011255542
211	0x3bc3797a	0.005965409
212	0x3c6c3129	0.014416018
213	0x3b1818fe	0.0023208256
214	0xbc8adf90	-0.016952306
215	0xba2654a4	-0.000634501
216	0xbc016448	-0.007897444
217	0xbbc5ab95	-0.006032417
218	0xbc360e42	-0.011111798
219	0xbc41a57e	-0.011819242
220	0x3c373e20	0.011184245
221	0x3c704495	0.014664789
222	0xbb38fd6b	-0.002822722
223	0xbcf25ac6	-0.0295843
224	0x3b032af3	0.0020014613
225	0xbb203a16	-0.0024448684
226	0x3bec8124	0.007217543
227	0xbc144011	-0.009048478
228	0xbc1fc22a	-0.009750882
229	0x3c8420a4	0.016128846
230	0x3c39b3e8	0.011334397
231	0x3c179280	0.009251237
232	0xbca80f56	-0.020515125
233	0x3c492f4d	0.012279344
234	0x3b862132	0.0040933127
235	0x3ca450b4	0.020058013
236	0xbc08fc4c	-0.0083609335
237	0x3c1128b6	0.008859804
238	0x3c20cb90	0.009814158
239	0x3c9d8d9b	0.019232562
240	0x3b942d03	0.0045219674
241	0x3c4edbe6	0.01262567
242	0xbc59265a	-0.013253773
243	0x3c9fb4ed	0.019495452
244	0xbca076e7	-0.019587947
245	0x398905fc	0.00026135135
246	0xbc5841fd	-0.013199327
247	0xbbdb414b	-0.006691133
248	0xbcad9d6b	-0.021193227
249	0xbb8608d8	-0.0040904097
250	0xbbcf751a	-0.0063310983
251	0xbadb8891	-0.0016749074
252	0xbd10e9a6	-0.035379075
253	0x3d031234	0.03199978
254	0x3c928d99	0.017889785
255	0xbc76cf07	-0.015064008

network_body._body_endoder.seq_layers.6.weight f4 [256, 256]
0	0x3b590779	0.0033116026
1	0x3d7ff59c	0.06249009
2	0xbd853a52	-0.06505264
3	0xbe084791	-0.1330855
4	0x3b9542ec	0.004555097
5	0x3d1efe90	0.03881699
6	0x3dba3dd3	0.09093823
7	0xbd574c20	-0.052562833
8	0x3d81e627	0.06342726
9	0xbca78f7f	-0.020454166
10	0x3c723e68	0.014785387
11	0x3d3fb309	0.0468016
12	0xbc9c44ad	-0.019075716
13	0xbcf1dd0b	-0.029524347
14	0xbd840b00	-0.064474106
15	0xbd0d2799	-0.03446159
16	0xbd9bef65	-0.0761402
17	0xbd90f6df	-0.07078337
18	0x3c218169	0.009857514
19	0x3cdd53b1	0.027017446
20	0x3d18bc2b	0.037288826
21	0x3d4e3663	0.050344836
22	0xbe0a1826	-0.13485774
23	0x3cf7932e	0.030221548
24	0x3d7bff26	0.061522625
25	0xba1046b8	-0.0005503702
26	0x3d8cabc1	0.06868697
27	0x3cf63c21	0.030057969
28	0xbbc286f3	-0.0059364974
29	0xbc82e23c	-0.015977018
30	0xbcf054c9	-0.029337304
31	0x3b2a48a4	0.0025983239
32	0xbcdac5ad	-0.026705587
33	0xbd7c78cd	-0.061638642
34	0xbe2925bc	-0.16518301
35	0x3d6a399b	0.057183843
36	0xbd482d5e	-0.04887139
37	0xbd2c211e	-0.04202377
38	0x3cd80941	0.0263716
39	0xbd7c431a	-0.06158743
40	0x3cbfda60	0.023419559
41	0xbc8213b0	-0.015878528
42	0x3bb5c2d7	0.0055469084
43	0x3b6b02cd	0.0035859824
44	0x3cde5871	0.027141782
45	0xbbd7b620	-0.0065829903
46	0xbe265a7d	-0.16245456
47	0xbd5e29b8	-0.054239005
48	0xbd3968c9	-0.045265947
49	0xbba20c86	-0.0049453406
50	0x3c9feb65	0.019521425
51	0xbdbe43ee	-0.092903
52	0x3d4ee5f7	0.05051228
53	0xbda41679	-0.08012099
54	0xbcdc85ee	-0.026919331
55	0xbdc016ae	-0.09379326
56	0x3d4d5b28	0.05013576
57	0xbe2becfc	-0.16789621
58	0xbd87198f	-0.06596672
59	0x3dacb190	0.08432305
60	0xbdc12673	-0.09431162
61	0xbdf21219	-0.11819858
62	0x3d55e684	0.05222179
63	0x3cce04b4	0.025148727
64	0x3cf6ab23	0.030110901
65	0x3c011d6a	0.007880548
66	0xbd579310	-0.052630484
67	0x3c5e9a26	0.013586557
68	0xba8ca3dc	-0.0010729986
69	0xbd83680d	-0.064163305
70	0xbc8eee10	-0.017447501
71	0xbdd544ed	-0.10413537
72	0x3cc79dc6	0.024367224
73	0x3d8fd46a	0.07022937
74	0xbdd39358	-0.10330838
75	0x3de7bb99	0.11315078
76	0xbd00c7a5	-0.031440396
77	0xbc811dbf	-0.015761254
78	0xbdd2ec71	-0.10299004
79	0x3d650436	0.05591222
80	0x3c21774e	0.009855105
81	0x3cffd92d	0.031231487
82	0x3dbad5f3	0.09122839
83	0xbad85d84	-0.0016507362
84	0x3df2e3c7	0.11859851
85	0xbd8c3f85	-0.06848053
86	0xbc15c907	-0.009142167
87	0x3d603603	0.05473901
88	0x3ca7a9b6	0.020466667
89	0x3b88b225	0.004171627
90	0x3c749e60	0.014930338
91	0x3ce20902	0.027592186
92	0xbd0fb8f4	-0.035088494
93	0xbde781ed	-0.11304078
94	0x3cb8072f	0.022464363
95	0x3e010265	0.1259857
96	0x3dcafdac	0.09911665
97	0x3ce4158e	0.02784231
98	0x3d291e7e	0.041288845
99	0xbd8c11f8	-0.06839365
100	0xbcb38dda	-0.021918226
101	0xbdb17dba	-0.086665586
102	0xbd303bb2	-0.04302568
103	0x3da7c69e	0.0819218
104	0x3d32458b	0.043523353
105	0x3c1de41d	0.009636906
106	0xbbe482e5	-0.0069736117
107	0xbcb1cbb1	-0.021703573
108	0x3c31d17d	0.010853169
109	0xbdaaafcc	-0.08334312
110	0x3ce1e4bf	0.027574895
111	0xbe2884cd	-0.1645691
112	0xbd2fd812	-0.04293067
113	0xbddd6609	-0.10810477
114	0xbdd0c50a	-0.10193832
115	0x3d427223	0.04747213
116	0xbd0c4b13	-0.034251284
117	0xbdbfecbe	-0.09371327
118	0xbd9ff36e	-0.078101024
119	0xbde64834	-0.112442404
120	0x3cfd2799	0.03090267
121	0x3df457a5	0.11930779
122	0xbdd49d45	-0.10381559
123	0x3c7e6878	0.015527837
124	0xbccbf553	-0.024897253
125	0x3c2c52ac	0.010517757
126	0x3c5e6f58	0.013576351
127	0x3badc643	0.0053031757
128	0x3d378cd9	0.044812057
129	0x3dc30a93	0.09523501
130	0x3d97d8a8	0.07414371
131	0xbd95bcd4	-0.07311407
132	0xbce986a4	-0.028506584
133	0xbc20c486	-0.00981248
134	0x3e2410bb	0.16022007
135	0xbc1f414f	-0.009720161
136	0x3d263862	0.040581115
137	0x3ce15e9c	0.027510934
138	0x3bf22917	0.007390152
139	0xbd239f63	-0.039946925
140	0x3d835074	0.064118296
141	0x3e185151	0.1487477
142	0x3d8538bf	0.06504964
143	0xbe1174f2	-0.14204767
144	0x3dacd445	0.08438925
145	0x3d51ab05	0.051188488
146	0x3d80630c	0.06268892
147	0xbd57704a	-0.05259732
148	0x3cad7c4d	0.021177435
149	0x3b95da9c	0.0045731794
150	0x3d782429	0.06058136
151	0xbd09d30b	-0.033648532
152	0xbdaba667	-0.08381348
153	0xbc853c70	-0.01626417
154	0xbddeaddf	-0.10873007
155	0xbe04f55f	-0.12984227
156	0x3dddc7a0	0.10829091
157	0x3cf0c62c	0.02939137
158	0xbd9ad75c	-0.07560608
159	0xbd0f9561	-0.03505457
160	0x3db13701	0.08653069
161	0xbe03f88f	-0.12887786
162	0x3d8b612d	0.06805644
163	0xbc1999f4	-0.009375084
164	0xbd1b9423	-0.03798307
165	0xbe001de4	-0.12511402
166	0xbd7e91b8	-0.062150687
167	0xbd03f86d	-0.03221934
168	0xbd7d8325	-0.061892647
169	0xbc714b9c	-0.014727499
170	0x3dfaf472	0.122536555
171	0xbd6a4785	-0.057197113
172	0x3d708c72	0.05872769
173	0x3d8369f4	0.06416693
174	0xbc202b6d	-0.0097759785
175	0xbcf35a16	-0.029706042
176	0x3ca63d83	0.020293003
177	0xbcf05c44	-0.02934087
178	0x3d727fb1	0.059203807
179	0xbd17ecf0	-0.037091196
180	0xbc16445a	-0.00917157
181	0x3c156a33	0.009119558
182	0x3d5023ac	0.05081527
183	0xbc1451b6	-0.0090526845
184	0x3d397e88	0.045286685
185	0xbd0bbb91	-0.034114424
186	0x3d81b458	0.06333226
187	0xbc363854	-0.011121828
188	0xbdf11398	-0.11771315
189	0x3d02933c	0.031878695
190	0x3c4b5a3e	0.012411652
191	0xbcb70e14	-0.02234558
192	0xbd4f9f8e	-0.050689273
193	0xbd9da81a	-0.076980785
194	0x3cf25d5a	0.02958553
195	0xbe442ed1	-0.19158484
196	0xbca5a35c	-0.020219497
197	0x3d81e379	0.06342215
198	0x3d0e8b98	0.034801096
199	0x3c7b10cd	0.01532383
200	0xbe378127	-0.17920361
201	0x3d494b2e	0.049143963
202	0x3cfdb277	0.030968888
203	0x3cd23766	0.025661182
204	0x3cab466c	0.020907603
205	0x3cfa7e53	0.030577814
206	0x3d0c0ed1	0.034193818
207	0xbde17aed	-0.11009774
208	0xbda5a9d1	-0.080890305
209	0xbbbe0dac	-0.0057999697
210	0x3d42f02b	0.047592323
211	0xbc7c5150	-0.015400246
212	0xbb7d8c4c	-0.003868836
213	0xbd03a3ef	-0.03213876
214	0xbdb02fbe	-0.08602856
215	0x3dca0416	0.098640606
216	0x3d3e3ed7	0.046446647
217	0xbca957e6	-0.020671796
218	0xbcc52793	-0.024066722
219	0xbb0e3d6b	-0.0021704088
220	0x3d6934a1	0.056934956
221	0x3cfea1f1	0.031083079
222	0x3d9bb480	0.07602787
223	0x3d1805af	0.037114795
224	0xbcd27e18	-0.025694892
225	0x3d5c816e	0.05383437
226	0xbd13f90d	-0.036126185
227	0xbc44bb50	-0.012007549
228	0xbd862884	-0.065506965
229	0x3cf6de25	0.030135224
230	0xbdf50cd8	-0.119653404
231	0xbc042401	-0.008065225
232	0xbd17a559	-0.037022922
233	0x3d9bb783	0.076033615
234	0xbcd403d5	-0.025880734
235	0x3d003dc0	0.03130889
236	0x3d510e1c	0.051038846
237	0x3db5acf6	0.0887088
238	0xbd908948	-0.07057434
239	0xbd7b8673	-0.061407518
240	0x3c817f45	0.015807757
241	0xbd34eca0	-0.044170976
242	0x3cbfd73c	0.023418061
243	0xbd84c61e	-0.064831
244	0xbc8a33de	-0.016870435
245	0x3cf17879	0.029476391
246	0xbcf9154e	-0.030405667
247	0x3d107a72	0.035273023
248	0x3e105d58	0.14098108
249	0x3da6b573	0.081400774
250	0xbc8042c9	-0.015656846
251	0x3c37103f	0.011173307
252	0x3b6100cb	0.0034332748
253	0x3d23bff8	0.039977998
254	0xbe1f7d2a	-0.1557509
255	0x3cb4842a	0.022035677
