Assets/ML_PPO/results/2nd_go_35/BoatAgent/BoatAgent-9326.onnx (onnx, 834984 bytes, 13 tensors)

discrete_action_output_shape f4 [1, 2]
0	0x40400000	3.0
1	0x40400000	3.0

network_body._body_endoder.seq_layers.0.weight f4 [256, 34]
0	0x3daef8ff	0.08543586
1	0x3e99c88f	0.30035827
2	0x39bf91b5	0.0003653892
3	0x3dbf2324	0.093328744
4	0xbe2e0abf	-0.16996287
5	0xbd7067b5	-0.058692653
6	0x3e09ada2	0.13445142
7	0x3e7a2f04	0.24431998
8	0xbdd171ae	-0.10226761
9	0x3eca2dd4	0.3948809
10	0x3ce4bb66	0.02792139
11	0x3de59752	0.11210503
12	0xbd9be8f6	-0.07612793
13	0x3e1e4705	0.1545678
14	0xbdce53e5	-0.10074595
15	0x3e2fd07d	0.17169376
16	0xbeda74e3	-0.42667302
17	0x3e76c036	0.2409676
18	0xbdaac3d6	-0.08338134
19	0xbd2fbe0e	-0.04290586
20	0xbc5ff513	-0.01366927
21	0xbd8ed22d	-0.069736816
22	0x3e45ed9a	0.19328919
23	0xbe82c592	-0.2554136
24	0xbd865baa	-0.06560452
25	0x3e99cc13	0.3003851
26	0xbe027891	-0.12741305
27	0x3e88b364	0.26699364
28	0x3b98fc2c	0.004668733
29	0x3ce5cd36	0.028051954
30	0x3dd485a0	0.103770494
31	0xbd9185a0	-0.07105565
32	0x3ea20dde	0.31651205
33	0x3f0167d2	0.5054904
34	0xbc4c66c6	-0.012475675
35	0x3e3a873a	0.18215647
36	0xbd1d3503	-0.038380634
37	0xbd3e3ec6	-0.046446584
38	0x3ea2cf7c	0.31798923
39	0x3e5bc671	0.21462418
40	0x3eb9baac	0.36275232
41	0xbe724df5	-0.23662551
42	0xbd840201	-0.06445695
43	0x38be3205	9.069223e-05
44	0xbdaee384	-0.08539489
45	0x3e25b689	0.16182913
46	0xbe36c850	-0.1784985
47	0xbec81d50	-0.39084864
48	0xbda6b818	-0.08140582
49	0x3e0f143b	0.13972561
50	0xbea55a4e	-0.3229546
51	0xbd376401	-0.044773106
52	0xbd374402	-0.04474259
53	0x3e609976	0.2193354
54	0xbd8451c6	-0.064609095
55	0xbde525d4	-0.11188856
56	0xbdd7d48e	-0.105385885
57	0x3dfec218	0.12439364
58	0xbe1fded8	-0.15612352
59	0x3e1ccfaf	0.153136
60	0x3ebe9b03	0.3722764
61	0xbdd13384	-0.10214904
62	0x3cec9a2b	0.028882107
63	0x3d8ac929	0.067766495
64	0x3d7c1656	0.06154474
65	0x3e470b49	0.19437899
66	0x3e2155e9	0.15755428
67	0x3decf133	0.115694426
68	0xbd7fa87b	-0.062416535
69	0x3d950a2c	0.07277331
70	0xbcd71c9c	-0.02625876
71	0x3d1fcef4	0.039015725
72	0x3e38290e	0.17984411
73	0xbc58fdaf	-0.013244077
74	0x3e8011a2	0.25013453
75	0x3e8e2c46	0.27768153
76	0xbe42a56d	-0.19008417
77	0xbdfc38b9	-0.123155065
78	0xbdd4d587	-0.103922896
79	0xbe27745c	-0.16352981
80	0xbe0b24dd	-0.13588281
81	0xbd0872ab	-0.03331248
82	0x3d93bbff	0.07213592
83	0xbe176930	-0.1478622
84	0x3e96bf5e	0.29442877
85	0x3e4894f1	0.19588067
86	0xbebaf4bb	-0.3651484
87	0xbbecb214	-0.007223377
88	0x3e7baf08	0.24578488
89	0xbe824e60	-0.2545042
90	0x3e1fb78e	0.15597364
91	0xbd69364e	-0.056936555
92	0x3e2d9657	0.16951881
93	0x3cd55054	0.02603928
94	0xbea9905e	-0.33117956
95	0xbe3d4cc8	-0.18486321
96	0x3d5f982a	0.054588474
97	0x3d47a6e7	0.048743155
98	0xbcb87d3f	-0.02252066
99	0xbd95bdfb	-0.073116265
100	0x3d720549	0.05908707
101	0xbe9c9e07	-0.30589315
102	0xbc46d74b	-0.012136291
103	0x3ce43fed	0.027862513
104	0x3e8f42cb	0.27980646
105	0x3e2473a2	0.16059735
106	0x3e128714	0.1430934
107	0xbcd774e2	-0.026300851
108	0x3e4e1640	0.20125675
109	0x3ce0cb65	0.027440736
110	0x3d82cddf	0.06386923
111	0x3e44660c	0.19179553
112	0xbe9233bd	-0.28555098
113	0x3bcd437b	0.006264148
114	0xbd03a4a2	-0.032139428
115	0xbcafc5fc	-0.021456711
116	0x3d8e8fa9	0.06960995
117	0x3c5db63e	0.013532219
118	0x3db56893	0.088578366
119	0xbd9bf1c0	-0.076144695
120	0x3e868e96	0.2628066
121	0xbb65f79b	-0.0035090211
122	0x3d0d256c	0.034459516
123	0xbd85cde1	-0.06533409
124	0x3e34db5a	0.17661801
125	0x3ed8d21b	0.42347798
126	0x3ead7acf	0.33882758
127	0x3db66064	0.08905104
128	0xbc0d820e	-0.0086369645
129	0xbeb646a7	-0.35600778
130	0x3e4ce86e	0.2001054
131	0xbdc48eb3	-0.0959753
132	0xbe86bd6c	-0.26316392
133	0x3df71d46	0.1206613
134	0x3e9108a4	0.28326905
135	0xbe86f8c9	-0.26361683
136	0x3ca83e0b	0.020537397
137	0x3ce0fdb6	0.027464729
138	0x3dad9b36	0.0847687
139	0x3e0206e2	0.12697938
140	0xbdd19f8b	-0.102355085
141	0xbe3da5e3	-0.18520312
142	0x3e1f16f1	0.15536095
143	0x3df8ed3d	0.121546246
144	0x3c4fa543	0.012673679
145	0xbd9cdb18	-0.07658976
146	0xbe711144	-0.23541743
147	0x3cc206da	0.023684908
148	0x3d4c73e9	0.049915228
149	0xbd8b7075	-0.06808559
150	0x3e5b736d	0.2143075
151	0xbe4e368f	-0.20138
152	0x3e7af5ae	0.24507782
153	0xbd841333	-0.064489745
154	0xbd9d4a01	-0.07680131
155	0xbdee9475	-0.1164941
156	0xbd50f55b	-0.05101524
157	0x3d314cb0	0.043286026
158	0xbde99e2b	-0.11407121
159	0x3d14254a	0.036168374
160	0xbe84c7dc	-0.2593373
161	0xbeacda4e	-0.33760303
162	0x3dc3e0b0	0.0956434
163	0xbe1559f2	-0.14585093
164	0xbdb5a016	-0.088684246
165	0x3e8cd168	0.27503514
166	0xbd823111	-0.06357015
167	0x3de38380	0.11109066
168	0x3c9d55a0	0.019205868
169	0xbe13ce22	-0.14434102
170	0x3d41721c	0.047227964
171	0xbd33b637	-0.043874945
172	0xbe42c600	-0.19020844
173	0x3bdf5d1d	0.00681652
174	0x3e18fe70	0.1494081
175	0xbd9f6246	-0.07782416
176	0xbeb2b600	-0.3490448
177	0x3d5b4e4a	0.05354146
178	0xbe30e7da	-0.17275944
179	0x3d8f8969	0.07008631
180	0x3e75b058	0.23993051
181	0xbd43e564	-0.047826186
182	0x3da2bfa8	0.07946712
183	0x3d172772	0.036902852
184	0xbdb2229e	-0.08698009
185	0xbdb157d6	-0.086593315
186	0x3dd517c5	0.10404924
187	0xbd3a5ff5	-0.045501668
188	0xbc7a10b7	-0.015262774
189	0xbe536898	-0.20645368
190	0xbe5e85ad	-0.21730681
191	0x3d667e4b	0.056272786
192	0xbe55d267	-0.20881043
193	0x3d1d9440	0.03847146
194	0xbe3774ff	-0.17915724
195	0xbe9a2dab	-0.30112967
196	0xbed694b3	-0.41910324
197	0xbdeea190	-0.11651909
198	0x3e96b89a	0.29437715
199	0xbd5a7743	-0.053336393
200	0x3ea66937	0.32502148
201	0xbd30f0bb	-0.04319833
202	0xbdb6846c	-0.08911976
203	0xbe6b4edb	-0.229793
204	0xbbf5e3d9	-0.007503968
205	0x3d7bc1f7	0.061464276
206	0xbb9bd1b0	-0.0047552213
207	0x3ddac1e7	0.10681515
208	0xbcdb6b77	-0.026784642
209	0xbd07f618	-0.033193678
210	0x3e1fccb8	0.15605438
211	0xbe952b62	-0.2913466
212	0xbe97ecd0	-0.2967286
213	0xbdfc65ec	-0.123241276
214	0x3e454351	0.1926396
215	0xbe355717	-0.17709003
216	0xbe093728	-0.13399947
217	0xbe1b6ec4	-0.15178972
218	0xbd197044	-0.03746058
219	0x3e48e2d1	0.19617774
220	0x3e84f483	0.25967798
221	0x3c858f01	0.016303541
222	0x3e7d7a5e	0.2475371
223	0x3b7e9ff8	0.0038852673
224	0xbaccc312	-0.00156221
225	0xbdc19baf	-0.094535224
226	0xbde86c60	-0.11348796
227	0xbe0e034d	-0.13868447
228	0x3e1e6aa8	0.15470374
229	0xbdf0ab62	-0.11751439
230	0x3c835b4a	0.016034741
231	0xbc6c42d8	-0.014420234
232	0xbdf80dca	-0.12112005
233	0xbd9eadbf	-0.07747983
234	0x3e7fd077	0.24981867
235	0xbdc31b9b	-0.0952675
236	0xbd27ddbb	-0.040982943
237	0xbd27b46f	-0.04094356
238	0xbdd767e5	-0.10517863
239	0x3e2b60d4	0.16736156
240	0x3d16af49	0.03678826
241	0xbdd7fd18	-0.10546321
242	0x3dad192d	0.084520675
243	0xbe374c88	-0.17900288
244	0xbd99ce2a	-0.07510026
245	0xbd01ae7c	-0.031660542
246	0xbf029429	-0.51007324
247	0xbe3340b6	-0.17505154
248	0xbd8bf3c2	-0.068336025
249	0xbe8c376d	-0.27386037
250	0xbe543828	-0.20724547
251	0x3e127985	0.14304169
252	0xbdae2203	-0.08502581
253	0x3e278443	0.16359048
254	0xbe5377e4	-0.20651203
255	0x3ec7f250	0.39052057

network_body._body_endoder.seq_layers.0.bias f4 [256]
0	0xb976960d	-0.00023516286
1	0x3ad78310	0.0016442258
2	0x3a896f6e	0.0010485479
3	0x38bc8311	8.9889516e-05
4	0x3b0dc1bc	0.0021630367
5	0xba30b934	-0.00067414646
6	0x3a759396	0.00093680003
7	0xba4ab686	-0.00077328866
8	0xbb70df90	-0.0036754347
9	0x3acd4fdb	0.0015664058
10	0xbbe523a6	-0.006992775
11	0x3b9e234c	0.004825985
12	0xbace47b1	-0.0015737918
13	0x39342d68	0.00017183053
14	0x3ad95899	0.001658219
15	0x3b9d40bd	0.004798977
16	0xbb9943fa	-0.004677293
17	0xbbdc656a	-0.0067259567
18	0x3b82864b	0.003983294
19	0x3b29f613	0.0025934025
20	0xbba4a3ad	-0.0050243945
21	0x3aba5ed8	0.001421894
22	0x3b3c57e5	0.0028738913
23	0x3b1aa287	0.002359541
24	0x3a3ff7d0	0.0007322999
25	0xbb2870a7	-0.0025701912
26	0xb92afc53	-0.00016306461
27	0x39f6b168	0.00047052954
28	0x3b0b215a	0.0021229596
29	0x3b297828	0.0025858972
30	0x3b3b9a91	0.0028626064
31	0x33179b21	3.5298516e-08
32	0x3a318b47	0.0006772768
33	0x3a951dbe	0.0011376662
34	0x3bb2aa47	0.0054524275
35	0x3b03adc0	0.0020092577
36	0x3b1a7c49	0.0023572615
37	0xbab8395f	-0.0014055184
38	0xb5fe429d	-1.8943862e-06
39	0x3b1fcffb	0.002438544
40	0x3b020ffc	0.0019845953
41	0xbad6de6d	-0.0016393192
42	0x3b84c003	0.00405121
43	0xbad2b6a7	-0.0016076163
44	0xb78a55df	-1.6490869e-05
45	0xbaab58d6	-0.001307274
46	0x3948339f	0.00019092717
47	0xb917ab07	-0.00014464195
48	0x3b4637de	0.0030245702
49	0x3b0ea23e	0.0021764184
50	0x3baccf2b	0.00527372
51	0x3b91b8af	0.004447065
52	0xbbb948da	-0.0056544365
53	0xbb8e6d29	-0.004346509
54	0x3ad381df	0.0016136727
55	0x3acf3b12	0.0015810451
56	0x3b26b1a4	0.0025435472
57	0x39de3293	0.0004238082
58	0xbab5a1f2	-0.0013857468
59	0xbb34312e	-0.0027495134
60	0xbaa42519	-0.0012523263
61	0xb85b9236	-5.234984e-05
62	0xbb487e0b	-0.0030592706
63	0xbadfc45e	-0.0017072072
64	0xbb5b2cfe	-0.0033443565
65	0xbb22bc77	-0.0024831572
66	0x3b31f4d4	0.0027153986
67	0xbb48e562	-0.00306543
68	0x3be13511	0.006872781
69	0x3b1c7b2f	0.0023877134
70	0xb8e8bfee	-0.00011098372
71	0xbb46b8f5	-0.0030322645
72	0x3b86fe13	0.0041196435
73	0x39a2cbdb	0.00031050932
74	0x3b0af7de	0.002120487
75	0x3bb3be5b	0.0054853386
76	0xbb130597	-0.0022433752
77	0x3a86e936	0.0010292891
78	0xbb2d4cfa	-0.0026443587
79	0x3b1b46b8	0.0023693275
80	0x38666ac1	5.4935696e-05
81	0x3b2c0590	0.0026248433
82	0xbb0adb5c	-0.0021187877
83	0x3a7bdee3	0.0009608103
84	0xbaf36183	-0.001856849
85	0x397162f4	0.00023020414
86	0xba7cca53	-0.0009643186
87	0x39910468	0.00027659838
88	0xbab562f3	-0.0013838693
89	0xb64acf46	-3.0220995e-06
90	0xb7cb9646	-2.4269462e-05
91	0x3b8084fd	0.0039221034
92	0x3aef4f70	0.0018257927
93	0xbb108872	-0.0022053984
94	0x3b131d91	0.0022448043
95	0xb986adc1	-0.00025687928
96	0xbbc36de0	-0.005964026
97	0x3a9bf284	0.0011897837
98	0xbacf6d05	-0.0015825337
99	0xbaf9cfcf	-0.0019059124
100	0x3a8adfef	0.0010595302
101	0xbab79281	-0.0014005454
102	0xbb68e83e	-0.0035538818
103	0xbb619990	-0.0034423806
104	0xbaef09d3	-0.0018237181
105	0x3bdc95f6	0.006731744
106	0x3afa2904	0.001908571
107	0x3ba9a1bc	0.005176751
108	0xbb63f1dd	-0.0034781613
109	0xbadd0e56	-0.0016865234
110	0x39adee7f	0.00033174825
111	0x3b0b95d9	0.0021299033
112	0x3b936dfe	0.004499196
113	0xbb0775c4	-0.002066956
114	0x3b879362	0.0041374424
115	0xb9abd47c	-0.00032773975
116	0xba9d46aa	-0.0011999209
117	0xbbabf6fb	-0.005247948
118	0xbacd85ba	-0.0015680112
119	0xbba1a101	-0.0049325232
120	0x39769c49	0.00023518609
121	0x3aba3813	0.0014207385
122	0x3afd18b9	0.0019309736
123	0x3ba78275	0.0051119872
124	0x3906c687	0.00012853193
125	0xbbca4732	-0.006173038
126	0xbb4cba8d	-0.0031239123
127	0x3920c990	0.00015333877
128	0x3ba4237b	0.0050091124
129	0xbb681340	-0.0035411865
130	0xbb76ba75	-0.0037647758
131	0x3a5ceff6	0.0008428091
132	0xbb5f2008	-0.0034046192
133	0xbb204816	-0.002445703
134	0xbac3c58f	-0.0014936196
135	0xbb607c2b	-0.0034253697
136	0xbaa1effc	-0.0012354846
137	0x3b7c5c90	0.003850732
138	0xbad7e405	-0.0016471153
139	0x3a779a76	0.0009445319
140	0x3abfb8ec	0.0014627255
141	0x3af91876	0.0019004482
142	0xb69577dc	-4.4544995e-06
143	0x375870d6	1.2900875e-05
144	0xbb4414f9	-0.0029919727
145	0x3a3558e1	0.0006917846
146	0xbb484e0d	-0.00305641
147	0x3ad4e2e5	0.0016241936
148	0x3b2bad8c	0.0026195971
149	0x3b081af1	0.0020768011
150	0xba0bfaf2	-0.0005339823
151	0x34bbe9a3	3.5001457e-07
152	0xba2c0f8d	-0.00065635965
153	0x3b3fef72	0.0029287008
154	0xbafb249d	-0.0019160692
155	0x3aa769d8	0.0012772633
156	0xbb8feb4e	-0.004392064
157	0xbac2f64b	-0.0014874426
158	0xba9f5e9a	-0.0012158931
159	0x3bb61c5b	0.0055575795
160	0xb8077352	-3.229391e-05
161	0x3b2c7a2c	0.0026317937
162	0xbb80562f	-0.003916524
163	0x3b586365	0.0033018228
164	0x3b8fb40e	0.004385478
165	0x3b8c4381	0.004280508
166	0x3b3ce487	0.0028822736
167	0x3a2e8c65	0.00066584937
168	0xba717206	-0.0009210411
169	0x3afd18ab	0.001930972
170	0x3b44c1f4	0.0030022832
171	0xbad9b79d	-0.0016610507
172	0xbb542242	-0.0032369052
173	0xbb20d969	-0.002454365
174	0x3b179850	0.0023131557
175	0xbbf2340f	-0.00739146
176	0xbc069f33	-0.008216667
177	0xbabb1264	-0.0014272449
178	0x3b7aebf5	0.0038287614
179	0xbb5bea7a	-0.0033556507
180	0x3b807e4a	0.003921305
181	0xbb878280	-0.00413543
182	0x3b81bc56	0.003959219
183	0x3b5e4f33	0.0033921718
184	0x3afecc56	0.0019439559
185	0x3af5fd2b	0.0018767467
186	0xbb0fb158	-0.0021925773
187	0xbb158ee9	-0.0022820777
188	0x3b097992	0.0020977003
189	0x3aea2477	0.001786365
190	0xba2e0064	-0.00066376314
191	0x3bbb7ce5	0.0057216757
192	0x39af45b0	0.00033430522
193	0xbb6a8694	-0.0035785781
194	0x3a9be025	0.0011892362
195	0xba091afd	-0.0005230157
196	0xb98d5d3d	-0.00026963084
197	0xbbac0825	-0.0052499943
198	0x3ba69853	0.0050840764
199	0xb82f581c	-4.180531e-05
200	0xbac00ccb	-0.001465225
201	0xb8eb6b92	-0.0001122571
202	0xbb0b4e6e	-0.0021256465
203	0x3b9dfbdb	0.0048212833
204	0x3acf6ebc	0.0015825848
205	0xbb2d2b52	-0.0026423526
206	0xbaf100f3	-0.0018387124
207	0xb96917ff	-0.00022229551
208	0x3ac2294a	0.001481333
209	0x3bca1d4c	0.0061680432
210	0x3ad0fbea	0.0015944217
211	0xbbbec9b5	-0.005822385
212	0xbb05e849	-0.0020432642
213	0x3b8a1109	0.0042134565
214	0xbba4eecd	-0.00503335
215	0x3aaf0c49	0.0013355102
216	0x3b9eeaaa	0.0048497515
217	0x3b0d82ee	0.0021592933
218	0xbb50bcd5	-0.0031850834
219	0xbaee4d29	-0.0018180955
220	0xba29c477	-0.0006476114
221	0xbb739767	-0.00371691
222	0xba95417c	-0.0011387314
223	0xb9e01f87	-0.000427481
224	0x3c026f42	0.007961096
225	0xbb095383	-0.0020954318
226	0xbbba88e8	-0.00569259
227	0x3b6da303	0.0036260493
228	0x3b605d77	0.0034235397
229	0xba85cea8	-0.0010208683
230	0xbb39caf8	-0.0028349739
231	0xbaf3cf32	-0.0018601178
232	0x3a5b3b3d	0.0008363014
233	0x3ad04eb3	0.0015892595
234	0xbad1242a	-0.0015956212
235	0xba479bff	-0.0007614493
236	0x3bb7478f	0.0055932472
237	0xbbd9dffc	-0.0066490155
238	0x3a6ddb68	0.00090735266
239	0x3a865971	0.0010250044
240	0x3ba4834c	0.0050205346
241	0x3acff7bd	0.0015866678
242	0xba9c641a	-0.0011931688
243	0x3ada33de	0.0016647538
244	0x39e9e65e	0.0004461286
245	0xb9979f1e	-0.00028919516
246	0x3ac698e1	0.0015151763
247	0xb789113a	-1.6339694e-05
248	0x3a84f77d	0.0010144558
249	0x3abbfd01	0.0014342369
250	0x3c09a192	0.008400338
251	0x3a891ccc	0.0010460853
252	0xbb645953	-0.003484328
253	0x38e0516b	0.000106963176
254	0x3b01456d	0.001972522
255	0xbb89c569	-0.0042044413

network_body._body_endoder.seq_layers.2.weight f4 [256, 256]
0	0x3bb66def	0.0055673043
1	0xbcca317a	-0.024681795
2	0xbd142e79	-0.036177132
3	0x3d798044	0.06091334
4	0x3d0ffc36	0.035152636
5	0x3a806cdb	0.0009798066
6	0xbbc26bd7	-0.0059332657
7	0x3def53ef	0.11685931
8	0xbd9704dc	-0.07373974
9	0xbd893c05	-0.06700901
10	0xbe0013ba	-0.12507525
11	0x3db7f7b9	0.08982796
12	0xbdc9c43b	-0.09851881
13	0x3cd7131b	0.026254227
14	0xbd75460e	-0.059881262
15	0x3d1e4041	0.038635496
16	0xbb5c9816	-0.0033659986
17	0x3dbca1b4	0.0921053
18	0xbd9ae038	-0.075622976
19	0xbc4c7270	-0.012478456
20	0x39ee8c75	0.00045499546
21	0x3d7c5cb1	0.061611835
22	0x3d80c6da	0.06287928
23	0x3cf73c32	0.03018007
24	0x3b80f094	0.003934929
25	0xbd6fddd3	-0.058561157
26	0xbcff32d7	-0.031152172
27	0x3d3db707	0.046317127
28	0x3d3d439d	0.04620706
29	0xbc73deac	-0.014884632
30	0xbdad6f57	-0.08468502
31	0x3d9fda4a	0.07805307
32	0x3dc3d7df	0.095626585
33	0xbd1bb3be	-0.038013212
34	0xbda5bc14	-0.08092514
35	0x3d323a41	0.043512587
36	0x3d14498d	0.036202956
37	0xbc75387c	-0.01496708
38	0xbda85ec4	-0.082212
39	0xba9a7224	-0.0011783284
40	0xbd45cb56	-0.04828962
41	0xbd305958	-0.043053955
42	0x3e10e5c2	0.14150146
43	0x3a2d27ea	0.0006605374
44	0x3cdf3f5a	0.027251888
45	0xbdbde955	-0.0927302
46	0x3dc83c35	0.097771086
47	0xbd1cb21c	-0.038255796
48	0x3d3bb831	0.045829955
49	0xbb98bab8	-0.0046609305
50	0xbbdb7674	-0.0066974703
51	0x3b979e8b	0.004627054
52	0xbd90f187	-0.07077318
53	0xbdfacb45	-0.12245802
54	0xbe58d328	-0.211743
55	0xbd313883	-0.043266784
56	0x3ce2276b	0.027606687
57	0xbcc61d2a	-0.024183828
58	0xbc885b1e	-0.01664501
59	0x3cde68cc	0.02714958
60	0xbc66700a	-0.014064798
61	0x3d0a7e89	0.03381208
62	0xbda8e7ba	-0.08247323
63	0x3dd76c21	0.10518671
64	0xbce94ad3	-0.028478062
65	0xbc09b4fe	-0.008404968
66	0x3d6a58ce	0.057213597
67	0xbcf8062f	-0.030276386
68	0xbcf610cd	-0.030037308
69	0xbc2420d3	-0.0100175915
70	0xbe15c62a	-0.14626375
71	0xbcadb6f8	-0.02120541
72	0x3c4f9416	0.012669584
73	0xbdad930b	-0.08475312
74	0xbd6c3b0d	-0.057673503
75	0xbcf6aeea	-0.030112702
76	0x3c99f6d8	0.018794462
77	0xbc84a1ec	-0.016190492
78	0xbc20a317	-0.009804509
79	0x3dbab7d4	0.09117094
80	0xbd2e6b7d	-0.042582978
81	0xbce16bc1	-0.027517201
82	0xbdbe8012	-0.09301771
83	0x3e212d41	0.15739919
84	0xbd32ccf5	-0.043652494
85	0xbc147586	-0.009061223
86	0x3d13080f	0.035896357
87	0xbd9c6c07	-0.07637792
88	0xbe097cab	-0.13426463
89	0xbcc3e8d5	-0.023914734
90	0x3ca381e2	0.019959394
91	0x3d4035c9	0.046926294
92	0x3d2c4018	0.042053312
93	0x3e1062f2	0.14100245
94	0xbd39c68f	-0.045355376
95	0x3d5a5509	0.053303752
96	0xbd99afd6	-0.07504241
97	0xbd9dc88f	-0.07704269
98	0xbe10793e	-0.1410875
99	0x3bbea8af	0.0058184485
100	0xbd91af52	-0.07113518
101	0x3c4535a6	0.012036717
102	0xbcd42499	-0.025896357
103	0xbd9c0981	-0.07619
104	0x3d582041	0.052765135
105	0xbd0e0fdf	-0.034683105
106	0x3e2c7290	0.16840577
107	0xbdbf0d90	-0.09328759
108	0x3dd23382	0.102637306
109	0x3db9aa68	0.090657055
110	0xbd920304	-0.071294814
111	0xbd38874b	-0.0450509
112	0x3d958bb8	0.0730204
113	0x3da2fe76	0.07958691
114	0x3ce5da3c	0.028058164
115	0x3c020eed	0.007938129
116	0xbdd3ab7c	-0.103354424
117	0xbcfe9e6b	-0.031081399
118	0xbd85fc31	-0.06542242
119	0xbdabe1d0	-0.0839268
120	0x3d417cc1	0.047238115
121	0xbd30c64f	-0.04315787
122	0x3ddba28c	0.10724363
123	0xbcb0a6bb	-0.021563878
124	0x3b90d7c4	0.0044202525
125	0xbca65354	-0.020303406
126	0x3c3dd23c	0.011585768
127	0x3cad9429	0.021188812
128	0x3b8cae4f	0.00429324
129	0xbac92ebe	-0.0015349013
130	0xbc4d950c	-0.012547743
131	0x3c136418	0.008996032
132	0x3caa27eb	0.020770987
133	0x3d9eb144	0.077486545
134	0x3d0bb9b4	0.034112647
135	0x3d13af2b	0.036055725
136	0x3d2ad4da	0.041706897
137	0xbdd98bbf	-0.106223576
138	0xbd272816	-0.040809713
139	0x3d0b5635	0.03401776
140	0x3d558771	0.05213112
141	0xbd851eed	-0.06500039
142	0xbd81f3ec	-0.063453525
143	0x3da7ad31	0.081873305
144	0x3ba41520	0.005007401
145	0x3a8ac141	0.0010586159
146	0xbb3c868e	-0.0028766724
147	0x3d59d123	0.053177964
148	0x3cb2d29c	0.021828942
149	0x3d2065fa	0.039159752
150	0xbdeb2c60	-0.11483073
151	0xbc912c11	-0.017721208
152	0x3ca34ed3	0.019935047
153	0x3dc53e35	0.09631006
154	0xbb4b6925	-0.0031038013
155	0xbb930089	-0.004486148
156	0x3daf6b5f	0.08565401
157	0xbdd66a3a	-0.1046948
158	0xbcf7d458	-0.03025262
159	0xbc04f184	-0.008114222
160	0x3d6977b4	0.056998923
161	0x3d5ff102	0.054673202
162	0xbe0569f6	-0.13028702
163	0x3dbbb1d7	0.0916478
164	0xbbf774bf	-0.007551759
165	0x3d5bf1f9	0.05369756
166	0xbd006121	-0.03134263
167	0x3d1a0f32	0.037612148
168	0xbe00a747	-0.12563811
169	0xbe079c1e	-0.13243148
170	0xbc013b9c	-0.007887747
171	0xbd8ef542	-0.06980373
172	0x3a124efb	0.0005581227
173	0x3d2ca377	0.04214808
174	0xbb6a4e6b	-0.0035752307
175	0xbd81562f	-0.06315266
176	0x3d2dda38	0.042444438
177	0x3d09d06d	0.033646036
178	0x3be2a843	0.006917031
179	0xbdc5849e	-0.09644435
180	0x3e40686a	0.18789831
181	0x3d90a1f5	0.07062141
182	0xbdcadb67	-0.09905129
183	0xbd7ce8f5	-0.061745603
184	0xbaa51926	-0.0012595996
185	0xbe17d35b	-0.1482672
186	0x3d0f17ed	0.034934927
187	0x3c2ea635	0.010659744
188	0xbe491438	-0.19636619
189	0xbda1520c	-0.07876977
190	0xbde7c8fa	-0.1131763
191	0x3db2d6fe	0.08732413
192	0xbc803ada	-0.015653063
193	0xbd8734df	-0.06601881
194	0x3d69bedc	0.057066783
195	0xbdce9c10	-0.1008836
196	0xbd523d92	-0.05132825
197	0x3c9aef88	0.018913046
198	0x3b9d4529	0.0047995043
199	0xbdc5f033	-0.09664955
200	0xbda63e95	-0.08117405
201	0xbc2379a9	-0.0099777365
202	0xbdb5a91a	-0.08870144
203	0xbd5550d2	-0.05207903
204	0x3d62a2e2	0.05533112
205	0x3d26bec5	0.040709276
206	0xbe41a4e3	-0.18910556
207	0xbd704cd5	-0.058667023
208	0xbd0ab025	-0.03385939
209	0xbd49a8b0	-0.04923314
210	0x3d0b6529	0.03403202
211	0x3d19e082	0.037567623
212	0x3d8b3070	0.06796348
213	0x3d33f8eb	0.04393856
214	0x3cb06de9	0.021536784
215	0x3b77ba05	0.0037800085
216	0xbd8c5755	-0.06852595
217	0xbc850fa5	-0.016242811
218	0xbd3c9bda	-0.04604707
219	0xbd84d02c	-0.06485018
220	0xbdc69413	-0.09696212
221	0xbcd6ab3d	-0.0262047
222	0x3bbe6779	0.0058106747
223	0xbac635b4	-0.0015122206
224	0x3cd3f2c2	0.025872592
225	0xbd4b2b9e	-0.049602143
226	0x3d092075	0.03347822
227	0xbc8affbb	-0.016967645
228	0xbdebb4fc	-0.115091294
229	0x3d48dbe5	0.049037833
230	0x3ca08c2c	0.01959809
231	0x3c5465d5	0.012963732
232	0xbc73d3a7	-0.014882005
233	0xbbf01b2f	-0.0073274593
234	0xbdad51dd	-0.0846288
235	0xbddd5019	-0.10806293
236	0xbd42ccb9	-0.04755852
237	0xbcde4aa4	-0.0271352
238	0xbd4d3cb9	-0.050106738
239	0x3d8dec03	0.06929781
240	0xbc89c3de	-0.01681703
241	0x3d79ee2b	0.06101815
242	0xbd2507cf	-0.04029065
243	0xbd5e3323	-0.054247987
244	0x3ac060fb	0.001467734
245	0xbd1a6ccf	-0.037701424
246	0xbd0eb134	-0.034836963
247	0xbd3480a1	-0.044067983
248	0x3d396d0c	0.04527001
249	0xbd80d617	-0.062908344
250	0x3da8989d	0.08232234
251	0x3ce341c3	0.027741319
252	0x3d52b390	0.051440775
253	0xbd073953	-0.033013653
254	0xbce58336	-0.028016668
255	0x3d35a3d0	0.044345677

network_body._body_endoder.seq_layers.2.bias f4 [256]
0	0xbb2b39cc	-0.002612698
1	0x3a2cec90	0.000659653
2	0xbb21c0a7	-0.002468148
3	0xbad80a0f	-0.001648249
4	0x341d60b8	1.465695e-07
5	0x39f5b4eb	0.00046864836
6	0xb9693363	-0.00022239755
7	0x3addd246	0.0016923628
8	0x37df34eb	2.6608313e-05
9	0xbb73ab68	-0.0037181024
10	0x3b85bb9f	0.004081204
11	0xbaea09e3	-0.001785573
12	0x3b1d5140	0.0024004728
13	0x3abba777	0.0014316876
14	0xb38e150d	-6.6162194e-08
15	0x3b378dae	0.0028008032
16	0xbb04e1a2	-0.002027609
17	0xb99a52b3	-0.00029434785
18	0xbafa51fd	-0.0019097921
19	0x33c13026	8.996021e-08
20	0xbb0b2527	-0.0021231861
21	0x3b3893fa	0.0028164373
22	0xbab0341c	-0.0013443264
23	0xbb7a924b	-0.003823417
24	0xb8d67bcd	-0.00010227375
25	0x3b893e57	0.0041883397
26	0xbba8b5c4	-0.0051486213
27	0xbacbf6d7	-0.0015561235
28	0x3b183c46	0.0023229285
29	0x3bbc0438	0.0057378076
30	0x3ae4f4cc	0.0017467975
31	0x358284cb	9.724403e-07
32	0xbb24b52c	-0.00251324
33	0xba8c7bc2	-0.0010718035
34	0xbb576783	-0.0032868094
35	0x3b19cea6	0.002346912
36	0x3ab145f5	0.0013524877
37	0x3946b10d	0.00018948708
38	0xbba49cb9	-0.0050235656
39	0x3a951d55	0.001137654
40	0xbb1db0da	-0.002406171
41	0xb9640f96	-0.0002174958
42	0x3aee9c7c	0.0018204595
43	0xbb265247	-0.002537863
44	0x3b84b8fb	0.0040503717
45	0xba1a0b5b	-0.0005876326
46	0xb9406650	-0.00018348661
47	0xbb6299d9	-0.0034576564
48	0x3622c4a6	2.4254346e-06
49	0xbaa0ebda	-0.001227732
50	0xba56c839	-0.00081932876
51	0x3bc02ef2	0.0058649713
52	0x3b89c477	0.0042043286
53	0x3bc9a6c5	0.0061539137
54	0xb85ffcb3	-5.3402688e-05
55	0x3bc4badd	0.006003721
56	0xb4089a5c	-1.2722143e-07
57	0xbb329e21	-0.0027254897
58	0xbae0330e	-0.0017105059
59	0x3a957cfc	0.0011405046
60	0xbab40fe3	-0.0013737645
61	0xbb9a0247	-0.0046999785
62	0x3b360197	0.0027771944
63	0x36b44d79	5.373437e-06
64	0x3ac81b5d	0.0015266944
65	0x3bc73502	0.006079317
66	0x3ae5a471	0.0017520321
67	0xb5c982a1	-1.5013685e-06
68	0x36439ba6	2.9147864e-06
69	0xbb280261	-0.0025636184
70	0xbb4b3798	-0.0031008478
71	0xbbc2b5b7	-0.0059420723
72	0x256f8e43	2.0778146e-16
73	0xbad091d9	-0.0015912607
74	0x39a6b6ff	0.0003179833
75	0x3a2fa59c	0.0006700398
76	0x3b903829	0.004401226
77	0xbaf3e550	-0.0018607769
78	0xbbc0eefb	-0.0058878637
79	0x3b2f9b9d	0.0026795634
80	0xb9cd28c8	-0.0003913103
81	0xbb5e94a7	-0.0033963115
82	0x391b1ae0	0.00014791964
83	0xbbdf1b6d	-0.0068086893
84	0xbc097003	-0.008388522
85	0xb2b7dc38	-2.1404148e-08
86	0xbb15a83d	-0.0022835874
87	0xbbb29b9e	-0.00545068
88	0x3bdb9148	0.0067006685
89	0xbbd49d50	-0.0064884797
90	0xb76ed500	-1.4235498e-05
91	0xbac00a88	-0.0014651576
92	0xbb1b92d6	-0.0023738644
93	0xbb86c03f	-0.004112273
94	0xbb623b43	-0.0034520186
95	0x39228aad	0.00015501185
96	0xbb0b68c9	-0.0021272174
97	0xb9fc903b	-0.00048172646
98	0x3a57485c	0.00082123815
99	0xbae7e967	-0.0017693461
100	0x3b9eee4b	0.004850184
101	0x3b73c84a	0.003719824
102	0x3b9ae277	0.0047267037
103	0x3a8f0986	0.0010912872
104	0xbb2a81f6	-0.0026017404
105	0x398eb834	0.00027221593
106	0x3847f9e2	4.767802e-05
107	0xbb367a1e	-0.0027843784
108	0x3816c84c	3.5949328e-05
109	0x3ba6e88f	0.005093641
110	0x3b8a8497	0.0042272317
111	0x3b078039	0.0020675792
112	0x3bc69ef3	0.0060614287
113	0xba389452	-0.00070411444
114	0x3b154bb8	0.0022780728
115	0x3b901507	0.004397038
116	0x3b849267	0.004045773
117	0x3afb99be	0.0019195599
118	0x3b00f1dc	0.001967541
119	0xbb4c47e1	-0.0031170773
120	0x3b95105e	0.0045490703
121	0x3a98cf0f	0.0011658388
122	0x3af74b95	0.001886713
123	0xbac70848	-0.0015184963
124	0xbac579c8	-0.0015066201
125	0xbb3779e2	-0.0027996232
126	0xb828a97b	-4.0212162e-05
127	0xbb063337	-0.0020477304
128	0xbae1e3c4	-0.0017234017
129	0x3b210970	0.0024572276
130	0x3aa81460	0.0012823455
131	0xbb384dcf	-0.002812255
132	0x3bb59351	0.005541243
133	0x36fa9d16	7.468868e-06
134	0x38aa2f45	8.115036e-05
135	0xbb4c261a	-0.003115064
136	0xbbda1717	-0.0066555846
137	0xbbc95204	-0.00614381
138	0xbbadc06b	-0.005302479
139	0x3b94a006	0.004535678
140	0xbb65b695	-0.0035051454
141	0x3a8357da	0.0010020689
142	0x39ee71dd	0.00045479732
143	0xb9cf4b44	-0.00039538194
144	0x3a17a874	0.00057852943
145	0xbaaf681a	-0.0013382465
146	0xbae1b562	-0.0017220194
147	0xba968f58	-0.0011486812
148	0xbb0ef39d	-0.0021812685
149	0x3b510db2	0.0031899032
150	0xbba9389c	-0.005164219
151	0x3b28edf1	0.002577659
152	0x3b7b697a	0.003836243
153	0xbb1d3bc7	-0.002399193
154	0x3bd9a0c4	0.006641479
155	0x3b58ef9f	0.003310181
156	0x3b758f4b	0.0037469442
157	0xb902784e	-0.00012442583
158	0xbae42fa6	-0.001740922
159	0xb9e3760f	-0.00043384774
160	0x3b702cb0	0.003664773
161	0xb2a6b066	-1.940516e-08
162	0x3b755236	0.0037433035
163	0x3b421fac	0.0029620929
164	0x3b6605eb	0.0035098742
165	0xbb05de60	-0.0020426735
166	0x3b2e7f1e	0.002662606
167	0xbabd872e	-0.0014459842
168	0xbab02978	-0.0013440093
169	0xbb15c4b0	-0.002285283
170	0x3b558e66	0.0032586097
171	0x3a52abec	0.00080364826
172	0xbb748216	-0.0037308983
173	0x30736f7f	8.856133e-10
174	0x3b4d323a	0.0031310455
175	0x39e7c4dc	0.00044206425
176	0xbb0f82b2	-0.002189797
177	0xb5aec586	-1.3021497e-06
178	0xbb9d6287	-0.004803005
179	0xbaec92b8	-0.0018049097
180	0x3a759256	0.0009367814
181	0xbadddfbe	-0.0016927642
182	0xb9ec362c	-0.0004505379
183	0xbb919283	-0.0044425144
184	0xb7cfb1c3	-2.47591e-05
185	0xbafd3e57	-0.0019320947
186	0x3b23eeb5	0.0025014107
187	0x38b873a3	8.795343e-05
188	0xbb004d81	-0.0019577446
189	0xbb18d55d	-0.0023320534
190	0xb2bd9b53	-2.2073129e-08
191	0xba98ed3d	-0.0011667382
192	0xb9530486	-0.00020124213
193	0xbb86b343	-0.004110725
194	0xbb1b19e5	-0.0023666557
195	0x3b6dd0a7	0.0036287697
196	0x3afbacb3	0.0019201249
197	0x3b167a4c	0.0022961078
198	0x346509d7	2.1330867e-07
199	0x3a5f763a	0.0008524392
200	0xbad0d560	-0.0015932731
201	0x3ac8e618	0.0015327362
202	0xbb774b7e	-0.0037734206
203	0x3aff0300	0.001945585
204	0xbbb53acf	-0.005530692
205	0x3be8aff4	0.0071010534
206	0xbb07be9a	-0.0020712973
207	0xb3e4987d	-1.0644815e-07
208	0xbb65b62d	-0.0035051212
209	0x3b7ce7f6	0.0038590408
210	0x3b515165	0.0031939384
211	0x3ad37fea	0.0016136144
212	0xbb5b11b0	-0.003342729
213	0x3b32b896	0.0027270666
214	0xbb7106af	-0.0036777665
215	0x3ad0b1d6	0.001592214
216	0xbb4c94a9	-0.0031216538
217	0xb987af59	-0.0002587985
218	0x38c19a24	9.231668e-05
219	0x3a450041	0.00075149914
220	0x3b08f895	0.002090012
221	0xbb615536	-0.0034383065
222	0xbb67acbf	-0.0035350767
223	0xbb9858c1	-0.004649252
224	0x3b0b36b5	0.0021242325
225	0xbb6c52b4	-0.0036060037
226	0x39226955	0.00015488763
227	0x3b2859bb	0.002568825
228	0xbb42e487	-0.0029738264
229	0x3b8d73e2	0.004316793
230	0x3b4b9654	0.0031064944
231	0x3b6db1b8	0.0036269259
232	0x3bf29a05	0.0074036145
233	0xbab46702	-0.0013763609
234	0x3bd6f4aa	0.006559928
235	0xba518d38	-0.00079937605
236	0xb66e33d3	-3.549493e-06
237	0xb95715dd	-0.00020512143
238	0x3a03ad4b	0.0005023076
239	0x39c05ffb	0.00036692605
240	0xa95ddf2a	-4.926542e-14
241	0x3b2f614e	0.002676088
242	0xb923929a	-0.00015599505
243	0xba27994e	-0.00063933886
244	0xbb96adfa	-0.0045983763
245	0xbb706338	-0.0036680233
246	0x3ae58bc1	0.0017512963
247	0x3b8f12f9	0.0043662754
248	0xb9a33a94	-0.00031133427
249	0xbb1115ca	-0.0022138231
250	0xbac5106b	-0.00150348
251	0x3b94c70b	0.0045403293
252	0x3befd55a	0.0073191347
253	0xb8f3399c	-0.000115978735
254	0x3b23a730	0.0024971478
255	0xba8d1033	-0.0010762274

network_body._body_endoder.seq_layers.4.weight f4 [256, 256]
0	0xbd3d9bec	-0.046291277
1	0xbd59e01c	-0.053192243
2	0x3c8c4ece	0.01712742
3	0xbdc40ba4	-0.09572533
4	0xba5b1e27	-0.000835868
5	0x3c376de4	0.011195634
6	0x3ccfa314	0.025346316
7	0x3d8b25a7	0.06794291
8	0xbe0a00be	-0.13476846
9	0xbccfdf3f	-0.025375007
10	0xbc708e18	-0.014682315
11	0x3d48ef0e	0.049056105
12	0x3d92dc90	0.07170975
13	0x3d3ba0e6	0.04580774
14	0xbc48feab	-0.012267749
15	0x3c0db9b9	0.008650237
16	0xb999ef90	-0.00029360922
17	0x3d06ead2	0.032938786
18	0x3c8f7ace	0.017514613
19	0x3d34dcf7	0.04415604
20	0xbb3a1103	-0.0028391487
21	0x3d6b8780	0.05750227
22	0x3e01e07e	0.12683293
23	0xbd82148b	-0.063515745
24	0x3e01fe56	0.12694678
25	0x3c1f4d8e	0.00972308
26	0xbd6af4e5	-0.057362456
27	0xbcca9b68	-0.024732307
28	0x3da711e6	0.08157711
29	0xbdf03632	-0.11729087
30	0x3bc2acf0	0.005941026
31	0x3d864782	0.06556608
32	0xbda3d0ec	-0.07998833
33	0x3ccecba3	0.025243586
34	0xbd6fd89b	-0.05855618
35	0xbd8a1fbb	-0.06744333
36	0xbd1b3669	-0.037893686
37	0x3d9f230c	0.077703565
38	0x3df781cf	0.12085306
39	0xbb5947a0	-0.0033154264
40	0xbd38cd57	-0.045117702
41	0x3acb293a	0.0015499957
42	0xbce66832	-0.028125856
43	0xbb04981d	-0.0020232268
44	0xbdc7bcaa	-0.09752782
45	0x3c8dc85f	0.017307458
46	0x3d8fa0fe	0.07013129
47	0x3d1f09b6	0.03882762
48	0x3dbce8f9	0.092241235
49	0xbd632aa9	-0.055460606
50	0x3d0163ab	0.03158919
51	0xbd8dd4e0	-0.06925368
52	0xbd13030c	-0.035891578
53	0xbc8ef23b	-0.017449489
54	0x3d208904	0.03919317
55	0xbdc591a7	-0.096469216
56	0xbd0a60ad	-0.033783603
57	0x3d8ee95b	0.06978103
58	0x3d9ba284	0.07599357
59	0x3b37e892	0.0028062207
60	0xbd612a09	-0.05497173
61	0xbd076926	-0.03305926
62	0x3d44c2dc	0.048037395
63	0x3a911f75	0.0011071997
64	0x3b8e1c18	0.004336845
65	0xbc37db63	-0.011221739
66	0x3c862160	0.016373336
67	0xbc4cf2f0	-0.012509093
68	0x3cc77b48	0.024350777
69	0xba44ee5c	-0.0007512325
70	0xbdc84e79	-0.097805925
71	0xbcd42591	-0.02589682
72	0xbd1e994b	-0.03872041
73	0xbd3f0897	-0.04663905
74	0xbcb99aae	-0.022656765
75	0x3dfe2f48	0.12411362
76	0xbc9474fb	-0.018122187
77	0xbdb99fae	-0.090636596
78	0xbd986695	-0.07441441
79	0xbc9cec34	-0.0191556
80	0xba8d7cca	-0.0010794636
81	0xbd049ee2	-0.032378085
82	0xbd6d3316	-0.057910047
83	0x3d723ae8	0.05913821
84	0xbdcf7aba	-0.1013083
85	0x3dd349e2	0.103168264
86	0xbd0c0a8a	-0.03418974
87	0x3d411801	0.047142033
88	0x3de0e2a4	0.10980728
89	0x3d96c9ee	0.07362734
90	0x3de46822	0.11152674
91	0xbbfdd1e9	-0.0077459705
92	0xbd410603	-0.047124874
93	0x3aac1323	0.0013128262
94	0x3d5bc97e	0.053658955
95	0xbc1fc632	-0.009751843
96	0xbc54671a	-0.012964034
97	0xbd879b8f	-0.06621467
98	0x3d521159	0.051286075
99	0xbd8180d0	-0.06323397
100	0x3d0e81de	0.03479182
101	0xbc995113	-0.018715417
102	0x3d0d1314	0.034442022
103	0x3d937aca	0.072011545
104	0xbdbbe74b	-0.09174975
105	0x3db926c4	0.09040597
106	0x3d162e91	0.036665503
107	0xbc1720bf	-0.009224116
108	0x3d841e26	0.06451063
109	0xbaa67b51	-0.0012701546
110	0x3b730443	0.0037081398
111	0x3caf6fd2	0.021415625
112	0xbcdefefb	-0.027221194
113	0x3d11d294	0.035601214
114	0x3d87b531	0.066263564
115	0x3d3d8a45	0.046274442
116	0xbc35be0e	-0.011092676
117	0x3bab2f6c	0.005224159
118	0xbccd87d8	-0.02508919
119	0xbb764167	-0.0037575604
120	0xbdb61f4e	-0.0889269
121	0xb7719e53	-1.4401582e-05
122	0xbd823b59	-0.06358976
123	0x3d874586	0.066050574
124	0x3d94b9a6	0.07261972
125	0x3d4414c3	0.047871362
126	0x3d597ca0	0.053097367
127	0x3c47645d	0.012169925
128	0xbc11256c	-0.00885902
129	0xbac597ca	-0.0015075144
130	0x3d7553ef	0.0598945
131	0x3c2e8f23	0.010654244
132	0xbca14d10	-0.019690067
133	0xbc95d3f5	-0.018289546
134	0x3de95482	0.11393072
135	0xbd837098	-0.0641796
136	0xbe166155	-0.14685567
137	0xbd2757ca	-0.040855207
138	0x3cee47d9	0.029086994
139	0xbde30c1f	-0.11086296
140	0xbd58128c	-0.052752063
141	0xbd5bcdcf	-0.05366307
142	0xbc254150	-0.0100863725
143	0xbe04f635	-0.12984546
144	0xbda5eb90	-0.081015706
145	0xbc4ac341	-0.012375654
146	0x3d8bb58e	0.06821738
147	0xbced15fc	-0.028941147
148	0x3dc0fa45	0.09422735
149	0xba6e6618	-0.00090941926
150	0xbd2bbb60	-0.04192674
151	0xbd500408	-0.050785094
152	0xbd4b88db	-0.049691062
153	0xbd255580	-0.040364742
154	0x3ca280aa	0.019836742
155	0x3d22eb83	0.039775383
156	0xbd07e4ef	-0.033177312
157	0xbdc7a90b	-0.09749039
158	0x3c1d5bf4	0.009604443
159	0x3d094344	0.033511415
160	0x3b34150c	0.0027478365
161	0x3cfb1f87	0.030654682
162	0xbd2fc5bb	-0.04291318
163	0xbc5c06e5	-0.013429378
164	0x3cc272f9	0.023736464
165	0x3be559c9	0.0069992286
166	0x3d51ebcc	0.051250264
167	0xbc906a38	-0.017628774
168	0xbd841e20	-0.064510584
169	0xbe1ab6f3	-0.15108852
170	0x3db3a361	0.087713964
171	0x3d2d0e14	0.042249754
172	0xbdefbb7a	-0.1170568
173	0x3c93cbc3	0.018041497
174	0xbd9d6283	-0.07684805
175	0x3d77f5ae	0.060537033
176	0xbd3b0996	-0.04566344
177	0x3c6fd6d7	0.014638624
178	0x3d6e3021	0.058151368
179	0x3bf756ab	0.0075481734
180	0x3d89581d	0.067062594
181	0xbcad9cbf	-0.021192906
182	0x3ceb3df0	0.028716058
183	0xbe2e4915	-0.17020066
184	0xbd5e3e8d	-0.05425887
185	0x3ddf7425	0.10910825
186	0xbcac1d4f	-0.02101007
187	0xbd97ddab	-0.07415327
188	0x3d9ee57d	0.07758615
189	0x3cc58212	0.024109874
190	0xbbebddab	-0.0071980557
191	0xbd519698	-0.051169008
192	0x3dca75ea	0.098857716
193	0x3d2b1d3c	0.041775927
194	0xbc326b21	-0.010889799
195	0xbd0ba483	-0.034092437
196	0xbd724f87	-0.059157874
197	0xbda287f8	-0.0793609
198	0x3d957207	0.072971396
199	0xbdf4015b	-0.11914321
200	0x3d0ce70f	0.034400042
201	0x3db3d903	0.08781626
202	0x3d928a7c	0.0715532
203	0x3daf97a8	0.08573848
204	0x3dd8f165	0.10592917
205	0x3c8eb2bf	0.017419217
206	0xbd85fbe3	-0.06542184
207	0xbdaad338	-0.08341068
208	0x3b5f541f	0.003407724
209	0xbd392cfb	-0.045208912
210	0xbdf20a2b	-0.11818346
211	0x3db578ae	0.088609084
212	0xbd581c06	-0.0527611
213	0x3b1a13b3	0.0023510277
214	0xbd91c1ba	-0.071170285
215	0x3da3473a	0.0797257
216	0x3d4632b7	0.04838821
217	0xbdab1564	-0.08353689
218	0x3c92bb29	0.01791151
219	0xbb1d0774	-0.0023960741
220	0xbda6abc8	-0.081382334
221	0x3b6e06fc	0.003632008
222	0x3d5edd1d	0.05441009
223	0x3c6a5e72	0.014304744
224	0x3d308387	0.043094184
225	0xbdb73c2b	-0.08947023
226	0xbdfc72bb	-0.123265706
227	0xbbfa7f12	-0.0076445425
228	0x3c66fe9d	0.0140987905
229	0x3d7e7472	0.06212277
230	0x3d933282	0.07187368
231	0xbcb9d5af	-0.0226849
232	0xbd2b4fec	-0.041824266
233	0xbd44f843	-0.048088323
234	0xbd8b298a	-0.06795032
235	0xbde31509	-0.110879965
236	0x3e1932b2	0.14960745
237	0x3dbd6bd1	0.0924908
238	0x3de31069	0.11087114
239	0x3cce3a0c	0.025174163
240	0x3c9f3657	0.019435091
241	0x3c50c9c4	0.012743417
242	0xbddf9d25	-0.10918645
243	0xbd265b63	-0.040614497
244	0x3d7ec3a9	0.062198315
245	0xbe0b74fc	-0.13618845
246	0x3d722c53	0.059124302
247	0xbb067c8a	-0.0020521008
248	0xbd843ba3	-0.06456687
249	0x3c23999c	0.009985354
250	0x3d245215	0.040117342
251	0x3d75b9e5	0.059991736
252	0xbdc6e4bd	-0.09711597
253	0xbca1171a	-0.019664336
254	0x3d14f4d9	0.036366317
255	0x3be78c5a	0.0070662918

network_body._body_endoder.seq_layers.4.bias f4 [256]
0	0xbb958ebb	-0.004564134
1	0xbaaac20a	-0.0013027799
2	0x3b5d6943	0.0033784665
3	0x3bace107	0.005275849
4	0x3b3408b9	0.002747102
5	0xb92ddff1	-0.0001658199
6	0xbad47b5e	-0.0016211083
7	0xbafdadae	-0.0019354129
8	0x3b5086c0	0.0031818599
9	0x3baa47cc	0.005196547
10	0xbaec703c	-0.001803882
11	0x3a276f8d	0.0006387167
12	0x3b367eef	0.0027846654
13	0x3b4edd97	0.0031565183
14	0xbab7557b	-0.0013987267
15	0x3b1eb4b6	0.0024216599
16	0x3b2ba7cd	0.0026192546
17	0x2f665109	2.0947168e-10
18	0x39093244	0.00013084064
19	0xb10e71f7	-2.0728501e-09
20	0xbbc664b3	-0.0060544848
21	0x3b8c78b6	0.004286851
22	0xbb55e4ec	-0.0032637669
23	0x3b0071c9	0.0019599071
24	0xbb381ddf	-0.0028093976
25	0xb78858e8	-1.6253864e-05
26	0xbb131af6	-0.002244649
27	0xbb4707eb	-0.003036971
28	0x3aebe453	0.0017997123
29	0x3a4aeb91	0.00077407906
30	0xbbc11a59	-0.0058930335
31	0xb9cffe4a	-0.00039671577
32	0xb889cf77	-6.5713124e-05
33	0xbabd48e4	-0.0014441279
34	0xbb958a69	-0.004563619
35	0x3bddbe37	0.00676706
36	0x3a9956d7	0.0011698854
37	0xbab10ccc	-0.0013507842
38	0x3ac7b046	0.0015235029
39	0xba6f91f9	-0.0009138878
40	0xbaa20b5d	-0.0012363006
41	0xba903cac	-0.001100441
42	0x3b17fcfc	0.0023191562
43	0x3bc31490	0.005953379
44	0x3ad9c124	0.0016613347
45	0xba3e90ae	-0.0007269484
46	0x3b6efb02	0.003646553
47	0xb9c77ed1	-0.00038050723
48	0xb9d9875b	-0.00041490313
49	0x3b470ee7	0.0030373873
50	0x3b2854ad	0.0025685236
51	0xbaeac296	-0.0017910774
52	0x3284ecf6	1.547458e-08
53	0xbaf4737e	-0.0018650142
54	0xb8d9de3a	-0.00010388759
55	0xbae34b92	-0.0017341247
56	0x3b67515b	0.0035296294
57	0xbbb43399	-0.005499315
58	0x3a9bc2ab	0.0011883577
59	0x3b3b5797	0.0028586143
60	0x3985b8c2	0.00025505392
61	0x3b5da7db	0.0033821973
62	0x3ba5b5ff	0.005057096
63	0xbb965b17	-0.0045884955
64	0x3bc57598	0.006025981
65	0xbb2022cb	-0.00244348
66	0xbb06cd4c	-0.0020569144
67	0xbb4e2db8	-0.0031460356
68	0xbb82adf3	-0.0039880215
69	0x3b4dcf53	0.0031404092
70	0xbaeeb5ff	-0.0018212198
71	0xbb62e4fe	-0.0034621353
72	0x3bddbcac	0.006766876
73	0xba511f30	-0.00079773646
74	0xba9e82d7	-0.0012093437
75	0xbbafb888	-0.005362574
76	0xbb41b0ea	-0.0029554912
77	0xba546ce1	-0.00081033824
78	0xbb65e2b9	-0.0035077764
79	0xbaf90fa0	-0.0019001849
80	0x3a82cfdf	0.0009980163
81	0x3ab19a0c	0.0013549938
82	0x3baf35a3	0.00534697
83	0xbaf1cd74	-0.0018448071
84	0x3ae7ceec	0.0017685569
85	0x38bf36b6	9.1177804e-05
86	0xbb9b8d2e	-0.0047470545
87	0x3b746069	0.003728891
88	0xbaadac38	-0.0013250178
89	0x3b14ed9c	0.0022724634
90	0x3b4ad4bf	0.003094956
91	0xbb0e560a	-0.0021718764
92	0xb9e225d0	-0.00043134252
93	0x3b1f5ee4	0.0024318034
94	0xb9872e11	-0.0002578353
95	0x3a27b7dc	0.00063979416
96	0xbb227daf	-0.0024794152
97	0xbb09d507	-0.0021031515
98	0xb928f1f4	-0.00016111863
99	0x3b71416f	0.0036812683
100	0x3b2b0db6	0.0026100702
101	0xba1264dc	-0.0005584487
102	0x3b825f68	0.0039786585
103	0xbb6f10e8	-0.0036478583
104	0x3a304338	0.00067238836
105	0x3ace0d1f	0.0015720463
106	0xbb29b0e0	-0.002589278
107	0x3a8ba92a	0.0010655273
108	0xbaae0f09	-0.0013279627
109	0xbb381556	-0.002808889
110	0xba105d5b	-0.0005507075
111	0xbb9c2bb4	-0.004765952
112	0xbaf4494a	-0.0018637564
113	0xbb15100e	-0.0022745165
114	0xbb1edbf8	-0.0024239998
115	0xbb2d4a10	-0.002644185
116	0x39a4165d	0.0003129718
117	0x3ba282d8	0.0049594454
118	0x3bd72967	0.006566215
119	0x3abb89c4	0.0014308025
120	0x3929b24e	0.0001618352
121	0x3b6d9cf5	0.0036256884
122	0xbaf124c0	-0.0018397793
123	0xbae2182a	-0.0017249633
124	0x3b525f84	0.0032100389
125	0x3a6dfcae	0.0009078485
126	0xbb401b15	-0.0029313017
127	0xbb1b5cee	-0.0023706513
128	0x3aa522dc	0.001259889
129	0x3ad5725a	0.001628469
130	0xae56b9af	-4.8822887e-11
131	0xbac16bdf	-0.001475688
132	0xba71cd0d	-0.00092239754
133	0xb8a0889b	-7.654839e-05
134	0x3b930f93	0.0044879406
135	0xbb910d07	-0.004426602
136	0xbada90d8	-0.0016675247
137	0xbb015a5d	-0.0019737699
138	0x370e88d1	8.495715e-06
139	0xbb27406f	-0.0025520583
140	0x3bce8c7e	0.006303369
141	0xbad44172	-0.0016193821
142	0xbb5f38d7	-0.0034060979
143	0x3b79082a	0.003799925
144	0x3b8dfd6c	0.0043331888
145	0x3b55426f	0.0032540818
146	0x3bb6181a	0.0055570723
147	0xbbe1191c	-0.0068694483
148	0x3923bad1	0.00015614486
149	0x39e20745	0.00043111495
150	0xba916f89	-0.0011095862
151	0xbb17c130	-0.002315592
152	0xb8a3ae01	-7.8048564e-05
153	0xbb008ed1	-0.0019616375
154	0xbb8b8452	-0.004257717
155	0xba92c5ab	-0.0011197826
156	0xbae86302	-0.0017729702
157	0xba864aa5	-0.0010245634
158	0xb98db23c	-0.0002702641
159	0x3a925651	0.001116464
160	0x35b7ee49	1.3703913e-06
161	0xbb8f3492	-0.0043702805
162	0xba9cee4f	-0.0011972877
163	0xb993f3cc	-0.00028219668
164	0xbacb72b3	-0.0015521854
165	0xbae120ba	-0.0017175891
166	0xbad4746d	-0.0016209014
167	0xbb5974ad	-0.0033181116
168	0x3920ae5b	0.00015323742
169	0x391b563e	0.0001481408
170	0x3aa49dc7	0.0012559228
171	0xbb6b589b	-0.0035910967
172	0x3bcd0a84	0.006257357
173	0xbb7e19b1	-0.0038772637
174	0xbb1fe4ce	-0.0024397853
175	0xbb83881b	-0.004014028
176	0xbafad38d	-0.0019136533
177	0x3ad20f1b	0.001602623
178	0xbac1829d	-0.0014763657
179	0xbaf093cf	-0.0018354597
180	0xbb759734	-0.0037474157
181	0x392b2345	0.0001632097
182	0x3b9f815e	0.0048677167
183	0xbae17cbf	-0.0017203315
184	0x3b5a5cab	0.0033319395
185	0xbb0d9fe1	-0.0021610188
186	0xbb00fb3e	-0.0019681002
187	0x3ac19b4f	0.0014771017
188	0xba701dd5	-0.0009159719
189	0x3bd5fbd8	0.0065302663
190	0xbb03acdb	-0.0020092044
191	0xb94ce204	-0.00019539153
192	0x3b151c99	0.0022752641
193	0x3ab7f7c2	0.001403563
194	0x3bb6c443	0.0055775954
195	0x3b0f5f11	0.0021876732
196	0xbabaeef5	-0.0014261889
197	0x3bd098ed	0.0063658864
198	0x3b927fd9	0.004470807
199	0xbaf12353	-0.0018397368
200	0xb918aa2e	-0.00014559246
201	0xbad40e3f	-0.0016178562
202	0x39f70b39	0.00047119873
203	0x3b82ad75	0.003987963
204	0x3be303de	0.0069279512
205	0x3b83cbc4	0.0040220935
206	0x3b58c7c4	0.0033078054
207	0xb91810f3	-0.00014502164
208	0xba5a10bd	-0.0008318534
209	0x3a359f81	0.000692837
210	0x363ef973	2.8457405e-06
211	0xbb436045	-0.002981202
212	0x394df0e3	0.00019640061
213	0x389db8e3	7.520781e-05
214	0x3a6149dc	0.0008594075
215	0xbb25cc72	-0.002529886
216	0xb888c6cc	-6.522014e-05
217	0x3b421a45	0.0029617709
218	0xbb1e661d	-0.002416975
219	0xbac50a95	-0.0015033061
220	0x39d537c1	0.00040668066
221	0x3a06eb56	0.0005146762
222	0x3b9df316	0.004820238
223	0x3af86c97	0.0018953261
224	0xbaf2206d	-0.0018472798
225	0xb62aae04	-2.5433264e-06
226	0x3baf4ba8	0.005349595
227	0xbbcb47fd	-0.00620365
228	0xbb3695a9	-0.00278602
229	0x3b3da956	0.0028940043
230	0x3b965e3b	0.00458887
231	0x3be23d5d	0.0069042877
232	0xbbcbc4c7	-0.006218526
233	0x3b1bdf81	0.0023784342
234	0x3ac4057b	0.0014955247
235	0x3bb80daa	0.0056168633
236	0xbb7a21f3	-0.0038167208
237	0x3ac4c9cb	0.0015013752
238	0x3ba66900	0.005078435
239	0x3acee08d	0.0015783474
240	0xbaeb7cbc	-0.0017966251
241	0xbaef9fc3	-0.0018281866
242	0xb9a3b79b	-0.0003122658
243	0xbacfecb6	-0.0015863392
244	0xbac8db77	-0.0015324195
245	0xbab1ebe1	-0.0013574326
246	0x3b822384	0.003971519
247	0xbb9f2c98	-0.004857611
248	0x39b69ed2	0.00034832075
249	0x3b879c52	0.004138508
250	0x3b732b3b	0.0037104625
251	0xbb0cfcc4	-0.0021512965
252	0xbad56fcb	-0.0016283927
253	0xbb83b08b	-0.0040188483
254	0x3b826760	0.0039796084
255	0x3b446c04	0.002997161

network_body._body_endoder.seq_layers.6.weight f4 [256, 256]
0	0x3d6cea0b	0.05784039
1	0xbe251d6b	-0.16124503
2	0x3d859073	0.06521692
3	0x3d2feb40	0.04294896
4	0x3a498c3d	0.00076884386
5	0x3db13c78	0.086541116
6	0x3d6171e2	0.055040248
7	0xbdd404ac	-0.103524536
8	0x3c18ea94	0.0093332715
9	0x3dfb05ad	0.12256942
10	0xbcb03bbf	-0.021512864
11	0xb8b71e33	-8.731745e-05
12	0xbd87eec7	-0.0663734
13	0x3d8e75d1	0.069560654
14	0xbd383247	-0.044969823
15	0x3d9c2f8b	0.076262556
16	0x3bf35898	0.0074263327
17	0xbd127ab4	-0.03576155
18	0xbd661559	-0.056172702
19	0x3c7dd46b	0.015492539
20	0xbd8edbc1	-0.069755085
21	0xbd354b52	-0.044261284
22	0x3dd46229	0.10370285
23	0x3dc82338	0.097723424
24	0x3d89a8ea	0.06721671
25	0xbd967b98	-0.073477924
26	0x3c6ef7cb	0.014585446
27	0xbd33a632	-0.043859668
28	0x3baa247e	0.0051923385
29	0xbd01fa83	-0.031733047
30	0x3d35f22c	0.044420406
31	0x3db0e85d	0.0863807
32	0xbdaa6bdb	-0.08321353
33	0x3ae3164d	0.0017325372
34	0xbd4c0214	-0.04980667
35	0xbc0cf314	-0.008602876
36	0x3c90bfaa	0.017669518
37	0x3d961cf0	0.07329738
38	0xbd6178e6	-0.05504694
39	0xbca6b906	-0.020351898
40	0xbd9c4446	-0.076302096
41	0x3dd1eaab	0.102498375
42	0xbd15dde3	-0.03658856
43	0xbd910dbe	-0.07082699
44	0xbdfe7bcf	-0.12425958
45	0x3c888132	0.016663168
46	0x3dc6a9bc	0.09700343
47	0xbc6202c8	-0.013794608
48	0xbc810af4	-0.015752293
49	0xbca474a3	-0.020075148
50	0x3d9b1b8d	0.07573614
51	0xbd031c66	-0.032009505
52	0xbdaef60f	-0.08543026
53	0xbe63d6fc	-0.22249979
54	0x3dd6afdf	0.104827635
55	0xbde2d477	-0.11075681
56	0x3df43074	0.11923304
57	0xbd700a74	-0.05860372
58	0x3d377538	0.044789523
59	0xbd8838b5	-0.06651441
60	0x3d630784	0.05542709
61	0xbc95b468	-0.018274501
62	0xbc6966d8	-0.014245711
63	0xbe0d2447	-0.1378337
64	0x3e08390a	0.13303009
65	0xb9b14e79	-0.00033818537
66	0x3c1e57ef	0.00966452
67	0xbd6b15e5	-0.057393927
68	0xbdff76c7	-0.12473827
69	0xbd355a82	-0.044275768
70	0x3d9243af	0.07141816
71	0x3ad3d810	0.0016162414
72	0x3d9aa4ef	0.0755099
73	0x3b8a2c9c	0.0042167436
74	0x3cab6795	0.020923415
75	0x3d060bac	0.032725975
76	0x3c873087	0.016502632
77	0xbb8d14d9	-0.0043054637
78	0x3d1dbd35	0.03851052
79	0xbc12f137	-0.008968643
80	0x3d95c621	0.07313181
81	0x3c470c3c	0.012148913
82	0xbd237d27	-0.039914276
83	0x3c88cae0	0.0166983
84	0x3dd11281	0.102086075
85	0xbdc91e83	-0.09820273
86	0x3c9dae3d	0.019248122
87	0x3ca8ca20	0.020604193
88	0x3d3afb9a	0.045650102
89	0x3ce7f661	0.028315725
90	0x3d6c7d86	0.057736896
91	0xbd995ccd	-0.074884035
92	0x3b0efc87	0.0021817998
93	0xbc5a61d3	-0.013328987
94	0xbbbc366a	-0.0057437913
95	0x3d95b17b	0.07309242
96	0xbabd9058	-0.0014462573
97	0x3d32225b	0.043489795
98	0xbda066ae	-0.078320846
99	0x3d008789	0.031379256
100	0xbb5cf5a9	-0.003371576
101	0x3b6a40e6	0.003574425
102	0x3d079ffc	0.033111557
103	0x3d185b57	0.037196483
104	0xbd73d473	-0.05952878
105	0x3d21cdbe	0.03950285
106	0xbdb184e9	-0.08667929
107	0xbdb7123a	-0.08939023
108	0xbc9ba852	-0.01900116
109	0x3db13ac0	0.08653784
110	0x3d609b4e	0.05483561
111	0x3c8d512f	0.017250625
112	0xbd77a53a	-0.060460307
113	0x3cfaa72e	0.030597296
114	0xbe27466c	-0.16335458
115	0x3d3e4b2d	0.046458412
116	0xbd4295f4	-0.047506288
117	0x3b8ed988	0.004359428
118	0xbd8b1ef1	-0.06793011
119	0x3df6d8ab	0.12053045
120	0xbd9ac47f	-0.0755701
121	0xbcf41829	-0.029796677
122	0xbc649dca	-0.0139536355
123	0xbd0a7872	-0.03380627
124	0xbdac56a0	-0.0841496
125	0xbd81243c	-0.06305739
126	0x3bf483f1	0.0074620177
127	0x3c09b878	0.008405797
128	0xbd86de06	-0.06585316
129	0x3ced35a6	0.028956246
130	0xbceaece9	-0.02867742
131	0xbbe04613	-0.006844291
132	0x3db640ec	0.088991016
133	0x3d84e065	0.06488112
134	0x3c507bc1	0.012724818
135	0x3d03efd3	0.032211136
136	0xbdd68233	-0.10474052
137	0x3c6f7fc1	0.014617861
138	0x3d51279a	0.051063158
139	0x3c9e01f1	0.019288035
140	0x3cc1bfad	0.023650968
141	0x3c3eae1e	0.011638192
142	0xbccc1c18	-0.02491574
143	0x3e24d412	0.16096523
144	0xbd5a0dd8	-0.05323586
145	0x3e1e5e85	0.15465744
146	0x3c1d83d1	0.009613947
147	0x3da50f73	0.08059587
148	0xbd9cd20d	-0.076572515
149	0x3d719c93	0.05898721
150	0x3dbf2639	0.09333462
151	0xbcc2e921	-0.023792805
152	0xbdaa285c	-0.08308479
153	0x3c8b5781	0.017009499
154	0x3d93c9da	0.072162345
155	0xbd976a19	-0.073932834
156	0x3d1792e3	0.037005316
157	0xbda8f1e2	-0.082492605
158	0xbd9148f4	-0.07093993
159	0x3d706e3b	0.058698874
160	0xbc062c79	-0.008189314
161	0xbdfdf662	-0.124005094
162	0x3d37e2f6	0.04489418
163	0x3ccd0237	0.02502547
164	0x3d6e6590	0.058202326
165	0x3cf2d120	0.029640734
166	0xbc887287	-0.016656173
167	0x3be2de99	0.0069235084
168	0xbc89d9f1	-0.016827555
169	0xbd637fff	-0.05554199
170	0x3d48b8d6	0.0490044
171	0xbbb30115	-0.0054627755
172	0x3d6f647b	0.058445435
173	0x3c7aa58a	0.015298257
174	0xbd642ce4	-0.055706874
175	0x3d9dfa04	0.07713702
176	0x3d59c6cb	0.0531681
177	0xbc9931c2	-0.018700484
178	0x3bc08870	0.0058756396
179	0x3c868d29	0.016424732
180	0x3d32026b	0.043459337
181	0x3a2222e6	0.000618501
182	0xbd8953ad	-0.06705413
183	0xbd1ffc3a	-0.0390589
184	0x3a3d3cf7	0.00072188623
185	0xbc054e83	-0.008136394
186	0xbce3a5fc	-0.027789108
187	0xbd0de32c	-0.034640476
188	0xbe333f5d	-0.1750464
189	0xbc8a8c13	-0.016912496
190	0xbdaf3fdb	-0.08557101
191	0xbdf2ecec	-0.118615955
192	0x3c3f1796	0.011663338
193	0xbd09260a	-0.033483543
194	0x3d01ee30	0.031721294
195	0x3dca85c5	0.09888796
196	0x3cabfa99	0.020993518
197	0x3d4181f2	0.047243066
198	0x3d53db21	0.05172265
199	0xbd0e6bf1	-0.03477091
200	0xbd388ac5	-0.045054216
201	0x3d09bb55	0.03362592
202	0x3ce1242e	0.027483072
203	0x3d0379db	0.032098632
204	0xbc909d49	-0.017653124
205	0x3d854258	0.06506795
206	0xbb9bb11f	-0.004751339
207	0xbd635d81	-0.055509094
208	0xbd476de9	-0.048688803
209	0xbd468da2	-0.048474915
210	0x3d1c7f2a	0.03820721
211	0xbd8db7a6	-0.06919794
212	0xbd91c309	-0.07117278
213	0x3da6ed66	0.08150749
214	0x3d12dc05	0.03585436
215	0x3dc2da5e	0.095143065
216	0xbd5fdad6	-0.054652058
217	0x3bb9574c	0.0056561586
218	0xbd9eae4a	-0.07748087
219	0xbd5043a8	-0.050845772
220	0xbdaf3ba8	-0.085563004
221	0x3d32bd08	0.043637305
222	0x3badca7e	0.00530368
223	0x3e48b26d	0.19599314
224	0x3b242ffc	0.0025053015
225	0xbc9cfaea	-0.019162614
226	0xbd1886f1	-0.037238065
227	0x3dc1ddfa	0.09466167
228	0x3c9ecac0	0.019383788
229	0xbcea4a5e	-0.028599914
230	0x3db1133c	0.08646247
231	0xbd13c421	-0.036075715
232	0x3d9d7146	0.07687621
233	0xbd222748	-0.039588243
234	0xbdddf893	-0.108384274
235	0xbda9a385	-0.08283142
236	0x3d3a81f3	0.045534085
237	0x3a84cefd	0.0010132488
238	0xbd5cb84c	-0.053886697
239	0xbda6fe96	-0.08154027
240	0xbb10db72	-0.0022103456
241	0x3daa5a9e	0.08318065
242	0xbd6512e6	-0.055926226
243	0x3d77972b	0.0604469
244	0x3c69a3e2	0.014260264
245	0x3d9706e0	0.07374358
246	0xbd6ce924	-0.057839528
247	0x3d283bc3	0.04107262
248	0xbd763dc1	-0.060117487
249	0x3dc390ff	0.0954914
250	0x3d253b5e	0.04033982
251	0x3c52e806	0.0128727015
252	0xbc98f76d	-0.01867267
253	0xbc6a68c0	-0.014307201
254	0xbcaf5ff4	-0.021408059
255	0x3ccc704e	0.024955895
