Assets/ML_PPO/results/simpleLoop_8/BoatAgent/BoatAgent-249962.onnx (onnx, 868044 bytes, 21 tensors)

discrete_action_output_shape f4 [1, 6]
2.0 2.0 2.0 2.0 2.0 2.0
00000000: 0000 0040 0000 0040 0000 0040 0000 0040
00000010: 0000 0040 0000 0040

network_body._body_endoder.seq_layers.0.weight f4 [256, 57]
-0.017572245 0.1023239 0.060078822 -0.1718302 0.19722313 0.084993005 0.18761177 0.15643482
0.15048201 -0.12678769 -0.0056878948 0.045355104 -0.013158728 0.0061596325 -0.049452815 0.11858858
0.06928713 -0.05102032 -0.030592697 -0.3236523 0.23954907 0.05470855 0.24406865 -0.09601157
-0.048100896 0.16582568 -0.05101877 0.10749471 -0.12309048 -0.047473602 0.20050947 -0.13568042
-0.15526113 0.27756837 0.012658604 0.17761919 0.07432456 0.1525355 0.10677365 -0.14218067
0.11276982 -0.09573933 0.12829715 -0.011293878 -0.23183441 -0.10185429 -0.034114983 0.21829703
-0.2934042 -0.11637268 -0.02835134 -0.117248066 0.021726288 -0.1204126 -0.13728282 0.0051237214
-0.06894472 -0.14758885 -0.15732928 0.16510999 0.27723145 -0.008423836 0.037484575 -0.15919167
0.04558001 0.3297377 -0.22419174 0.15406227 0.0326603 -0.110624835 -0.05569735 -0.051563863
-0.046665233 -0.2971281 -0.1274148 0.28285173 -0.08554445 0.18221644 -0.22261818 0.109903045
0.11009688 0.0906173 -0.18552664 0.011644919 -0.22500314 -0.10393651 0.06971283 0.2302448
-0.084564134 -0.022890655 0.0713855 -0.046106372 0.047823645 -0.2347265 0.069492206 -0.019262899
-0.19167231 -0.07162517 0.07272227 -0.036462106 0.06103801 0.07010537 0.100655355 -0.021764565
-0.16665104 0.12716384 -0.12707298 -0.09832739 0.11155515 0.047737658 0.0042038807 -0.032506727
0.12656385 0.016905108 0.020811142 0.13404122 -0.09732685 0.032014176 0.10661183 -0.08319494
0.14643416 0.053169146 -0.12898023 -0.17758805 0.10167662 -0.11707764 -0.17875496 -0.1560262
-0.19445246 -0.005096081 0.18644814 -0.054859065 -0.083193414 -0.21280435 0.10617024 0.021631548
-0.11412589 -0.2122944 -0.096876875 0.044855375 -0.11410072 -0.08600875 -0.14164826 -0.18184334
0.1546254 0.31868845 0.27070838 0.16671222 0.03624976 -0.12377575 0.23921263 -0.03417587
0.19988208 -0.0769921 -0.13704996 0.085782275 -0.019493148 -0.09799015 -0.011153447 0.28379586
0.01867227 0.011775438 -0.04553869 0.14140823 -0.11940272 -0.29580355 -0.14416818 0.17149591
-0.14125125 -0.1385896 -0.1471699 0.18396407 -0.19599482 -0.25688124 0.030626966 -0.067953795
-0.008771554 0.084499 -0.17689055 -0.32395864 0.120035455 -0.051429898 -0.096001364 0.009097402
-0.10257308 -0.19899602 0.027028268 -0.08157212 -0.19993493 -0.06344072 -0.05691622 0.096797116
0.15531069 -0.17812023 0.20139575 0.16123614 -0.009929045 0.2817232 -0.02286298 -0.004226883
-0.09111085 0.08755433 -0.18413249 0.02979443 0.087701015 -0.0908737 0.09968589 0.03572434
0.20134737 0.010399059 -0.24917682 -0.003472603 0.038724195 -0.23790802 -0.18929903 0.030652698
0.006688955 -0.029675396 0.059836987 -0.01701266 -0.101310946 -0.0129683465 0.18226005 0.22763807
0.19898437 0.042838305 -0.013052349 -0.034522023 -0.09482715 -0.11021728 0.043506093 0.0078078206
0.16145468 0.11082794 -0.14453457 0.045367748 0.027271954 -0.047753617 0.019154366 -0.1258378
0.06655542 -0.277115 0.030555418 0.008849337 -0.14575344 0.19527091 -0.05632992 0.19261844
0.14516026 0.2740779 0.10704222 -0.037144955 0.038217872 -0.013637778 -0.064983346 -0.23873158
00000000: abf3 8fbc 318f d13d 3615 763d 42f4 2fbe
00000010: dcf4 493e d010 ae3d 4d1d 403e 7330 203e
00000020: f517 1a3e a2d4 01be 8561 babb 46c6 393d
00000030: b597 57bc bed6 c93b 098f 4abd 92de f23d
00000040: 69e6 8d3d affa 50bd 899d fabc c1b5 a5be
00000050: 5a4c 753e 1316 603d 22ed 793e b7a1 c4bd
00000060: 7205 45bd 35ce 293e 0ff9 50bd 3026 dc3d
00000070: dd16 fcbd ae73 42bd 5b52 4d3e cfef 0abe
00000080: c6fc 1ebe 711d 8e3e 0966 4f3c cee1 353e
00000090: 7a37 983d 4432 1c3e 25ac da3d cf97 11be
000000a0: ddf3 e63d fb12 c4bd 5460 033e f509 39bc
000000b0: 0066 6dbe fb98 d0bd 27bc 0bbd 4289 5f3e
000000c0: 1339 96be cd54 eebd 1241 e8bc c11f f0bd
000000d0: 54fb b13c e29a f6bd de93 0cbe e4e4 a73b
000000e0: e432 8dbd 8821 17be ed1a 21be 9812 293e
000000f0: 48f1 8d3e 2104 0abc 6d89 193d 2403 23be
00000100: 1bb2 3a3d 61d3 a83e 8592 65be 80c2 1d3e
00000110: cfc6 053d 468f e2bd e822 64bd a134 53bd
00000120: 0b24 3fbd 2d21 98be 0679 02be f1d1 903e
00000130: ee31 afbd f296 3a3e 05f6 63be d914 e13d
00000140: 797a e13d 9095 b93d b2fa 3dbe 55ca 3e3c
00000150: 3967 66be aadc d4bd 9ac5 8e3d 4bc5 6b3e
00000160: f62f adbd 2f85 bbbc 9032 923d 09da 3cbd
00000170: bae2 433d 255c 70be ee51 8e3d 3acd 9dbc
00000180: bf45 44be 38b0 92bd 6aef 943d 4a59 15bd
00000190: fe02 7a3d 6793 8f3d 6524 ce3d 9a4b b2bc
000001a0: 92a6 2abe 3d37 023e 6b1f 02be df5f c9bd
000001b0: 0777 e43d 9088 433d b5c0 893b c625 05bd
000001c0: f499 013e 957c 8a3c 217c aa3c 1a42 093e
000001d0: 4d53 c7bd 4c21 033d 4e57 da3d 1c62 aabd
000001e0: d6f2 153e e4c7 593d 6513 04be a4d9 35be
000001f0: d53b d03d 67c6 efbd 8a0b 37be 55c5 1fbe
00000200: 8c1e 47be 07fd a6bb 43ec 3e3e e6b3 60bd
00000210: 4f61 aabd 62e9 59be c86f d93d a534 b13c
00000220: d6ba e9bd b463 59be 6267 c6bd 45ba 373d
00000230: a3ad e9bd 5b25 b0bd 3e0c 11be 2435 3abe
00000240: 1f56 1e3e 222b a33e 4a9a 8a3e 9cb6 2a3e
00000250: a17a 143d 247e fdbd 28f4 743e fffb 0bbd
00000260: e3ad 4c3e 09ae 9dbd d356 0cbe 9eae af3d
00000270: 18b0 9fbc 0faf c8bd f3bc 36bc b14d 913e
00000280: 97f6 983c c4ed 403c c786 3abd 52cd 103e
00000290: 6a89 f4bd 9073 97be d3a0 13be a09c 2f3e
000002a0: 2ba4 10be 6fea 0dbe b5b3 16be 1461 3c3e
000002b0: deb2 48be f085 83be 67e5 fa3c 5c2b 8bbd
000002c0: 90b6 0fbc d00d ad3d cc22 35be e8dd a5be
000002d0: 26d5 f53d 28a8 52bd 5d9c c4bd 450d 153c
000002e0: d611 d2bd 9dc5 4bbe 636a dd3c 490f a7bd
000002f0: bebb 4cbe 35ed 81bd fb20 69bd 913d c63d
00000300: c409 1f3e 2665 36be b03a 4e3e 161b 253e
00000310: 6fad 22bc 063e 903e 254b bbbc aa81 8abb
00000320: 5398 babd af4f b33d 3a8d 3cbe 7313 f43c
00000330: 979c b33d fe1b babd 1e28 cc3d af53 123d
00000340: 012e 4e3e d160 2a3c 3528 7fbe 9c94 63bb
00000350: 439d 1e3d 299e 73be 9bd7 41be 5e1b fb3c
00000360: 052f db3b d119 f3bc a117 753d 225e 8bbc
00000370: 1d7c cfbd 3079 54bc 61a2 3a3e f419 693e
00000380: 8fc2 4b3e 3877 2f3d 85d9 55bc f766 0dbd
00000390: bd34 c2bd 99b9 e1bd 7233 323d bfd8 ff3b
000003a0: 6054 253e c2f9 e23d df00 14be 88d3 393d
000003b0: 6f69 df3c 4c99 43bd 9ee9 9c3c a0db 00be
000003c0: 354e 883d 04e2 8dbe 5b4f fa3c cffc 103c
000003d0: 6440 15be 19f5 473e 34ba 66bd c53d 453e
000003e0: e4a4 143e f053 8c3e f438 db3d 4f25 18bd
000003f0: 588a 1c3d fd70 5fbc fd15 85bd 0d76 74be

network_body._body_endoder.seq_layers.0.bias f4 [256]
-0.00020893113 -0.012066962 -0.0301817 -0.006024981 -0.066216685 -0.020635538 0.023180634 0.019210316
-0.040201508 -0.0046454673 -0.00210581 -0.007015454 -0.045513973 0.0081803715 -0.018891048 -0.064921014
-0.041026052 0.00018282988 -0.05158405 0.008539208 -0.027075768 -0.03480326 -0.018144328 -0.006409364
-0.024731964 -0.02853819 -0.019792225 0.018889904 -0.02013898 -0.010049751 -0.073323496 -0.05757403
-0.009141854 0.032679796 0.019118344 0.009811281 0.0015299252 -0.061277047 -0.029254543 -0.01243674
-0.004240574 -0.018762967 -0.045753658 -0.0053994493 -0.016183553 -0.019917225 -0.02286331 -0.007435412
-0.013749732 -0.056847196 -0.022127166 -0.048062548 -0.011236564 -0.024102269 -0.010981325 -0.053738363
-0.009720367 -0.030740399 -0.0070064384 -0.056542642 -0.036932837 -0.0020958392 -0.05647501 -0.015335584
-0.021409988 -0.0081614945 -0.018454703 -0.026046496 -0.0174626 -0.009261855 0.001741205 -0.06004471
0.0028081154 -0.025227234 -0.0232282 -0.04826068 -0.0044398904 -0.02980733 0.0014235631 -0.05249095
-0.05284697 0.0024452053 -0.03073383 -0.012817949 -0.07368309 0.020695748 -0.053414017 -0.031832796
-0.012000251 -0.026426584 -0.010707882 -0.034341764 -0.037529804 -0.042924903 -0.042057607 -0.015921991
-0.040914454 -0.0011809381 -0.039394576 0.0045679426 0.0058748215 -0.0451037 -0.020203855 -0.027762048
-0.017010555 -0.03099406 -0.06904642 -0.019722484 -0.020128991 -0.012776663 -0.04584723 0.026461456
-0.015950304 -0.026845904 0.004549054 -0.0065011187 -0.0075792875 -0.02696152 -0.056113355 -0.027442098
-0.016926005 -0.038859677 0.011354471 -0.038959023 0.01239989 -0.046285167 -0.017342286 -0.009312
-0.029284166 -0.027806476 -0.026064133 0.0042004716 -0.01693648 0.018225003 -0.01560556 -0.017811177
-0.007449707 -0.0003742078 -0.022465488 -0.03234915 -0.020072285 0.012068799 0.011175772 -0.046884783
-0.0043218206 0.020561576 0.007839668 1.5436748e-05 -0.012527879 -0.053586427 0.013795425 -0.047959473
-0.050748207 -0.028027806 -0.032194156 -0.012372798 -0.035546158 -0.06365007 -0.005324639 -0.027572222
0.0309021 0.010106556 -0.027142283 -0.023081997 -0.0026849366 0.0036276148 -0.0023200552 -0.008306712
0.0042075836 0.006873289 -0.050819915 -0.053741824 0.033211827 -0.0495607 -0.0042254142 -0.03340051
0.004081788 0.029238356 -0.002152371 -0.008687076 -0.038151424 -0.003507637 -0.024035567 -0.037088245
-0.01547826 -0.027239792 -0.030249456 -0.055668816 -0.015258804 -0.048694864 0.002727713 0.0070454874
0.00466593 -0.0005984055 0.007625831 -0.058096886 0.029413236 -0.032549035 -0.0028549875 0.027671471
-0.026449181 0.00025642084 -0.056941193 -0.019401243 -0.0019474102 0.010877251 -0.045375388 -0.049433697
0.009298412 -0.037396375 -0.035713542 -0.0031437904 -0.0486065 -0.017939702 -0.06366424 -0.026886681
-0.005664288 -0.03296269 -0.03811079 -0.031316128 -0.03181661 0.0016670175 0.0274444 -0.009686115
0.013790309 -0.0050009005 -0.0012362266 -0.02066533 -0.020992348 -0.025065312 -0.03143961 -0.017827047
-0.0038710795 -0.02330109 -0.015510368 0.021964755 -0.02203836 0.031094795 -0.010688395 0.031759247
-0.011066583 -0.030337755 -0.023807028 -0.018097127 -0.037944064 0.009864743 -0.037013534 -0.004055179
-0.012132609 -0.023338191 -0.048208818 -0.02649334 0.0025757405 -0.06053103 -0.038755335 -0.01688718
00000000: 8614 5bb9 82b4 45bc 9d3f f7bc 346d c5bb
00000010: 9d9c 87bd dc0b a9bc 50e5 bd3c f45e 9d3c
00000020: 56aa 24bd 0139 98bb a101 0abb e5e1 e5bb
00000030: dc6c 3abd f706 063c 66c1 9abc 4ff5 84bd
00000040: ef0a 28bd 06b6 3f39 cc49 53bd 09e8 0b3c
00000050: 00ce ddbc dd8d 0ebd 6aa3 94bc a405 d2bb
00000060: b09a cabc ecc8 e9bc 4e23 a2bc 00bf 9a3c
00000070: 81fa a4bc b6a7 24bc a12a 96bd bfd2 6bbd
00000080: b7c7 15bc 40db 053d 139e 9c3c 7fbf 203c
00000090: c587 c83a a4fd 7abd 39a7 efbc 78c3 4bbc
000000a0: 83f4 8abb cbb4 99bc 3068 3bbd dded b0bb
000000b0: 5f93 84bc 7329 a3bc d64b bbbc c2a4 f3bb
000000c0: 8e46 61bc 9bd8 68bd 0844 b5bc 3cdd 44bd
000000d0: 9119 38bc 1f72 c5bc 04eb 33bc c21c 5cbd
000000e0: 2d42 1fbc 4ad3 fbbc 4496 e5bb 4299 67bd
000000f0: e346 17bd 595a 09bb 5752 67bd 1a42 7bbc
00000100: 0064 afbc cab7 05bc 512e 97bc 765f d5bc
00000110: ba0d 8fbc 09bf 17bc 2539 e43a 71f1 75bd
00000120: 5c08 383b 58a9 cebc 1149 bebc feac 45bd
00000130: 807c 91bb 802e f4bc da96 ba3a c000 57bd
00000140: 1076 58bd bd3f 203b 83c5 fbbc 6002 52bc
00000150: 29e7 96bd 218a a93c a8c8 5abd 1b63 02bd
00000160: b39c 44bc 907c d8bc 1d70 2fbc f3a9 0cbd
00000170: dab8 19bd 06d2 2fbd 9944 2cbd d66e 82bc
00000180: ea95 27bd b5c9 9aba 355c 21bd aeae 953b
00000190: 9381 c03b a8be 38bd 8e82 a5bc 3c6d e3bc
000001a0: b859 8bbc 41e7 fdbc 3668 8dbd 0c91 a1bc
000001b0: 8ee5 a4bc 3555 51bc 4eca 3bbd b2c5 d83c
000001c0: 36aa 82bc f1eb dbbc 3b10 953b 5607 d5bb
000001d0: ac5b f8bb 68de dcbc 1ed7 65bd 40ce e0bc
000001e0: 68a8 8abc 532b 1fbd 1a08 3a3c 7f93 1fbd
000001f0: e928 4b3c 8495 3dbd 6911 8ebc 5c91 18bc
00000200: 59e5 efbc 68ca e3bc 7384 d5bc 1ca4 893b
00000210: 5fbe 8abc 9a4c 953c 76ae 7fbc bfe8 91bc
00000220: ac1c f4bb 5231 c4b9 8b09 b8bc 8b80 04bd
00000230: a26e a4bc 36bc 453c 961a 373c 420a 40bd
00000240: 0f9e 8dbb c070 a83c f371 003c 2a7e 8137
00000250: bc41 4dbc 717d 5bbd 3506 623c 2771 44bd
00000260: 5add 4fbd 929a e5bc 05de 03bd 47b7 4abc
00000270: d998 11bd f85a 82bd 4f7a aebb 24df e1bc
00000280: 6726 fd3c f895 253c 7e59 debc 7516 bdbc
00000290: c3f5 2fbb 47bd 6d3b 110c 18bb e018 08bc
000002a0: c5df 893b 5439 e13b 8b28 50bd 6320 5cbd
000002b0: 2009 083d 2900 4bbd 5875 8abb f9ce 08bd
000002c0: 85c0 853b 4785 ef3c cb0e 0dbb 3d54 0ebc
000002d0: ab44 1cbd 62e0 65bb 3de6 c4bc d8e9 17bd
000002e0: 8798 7dbc fc25 dfbc b5cd f7bc fc04 64bd
000002f0: 1000 7abc 4474 47bd 6ec3 323b d5dd e63b
00000300: a8e4 983b 50de 1cba 1be2 f93b 00f7 6dbd
00000310: 07f4 f03c 2352 05bd be1a 3bbb 48af e23c
00000320: f4ab d8bc 3970 8639 2b3b 69bd 5bef 9ebc
00000330: 3e40 ffba 7f36 323c 8bdb 39bd fd7a 4abd
00000340: 5e58 183c f12c 19bd 5d48 12bd 0d08 4ebb
00000350: 9c17 47bd 48f6 92bc 6662 82bd 7541 dcbc
00000360: 7e9b b9bb e303 07bd 0f1a 1cbd 5745 00bd
00000370: 2252 02bd d37f da3a 14d3 e03c 83b2 1ebc
00000380: c0f0 613c 98de a3bb e208 a2ba 574a a9bc
00000390: 25f8 abbc c555 cdbc d2c6 00bd 070a 92bc
000003a0: f0b1 7dbb ede1 bebc 331f 7ebc 6eef b33c
000003b0: ca89 b4bc 83ba fe3c 611e 2fbc fc15 023d
000003c0: 9d50 35bc e286 f8bc f506 c3bc 6d40 94bc
000003d0: 3c6b 1bbd bb9f 213c 819b 17bd 4fe1 84bb
000003e0: dac7 46bc bc2f bfbc 9c76 45bd 9008 d9bc
000003f0: c1cd 283b 63ef 77bd eabd 1ebd fc56 8abc

network_body._body_endoder.seq_layers.2.weight f4 [256, 256]
0.14735356 -0.044201076 0.020048374 -0.02600443 0.040189452 0.08704626 -0.04397875 -0.06879554
-0.1150489 0.030550124 -0.0882267 0.090218 0.110932186 -0.014224558 -0.026679877 -0.060123228
0.05761645 0.13281897 -0.016459614 0.08381377 -0.077564016 -0.042184833 0.045573894 0.031705
-0.009705157 -0.06874389 0.0774476 -0.0461369 -0.043742836 0.0029467067 0.073101714 -0.0055310237
0.040284008 0.028545616 0.120859295 -0.095704645 -0.077542976 0.0053349715 0.014938707 0.023287352
-0.037587162 0.13017567 0.0019068292 -0.020576576 -0.053018797 -0.034451533 -0.06387782 -0.035313506
0.0010238391 0.078476496 -0.053406432 -0.020046595 -0.024679106 0.09156458 -0.04611378 -0.17758964
-0.09405676 -0.05274207 -0.0010626843 -0.11190274 0.07307878 -0.053814847 0.015366414 0.102668054
-0.11149992 0.008633486 0.08158641 -0.015106825 -0.09480961 -0.194683 -0.062451046 -0.094763644
0.07802732 -0.045525447 -0.087288186 -0.09568288 0.0031812734 -0.017239684 0.029160388 0.09212278
0.022503482 -0.0038496025 0.034779686 0.037177827 -0.0065291203 -0.051665958 -0.048663512 0.028190017
0.09540053 -0.20869571 0.022119958 -0.041676503 0.0353191 0.030439539 -0.005352999 0.011056947
0.000910969 0.054973885 -0.007726555 0.019557541 -0.06499917 -0.033638917 -0.011294684 -0.10346527
0.06291975 0.0016276095 0.0915412 0.013312908 -0.075571656 0.011908451 0.09931885 0.08138393
-0.06267261 0.056427557 0.094431296 0.07491932 -0.029370645 -0.11364139 0.042868163 0.13939007
-0.050304957 0.07020652 0.026362337 -0.07446808 -0.12533583 0.06906222 -0.02357845 -0.041318126
0.008842363 0.03975135 -0.052865803 0.03527795 -0.06739821 -0.112191506 0.021714743 -0.015256854
-0.021992108 -0.032578632 0.034738738 -0.107868165 0.021481529 -0.0020293884 0.058100596 -0.055933975
-0.095953174 0.00458354 0.1526853 -0.040039387 -0.042287234 0.009884936 -0.051893022 -0.044769365
0.05943326 -0.109660156 -0.14664686 -0.05127112 0.005792757 -0.09399383 -0.0003303159 0.009767315
-0.04671216 0.07963401 -0.14318225 0.08672431 -0.19645071 -0.093500145 0.07908633 0.047975454
-0.11720146 -0.13382348 0.063902184 -0.02715286 -0.08055586 0.077441156 -0.08285635 -0.010137148
0.10341221 -0.071192496 -0.07134042 0.030056367 -0.07469678 0.020385684 -0.06270506 -0.075103715
0.112278275 -0.0014859702 -0.024567315 -0.0852738 0.00041453692 0.035404485 0.01456744 -0.024628611
-0.03673209 -0.0151981935 -0.06713296 -0.045925442 0.23171279 -0.034121104 -0.014815763 -0.0022060391
-0.03674544 0.026453998 0.08837472 0.007423388 0.017542496 -0.123333216 -0.021668352 0.08113962
-0.07681978 0.06984862 0.13028419 0.07834223 -0.006286056 0.011418139 0.029262457 0.012521329
-0.0037677765 0.0644771 -0.1756714 0.06366195 0.059450183 0.058425378 0.01962596 -0.034913912
-0.070923164 0.07205696 -0.033965964 0.022694247 -0.008669226 0.018388873 -0.009288825 0.09766447
-0.068548955 -0.0005839066 -0.020008707 0.059097253 0.0143478615 -0.16586244 -0.04002444 0.10838329
0.06558351 -0.073562294 -0.039097942 -0.0701032 0.062590785 -0.03814914 -0.04495435 0.046409007
-0.008636823 -0.077389285 0.067892805 0.1210634 0.014298067 -0.08881744 0.013868638 -0.02478575
00000000: dae3 163e 300c 35bd 7d3c a43c 3e07 d5bc
00000010: b29d 243d 4f45 b23d 1023 34bd ade4 8cbd
00000020: c29e ebbd 4144 fa3c 33b0 b4bd 37c4 b83d
00000030: 6a30 e33d 1f0e 69bc c28f dabc c643 76bd
00000040: 3aff 6b3d b201 083e 50d6 86bc 8ea6 ab3d
00000050: e2d9 9ebd 01ca 2cbd b1ab 3a3d 1add 013d
00000060: 6102 1fbc 99c9 8cbd d99c 9e3d 0cfa 3cbd
00000070: b02b 33bd 891d 413b 5ab6 953d 973d b5bb
00000080: d800 253d 7fd8 e93c 1485 f73d cc00 c4bd
00000090: dace 9ebd fcd0 ae3b 7bc1 743c 1ec5 be3c
000000a0: fff4 19bd c54c 053e 92ee f93a 3590 a8bc
000000b0: 3d2a 59bd 0d1d 0dbd 60d2 82bd e5a4 10bd
000000c0: 5732 863a 49b8 a03d b4c0 5abd c238 a4bc
000000d0: d62b cabc 3686 bb3d cee1 3cbd 0fda 35be
000000e0: d5a0 c0bd 1208 58bd c549 8bba 442d e5bd
000000f0: 54aa 953d f56c 5cbd 69c3 7b3c a143 d23d
00000100: 125a e4bd 7773 0d3c c716 a73d 9e82 77bc
00000110: 8a2b c2bd fb5a 47be abcc 7fbd 7113 c2bd
00000120: cacc 9f3d e478 3abd 26c4 b2bd 63f5 c3bd
00000130: e97c 503b 3d3a 8dbc c4e1 ee3c deaa bc3d
00000140: 3959 b83c 9d49 7cbb 2575 0e3d c747 183d
00000150: 3bf2 d5bb af9f 53bd 6453 47bd c0ee e63c
00000160: 5a61 c33d 54b4 55be ea34 b53c fbb4 2abd
00000170: c3aa 103d 575c f93c 3668 afbb 3228 353c
00000180: 18ce 6e3a 4c2c 613d 0b2f fdbb 2337 a03c
00000190: 491e 85bd f6c8 09bd 570d 39bc 99e5 d3bd
000001a0: 12dc 803d 8355 d53a f479 bb3d 621e 5a3c
000001b0: 50c5 9abd aa1b 433c ae67 cb3d 9eac a63d
000001c0: 7f5a 80bd 9520 673d 3265 c13d 4d6f 993d
000001d0: b59a f0bc d1bc e8bd 8796 2f3d 45bc 0e3e
000001e0: 920c 4ebd 70c8 8f3d d4f5 d73c b982 98bd
000001f0: 0958 00be 7e70 8d3d 9827 c1bc 323d 29bd
00000200: 8fdf 103c 50d2 223d d089 58bd 9d7f 103d
00000210: 1308 8abd a9c4 e5bd 1ee3 b13c e2f7 79bc
00000220: cb28 b4bc 2c71 05bd 354a 0e3d fce9 dcbd
00000230: 08fa af3c 7dff 04bb e4fa 6d3d 061b 65bd
00000240: 1983 c4bd 8531 963b 8959 1c3e 5700 24bd
00000250: 6135 2dbd 6df4 213c c78d 54bd 1560 37bd
00000260: 4a70 733d 8195 e0bd 982a 16be aa01 52bd
00000270: 2bd1 bd3b d67f c0bd 402e adb9 1707 203c
00000280: 4055 3fbd 2817 a33d 5e9e 12be 849c b13d
00000290: 602a 49be 017d bfbd 04f8 a13d e981 443d
000002a0: 5207 f0bd 0609 09be 26df 823d ad6f debc
000002b0: 79fa a4bd 7899 9e3d 97b0 a9bd 4816 26bc
000002c0: c8c9 d33d 5fcd 91bd ed1a 92bd c538 f63c
000002d0: a0fa 98bd e1ff a63c 836b 80bd facf 99bd
000002e0: 27f2 e53d e3c4 c2ba 6541 c9bc 08a4 aebd
000002f0: 3456 d939 4b04 113d 46ac 6e3c f1c1 c9bc
00000300: 6374 16bd d801 79bc 017d 89bd 511c 3cbd
00000310: 1e46 6d3e 92c2 0bbd d0bd 72bc 3293 10bb
00000320: 6382 16bd 0eb6 d83c cefd b43d e43f f33b
00000330: 48b5 8f3c 2096 fcbd d481 b1bc 872c a63d
00000340: b053 9dbd cb0c 8f3d 3869 053e e471 a03d
00000350: 42fb cdbb 2513 3b3c d2b7 ef3c 4326 4d3c
00000360: cdec 76bb 920c 843d 34e3 33be 3261 823d
00000370: 0982 733d 734f 6f3d 9fc6 a03c e401 0fbd
00000380: 2a40 91bd 9992 933d e51f 0bbd 49e9 b93c
00000390: 5f09 0ebc 43a4 963c 2830 18bc 4f04 c83d
000003a0: 6563 8cbd 4f11 19ba 4de9 a3bc f60f 723d
000003b0: 4b13 6b3c d8d7 29be abf0 23bd 0ff8 dd3d
000003c0: a650 863d d4a7 96bd 2a25 20bd 4492 8fbd
000003d0: 992f 803d 4642 1cbd 0d22 38bd 5f17 3e3d
000003e0: 7681 0dbc 467e 9ebd 620b 8b3d 16f0 f73d
000003f0: 7142 6a3c ebe5 b5bd 4939 633c 7c0b cbbc

network_body._body_endoder.seq_layers.2.bias f4 [256]
-0.012892925 -0.03553335 -0.00025038695 -0.023465134 -0.019077245 0.0021906272 0.0042573037 0.0045240712
-0.00756258 -0.010880715 -4.9239858e-05 0.013089469 -0.008054244 -0.028409867 -0.026473533 -0.023726918
-0.008152482 0.0026036357 -0.0063839178 -0.020042762 -0.01045445 0.004479658 -0.036106598 0.0018063094
-0.035817407 -0.004951991 -0.00030603836 -0.045746405 -0.017934877 -0.012859531 0.010389364 0.0033632743
-0.057151705 -0.021452269 0.0016571064 -0.021944022 -0.00096501905 0.023797601 -0.0052864663 -0.042365815
-0.030950349 -0.03203652 -0.030723395 0.007898996 -0.0041054087 0.010380436 -0.048686918 -0.035405476
-0.008302099 -0.0454668 -0.05168917 -0.004807924 -0.0010892075 0.011203547 -0.043300867 -0.032080386
-0.019456936 -0.015713843 -0.0065156533 -0.004557217 -0.013103125 -0.0059679006 -0.019848626 -0.056642063
0.0063091824 -0.005556197 -0.04291639 -0.03227726 -0.022854172 -0.014946538 0.020494858 -0.006970341
-0.013175636 -0.0078022582 -0.030454779 0.012912151 0.007791841 -0.0048892396 -0.0047144825 -0.0031414353
-0.005111377 -0.027070519 -0.0051830104 -0.025035305 0.003516331 -0.0199922 -0.019139277 0.007492301
0.028065719 -0.0053192107 -0.019251313 -0.017610086 -0.022933459 -0.0018410356 -0.01858323 -0.034730915
-0.045580387 0.0006290139 -0.019018957 -0.00011093107 -0.02988721 0.008670336 -0.019897794 -0.039440334
0.023436602 -0.009705552 -0.011193538 -0.02284004 0.030880345 -0.022608105 0.0036653804 -0.014173954
-0.014098948 -0.017385393 -0.015494436 -0.031680148 -0.0010667687 -0.006202208 0.0035258988 -0.018624416
0.003528551 0.008791671 0.025111226 -0.015661051 -0.0043550716 -0.02004181 0.01516031 0.004573549
-0.040021498 -0.021173976 0.012465163 0.01206663 0.009571077 -0.05159028 -0.009468535 0.0009119098
-0.0397022 -0.012657397 -0.05005576 0.021647142 -0.005291381 -0.049952958 0.024701383 0.0013559572
-0.00047502186 -0.037358515 0.002528802 -0.007564376 -0.026936535 -0.024370302 -0.046578042 -0.004374586
-0.009736013 -0.00449591 -0.03387229 -0.0138598615 0.007765702 -0.012197901 -0.0036688345 0.0023187522
-0.028529173 -0.01833391 -0.0024085217 -0.00491016 -2.747963e-05 -0.01510386 -0.007918146 0.009243938
-0.015030256 0.0030297965 -0.032779817 -0.01959101 -0.0056651123 -0.01213005 -0.021790892 0.033415645
-0.024759762 -0.016963698 -0.037391376 -0.006686357 0.016957529 -0.024374347 -0.002940135 -0.026465422
-0.006521724 -0.025608955 0.0028789823 0.009949182 -0.00079595 -0.017011605 -0.03614416 -0.039591298
-0.01838295 -0.015090953 0.04437626 -0.017922241 0.0061095264 -0.012920517 0.007671544 0.0041293143
-0.02673669 -0.006396862 -0.0122864265 -0.025746157 -0.004690886 -0.022185622 -0.009383557 -0.03238764
0.013510828 -0.038646422 -0.0124146445 0.014553845 -0.014049131 0.019726178 0.022928204 -0.009273054
-0.0044915816 -0.0176647 -0.05105554 -0.025925346 -0.020764578 -0.033937566 -0.03534856 0.026290819
-0.007294246 -0.030419664 -0.030699652 -0.025204374 0.0035302658 0.008628137 -0.005207047 0.01269506
-0.044198845 -0.014656168 0.012814972 -0.016480263 -0.003734574 -0.012721127 -0.006460106 0.016208256
0.013175239 -0.004628618 -0.050319374 -0.015823193 -0.0117289275 -0.012132897 -0.007480064 -0.044586707
-0.010012267 0.026710719 -0.0002759111 -0.02299964 -0.030596327 -0.03938713 -0.037877157 -0.009624593
00000000: d93c 53bc 6b8b 11bd 5e46 83b9 f439 c0bc
00000010: e247 9cbc a090 0f3b da80 8b3b a93e 943b
00000020: 85cf f7bb 0745 32bc e586 4eb8 3675 563c
00000030: f3f5 03bc cfbb e8bc 06df d8bc f45e c2bc
00000040: fd91 05bc c2a1 2a3b 2f30 d1bb b830 a4bc
00000050: 2449 2bbc 18ca 923b 83e4 13bd b0c1 ec3a
00000060: 46b5 12bd 5044 a2bb c673 a0b9 9560 3bbd
00000070: 2aec 92bc c8b0 52bc 2738 2a3c 616a 5c3b
00000080: e817 6abd abbc afbc 4433 d93a f3c3 b3bc
00000090: 55f9 7cba 30f3 c23c 183a adbb c787 2dbd
000000a0: 968b fdbc ba38 03bd a1af fbbc ca6a 013c
000000b0: aa86 86bb b412 2a3c ef6b 47bd 5505 11bd
000000c0: 8705 08bc 653b 3abd 06b8 53bd ca8b 9dbb
000000d0: bdc3 8eba 158f 373c 405c 31bd b966 03bd
000000e0: 2764 9fbc 51ba 80bc 4381 d5bb b554 95bb
000000f0: 7dae 56bc 618e c3bb 9699 a2bc 8201 68bd
00000100: 42bd ce3b c210 b6bb 19c9 2fbd 2935 04bd
00000110: ac38 bbbc 53e2 74bc d5e4 a73c 7567 e4bb
00000120: 9fde 57bc 16aa ffbb 4d7c f9bc 7d8d 533c
00000130: b352 ff3b ea35 a0bb f27b 9abb 8ae0 4dbb
00000140: 577d a7bb fec2 ddbc 3ed6 a9bb d716 cdbc
00000150: 3f72 663b afc6 a3bc f9c9 9cbc fa81 f53b
00000160: 14ea e53c c64c aebb eeb4 9dbc 0743 90bc
00000170: f3de bbbc e74e f1ba dc3b 98bc 0142 0ebd
00000180: 80b2 3abd 69e4 243a a5cd 9bbc aaa3 e8b8
00000190: 06d6 f4bc 060e 0e3c b300 a3bc 308c 21bd
000001a0: 1efe bf3c 0904 1fbc 1a65 37bc 091b bbbc
000001b0: c7f8 fc3c a234 b9bc e136 703b df39 68bc
000001c0: 46ff 66bc d06b 8ebc 60dc 7dbc 0bc3 01bd
000001d0: d1d2 8bba e43b cbbb c412 673b 3b92 98bc
000001e0: 433f 673b f10a 103c 0fb6 cd3c 9b4b 80bc
000001f0: fdb4 8ebb b92e a4bc f362 783c b6dd 953b
00000200: 95ed 23bd 0c75 adbc af3a 4c3c 1db3 453c
00000210: 02d0 1c3c 5450 53bd ea21 1bbc 3b0d 6f3a
00000220: c69e 22bd f960 4fbc 4507 4dbd 5955 b13c
00000230: 5263 adbb 799b 4cbd 8e5a ca3c 60ba b13a
00000240: 5b0c f9b9 3e05 19bd 42ba 253b 96de f7bb
00000250: 02aa dcbc 3aa4 c7bc 9ec8 3ebd b058 8fbb
00000260: cc83 1fbc 6d52 93bb acbd 0abd 7914 63bc
00000270: 6e77 fe3b b4d9 47bc d470 70bb 35f6 173b
00000280: 03b6 e9bc ff30 96bc 4ad8 1dbb 68e5 a0bb
00000290: 0e84 e6b7 2e76 77bc 1dbb 01bc e373 173c
000002a0: 7641 76bc 8d8f 463b 2144 06bd 537d a0bc
000002b0: 68a2 b9bb 1ebd 46bc d082 b2bc d8de 083d
000002c0: fcd4 cabc 74f7 8abc b327 19bd 3a19 dbbb
000002d0: 84ea 8a3c b6ac c7bc 48af 40bb 03ce d8bc
000002e0: 30b4 d5bb dfc9 d1bc 4fad 3c3b e501 233c
000002f0: 4da7 50ba ec5b 8bbc e60b 14bd 7c2a 22bd
00000300: d797 96bc 0b40 77bc e2c3 353d aad1 92bc
00000310: 6c32 c83b 93b0 53bc 9361 fb3b 334f 873b
00000320: e706 dbbc c59c d1bb 024d 49bc 9be9 d2bc
00000330: 01b6 99bb 9fbe b5bc 7ebd 19bc e7a8 04bd
00000340: 855c 5d3c b64b 1ebd cb66 4bbc 4073 6e3c
00000350: 542e 66bc cb98 a13c eed3 bb3c 02ee 17bc
00000360: 1e2e 93bb 90b5 90bc 9d1f 51bd 6461 d4bc
00000370: 7a1a aabc 1e02 0bbd a7c9 10bd d85f d73c
00000380: 9204 efbb a932 f9bc d67d fbbc 6779 cebc
00000390: 085c 673b 085d 0d3c e09f aabb f1fe 4f3c
000003a0: d909 35bd 6d20 70bc e3f5 513c 9e01 87bc
000003b0: c1bf 74bb 466c 50bc 4caf d3bb 2dc7 843c
000003c0: f5dc 573c a9ab 97bb b01b 4ebd a49f 81bc
000003d0: b02a 40bc 0fc9 46bc 531b f5bb 8da0 36bd
000003e0: 7e0a 24bc 70d0 da3c 29a8 90b9 be69 bcbc
000003f0: 26a5 fabc 6654 21bd 1425 1bbd 78b0 1dbc

network_body._body_endoder.seq_layers.4.weight f4 [256, 256]
0.037065487 -0.07094697 0.028527485 -0.11684371 0.06766023 0.004907092 -0.19310845 0.037454158
-0.036647167 -0.058896445 -0.0034516882 -0.01530725 0.023804244 -0.039895974 0.04305085 -0.08876556
0.06552241 0.017761718 0.1360535 0.096085586 0.08114599 0.092426725 -0.020469522 0.091630496
0.11744456 -0.043864798 -0.044315364 -0.07579101 0.00044137373 -0.0394792 0.0061849644 -0.04868736
-0.0526956 0.002850684 -0.09731466 0.09984384 -0.04501997 -0.056850065 -0.08778649 -0.0678094
-0.05179531 0.085912175 0.031047437 0.04925763 -0.12056006 -0.074829556 -0.033207998 0.005947881
0.03902273 -0.022997925 0.05865627 0.08014106 -0.041477732 0.084983006 -0.025410641 0.032019503
-0.0780018 0.006897108 -0.08001093 0.076033644 0.105922736 -0.037362866 0.018493608 -0.0322069
0.13107577 -0.074850775 0.04938102 -0.050616376 0.012205789 0.00012130431 0.19393907 0.01831959
-0.009623967 -0.051687613 0.05867898 -0.04677441 -0.0734674 -0.036842085 0.021064457 0.022667902
0.02027123 0.03920325 0.04966881 -0.06912594 0.11822958 0.052113067 -0.14815983 0.05490697
0.12831604 -0.10723078 0.10678281 0.022262141 -0.0367463 0.028222583 0.023905741 -0.057073615
-0.058211327 0.014135997 -0.029205168 -0.016674927 0.026808139 -0.021117099 0.008093531 0.12204963
-0.06379181 0.07357877 0.057581972 0.033080366 0.05040536 -0.009339516 -0.015428751 -0.13081497
0.060406018 -0.08394808 -0.061518725 -0.027429305 -0.12456172 0.003161728 0.12607704 0.06678912
-0.026744636 0.100610815 0.086818315 0.025970813 -0.011682285 -0.01230341 -0.05287466 0.058116052
-0.05304583 0.016392568 0.066622674 -0.011477167 0.10397478 0.016537149 -0.02315228 -0.06034734
-0.022709731 -0.027084278 0.025200801 -0.035722155 -0.0072552306 0.028929928 0.0015109368 0.06818487
-0.035113268 -0.06072212 -0.0029534101 -0.068506 0.02979895 -0.07015152 -0.07260728 -0.09773747
-0.011872471 -0.02005785 -0.006696555 -0.0029046354 0.023557749 0.0096340645 -0.04441701 0.040368438
-0.12319776 -0.11625178 0.027375918 -0.103553824 -0.006407415 -0.13734338 0.0024711855 -0.0023219942
-0.014320474 -0.0134150125 0.014389334 -0.012452438 -0.07620213 -0.0075275027 0.08668342 0.0879901
-0.09561392 0.0875216 -0.042311374 0.028346721 0.08840317 -0.07604741 -0.07411077 0.0051813363
-0.006558949 -0.036459323 0.03581122 0.027586067 0.09615463 0.033661935 -0.0068943063 -0.079542704
-0.08177186 0.040538225 0.14386067 -0.02142667 0.033536237 0.112961054 0.015499005 0.050687984
0.018651886 -0.080462724 0.039820187 0.06736159 0.0077814995 -0.073483236 0.06766607 0.029841663
0.06552375 0.13363943 -0.08821828 -0.022153217 -0.007573454 0.10055769 0.051399186 0.06663663
0.059365142 -0.028002946 0.031215629 -0.06823144 0.0037037935 0.07386627 0.055423383 0.036083225
-0.17885144 -0.020128682 -0.010588776 -0.06319322 0.03820274 -0.0067910305 -0.12337201 0.013072687
0.031017933 0.035171293 0.059222445 -0.0023589532 -0.12260807 -0.010481736 0.04375396 -0.01589098
0.06122948 -0.06064093 0.09349301 -0.015232767 -0.011806959 -0.10436661 -0.10931017 0.106081516
1.8404244e-05 -0.01528819 0.01172886 0.10484302 -0.10957039 -0.019015338 0.0056454577 -0.057143502
00000000: fbd1 173d a54c 91bd 79b2 e93c c14b efbd
00000010: 7291 8a3d accb a03b 39be 45be 8869 193d
00000020: 571b 16bd 663d 71bd b835 62bb 43cb 7abc
00000030: 1e01 c33c f669 23bd 1756 303d b8ca b5bd
00000040: 9d30 863d 0681 913c 9c51 0b3e 85c8 c43d
00000050: de2f a63d 394a bd3d b3af a7bc c5a8 bb3d
00000060: c686 f03d 93ab 33bd 0784 35bd 5138 9bbd
00000070: 2e68 e739 f1b4 21bd 3eab ca3b 666c 47bd
00000080: 57d7 57bd 8bd2 3a3b e94c c7bd ed7a cc3d
00000090: dc66 38bd 9ddb 68bd 67c9 b3bd a8df 8abd
000000a0: 5227 54bd b9f2 af3d 3257 fe3c 5ec2 493d
000000b0: 31e8 f6bd 3d40 99bd 1c05 08bd 71e6 c23b
000000c0: 4cd6 1f3d 2566 bcbc 8f41 703d ff20 a43d
000000d0: 8ee4 29bd 920b ae3d fa29 d0bc e226 033d
000000e0: 68bf 9fbd 2301 e23b c5dc a3bd 87b7 9b3d
000000f0: 05ee d83d ce09 19bd e87f 973c 62eb 03bd
00000100: ba38 063e 5d4b 99bd c143 4a3d 1e53 4fbd
00000110: cafa 473c c164 fe38 f797 463e f712 963c
00000120: d8ad 1dbc 64b6 53bd 5f59 703d 8696 3fbd
00000130: 1476 96bd bae7 16bd 5e8f ac3c 09b2 b93c
00000140: da0f a63c 9693 203d 8671 4b3d e791 8dbd
00000150: 5a22 f23d 8374 553d 36b7 17be 22e6 603d
00000160: 4865 033e d09b dbbd f2b0 da3d 185f b63c
00000170: 4a83 16bd 0c33 e73c f9d5 c33c 06c6 69bd
00000180: 006f 6ebd ab9a 673c ad3f efbc db99 88bc
00000190: be9c db3c c4fd acbc bb9a 043c 28f5 f93d
000001a0: 48a5 82bd 77b0 963d 13db 6b3d 477f 073d
000001b0: da75 4e3d c504 19bc dfc8 7cbc 5cf4 05be
000001c0: 4d6c 773d f9ec abbd 0ffb 7bbd 6cb3 e0bc
000001d0: 371a ffbd fe34 4f3b 571a 013e bcc8 883d
000001e0: 9117 dbbc 0b0d ce3d cdcd b13d bec0 d43c
000001f0: 0e67 3fbc 3e94 49bc 1993 58bd 190b 6e3d
00000200: 9646 59bd b549 863c 7871 883d ba0a 3cbc
00000210: bbf0 d43d ea78 873c daa9 bdbc c62e 77bd
00000220: c209 babc d9df ddbc e971 ce3c 6551 12bd
00000230: 49bd edbb 75fe ec3c a00a c63a 82a4 8b3d
00000240: eed2 0fbd c2b7 78bd 008e 41bb e04c 8cbd
00000250: ed1c f43c 9aab 8fbd 20b3 94bd 952a c8bd
00000260: c184 42bc 5c50 a4bc c66e dbbb b25b 3ebb
00000270: 2efc c03c 32d8 1d3c 9cee 35bd 6059 253d
00000280: 1b4f fcbd 6a15 eebd 7643 e03c 0714 d4bd
00000290: 4bf5 d1bb bea3 0cbe 9df3 213b 992c 18bb
000002a0: 6ca0 6abc a4ca 5bbc 3ec1 6b3c 4f05 4cbc
000002b0: dd0f 9cbd 45a9 f6bb 1487 b13d 2734 b43d
000002c0: 3bd1 c3bd 863e b33d b14e 2dbd 6237 e83c
000002d0: b90c b53d bfbe 9bbd 63c7 97bd 33c8 a93b
000002e0: 74ec d6bb 5f56 15bd c9ae 123d 2dfc e13c
000002f0: b8ec c43d 19e1 093d a2e9 e1bb 49e7 a2bd
00000300: 0178 a7bd 690b 263d 3650 133e fc86 afbc
00000310: 4b5d 093d 2058 e73d 8aef 7d3c 349e 4f3d
00000320: d7cb 983c a4c9 a4bd 7e1a 233d e0f4 893d
00000330: f3fb fe3b 617e 96bd 8294 8a3d 8176 f43c
00000340: 5131 863d c6d8 083e c9ab b4bd aa7a b5bc
00000350: bd2a f8bb 31f1 cd3d f487 523d c978 883d
00000360: dd28 733d 6f66 e5bc ebb7 ff3c edbc 8bbd
00000370: 58bb 723b 3347 973d a103 633d 01cc 133d
00000380: d524 37be e8e4 a4bc 8c7c 2dbc 726b 81bd
00000390: 7a7a 1c3d 4b87 debb 77aa fcbd d32e 563c
000003a0: 5219 fe3c c60f 103d 3c93 723d ab98 1abb
000003b0: f119 fbbd 96bb 2bbc 5a37 333d cd2d 82bc
000003c0: c3cb 7a3d a062 78bd 4379 bf3d db92 79bc
000003d0: fa71 41bc 29be d5bd 03de dfbd 4441 d93d
000003e0: d062 9a37 517b 7abc 682a 403c f0b7 d63d
000003f0: 7166 e0bd 0ec6 9bbc 88fd b83b 4e0f 6abd

network_body._body_endoder.seq_layers.4.bias f4 [256]
-0.002037255 -0.024881113 0.0015746817 -0.026251229 -0.01420382 0.0015909491 0.0051600793 -0.034677863
-0.015499827 -0.0038308846 0.01580075 0.0056921085 0.0059690997 -0.017938351 -0.001535752 -0.032243486
0.000357181 -0.034274522 -0.004912536 0.022717904 -0.0123612145 -0.0395643 -0.027529236 -0.004478982
-0.015631577 0.0116529865 -0.051817067 -0.020427246 0.010761883 -0.01733255 -0.013433889 0.01868269
0.020031726 -0.0191614 -0.048686642 -0.00431841 -0.0045042518 0.008983668 0.012680889 -0.005961318
-0.02367806 0.039075132 0.03222477 0.0012593829 -0.032597426 -0.008739819 -0.021522414 -0.045598846
-0.0035718817 -0.025662275 -0.039516095 0.010485899 -0.0047415267 -0.032360762 0.0061051934 -0.03542848
-0.03606879 -0.0038254191 0.028530207 0.020308884 0.0043337946 0.0014147079 0.019087812 0.024323728
0.011963993 0.021831483 -0.014172785 -0.031707354 -0.048369788 -0.009524963 -0.033906765 0.003216177
0.015846074 0.0006749548 -0.0053322027 0.04892066 0.011784221 -0.019333685 -0.011160872 -0.025292153
-0.032930084 0.010163079 0.012928132 0.020217096 -0.032716036 0.02099715 -0.036920298 -0.0015744369
0.014834345 -0.006578382 -0.049594715 0.013540662 0.031216206 -0.037776787 -0.007432454 -0.00020909047
-0.023395184 0.023957623 -0.009449154 -0.0043427586 -0.0071910997 -0.020321703 0.011086402 0.0072727697
-0.013273393 -0.011777356 -0.00090964994 0.01846902 -0.004264045 -0.0035314127 -0.047611535 -0.056185156
-0.009308046 -0.004470425 -0.00732669 0.012212625 0.02466187 -0.0003735781 0.043402344 0.015724706
-0.0019808367 -0.006473987 0.0014080273 -0.015958916 0.01938078 0.011273788 -0.030103875 0.02529642
0.013195931 -0.0072468133 -0.0006915154 -0.012266123 -0.0160174 -0.0031181942 -0.013177138 -0.03750655
0.010243847 0.023481602 -0.030583229 -0.039034735 0.01655522 -0.033747494 0.008693187 -0.040720347
-0.025665771 0.026140139 -0.025853146 -0.0008357137 -0.008278016 -0.0517516 -0.038032286 -0.01935179
-0.011624768 0.011898431 -0.0012270826 0.008259136 -0.03235686 0.007993408 -0.042646416 0.0019880019
-0.021175636 -0.01549646 -0.0048973276 -0.0077244085 -0.004933418 -0.03412602 -0.017783552 -0.0027371957
0.01572516 0.014728837 0.01693651 0.00544012 -0.009883644 0.016348984 -0.0011545429 -0.06186595
-0.01827631 -0.011031785 -0.004979976 -0.003950023 -0.0043545878 0.013569792 -0.039123364 -0.039756585
0.005792055 0.003540112 -0.034031525 0.011735092 -0.01352114 -0.006721506 -0.009801667 -0.012188956
0.016004924 -0.01249008 -0.029608617 0.019317659 -0.028325992 -0.012221983 0.00637248 0.003453584
-0.03274004 0.0036468694 0.015074068 -0.03091167 -0.015910616 -0.03982542 -0.046849597 -0.022502985
-0.0033743044 0.024278108 -0.019542027 -0.033152014 -0.009666167 -0.02734249 -0.027405526 -0.030305121
0.01855278 -0.031001193 0.00029040882 -0.0043535074 -0.018925866 -0.008623274 0.017457971 -0.012254921
-0.013290179 -0.032834724 -0.014573991 -0.03644031 -0.006153848 -0.00868164 -0.020846609 -0.001151805
0.010803523 -0.038857054 -0.047327984 0.015377539 0.002106451 -0.0027797557 -0.0035960258 0.008376336
-0.034624007 -0.005307803 -0.01776259 -0.0023770097 0.029955234 0.009412987 0.010717216 0.011872523
-0.014226294 0.0099716475 -0.0064997766 -0.048718024 0.019192798 0.041498598 -0.016806409 -0.009809571
00000000: 7883 05bb 7ad3 cbbc 8d65 ce3a d10c d7bc
00000010: 24b7 68bc 6587 d03a e215 a93b 600a 0ebd
00000020: fdf2 7dbc 940f 7bbb 9370 813c de84 ba3b
00000030: 7098 c33b 73f3 92bc 494b c9ba bf11 04bd
00000040: 0644 bb39 7163 0cbd 57f9 a0bb e61a ba3c
00000050: b186 4abc 2d0e 22bd fe84 e1bc 6dc4 92bb
00000060: cb0d 80bc 2bec 3e3c 223e 54bd 0a57 a7bc
00000070: 9c52 303c fefc 8dbc d019 5cbc 710c 993c
00000080: 9319 a43c 5ef8 9cbc a56b 47bd 7381 8dbb
00000090: 6798 93bb 3c30 133c 81c3 4f3c 2957 c3bb
000000a0: 7ef8 c1bc 3f0d 203d 1ffe 033d e111 a53a
000000b0: e184 05bd 7531 0fbc c64f b0bc dbc5 3abd
000000c0: 3b16 6abb b139 d2bc a1db 21bd 0ccd 2b3c
000000d0: cf5e 9bbb b88c 04bd 130e c83b 741d 11bd
000000e0: debc 13bd e2b3 7abb 2eb8 e93c d15e a63c
000000f0: 8102 8e3b b86d b93a 0b5e 9c3c 8e42 c73c
00000100: a004 443c f0d7 b23c f834 68bc 92df 01bd
00000110: 661f 46bd 970e 1cbc d2e1 0abd 7fc6 523b
00000120: a0cf 813c 73ef 303a c2b9 aebb 0861 483d
00000130: 9b12 413c ad61 9ebc 17dc 36bc 7d31 cfbc
00000140: b2e1 06bd 0b83 263c 84d0 533c 539e a53c
00000150: 4001 06bd 3702 ac3c bd39 17bd 565d ceba
00000160: c10b 733c 788f d7bb d423 4bbd a7d9 5d3c
00000170: 21b9 ff3c d5bb 1abd f18b f3bb 4c3f 5bb9
00000180: 42a7 bfbc c742 c43c a0d0 1abc b34d 8ebb
00000190: 51a3 ebbb b379 a6bc bea3 353c 6a50 ee3b
000001a0: a578 59bc d0f5 40bc 9375 6eba 584c 973c
000001b0: 67b9 8bbb 466f 67bb 5004 43bd 6822 66bd
000001c0: c680 18bc a57c 92bb bb14 f0bb 7617 483c
000001d0: b107 ca3c cedc c3b9 a8c6 313d 19d1 803c
000001e0: edd0 01bb bd23 d4bb 8e8d b83a 46bc 82bc
000001f0: 71c4 9e3c b2b5 383c 679c f6bc 703a cf3c
00000200: bf33 583c ad76 edbb d046 35ba d9f7 48bc
00000210: ec36 83bc 9e5a 4cbb ece4 57bc 78a0 19bd
00000220: cfd5 273c 7d5c c03c ae89 fabc e3e2 1fbd
00000230: d09e 873c d03a 0abd de6d 0e3c 61ca 26bd
00000240: 0641 d2bc d823 d63c fac9 d3bc cc13 5bba
00000250: 84a0 07bc 7cf9 53bd bec7 1bbd a587 9ebc
00000260: d075 3ebc a3f1 423c 0fd6 a0ba 5451 073c
00000270: a088 04bd c8f6 023c 02ae 2ebd 2349 023b
00000280: 8778 adbc dde4 7dbc c379 a0bb 091d fdbb
00000290: 82a8 a1bb bac7 0bbd d0ae 91bc 8662 33bb
000002a0: 0dd2 803c 3851 713c 70be 8a3c 0943 b23b
000002b0: 02ef 21bc 4eee 853c 0854 97ba 2667 7dbd
000002c0: 33b8 95bc a9be 34bc 112f a3bb 326f 81bb
000002d0: eeb0 8ebb d553 5e3c d23f 20bd cdd7 22bd
000002e0: 47cb bd3b 3901 683b a464 0bbd 8b44 403c
000002f0: c687 5dbc 1440 dcbb 2c97 20bc 30b4 47bc
00000300: c21c 833c 31a3 4cbc c58d f2bc 1140 9e3c
00000310: e90b e8bc b63e 48bc 3dd0 d03b 8655 623b
00000320: 6c1a 06bd 5100 6f3b 39f9 763c 783a fdbc
00000330: fb56 82bc fb1f 23bd 5de5 3fbd 2e58 b8bc
00000340: 6f23 5dbb e2e2 c63c 9a16 a0bc 68ca 07bd
00000350: d85e 1ebc 5cfd dfbc 8e81 e0bc 7242 f8bc
00000360: 00fc 973c 37f6 fdbc 0342 9839 dea7 8ebb
00000370: 6b0a 9bbc a248 0dbc 0504 8f3c ddc8 48bc
00000380: 0dbf 59bc b47d 06bd c0c7 6ebc 6f42 15bd
00000390: 38a6 c9bb 703d 0ebc 82c6 aabc 2af8 96ba
000003a0: 4201 313c 9328 1fbd fdda 41bd 13f2 7b3c
000003b0: 620c 0a3b 902c 36bb 4dab 6bbb e63c 093c
000003c0: e7d1 0dbd 14ed adbb da82 91bc 9bc7 1bbb
000003d0: ae64 f53c ee38 1a3c 4397 2f3c f984 423c
000003e0: 6715 69bc 1f60 233c 14fc d4bb 8d8c 47bd
000003f0: 373a 9d3c 6ffa 293d 98ad 89bc 53b8 20bc

network_body._body_endoder.seq_layers.6.weight f4 [256, 256]
-0.109693944 -0.003670335 0.07957355 -0.017989885 0.021474252 0.0138003 -0.0712801 0.05112215
-0.022793107 0.029810704 0.0039202385 -0.123487 -0.033956412 -0.064643085 -0.06741786 0.04570775
-0.026016066 0.0449881 -0.06382605 -0.076079994 0.02483238 0.0054610237 -0.013884582 -0.06289803
0.111842215 0.0368967 -0.050595626 0.07798907 -0.04000302 0.034897603 -0.10690143 0.08851533
0.06255524 0.020819673 0.16233091 0.07608985 0.015179034 0.025474502 -0.066191636 -0.016062755
-0.025588036 0.019458838 -0.019686466 -0.11111411 0.11624118 0.049985 -0.0068376395 0.10026944
0.005883604 -0.028427972 -0.005446145 -0.01984775 0.16294523 0.048152883 0.1251835 -0.044647615
0.033288375 0.0980153 0.032828398 -0.006818095 -0.0068797455 -0.037038 0.036217287 -0.03135799
-0.008265427 0.08183703 0.03696831 0.07667082 0.04794482 0.04397924 -0.078444056 0.03374526
0.007489031 -0.07405725 0.080162376 -0.11168576 -0.013728085 0.04431679 -0.029979015 -0.010379866
0.06358598 0.0041016685 0.012597655 0.034341734 -0.005034392 0.027999945 0.091662735 0.053502772
0.0017799082 -0.03829824 0.011965802 0.06184302 -0.04498683 -0.08132771 0.074427776 -0.07385273
-0.082591146 0.15141527 -0.04673277 -0.067420594 -0.0521388 0.004806085 0.022056744 -0.0055483184
0.0917162 -0.08593922 0.029824907 0.09138106 -0.108189926 0.078399256 -0.0009574512 0.13543959
-0.007068061 -0.019309187 0.0013140135 0.10554325 0.035271443 0.0965898 0.059189748 0.1150295
-0.024685817 -0.015058455 -0.012670766 -0.1150665 -0.009478962 -0.074350774 -0.032746725 0.015902767
-0.008612942 -0.069802225 0.07544402 0.014512967 -0.043521788 0.08371585 0.014101214 -0.11286208
-0.05582612 -0.053562194 -0.029186899 -0.12568346 0.018298622 -0.15700856 0.053380646 -0.050796017
-0.041651603 -0.065507784 0.056554902 -0.04138561 0.021273686 0.100541644 0.0785003 0.009702864
0.030083787 -0.022998838 -0.06381047 -0.094101995 -0.0832457 -0.040693752 -0.015660016 -0.006346858
-0.0126098255 0.020522 -0.01211741 -0.046018206 -0.0563027 -0.008890901 -0.017289454 -0.051779363
-0.057306744 -0.020152552 0.05891334 0.026894642 -0.05952231 -0.06806596 0.02945283 0.0112637
0.10957633 -0.0038642504 0.0031319335 0.05625244 0.10123165 -0.008301587 0.03985392 -0.08598661
0.048969366 0.07199671 -0.03828055 -0.040836185 0.052900672 -0.10977751 -0.011011161 -0.08845996
0.004387424 -0.042359058 -0.047572546 -0.01665654 0.049488407 0.07737794 -0.10329706 0.14652339
-0.12201772 -0.06531381 0.11500117 -0.06365464 0.0050725006 0.0020730624 -0.020067135 0.033880938
0.023435427 0.12927455 0.060027476 0.065224655 0.022551104 0.004380842 0.035781253 0.051753987
0.011980552 0.005251947 -0.04149383 0.055883106 0.13078319 -0.021723192 -0.05845301 -0.0024220827
-0.11785019 0.016191488 -0.1238567 0.020596907 0.10095525 0.018326461 0.16236402 0.114763975
-0.051384125 0.05709297 -0.08427002 0.104422145 0.020899672 0.011888612 -0.038343176 -0.08299092
0.08119785 0.088919476 -0.11586798 0.005900171 -0.052966643 -0.013864305 -0.000447347 0.04245248
0.028487831 -0.05874598 0.013673635 -0.050314777 0.09777944 0.0072709247 -0.019649804 -0.03302403
00000000: 38a7 e0bd 018a 70bb 75f7 a23d 865f 93bc
00000010: c5ea af3c a71a 623c 4dfb 91bd 7665 513d
00000020: 9cb8 babc 9435 f43c 5875 803b c1e6 fcbd
00000030: e115 0bbd 9863 84bd 6012 8abd 0d38 3b3d
00000040: a51f d5bc 7145 383d 3bb7 82bd d4cf 9bbd
00000050: 466d cb3c 63f2 b23b 287c 63bc afd0 80bd
00000060: 880d e53d fe20 173d 5c3d 4fbd bcb8 9f3d
00000070: 35da 23bd caf0 0e3d 23ef dabd 8647 b53d
00000080: f61c 803d 058e aa3c 133a 263e ffd4 9b3d
00000090: 7cb1 783c e7af d03c 7b8f 87bd 0a96 83bc
000000a0: 009e d1bc 2468 9f3c 8345 a1bc cb8f e3bd
000000b0: db0f ee3d 12bd 4c3d 470e e0bb 105a cd3d
000000c0: 3fcb c03b c7e1 e8bc 9375 b2bb c097 a2bc
000000d0: 1ddb 263e f53b 453d 1a30 003e 6be0 36bd
000000e0: 6459 083d 3fbc c83d 1277 063d 546a dfbb
000000f0: 7d6f e1bb 28b5 17bd 9458 143d 3c71 00bd
00000100: b76b 07bc 2c9a a73d 156c 173d 9705 9d3d
00000110: ca61 443d 9323 343d 47a7 a0bd 7838 0a3d
00000120: 8c66 f53b 54ab 97bd 2c2c a43d 81bb e4bd
00000130: c3eb 60bc 8685 353d 8d96 f5bc 5010 2abc
00000140: 5e39 823d 4a67 863b 6566 4e3c eba9 0c3d
00000150: 8af7 a4bb 2460 e53c acb9 bb3d b925 5b3d
00000160: cf4b e93a 9ede 1cbd 360c 443c 1b4f 7d3d
00000170: 1c44 38bd 248f a6bd 976d 983d 1a40 97bd
00000180: 8c25 a9bd 9b0c 1b3e dc6a 3fbd cf13 8abd
00000190: 7f8f 55bd 5d7c 9d3b 58b0 b43c abce b5bb
000001a0: b4d5 bb3d e700 b0bd 5d53 f43c fe25 bb3d
000001b0: ae92 ddbd ca8f a03d 76fd 7aba adb0 0a3e
000001c0: 319b e7bb 4d2e 9ebc fa3a ac3a 0f27 d83d
000001d0: ca78 103d e0d0 c53d f370 723d 9694 eb3d
000001e0: e939 cabc bdb7 76bc 0b99 4fbc fca7 ebbd
000001f0: a64d 1bbc 3845 98bd 6e21 06bd 8546 823c
00000200: 4c1d 0dbc 78f4 8ebd 6582 9a3d ccc7 6d3c
00000210: e743 32bd 3773 ab3d c708 673c 3c24 e7bd
00000220: eea9 64bd 0864 5bbd 5d19 efbc 2ab3 00be
00000230: fee6 953c dac6 20be aaa5 5a3d 7c0f 50bd
00000240: df9a 2abd f228 86bd 1da6 673d f583 29bd
00000250: 2746 ae3c c7e8 cd3d c4c4 a03d c3f8 1e3c
00000260: 4672 f63c 0f68 bcbc 10af 82bd 8cb8 c0bd
00000270: b97c aabd 7eae 26bd 6f49 80bc 4ef9 cfbb
00000280: 7199 4ebc c11d a83c 1a88 46bc 967d 3cbd
00000290: a99d 66bd 24ab 11bc 9da2 8dbc 9916 54bd
000002a0: 7aba 6abd f716 a5bc 1d4f 713d 2752 dc3c
000002b0: aacd 73bd 2b66 8bbd 1047 f13c 628b 383c
000002c0: 8e69 e03d 5d3f 7dbb 2041 4d3b f568 663d
000002d0: 8a52 cf3d 6103 08bc dd3d 233d bf19 b0bd
000002e0: 1a94 483d 0373 933d 11cc 1cbd d843 27bd
000002f0: 60ae 583d 08d3 e0bd 2868 34bc 7f2a b5bd
00000300: 61c4 8f3b b180 2dbd 6edb 42bd 4c73 88bc
00000310: 5bb4 4a3d 5378 9e3d 698d d3bd 3a0a 163e
00000320: 6de4 f9bd 3fc3 85bd bc85 eb3d 5d5d 82bd
00000330: 3837 a63b 37dc 073b d563 a4bc bdc6 0a3d
00000340: a7fb bf3c 8c60 043e 5fdf 753d 8194 853d
00000350: 18bd b83c 2b8d 8f3b 5d8f 123d fdfb 533d
00000360: 144a 443c 8618 ac3b 6ff5 29bd afe5 643d
00000370: 07ec 053e d6f4 b1bc 6c6c 6fbd cebb 1ebb
00000380: 715b f1bd 03a4 843c 95a8 fdbd d8ba a83c
00000390: a0c1 ce3d 6021 963c c142 263e 6009 eb3d
000003a0: 2978 52bd 51da 693d c395 acbd 47db d53d
000003b0: ca35 ab3c 74c8 423c bc0d 1dbd 25f7 a9bd
000003c0: 0f4b a63d 6a1b b63d 314c edbd 3956 c13b
000003d0: 8df3 58bd 1c27 63bc e689 eab9 a7e2 2d3d
000003e0: 505f e93c a09f 70bd 6207 603c de16 4ebd
000003f0: 9640 c83d f040 ee3b a0f8 a0bc 3544 07bd
