Assets/ML_PPO/results/simpleLoop_8/BoatAgent/BoatAgent-149944.onnx (onnx, 868044 bytes, 21 tensors)

discrete_action_output_shape f4 [1, 6]
0	0x40000000	2.0
1	0x40000000	2.0
2	0x40000000	2.0
3	0x40000000	2.0
4	0x40000000	2.0
5	0x40000000	2.0

network_body._body_endoder.seq_layers.0.weight f4 [256, 57]
0	0xbc97015d	-0.018433267
1	0x3dc6f32a	0.097143486
2	0x3d6b4573	0.05743928
3	0xbe2916b4	-0.16512567
4	0x3e49e84f	0.19717525
5	0x3db94008	0.09045416
6	0x3e43bf93	0.19116049
7	0x3e1e5374	0.15461522
8	0x3e1f6fa7	0.15569936
9	0xbdfa5cb3	-0.12224712
10	0xbc02d2d8	-0.007984839
11	0x3d47ae9c	0.048750505
12	0xbc0ba857	-0.008524022
13	0x3b4de4de	0.0031416933
14	0xbd3994fe	-0.045308106
15	0x3df9e894	0.12202564
16	0x3d8623d9	0.06549806
17	0xbd44da3a	-0.04805968
18	0xbce3efe7	-0.027824355
19	0xbea78d1f	-0.32724854
20	0x3e78ba28	0.24289763
21	0x3d755b93	0.059901785
22	0x3e7795da	0.24178258
23	0xbdbce6f5	-0.09223739
24	0xbd41def6	-0.047331773
25	0x3e252aa0	0.16129541
26	0xbd3c39dc	-0.045953616
27	0x3de0a382	0.10968687
28	0xbe020fdb	-0.12701361
29	0xbd25fb49	-0.040522847
30	0x3e53fb2c	0.20701283
31	0xbe09ce66	-0.13457641
32	0xbe192591	-0.14955737
33	0x3e90ed75	0.28306165
34	0x3c398cf3	0.011325109
35	0x3e385b9a	0.18003693
36	0x3da39545	0.07987455
37	0x3e1b6547	0.15175353
38	0x3de7a823	0.113113664
39	0xbe0d6c39	-0.13810815
40	0x3de56113	0.11200156
41	0xbdba5203	-0.09097674
42	0x3e095074	0.13409597
43	0xbc6dbe25	-0.014510666
44	0xbe6659c1	-0.22495176
45	0xbdc8f950	-0.098131776
46	0xbd12dab3	-0.0358531
47	0x3e663138	0.22479713
48	0xbe9416dc	-0.2892369
49	0xbdeb9177	-0.115023546
50	0xbcb0aca7	-0.021566702
51	0xbdea081d	-0.11427329
52	0x3cb3447a	0.021883238
53	0xbde72ac7	-0.11287456
54	0xbe088c8e	-0.13334867
55	0x3bf2fdd4	0.0074155126
56	0xbd7a9700	-0.06117916
57	0xbe1a07b9	-0.15042008
58	0xbe1c65a2	-0.15273145
59	0x3e2596cf	0.1617081
60	0x3e8c0eff	0.2735519
61	0xbbcb9967	-0.0062133553
62	0x3d0bffc7	0.034179475
63	0xbe26a5c0	-0.16274166
64	0x3d5e21df	0.05423152
65	0x3ea926f6	0.33037537
66	0xbe67fb1d	-0.22654386
67	0x3e28029d	0.16407247
68	0x3d11d18b	0.035600226
69	0xbde9c35e	-0.114142165
70	0xbd414aac	-0.047190353
71	0xbd4c06f8	-0.049811333
72	0xbd4ca4cb	-0.049961846
73	0xbe95252b	-0.2912992
74	0xbe034337	-0.12818609
75	0x3e8c5fa0	0.27416706
76	0xbd9f718c	-0.07785329
77	0x3e3b8a72	0.18314531
78	0xbe6f8e89	-0.23394217
79	0x3df171a9	0.11789257
80	0x3de49f4b	0.11163195
81	0x3db8aa32	0.09016837
82	0xbe2f6a9b	-0.1713051
83	0x3c6c999f	0.014440923
84	0xbe6c6899	-0.23086776
85	0xbdc1a97d	-0.094561554
86	0x3d900913	0.07032981
87	0x3e5a51ad	0.2132022
88	0xbdb215fa	-0.08695598
89	0xbcd02f4c	-0.025413178
90	0x3d5c7937	0.053826537
91	0xbd3404e9	-0.043949995
92	0x3d4cd282	0.050005443
93	0xbe7e00b9	-0.24804963
94	0x3d9d9268	0.076939404
95	0xbc96a360	-0.01838845
96	0xbe434c59	-0.19072093
97	0xbd72a245	-0.059236784
98	0x3da14990	0.07875359
99	0xbcc60d28	-0.024176195
100	0x3d9649e7	0.073383145
101	0x3d992968	0.07478601
102	0x3dd928e9	0.10603506
103	0xbc88d53e	-0.016703244
104	0xbe24bc22	-0.16087392
105	0x3e0a2042	0.13488868
106	0xbdfaf2eb	-0.12253364
107	0xbdb75e63	-0.0895355
108	0x3df00a52	0.117207184
109	0x3d620102	0.055176742
110	0x3c51d409	0.012806901
111	0xbcf109b6	-0.029423576
112	0x3e04267d	0.12905307
113	0x3ccfe94c	0.0253798
114	0x3cc1ad6c	0.023642264
115	0x3e10e315	0.14149125
116	0xbdc4505d	-0.095856406
117	0x3d108b95	0.035289366
118	0x3dec3016	0.11532609
119	0xbdaa63ea	-0.08319838
120	0x3e18116a	0.14850393
121	0x3d8281da	0.063724235
122	0xbe03bd28	-0.12865126
123	0xbe33cc49	-0.17558397
124	0x3de3105b	0.11087104
125	0xbdf60b3e	-0.12013863
126	0xbe2ff539	-0.17183389
127	0xbe124bd7	-0.14286743
128	0xbe4d5d2a	-0.2005507
129	0xb9916f8e	-0.0002773967
130	0x3e4f1fc0	0.20226955
131	0xbd654772	-0.05597634
132	0xbda009d0	-0.078143716
133	0xbe4802d1	-0.19532324
134	0x3dd5b3d1	0.10434688
135	0x3cbee3d9	0.023302006
136	0xbdd5f998	-0.10447997
137	0xbe63fda0	-0.22264719
138	0xbdc525c3	-0.09626343
139	0x3d55d8da	0.05220876
140	0xbdf68499	-0.1203701
141	0xbda117ee	-0.07865892
142	0xbe052395	-0.13001855
143	0xbe3d39e4	-0.18479115
144	0x3e21d872	0.15805224
145	0x3eaabadd	0.3334569
146	0x3e8c4c9c	0.27402198
147	0x3e34322c	0.17597264
148	0x3d3ec7bc	0.0465772
149	0xbdf522cf	-0.1196953
150	0x3e816b63	0.25277242
151	0xbcc7bf6a	-0.024383266
152	0x3e5003c3	0.20313935
153	0xbd814533	-0.06312027
154	0xbe03de62	-0.12877801
155	0x3db60c25	0.08889035
156	0xbb8ac466	-0.0042348383
157	0xbdb9c2c4	-0.09070352
158	0xbbb6986e	-0.0055723703
159	0x3e98fc14	0.2987982
160	0x3cde9247	0.02716936
161	0x3c8710d3	0.016487515
162	0xbd016ef0	-0.03159994
163	0x3e1e474f	0.1545689
164	0xbde00579	-0.10938544
165	0xbe8f76bd	-0.28020278
166	0xbe079d92	-0.13243702
167	0x3e3a0608	0.18166363
168	0xbe00d197	-0.12579952
169	0xbdfddb8f	-0.12395393
170	0xbe0fd50f	-0.14046119
171	0x3e3fde96	0.18737254
172	0xbe3733d8	-0.1789087
173	0xbe76fa80	-0.24118996
174	0x3cd3c46f	0.025850503
175	0xbd7b88dd	-0.06140982
176	0xbc2607fc	-0.01013374
177	0x3da7e5d2	0.081981316
178	0xbe2e3efe	-0.17016217
179	0xbea6a1bf	-0.32545277
180	0x3dfd5eda	0.12371607
181	0xbd24b122	-0.04020799
182	0xbdbf5949	-0.09343202
183	0x3bdcc054	0.0067367945
184	0xbdbebceb	-0.09313377
185	0xbe48e908	-0.19620144
186	0x3cb33927	0.021877838
187	0xbd95a965	-0.073077
188	0xbe47bbdf	-0.19505261
189	0xbd8e2abf	-0.06941747
190	0xbd682e0d	-0.056684542
191	0x3db7f093	0.08981433
192	0x3e1f74a4	0.15571839
193	0xbe32e7f7	-0.174713
194	0x3e424b10	0.18973947
195	0x3e28050c	0.16408175
196	0xbad0cba9	-0.0015929836
197	0x3e8bf02b	0.2733167
198	0xbcb65fde	-0.02226251
199	0x3b028b42	0.001991943
200	0xbdd52a7c	-0.10408494
201	0x3dbf89d4	0.093524605
202	0xbe2e96ae	-0.17049667
203	0x3cc07c91	0.023496898
204	0x3dba9ad0	0.091115594
205	0xbda62660	-0.08112788
206	0x3db1404e	0.08654843
207	0x3d325205	0.04353525
208	0x3e598238	0.21241081
209	0xbac85478	-0.0015283963
210	0xbe761b05	-0.24033745
211	0x3c2b18b5	0.010442902
212	0x3cef2345	0.029191623
213	0xbe664452	-0.22487
214	0xbe324de8	-0.17412531
215	0x3c9ed55c	0.019388847
216	0x3c66b176	0.014080396
217	0xbcab8aa5	-0.020940134
218	0x3d360ed3	0.04444773
219	0xbc79eaaf	-0.015253707
220	0xbdc04697	-0.09388464
221	0xbcd6390b	-0.026150247
222	0x3e3192b0	0.17341113
223	0x3e630ef5	0.22173674
224	0x3e33fe1e	0.17577407
225	0x3d14b339	0.036303733
226	0xbc85dc46	-0.016340386
227	0xbd595d78	-0.053067654
228	0xbda78f0e	-0.081815824
229	0xbd9b0c96	-0.0757076
230	0x3d704b0b	0.058665317
231	0x3c57f2ac	0.013180416
232	0x3e439e5a	0.19103375
233	0x3df74232	0.12073173
234	0xbe0ef799	-0.13961639
235	0x3d985de9	0.07439787
236	0x3d174827	0.036934044
237	0xbd3e4e32	-0.04646129
238	0x3d3c1097	0.04591426
239	0xbded8055	-0.11596743
240	0x3d6b4f7e	0.057448857
241	0xbe85344e	-0.26016468
242	0x3d1c3b04	0.03814222
243	0x3b3f33b8	0.0029175114
244	0xbe01c0ec	-0.1267125
245	0x3e4fc9bf	0.20291804
246	0xbd72662a	-0.059179462
247	0x3e5a8d54	0.21342975
248	0x3e144ba6	0.14481983
249	0x3e8b1598	0.27164912
250	0x3dfd1fb0	0.123595595
251	0xbd1cfb3e	-0.03832554
252	0x3d20925a	0.03920207
253	0x3bcec428	0.0063100047
254	0xbd88203a	-0.06646772
255	0xbe7671af	-0.24066804

network_body._body_endoder.seq_layers.0.bias f4 [256]
0	0x3b125a8b	0.00223318
1	0xbc1dc04e	-0.009628369
2	0xbc796290	-0.015221253
3	0xbc1403a6	-0.009034073
4	0xbd5de5e2	-0.05417431
5	0xbcef3aa4	-0.029202767
6	0x3cbb761e	0.022883471
7	0x3c9d909e	0.019233998
8	0xbd23cbb0	-0.039989173
9	0x3c435877	0.011922947
10	0x3ae193e4	0.0017210213
11	0x3bf5a01f	0.0074958946
12	0xbd35e762	-0.044410117
13	0x3c50306e	0.012706859
14	0x3bae64f4	0.005322093
15	0xbd66aa93	-0.056315016
16	0xbd135a73	-0.03597493
17	0xbbf20bf9	-0.007386681
18	0xbcc097c3	-0.023509866
19	0x3bc2cd09	0.0059448523
20	0xbcd37ea2	-0.02581722
21	0xbcaff05a	-0.021476913
22	0xbcc9a2f3	-0.024613833
23	0x3a4f4504	0.00079067075
24	0xbc297008	-0.010341652
25	0xbce54611	-0.027987512
26	0xbc396154	-0.011314709
27	0x3cb1a397	0.021684451
28	0xbc028a11	-0.007967488
29	0x3bd27dac	0.0064236727
30	0xbd8939b3	-0.067004584
31	0xbd331a30	-0.043726146
32	0xbc288c31	-0.0102873305
33	0x3d04e6c0	0.032446623
34	0x3c616d78	0.01375901
35	0x3c5a85c7	0.013337559
36	0x3a091e3d	0.0005230641
37	0xbd43b5e8	-0.0477809
38	0xbd007d7a	-0.031369664
39	0xbcac44c6	-0.021028887
40	0x3c6a449e	0.014298586
41	0xbb9bdc13	-0.0047564595
42	0xbd27d97f	-0.040978905
43	0xbc759afc	-0.014990564
44	0xbcbaa0cf	-0.022781758
45	0xbc0f4081	-0.008743406
46	0xbc95da14	-0.018292464
47	0x3c023df6	0.007949343
48	0x3a607964	0.00085630105
49	0xbd8ef278	-0.06979841
50	0xba9e516b	-0.0012078708
51	0xbd1f31a5	-0.038865704
52	0xbb1cf1a1	-0.0023947733
53	0xbc566b77	-0.013087145
54	0x3bfcc2e4	0.0077136625
55	0xbd168b64	-0.036754027
56	0xbcb988a1	-0.022648158
57	0xbcad4ff2	-0.021156285
58	0x3c352681	0.011056543
59	0xbd07c546	-0.03314712
60	0xbd1b433c	-0.037905917
61	0xbb97d761	-0.0046338295
62	0xbd810a3a	-0.06300779
63	0xbc138ac6	-0.009005254
64	0xbbaa5996	-0.0051986678
65	0xbba0ae1f	-0.0049035694
66	0xbc9a4a21	-0.018834176
67	0xbc55a996	-0.013040921
68	0xbca5d8f5	-0.020245055
69	0xbb85c682	-0.004082502
70	0x3c1676eb	0.009183626
71	0xbd4f3239	-0.050585005
72	0x3aa045ba	0.0012227811
73	0xbcbc6c38	-0.023000821
74	0xbcf3f7f2	-0.029781315
75	0xbd3c7fd9	-0.046020363
76	0xba74cbc9	-0.00093382277
77	0xbd148eb5	-0.03626891
78	0x3b18349b	0.0023224715
79	0xbd470aa7	-0.048594143
80	0xbd427598	-0.047475427
81	0xbaaf572e	-0.0013377422
82	0xbcbfcd09	-0.023413198
83	0xbc962e4c	-0.018332623
84	0xbd98a4a2	-0.07453276
85	0x3cc30364	0.023805328
86	0xbd3f6457	-0.04672655
87	0xbcd524a4	-0.026018448
88	0xbca75542	-0.020426396
89	0xbcc8d520	-0.024515688
90	0xbc2d97da	-0.010595286
91	0xbd02a86e	-0.03189891
92	0xbd2b2455	-0.041782696
93	0xbd0654c7	-0.032795694
94	0xbd0dd016	-0.034622274
95	0xbc6b45cd	-0.0143599035
96	0xbcd5459d	-0.02603417
97	0xbb942f1d	-0.004522218
98	0xbd38b58e	-0.04509502
99	0xba9b023a	-0.0011826225
100	0x3caf7998	0.021420285
101	0xbd300901	-0.042977337
102	0xbbe24101	-0.0069047217
103	0xbc66ce33	-0.014087248
104	0xbc5d7005	-0.013515477
105	0xbcca8471	-0.024721356
106	0xbd7f1cc5	-0.062283296
107	0xbcd4c29c	-0.025971703
108	0xbca6ee61	-0.02037734
109	0xbc8fa761	-0.017535867
110	0xbd44581c	-0.04793559
111	0x3d14af8e	0.036300234
112	0xbbc706c6	-0.0060738055
113	0xbd217cf4	-0.039425805
114	0x3c0b0746	0.008485621
115	0xbbcd77e5	-0.006270396
116	0x397dc259	0.0002420036
117	0xbc27b1ea	-0.010235289
118	0xbd45c129	-0.048279915
119	0xbcffcc89	-0.03122546
120	0xbc28cd26	-0.010302817
121	0xbd0f04eb	-0.0349168
122	0x3c2fdf5a	0.0107344035
123	0xbd64bda6	-0.055844925
124	0x3cbe8d70	0.023260802
125	0xbd0fb4f8	-0.035084695
126	0xbc26f964	-0.010191295
127	0x3b6786da	0.003532818
128	0xbc24519f	-0.010029226
129	0xbd3f2407	-0.046665218
130	0xbc8b278f	-0.016986636
131	0xbc665272	-0.014057742
132	0xbcb09e55	-0.021559874
133	0x3ca199c6	0.019726645
134	0xbae79f23	-0.0017671328
135	0xbc8068f7	-0.015675051
136	0x3c1d1e36	0.009589722
137	0x3c755732	0.014974402
138	0xbc99afce	-0.018760588
139	0xbc3352c6	-0.010945028
140	0xbccff3c8	-0.025384799
141	0x3cd588e5	0.026066253
142	0x3c5eec7c	0.013606187
143	0xbd3018c9	-0.042992387
144	0x3b7b9a30	0.0038391463
145	0x3cb99933	0.022656059
146	0x3c9c7c08	0.019102111
147	0x3c95d1db	0.018288543
148	0xbbd39faa	-0.0064582424
149	0xbd2a5f5c	-0.041594848
150	0x3c89d45a	0.01682489
151	0xbd2270ff	-0.039658543
152	0xbcf870f8	-0.030327305
153	0xbcf2ee1f	-0.02965456
154	0xbcb18133	-0.021668052
155	0xbbea7f63	-0.007156299
156	0xbd221b86	-0.03957703
157	0xbd7baf95	-0.061446745
158	0xbbb3fdba	-0.005492893
159	0xbc813cec	-0.01577612
160	0x3d0c92fa	0.034319855
161	0xbc9c479a	-0.019077111
162	0xbc9a60b4	-0.01884494
163	0xbc9cd7e6	-0.019145917
164	0x3c06d41a	0.00822928
165	0x3bfc04b9	0.0076909927
166	0x3baa730e	0.005201704
167	0xbc1610ab	-0.009159247
168	0x3ba69ada	0.0050843777
169	0x3c6060a5	0.013694917
170	0xbd4d0332	-0.050051875
171	0xbd58fa8c	-0.052973315
172	0x3d2d6431	0.042331878
173	0xbd346a73	-0.04404683
174	0x3c3e7f20	0.011626989
175	0xbcb57d97	-0.022154612
176	0xbbfec9b1	-0.0077755083
177	0x3d073613	0.033010554
178	0xbaced753	-0.0015780724
179	0xbb0acce8	-0.0021179263
180	0xbce02741	-0.027362468
181	0x3c1fad6d	0.009745938
182	0xbc52daf1	-0.0128695825
183	0xbccf1918	-0.02528052
184	0xbc82af96	-0.015952867
185	0xbd1f9f24	-0.038970128
186	0xbd0b02f3	-0.03393836
187	0xbd35fb49	-0.044429097
188	0xbce5aee5	-0.028037498
189	0xbd2a0ca0	-0.041515946
190	0x3c037884	0.008024339
191	0x3ca0e626	0.019640993
192	0x3c03508d	0.00801481
193	0x3c5f1a5c	0.013617124
194	0x3c60d42f	0.0137224635
195	0xbd7a34a7	-0.06108537
196	0x3ca50092	0.020141874
197	0xbd0ca366	-0.034335516
198	0xbb9f44f1	-0.0048605134
199	0x3c34096d	0.010988575
200	0xbcb139e7	-0.021634055
201	0x3c2a620c	0.010399353
202	0xbd82aeac	-0.06380972
203	0xbc2c0beb	-0.010500888
204	0x3c029bd5	0.007971724
205	0x3c7bf6d9	0.015378677
206	0xbd16eee0	-0.036848903
207	0xbd201b17	-0.039088335
208	0x3c94b21d	0.018151337
209	0xbd1f393e	-0.03887295
210	0xbd05fdf2	-0.032712884
211	0x3c462293	0.012093204
212	0xbd300a8d	-0.042978812
213	0xbcffe940	-0.031239152
214	0xbd5ca811	-0.053871218
215	0xbc51b0ac	-0.0127984695
216	0x3b947de8	0.0045316108
217	0xbcd0d343	-0.025491362
218	0xbcf44ec2	-0.02982271
219	0xbcab9908	-0.020946994
220	0xbcfdcc2f	-0.030981151
221	0x3bb74da9	0.0055939746
222	0x3ca6a033	0.02034006
223	0xbb46e17e	-0.0030346806
224	0x3ba5711b	0.0050488836
225	0x3b11da42	0.0022255336
226	0x3c01eb18	0.007929586
227	0xbcc5cdf9	-0.024146067
228	0xbbcbf5de	-0.006224378
229	0xbc714eb4	-0.014728237
230	0xbcc04b17	-0.023473306
231	0xbbfee6f4	-0.0077789966
232	0xbbb03a22	-0.0053780237
233	0xbc987388	-0.018609777
234	0xbc7ac90a	-0.0153067205
235	0x3ced055b	0.028933218
236	0xbc81fa18	-0.015866324
237	0x3cfeb53e	0.031092282
238	0xbcb82612	-0.02247909
239	0x3d010537	0.031499114
240	0xbc4547fa	-0.012041086
241	0xbcb152ad	-0.021645868
242	0xbcb3caba	-0.021947253
243	0xbcba1031	-0.022712799
244	0xbcff617b	-0.031174412
245	0x3c155ee3	0.009116861
246	0xbcb5f9b6	-0.022213798
247	0x3c2ec5db	0.01066729
248	0xbb9f0af6	-0.0048536016
249	0xbc865f01	-0.016402723
250	0xbd3c6d4c	-0.04600267
251	0xbbbf3fc9	-0.005836461
252	0x3b93bde1	0.0045087193
253	0xbd5583dd	-0.052127708
254	0xbc9ac6b5	-0.018893579
255	0xbc76f764	-0.015073631

network_body._body_endoder.seq_layers.2.weight f4 [256, 256]
0	0x3e27a728	0.16372359
1	0xbd248412	-0.040165015
2	0x3cfa0a2a	0.030522425
3	0xbd1311fb	-0.03590582
4	0x3d468e6d	0.04847567
5	0x3db03fc8	0.08605915
6	0xbc85c36e	-0.01632854
7	0xbdba7d98	-0.09105986
8	0xbde8d1d1	-0.11368144
9	0x3d219805	0.039451618
10	0xbddea914	-0.10872093
11	0x3dab0201	0.083499916
12	0x3dd06a1e	0.1017649
13	0xbc2976a8	-0.010343231
14	0xbce8034e	-0.028321888
15	0xbd4d84bc	-0.050175413
16	0x3d89d984	0.06730941
17	0x3df52126	0.11969213
18	0xbd3acf80	-0.045608044
19	0x3df34b67	0.11879616
20	0xbd7cc158	-0.061707824
21	0xbd3b37c6	-0.045707487
22	0x3d05f91e	0.03270828
23	0x3cf8a85e	0.030353721
24	0x3b15a667	0.002283478
25	0xbd75f23f	-0.060045477
26	0x3d8d448a	0.068978384
27	0xbd394f86	-0.045241855
28	0xbd44161b	-0.047872644
29	0x3b151c7d	0.0022752576
30	0x3d9cb8cd	0.076524355
31	0x3bb3c3e4	0.0054859985
32	0x3cfd2653	0.030902063
33	0x3ccd4883	0.02505899
34	0x3dff32ad	0.124608375
35	0xbdb436ce	-0.08799516
36	0xbd972408	-0.07379919
37	0x3bffce7e	0.007806598
38	0x3ce0fcff	0.027464388
39	0x3d07ad9a	0.033124544
40	0xbd33b71d	-0.043875802
41	0x3dfc2e7e	0.12313555
42	0x3c3f0a45	0.011660163
43	0xbc1dff87	-0.009643442
44	0xbd13cd08	-0.036084205
45	0xbcf8bba9	-0.03036292
46	0xbda481be	-0.08032559
47	0xbc90a0c6	-0.017654788
48	0x3c36297b	0.011118288
49	0x3d9ca5c7	0.07648807
50	0xbd5325a7	-0.05154958
51	0xbcc73bea	-0.024320561
52	0xbc13bfda	-0.009017909
53	0x3db90aaa	0.09035237
54	0xbd8391af	-0.06424271
55	0xbe1a0e70	-0.1504457
56	0xbdd48ee1	-0.103788145
57	0xbd044fe9	-0.03230277
58	0x3c485708	0.012227781
59	0xbda531e2	-0.08066155
60	0x3da6bf19	0.08141918
61	0xbd530c72	-0.05152554
62	0x3c01993e	0.007910071
63	0x3de795b6	0.11307852
64	0xbddcba79	-0.10777754
65	0x3c461638	0.012090258
66	0x3dd06cd1	0.10177005
67	0xbbd8ba37	-0.0066139954
68	0xbdbf6c93	-0.09346881
69	0xbe27e7de	-0.16397044
70	0xbd7fc5a5	-0.062444348
71	0xbdae534b	-0.085119806
72	0x3d94997a	0.07255836
73	0xbd0784bd	-0.033085573
74	0xbda5b465	-0.08091048
75	0xbda17b4a	-0.07884844
76	0x3cc283c8	0.023744479
77	0xbc14f969	-0.009092667
78	0x3d1114d2	0.035420246
79	0x3db73b3a	0.089468434
80	0x3cd8f4bb	0.026483884
81	0x3c43e7bb	0.011957104
82	0x3cf6693f	0.030079482
83	0x3d3d5d3f	0.046231505
84	0x3c4b255d	0.012399045
85	0xbd058f40	-0.032607317
86	0xbd4b660e	-0.049657874
87	0x3d054013	0.03253181
88	0x3ddc83fc	0.107673615
89	0xbe3ab228	-0.18232024
90	0x3d148968	0.036263853
91	0xbcbf1251	-0.023324164
92	0x3d36430e	0.044497542
93	0x3d013a00	0.031549454
94	0x3b59d2ca	0.0033237212
95	0x3b1439bc	0.002261742
96	0x39913dab	0.000277025
97	0x3d714cb0	0.058911026
98	0x3ca11b30	0.019666284
99	0x3be5073c	0.006989388
100	0xbd8dc0ec	-0.069215626
101	0xbd1b20c4	-0.037873045
102	0xbc47cf9e	-0.012195496
103	0xbdc63576	-0.096781656
104	0x3d60f606	0.054922126
105	0x3c5a002a	0.013305703
106	0x3dd4befd	0.103879906
107	0x3ca8bed4	0.020598806
108	0xbd89c57b	-0.067271195
109	0xbb5ffac6	-0.0034176572
110	0x3dacfa50	0.08446181
111	0x3d931326	0.07181387
112	0xbd74c069	-0.05975381
113	0x3d959ef3	0.07305708
114	0x3dd9dd93	0.10637965
115	0x3d8b5f24	0.06805256
116	0xbcb69262	-0.022286598
117	0xbe0200fe	-0.12695691
118	0x3d4da01a	0.050201513
119	0x3e10ac6c	0.14128274
120	0xbd0473f2	-0.032337137
121	0x3d9771e3	0.07394769
122	0x3cf09c51	0.029371412
123	0xbd9af69d	-0.07566569
124	0xbdfa3312	-0.12216772
125	0x3d5dd08a	0.054153956
126	0xbcf221be	-0.029557105
127	0xbd55a101	-0.0521555
128	0x3c820094	0.015869416
129	0x3d82d878	0.063889444
130	0xbd858bb8	-0.0652079
131	0x3d3f251c	0.04666625
132	0xbd990c64	-0.074730664
133	0xbdb27ce1	-0.08715225
134	0x3c4c84a3	0.012482795
135	0xbc893cbc	-0.016752593
136	0xb6c3c28f	-5.8341025e-06
137	0xbd322a35	-0.043497283
138	0x3d3fee5b	0.046858173
139	0xbdeddcd3	-0.116143845
140	0x3cb14459	0.021639036
141	0xbae90d1a	-0.0017780394
142	0x3d5fa20b	0.054597896
143	0xbd4f5aaf	-0.050623592
144	0xbdb15e9e	-0.08660625
145	0x3c9c4704	0.019076832
146	0x3e291080	0.165102
147	0xbcd80010	-0.026367217
148	0xbd41ffcc	-0.047363088
149	0x3cb8a4d6	0.022539537
150	0xbd1280cf	-0.035767373
151	0xbd0f1ee6	-0.034941576
152	0x3d9d7625	0.0768855
153	0xbdc25cfd	-0.09490392
154	0xbe0889e8	-0.13333857
155	0xbd032a42	-0.032022722
156	0x3b52d011	0.0032167474
157	0xbdaccce9	-0.08437521
158	0x3be06b89	0.0068487567
159	0x3c6695f2	0.014073836
160	0xbd32b089	-0.04362539
161	0x3d6d4c3a	0.057934023
162	0xbdf9e60b	-0.1220208
163	0x3dab348a	0.083596304
164	0xbe42a9a5	-0.19010027
165	0xbdab80e9	-0.08374197
166	0x3da6d138	0.08145374
167	0x3d3aeca5	0.045635838
168	0xbdb261e7	-0.0871008
169	0xbe10f81e	-0.14157149
170	0x3d830854	0.06398073
171	0xbcb46eb2	-0.02202544
172	0xbdb1aae6	-0.086751744
173	0x3da99518	0.082803905
174	0xbd8688e1	-0.06569076
175	0x3af1b1b4	0.00184398
176	0x3db03f74	0.08605853
177	0xbd8a5ae8	-0.0675562
178	0xbd5f2bb3	-0.054485034
179	0x3d77d41a	0.06050501
180	0xbd620ba7	-0.055186894
181	0x3cee16e0	0.029063642
182	0xbd4f5c5b	-0.050625186
183	0xbd97a8f6	-0.074052736
184	0x3deec69e	0.11658977
185	0x3c112630	0.008859202
186	0xbcce2d79	-0.025168167
187	0xbda04578	-0.0782575
188	0xbbd79dce	-0.006580091
189	0x3d4d36ef	0.050101217
190	0x3badd718	0.005305182
191	0xbd0118f1	-0.031517927
192	0xbce7ae50	-0.02828136
193	0xbcc5d345	-0.024148593
194	0xbd8159ce	-0.06315957
195	0xbd637299	-0.05552921
196	0x3e596ca9	0.21232857
197	0xbcb6e93d	-0.022328014
198	0xba1a91bf	-0.00058963516
199	0xbcd1cef9	-0.025611388
200	0xbd4ca005	-0.049957294
201	0x3ce4e321	0.027940335
202	0x3d92e850	0.07173216
203	0x3c3d2b1b	0.011545922
204	0x3c99a049	0.018753188
205	0xbdf587d6	-0.11988799
206	0xbcb7fe30	-0.022460073
207	0x3dba5970	0.0909909
208	0xbd80ff1b	-0.062986575
209	0x3d68a309	0.056796107
210	0x3e014353	0.12623338
211	0x3de49b41	0.11162425
212	0x3c1f7209	0.009731778
213	0xbb9b0e2f	-0.0047319154
214	0x3d08e48d	0.033421088
215	0x3cdd4627	0.02701099
216	0xbc1bdc95	-0.00951304
217	0x3d81ec51	0.06343902
218	0xbe33d239	-0.17560662
219	0x3da60905	0.08107189
220	0x3d920f7a	0.07131858
221	0x3d5bc55d	0.053655017
222	0x3d0f2291	0.034945074
223	0xbceaa712	-0.028644118
224	0xbd71cf8a	-0.059035815
225	0x3d8e7e45	0.06957678
226	0xbca531e3	-0.02016539
227	0x3d0bd85b	0.03414188
228	0x3c0327e5	0.008005117
229	0x3d18949a	0.037251092
230	0x3c16f7fc	0.0092143975
231	0x3de433de	0.111427054
232	0xbd75c834	-0.06000538
233	0xbc969714	-0.018382587
234	0xbca7b84f	-0.020473627
235	0x3d9aea5d	0.075642325
236	0x3c8b533b	0.01700746
237	0xbe08d92a	-0.13364092
238	0xbd1caff1	-0.03825373
239	0x3dd53182	0.104098335
240	0x3d5aae6a	0.05338899
241	0xbd589f45	-0.052886266
242	0xbd5df739	-0.054190848
243	0xbda142ce	-0.0787407
244	0x3d556380	0.052096844
245	0xbd3cae86	-0.046064876
246	0xbd0da3d3	-0.034580063
247	0x3d65f636	0.05614301
248	0xbc94f5da	-0.018183637
249	0xbd9de0f8	-0.07708925
250	0x3d7d4c7c	0.06184052
251	0x3dfb8cf6	0.122827455
252	0x3c90ab30	0.017659754
253	0xbd8b8bf9	-0.06813807
254	0x3ce2742c	0.027643286
255	0xbd081864	-0.033226386

network_body._body_endoder.seq_layers.2.bias f4 [256]
0	0xbca6c0fc	-0.020355694
1	0xbcee98cb	-0.029125592
2	0xbc566f4a	-0.013088057
3	0xbcca4fae	-0.024696197
4	0xbcafab08	-0.021443859
5	0x3b7c845d	0.0038531043
6	0x3b14c153	0.0022698238
7	0x3c77041d	0.015076664
8	0xbc5fc5fa	-0.013658041
9	0xbc6b73b6	-0.014370849
10	0xbc62cc97	-0.013842723
11	0x396c4369	0.00022531826
12	0x397dc2da	0.00024200548
13	0xbcebee8c	-0.028800271
14	0xbcb1cbf5	-0.0217037
15	0xbce827ba	-0.028339256
16	0x3b2bbe25	0.0026205864
17	0x3b44e0e6	0.0030041276
18	0x3b8277b3	0.0039815544
19	0xbc3648fc	-0.011125799
20	0xbba3c619	-0.0049979803
21	0x3be905bc	0.0071112793
22	0xbd1ed3a5	-0.03877606
23	0x3c9ce66d	0.019152844
24	0xbcea273f	-0.028583167
25	0xbbe04568	-0.0068442114
26	0x3c9924d6	0.018694323
27	0xbd03da5b	-0.032190662
28	0xbc2a54fb	-0.0103962375
29	0xbc3225b6	-0.010873249
30	0x3c5c3521	0.013440401
31	0x3a39c57f	0.0007086619
32	0xbd321755	-0.043479282
33	0xbc95d789	-0.018291252
34	0x3a0f78cf	0.0005473019
35	0xbc84787d	-0.016170735
36	0xbb92fa93	-0.004485437
37	0x3c23eb8c	0.010004889
38	0x3c454b61	0.0120418975
39	0xbcf08023	-0.029357975
40	0xbce13d9d	-0.0274952
41	0xbcc5edd6	-0.02416126
42	0xbca44943	-0.020054465
43	0x3c46d453	0.012135583
44	0xbc0e748a	-0.008694777
45	0x3b4ce53c	0.0031264564
46	0xbd2f17d6	-0.04274734
47	0xbce033c6	-0.027368437
48	0xbc9ddc88	-0.019270197
49	0xbcca3700	-0.02468443
50	0xbd448bc1	-0.047984842
51	0x3c2d3820	0.010572463
52	0x3bcaf971	0.0061942865
53	0x3c33d661	0.010976405
54	0xbd1f7144	-0.038926378
55	0xbc331e44	-0.010932509
56	0xbc062aef	-0.008188947
57	0xbbe733f0	-0.007055752
58	0xbb9798f3	-0.0046263873
59	0xbca2a0ec	-0.019852124
60	0xbc38881e	-0.011262922
61	0xbba685f3	-0.005081886
62	0xbb9072d7	-0.004408221
63	0xbd3a4c18	-0.045482725
64	0x3c0a91e5	0.0084576355
65	0xbc552014	-0.013008136
66	0xbd0f3d37	-0.03497049
67	0xbcc6e062	-0.024276916
68	0xbcd0f0a6	-0.025505375
69	0xbbf6fd94	-0.007537553
70	0x3c703c2e	0.014662785
71	0xbc41ec12	-0.011836069
72	0xbcd66994	-0.02617339
73	0xbbf250c4	-0.007394882
74	0xbc873ebb	-0.016509404
75	0x3b4cd70d	0.003125611
76	0x3c83a966	0.016071986
77	0x3aa2127b	0.0012365127
78	0xba55262a	-0.0008130992
79	0xbb9e2ee5	-0.0048273676
80	0xbba6df10	-0.005092509
81	0xbcc9a117	-0.024612946
82	0xbaa99111	-0.001293691
83	0xbce68c15	-0.028142968
84	0x3c25875c	0.010103073
85	0xbc5f1731	-0.013616369
86	0xbc94af8b	-0.018150112
87	0x3cafb48c	0.021448396
88	0x3c40681f	0.011743574
89	0xbc00a948	-0.00785286
90	0xbcb65b02	-0.022260193
91	0xbc87e318	-0.016587779
92	0xbc51cbc7	-0.012804932
93	0x3ba133b4	0.0049194936
94	0xbc76c42a	-0.015061418
95	0xbcb03e3e	-0.021514054
96	0xbd13e99c	-0.03611146
97	0x3c02ce06	0.00798369
98	0xbcf8c7b2	-0.03036866
99	0xbce05c0a	-0.027387638
100	0xbcdeefd6	-0.027213972
101	0x3b9428d5	0.004521469
102	0xbc9adcd2	-0.018904123
103	0xbd29ebdf	-0.04148471
104	0x3cf5da32	0.03001127
105	0x3bc3819e	0.0059663793
106	0x3ad8cd1a	0.0016540617
107	0xbc81f4ba	-0.015863765
108	0x3cc982a7	0.024598433
109	0xbc7955dd	-0.015218225
110	0x3c14206d	0.009040934
111	0xbcc9855d	-0.024599725
112	0xbbdf65cb	-0.0068175546
113	0x3a68b02e	0.00088763505
114	0xba930e4a	-0.0011219468
115	0xbd01ba12	-0.03167159
116	0x3bea81b8	0.007156577
117	0xbb52f2d3	-0.0032188192
118	0x3bfc1150	0.0076924935
119	0xbc4fdb8a	-0.01268662
120	0xbba3f556	-0.0050036116
121	0xbc2b93da	-0.010472262
122	0x3cc45ba8	0.023969486
123	0xbc03c0d6	-0.008041581
124	0xbb69502e	-0.003560077
125	0xbbea9390	-0.007158704
126	0xbbe27f30	-0.0069121346
127	0x3c9d1553	0.019175207
128	0xbd1aabd7	-0.037761535
129	0xbc58178b	-0.013189207
130	0x3cd9ae11	0.02657226
131	0x3c0d9a64	0.008642767
132	0x3c96cdce	0.018408682
133	0xbd20b8e3	-0.03923882
134	0xbc69bd51	-0.014266328
135	0xbceb50f1	-0.02872512
136	0xbd23eaca	-0.040018834
137	0xbbe3e4dc	-0.0069547724
138	0xbd3bed00	-0.045880318
139	0x3ce3bc97	0.027799888
140	0x3b48e4c4	0.0030653933
141	0xbd31f9ab	-0.043450993
142	0x3c08f313	0.008358735
143	0xbbe3fe76	-0.0069578243
144	0xba1f06b6	-0.00060663687
145	0xbd02ab51	-0.03190166
146	0xbb982e79	-0.004644212
147	0xbc90bab0	-0.017667145
148	0xbc614d96	-0.013751408
149	0xbcaee5e0	-0.021349847
150	0xbd1a27d9	-0.037635658
151	0xba4f8819	-0.00079167035
152	0xbc440782	-0.011964681
153	0xbbe0a1a7	-0.006855208
154	0xbce3c606	-0.027804386
155	0xbc33dff8	-0.010978691
156	0x3be963ec	0.0071225073
157	0xbd4429a9	-0.047891293
158	0xbc82443c	-0.015901677
159	0xbc319177	-0.010837904
160	0xbcf6c5a0	-0.030123532
161	0xbc988ae4	-0.018620916
162	0xbc455079	-0.012043112
163	0xbc4c24ef	-0.0124599775
164	0x3c2cbd9d	0.010543254
165	0x3ab8b6e5	0.0014092593
166	0xbbad53ff	-0.005289554
167	0x3c28a6eb	0.010293703
168	0x3c06330c	0.008190881
169	0x3b47a41d	0.003046281
170	0xbd0ad639	-0.033895705
171	0xbc3ab193	-0.011394876
172	0xbbb1925f	-0.00541906
173	0xbca8c516	-0.02060179
174	0xbcdb0fb8	-0.026740894
175	0x3d2782bb	0.04089616
176	0xbc3b2bf3	-0.0114240525
177	0xbc81f396	-0.015863221
178	0xbd04af4f	-0.03239375
179	0x3a8fe177	0.0010977228
180	0x3c353eb3	0.011062312
181	0xbc7dc558	-0.015488945
182	0xbc826949	-0.015919344
183	0xbc8fb0e1	-0.017540397
184	0x3b78a443	0.0037939704
185	0xbc9dc5f2	-0.019259427
186	0x3c2dc66d	0.01060639
187	0x3c59f80c	0.013303768
188	0x3c1eb4f9	0.009686702
189	0xbcd0f02d	-0.02550515
190	0xbd0f1ecf	-0.03494149
191	0xbcf6c396	-0.03012256
192	0xbcb00b9a	-0.021489907
193	0xbcb589cc	-0.022160433
194	0x3d5ed13d	0.054398764
195	0xbca61582	-0.020273928
196	0x3c8f06ed	0.017459357
197	0xbb7bc17d	-0.0038414889
198	0x3b67053d	0.0035250925
199	0x3bd8939b	0.006609393
200	0xbcf9ec28	-0.030508116
201	0xbca7dc48	-0.02049078
202	0xbc588932	-0.013216304
203	0xbccca4d5	-0.024980942
204	0xbad22197	-0.0016031739
205	0xbc8a739f	-0.016900836
206	0xbcd6aec1	-0.026206376
207	0xbce2dbec	-0.027692758
208	0xbc16a808	-0.009195335
209	0xbd062bab	-0.03275649
210	0xbc0cf098	-0.008602284
211	0x3d0772d4	0.033068493
212	0xb9cff768	-0.0003966645
213	0x3c8e8c51	0.017400892
214	0x3d0f0084	0.0349126
215	0x3c0d2798	0.008615397
216	0x3b800d00	0.0039077997
217	0xbd22125f	-0.0395683
218	0xbd1cd73c	-0.0382912
219	0xbced7431	-0.028986068
220	0xbc77a244	-0.015114371
221	0xbcdcb94e	-0.026943829
222	0xbcc43484	-0.023950823
223	0x3cc73ccc	0.024320982
224	0xbc5f2de5	-0.013621782
225	0xbcaaa4d3	-0.020830547
226	0xbcdf1a0a	-0.027234096
227	0xbc99a0ea	-0.018753488
228	0x3ba76a99	0.005109143
229	0x3c28b0f6	0.010296097
230	0xbce103b1	-0.02746758
231	0x3cc153e5	0.023599574
232	0xbcfe60b3	-0.03105197
233	0xbc2e2e7b	-0.010631199
234	0x3cc1d299	0.023659991
235	0x3b42aa0a	0.0029703402
236	0x3b4cc20c	0.003124359
237	0xbcbc0eb1	-0.022956224
238	0xbc92a66e	-0.017901625
239	0x3c830839	0.015995132
240	0x3ca1ba97	0.019742293
241	0xbbba64f1	-0.0056883027
242	0xbd55175b	-0.052024227
243	0xbc1f72d7	-0.00973197
244	0xbb97bfae	-0.0046310043
245	0x3b19d5b1	0.0023473317
246	0xbc80b23d	-0.01570999
247	0xbd25c563	-0.040471446
248	0xbc863d58	-0.016386673
249	0x3cdd32e2	0.027001802
250	0xbc2358fc	-0.009969946
251	0xbce72856	-0.028217476
252	0xbcd310bb	-0.025764814
253	0xbce3ddcd	-0.027815724
254	0xbd10a338	-0.035311908
255	0x3ac70fa7	0.001518716

network_body._body_endoder.seq_layers.4.weight f4 [256, 256]
0	0x3c264300	0.01014781
1	0xbdc5bdd1	-0.09655345
2	0x3cf4b177	0.029869778
3	0xbdec30d9	-0.115327545
4	0x3d52d198	0.051469415
5	0x3c3a7f87	0.011382944
6	0xbe2d39a4	-0.1691652
7	0x3d0a917d	0.033830155
8	0xbc9b0c64	-0.018926807
9	0xbd39f0da	-0.04539571
10	0x3c9d122b	0.019173702
11	0xbbc99b4b	-0.0061525456
12	0x3c85200b	0.01625063
13	0xbd042f42	-0.03227163
14	0x3d1b2eb6	0.037886344
15	0xbdbe0e77	-0.09280103
16	0x3d8b2202	0.06793596
17	0x3c7cea02	0.015436651
18	0x3e012a27	0.12613736
19	0x3db7f08f	0.0898143
20	0x3db209b7	0.08693259
21	0x3de9c89b	0.114152156
22	0xbc88831e	-0.016664084
23	0x3dd21c7d	0.1025934
24	0x3dc4531d	0.09586165
25	0xbd2f2ba3	-0.042766225
26	0xbd2b2292	-0.041781016
27	0xbdaba00b	-0.08380135
28	0x3b37aba7	0.0028025897
29	0xbd0e3d0a	-0.03472618
30	0xbb9ec839	-0.0048456457
31	0xbd3228e8	-0.043496042
32	0xbd560c51	-0.05225784
33	0xbc48b735	-0.012250711
34	0xbdd01353	-0.10159936
35	0x3dcb9e1f	0.099422686
36	0xbcebbe29	-0.028777199
37	0xbd68879c	-0.056769952
38	0xbdae95d4	-0.08524671
39	0xbd57031a	-0.052493192
40	0xbd8ee01a	-0.06976338
41	0x3da1109c	0.07864496
42	0x3ca4966c	0.020091258
43	0x3d329896	0.04360255
44	0xbdf959ca	-0.12175329
45	0xbd8188b8	-0.06324905
46	0xbd04985e	-0.03237187
47	0xbc4f1932	-0.012640284
48	0x3d20a998	0.039224237
49	0xbcd2da15	-0.025738755
50	0x3d2e5cf0	0.0425691
51	0x3da8a5b1	0.08234728
52	0xbd51e0c5	-0.051239748
53	0x3d9dce92	0.07705416
54	0xbd3546aa	-0.044256844
55	0x3d2341b6	0.03985759
56	0xbda0343b	-0.07822462
57	0x3c96d83a	0.018413652
58	0xbd8da947	-0.06917053
59	0x3da398bc	0.07988116
60	0x3deddeee	0.11614786
61	0xbd0d4d4a	-0.034497537
62	0x3c29cf8d	0.010364425
63	0xbd003ec6	-0.031309865
64	0x3e00af84	0.12566954
65	0xbda8c326	-0.082403466
66	0x3d218fba	0.03944371
67	0xbd4a0b5e	-0.049327247
68	0x3bcc4879	0.0062342254
69	0xbc5c3dc4	-0.01344246
70	0x3e37b94e	0.17941782
71	0x3c99aa1d	0.018757874
72	0xbc91ecf6	-0.017813187
73	0xbd3b0371	-0.04565758
74	0x3d383b51	0.044978444
75	0xbd1eb521	-0.038746957
76	0xbd4bca6f	-0.049753603
77	0xbd7d4903	-0.061837208
78	0x3bcbdb73	0.0062212287
79	0x3cdadbef	0.0267162
80	0x3c96d5c6	0.018412482
81	0x3cb160f3	0.021652674
82	0x3d5a05a8	0.05322805
83	0xbd9b7762	-0.0759113
84	0x3dbed167	0.09317284
85	0x3cfbfe8a	0.030761022
86	0xbe19585d	-0.14975114
87	0x3d5d294f	0.053994473
88	0x3dfecb3e	0.12441109
89	0xbde9b441	-0.11411334
90	0x3de6cb2a	0.11269219
91	0x3ccc6be6	0.024953794
92	0xbd1020e0	-0.035187602
93	0x3d0a7488	0.03380254
94	0x3bee7f9a	0.007278395
95	0xbd538899	-0.05164394
96	0xbd679211	-0.056535784
97	0x3c0b92b1	0.008518861
98	0xbcb7ee98	-0.022452638
99	0xbce1f308	-0.027581707
100	0x3c340584	0.010987643
101	0xbc9e9782	-0.019359354
102	0xbc52d65f	-0.012868493
103	0x3dcc531b	0.099767886
104	0xbd921aa3	-0.07133987
105	0x3d98a292	0.07452883
106	0x3d611b09	0.054957423
107	0x3d14dac9	0.036341462
108	0x3d8ab2ee	0.067724094
109	0xbcdebb09	-0.027188795
110	0xbc813aae	-0.015775051
111	0xbe0a284e	-0.13491938
112	0x3d565e6d	0.052336145
113	0xbdb25749	-0.087080546
114	0xbd841de5	-0.064510144
115	0xbd132ce1	-0.03593147
116	0xbde9146e	-0.1138085
117	0xbaafa81c	-0.0013401541
118	0x3dd0d4b1	0.10196818
119	0x3da6348e	0.08115493
120	0xbd19e1a7	-0.037568714
121	0x3dca40e9	0.09875662
122	0x3d970f69	0.07375986
123	0x3cbf2465	0.023332784
124	0xbc8b660d	-0.017016435
125	0xbcb65e64	-0.022261806
126	0xbd7e9e77	-0.062162843
127	0x3d7503c8	0.05981806
128	0xbd84e35f	-0.0648868
129	0x3c70d82e	0.014699979
130	0x3d90b140	0.07065058
131	0xbc9838ed	-0.018581832
132	0x3d9270be	0.0715041
133	0x3c99a333	0.018754577
134	0xbcd4f4f4	-0.025995709
135	0xbd799fbc	-0.06094335
136	0xbd2b2891	-0.041786734
137	0xbd27b0cb	-0.040940087
138	0x3cbee231	0.023301216
139	0xbd340a51	-0.04395515
140	0xbb98786d	-0.0046530277
141	0x3d1332d2	0.035937138
142	0xbd20d7a7	-0.039268162
143	0x3d749722	0.059714444
144	0xbcd83e51	-0.026396902
145	0xbd9e8078	-0.07739347
146	0x3c25f641	0.010129512
147	0xbd903ce6	-0.070428655
148	0x3d1ff58b	0.039052527
149	0xbddc0a36	-0.10744135
150	0xbd83bef9	-0.064329095
151	0xbdc9bbf8	-0.09850305
152	0xbcbe1753	-0.023204481
153	0xbcb938df	-0.022610126
154	0x3b4f1969	0.003160084
155	0xbc8aefa8	-0.01695998
156	0x3c9eef92	0.019401345
157	0x3b7b735f	0.0038368327
158	0xbd492075	-0.04910322
159	0x3bbaed49	0.005704556
160	0xbe0ba063	-0.13635401
161	0xbde251dd	-0.110507704
162	0x3d0eb640	0.034841776
163	0xbdfe795d	-0.12425492
164	0xbc9091d9	-0.01764767
165	0xbe11ce48	-0.14238846
166	0xbc1767f3	-0.009241092
167	0xbcde8353	-0.02716223
168	0xbc3790df	-0.011203974
169	0x3bddee78	0.0067728125
170	0xb7d8b4b0	-2.5833346e-05
171	0xbb3ae656	-0.0028518639
172	0xbda2215c	-0.07916519
173	0x3bb13ac4	0.0054086167
174	0x3d9d927b	0.076939546
175	0x3db9b177	0.09067052
176	0xbdc1ab65	-0.09456519
177	0x3db629db	0.08894702
178	0xbd4b0211	-0.049562518
179	0x3cd4b5f4	0.025965668
180	0x3d883229	0.06650192
181	0xbdb3b649	-0.087750025
182	0xbd3e81fc	-0.04651068
183	0xbbc6f2a5	-0.006071406
184	0x3b670f5d	0.003525696
185	0xbd614457	-0.054996815
186	0x3d139c1d	0.036037553
187	0x3d39c731	0.04535598
188	0x3dbf1b38	0.093313634
189	0x3cde9e2b	0.02717503
190	0x3b4145a6	0.0029490977
191	0xbdd6bbed	-0.10485063
192	0xbdac1e52	-0.08404221
193	0x3d078931	0.03308982
194	0x3e03fcd1	0.1288941
195	0xbcd23ebb	-0.025664678
196	0x3cfabe33	0.030608272
197	0x3ddd2e6a	0.107998684
198	0x3c132dda	0.0089831
199	0x3d223f9b	0.03961144
200	0x3bc94bcb	0.0061430684
201	0xbda1f4d4	-0.079080254
202	0x3cc687ff	0.02423477
203	0x3d83452a	0.064096764
204	0xbb05bfb1	-0.0020408446
205	0xbdb05a43	-0.08610966
206	0x3d8aacc7	0.06771236
207	0x3ce923bc	0.028459422
208	0x3db3f8fe	0.08787726
209	0x3deb325c	0.11484215
210	0xbdb4c790	-0.08827126
211	0xbc991a14	-0.018689193
212	0x3c457706	0.012052303
213	0x3db745fc	0.08948895
214	0x3d678ab3	0.05652876
215	0x3d888840	0.066666126
216	0x3d65c25e	0.056093566
217	0xbcfcb95e	-0.030850109
218	0x3ce8f990	0.028439313
219	0xbdb692c1	-0.0891471
220	0xbb23d6b7	-0.0024999806
221	0x3d9b4e4d	0.07583294
222	0x3d6cfe5c	0.057859764
223	0x3d0fa0f5	0.03506561
224	0xbe2bca48	-0.16776383
225	0xbd00e197	-0.03146514
226	0xbcb4d056	-0.022071999
227	0xbd7e981e	-0.06215679
228	0x3d1e99e4	0.03872098
229	0xbc83ca93	-0.016087806
230	0xbe00d7c4	-0.12582308
231	0x3c5ea1b4	0.013588358
232	0x3c7b69e7	0.015345073
233	0x3cd5c334	0.026094057
234	0x3d6095d9	0.054830406
235	0x3b6fca5a	0.0036589117
236	0xbdfb70ed	-0.12277398
237	0xbb622222	-0.0034505208
238	0x3d99e7ac	0.07514891
239	0xbc7d0685	-0.015443449
240	0x3d7f0ac2	0.06226612
241	0xbd81dd60	-0.06341052
242	0x3d9da016	0.076965496
243	0xbbda5256	-0.0066626472
244	0xbcef119f	-0.029183207
245	0xbdd797d1	-0.105270036
246	0xbdec8f81	-0.11550809
247	0x3dc3223a	0.095280126
248	0xbc8b883d	-0.017032737
249	0xbc602e06	-0.013682848
250	0xbcde337f	-0.027124165
251	0x3ddf1925	0.10893468
252	0xbe068304	-0.13135916
253	0xbcdb1941	-0.02674544
254	0x3c0109c0	0.00787586
255	0xbd9ce5b4	-0.07661

network_body._body_endoder.seq_layers.4.bias f4 [256]
0	0x3c198a82	0.009371402
1	0xbcb853da	-0.022500921
2	0xbb3a8ae4	-0.0028464133
3	0xbd0619e3	-0.03273953
4	0xbc822818	-0.015888259
5	0xbc1c5527	-0.009541786
6	0xbc004273	-0.007828343
7	0xbceef76e	-0.029170718
8	0xbc9ebda9	-0.019377546
9	0xb9fb3d4f	-0.0004792013
10	0xbb3bb434	-0.0028641345
11	0xbb8a6327	-0.0042232457
12	0x3b3f1f17	0.0029162818
13	0xbc643971	-0.013929711
14	0x3b86ae5c	0.0041101407
15	0xbccc4c7d	-0.024938816
16	0x3b910e1f	0.004426732
17	0xbcdfe304	-0.02732993
18	0xbbd5f24c	-0.006529128
19	0xbbcb84e6	-0.006210911
20	0xbc2733e0	-0.010205239
21	0xbd2433ab	-0.040088337
22	0xbd1d48af	-0.038399395
23	0x3b2da4db	0.0026495967
24	0xbbd7aef6	-0.0065821363
25	0x3c266efb	0.010158296
26	0xbd1ed377	-0.038775887
27	0xbcc8fbf5	-0.024534205
28	0x3c34aebb	0.011027987
29	0xbc5d0ee5	-0.013492321
30	0xbc935edf	-0.017989574
31	0x3c58c541	0.013230623
32	0x3cb5561f	0.022135792
33	0xbb916f5f	-0.0044383253
34	0xbd18def7	-0.03732201
35	0x3b1a2c7a	0.0023525045
36	0x3c23f20c	0.010006439
37	0x3c516636	0.012780717
38	0x3c90e34d	0.01768651
39	0x3c5070ad	0.0127221765
40	0xbce06999	-0.027394103
41	0x3cc64e63	0.0242073
42	0x3d0dd1c8	0.03462389
43	0x3c3d2072	0.01154338
44	0xbc5e0a87	-0.013552315
45	0x3bcd4463	0.006264256
46	0xbc9ddf01	-0.019271376
47	0xbcfbd43f	-0.030740855
48	0xbc32ad2f	-0.010905548
49	0xbc9684ab	-0.018373808
50	0xbd115bf3	-0.03548808
51	0x3c16a4dc	0.009194579
52	0xbce9783e	-0.028499719
53	0xbd00c57a	-0.03143833
54	0x3c6245b8	0.013810568
55	0xbd2c7fcb	-0.04211406
56	0xbcba35e1	-0.02273077
57	0x3c654074	0.013992418
58	0x3d0a6d10	0.033795416
59	0x3ccd9a4d	0.02509799
60	0xbc2a354d	-0.010388684
61	0xbae193ab	-0.0017210146
62	0xbbd8b36f	-0.006613187
63	0x3cce362d	0.025172317
64	0x3c227fa5	0.009918128
65	0x3c6950d9	0.014240467
66	0xbcfe42c6	-0.0310377
67	0xbcf11193	-0.029427325
68	0xbd1f1995	-0.038842756
69	0xbc68e73e	-0.014215289
70	0xbc92bec7	-0.017913235
71	0xbc51b173	-0.012798655
72	0x3c809369	0.01569529
73	0xba7939ad	-0.00095071906
74	0x3bcbe35d	0.006222172
75	0x3d3043af	0.043033298
76	0x3b2931b0	0.002581697
77	0xbbfb91b8	-0.007677283
78	0xbc52afed	-0.012859327
79	0xbcb03113	-0.021507775
80	0xbc85b390	-0.016320974
81	0xbb8ad088	-0.0042362846
82	0x3c4ca1c3	0.012489739
83	0x3cc61178	0.024178252
84	0xbce26e74	-0.027640559
85	0x3cd27901	0.025692465
86	0xbce74021	-0.028228821
87	0x3c17c1a8	0.00926248
88	0x3c9e63d0	0.019334704
89	0xbbf228bc	-0.00739011
90	0xbd2cd748	-0.042197496
91	0x3ca127ec	0.019672357
92	0x3cdcbe8c	0.026946329
93	0xbd1e71a5	-0.0386826
94	0x3b904fa9	0.0044040275
95	0x3bbd6d74	0.00578087
96	0xbcead927	-0.028668
97	0x3cce17bc	0.025157802
98	0x39ddebfb	0.00042328224
99	0x3b31a825	0.0027108279
100	0xbc574c62	-0.01314077
101	0xbcc25796	-0.023723405
102	0x3c7a0c6a	0.015261749
103	0x3bbeef1d	0.0058268444
104	0xbc394303	-0.011307481
105	0xbb3cffd5	-0.0028839011
106	0xb9cdb7e9	-0.0003923767
107	0x3c804cac	0.01566156
108	0x3c41fc24	0.0118399
109	0x3b7f7c9e	0.003898419
110	0xbd2f6a6d	-0.042826105
111	0xbd1d279c	-0.038367853
112	0xbb443094	-0.0029936181
113	0xbc9bd277	-0.019021256
114	0x3c22f546	0.009946173
115	0x3baee3eb	0.0053372285
116	0x3c191a36	0.009344628
117	0xbb21db2f	-0.0024697294
118	0x3d425726	0.047446392
119	0x3c7e3474	0.0155154355
120	0x39489ab8	0.00019131124
121	0xbbc9ce1b	-0.006158603
122	0xbbb069c1	-0.0053837006
123	0xbbed565c	-0.007242961
124	0x3c884e7f	0.016638992
125	0x3cbcd5b0	0.023051113
126	0xbcfca464	-0.030840106
127	0x3cf16586	0.029467355
128	0xbb1497cb	-0.0022673483
129	0xbca8b5e9	-0.020594554
130	0x3ca371b7	0.019951684
131	0xbcba060f	-0.022707967
132	0xbcd5af19	-0.02608447
133	0xbc13966e	-0.009008033
134	0xbcc0f497	-0.02355413
135	0xbd18b700	-0.037283897
136	0x3c828c0c	0.01593592
137	0x3cb8e5bd	0.022570485
138	0xbd02baa6	-0.031916283
139	0xbd08d589	-0.033406768
140	0x3c59973b	0.013280685
141	0xbccbf869	-0.024898725
142	0x3c0029f9	0.007822507
143	0xbd3862c7	-0.045016076
144	0xbcea93e0	-0.028634965
145	0x3c535493	0.012898582
146	0xbc51148a	-0.012761245
147	0x3c830064	0.015991397
148	0xbc5116e0	-0.0127618015
149	0xbd342127	-0.04397693
150	0xbcfd742a	-0.03093918
151	0xbc0c6827	-0.008569754
152	0xbba1dfbe	-0.004940002
153	0x3c2bca85	0.010485296
154	0xbc27d731	-0.010244177
155	0x3c8d07ce	0.017215636
156	0xbce57548	-0.028010026
157	0x3bb900e3	0.0056458577
158	0xbca8ed3f	-0.02062094
159	0xbbb3b71e	-0.0054844758
160	0xbb966ee4	-0.004590856
161	0xbbc16ef2	-0.0059031183
162	0xbbbfb567	-0.0058504823
163	0xbb2ec70f	-0.002666894
164	0x3c054aa8	0.008135475
165	0xbcb843b1	-0.022493215
166	0xbc8fe8cb	-0.017567059
167	0x3bab0bf3	0.0052199303
168	0x3ce16c0c	0.027517341
169	0x3cda03cc	0.026613139
170	0x3c68d8ab	0.014211814
171	0x3caa46bd	0.020785684
172	0xbc62aa8c	-0.013834607
173	0x3c8cd395	0.017190734
174	0xbcb385fc	-0.021914475
175	0xbd56854a	-0.052373208
176	0xbc8b3e6f	-0.016997544
177	0xbc9fa67e	-0.01948857
178	0x3bb176f7	0.005415793
179	0x3b5b8fd7	0.0033502483
180	0xbc863ee3	-0.016387409
181	0x3c2528e0	0.010080546
182	0xbceaea88	-0.028676286
183	0xbd06f622	-0.032949574
184	0x3bfe710c	0.007764941
185	0x3c4d29ba	0.012522155
186	0xbc65fd51	-0.014037446
187	0x3c94473a	0.01810037
188	0xbca3a99b	-0.019978335
189	0x3c50d16e	0.012745244
190	0xbcb1d995	-0.021710197
191	0x3c33b99f	0.0109695485
192	0x3b573b6f	0.0032841822
193	0x3bc3bade	0.005973204
194	0xbcbaaed3	-0.02278844
195	0x3cb9cdf0	0.022681206
196	0xbcb16c62	-0.021658126
197	0xbc7105f8	-0.014710896
198	0x3ca10829	0.019657211
199	0xbba486e9	-0.0050209654
200	0xbca86718	-0.020556971
201	0xbb1e1ec0	-0.0024127215
202	0x3b2c63f0	0.0026304685
203	0xbc4e2680	-0.012582421
204	0xbb49e7ec	-0.0030808402
205	0xbce33833	-0.027736759
206	0xbcc9e84b	-0.024646899
207	0xbced828b	-0.028992912
208	0x3ba797aa	0.0051145153
209	0x3ca2c6ce	0.019870188
210	0x3a475617	0.0007604076
211	0xbbd2924d	-0.006426132
212	0x3ba77769	0.0051106703
213	0xbcc4e525	-0.024035046
214	0xbc96930c	-0.018380664
215	0xbcb5b9ba	-0.022183288
216	0x3b907eb3	0.004409635
217	0xbcbe56fa	-0.023234833
218	0x39fc61ca	0.00048138044
219	0xbafc37ba	-0.0019242682
220	0xbca92001	-0.020645143
221	0xbc801c37	-0.015638454
222	0x3bd81154	0.0065938625
223	0x3a273285	0.00063780724
224	0xbbbfd9a4	-0.005854802
225	0xbd02279a	-0.03177605
226	0xbc844a97	-0.016148848
227	0xbd13de38	-0.036100596
228	0xbc2c7a5b	-0.010527219
229	0x3b28c796	0.0025753728
230	0xbc33af38	-0.010967068
231	0x3bd3efb2	0.006467783
232	0x3bf2a96c	0.0074054506
233	0xbd22de74	-0.03976293
234	0xbd398719	-0.045294855
235	0x3bd5a2b3	0.0065196394
236	0x3b9e6ad9	0.0048345146
237	0xbc0ff217	-0.008785746
238	0x3ab22496	0.0013591226
239	0x3b1cddde	0.0023935954
240	0xbd24e704	-0.040259376
241	0xba8d6c2a	-0.0010789682
242	0xbcc47f51	-0.02398649
243	0xbc09bb9f	-0.008406549
244	0x3c6e01f7	0.014526836
245	0x3c674add	0.01411697
246	0x3a487204	0.0007646384
247	0x3c8322d9	0.016007828
248	0xbca8beba	-0.020598758
249	0x3c6dd048	0.01451499
250	0xbc9a995a	-0.018871952
251	0xbcfcf5ee	-0.030878987
252	0x3c110567	0.008851386
253	0x3ccd23a7	0.025041414
254	0xbbd6c3e9	-0.006554116
255	0xbc82dd2f	-0.01597461

network_body._body_endoder.seq_layers.6.weight f4 [256, 256]
0	0xbdf20e62	-0.118191496
1	0xbbe89a33	-0.00709846
2	0x3d8f308d	0.06991682
3	0xbb896b12	-0.004193672
4	0x3d4857aa	0.048911728
5	0x3cb1572d	0.021648014
6	0xbd8f3703	-0.069929145
7	0x3d9d28d8	0.07673806
8	0xbba6191c	-0.0050689112
9	0x3cb595fd	0.022166247
10	0xb913f3c6	-0.00014109825
11	0xbe093a23	-0.13401084
12	0xbd303e4a	-0.043028153
13	0xbd16268c	-0.036657855
14	0xbd88d5b0	-0.06681383
15	0x3d3cd6bb	0.04610322
16	0xbcdf4a9e	-0.02725726
17	0x3da51cbf	0.080621235
18	0xbd6599bb	-0.056054812
19	0xbd929935	-0.07158128
20	0x3d22b0d7	0.03971943
21	0x3a850864	0.0010149595
22	0xbc515b4b	-0.012778114
23	0xbd705638	-0.058675975
24	0x3de674db	0.11252757
25	0x3cc418c0	0.023937583
26	0xbd3c9da9	-0.046048794
27	0x3daf6cd2	0.08565678
28	0xbd37d97a	-0.044885136
29	0x3d900b5a	0.07033415
30	0xbdc99bb7	-0.098441534
31	0x3dab256a	0.083567455
32	0x3d80521e	0.062656626
33	0x3c6b536c	0.014363151
34	0x3e2a3055	0.1662
35	0x3d91156c	0.07084164
36	0x3c048346	0.008087939
37	0x3cad43b4	0.021150447
38	0xbd88f17f	-0.06686687
39	0xbc4e11a5	-0.012577449
40	0x3bdab587	0.006674472
41	0x3cfd6ebf	0.030936597
42	0xbcfd0812	-0.030887637
43	0xbdea4a3f	-0.114399426
44	0x3e127ec7	0.14306174
45	0x3d40fcb8	0.04711601
46	0x3cbbe296	0.022935193
47	0x3de15472	0.11002435
48	0xbb0305e3	-0.0019992522
49	0xbca40452	-0.020021591
50	0x3b8e872d	0.0043496103
51	0xbbb6fe7f	-0.0055845375
52	0x3e1e9f52	0.15490463
53	0x3d63f6ae	0.055655174
54	0x3e0324d6	0.1280702
55	0xbd46020d	-0.0483418
56	0x3d6e6af7	0.05820748
57	0x3dcfda14	0.10149017
58	0x3cb0883c	0.021549337
59	0xbc176a84	-0.009241704
60	0xbbc5ce91	-0.0060365875
61	0xbd0c7da2	-0.0342995
62	0x3d2afa30	0.041742504
63	0xbd2e8ba2	-0.042613633
64	0xbc19e8c1	-0.009393872
65	0x3d8ac201	0.067752846
66	0x3d6b571a	0.057456113
67	0x3db4d758	0.08830136
68	0x3d6ca5a6	0.057775162
69	0x3d4b65fa	0.0496578
70	0xbd9a0378	-0.07520193
71	0x3d3a6b27	0.045512345
72	0x3bcc303b	0.0062313355
73	0xbdab3c61	-0.08361126
74	0x3db1cba0	0.086814165
75	0xbe0425c6	-0.12905034
76	0xbc0b40b1	-0.00849931
77	0x3d4c0ed7	0.04981884
78	0xbbb6c096	-0.0055771573
79	0x3c850df4	0.016242005
80	0x3d75e4d4	0.06003268
81	0x3cb850b7	0.022499425
82	0x3ccdee49	0.025138037
83	0x3c4933ab	0.012280385
84	0xbb809c35	-0.0039248713
85	0x3ce3e24f	0.027817873
86	0x3dbf5ac0	0.09343481
87	0x3d8d1f56	0.068907425
88	0xb7a7181a	-1.9919175e-05
89	0xbd1eff96	-0.038817964
90	0x3c7b7c42	0.01534945
91	0x3d850e98	0.06496924
92	0xbd0544c8	-0.032536298
93	0xbdb025b4	-0.08600941
94	0x3d8f0d7e	0.06984995
95	0xbd9674aa	-0.07346471
96	0xbd99b020	-0.07504296
97	0x3e165115	0.14679368
98	0xbd3758dd	-0.04476248
99	0xbd7dcd63	-0.06196345
100	0xbd4f2176	-0.05056902
101	0x3d1e4ef6	0.03864952
102	0x3c9ae9b7	0.018910272
103	0xbc1ed869	-0.009695151
104	0x3dce71da	0.10080309
105	0xbd9f07ab	-0.077651344
106	0x3d114c43	0.03547312
107	0x3da57619	0.08079166
108	0xbdca21f0	-0.09869754
109	0x3d970a6b	0.07375034
110	0x3be93d98	0.0071179383
111	0x3e112b2d	0.14176627
112	0xb7711518	-1.4369631e-05
113	0xbd0dd75d	-0.034629215
114	0xbc3f1f68	-0.011665203
115	0x3dc94aef	0.098287456
116	0x3cf83fdf	0.030303894
117	0x3ddbc70a	0.10731323
118	0x3d451e0a	0.04812435
119	0x3de4448a	0.11145885
120	0xbd0ffd06	-0.03515341
121	0xbc8afcb0	-0.016966194
122	0xbbd817be	-0.006594627
123	0xbdf6894f	-0.12037908
124	0xbbb848c0	-0.005623907
125	0xbda35b9c	-0.079764575
126	0xbcd72fe7	-0.026267959
127	0x3c35d28f	0.011097564
128	0xbc6b91e1	-0.014378042
129	0xbd9b2a23	-0.07576396
130	0x3d913149	0.070894785
131	0x3d3989a3	0.045297276
132	0xbd46aecd	-0.048506547
133	0x3da077ca	0.07835348
134	0xba8707cc	-0.0010302006
135	0xbde403b2	-0.11133517
136	0xbd81cd60	-0.06338
137	0xbd2ea078	-0.042633504
138	0xbc002e31	-0.007823513
139	0xbe017dc4	-0.12645632
140	0x3cfdc81d	0.03097921
141	0xbe172d25	-0.14763315
142	0x3d041409	0.03224567
143	0xbd02d1eb	-0.031938475
144	0xbd26dcf1	-0.04073805
145	0xbd707bed	-0.058711935
146	0x3da2cb2d	0.07948909
147	0xbd51286b	-0.051063936
148	0x3d2ca431	0.042148773
149	0x3dc76299	0.09735603
150	0x3db13c97	0.08654135
151	0x3c7abd2b	0.01530389
152	0x3d207c65	0.039181132
153	0xbcefd2eb	-0.029275378
154	0xbd9a8c4f	-0.07546293
155	0xbdafa901	-0.08577157
156	0xbdb639c1	-0.088977344
157	0xbd40f501	-0.047108654
158	0x3b7809cb	0.0037847634
159	0x3c89e6e1	0.016833724
160	0xbc6cbd33	-0.0144494055
161	0x3d0e5fd9	0.034759376
162	0xbb301f9e	-0.0026874314
163	0xbca50311	-0.020143064
164	0xbd99d0f0	-0.07510555
165	0xbc1a05e1	-0.009400816
166	0xbc9b8fe5	-0.018989513
167	0xbd560c2e	-0.05225771
168	0xbd853a66	-0.06505279
169	0xbccb4111	-0.0248113
170	0x3d6ece7a	0.05830238
171	0x3cd6747e	0.026178595
172	0xbd1d6acb	-0.038431924
173	0xbd871bbc	-0.06597087
174	0x3d246637	0.040136542
175	0x3c951d67	0.018202497
176	0x3e053e33	0.13012008
177	0x3c3e4a43	0.011614385
178	0x3ba1a42b	0.0049329004
179	0x3d88f7f2	0.06687917
180	0x3de24813	0.11048903
181	0xba95a2f1	-0.0011416358
182	0x3d5f8148	0.05456665
183	0xbd9a823b	-0.07544371
184	0x3d41ded6	0.047331654
185	0x3d932806	0.07185368
186	0xbd092154	-0.03347905
187	0xbd6da026	-0.058014058
188	0x3d90a86e	0.070633754
189	0xbdd3b8d4	-0.103379875
190	0xba872fd1	-0.0010313933
191	0xbdafd7ec	-0.08586106
192	0xba0209ad	-0.0004960548
193	0xbd15dd83	-0.036588203
194	0xbd357e28	-0.044309765
195	0xbc8fe126	-0.017563414
196	0x3d9c2938	0.07625049
197	0x3d9b9d61	0.07598377
198	0xbdd0b122	-0.101900354
199	0x3e16f515	0.14741929
200	0xbdeb05c0	-0.11475706
201	0xbd88003b	-0.06640669
202	0x3ddebfe5	0.10876445
203	0xbd61e03b	-0.055145483
204	0x3abc1e08	0.0014352212
205	0x3c8e80db	0.017395427
206	0x3be77b9e	0.007064297
207	0x3d3e9be9	0.046535406
208	0x3cb1d535	0.02170811
209	0x3e031625	0.12801416
210	0x3d898ecf	0.06716692
211	0x3d832f55	0.06405512
212	0x3cf4f24b	0.02990069
213	0x39fd1262	0.00048269617
214	0x3d91f2ad	0.07126365
215	0x3d9d7311	0.07687963
216	0x3c685450	0.014180258
217	0x3d26f8e5	0.040764708
218	0xbcbbb9d0	-0.02291575
219	0x3d4ce2ad	0.050020862
220	0x3e2475ee	0.16060612
221	0xbc96f044	-0.018425114
222	0xbd868577	-0.06568425
223	0x3cbbe555	0.022936502
224	0xbdfb283d	-0.12263534
225	0x3c95f7b9	0.0183066
226	0xbe062d83	-0.13103299
227	0x3d0efc49	0.034908567
228	0x3dfb6eb2	0.12276973
229	0x3ce94df5	0.028479556
230	0x3e2ced14	0.16887313
231	0x3db9a8b7	0.09065383
232	0xbd34f475	-0.044178445
233	0x3d9137d5	0.07090727
234	0xbda8d692	-0.08244051
235	0x3ddce5b7	0.10786002
236	0x3c8ad51b	0.01694732
237	0x3c626a3e	0.013819275
238	0xbd33a6d6	-0.04386028
239	0xbd91125f	-0.07083582
240	0x3db23115	0.08700768
241	0x3d9a8aa5	0.075459756
242	0xbdf41360	-0.11917758
243	0x3cb90a9b	0.022588065
244	0xbd24b900	-0.040215492
245	0xbc907439	-0.017633544
246	0x3c1d0eb4	0.009586025
247	0x3d66db84	0.05636169
248	0x3cbce717	0.023059411
249	0xbd82aa5b	-0.06380149
250	0x3c973a9f	0.01846057
251	0xbd00f202	-0.031480797
252	0x3da649b3	0.08119526
253	0x3b05248e	0.0020315978
254	0xbcf7f98f	-0.030270366
255	0xbd156035	-0.036468703
