Assets/ML_PPO/results/headless_22/BoatAgent.onnx (onnx, 945870 bytes, 21 tensors)

discrete_action_output_shape f4 [1, 6]
2.0 2.0 2.0 2.0 2.0 2.0
00000000: 0000 0040 0000 0040 0000 0040 0000 0040
00000010: 0000 0040 0000 0040

network_body._body_endoder.seq_layers.0.weight f4 [256, 133]
-0.010939395 0.02499879 -0.059228953 0.059764124 0.059007697 -0.15608145 0.042601332 0.061791595
-0.08328042 0.08221341 -0.08098315 -0.056742046 0.1366841 0.04209584 0.0602048 -0.0136702275
0.04599925 -0.006540756 0.08374651 0.18672524 0.09294782 -0.060306616 -0.044196595 0.01709036
-0.08589395 -0.01647184 -0.009546922 -0.11634863 -0.048354674 0.07193647 0.038683675 -0.019886319
0.05252787 0.060840063 0.052366674 -0.2274656 0.017355142 -0.08967001 0.1268755 -0.07832666
0.057204872 -0.12583715 0.06713307 0.1837447 0.06696527 0.02412018 -0.06619323 0.024084281
0.12873136 -0.086948134 0.13677065 0.047002606 -0.0027446155 0.0310923 0.007807975 -0.048636343
-0.05312503 0.09849037 0.048159912 0.07196891 -0.024317827 0.07107759 0.1575881 -0.19794309
-0.031715214 -0.075458504 -0.13233912 0.116891615 0.1036332 0.001987045 -0.035862688 -0.076530114
-0.040619005 0.060059063 0.10351435 0.011853471 0.10340309 0.07048397 -0.041315593 0.071544364
0.047547366 0.054166473 -0.010838768 0.06647559 0.002580839 -0.0070468667 -0.0918254 0.032655783
-0.0429038 -0.02253254 -0.0060197427 -0.010358135 0.0066540763 -0.08114017 0.08554593 -0.14958769
-0.08539738 -0.0050461325 0.030072145 0.080948465 0.008434563 0.06897648 0.107150465 -0.03991989
-0.08967631 -0.023124376 0.14827831 -0.0841244 0.011716306 -0.058500424 -0.1796679 0.060252976
0.03446366 -0.08943072 -0.074862964 -0.028871877 0.034450077 0.053131122 0.14170425 -0.010253665
-0.033997517 -0.013107781 0.033802867 0.04097422 0.058596406 -0.03029088 -0.11643687 0.0032975224
-0.034305487 -0.0014932669 0.020810273 0.07436429 -0.063131675 -0.07997827 -0.12141749 0.12864228
0.1617996 -0.022083297 -0.0199105 0.119681604 -0.06511364 0.08708028 0.07683466 -0.2665784
0.18887003 -0.037013512 0.11267074 -0.08142887 0.0012359238 -0.20177884 0.121550545 -0.051082563
0.021172876 0.028923266 -0.07129185 -0.09222453 -0.040216494 -0.10047771 0.26893157 -0.090222016
-0.047920227 0.029113596 -0.1537144 0.024385853 0.055671535 0.065785594 -0.14852473 0.10644966
0.08009268 0.21086583 -0.057042953 0.002764271 0.08478301 0.017696735 -0.110644184 0.0027915942
-0.045852125 -0.018152593 0.010891986 0.08081072 0.020688578 0.16486357 -0.19812693 0.104699984
0.08241536 0.033158824 -0.047424406 -0.16436464 -0.00028995197 -0.16187836 -0.12451166 0.10628476
0.016001733 0.044078533 -0.03091047 0.15038116 0.020210333 0.13386352 -0.09795113 -0.11728524
0.07502679 0.018416744 0.009001867 -0.1695751 0.18077576 -0.03990634 0.0050827763 0.0129375495
-0.1428365 -0.01943384 0.038005505 0.027769929 -0.018452648 0.014339148 0.016989741 -0.040858153
0.07321076 -0.10802577 0.03535177 0.12829328 -0.0021437113 0.051643837 0.10473073 -0.06141447
0.029244978 -0.053382143 0.010927369 -0.09111376 -0.0069221715 0.12702443 -0.09832275 -0.06249612
-0.037916806 0.120956115 0.16840343 0.07694101 0.09741656 0.09587644 -0.055060796 -0.003402383
-0.093410745 0.0035481257 -0.09544973 -0.08223843 0.08173944 -0.0037395807 0.11166815 -0.12306148
-0.00927758 -0.025627207 -0.121655405 -0.077809624 0.06832638 0.09954303 0.12872487 -0.088597804
00000000: 263b 33bc 43ca cc3c 0f9a 72bd 3acb 743d
00000010: 0eb2 713d d1d3 1fbe bc7e 2e3d 2f19 7d3d
00000020: ed8e aabd 815f a83d 7eda a5bd 596a 68bd
00000030: ebf6 0b3e b06c 2c3d 4f99 763d 17f9 5fbc
00000040: b669 3c3d d753 d6bb 4a83 ab3d e734 3f3e
00000050: 6d5b be3d 1204 77bd 7d07 35bd 1501 8c3c
00000060: 2be9 afbd f4ef 86bc b16a 1cbc 3148 eebd
00000070: 8d0f 46bd 6e53 933d c672 1e3d a2e8 a2bc
00000080: 7727 573d 6e33 793d 707e 563d beec 68be
00000090: 5f2c 8e3c e9a4 b7bd a7eb 013e ba69 a0bd
000000a0: a84f 6a3d 74db 00be 107d 893d 9227 3c3e
000000b0: 1625 893d af97 c53c 5190 87bd 664c c53c
000000c0: 27d2 033e dd11 b2bd 9b0d 0c3e ce85 403d
000000d0: 02df 33bb 47b5 fe3c 0bda ff3b e736 47bd
000000e0: a299 59bd 52b5 c93d 5443 453d 7064 933d
000000f0: 2e36 c7bc 2191 913d c65e 213e 98b1 4abe
00000100: d0e7 01bd fd89 9abd e883 07be df64 ef3d
00000110: a53d d43d 1539 023b c1e4 12bd d2bb 9cbd
00000120: 1d60 26bd 7e00 763d 55ff d33d 1035 423c
00000130: 00c5 d33d e659 903d 8a3a 29bd da85 923d
00000140: 07c1 423d aadd 5d3d 1795 31bc 5b24 883d
00000150: 4b23 293b 67e9 e6bb f50e bcbd 12c2 053d
00000160: e5bb 2fbd 2996 b8bc 4341 c5bb 2bb5 29bc
00000170: 700a da3b d12c a6bd b432 af3d 842d 19be
00000180: d2e4 aebd 075a a5bb dc59 f63c 4fc8 a53d
00000190: 1f31 0a3c 8a43 8d3d b471 db3d 0a83 23bd
000001a0: 37a8 b7bd 556f bdbc 45d6 173e 6a49 acbd
000001b0: c0f5 3f3c 249e 6fbd ddfa 37be d3cb 763d
000001c0: c429 0d3d 7427 b7bd c151 99bd b784 ecbc
000001d0: 861b 0d3d 05a0 593d eb1a 113e fdfe 27bc
000001e0: fb40 0bbd 05c2 56bc e074 0a3d 95d4 273d
000001f0: c902 703d 9424 f8bc 7476 eebd 3f1b 583b
00000200: e983 0cbd b9b9 c3ba 4e7a aa3c 4e4c 983d
00000210: 2e4b 81bd a6cb a3bd bca9 f8bd cdba 033e
00000220: cbae 253e 08e8 b4bc 581b a3bc a11b f53d
00000230: 4d5a 85bd 2557 b23d 7d5b 9d3d f77c 88be
00000240: 2567 413e 7b9b 17bd ebbf e63d 2ec4 a6bd
00000250: b9fe a13a 1d9f 4ebe 7eef f83d f33b 51bd
00000260: bd72 ad3c 7cf0 ec3c 7601 92bd 37e0 bcbd
00000270: 0dba 24bd 42c7 cdbd 66b1 893e 52c6 b8bd
00000280: 0048 44bd a37f ee3c 4f67 1dbe d7c4 c73c
00000290: d607 643d 99ba 863d de16 18be 4802 da3d
000002a0: a207 a43d 36ed 573e dfa5 69bd c628 353b
000002b0: b7a2 ad3d bef8 903c 6b99 e2bd 2ef3 363b
000002c0: 70cf 3bbd bfb4 94bc 4d74 323c 1780 a53d
000002d0: 187b a93c ffd1 283e c9e1 4abe f26c d63d
000002e0: 62c9 a83d 8cd1 073d 1840 42bd 344f 28be
000002f0: b204 98b9 71c3 25be f8ff febd d3ab d93d
00000300: 1116 833c b18b 343d f437 fdbc 85fd 193e
00000310: 2490 a53c 8513 093e 9a9a c8bd 3e33 f0bd
00000320: a5a7 993d b6de 963c 917c 133c 18a5 2dbe
00000330: 481d 393e d574 23bd 6b8d a63b 04f8 533c
00000340: bb43 12be b733 9fbc a9ab 1b3d c37d e33c
00000350: 022a 97bc bfee 6a3c 122e 8b3c e15a 27bd
00000360: 86ef 953d 9d3c ddbd 05cd 103d 505f 033e
00000370: 827d 0cbb 7d88 533d 117d d63d bd8d 7bbd
00000380: 2a93 ef3c 3ca7 5abd b508 333c da99 babd
00000390: 62d3 e2bb b112 023e 705d c9bd eefb 7fbd
000003a0: a74e 1bbd d7b7 f73d f371 2c3e 4093 9d3d
000003b0: 5582 c73d de5a c43d 6e87 61bd 84fa 5ebb
000003c0: 224e bfbd ac87 683b 267b c3bd 9f6c a8bd
000003d0: 0267 a73d c113 75bb 45b2 e43d a807 fcbd
000003e0: fe00 18bc 26f0 d1bc 7826 f9bd a75a 9fbd
000003f0: b3ee 8b3d 37dd cb3d 74d0 033e c472 b5bd

network_body._body_endoder.seq_layers.0.bias f4 [256]
0.0037483675 0.00062884635 -0.0002279037 -0.0015011936 0.0023135974 0.00012764755 0.0014954368 -0.0033127423
-0.0036823617 0.0035818105 -0.0060374583 -0.0027447962 -0.0020034194 -0.0027767809 0.0017833613 0.001766736
-0.0028763032 0.00040344882 -0.0034655505 -0.0010269922 0.0029086072 -0.0037318163 -0.0032494583 0.00077828916
-4.6010162e-05 -0.0002373809 0.002280401 0.00041639592 -0.00020002403 0.00058392744 -0.0013375569 -0.0014216964
0.0012281302 -0.0024156522 0.00030228993 7.0034126e-05 -0.0011616104 -0.0011070723 0.0003739174 -0.003173242
9.107439e-05 0.0023650608 -0.0018144448 -0.0024303244 -0.0012105373 0.0030461838 -0.0038094171 0.0011531136
-0.0040652957 -0.003943151 0.0005440031 -0.0010773331 0.0010637502 0.0032712854 -0.0015798566 -0.0033161612
0.0010030029 -0.0014271288 0.003950447 0.00026377014 -0.0017737375 0.00066363043 -0.0005255079 0.0014488033
-0.001722758 0.00091654196 -0.0014487737 -0.002114017 -0.004879119 -0.0028006576 0.0006235625 -0.0016484953
0.0016334649 0.003742077 -0.0022352978 0.0011048107 0.0071428735 -0.0023180265 -0.00014454742 -0.0017432134
-0.0032312176 0.002080899 0.0009221942 -0.0055266703 0.00026347642 -0.00047592842 0.0044500316 0.00092114956
0.0015387352 -0.0013438952 -0.00051621336 -0.00094368117 -0.0032518292 -0.0015204926 0.00030135445 -0.0012599528
0.0045096395 -0.0038245348 0.00093576475 0.00018403892 -0.0016028394 0.000380082 -0.0036588882 0.00038557497
-0.0035622043 -0.0004929844 0.0005504582 0.0045361295 -0.0031941559 0.003010153 -0.0002484713 0.0035768761
0.00045946924 -0.0013944258 -0.00020236355 -0.0037797247 0.003262441 -0.0014576146 0.004451506 -0.0029911895
0.0035305594 -0.0033195033 -0.0019025439 0.0010147045 0.0018971296 -0.00018614964 -0.00082608976 0.0033608754
-0.002118309 -0.0015483479 -0.0038096767 -0.0019016835 0.0010332721 -0.0027675072 0.0039814846 -0.001869551
-0.004116646 -0.0023552286 -0.0024843237 -0.004294583 0.009966692 -0.0021140303 0.0039175777 -0.00086801447
0.001783421 0.0012792721 -0.0020781849 0.0012537481 -0.0019619395 0.0011070613 -0.00028688603 0.0031803064
-0.002541546 -0.00023210364 0.00023631 -0.006068195 -0.0023135478 -0.00016955228 0.0016004397 -0.0007966266
-0.0019458132 -1.4022501e-05 -0.0010762555 -0.0018762413 -0.0015233597 -0.0012813297 -0.0010969464 -0.00400874
-0.00398309 0.0036029776 -0.0062262327 -0.0015259048 0.0013720912 -0.0034281684 -0.0034951642 -0.0029140834
-0.005050875 -0.0005270098 -0.0010786256 -0.00025206324 0.007301767 -0.0021914672 -0.0011595014 -0.0039928243
-0.00024840402 -0.0019087176 0.0007216469 0.002887964 -0.004392166 -0.00030167913 -0.0020219444 0.0011233547
0.0015103469 0.0002231626 -0.0056522763 -0.0030942075 -0.00028218335 0.002363432 -0.0034377603 -0.0011365735
-0.0010570745 -0.0030532915 -0.00074414874 0.00023479493 -0.002719915 0.0046658646 0.002265084 0.0015971527
-0.0014762038 -0.0032025494 -0.00070702087 0.0059897928 -0.00021374828 0.00047080434 -0.0020616986 -0.0053027077
0.0010981818 0.00426943 -0.002054997 2.9968593e-05 -0.0019850493 -0.0019499338 0.008206956 0.0033909518
-0.003407989 -0.0005901454 0.003504997 -0.00043220626 -0.0043151304 0.0027309193 -0.0026205697 -0.0011360025
-0.00023989778 -0.0046165297 -0.0021979464 -0.0027954273 0.0010548763 0.0020671138 -0.0036561755 -0.0027485588
-0.0028041357 -0.0025996042 0.0040730885 -0.0024017133 -0.0010153491 0.0014683853 -0.0004417858 -0.00014826398
-0.0022541885 -0.0009082356 0.0045171753 0.0052062725 -0.0069845826 0.0036184918 -0.0012322249 -3.929592e-05
00000000: 2ca7 753b 2ad9 243a 6ff9 6eb9 b3c3 c4ba
00000010: b99f 173b 21d9 0539 8802 c43a 981a 59bb
00000020: c753 71bb cfbc 6a3b dfd5 c5bb 0ae2 33bb
00000030: cd4b 03bb a7fa 35bb adbf e93a d391 e73a
00000040: 5c80 3cbb fc85 d339 4a1e 63bb 249c 86ba
00000050: 559e 3e3b 7d91 74bb ddf4 54bb 1a06 4c3a
00000060: 09fb 40b8 73e9 78b9 c872 153b b74f da39
00000070: 8bbd 51b9 b512 193a f650 afba 3758 baba
00000080: 36f9 a03a eb4f 1ebb ab7c 9e39 49df 9238
00000090: 2d41 98ba 2f1b 91ba 580a c439 2bf6 4fbb
000000a0: 31ff be38 23ff 1a3b aad2 edba 1446 1fbb
000000b0: e4aa 9eba 7ca2 473b 6aa7 79bb 1224 973a
000000c0: 2c36 85bb 8c35 81bb 6e9b 0e3a 4d35 8dba
000000d0: 896d 8b3a 1063 563b 3113 cfba f453 59bb
000000e0: 3177 833a 7f0e bbba c072 813b a14a 8a39
000000f0: c17c e8ba 7cf7 2d3a 3dc2 09ba c6e5 bd3a
00000100: 2bce e1ba 1744 703a c7e4 bdba 528b 0abb
00000110: 04e1 9fbb 3d8b 37bb 9276 233a 5312 d8ba
00000120: fd19 d63a a23d 753b 137e 12bb 4ccf 903a
00000130: c40e ea3b 08ea 17bb a791 17b9 897c e4ba
00000140: d6c2 53bb b15f 083b 68bf 713a 1219 b5bb
00000150: 3523 8a39 0886 f9b9 92d1 913b 4d79 713a
00000160: 63af c93a a425 b0ba 7e52 07ba 5f61 77ba
00000170: a41c 55bb 444b c7ba 1cff 9d39 0025 a5ba
00000180: 99c5 933b 0ca5 7abb 1c4e 753a 92fa 4039
00000190: 5e16 d2ba be45 c739 f5c9 6fbb ff26 ca39
000001a0: df73 69bb a03b 01ba a04c 103a d0a3 943b
000001b0: 0b55 51bb fd45 453b 4145 82b9 066a 6a3b
000001c0: ebe4 f039 2ac5 b6ba 8d31 54b9 42b5 77bb
000001d0: adce 553b 6e0d bfba f0dd 913b d507 44bb
000001e0: f560 673b 068c 59bb c85e f9ba d5ff 843a
000001f0: 1ba9 f83a 2a31 43b9 f28d 58ba 2242 5c3b
00000200: 54d3 0abb eff1 caba c5ab 79bb e941 f9ba
00000210: dc6e 873a 115f 35bb 1d77 823b b90b f5ba
00000220: eee4 86bb 2e5a 1abb 09d0 22bb 93b9 8cbb
00000230: 564b 233c 8b8b 0abb 065f 803b 778b 63ba
00000240: aec1 e93a 40ad a73a 2832 08bb ce54 a43a
00000250: e293 00bb d01a 913a 3169 96b9 b06c 503b
00000260: 1190 26bb d960 73b9 fcc9 7739 b6d7 c6bb
00000270: e49e 17bb d8c9 31b9 d8c5 d13a b5d4 50ba
00000280: a80a ffba 2f42 6bb7 2411 8dba 36ec f5ba
00000290: 78ab c7ba 4af2 a7ba 6ac7 8fba c05b 83bb
000002a0: 9584 82bb ef1f 6c3b 6d05 ccbb de00 c8ba
000002b0: bed7 b33a 1fab 60bb 200f 65bb 35fa 3ebb
000002c0: cf81 a5bb 0727 0aba ab60 8dba 5b27 84b9
000002d0: a943 ef3b b89e 0fbb 69fa 97ba 3dd6 82bb
000002e0: 393c 82b9 ef2d faba e72c 3d3a ff43 3d3b
000002f0: 29ec 8fbb b02a 9eb9 9982 04bb 873d 933a
00000300: d5f6 c53a c100 6a39 bb36 b9bb 30c8 4abb
00000310: 02f2 93b9 cfe3 1a3b 0c4c 61bb 14f9 94ba
00000320: 898d 8aba bb19 48bb fa12 43ba 4933 7639
00000330: 9a40 32bb 1ce4 983b ce71 143b 8d57 d13a
00000340: 2e7d c1ba dde1 51bb 5e57 39ba 0646 c43b
00000350: 9e21 60b9 4ad6 f639 901d 07bb 56c2 adbb
00000360: def0 8f3a 93e6 8b3b 21ad 06bb 1065 fb37
00000370: 9a17 02bb ec94 ffba 7876 063c bb3a 5e3b
00000380: 9158 5fbb fdb3 1aba 17b4 653b be99 e2b9
00000390: f065 8dbb 39f9 323b ddbd 2bbb ebe5 94ba
000003a0: 128d 7bb9 4246 97bb 6c0b 10bb 7d33 37bb
000003b0: c643 8a3a 6a78 073b 729c 6fbb 2a21 34bb
000003c0: 97c5 37bb 1f5e 2abb 8b77 853b 1066 1dbb
000003d0: 7615 85ba d676 c03a 7d9f e7b9 4f77 1bb9
000003e0: 02bb 13bb a916 6eba d004 943b 6199 aa3b
000003f0: edde e4bb 3824 6d3b 9b82 a1ba acd1 24b8

network_body._body_endoder.seq_layers.2.weight f4 [256, 256]
0.03641161 -0.05453007 -0.035989545 -0.029594382 0.068614736 0.0551825 0.05900393 0.061155558
0.031462066 0.05455378 0.024198942 0.06476037 0.018940587 0.07836938 -0.01628777 -0.084304
0.13428845 -0.07489853 0.0061348933 -0.0023918308 -0.028525172 0.10719131 0.11220833 0.016806891
0.13822675 -0.0077616447 -0.11190397 0.067859784 -0.10489447 -0.04053554 -0.042937297 0.02379984
-0.022021336 -0.058523335 0.07425385 -0.08765113 -0.08926109 0.007822341 0.023041354 -0.043972008
-0.053085893 -0.11448529 -0.08705163 -0.0837273 0.067634024 0.034229234 -0.021956474 0.011493053
0.060263004 0.0568869 -0.06661848 0.018974284 0.051790327 0.06852379 -0.001996548 0.0069588344
-0.011880971 -0.101807036 -0.048368644 -0.053765047 -0.027950237 0.0060783233 -0.049912076 0.06473709
0.031372726 0.054514933 0.06299361 0.0013775551 -0.04037471 -0.08100677 -0.0006913471 0.009590927
-0.045696907 0.06456787 0.0023767848 -0.029679108 0.030623192 0.01886978 0.016629672 -0.05319291
-0.03139993 0.0039439723 -0.077492535 0.04630511 -0.03033784 0.10252894 0.007112918 0.0056427866
-0.17758715 -0.07505901 0.017511128 -0.1248606 0.01991267 0.004285827 0.03079438 -0.05565604
0.09111445 -0.06503719 -0.05332211 -0.0927626 -0.0067669326 0.12621067 -0.009345154 0.09967923
0.013144675 0.037644412 -0.05158733 0.013927811 0.053299397 0.06720861 0.010457603 0.07604302
0.0076506254 -0.09680241 0.08946077 -0.07114957 0.060051814 0.13507074 0.04743243 0.067121275
0.0087405555 -0.06300583 0.031352203 -0.0377 0.010438247 0.012957186 0.050912842 -0.024933482
-0.13523331 -0.017267762 0.05817535 0.02634704 0.066317946 0.078716375 0.03198682 -0.06348613
-0.07754469 -0.096072726 -0.035575114 -0.032561753 0.010131599 -0.014031884 0.11993146 -0.004982406
-0.15073296 -0.014963269 -0.037211373 0.055117745 -0.0010583565 0.16510779 -0.039271012 -0.1624202
-0.10876952 0.022127463 0.031436965 -0.055282805 -0.025269307 0.041696038 0.051525716 0.15842845
-0.096651874 -0.16062668 0.023305383 0.018964417 0.08338872 0.023897337 0.11241942 -0.049417198
-0.09379874 -0.029578263 0.102553345 -0.007055055 -0.06540097 -0.005443602 0.046542466 0.15904589
0.09380409 -0.027777709 0.0129753975 -0.053409427 0.12813939 -0.0010250352 0.028963715 -0.025908735
-0.044864625 -0.09768175 0.018848734 -0.06113764 0.06777242 0.027635189 -0.067418315 0.04095724
-0.0043696603 -0.10942896 0.03957543 -0.09979578 0.0024498967 0.014675331 -0.115464404 0.03182453
0.06394403 -0.044795368 0.08934716 -0.03292844 -0.060688518 0.0004687036 -0.008900264 0.10991032
0.020328294 -0.050915737 -0.039324984 -0.03927255 -0.07285067 0.08298151 0.002861132 0.0086625535
-0.12170596 0.042860344 -0.10788928 -0.09891259 0.035398096 -0.011883233 -0.030130526 -0.023032432
-0.117077254 0.0055000847 -0.13763152 0.0033184898 -0.014553367 -0.039793245 -0.023203326 -0.0403225
0.10256425 -0.033743262 0.094021305 -0.045595054 0.116883464 -0.03212057 -0.07886898 -0.109743856
0.0019775073 0.0030150479 -0.07536887 0.06931795 0.029951748 -0.087932646 0.053769916 0.022802372
-0.01732404 0.035499144 0.00527881 0.0046402807 0.024625825 -0.09650298 0.01886261 0.017593075
00000000: 5724 153d ec5a 5fbd c669 13bd eb6f f2bc
00000010: e285 8c3d 0c07 623d 1bae 713d 407e 7a3d
00000020: 5ede 003d c973 5f3d dc3c c63c 16a1 843d
00000030: 4a29 9b3c 2080 a03d ee6d 85bc 93a7 acbd
00000040: e982 093e 6764 99bd 3707 c93b 43c0 1cbb
00000050: 9fad e9bc 1e87 db3d 7bcd e53d 9bae 893c
00000060: 508b 0d3e 6555 febb e92d e5bd 12fa 8a3d
00000070: e9d2 d6bd 9808 26bd 05df 2fbd e2f7 c23c
00000080: 1766 b4bc 2ab6 6fbd 6712 983d 7082 b3bd
00000090: 85ce b6bd 4729 003c 39c1 bc3c fe1b 34bd
000000a0: 9870 59bd 4477 eabd 2048 b2bd 3879 abbd
000000b0: b583 8a3d f433 0c3d 10de b3bc 5c4d 3c3c
000000c0: 57d6 763d 3d02 693d 456f 88bd f56f 9b3c
000000d0: 1822 543d 3356 8c3d 84d8 02bb ef06 e43b
000000e0: 67a8 42bc 3580 d0bd 331e 46bd bd38 5cbd
000000f0: e5f7 e4bc ac2c c73b 9b70 4cbd e194 843d
00000100: b080 003d 0d4b 5f3d cb02 813d 148f b43a
00000110: f45f 25bd e1e6 a5bd 853b 35ba 4323 1d3c
00000120: ae2c 3bbd 293c 843d d5c3 1b3b 9a21 f3bc
00000130: 7ddd fa3c cc94 9a3c f33a 883c cfe0 59bd
00000140: 379d 00bd 703c 813b 68b4 9ebd 6daa 3d3d
00000150: 1087 f8bc b1fa d13d 7b13 e93b 20e7 b83b
00000160: 68d9 35be 8ab8 99bd 7f73 8f3c eab6 ffbd
00000170: e51f a33c 1f70 8c3b 7f44 fc3c 96f7 63bd
00000180: 369a ba3d 3832 85bd 4968 5abd 51fa bdbd
00000190: 25bd ddbb 5f3d 013e 6b1c 19bc a024 cc3d
000001a0: c35c 573c 0731 1a3d 3c4d 53bd 7931 643c
000001b0: 7850 5a3d aba4 893d 5e56 2b3c 71bc 9b3d
000001c0: 19b2 fa3b 5840 c6bd 3537 b73d deb6 91bd
000001d0: e4f8 753d fc4f 0a3e 8248 423d e176 893d
000001e0: 8c34 0f3c 3309 81bd 2b6b 003d 516b 1abd
000001f0: 2e05 2b3c 614a 543c fc89 503d 4d41 ccbc
00000200: 9a7a 0abe 1f75 8dbc 4749 6e3d bfd5 d73c
00000210: b4d1 873d 0d36 a13d 9d04 033d 0405 82bd
00000220: c0cf 9ebd c7c1 c4bd 36b7 11bd 795f 05bd
00000230: 02ff 253c fde5 65bc a09e f53d 7343 a3bb
00000240: be59 1abe 8028 75bc f46a 18bd 25c3 613d
00000250: 8db8 8aba 0412 293e a4da 20bd 7b51 26be
00000260: 8ec2 debd a744 b53c 0cc4 003d 3970 62bd
00000270: 9401 cfbc 77c9 2a3d a10c 533d 113b 223e
00000280: 6bf1 c5bd 527b 24be eeea be3c 445b 9b3c
00000290: b5c7 aa3d 59c4 c33c 273c e63d b069 4abd
000002a0: 8e19 c0bd 1d4e f2bc 7d07 d23d 172e e7bb
000002b0: f2f0 85bd 3e60 b2bb 50a3 3e3d eddc 223e
000002c0: 5c1c c03d 148e e3bc c396 543c d8c3 5abd
000002d0: f936 033e 795a 86ba 5045 ed3c 8e3e d4bc
000002e0: f8c3 37bd 5f0d c8bd a968 9a3c 766b 7abd
000002f0: 44cc 8a3d 3163 e23c 9d12 8abd c7c2 273d
00000300: 5e2f 8fbb 4a1c e0bd d919 223d bb61 ccbd
00000310: 728e 203b cd70 703c 9a78 ecbd 705a 023d
00000320: 16f5 823d 597b 37bd a5fb b63d f9df 06bd
00000330: 8694 78bd 55bc f539 6ad2 11bc a918 e13d
00000340: 8687 a63c 058d 50bd 3c13 21bd 41dc 20bd
00000350: bb32 95bd 36f2 a93d d481 3b3b 62ed 0d3c
00000360: f940 f9bd 548e 2f3d 0ef5 dcbd af92 cabd
00000370: 98fd 103d e4b1 42bc 4bd4 f6bc 83ae bcbc
00000380: 33c6 efbd 0e3a b43b 47ef 0cbe 057b 593b
00000390: 3f71 6ebc 3efe 22bd e714 bebc 3529 25bd
000003a0: 350d d23d 6036 0abd 3e8e c03d e1c1 3abd
000003b0: 9960 ef3d dc90 03bd 0f86 a1bd 63c1 e0bd
000003c0: 1199 013b 1c98 453b fe5a 9abd 92f6 8d3d
000003d0: 5e5d f53c 0816 b4bd d83d 5c3d 0acc ba3c
000003e0: 25eb 8dbc 8d67 113d def9 ac3b 7f0d 983b
000003f0: 19bc c93c 5ba3 c5bd c385 9a3c 5a1f 903c

network_body._body_endoder.seq_layers.2.bias f4 [256]
-0.0016132202 -0.002420773 0.0038582226 -0.0014174035 -0.0014696202 -0.005150414 0.0026217538 -0.0045718383
0.0035722486 -0.0059128436 -0.000639881 0.0010997815 -0.00045092116 -0.0015343119 -0.0010205727 -0.0012905354
-0.001493737 0.0013402001 -0.001482323 -0.0012067517 0.0019787124 0.0008815785 -0.00042124567 -0.00039190747
0.00017540544 -0.0019723526 0.0010442528 -0.0008061274 -0.003136951 -0.0017933666 -0.0010390534 -0.0008958762
-0.0013321015 -0.0010763926 -0.0013121073 -0.00053388206 -0.004603239 -0.0034931721 0.0010430862 -0.0015628694
-0.0052048783 0.000490791 1.2416403e-05 -0.0031707147 -0.001725557 0.0010349613 -0.0016719907 -0.0032877894
-0.0035478454 -0.00417671 -0.00072598574 -0.005216078 -0.006123351 0.0017147418 -0.0045525883 0.0010406943
0.004176534 -0.00038265804 -0.0011915991 -0.00176545 -0.00018171099 0.0009777006 -0.0011465236 -0.00038142357
-0.0061750636 0.0016208 -0.0004414858 -0.00032719632 -0.0007711147 -0.002697146 -0.0021500436 -0.00091349625
0.0006831061 0.002226774 0.0020229192 -0.0008774711 -0.0025041562 -0.0017554741 -0.004010824 0.0010161805
0.0016928468 -0.0018200221 -0.0020316034 0.00045062794 -0.0006829038 -0.0016702684 -0.0009949512 -0.0023197127
-0.0015817663 -0.00029059476 -0.0011524238 -0.000705184 -0.0012578607 -0.0045957584 -0.0033994936 0.0040565636
-0.0002621081 0.0015980292 -0.0028251687 -0.00049103895 0.00014318526 0.0019706823 0.00076841953 -0.0010523031
-0.001037422 -0.00063492625 0.00043168236 -0.0032429367 -0.0029090291 0.0004316516 -0.003241675 0.0035267146
8.522945e-05 -0.00058924325 0.0014953006 0.004911236 -0.0018118542 -0.0022433805 0.0045060134 0.0029028084
-0.0026717936 0.0006425526 -0.0010376255 -0.0019752288 0.0025101237 -0.004133913 -0.00046107697 -0.005299851
0.0036089397 0.0025926803 -0.00063101854 -0.00026502614 -0.0002958956 -0.0002625632 0.0007532767 -0.0041276105
0.0019717582 -0.002076415 -0.0034717864 -0.00060531084 -0.0035258357 -0.00046614883 0.002491152 -0.0039558248
-0.00023293046 0.0015590865 -0.0023749361 -0.00080007804 -0.0005560039 0.0010141014 -0.0031144568 0.0011040925
0.00028105185 0.00091581006 -0.001063222 0.0045041507 -0.0035938686 -0.0053015635 -0.001302188 -0.0014245106
-0.003694888 -0.0018353368 -0.0024468612 -0.0028869219 0.0026130227 -0.0021492601 -0.0022772762 -0.004161316
-0.003407821 0.0014181415 0.0018968573 -0.0025201938 0.00036337328 -0.0021331718 -0.0013273277 -0.0014736408
-0.0014457735 0.003022007 -0.000500011 -0.001820275 1.0297053e-05 -0.0031083568 -0.002986751 -0.0023374597
-0.0035010616 0.0008754141 -0.004027124 -0.0024206906 0.0014506555 0.00092041836 0.0028053024 -0.0016375522
-0.0011950309 -0.0006108567 -0.0022418725 0.003961693 0.0005446464 -0.0020567211 -0.0019599136 -0.0012256838
-0.0010937186 0.0008526492 0.0041149184 0.00055584416 0.00061372767 -0.0007403455 -0.0010496598 -0.00059613097
-0.0011588995 5.8328344e-05 0.005520229 -3.1594547e-05 -0.0022744879 -0.0003342006 0.00082084513 -0.00040361547
0.0027385466 -0.0010481481 -0.001540025 -0.0033156686 -0.0029568647 0.0012790585 -0.0016745355 -0.0006415647
0.0009981693 -0.0013165151 -0.0014036177 0.002208632 -0.0032250006 0.00142669 0.002069738 -0.001715159
-0.0030160092 0.0015719078 0.00170698 9.495088e-05 0.0010873718 0.000514976 0.0038263127 0.004831548
0.0003999158 0.0001581331 -0.0007206238 -0.001225205 -0.00091877364 -0.0024713962 -0.0019063079 -0.0014008424
-0.00082798616 -0.002117088 -0.0021709767 0.0001703213 0.0051136143 -0.0014831446 0.003929709 -0.002286817
00000000: b072 d3ba d5a5 1ebb 3cda 7c3b 2bc8 b9ba
00000010: 45a0 c0ba cec4 a8bb bbd1 2b3b 5ccf 95bb
00000020: 631c 6a3b 87c0 c1bb b0bd 27ba 8b26 903a
00000030: 9d69 ecb9 f71a c9ba bdc4 85ba 2f27 a9ba
00000040: 7fc9 c3ba a7a9 af3a 824a c2ba de2b 9eba
00000050: 49ad 013b bb19 673a a3da dcb9 ee78 cdb9
00000060: 0aed 3739 9642 01bb 4fdf 883a 4b52 53ba
00000070: 4e95 4dbb 660f ebba d930 88ba 3cd9 6aba
00000080: e999 aeba be15 8dba 04fb abba 38f4 0bba
00000090: c4d6 96bb b4ed 64bb 2ab8 883a 32d9 ccba
000000a0: af8d aabb 6da8 003a 0b50 5037 c4cb 4fbb
000000b0: 162c e2ba 8aa7 873a b326 dbba f477 57bb
000000c0: f882 68bb c8dc 88bb 1450 3eba a2eb aabb
000000d0: 64a6 c8bb 30c1 e03a e12d 95bb e867 883a
000000e0: 4edb 883b 7e9f c8b9 6e2f 9cba ac66 e7ba
000000f0: ac89 3eb9 3026 803a f346 96ba cef9 c7b9
00000100: 3058 cabb 0671 d43a 3977 e7b9 8c8b abb9
00000110: a224 4aba 9ac2 30bb bfe7 0cbb b277 6fba
00000120: 7912 333a 12ef 113b f492 043b 1706 66ba
00000130: c51c 24bb f017 e6ba 3b6d 83bb 5c31 853a
00000140: 83e2 dd3a cf8d eeba a624 05bb 4242 ec39
00000150: e604 33ba e8ec daba 0669 82ba 5206 18bb
00000160: 4553 cfba f85a 98b9 ed0c 97ba 19dc 38ba
00000170: cdde a4ba 0498 96bb 0aca 5ebb ecec 843b
00000180: 8e6b 89b9 f674 d13a 7726 39bb 11b9 00ba
00000190: 0024 1639 9026 013b c36f 493a 6fed 89ba
000001a0: 1bfa 87ba 2e71 26ba 6d53 e239 7387 54bb
000001b0: 69a5 3ebb 4c4f e239 4872 54bb 7420 673b
000001c0: 36bd b238 7277 1aba f6fd c33a 6fee a03b
000001d0: bd7b edba ae05 13bb 2ea7 933b 0b3d 3e3b
000001e0: 4219 2fbb fa70 283a ef00 88ba d772 01bb
000001f0: e380 243b c775 87bb b4bc f1b9 5faa adbb
00000200: f683 6c3b f5e9 293b f06a 25ba 35f3 8ab9
00000210: 6f22 9bb9 a3a8 89b9 8b77 453a e840 87bb
00000220: 9d38 013b 7714 08bb e986 63bb b9ad 1eba
00000230: b511 67bb 7065 f4b9 9842 233b dd9f 81bb
00000240: cb3e 74b9 435a cc3a d1a4 1bbb 54bc 51ba
00000250: cac0 11ba 99eb 843a ea1b 4cbb 32b7 903a
00000260: 245a 9339 f912 703a cf5b 8bba 8e97 933b
00000270: 1c87 6bbb bdb8 adbb 2eae aaba a5b6 baba
00000280: ef25 72bb af8f f0ba 855b 20bb 8332 3dbb
00000290: 3f3f 2b3b 9ada 0cbb 5b3e 15bb a65b 88bb
000002a0: c055 5fbb efe0 b93a f89f f83a d629 25bb
000002b0: 2383 be39 afcc 0bbb baf9 adba 2e27 c1ba
000002c0: 1c80 bdba dd0c 463b 2c13 03ba 4b96 eeba
000002d0: 82c1 2c37 93b5 4bbb 5ebd 43bb 1130 19bb
000002e0: 1172 65bb 0c7c 653a f7f5 83bb 73a4 1ebb
000002f0: ec23 be3a 3b48 713a 2ad9 373b 22a3 d6ba
00000300: 95a2 9cba e621 20ba 61ec 12bb 17d1 813b
00000310: 9ac6 0e3a 0eca 06bb e571 00bb 20a7 a0ba
00000320: 1b5b 8fba 5284 5f3a 70d6 863b 12b6 113a
00000330: 91e2 203a bf13 42ba bd94 89ba ac45 1cba
00000340: 37e6 97ba 95a5 7438 0ae3 b43b 6384 04b8
00000350: 930f 15bb a537 afb9 fc2d 573a 5a9c d3b9
00000360: 3079 333b 0462 89ba aada c9ba b04b 59bb
00000370: f5c7 41bb 15a6 a73a 167c dbba ae2e 28ba
00000380: 01d5 823a eb8e acba 98f9 b7ba b2be 103b
00000390: 885a 53bb c6ff ba3a 71a4 073b 30cf e0ba
000003a0: 3da8 45bb 7908 ce3a bfbc df3a 5e20 c738
000003b0: 2586 8e3a 74ff 063a e0c2 7a3b f651 9e3b
000003c0: caab d139 88d0 2539 3fe8 3cba 0f97 a0ba
000003d0: dbd9 70ba 26f7 21bb 14dd f9ba 799c b7ba
000003e0: 360d 59ba d8be 0abb f246 0ebb 4798 3239
000003f0: 1b90 a73b 1366 c2ba cac4 803b 6cde 15bb

network_body._body_endoder.seq_layers.4.weight f4 [256, 256]
0.023340035 -0.014478613 -0.025266996 -0.06126138 -0.007726635 0.033912934 -0.09085851 -0.026402187
-0.016997851 0.13341452 0.046344943 -0.017285142 -0.06070932 0.074910805 -0.038235184 0.1049846
0.013662563 -0.13192722 -0.07585522 0.0050889235 0.092062764 -0.018131105 -0.091695294 0.01986123
-0.06912199 0.0134796165 0.042891864 0.077955 0.075942636 0.011283165 0.04953007 -0.028857239
0.0004502102 0.042691614 0.048842598 -0.07004833 0.021638464 -0.02126328 0.014271197 0.061433453
0.011991958 -0.077711254 0.020695884 0.01841307 0.08372364 -0.005505015 -0.057905678 0.00034815486
-0.078084715 -0.010506291 0.008216909 -0.02854553 0.041100737 0.03227949 0.1392817 -0.0064178156
-0.03502545 0.022387736 -0.012731376 -0.04480707 -0.06947638 -0.042431027 -0.070340484 -0.053451568
-0.0837216 0.057166863 0.021265881 -0.10689776 -0.13476098 0.009725833 -0.083724536 0.10065256
-0.0040533976 -0.024876693 -0.055264372 0.018039161 0.016565492 0.1381317 0.025890931 0.07926696
0.19444492 0.03678584 -0.0400446 -0.06745773 0.0310521 -0.08830522 -0.031369545 -0.032960117
0.054471046 -0.10531892 0.010448543 0.009768719 0.10444855 -0.034964528 -0.028705593 0.05738245
0.0025001005 -0.025896877 -0.035590973 -0.04360877 0.044976894 -0.012857913 -0.13387257 0.056856766
-0.027034275 -0.084469736 -0.0002189066 -0.021351809 -0.072305396 -0.042404313 0.011920042 -0.04564911
0.042604573 0.060974415 -0.048794515 -0.047574297 0.11384703 0.077606626 0.035118137 0.06342492
-0.06917835 -0.0010258459 -0.09839326 -0.11091503 -0.041288495 -0.014844518 0.05161334 0.06741531
0.03251857 0.084738575 0.008750399 -0.08023003 -0.07196211 -0.02187152 0.010634945 0.010709814
-0.052662767 0.04838544 -0.102630325 -0.0038085503 -0.016272498 -0.06767489 0.026580924 -0.038692757
-0.04491848 0.048387785 -0.06379972 -0.08442434 0.009010459 0.008628612 0.1075929 -0.029528677
-0.062850446 0.15787281 0.10059949 -0.12011937 -0.0726543 0.019049972 -0.016106533 -0.018438222
-0.0046056113 -0.021467723 0.011682743 -0.09566247 0.074328445 0.031761 -0.05728079 -0.010222821
-0.06535129 -0.008184692 -0.0008929435 -0.13954625 0.010640822 0.025470365 -0.0056108455 -0.02458331
-0.08684582 -0.015720407 0.0059909467 -0.02069548 -0.05605435 -0.0022422064 -0.0003559781 0.013604873
-0.12835395 -0.07893044 0.04370565 0.009365031 0.05567728 -0.0124676 0.102968335 0.031793877
-0.025454538 -0.08537996 -0.004997879 0.07806657 -0.03505058 0.046842005 0.035824202 0.008831487
0.14569528 -0.024148488 0.027203789 0.053715255 0.04071794 0.009853292 0.078018196 0.07202247
-0.08944792 0.09277681 0.04246837 -0.1635236 0.08405752 0.0052544395 -0.09758278 0.059915453
-0.018779984 0.058575846 -0.09880628 0.12125564 0.08634937 0.05257511 -0.069102325 -0.07969341
-0.060077637 -0.016830528 0.0609865 0.03989236 -0.1788158 -0.117937736 0.0038230254 0.038087893
0.0061149993 0.06475131 0.091668285 -0.031464584 0.06002535 -0.057541 -0.02969405 -0.110688016
0.011615109 -0.028266842 0.010181252 0.0629344 0.031785283 -0.018593382 0.11619335 -0.0017341442
0.021967363 0.034392726 0.06924372 -0.107187256 -0.015320014 -0.055168767 0.0014583995 -0.006109948
00000000: 9a33 bf3c b437 6dbc bbfc cebc 36ed 7abd
00000010: b62f fdbb 4ae8 0a3d 0714 babd 6649 d8bc
00000020: 143f 8bbc d19d 083e 32d4 3d3d 9299 8dbc
00000030: 56aa 78bd d66a 993d 7f9c 1cbd 2a02 d73d
00000040: f1d8 5f3c ee17 07be fb59 9bbd fcc0 a63b
00000050: 678b bc3d af87 94bc beca bbbd 05b4 a23c
00000060: d48f 8dbd 9cd9 5c3c 61af 2f3d dfa6 9f3d
00000070: d087 9b3d 06dd 383c 0be0 4a3d 0466 ecbc
00000080: 310a ec39 67dd 2e3d 2d0f 483d 8075 8fbd
00000090: 2643 b13c 5530 aebc bdd1 693c a5a1 7b3d
000000a0: eb79 443c 1427 9fbd 6a8a a93c 02d7 963c
000000b0: 4d77 ab3d 6a63 b4bb 812e 6dbd 8e88 b639
000000c0: e1ea 9fbd 9422 2cbc 37a0 063c 51d8 e9bc
000000d0: 3f59 283d 8037 043d dd9f 0e3e 8a4c d2bb
000000e0: d976 0fbd 7c66 b73c 4397 50bc 9e87 37bd
000000f0: a249 8ebd 28cc 2dbd ac0e 90bd 08f0 5abd
00000100: 3b76 abbd cd27 6a3d c935 ae3c 36ed dabd
00000110: c8fe 09be 1a59 1f3c c577 abbd ee22 ce3d
00000120: 5dd2 84bb 35ca cbbc e55c 62bd ddc6 933c
00000130: 5bb4 873c 6572 0d3e 3819 d43c b756 a23d
00000140: 921c 473e c0ac 163d ce05 24bd 4727 8abd
00000150: f960 fe3c 5ed9 b4bd 5a7d 00bd 3001 07bd
00000160: 081d 5f3d 72b1 d7bd 5e30 2b3c fa0c 203c
00000170: 1fe9 d53d f736 0fbd fe27 ebbc dc09 6b3d
00000180: bad8 233b b025 d4bc d7c7 11bd 1c9f 32bd
00000190: b139 383d ffa9 52bc e415 09be a4e2 683d
000001a0: fc76 ddbc 78fe acbd 4b8a 65b9 fde9 aebc
000001b0: da14 94bd 25b0 2dbd 484c 433c 90fa 3abd
000001c0: 2282 2e3d 4fc0 793d c2dc 47bd 44dd 42bd
000001d0: a228 e93d 39f0 9e3d 09d8 0f3d ede4 813d
000001e0: 61ad 8dbd ad75 86ba 6882 c9bd 6b27 e3bd
000001f0: 201e 29bd 6c36 73bc 8268 533d 0a11 8a3d
00000200: 3132 053d 6b8b ad3d d55d 0f3c a44f a4bd
00000210: df60 93bd e72b b3bc 313e 2e3c 3778 2f3c
00000220: eab4 57bd d02f 463d d92f d2bd df98 79bb
00000230: e74d 85bc 2299 8abd 3dc0 d93c 4c7c 1ebd
00000240: 71fc 37bd 4532 463d 6da9 82bd abe6 acbd
00000250: 9ba0 133c 065f 0d3c ab59 dc3d 20e6 f1bc
00000260: bcb7 80bd 69a9 213e 1b07 ce3d 2501 f6bd
00000270: c7cb 94bd b00e 9c3c d9f1 83bc c10b 97bc
00000280: abea 96bb 14dd afbc fa68 3f3c afea c3bd
00000290: 8339 983d d317 023d 439f 6abd 9e7d 27bc
000002a0: e6d6 85bd 1619 06bc 6d14 6aba 36e5 0ebe
000002b0: d856 2e3c 3aa7 d03c 2fdb b7bb f062 c9bc
000002c0: 39dc b1bd 15c8 80bc b44f c43b 9189 a9bc
000002d0: 3f99 65bd fbf1 12bb 92a2 bab9 f9e6 5e3c
000002e0: 386f 03be 48a6 a1bd b204 333d c96f 193c
000002f0: dc0d 643d e844 4cbc 10e1 d23d 4c3a 023d
00000300: 0986 d0bc b0db aebd 3fc5 a3bb 5ee1 9f3d
00000310: 3291 0fbd 67dd 3f3d 66bc 123d f1b1 103c
00000320: 2531 153e 0dd3 c5bc 7bda de3c 8704 5c3d
00000330: dbc7 263d b46f 213c 01c8 9f3d 8480 933d
00000340: 7930 b7bd c501 be3d 50f3 2d3d bb72 27be
00000350: 5926 ac3d 6f2d ac3b 7bd9 c7bd e869 753d
00000360: 7bd8 99bc 3aed 6f3d f25a cabd e154 f83d
00000370: f0d7 b03d 0059 573d 8585 8dbd 4c36 a3bd
00000380: f813 76bd 2de0 89bc fbcc 793d 2c66 233d
00000390: 7d1b 37be 5789 f1bd b98b 7a3b 0d02 1c3d
000003a0: 5560 c83b 569c 843d 95bc bb3d 02e1 00bd
000003b0: 24dd 753d 1db0 6bbd f040 f3bc 66b0 e2bd
000003c0: 4c4d 3e3c dd8f e7bc 44cf 263c c0e3 803d
000003d0: 4931 023d 2651 98bc c7f6 ed3d 394c e3ba
000003e0: e6f4 b33c 63df 0c3d a7cf 8d3d fe84 dbbd
000003f0: cc00 7bbc a5f8 61bd c427 bf3a f535 c8bb

network_body._body_endoder.seq_layers.4.bias f4 [256]
-0.0028544962 -0.0018224317 -0.0014106586 0.0019175077 -0.0016608378 0.000281805 -0.0016680936 -0.0007808883
0.00022023902 -0.0020697094 0.0020520433 0.00040539657 0.0029655907 -0.00027101318 0.0008359552 0.0010200489
-9.8290846e-05 -0.001113795 -0.0022399677 0.0013861255 0.0008615804 0.0010474998 -0.001424164 0.0024678349
-0.0003474979 0.0018999192 -0.0009555367 0.00086012186 -0.002387484 0.002377812 0.0010305381 -0.00055732654
0.0006196159 -0.0027800233 -0.0019167261 -0.0014098905 -0.0040974915 -0.001303279 -0.0019817208 0.001363653
0.0010111023 -0.0004509963 0.0010434998 0.0002181764 0.00013766947 -0.00028014966 -0.0008171171 -0.0021320824
0.0005100218 0.0012242263 -0.0008962242 0.0004981835 -0.000801962 0.0021125693 -0.001043367 0.0021981155
0.0017774962 -0.0028790026 0.001169202 0.0030670692 -0.00021225776 -0.0014082857 0.00032303148 -0.0026781505
-0.0027584035 -0.00067890884 -0.0022901346 -0.001666917 0.00015592892 -0.0015488996 -0.000601257 0.0010563362
-0.0036593287 0.0026238633 -0.00085849775 -0.00021702294 -0.0024787106 -0.00042111395 -0.00048394979 -0.002772526
-0.001019249 0.0024714407 0.0002775863 0.0005595052 0.00015091278 0.0020530128 -0.0010624313 -0.0018014853
-2.2896467e-05 0.0009762743 -0.0001404054 -0.0010708157 0.00020953949 0.00039735035 -0.0020016937 0.002577185
-0.0030123992 -0.0006515764 0.0016684491 -0.0041363356 0.004131014 0.00068128266 -0.0015086592 -0.006945466
-0.0028976263 -0.0048286263 -0.0009880748 -0.0014234295 0.0011003918 -0.0017066009 -0.0019320698 -0.0025060666
-0.0025765558 -0.00021172679 -0.004815553 0.0072034416 -0.00081592135 0.00067789893 -0.0006286325 0.00073327724
0.0033547543 -0.0011941999 -0.00022990255 0.0023028105 -0.0017837047 -0.0018957859 -0.00032144444 -0.0019677544
0.00089046854 0.00021566756 0.0014428635 -1.3243373e-05 0.004565743 0.00060998066 -0.0031298134 -0.0023254326
4.4403394e-05 0.004598878 -0.00011477103 0.0017531828 0.00074522843 -0.0007821712 0.001569093 0.0019515838
-0.0016881668 0.0059401845 -0.00027249125 -0.0009864554 -0.0014416936 -0.0008904635 0.0013854019 -0.0033659488
-0.0026481277 -0.0040859203 0.0006795205 0.0036365166 -0.0005311984 -0.0011469466 -0.0006505734 -0.0011261862
-0.0042604133 -0.0012226568 -0.00084201124 0.0012003299 -0.005189559 0.0041372855 0.0034389533 0.0016176277
-0.0039236816 -0.00032721178 -0.004568235 -0.0014187143 0.003791902 0.0015398721 -0.0018442809 0.0012073728
-0.0008981589 0.0015442634 -0.00280832 -0.0006855052 5.3870863e-05 0.0090248855 -0.00033266915 0.00023621594
0.0023358073 0.0014889061 -0.00057521503 -0.00018692488 -0.0005873757 -0.0043226136 -0.0015061946 0.00026780684
0.00081022497 0.0035461178 -0.00028106754 0.0030539604 0.0041049686 0.0009158736 -0.001253224 -0.0007818842
-0.0015177184 -0.0034378422 -2.8250977e-05 -0.0020950628 0.0031337952 -0.00087789004 -0.00097163 -8.558925e-05
-0.0026421836 -0.0033684645 0.00085147395 -0.0022058485 -0.00063086237 -0.0019392245 -0.002639363 0.000108488646
-0.003354681 0.0010038218 -0.0029813554 -0.0022144306 0.00042788964 -9.103614e-05 -0.0048809694 0.00044644877
-0.0028083976 -0.0015332369 -0.00053794467 -0.00013748964 0.0024120484 -0.000695291 -0.000630216 0.0018767384
-0.0026696713 -0.0016054105 -0.0017045639 -0.0009987082 -0.00063899107 0.0020443953 0.00071172864 -0.0018094026
-0.00015458046 -0.0020917195 -0.00038584985 -0.0029813368 -0.0006223341 -0.00065466866 0.000844767 -0.0054707723
0.0016976735 0.0006866412 -0.004834814 -0.0013222273 0.00059152074 0.0011866894 -0.00023410653 -0.00209068
00000000: 8012 3bbb a9de eeba d9e5 b8ba e254 fb3a
00000010: 78b0 d9ba 3abf 9339 efa3 daba 87b4 4cba
00000020: f6ef 6639 f6a3 07bb 937b 063b 688b d439
00000030: 5b5a 423b c616 8eb9 0124 5b3a 29b3 853a
00000040: 7f21 ceb8 c2fc 91ba 6ccc 12bb a7ae b53a
00000050: afdb 613a 434c 893a 04ab baba 66bb 213b
00000060: 6130 b6b9 b606 f93a fc7c 7aba cd79 613a
00000070: 5677 1cbb 11d5 1b3b 1f13 873a 8d19 12ba
00000080: b86d 223a 0d31 36bb a83a fbba 13cc b8ba
00000090: 4044 86bb c9d2 aaba c2df 01bb 9abc b23a
000000a0: f786 843a b373 ecb9 0bc6 883a 48c6 6439
000000b0: 5e5b 1039 0de1 92b9 cd33 56ba 68ba 0bbb
000000c0: fcb2 053a 3876 a03a 97f0 6aba 8798 023a
000000d0: c23a 52ba 0873 0a3b 96c1 88ba 420e 103b
000000e0: e0fa e83a a6ad 3cbb e93f 993a e200 493b
000000f0: 8291 5eb9 3a96 b8ba 8d5c a939 e983 2fbb
00000100: 55c6 34bb cdf8 31ba 1516 16bb 747c daba
00000110: da80 2339 7204 cbba ad9d 1dba c374 8a3a
00000120: 59d1 6fbb 1ff5 2b3b cf0c 61ba a790 63b9
00000130: dd71 22bb f5c8 dcb9 a4ba fdb9 44b3 35bb
00000140: 5298 85ba e5f7 213b 0189 9139 c2ab 123a
00000150: 573e 1e39 d78b 063b 4741 8bba d11f ecba
00000160: ca11 c0b7 a9ec 7f3a ca39 13b9 9d5a 8cba
00000170: d4b7 5b39 7653 d039 d92e 03bb fde5 283b
00000180: ac6b 45bb 8dce 2aba ddaf da3a 198a 87bb
00000190: 755d 873b 1b98 323a 34be c5ba cb96 e3bb
000001a0: 1ae6 3dbb 7439 9ebb 4a82 81ba 5e92 baba
000001b0: 063b 903a 06b0 dfba 813d fdba d23c 24bb
000001c0: 6fdb 28bb fa02 5eb9 c9cb 9dbb d90a ec3b
000001d0: 8ee3 55ba 07b5 313a d0ca 24ba 6739 403a
000001e0: 70db 5b3b b386 9cba ff11 71b9 c0ea 163b
000001f0: 33cb e9ba 057c f8ba 8b87 a8b9 71f5 00bb
00000200: 556e 693a d224 6239 771e bd3a db2f 5eb7
00000210: 3a9c 953b 1ce7 1f3a 8e1d 4dbb 4966 18bb
00000220: c83d 3a38 2fb2 963b 3ab1 f0b8 0ecb e53a
00000230: 6f5b 433a 9f0a 4dba 06aa cd3a 49cc ff3a
00000240: 7a45 ddba e1a5 c23b 28dd 8eb9 f34b 81ba
00000250: 36f7 bcba fe6d 69ba 6096 b53a 4097 5cbb
00000260: 368c 2dbb 2fe3 85bb d921 323a a052 6e3b
00000270: 1f40 0bba 2455 96ba 3e8b 2aba 8a9c 93ba
00000280: f09a 8bbb 8e41 a0ba 6bba 5cba 6354 9d3a
00000290: 2d0d aabb 1192 873b 1060 613b 9406 d43a
000002a0: 3a92 80bb 9f8d abb9 22b1 95bb 27f4 b9ba
000002b0: 8f81 783b 89d5 c93a ccbb f1ba b540 9e3a
000002c0: 6c72 6bba e268 ca3a cb0b 38bb 7ab3 33ba
000002d0: 66f3 6138 1ddd 133c 196a aeb9 bcb0 7739
000002e0: 5814 193b 6627 c33a 07ca 16ba 4401 44b9
000002f0: 1efa 19ba b6a4 8dbb 816b c5ba 6d68 8c39
00000300: 4765 543a fc65 683b 3f5c 93b9 f424 483b
00000310: f982 863b 3d17 703a 3843 a4ba 5cf7 4cba
00000320: 2eee c6ba 6c4d 61bb 83fc ecb7 524d 09bb
00000330: 5c60 4d3b 3422 66ba fcb4 7eba 617e b3b8
00000340: 7c28 2dbb 75c1 5cbb 7335 5f3a ff8f 10bb
00000350: 7560 25ba 942d feba 2af9 2cbb 6684 e338
00000360: 35da 5bbb ac92 833a d862 43bb fb1f 11bb
00000370: 6056 e039 a8ea beb8 8af0 9fbb 5711 ea39
00000380: 180d 38bb e5f6 c8ba db04 0dba 182b 10b9
00000390: 7513 1e3b 3044 36ba 1435 25ba e4fc f53a
000003a0: a7f5 2ebb a36c d2ba ac6b dfba 16e7 82ba
000003b0: f781 27ba 43fb 053b 4d93 3a3a 7a29 edba
000003c0: e016 22b9 3b15 09bb e44b cab9 8862 43bb
000003d0: 2224 23ba 129e 2bba 5b73 5d3a 2a44 b3bb
000003e0: 7884 de3a b6ff 333a 5c6d 9ebb 964e adba
000003f0: 4910 1b3a b08a 9b3a 7e7a 75b9 ca03 09bb

network_body._body_endoder.seq_layers.6.weight f4 [256, 256]
0.091436 0.054761596 -0.04827305 -0.051413644 0.05652482 -0.008861751 0.083474234 0.045709394
0.00059492735 0.027226714 0.009738216 0.028774397 0.062334508 -0.007842976 -0.011252672 -0.061349712
0.101958245 0.014399226 -0.027413925 0.0815094 -0.030299881 -0.08915481 -0.004747197 -0.0018137551
-0.018298822 -0.07163397 -0.0023481394 -0.0827411 -0.037113007 0.06324674 0.067631245 0.032685198
-0.024091776 -0.022056004 0.054188162 -0.08775552 0.06511228 0.08120282 0.019040642 0.008395368
0.009545958 -0.10878718 0.0026816817 0.035903182 -0.032083515 -0.0346921 -0.052164357 -0.029071936
0.050872255 -0.0646902 -0.0855475 -0.09341017 0.048271667 0.10741887 -0.0081793405 -0.020981768
-0.0046602497 0.011172434 -0.009588195 -0.023484802 0.018447679 0.014187755 -0.047232043 0.22877884
0.046019047 -0.03900691 0.082251914 -0.108889155 0.07298263 -0.08618307 -0.078911945 0.038588066
-0.051035512 0.08787389 -0.026390003 0.08287316 0.026623588 0.025245022 -0.017680548 0.03569682
0.030579865 0.016299913 -0.122368366 0.09975476 0.023830365 0.030816942 -0.046214476 0.0073528364
-0.0149754705 -0.09026517 0.06721576 -0.094450705 -0.025994876 0.013375924 -0.06982095 0.09721879
-0.1921449 0.036165673 -0.16809326 -0.014674819 -0.026099995 -0.00087843544 -0.037402183 -0.012034308
-0.052618057 -0.012621304 0.058731787 -0.025041526 -0.007102408 0.06545577 0.019526381 -0.017371112
0.13906018 0.010800297 0.11357816 -0.09575441 -0.02384256 -0.017426595 0.0043661115 -0.000685352
-0.03495761 -0.06313462 -0.074361525 -0.04559348 0.008086481 0.00686413 -0.051223803 -0.119433865
0.030058933 0.07544346 -0.05608977 -0.10486137 0.106195286 -0.0033353125 -0.04296237 -0.010872732
-0.013554452 0.012514439 0.14045623 0.020507395 -0.020499827 0.0752098 -0.02314965 0.004175612
-0.13070823 -0.0077257673 -0.11525192 -0.035698615 0.05961462 0.00044238885 -0.033826396 -0.061310943
-0.07432773 0.097799346 -0.031410996 -0.1093336 0.012368221 0.122411534 -0.066928424 -0.07058754
0.024658792 -0.023854481 0.11262525 -0.054868426 -0.018416263 -0.0014464861 0.02105142 -0.024310213
-0.02338713 0.0048927288 -0.0012164561 -0.1036441 0.051210668 0.070041664 0.02576836 0.078028016
0.041773 0.021717366 0.08537938 0.12065185 -0.016617263 0.055614147 -0.024548164 0.06828351
-0.018328693 0.017918017 0.029658051 0.04427226 0.0090698 0.056914292 0.017257318 -0.07278852
-0.10879334 0.06973119 -0.0700423 -0.034897666 0.11063858 -0.09200297 -0.08641492 0.044048075
0.012699213 -0.015681552 0.056628365 0.051333047 -0.019237395 -0.11042138 -0.013272594 0.07965594
0.029700385 -0.053256173 0.03548049 0.09431521 -0.032638036 -0.10770694 0.03910082 -0.016008966
0.007423429 -0.014812283 -0.0075834785 0.07010744 0.0098967645 0.06281125 -0.047148626 0.10447962
0.012479161 0.036640886 0.08110806 -0.0826982 -0.011334236 -0.09681073 -0.026927345 -0.004820995
-0.01725545 0.04955801 -0.070259936 -0.006279613 -0.004926859 0.026367394 -0.015561854 0.082094364
-0.12940499 0.0059703384 -0.11677378 0.09731539 0.041422926 0.059355613 -0.013905097 0.00877133
-0.032763876 0.038677815 -0.18588813 0.0069106813 -0.04859877 0.022959702 -0.016775534 0.007124615
00000000: cc42 bb3d b24d 603d f6b9 45bd 1d97 52bd
00000010: 9286 673d e130 11bc 8af4 aa3d c639 3b3d
00000020: e6f4 1b3a 8f0a df3c 0a8d 1f3c 49b8 eb3c
00000030: 7852 7f3d d37f 00bc 215d 38bc d649 7bbd
00000040: 7ccf d03d bbea 6b3c 2b93 e0bc 66ee a63d
00000050: 7537 f8bc cc96 b6bd 608e 9bbb 86bb edba
00000060: 69e7 95bc d5b4 92bd 3ee3 19bb 2a74 a9bd
00000070: cf03 18bd 8287 813d 4082 8a3d eae0 053d
00000080: 1e5c c5bc cbae b4bc 68f4 5d3d 2bb9 b3bd
00000090: 9659 853d aa4d a63d 1ffb 9b3c ba8c 093c
000000a0: a666 1c3c d0cb debd 27bf 2f3b 370f 133d
000000b0: 016a 03bd 4e19 0ebd 4baa 55bd 4528 eebc
000000c0: 6d5f 503d 4c7c 84bd 8733 afbd d54d bfbd
000000d0: 83b8 453d 6dfe db3d a402 06bc f5e1 abbc
000000e0: 02b5 98bb 960c 373c ce17 1dbc 3363 c0bc
000000f0: 961f 973c c273 683c 6376 41bd 0045 6a3e
00000100: 787e 3c3d b6c5 1fbd b173 a83d 4701 dfbd
00000110: eb77 953d c080 b0bd 969c a1bd 850e 1e3d
00000120: 9d0a 51bd 3af7 b33d d92f d8bc 67b9 a93d
00000130: b619 da3c a6ce ce3c ccd6 90bc d436 123d
00000140: a082 fa3c 6587 853c 449c fabd 394c cc3d
00000150: e637 c33c d073 fc3c 644b 3dbd 10f0 f03b
00000160: ad5b 75bc f2dc b8bd 6ba8 893d 5f6f c1bd
00000170: 35f3 d4bc b126 5b3c 49fe 8ebd a51a c73d
00000180: a2c1 44be 7522 143d a420 2cbe a76e 70bc
00000190: a8cf d5bc ce46 66ba 0833 19bd 8c2b 45bc
000001a0: 0886 57bd 96c9 4ebc be90 703d e323 cdbc
000001b0: 51bb e8bb ad0d 863d caf5 9f3c dd4d 8ebc
000001c0: cb65 0e3e bbf3 303c ab9b e83d e31a c4bd
000001d0: 7951 c3bc 38c2 8ebc 9911 8f3b 32a9 33ba
000001e0: b62f 0fbd b94c 81bd db4a 98bd 3bc0 3abd
000001f0: 297d 043c 7fec e03b 0dd0 51bd be99 f4bd
00000200: 273e f63c 1a82 9a3d 63be 65bd 8fc1 d6bd
00000210: ea7c d93d 4295 5abb 4ff9 2fbd 8b23 32bc
00000220: 7e13 5ebc 5d09 4d3c c2d3 0f3e 20ff a73c
00000230: 41ef a7bc 9807 9a3d 56a4 bdbc 92d3 883b
00000240: 61d8 05be 6f28 fdbb 3309 ecbd b638 12bd
00000250: 762e 743d 6df0 e739 8c8d 0abd 2f21 7bbd
00000260: 2339 98bd 064b c83d d1a8 00bd 4bea dfbd
00000270: 14a4 4a3c e6b2 fa3d c511 89bd 3390 90bd
00000280: 3c01 ca3c 796a c3bc 11a8 e63d b7bd 60bd
00000290: b4dd 96bc 0598 bdba 0774 ac3c 3626 c7bc
000002a0: 5e96 bfbc 2f53 a03b 7e71 9fba 5c43 d4bd
000002b0: 47c2 513d 0172 8f3d 2b18 d33c 27cd 9f3d
000002c0: 2a1a 2b3d 9ee8 b13c 62db ae3d 5118 f73d
000002d0: ed20 88bc a9cb 633d 3b19 c9bc 3ad8 8b3d
000002e0: 0e26 96bc cec8 923c 71f5 f23c d456 353d
000002f0: 8099 143c f61e 693d 385f 8d3c 2612 95bd
00000300: 0bcf debd 3acf 8e3d 5672 8fbd dbf0 0ebd
00000310: 7b96 e23d 0e6c bcbd 4efa b0bd c16b 343d
00000320: 5c10 503c 9976 80bc 25f3 673d 9a42 523d
00000330: be97 9dbc 9b24 e2bd 4b75 59bc a722 a33d
00000340: 394e f33c 2523 5abd fe53 113d 5528 c13d
00000350: 76af 05bd 7595 dcbd 2e28 203d 3c25 83bc
00000360: 3c40 f33b 38af 72bc d47e f8bb 7d94 8f3d
00000370: 0a26 223c 2fa3 803d eb1e 41bd 69f9 d53d
00000380: 6575 4c3c c114 163d fc1b a63d ad5d a9bd
00000390: 3bb3 39bc b444 c6bd bc96 dcbc 70f9 9dbb
000003a0: 4d5b 8dbc 57fd 4a3d 71e4 8fbd 36c5 cdbb
000003b0: 7d71 a1bb 6f00 d83c 25f7 7ebc 1721 a83d
000003c0: be82 04be d4a2 c33b 1727 efbd 4b4d c73d
000003d0: 16ab 293d df1e 733d 34d2 63bc a0b5 0f3c
000003e0: 6a33 06bd a16c 1e3d 7559 3ebe ff72 e23b
000003f0: 810f 47bd fc15 bc3c d86c 89bc 9a75 e93b
