Assets/ML_PPO/results/headless_18/BoatAgent/BoatAgent-49967.onnx (onnx, 945870 bytes, 21 tensors)

discrete_action_output_shape f4 [1, 6]
000000 00 00 00 40 00 00 00 40 00 00 00 40 00 00 00 40
       2.0 2.0 2.0 2.0
000010 00 00 00 40 00 00 00 40
       2.0 2.0

network_body._body_endoder.seq_layers.0.weight f4 [256, 133]
000000 2a 88 5e 3d 28 77 5d be 4e 8b c9 bd 51 26 20 3d
       0.054329075 -0.21627486 -0.098410234 0.03909904
000010 80 46 b9 bc 0c 10 ae bd cf ce 24 bd 1a 04 29 bd
       -0.022616625 -0.084991544 -0.04023629 -0.041263677
000020 0d b0 fe 3d 90 42 41 bc 73 e0 05 bd 61 2e 80 bc
       0.12435923 -0.011795655 -0.032684755 -0.015647115
000030 78 98 c0 bd 07 3e 56 bd 25 04 30 3c 12 48 80 bd
       -0.09404081 -0.052305248 0.010743176 -0.06263746
000040 2f a0 41 3d 49 e8 7b 3d 57 cf b3 bd b3 94 51 3d
       0.047271904 0.06150082 -0.08779781 0.0511672
000050 53 92 ba 3d 35 02 b1 3c 3b aa 34 be 2f 70 bd bd
       0.091099404 0.021607498 -0.17643063 -0.09249913
000060 77 44 f8 3d 89 7b fe bc 29 2d ab bd 10 03 9c 3d
       0.12122434 -0.031064766 -0.08358223 0.076177716
000070 c7 52 b8 3d 9f 42 99 3d 2c 5b 98 bc db 9c 40 be
       0.090001635 0.0748341 -0.018598162 -0.18809836
000080 27 ed 4a be 2f 81 fc 3c 6a f3 d9 3d 00 16 0e bd
       -0.19817029 0.030823318 0.10642131 -0.03468895
000090 3b e7 0a be 20 37 05 3c d6 7d 39 bc e9 de d3 bd
       -0.1356477 0.008130819 -0.0113215055 -0.10345251
0000a0 74 00 db 3d 10 65 1a 3d 63 3b b2 3d 37 d0 04 3e
       0.10693446 0.037694037 0.08702733 0.12970053
0000b0 66 b8 99 bc d7 e9 f2 bc ae 07 4a 3d 99 d9 b8 bd
       -0.018764686 -0.02965252 0.04932373 -0.090258785
0000c0 d3 eb ca 3d 39 bf cc bc d8 c6 63 bd 18 fa 51 be
       0.09908261 -0.024993526 -0.055609554 -0.2050556
0000d0 7e e2 b8 ba ea f9 a3 bd b9 e9 2f bd 50 8b 36 bd
       -0.0014105586 -0.08006652 -0.042947505 -0.044566453
0000e0 f8 66 85 3d 87 9c e6 bd 77 4a 8b bd 36 f9 c4 3d
       0.0651378 -0.11260324 -0.068013124 0.09617846
0000f0 5b e6 0d be 90 98 ef bd 14 c1 86 3d af 01 9a bd
       -0.13857405 -0.11699021 0.065797955 -0.07519852
000100 51 b7 3e 3d 59 9f 8a 3d ab 25 93 bc c4 8a 3b 3d
       0.046561543 0.067686744 -0.017962297 0.045786634
000110 a8 d2 58 3d 0b f1 2b 3c 05 f0 ba bc 1e dc 63 3d
       0.052935272 0.010494481 -0.022819528 0.055629842
000120 b8 18 ca bd 35 09 9b bd ce 2b 19 be 88 de 10 be
       -0.09867996 -0.075701155 -0.14958116 -0.14147389
000130 33 07 3d 3e a6 18 e5 3d ce fc da bd d0 0b e8 3d
       0.18459778 0.11186342 -0.1069275 0.11330378
000140 0d 1d cb 3c e8 94 e0 3c ee 7d 14 3d 5c 8d ab 3d
       0.024794126 0.027414754 0.03625291 0.083765715
000150 0a 18 2b be bb b1 13 bd ec 47 78 3c af 83 16 bd
       -0.16708389 -0.03605817 0.015153866 -0.036746677
000160 2c b8 1c 3e 03 2b db 3d ba 6b 83 bd 08 12 35 bd
       0.15304631 0.10701563 -0.064170316 -0.04420665
000170 87 ac 6f bd 02 24 b9 3c 7a b6 48 3d 40 c0 98 3d
       -0.058514144 0.022600178 0.04900215 0.07458544
000180 5e a5 06 3d 6f 99 77 bc e0 98 13 3d dd 90 82 3c
       0.03287255 -0.015112265 0.036034465 0.015938217
000190 53 11 3f bd 1c 6b 1c bd 1f e7 b0 3d e3 da e6 bc
       -0.04664738 -0.038188085 0.08637833 -0.028180545
0001a0 4f 64 a3 ba 88 3d d1 bd 76 41 a3 3b 6d 5d 8d bc
       -0.0012465807 -0.10216814 0.004982169 -0.017256463
0001b0 88 be 51 bd e6 b1 cf 3c 23 4f 91 bd a8 ee d7 3c
       -0.051207095 0.025353383 -0.07095172 0.026358917
0001c0 e0 8e b9 bd 70 2f 41 bd 91 02 ce 3d d5 9a db 3c
       -0.09060454 -0.04716438 0.10059083 0.026807228
0001d0 fa b5 fe bd 9b 60 d7 3d 89 44 e8 bd 72 fd ee bc
       -0.12437053 0.10516473 -0.11341197 -0.029173587
0001e0 37 37 6e 3b cb 82 9c bd 48 87 a3 bd dd f1 66 37
       0.0036348829 -0.07642134 -0.07984787 1.37653815e-05
0001f0 f9 5b f3 3d ce 8c 2e 3d 6b c1 15 3c 8a 00 1f 3d
       0.11882777 0.04261475 0.009140353 0.038818873
000200 e4 d0 a0 b9 e0 fe 0d 3e ec 13 8c bd e9 11 fd 3d
       -0.00030673214 0.13866758 -0.06839737 0.12356932
000210 d5 6d 01 38 96 41 c0 bc 92 c8 a1 bd 2d 78 5a bd
       3.0858286e-05 -0.023468774 -0.07899584 -0.053337265
000220 80 a1 1e bd f6 8e 07 3e ab 31 a4 3d 7d d1 56 ba
       -0.038728237 0.13238129 0.08017286 -0.00081946683
000230 f7 be c6 bd 0a b6 14 3b 84 13 a2 bc fc 50 ac 3d
       -0.097043924 0.0022691512 -0.019784696 0.08413884
000240 34 f3 10 be 86 32 8e bd f4 c8 ac 3d d3 3a d6 3c
       -0.14155275 -0.0694323 0.08436766 0.026151096
000250 1c e2 9f 3d d2 fc 4f 3d 23 00 53 3c 04 27 80 bc
       0.07806799 0.050778218 0.012878451 -0.015643604
000260 78 ce c1 bb 4f 79 d5 bd af f2 c1 bc 6a 06 a0 3d
       -0.0059145056 -0.104235284 -0.02367529 0.078137234
000270 f6 76 d1 bd 9d c7 dc bd 0a 66 ed 3d ee 8f af 3d
       -0.10227768 -0.10780261 0.11591728 0.08572374
000280 a6 91 9e bd a6 19 dd bd d6 67 ab bd 92 55 15 3d
       -0.07742624 -0.10795908 -0.083694145 0.03645856
000290 b9 30 59 3d 34 a9 84 3c 8a 5f 0b 3b 8e 8f 19 be
       0.05302498 0.016193964 0.0021266663 -0.14996168
0002a0 7f 20 45 3c 73 59 69 bd 6e d6 28 3e de fb 56 3c
       0.012031673 -0.05697007 0.16488048 0.013121573
0002b0 7c c4 08 be 1d 57 87 3d f1 c0 12 be 09 30 b1 3d
       -0.13356203 0.066084124 -0.14331414 0.0865174
0002c0 16 b7 df 3c a0 19 ef 3d c4 09 ba 3d b9 f5 b2 3c
       0.027308982 0.116748095 0.09083894 0.021845685
0002d0 54 1b 6a bd 7c eb 3b be 45 42 54 be c0 69 3c bd
       -0.05715497 -0.18351549 -0.20728405 -0.04599929
0002e0 b9 6c 11 3d cc f0 01 be 37 1b 02 bd 99 2f 56 be
       0.035504077 -0.12689513 -0.031764235 -0.20916595
0002f0 08 35 19 bd 89 19 b4 bc db 19 42 bd 65 72 8f bd
       -0.03740409 -0.021984832 -0.04738794 -0.07004241
000300 31 c1 07 be 66 c2 8f bd 53 fa 81 3c a0 f2 6d 3d
       -0.1325729 -0.070195004 0.015866434 0.058092713
000310 24 f9 07 3d ef bd 76 bd ea 97 94 3d 53 cf c4 3c
       0.033196583 -0.06023973 0.07255538 0.024024641
000320 c6 d7 49 be 18 d3 b8 3d 6d fe 6e bc 4e 7a f8 bd
       -0.19711217 0.09024638 -0.014587027 -0.12132703
000330 ed 51 94 bc ec 60 94 bd 54 b7 e2 3d 1a bd d0 bc
       -0.018105472 -0.07245049 0.11070123 -0.025480796
000340 36 65 bf 3d d9 18 b9 bd 04 28 72 3d 72 6c 07 bd
       0.09345476 -0.090379424 0.059120193 -0.033062406
000350 36 85 58 3e 1a 16 fd 3c a3 27 21 3c ff b2 aa bd
       0.21144566 0.030894328 0.00983611 -0.08334922
000360 33 09 5d 3d e9 08 bc 3d 0b 22 a7 bd ee fe 5c be
       0.05396385 0.09181387 -0.0816079 -0.21581623
000370 3e b1 3a 3c df d3 93 3d ff 7b bf 3d 24 17 25 3e
       0.011394797 0.072181456 0.09349822 0.16122109
000380 1b c8 30 3e 9c 83 36 bd ec c5 2c 3d d3 68 a5 3d
       0.17263834 -0.044559106 0.04218094 0.08076634
000390 0f 2e 47 3c 3a 33 2d bd e5 ec 3e 3d b1 6e e2 bb
       0.012156977 -0.04228518 0.04661264 -0.006910168
0003a0 eb 7d 91 bd 77 e8 20 be 04 53 80 be 36 f3 93 3d
       -0.07104095 -0.15713678 -0.25063336 0.07224123
0003b0 74 6c 39 bd ce e5 18 3e e6 59 1c be e6 02 3e bd
       -0.045269445 0.14931414 -0.15268669 -0.046389483
0003c0 92 26 74 bd e1 cd 1a 3d 2d b3 f1 3c 6a b5 47 3d
       -0.059607096 0.037793998 0.029504383 0.048756994
0003d0 29 00 42 bc e2 bd cf 3c 56 9f 4d bd 90 e8 9f 3d
       -0.0118408585 0.025359098 -0.050200783 0.0780803
0003e0 d6 e3 fb bd fb 7f 2c 3e 99 a4 73 3d 0e a1 2e 3d
       -0.12299316 0.16845696 0.059483144 0.042634062
0003f0 76 1f 02 3d fa ec 31 bc 26 51 82 bd db 12 58 3d
       0.031768285 -0.010859722 -0.06363134 0.052752357

network_body._body_endoder.seq_layers.0.bias f4 [256]
000000 14 4a 2c ba b5 72 ea bb 1b 82 df b9 41 50 0c 39
       -0.0006572318 -0.0071547874 -0.0004263081 0.00013381337
000010 82 fd 37 bb 44 d1 f3 ba f0 2d 38 bb c1 92 4d 39
       -0.0028074686 -0.0018601795 -0.0028103553 0.00019604994
000020 2f 27 e5 ba f1 b4 b9 bb 75 ef 17 3a d7 ec 0d bc
       -0.0017482991 -0.005667322 0.0005795875 -0.008662424
000030 b7 a0 55 bc 0c c5 3c bb 24 c6 a4 bb 89 21 84 b9
       -0.013038806 -0.0028803973 -0.005028503 -0.00025201988
000040 54 3a 1a bb f1 16 0f bc 64 60 8a bc cf 6c 00 bb
       -0.0023533301 -0.008733497 -0.016891666 -0.0019596105
000050 0d 99 44 ba da 9a b0 bb 55 ce 8c 3a f0 b1 33 bc
       -0.0007499613 -0.0053895535 0.0010742644 -0.010967717
000060 af 70 06 bc 8b 91 29 3b bb db 4b bb a9 e2 57 bc
       -0.008205577 0.0025874104 -0.0031106311 -0.013176599
000070 1e 73 06 bc d3 8a c0 bb 4f bf fa 3a 19 4e 61 3b
       -0.008206157 -0.005875924 0.0019130501 0.0034378825
000080 ea 35 0f bb 9f e3 11 ba c9 f4 73 bc 70 3d 38 bb
       -0.0021852204 -0.0005565229 -0.014889904 -0.0028112791
000090 e8 29 83 bb 25 1c 29 3c 72 04 99 3c 9e 60 a6 bc
       -0.0040027983 0.010321652 0.018678878 -0.020309743
0000a0 8c 66 ca bc 16 00 94 3c 54 74 15 bc c0 a8 6f bc
       -0.024707101 0.018066447 -0.009121973 -0.0146276355
0000b0 dd d9 e2 3a 01 75 5d bc 06 f1 0e bc ed ca 85 bb
       0.001730736 -0.013516665 -0.008724457 -0.0040830285
0000c0 f9 2b ab 3b cf 41 a6 3b 62 14 97 3c cd 6c 6b 3b
       0.005223748 0.005073763 0.018442336 0.0035923005
0000d0 ea c0 6c bb 41 a5 f7 3b 4d ac c2 38 18 1d 60 bb
       -0.0036125728 0.0075575416 9.2827344e-05 -0.0034197029
0000e0 99 09 c9 bb af 21 98 3a c6 25 5e bb dd e9 96 39
       -0.0061351773 0.0011606718 -0.0033897026 0.0002878447
0000f0 19 52 b1 ba b3 56 18 bc 5c cd c7 39 82 3e ac 3b
       -0.0013528495 -0.009298014 0.00038109242 0.005256475
000100 77 41 a3 bb da 51 07 bc 83 b9 dd 3b 58 d4 36 bc
       -0.0049821693 -0.008259261 0.0067664995 -0.011159025
000110 cd 1c 26 bc c7 66 e9 bb 96 78 01 bc 64 c8 14 bc
       -0.010138703 -0.0071228477 -0.007902285 -0.00908098
000120 b8 35 a9 bb 81 59 74 bb b3 08 5d bb 00 ff c4 ba
       -0.0051638745 -0.0037284794 -0.003372711 -0.0015029609
000130 79 b6 5a 3b 09 d9 2c 3c c8 ff e5 ba 3c e5 3d ba
       0.0033372922 0.010549792 -0.0017547542 -0.00072439364
000140 87 69 68 bb e4 85 b4 bb ea b4 0c bb cc 35 8a bc
       -0.003546329 -0.005509125 -0.0021470138 -0.016871355
000150 66 cc 9e bb 6e 8c 30 bb 88 4a 12 bc 8f 9a a5 ba
       -0.0048461435 -0.0026939171 -0.008928902 -0.0012634563
000160 da ef 2a bc 7d c1 ea bb 62 e8 eb bb 07 fe fb b8
       -0.010433162 -0.007164179 -0.007199333 -0.00012015929
000170 f5 7c 47 bc b5 b8 db bb 0c 1a 1a bc 6a d9 2b 3a
       -0.012175788 -0.0067053684 -0.009405624 0.00065555295
000180 25 ce 5d bb f8 56 05 bc 6c 0a 7b bc c4 ba 8c 3b
       -0.0033844796 -0.008138411 -0.015322309 0.004294725
000190 a5 49 85 bb fa d2 e8 bb cb c9 5f bc 64 47 9e bb
       -0.004067617 -0.0071052285 -0.013658951 -0.004830288
0001a0 a8 47 b8 ba 0b a7 1f 3b 90 48 0d 3d b7 ed 99 3a
       -0.0014059441 0.002436104 0.03449303 0.0011743818
0001b0 a0 21 79 3b 70 62 75 3a ba e0 30 bc b7 a9 e1 ba
       0.0038014427 0.00093606766 -0.0107957665 -0.0017216717
0001c0 64 cd 2c 3a 5e 8f 96 3b cc e4 42 bc 9f c6 52 3b
       0.0006591885 0.0045947274 -0.01189537 0.0032161844
0001d0 7d 22 9f bb 68 67 2e 3a ff ee 70 bb d0 79 4f ba
       -0.0048564062 0.0006652982 -0.0036763547 -0.0007914575
0001e0 6c b1 86 bb 35 dc 85 3b cd 9c 2b bc 26 17 f9 ba
       -0.004110506 0.0040850886 -0.010474396 -0.0019004091
0001f0 28 0d 71 bc ca 35 17 bc 29 bc 57 3c 82 ea 9e bc
       -0.014712609 -0.009229133 0.0131674195 -0.019398931
000200 a9 58 69 3b 7e 99 f1 bb 72 74 d9 bb 0c b0 45 bc
       0.0035605824 -0.007373034 -0.006636196 -0.012065899
000210 b8 f2 d6 3a ca 70 1c bc 03 45 de bb d5 95 d5 3b
       0.001639924 -0.009548375 -0.006783129 0.0065181055
000220 f9 17 da bb 39 4e 6c 3b 84 93 0a bb cd f2 16 bb
       -0.00665569 0.0036057367 -0.0021145055 -0.0023032904
000230 fc 90 b0 bb d9 4a 18 3a 94 49 42 bc ba e6 4c bc
       -0.0053883772 0.0005809493 -0.011858363 -0.012506181
000240 76 ec 94 ba f9 b8 66 bc 41 9a 6f bc cb af e3 3b
       -0.0011361975 -0.014082187 -0.014624179 0.0069484464
000250 da f9 99 bb 30 7c 7c bc 17 9e 89 3b 9e 8f 80 bb
       -0.004698974 -0.015410468 0.004199754 -0.0039233705
000260 93 79 8a b9 f8 06 5f bc 35 68 14 ba fb 95 07 bc
       -0.0002641199 -0.013612501 -0.000566128 -0.008275504
000270 f0 72 3e bb 65 29 9c 3a 83 fc 5d bc 27 4f 30 b9
       -0.0029060207 0.0011914192 -0.013548973 -0.00016814155
000280 81 b6 02 3b f1 52 aa bb 8f be e5 3a cf 7c a4 bb
       0.0019945207 -0.0051978757 0.0017528104 -0.005019761
000290 39 19 25 bb a1 1a 93 bb 85 f3 80 bb 7c 69 78 bc
       -0.0025192036 -0.0044892584 -0.00393528 -0.015161868
0002a0 40 cc 49 bb ae 0c a0 3b a5 1f 22 3b bf 19 d0 bb
       -0.0030791909 0.004884324 0.00247381 -0.0063507254
0002b0 66 f0 ac bb d1 28 a6 3b b4 87 00 bb f8 f6 b4 bb
       -0.005277681 0.0050707837 -0.0019612135 -0.005522605
0002c0 14 8c bf bb a1 57 37 3c e7 45 a9 ba 54 04 4f bb
       -0.005845556 0.011190326 -0.0012914509 -0.0031588273
0002d0 5e b3 c3 3a 33 c0 09 bc 28 ed b9 bb 2c bf fd 3b
       0.0014930775 -0.00840764 -0.005674023 0.0077437367
0002e0 da ce a9 3b a4 9d a0 3b fd ea fa 3b 12 6b 94 ba
       0.0051821293 0.0049016047 0.0076574073 -0.0011323413
0002f0 86 2d 83 3b dd 24 14 bc 89 79 c6 bb d1 70 93 3a
       0.0040032296 -0.009041992 -0.0060569686 0.0011248832
000300 c7 13 89 bb 7c e4 d9 bb da 2f 10 bc 40 00 a9 ba
       -0.004183266 -0.006649552 -0.008800471 -0.0012893751
000310 7c b6 8e 3b 68 c0 32 bc 61 ed c4 3b 39 ce d4 3a
       0.00435525 -0.010910131 0.006009743 0.0016235776
000320 7c 55 10 3b 02 34 2a bc 39 6f ce ba 44 80 23 bb
       0.002202361 -0.010388376 -0.00157497 -0.0024948278
000330 e6 cc 73 bb 5f e6 d8 3a 4d 83 46 bb 2a cd 58 3b
       -0.0037200986 0.0016548148 -0.0030290664 0.0033081272
000340 41 5e 2e 3b 87 ba ac b8 05 e6 6f 3c 16 37 27 bc
       0.0026606473 -8.2363425e-05 0.014642243 -0.010206005
000350 38 36 90 3b 83 8c 50 bb fb 40 06 bb 92 48 ab bb
       0.0044009946 -0.0031822033 -0.0020485509 -0.005227157
000360 35 50 83 bc 3a b3 b3 bb 5a 1f b1 bb 08 92 b9 bb
       -0.016029457 -0.005484012 -0.0054053487 -0.0056631602
000370 d5 de b0 3b af 1d ea ba a5 6f 60 bc bc ff 16 3c
       0.0053976574 -0.001786163 -0.013698493 0.009216245
000380 bf be bd bb 54 87 e9 3b 46 70 09 bc 48 96 4f bb
       -0.005790561 0.007126728 -0.0083885845 -0.0031675268
000390 d2 07 e7 ba d9 47 fd ba 62 a6 18 bb 02 05 ed 3b
       -0.0017626232 -0.001932378 -0.0023292531 0.007233263
0003a0 32 49 7f bc 55 38 ca bb c4 9e 0d bb 4e 88 a6 38
       -0.015581416 -0.006171266 -0.0021609524 7.9408856e-05
0003b0 e7 ef 44 bc 88 f2 00 ba cf c3 cb 3c 42 b8 ff bb
       -0.012020088 -0.00049189525 0.024873642 -0.0078039477
0003c0 05 3b f0 bb 57 ec 4b bc 70 ab 42 39 c7 34 e5 bb
       -0.0073312544 -0.0124464845 0.00018565147 -0.006994817
0003d0 04 b5 47 3b 6a 2b e0 ba 7b fb c5 bb 48 32 81 bb
       0.0030472884 -0.0017102782 -0.0060419417 -0.0039427616
0003e0 9a 53 35 3c 8a f0 ea ba 3e d1 05 bb 6a b7 57 3c
       0.011067295 -0.001792447 -0.0020418908 0.013166288
0003f0 15 08 24 bb 37 fa db bb a3 00 5f 3c ad aa 84 ba
       -0.0025029231 -0.0067131775 0.013610992 -0.0010121666

network_body._body_endoder.seq_layers.2.weight f4 [256, 256]
000000 2f ac 98 bc c4 31 26 3d 8d 77 41 bd 52 c9 90 bd
       -0.018636791 0.040574804 -0.047233153 -0.07069649
000010 42 d1 b0 3d 24 11 f3 bd da e1 8e bd c8 39 cb bb
       0.08633663 -0.11868504 -0.069766715 -0.0062019564
000020 78 fd dc 3c 5a 25 a1 bc 4e 05 36 bd 69 0b bd 3d
       0.026976332 -0.01967113 -0.044438653 0.09230692
000030 9e be eb bc d9 bc 6c 3d 1f 49 69 bd 8f 37 97 bd
       -0.028777417 0.057797287 -0.0569545 -0.07383644
000040 3f ae 1e 3d 90 ce a8 3d e5 03 9c 3d 5c fe a8 ba
       0.038740393 0.08242524 0.0761793 -0.0012893188
000050 2a 61 5a bd ce 0c b0 3d cb 78 8b bc d3 e4 12 be
       -0.05331532 0.08596192 -0.017025372 -0.14345102
000060 18 22 bd 3d 4c e8 c7 bc ca b2 a4 bd 07 6d fa 3d
       0.092350185 -0.02440276 -0.08041914 0.122278266
000070 ca 38 96 3c 6b 04 31 3d 8b 47 cd ba 00 b1 a7 3d
       0.018337626 0.043217104 -0.001566158 0.08188057
000080 e3 26 0f bd 36 d7 09 3d 68 fe d0 bc e0 bc 19 be
       -0.034949195 0.033652507 -0.025511935 -0.15013456
000090 b7 33 8d bd d9 14 c8 3d ab 80 64 bd 47 87 93 ba
       -0.068946294 0.097696014 -0.05578677 -0.0011255526
0000a0 63 8f f0 bd b7 e7 81 3d eb c0 13 bd 39 12 aa 3d
       -0.11746099 0.06343024 -0.036072653 0.08304257
0000b0 44 a4 ad bd f6 65 e0 3b 63 e6 18 bd 6e 27 aa 3d
       -0.08478597 0.006848092 -0.03732909 0.08308302
0000c0 30 ea 05 bd 55 81 bd bd 68 e4 ac bb c8 c4 14 3c
       -0.03269404 -0.09253184 -0.0052762516 0.009080119
0000d0 1f 8c ca 3d 54 7c b7 bd ef 9c c5 bc f0 e8 85 3b
       0.09890007 -0.089592606 -0.024122683 0.004086606
0000e0 c0 2a db bd dc af cf 3c 39 b3 53 bd 97 1c f3 bd
       -0.10701513 0.025352411 -0.051684592 -0.118706875
0000f0 1a da c3 bc 3a 87 10 bd d7 93 d0 bc 1d 7f 06 3d
       -0.02390771 -0.035285212 -0.02546112 0.03283607
000100 c8 40 44 3e 23 cc 9b bd 7a 63 01 bd f9 0d 9e 3d
       0.19165337 -0.07607295 -0.03158901 0.07717509
000110 09 44 4e bd 74 46 1c bc 8c c3 88 3c 41 fc cc 3d
       -0.050357852 -0.009538282 0.016694807 0.10009051
000120 c9 a6 90 bd 43 f8 0f bd c3 5e 8a bd 3f 32 d2 bd
       -0.07063062 -0.03514887 -0.067563556 -0.1026349
000130 dd 3a dc bd 27 96 6d 3d cc 22 94 bd 46 38 89 bd
       -0.10753415 0.058004525 -0.072331995 -0.067001864
000140 f3 e0 48 3d 45 5d 83 bd 8a 37 9a bd 01 bb 53 bd
       0.049042653 -0.06414274 -0.075301245 -0.051692013
000150 62 19 68 3c d6 12 0b bd 7c a5 4d 3d 31 c8 1b be
       0.014166208 -0.03395351 0.050206646 -0.15213086
000160 de fa a1 bc 80 09 14 3e b2 6b 65 3d 98 9a b1 3d
       -0.019772943 0.14456749 0.05601091 0.086720645
000170 30 64 af 3c 40 99 27 be 0d 58 80 bd c2 06 e1 bd
       0.021410078 -0.16367054 -0.06266794 -0.10987617
000180 2c 0f d6 bc 6a cb c1 bc a2 a1 16 3d 56 16 57 3d
       -0.026130281 -0.023656566 0.03677524 0.052511536
000190 32 34 e0 bd 2b e7 7a ba d0 65 3a 3d 55 3f c9 3d
       -0.109474555 -0.000957119 0.045507252 0.09826533
0001a0 74 4a 69 bc 25 3a 8e bd c9 4c 27 bd 9f 22 3c bd
       -0.014238942 -0.06944684 -0.040844712 -0.045931455
0001b0 bf 95 f3 bc 2a a7 d5 3b 7c fa 0d bc 3a f2 bb 3a
       -0.02973449 0.0065201716 -0.008665677 0.0014339157
0001c0 52 9d a0 3b 04 e6 76 3c ee 17 ed bc 72 bb d1 3d
       0.0049015665 0.015069488 -0.028942075 0.102408305
0001d0 97 33 48 bd 69 b0 99 bd 72 51 3b 3c 1e 0a 89 3d
       -0.048877325 -0.07504351 0.011432992 0.06691383
0001e0 de 55 1e bd 51 7f c2 3d c4 ef f0 3c 4e 94 5d 3d
       -0.038656108 0.0949694 0.029411204 0.054096512
0001f0 2c c9 ca 3d 86 06 45 bd 6a 9b b6 3d db e7 d1 bd
       0.09901652 -0.048101924 0.08916362 -0.10249301
000200 9a 45 0f bd a2 a9 61 bd 60 29 c3 bd 86 13 98 bb
       -0.034978487 -0.055093415 -0.09529376 -0.0046409993
000210 44 0d 1a bc 7f c7 03 bd 31 cc 66 bd 55 cb 3b be
       -0.009402577 -0.032172676 -0.056347076 -0.18339284
000220 cd ba 90 bc 00 97 a0 3c 3e e2 c2 3c 21 9e 73 bd
       -0.017667199 0.019603252 0.023789521 -0.059476975
000230 b0 18 7d bd bf 85 17 bd c7 ac 70 3d 12 81 4f bd
       -0.061791122 -0.036992785 0.058758523 -0.0506602
000240 a1 12 14 bd 4f 53 b4 3c c2 c3 ca 3d 2c db 68 bd
       -0.03615058 0.02201238 0.09900619 -0.056849644
000250 5f a6 f1 3b 14 68 50 3b fb 74 0a bd 54 ce 6d bc
       0.0073745693 0.0031800317 -0.033802968 -0.0145145245
000260 61 66 3d bd 5b fd d5 3a 34 d7 e2 bc 86 5b 0a bd
       -0.046240214 0.0016326116 -0.027690507 -0.03377869
000270 fa 38 a9 3a ee e6 8d 3d fe 91 07 bd d8 ec f7 bb
       0.0012910657 0.06928812 -0.033098213 -0.007566076
000280 47 7c ba bc 15 f0 80 bd ae 75 08 3d ac a0 fa bc
       -0.022764338 -0.06295792 0.033315353 -0.030594192
000290 58 39 98 3d 3f fd 98 bb 36 66 dc 3c 68 d1 90 3d
       0.074328125 -0.004668861 0.026904207 0.07071191
0002a0 25 f6 d1 bd 8e b2 9a 3d 9d ae 2b bb 12 b1 90 3d
       -0.102520265 0.07553588 -0.0026196607 0.070650235
0002b0 ba 79 a3 3d c0 b2 58 3d 9c e1 93 bc 8a d3 af bd
       0.07982202 0.052904844 -0.018051915 -0.0858527
0002c0 33 5c 5a 3d 45 90 16 bc bc fc cd 3b 30 29 02 3d
       0.053310584 -0.00918967 0.006286232 0.03177756
0002d0 58 7e e1 bd 3e 6a 42 3d 92 ee 24 bd c8 b5 39 be
       -0.11010426 0.0474646 -0.04026658 -0.1813575
0002e0 13 a2 34 3d 4f 34 7b 3c cd 05 05 3d 87 11 2b bd
       0.04409988 0.015332296 0.032476235 -0.041764762
0002f0 50 9a 4d 3d ba 89 e8 bc ff 0c d5 3c 5d d0 8c 3d
       0.050195992 -0.028385986 0.026007174 0.0687568
000300 b4 b4 fd 3d cf 62 9f 3c 76 35 bf bd 11 bc da 3c
       0.12387982 0.019456295 -0.09336369 0.026701005
000310 81 28 58 bc fc 22 90 3d b2 e1 a0 bc aa 3a 2f bd
       -0.013193251 0.07037923 -0.01963887 -0.042780556
000320 f7 dc 6a bd fc b1 47 3d 80 c0 8c 3d d4 bd e0 bc
       -0.057339635 0.048753724 0.06872654 -0.027434267
000330 f4 dd 4d bd 87 8d 00 be ea 06 52 bd 13 6d 1d bd
       -0.0502605 -0.12553988 -0.051276125 -0.0384341
000340 57 ad 33 bd 98 66 4f bd 7f b9 50 bc a5 8a 83 bd
       -0.04386648 -0.05063495 -0.012739538 -0.06422929
000350 2b 88 ca 3c ae 47 9e 3d 6a 62 83 3d a8 fc 08 bd
       0.024723133 0.077285156 0.06415255 -0.033444077
000360 92 9a 24 3e 12 ff ac 3d 71 f0 2a 3d ae 2e dd bd
       0.16074589 0.08447088 0.04173321 -0.10799919
000370 88 ea 32 3d 11 a4 33 bd 8c c1 d9 bd c7 8d df bd
       0.043680698 -0.043857638 -0.10632619 -0.10915714
000380 f8 84 6d 3d af 58 dd bd a3 7b c4 3c 12 2c 50 3c
       0.057988137 -0.10807931 0.023984736 0.01270582
000390 45 7b 18 3c 96 ea 18 3d ee 30 e2 3d 1e fc 65 3d
       0.0093067335 0.037333094 0.11044489 0.05614864
0003a0 9e 84 b1 bd bb c3 4b 3d b6 e7 e7 3a 6d 6a 4d bd
       -0.08667873 0.04974721 0.0017692957 -0.050150324
0003b0 9a 55 2c bc 38 38 db 3d 51 13 53 bd 21 ac fc bb
       -0.010518456 0.10704082 -0.051532093 -0.007710949
0003c0 8d 83 ea 3d a4 34 89 3d d5 02 1f bd ec d0 4f bd
       0.114508726 0.066994935 -0.03882106 -0.050736353
0003d0 e9 d1 68 bd 35 fd 6c b8 6b b8 74 3d a6 57 bb bd
       -0.05684081 -5.6502602e-05 0.059746187 -0.09147577
0003e0 16 40 74 bd 61 d4 8b 3b ed 40 8b bd 68 53 e8 3b
       -0.05963143 0.004267261 -0.06799493 0.007090021
0003f0 fe 05 5c 3d b1 59 39 bd e7 c5 1e 3d 06 8d 41 bc
       0.053716652 -0.045251552 0.038762953 -0.011813408

network_body._body_endoder.seq_layers.2.bias f4 [256]
000000 0a 61 65 3b 39 d0 7d bb dd 9b a1 3b e3 0a 5d ba
       0.0035000467 -0.0038728847 0.0049319104 -0.0008432103
000010 ce 5b 4c 3b 37 42 71 3a 68 74 1f bc c6 9a 90 ba
       0.003118265 0.0009203287 -0.009732343 -0.0011032454
000020 80 e5 38 bc aa 7c d3 b9 80 a4 f8 bb ef 39 f6 bb
       -0.011285186 -0.00040337938 -0.0075879693 -0.0075142304
000030 e0 b9 be bb 96 c3 b4 3b cb 36 86 3a 7c 03 b8 bb
       -0.005820498 0.0055164797 0.0010239718 -0.0056156497
000040 89 48 97 bb d4 dc 04 bc e7 0c 7c ba c7 63 37 3c
       -0.004616801 -0.00810929 -0.00096149597 0.011193222
000050 09 95 b0 3b c3 ab 3e bc ba 8d e3 3b d7 81 88 bc
       0.00538886 -0.011637631 0.0069443854 -0.016663475
000060 9d a6 54 bb f5 3e 10 bc a1 7d b1 3b 2f 6d 07 ba
       -0.0032447942 -0.008804073 0.0054165875 -0.0005166111
000070 0b 4d 96 bb 7e 19 37 3a a5 f5 54 bb ff 1c 3c 3b
       -0.004586821 0.00069846946 -0.0032495048 0.0028703806
000080 f8 6f 5a bb c9 33 ea 3b 94 6d 2f bc 83 b0 64 bb
       -0.0033330899 0.0071472866 -0.010707278 -0.0034895248
000090 23 46 16 3c 21 da 9d 3c 9e 45 38 3c 7b 74 81 3b
       0.009171995 0.019269051 0.011247067 0.003950653
0000a0 4b 7c b3 bb d7 2b 6d 3b 35 70 93 bb 54 fc 62 bb
       -0.0054774634 0.003618946 -0.00449946 -0.0034635263
0000b0 bc 65 bb 39 10 4f 29 bc 13 ee 94 bb 54 f7 dd bb
       0.00035743217 -0.010333791 -0.004544982 -0.0067738686
0000c0 e6 2f a3 bb 39 23 df 3b 0c 2f 00 bc b0 bd a9 bb
       -0.004980075 0.006809619 -0.007823717 -0.005180083
0000d0 e9 13 b1 bb 4f e3 8b ba 2d 26 81 3c f5 d9 b8 3a
       -0.005403985 -0.0010672602 0.015765274 0.0014103042
0000e0 f4 de 6a 3a 5a 38 b8 3b 2d 73 68 bc 3c 5b 95 bc
       0.0008959614 0.005621952 -0.014187616 -0.01823198
0000f0 7b bf 3f bb de 25 4f bc b8 cd 00 bc c0 f0 3b bb
       -0.0029258418 -0.012643306 -0.007861547 -0.0028677434
000100 7b 24 dd bb 1b 59 5a 39 69 4a 83 3c 43 38 7b bb
       -0.0067487336 0.00020823294 0.016026692 -0.0038333095
000110 e6 35 26 3b 7d 43 7c bb 94 bc 02 bb 39 ab ac b6
       0.0025361716 -0.0038492375 -0.0019948827 -5.1459324e-06
000120 00 3e fb bb 1d e5 0e bb eb 0b d2 bb e9 8e e8 3b
       -0.007667303 -0.0021804043 -0.006410112 0.0070971143
000130 07 ce 06 bb ab 83 b0 bb 11 e9 af bb ca 6d db bb
       -0.002056958 -0.00538679 -0.00536836 -0.0066964375
000140 6f f0 87 bb 04 45 25 3b 74 25 89 bb cc 04 ef bb
       -0.004148535 0.0025218138 -0.004185373 -0.007294273
000150 22 88 9b bb aa 35 fd bb 5c a1 0b bb 56 09 31 bc
       -0.004746453 -0.0077273445 -0.0021305894 -0.0108054485
000160 62 3d bc ba e4 38 98 bb 1b 9a b3 bb 11 40 18 ba
       -0.0014361555 -0.0046454538 -0.0054810173 -0.00058078865
000170 47 fb c2 bb db e2 6f ba 9c ef ae 3b df 48 c0 ba
       -0.0059503647 -0.00091509306 0.0053386223 -0.0014670155
000180 9a 94 ba 3c e1 19 9a bb 45 33 32 3c e8 ac ff b9
       0.022775937 -0.004702792 0.010876481 -0.00048766215
000190 ac b0 01 bc 0e 0e 9a bb 77 69 40 ba da 12 57 3b
       -0.007915657 -0.0047013825 -0.0007339934 0.0032817633
0001a0 37 7c 5b 3b 67 ec c4 ba 2a 75 ca ba b8 da 7d 3b
       0.0033490786 -0.0015024067 -0.0015446295 0.0038735103
0001b0 6a b5 ce 3a 0f 48 b5 bb 83 52 e3 bb 7f 41 11 bc
       0.0015770618 -0.0055322717 -0.0069373264 -0.008865713
0001c0 3e 65 01 3c 70 4c c2 3b 60 c1 bd bb 3b 09 06 bb
       0.007897673 0.005929522 -0.0057908744 -0.002045228
0001d0 51 7c bb 3b f0 49 d0 3b 61 dd 18 3b 6f 98 55 bb
       0.005721607 0.0063564703 0.0023325311 -0.0032592078
0001e0 63 f0 e5 ba 77 49 71 b8 0f f1 08 bc 0e bf 22 bb
       -0.0017542954 -5.7527297e-05 -0.008358254 -0.0024833116
0001f0 de 5f 03 3b f5 40 6a bb c9 d6 1c bc 4a 74 86 3b
       0.0020046155 -0.0035744284 -0.009572693 0.004103218
000200 15 7b 13 bb ff 02 08 bc e3 db 72 3b e6 aa 0a b9
       -0.0022503783 -0.008301496 0.0037057332 -0.0001322437
000210 70 25 0a ba d2 5e cc 39 8b 69 01 bc 77 d1 0b bb
       -0.0005269861 0.0003898056 -0.007898699 -0.0021334568
000220 14 d5 bc b8 bc 7c ed bb 64 21 50 bb dd 1f c1 bb
       -9.0042275e-05 -0.0072475355 -0.0031758184 -0.005893691
000230 fe 0e b0 3b 9d f1 a6 bb 18 42 ff ba 06 a8 1a bc
       0.005372881 -0.0050947205 -0.0019474654 -0.009439474
000240 7b 39 eb bb b3 12 40 bc f6 13 47 3b d5 d0 ae ba
       -0.007178483 -0.011723208 0.0030376888 -0.0013337383
000250 1a 60 41 3c ba 8f 01 bb 15 e8 74 bb a6 42 41 bb
       0.011802698 -0.0019769506 -0.0037369777 -0.0029489188
000260 52 35 b8 bb 02 4c 3b bb 94 e3 3c bb 4b 28 32 bb
       -0.0056215907 -0.002857924 -0.002882217 -0.002718466
000270 08 27 8c bb 02 d3 84 bb d7 51 5a bc 5f d8 f0 ba
       -0.004277114 -0.0040534744 -0.013325176 -0.001837503
000280 58 7a ea bb 7b 45 91 bc 52 11 a9 3a df 6b 61 bb
       -0.007155698 -0.017733326 0.0012898839 -0.0034396572
000290 98 9b 8c 3a 6c f9 98 3b 67 6c c9 3b b1 24 e2 bb
       0.0010727523 0.0046684053 0.006146956 -0.0069013466
0002a0 37 b2 b3 bb 5b fb f3 bb e8 ed 52 bb 67 16 22 bc
       -0.0054838913 -0.0074457354 -0.003218526 -0.009893036
0002b0 4f 19 a5 ba 38 d5 0d 3b 03 7e 17 3b 62 d6 6e bb
       -0.0012596044 0.002164198 0.002311588 -0.00364437
0002c0 5e d6 b6 b9 9a ed a9 ba 4d a5 84 3c 98 e2 ea bb
       -0.0003487346 -0.0012964488 0.016192103 -0.0071681254
0002d0 45 61 6c bb 9b 50 9f bb 1f 86 81 b7 f8 5f 6a 3b
       -0.003606872 -0.004861904 -1.5440453e-05 0.0035762768
0002e0 a2 60 ae 37 d8 66 ab 3b b9 08 86 bc 53 cc 76 bb
       2.0787415e-05 0.005230766 -0.016361581 -0.0037658408
0002f0 0c 38 f4 bb 4c 85 97 bb fc ce aa 3a 54 1b 2a 3c
       -0.0074529704 -0.0046240445 0.0013031657 0.010382492
000300 e1 f4 58 bb 20 e2 76 3a bc e2 65 bb c4 bd a5 b9
       -0.0033104944 0.00094178505 -0.0035077771 -0.0003161264
000310 be 2e 4b 3b 95 82 8f 3a b1 6d 57 3b ab 03 fa bb
       0.0031003202 0.0010948951 0.0032871778 -0.007629832
000320 33 9b 07 bc cb 29 bb bb 5c be cb bb d1 61 0f bc
       -0.0082767485 -0.005711769 -0.006217761 -0.008751349
000330 07 f5 48 bb cb 39 80 3c 31 4f 10 3b 84 30 e1 ba
       -0.0030663626 0.015652558 0.0022019858 -0.0017180596
000340 48 7b a4 bb 78 f3 9c bb bf d2 b3 bb bc 46 bb 3b
       -0.005019579 -0.004789766 -0.0054877694 0.0057152193
000350 87 d4 98 bb bd f9 cf 3a e5 4b 24 bb fe 9b 09 bc
       -0.004664007 0.0015867274 -0.002506965 -0.008399008
000360 62 7d 3b bc 34 4d b0 bb e3 f6 ec bb 73 95 af ba
       -0.011443468 -0.005380297 -0.0072315796 -0.001339598
000370 ef 2a fd ba 0c d1 6b 3b 49 d0 cb bb f7 cd d6 ba
       -0.0019315163 0.0035982756 -0.006219898 -0.0016388287
000380 e8 39 31 bc 08 6d 8e bb 89 8b 50 39 b6 c7 4e 3b
       -0.010817029 -0.0043464936 0.00019888407 0.0031552142
000390 43 b6 64 bb 24 62 dc bb 99 6f 10 bc bf f6 1a 3c
       -0.0034898676 -0.0067255665 -0.008815669 0.009458243
0003a0 71 7c 4c bc f2 1a f2 ba f9 20 17 bc 22 6a a6 ba
       -0.012480841 -0.0018471165 -0.00922417 -0.0012696425
0003b0 c5 6e ad bb f5 84 f1 ba 55 34 92 3b b3 10 02 3b
       -0.005292746 -0.0018426465 0.004461805 0.001984638
0003c0 af 8a 09 3b 10 a4 65 3b 6b 72 04 3c 53 92 cf 3b
       0.0020987203 0.0035040416 0.00808392 0.006334582
0003d0 7b 65 01 3c 36 31 16 bc bc c6 4a bb 8c a6 c2 ba
       0.00789773 -0.009167006 -0.0030941209 -0.001485066
0003e0 95 79 ff ba c2 53 a5 bc 1b 30 47 ba b7 62 67 3b
       -0.001949119 -0.02018154 -0.0007598416 0.0035306641
0003f0 bb 37 5b bb 83 65 0b 3b 97 24 f1 bb d0 56 06 bb
       -0.0033449966 0.0021270222 -0.007359098 -0.0020498522

network_body._body_endoder.seq_layers.4.weight f4 [256, 256]
000000 d4 b6 83 bd 64 84 1d bd 4a c2 57 3e 38 56 d3 3c
       -0.06431356 -0.038456336 0.21070209 0.025797948
000010 9d f0 2d 3d ac c5 2f bc e4 57 e5 3d 0d ca b4 3c
       0.042465795 -0.010728281 0.111984044 0.022069002
000020 7b af 1d bd 93 6e ee bc 2b b5 63 bc 78 e0 85 3b
       -0.03849743 -0.02910546 -0.013898174 0.0040855967
000030 98 c2 b3 bd 21 6a 26 bc d6 b4 7e 3d 61 4d f8 ba
       -0.0877735 -0.010157139 0.062184177 -0.0018943959
000040 82 8e 86 3d 96 e3 0c bc 2c 5c b9 3c af b2 bc 3c
       0.0657015 -0.008599183 0.022626959 0.023034422
000050 12 7b df bd d6 b7 88 3c a4 8e 0b bc 98 63 1d bd
       -0.10912146 0.016689222 -0.008517895 -0.038425058
000060 8b fe 61 bd a5 69 a7 bc 29 03 df bd 94 c3 e6 3c
       -0.05517439 -0.020436117 -0.108892746 0.02816943
000070 31 e7 f8 3c eb fb b0 bc e2 7a 75 3d 86 10 73 3c
       0.030383678 -0.021604499 0.059931643 0.014835482
000080 3c fb c6 3c 6f 5a 0b be 1c 7d 7a 3a 63 09 c2 bd
       0.02428972 -0.13608716 0.0009555386 -0.094744466
000090 18 7c c2 bd 26 9b df 3c ac 69 37 bd eb 2e fb 3c
       -0.09496325 0.02729566 -0.04477851 0.03066202
0000a0 ac d0 68 bd 1f ec 58 3d 16 d7 f6 3a 1b 9d 0c bd
       -0.05683963 0.052959558 0.0018832411 -0.034329515
0000b0 f9 5e d5 bc 4c 5e 52 3d 68 c0 26 3c 7d 12 5b 3d
       -0.026046263 0.05135946 0.010177709 0.05348443
0000c0 81 82 df bd 81 2c 94 bc 5b 93 b9 bb e8 9c b0 bd
       -0.109135635 -0.018087627 -0.005663318 -0.086236775
0000d0 33 9d ca 3c 3d 8a 33 3a 69 29 14 3d 02 cf c0 bd
       0.024733162 0.0006848907 0.036172304 -0.094144836
0000e0 4e f9 6b bd a5 99 b0 bc 0b cd 77 3d 34 0d e3 bd
       -0.057610802 -0.021557638 0.06049828 -0.11086503
0000f0 67 ec 8c bd 7d b1 df 3a 47 ea 21 3d 01 d1 7d 3b
       -0.06881028 0.0017066445 0.039530065 0.0038729312
000100 1f 4f f8 3d 9b 55 bf bd 25 df ec bb a9 06 f5 3c
       0.12124466 -0.093425 -0.0072287493 0.029910402
000110 8d cd ad bd f0 34 72 bd 49 a7 77 3d a3 ee e5 bd
       -0.08486471 -0.059132516 0.06046227 -0.11227157
000120 cc 7e dc bc 99 a2 11 3c 5a dc 04 3e 47 7d ed 3c
       -0.02691593 0.008888864 0.12974682 0.028990401
000130 aa 7a e3 bc ac 2c 9c bd b2 e5 5e 3d 0b 59 fb bb
       -0.027768452 -0.07625708 0.054418273 -0.007670527
000140 1b a4 bf 3d 2c e4 85 3d 23 d0 4a bd 61 3c 2d bd
       0.093574725 0.06537661 -0.0495149 -0.04229391
000150 bd 86 26 bc 7a 41 26 bd 79 f1 1d bd c1 a9 47 3d
       -0.01016396 -0.040589787 -0.038560364 0.048745874
000160 2f 0b 32 3c 93 7c 72 bd d2 50 b7 bc 3b 7d 9d 3d
       0.010866924 -0.059200834 -0.022377405 0.076899014
000170 ee 37 d7 bc 30 34 03 bd 08 af ac 3d 32 76 df bc
       -0.026271787 -0.03203219 0.08431822 -0.02727804
000180 de b3 df bc 2f c3 11 3d 80 4f ee bb 87 75 52 3d
       -0.027307447 0.035586532 -0.0072726607 0.051381614
000190 55 d4 2c bb 1b 6c 6d 3d 32 57 cb 3c 4f dc a5 3c
       -0.0026371677 0.057964426 0.024821851 0.020246653
0001a0 5a 10 24 bc a8 48 18 be 13 65 cb bc e0 d4 8b bc
       -0.010013664 -0.14871466 -0.02482847 -0.01706928
0001b0 77 ec bb bd fb 69 79 3c 84 58 80 3c f4 8a a8 3d
       -0.091759615 0.015223022 0.015667208 0.08229628
0001c0 ed cf ad 3d 7b 32 c9 bd 59 14 ee bb 32 3e 35 bd
       0.08486924 -0.098240815 -0.007265609 -0.044248767
0001d0 e2 b2 cb 3c 70 56 0d 3d 9a 8f 3b bd 94 e1 b1 3b
       0.024865571 0.03450626 -0.045791246 0.0054285023
0001e0 77 9c 8c 3d 2d fd ea bd 8b e0 0b 3d 0b c8 79 3d
       0.06865781 -0.11474071 0.034149688 0.06098179
0001f0 51 30 b2 3b f3 d5 f7 bd 00 09 4d bd 5b 6a d1 bc
       0.0054378887 -0.121013544 -0.05005741 -0.02556341
000200 65 8f 98 3d 2a d0 52 3c 1e a1 05 3d 37 d0 69 3d
       0.07449225 0.012867013 0.032624356 0.057083335
000210 ca 8f 6c bd c0 30 cd 3d 23 b6 b2 bd 02 08 56 3c
       -0.057754315 0.10019064 -0.08726146 0.013063433
000220 e4 b5 e6 bd 24 ed 29 bd 6e e1 96 bd f1 98 c8 3c
       -0.11265162 -0.04148592 -0.07367216 0.02448699
000230 73 1a f1 3d 5e 8e 04 be 5b 43 8e bd 95 d8 e2 bc
       0.11772623 -0.12944934 -0.06946441 -0.027691165
000240 92 e7 0d be 7c 21 0e bd 1e ab f7 bc b3 3a f8 3c
       -0.13857868 -0.034699902 -0.030232962 0.030301427
000250 3b ca ed 3b ca 94 e1 3d 7c 8c fd bd 08 8c 0a bd
       0.0072567738 0.110147074 -0.12380311 -0.03382495
000260 1b 5a 6d bd 38 71 78 bc fc 96 b5 bd 24 76 af bc
       -0.05794726 -0.015163712 -0.088666886 -0.021418639
000270 f3 91 f7 bd 22 28 c4 bd 50 91 47 bd a0 fc c2 3d
       -0.120883845 -0.09577967 -0.048722565 0.09520841
000280 8f 1c 27 3c ae 31 81 bc 8d ef b0 bc e6 48 80 bd
       0.01019968 -0.01577076 -0.021598602 -0.06263904
000290 13 be 34 bd cb 85 a4 bb f7 da 05 3d 78 44 52 3c
       -0.04412658 -0.005020832 0.032679524 0.012833707
0002a0 6d 47 81 bd 6a 7a 19 3c 57 24 cb 3d 53 c7 8b 3d
       -0.063124515 0.009367565 0.09919041 0.068251275
0002b0 7f d2 0d 3d 57 f7 8b 3d db c2 a0 3c b8 2a 15 3e
       0.034624573 0.06834286 0.019624164 0.14567077
0002c0 3a fe 99 bd 24 66 21 bd bd 55 3c bd 20 a3 31 bd
       -0.07519193 -0.03940405 -0.045980204 -0.04336846
0002d0 1e 6e 9d 3b f3 bd f3 bd 35 28 aa bd 55 d4 a6 3d
       0.0048043868 -0.11901464 -0.0830845 0.08145968
0002e0 ef c8 44 bb f4 d7 89 3d 33 49 0a 3e 23 26 12 3d
       -0.0030026992 0.06730643 0.13504486 0.0356809
0002f0 08 35 cb bc 4d b4 ed 3d 39 d2 7a bc b1 b1 32 bd
       -0.02480556 0.11606655 -0.01530891 -0.04362649
000300 69 2e ee bd 09 0f b1 3c 23 07 c4 bc dc 55 f8 bc
       -0.11629946 0.021613615 -0.023929184 -0.030314378
000310 e2 ff ab 3d 5d 40 9e bb 12 15 3e 3c 1d 21 9b bc
       0.08398415 -0.00482945 0.011601703 -0.018936688
000320 6f 78 77 bc eb ae 7b bc 48 10 80 b9 5d 4a 27 bd
       -0.015104397 -0.015361528 -0.00024426193 -0.040842403
000330 9b 9b ec bd 7f 32 dd bc 28 09 0c bd 50 e9 42 bd
       -0.11553117 -0.027001617 -0.03418842 -0.047585785
000340 b3 9a 1c 3d 17 6a 47 bd 17 72 bf 3d 28 c1 7d bd
       0.03823347 -0.04868516 0.09347933 -0.061951786
000350 0c b7 c8 bd 52 b9 0d bd 37 e5 35 3d 12 71 46 3d
       -0.098005384 -0.034600563 0.04440805 0.048447676
000360 bc af cc 3d 3b c9 81 bd 9d 19 38 3d a2 89 67 bc
       0.09994456 -0.0633721 0.0449463 -0.014131935
000370 02 66 29 3d 89 f4 29 3d ec df 00 bc a2 9c c8 bc
       0.041357048 0.041492973 -0.007865887 -0.02448875
000380 1c e3 f2 bc 9c 6f d1 3c 8d 4b 59 3d 7d a9 5c 3d
       -0.02964931 0.025565915 0.053050566 0.053872574
000390 f1 5a 26 3d bb 80 d0 bc 24 55 92 3c 11 4e 42 bd
       0.040614072 -0.025452008 0.017862864 -0.04743773
0003a0 ff fe 82 3d 1e 37 be 3b 27 4c d2 bd 02 0c ce 3d
       0.06396293 0.0058049103 -0.10268431 0.10060884
0003b0 9f af 6c bd 74 22 81 bd d8 cd 9d bd 9e 1a d0 bb
       -0.057784673 -0.063053995 -0.07705277 -0.0063508293
0003c0 f0 24 0a 3d 7b db 88 3c 8f 98 dc bc 89 41 82 3d
       0.033726633 0.016706219 -0.026928214 0.06360156
0003d0 ac 6b 94 3c 2f fb 02 3d 5c 1d 5a bc 9c 12 c6 3c
       0.018117748 0.03197783 -0.013312664 0.024178796
0003e0 13 16 27 bc 5c 9f c7 bd 32 70 6d bd 65 a8 45 3b
       -0.010198134 -0.09747192 -0.057968326 0.0030160185
0003f0 28 77 84 3d 29 7f 77 bd b3 dc 1b 3d 45 dd 57 bc
       0.0646804 -0.060424004 0.038052272 -0.013175313

network_body._body_endoder.seq_layers.4.bias f4 [256]
000000 b1 14 3a bb 53 e9 11 bb 70 78 e0 bb d8 f4 6a bc
       -0.002839368 -0.0022264316 -0.006850295 -0.014340602
000010 3e d5 71 bb 31 81 74 bc 6e 42 3c 3c 9a c6 bd 3a
       -0.0036900784 -0.01492338 0.011490447 0.0014478744
000020 b9 ab 78 3c 21 2a 6e bc cd 70 9b 3b 8c b6 bb bc
       0.015177661 -0.0145364115 0.0047436715 -0.022914194
000030 a8 94 28 3b 91 26 3c bc ef a4 fa bb 5b f8 1e bc
       0.0025723372 -0.011483804 -0.007649056 -0.009702767
000040 fa b7 b8 3a 06 61 5b 3a 82 de ee bb 43 e8 3f bb
       0.0014092915 0.00083686446 -0.0072897086 -0.0029282726
000050 82 36 f3 3a f7 3d c8 39 27 d3 26 bb c5 08 98 3b
       0.0018555673 0.0003819314 -0.0025455446 0.0046397173
000060 ce 11 5d bb 41 d8 10 bc be 46 51 bc d5 e0 2e bb
       -0.0033732536 -0.008840621 -0.012773214 -0.0026684303
000070 f4 e8 47 ba 7d ec 8b 3c 6e a6 1b bc a1 ca b3 ba
       -0.000762596 0.01708054 -0.009500129 -0.0013717004
000080 e3 aa 8a bb db 0a ed 3a 59 cf 8a b9 33 ff e5 3b
       -0.004231797 0.00180849 -0.00026475897 0.0070189475
000090 31 e8 21 bc 84 a5 7a bb 78 46 95 bc ef 6e b1 3a
       -0.009882019 -0.0038245628 -0.018222079 0.0013537089
0000a0 2b 23 d1 bb 50 8b fa bb fc 4c da bb a5 76 02 bc
       -0.006382366 -0.007646002 -0.0066620093 -0.007962857
0000b0 bf b3 52 bc a9 f1 a6 ba 51 f5 a6 bc d4 ad 13 3c
       -0.012860238 -0.0012736815 -0.020380648 0.009013612
0000c0 a5 e8 05 bc 02 7d 86 bb 48 b7 b9 3c 21 a2 46 bb
       -0.008173143 -0.0041042576 0.022670403 -0.0030309039
0000d0 8b 84 0f bc 01 71 c6 3b 8d 7b d5 bb de 82 43 bc
       -0.008759628 0.0060559516 -0.0065149725 -0.011933057
0000e0 7c dd 25 3b 94 41 35 bb e2 57 ca ba 41 4d 63 bc
       0.0025309017 -0.0027657496 -0.0015437568 -0.013873399
0000f0 7e 13 2d bc c1 c7 1a bc 49 9f 14 bc d9 09 20 bb
       -0.010563729 -0.009447039 -0.00907118 -0.0024419932
000100 e2 b6 c5 3a 39 92 20 b9 4c a0 e3 bb 04 ec 9b 3a
       0.001508441 -0.00015313261 -0.006946599 0.00118959
000110 21 00 8f bb be 45 98 3b 6a ff a1 bb 40 13 f1 bb
       -0.004364029 0.004646986 -0.004943778 -0.007357031
000120 11 e5 20 bc bd bd 12 bc 27 64 3f b9 f3 35 b3 ba
       -0.009820239 -0.00895637 -0.00018252489 -0.0013672694
000130 ca 80 66 3b 5a f0 b8 ba 54 2f 17 39 d0 fb 5f 3c
       0.003517198 -0.0014109716 0.00014418113 0.013670877
000140 ec 33 18 3a f5 57 70 bb a2 6d 3a 3b 30 7c 1b bc
       0.0005806077 -0.003667352 0.0028446694 -0.009490058
000150 63 8a a4 bb f3 02 50 bc 80 99 3d bb 1a 81 a7 3a
       -0.00502138 -0.012696016 -0.0028930604 0.0012779564
000160 f6 49 b6 bb 2e a3 40 3a 26 70 99 bc d3 6c dc ba
       -0.005563016 0.00073485344 -0.018730234 -0.00168171
000170 4b d4 ba bb fb 4b 23 bc 78 de 88 ba 13 5f 81 ba
       -0.005701577 -0.009966846 -0.0010442277 -0.0009870253
000180 b5 cc 5b 3b 5b f2 3a bc b6 23 c5 ba 27 c6 08 3c
       0.0033538763 -0.011410321 -0.001504055 0.008348024
000190 14 d2 4b ba 90 61 db 3a 8c dd 0f 3b 92 02 b9 bb
       -0.00077751395 0.001673745 0.002195212 -0.0056460584
0001a0 a6 6b 7e bb f4 99 64 ba f2 72 ba bb 6e 41 85 b8
       -0.0038821488 -0.00087204506 -0.005689972 -6.3541214e-05
0001b0 f5 75 11 3b a6 6d 12 bc 71 d6 4f bc 57 0f bc bb
       0.0022195552 -0.008937275 -0.012685404 -0.0057391333
0001c0 2d 34 17 bc 1a e1 ee ba 9c 80 f5 bb e3 e7 a7 bb
       -0.009228748 -0.0018225044 -0.007492138 -0.0051240786
0001d0 9f df fc 39 ef 27 58 bb b9 37 03 bc 02 34 21 bb
       0.00048231796 -0.0032982787 -0.008008891 -0.002459765
0001e0 f0 ec bf bb 07 47 21 bc 80 e7 aa 37 e1 1e 41 3c
       -0.0058571026 -0.009843594 2.037338e-05 0.011787147
0001f0 88 77 1f bc 68 7e 3e bc d9 5b c5 b9 a1 48 a2 3a
       -0.009733088 -0.011626817 -0.000376432 0.0012381264
000200 be 0c 80 bc fb 67 20 3c 94 ce fb 3b dc 39 35 bc
       -0.015631076 0.009790416 0.007684538 -0.011061158
000210 6a 15 16 bb 51 a0 2f bc 1d f4 8a bc 00 cf 87 bb
       -0.0022900947 -0.010719375 -0.016962105 -0.0041445494
000220 4f 7e 78 bb c1 a7 8e bb 54 83 b1 ba 32 02 33 bc
       -0.0037917083 -0.004353494 -0.0013543167 -0.010925816
000230 18 bd cd ba 01 e3 2a bc 64 09 8a bc da 17 ee bb
       -0.0015696613 -0.0104300985 -0.01685018 -0.007266027
000240 f6 6b ab bb 02 8e 13 bc 8e 76 71 3a 4a 0f ea 39
       -0.005231376 -0.009006025 0.00092110864 0.0004464335
000250 9e 62 ab bc 9e c9 e4 bb f5 be 7e 3a fc 30 7d bb
       -0.020921048 -0.0069820425 0.0009717786 -0.0038633933
000260 88 aa e5 3a 73 3b 16 bc ad 53 14 3b fa 75 26 bc
       0.0017522136 -0.009169447 0.0022632882 -0.010159964
000270 fc 50 40 b8 67 26 8b bc d0 88 6d bb 52 53 82 bc
       -4.585179e-05 -0.016986085 -0.0036244877 -0.01590887
000280 ba a2 27 bc 8e 54 9e 3a 56 9f 5f bc dc 98 1f 3b
       -0.010231668 0.0012079643 -0.0136488285 0.0024352586
000290 04 f9 32 bc 9a 5a ff 3a 01 d7 8f ba 2c a4 41 bc
       -0.010923628 0.0019481957 -0.001097411 -0.011818927
0002a0 b4 5e 2b bb 94 8c 3a 3b c9 51 dc ba d1 d2 63 3b
       -0.0026148977 0.0028465139 -0.0016809042 0.0034763108
0002b0 c3 3c 00 bc 04 93 86 3a cb 71 75 3c 6e ea 46 bc
       -0.007826987 0.0010267203 0.014980744 -0.012140853
0002c0 56 f7 82 bc 17 50 e2 38 d5 6c 80 bc b9 1e 1b bc
       -0.01598708 0.00010791438 -0.015676895 -0.009467774
0002d0 93 f7 64 bc 45 fd 3f bc 25 09 9d 3b 41 8a fa bb
       -0.013975042 -0.011718099 0.00479235 -0.0076458757
0002e0 f9 53 45 3c bb 4b 24 bc 33 a8 37 3b ed 70 0d 3c
       0.012043946 -0.010027821 0.0028023839 0.008632881
0002f0 5c 2c 53 ba dc fe 5b ba 93 85 60 3c e4 1b 63 3c
       -0.00080556213 -0.0008392164 0.013703722 0.01386163
000300 59 fc 86 bb 82 b7 47 bc 9e 2e 09 bc e2 ae f8 bb
       -0.0041194377 -0.012189748 -0.008372931 -0.007589207
000310 fb d4 02 bc ca 7f 56 bc 79 84 e8 3b 26 6c dd b9
       -0.007985349 -0.013091991 0.00709587 -0.00042232982
000320 4b 69 32 bc 1d d7 09 bc 4d 00 d0 bb 11 a5 46 bc
       -0.010889362 -0.008413103 -0.006347692 -0.012124316
000330 ce 56 1a 3b d6 66 d0 bb 42 7d 04 3c e6 84 0a 3c
       0.0023550275 -0.0063599152 0.008086504 0.008454537
000340 99 5f c9 bb 83 f7 f8 3b e5 42 3d bc bf 26 da bb
       -0.0061454293 0.007597865 -0.011551593 -0.006657451
000350 1c b0 a7 ba 1d fd 35 bb cb f6 91 3b 31 a1 d0 bb
       -0.0012793574 -0.0027769275 0.004454469 -0.0063668718
000360 e5 0b 8c bc 44 6e 2f ba 70 cc af b9 3e 6c ea bb
       -0.017095516 -0.0006692151 -0.0003353092 -0.0071540168
000370 ea 4e 63 3c 3d d0 10 bc ba ac 0e bb a4 88 12 bc
       0.013873795 -0.00883871 -0.0021770434 -0.0089437105
000380 6a 28 85 bc f5 75 97 bb 27 8a 89 3c d2 59 42 bb
       -0.016254622 -0.004622216 0.016789509 -0.0029655588
000390 6b 7b 3c bc 92 0c fb bb 5e 73 c9 bc c9 85 25 bc
       -0.0115040345 -0.0076614106 -0.024591144 -0.010102698
0003a0 d9 47 1c bc 06 c5 b2 bb e1 21 49 3b 56 2b 4e ba
       -0.009538614 -0.005455616 0.003069036 -0.0007864734
0003b0 cf 12 16 bc 65 55 32 bb c8 fb 92 bb a0 f5 16 bc
       -0.009159758 -0.0027211544 -0.004485581 -0.009213835
0003c0 39 37 c4 3c 7a a4 6e 3a 88 9d 5a bc c5 67 3b bc
       0.023952113 0.00091034884 -0.013343222 -0.011438315
0003d0 1f e6 cb bc 57 e0 0b bc 12 98 5f ba 6a dd 79 bb
       -0.024890004 -0.0085373735 -0.0008529435 -0.0038126358
0003e0 13 ef a3 3b c7 5d ac 3b 98 a2 97 bb 03 c1 2e 3b
       0.005002865 0.0052602026 -0.004627537 0.0026665337
0003f0 cd 5d f6 ba 2a 9e 66 bc c0 13 9f ba 74 df 2f bb
       -0.0018796265 -0.014075795 -0.0012136623 -0.002683607
