Assets/ML_PPO/results/headless_18/BoatAgent/BoatAgent-99954.onnx (onnx, 945870 bytes, 21 tensors)

discrete_action_output_shape f4 [1, 6]
0	0x40000000	2.0
1	0x40000000	2.0
2	0x40000000	2.0
3	0x40000000	2.0
4	0x40000000	2.0
5	0x40000000	2.0

network_body._body_endoder.seq_layers.0.weight f4 [256, 133]
0	0x3d8a6a11	0.06758512
1	0xbe5d7728	-0.21627486
2	0xbdbff4b0	-0.09372842
3	0x3d15f885	0.03661396
4	0xbce1546b	-0.027506074
5	0xbdb70bfb	-0.08937832
6	0xbd1dd7fc	-0.038536057
7	0xbce3aaf9	-0.027791487
8	0x3dfeb00d	0.12435923
9	0xbbe4bd7e	-0.006980597
10	0xbd10a933	-0.03531761
11	0xbca84fdf	-0.020545898
12	0xbdc98d71	-0.09841431
13	0xbd50cd28	-0.050976902
14	0x3cc9eb4f	0.024648337
15	0xbd804812	-0.06263746
16	0x3d57dad6	0.052698933
17	0x3d701f41	0.058623556
18	0xbdbdc69e	-0.09266399
19	0x3d3d3ed1	0.046202485
20	0x3dbb97ff	0.0915985
21	0x3d134dd1	0.035962883
22	0xbe34aa3b	-0.17643063
23	0xbdb31b6f	-0.08745467
24	0x3df3421f	0.11877846
25	0xbd114c5c	-0.035473213
26	0xbdb42caa	-0.087975815
27	0x3d9dd5d2	0.077067986
28	0x3dd58aac	0.1042684
29	0x3d99429f	0.0748341
30	0xbc518247	-0.012787408
31	0xbe43d94b	-0.1912586
32	0xbe4fc45a	-0.20289746
33	0x3cd128a1	0.025532069
34	0x3dd9d29f	0.10635876
35	0xbca84d1f	-0.020544587
36	0xbe0ae73b	-0.1356477
37	0x3c55dfb7	0.013053826
38	0xbc58be5d	-0.01322898
39	0xbddc909d	-0.1076977
40	0x3dd24e02	0.10268785
41	0x3d1e392d	0.038628746
42	0x3dcd484e	0.10023557
43	0x3e04d037	0.12970053
44	0xbc57c60e	-0.0131697785
45	0xbd044129	-0.032288704
46	0x3d37c24e	0.044863038
47	0xbdc2d6ab	-0.09513601
48	0x3dcbe58c	0.09955892
49	0xbc3750ff	-0.011188745
50	0xbd63c6d8	-0.055609554
51	0xbe4c692c	-0.19961995
52	0xbb84c3c6	-0.0040516583
53	0xbdacffab	-0.08447202
54	0xbd43697f	-0.04770803
55	0xbd341158	-0.043961853
56	0x3da26530	0.07929456
57	0xbde69c87	-0.11260324
58	0xbd7ee167	-0.06222668
59	0x3dbc80db	0.09204265
60	0xbe11d42f	-0.14241098
61	0xbdfa625c	-0.12225792
62	0x3d883899	0.0665142
63	0xbd7a4321	-0.061099175
64	0x3d3eb751	0.046561543
65	0x3d96572d	0.07340846
66	0xbcb587b3	-0.022159433
67	0x3d2b04c3	0.041752588
68	0x3d435a7f	0.047693726
69	0x3c35485a	0.011064613
70	0xbbfb3376	-0.0076660467
71	0x3d63dc1e	0.055629842
72	0xbdc05df7	-0.09392922
73	0xbda2dd2e	-0.07952343
74	0xbe1d1661	-0.15340568
75	0xbe1550c7	-0.14581595
76	0x3e3f152e	0.18660423
77	0x3e0109c2	0.12601379
78	0xbddafcce	-0.1069275
79	0x3df1fb83	0.1181555
80	0x3cb6e36d	0.022325242
81	0x3cc1570c	0.023601077
82	0x3d038af7	0.03211495
83	0x3db0f1a2	0.08639838
84	0xbe1c96c8	-0.15291893
85	0xbd13b1bb	-0.03605817
86	0x3ca1b489	0.019739406
87	0xbd231772	-0.03981728
88	0x3e18f9e4	0.14939076
89	0x3dd2a7c8	0.10285908
90	0xbd7c6368	-0.06161824
91	0xbd023b47	-0.031794813
92	0xbd6fac87	-0.058514144
93	0x3ce67198	0.028130338
94	0x3d4692b1	0.04847974
95	0x3d922eb5	0.07137815
96	0x3ce772c6	0.02825297
97	0xbc5069de	-0.012720553
98	0x3d4bf5f2	0.0497951
99	0x3c8290dd	0.015938217
100	0xbd29ca69	-0.0414528
101	0xbd21d10a	-0.039505996
102	0x3dab342e	0.08359562
103	0xbd065c33	-0.03280277
104	0x3b21ee21	0.0024708586
105	0xbdb6b353	-0.08920922
106	0x3ba34176	0.004982169
107	0xbc434928	-0.011919297
108	0xbd4e2584	-0.050328746
109	0x3cb6b639	0.022303687
110	0xbd9a27d7	-0.0752713
111	0x3cf548fd	0.02994203
112	0xbda03f40	-0.07824564
113	0xbd412f70	-0.04716438
114	0x3dd8d447	0.10587364
115	0x3cdac988	0.026707426
116	0xbe024dd8	-0.12725008
117	0x3dce6aa3	0.10078933
118	0xbde31134	-0.110872656
119	0xbc8e7e82	-0.017394308
120	0x3b6e3737	0.0036348829
121	0xbd905f18	-0.07049388
122	0xbda6945f	-0.08133768
123	0xbb46c17d	-0.003032773
124	0x3de95488	0.11393076
125	0x3d3a316a	0.04545728
126	0x3ca1e91a	0.019764472
127	0x3d1f008a	0.038818873
128	0x3bd669ca	0.0065433728
129	0x3e0af468	0.13569796
130	0xbd907a30	-0.070545554
131	0x3df0ede5	0.11764125
132	0x3b7778d6	0.0037761233
133	0xbcb694f6	-0.022287827
134	0xbda1c892	-0.07899584
135	0xbd5c6fa6	-0.053817414
136	0xbd2110f0	-0.039322793
137	0x3e0aa0dc	0.13537925
138	0x3da5339f	0.080664866
139	0x3b9c7886	0.0047751097
140	0xbdc5a8cc	-0.09651336
141	0x3b14b60a	0.0022691512
142	0xbca6adee	-0.020346608
143	0x3dab25b2	0.08356799
144	0xbe0e16a1	-0.1387582
145	0xbd8d2b24	-0.06892994
146	0x3db5b30a	0.088720396
147	0x3cd490ac	0.025947891
148	0x3d9fe21c	0.07806799
149	0x3d4e6d2d	0.050397087
150	0x3c4a130d	0.012333644
151	0xbc5d0aac	-0.013491314
152	0xbbb1d2c8	-0.0054267384
153	0xbdd14c38	-0.10219616
154	0xbcbe27d9	-0.02321236
155	0x3da0066a	0.078137234
156	0xbdd24b0b	-0.102682196
157	0xbdddba86	-0.10826592
158	0x3df02d9c	0.11727449
159	0x3db0942b	0.08622011
160	0xbda0bd86	-0.07848649
161	0xbddc34ef	-0.10752284
162	0xbdab67d6	-0.083694145
163	0x3d13b55e	0.036061637
164	0x3d5728a6	0.052529
165	0x3c911ed0	0.017714888
166	0x3b2c9edd	0.0026339807
167	0xbe1a5767	-0.15072404
168	0x3c5aaf93	0.013347524
169	0xbd695973	-0.05697007
170	0x3e277386	0.16352662
171	0x3c55bcee	0.013045533
172	0xbe069d81	-0.1314602
173	0x3d89fcc7	0.067376666
174	0xbe11c0a9	-0.1423365
175	0x3db79a7c	0.089650124
176	0x3cdfb716	0.027308982
177	0x3de6df92	0.112731114
178	0x3dbcf2a4	0.092259675
179	0x3cd0e500	0.02549982
180	0xbd5a031f	-0.053225633
181	0xbe37091b	-0.17874567
182	0xbe5528f6	-0.20816407
183	0xbd3c69c0	-0.04599929
184	0x3d13861f	0.03601658
185	0xbe037fd6	-0.12841734
186	0xbd06300b	-0.03276066
187	0xbe56d69d	-0.20980306
188	0xbd20aab6	-0.039225303
189	0xbcc6665e	-0.024218734
190	0xbd4219db	-0.04738794
191	0xbd8c01bd	-0.06836269
192	0xbe09c41e	-0.13453719
193	0xbd91871e	-0.0710585
194	0x3c67933e	0.014134226
195	0x3d56273e	0.052283518
196	0x3ce6daf0	0.02818057
197	0xbd76bdef	-0.06023973
198	0x3d9ef4e2	0.077615514
199	0x3ca55401	0.020181658
200	0xbe49ee77	-0.19719873
201	0x3dae7213	0.08517852
202	0xbcc83fb7	-0.024444444
203	0xbe01be96	-0.12670359
204	0xbc9451ed	-0.018105472
205	0xbd8bd4d0	-0.068277
206	0x3dda8b00	0.106710434
207	0xbcec488e	-0.02884319
208	0x3db67846	0.08909659
209	0xbdc976ce	-0.09837113
210	0x3d67cb66	0.05659046
211	0xbd076c72	-0.033062406
212	0x3e58b57e	0.21162984
213	0x3ce97a25	0.028500626
214	0x3c0225f6	0.007943621
215	0xbdabeaf3	-0.083944224
216	0x3d5a9896	0.053368174
217	0x3db61722	0.08891131
218	0xbda7220b	-0.0816079
219	0xbe5c36bf	-0.21505259
220	0x3c0cb0b5	0.008587052
221	0x3d8fa29f	0.070134394
222	0x3dbd348c	0.09238538
223	0x3e240b58	0.16019952
224	0x3e2cf93d	0.16891952
225	0xbd36839c	-0.044559106
226	0x3d320067	0.043457415
227	0x3d9e8fc7	0.07742267
228	0x3c121147	0.008915252
229	0xbd33e67a	-0.04392097
230	0x3d387b3f	0.04503941
231	0xbc012539	-0.00788241
232	0xbd917deb	-0.07104095
233	0xbe23617c	-0.15955156
234	0xbe8128e9	-0.25226524
235	0x3d8d834f	0.06909811
236	0xbd31a4f1	-0.04337019
237	0x3e1c9f5d	0.15295167
238	0xbe1d5848	-0.15365708
239	0xbd3e02e6	-0.046389483
240	0xbd7f8b2d	-0.062388588
241	0x3d157046	0.036484025
242	0x3ce369ef	0.027760474
243	0x3d5105a4	0.05103077
244	0xbc0a4427	-0.0084391
245	0x3cb5c6c2	0.022189502
246	0xbd4d9f56	-0.050200783
247	0x3da0c235	0.07849542
248	0xbe015848	-0.12631333
249	0x3e26b542	0.16280082
250	0x3d70775c	0.05870758
251	0x3d2baf8e	0.04191547
252	0x3ceb041a	0.02868848
253	0xbc31ecfa	-0.010859722
254	0xbd8292b4	-0.06375638
255	0x3d4c960e	0.04994779

network_body._body_endoder.seq_layers.0.bias f4 [256]
0	0xbbd7c5c2	-0.006584854
1	0xbbf14223	-0.0073626204
2	0xbb9cb555	-0.0047823587
3	0xbbaaa732	-0.0052079195
4	0xbc91a420	-0.017778456
5	0x3b5322b5	0.0032216732
6	0xbc02cd7d	-0.007983563
7	0xbc603375	-0.013684143
8	0x39e58a2b	0.00043781227
9	0x3c517633	0.012784529
10	0xbc2e0357	-0.0106209135
11	0xbb685ef3	-0.0035456985
12	0xbca811a5	-0.020516226
13	0x3927ad0d	0.00015990828
14	0xbbbdf425	-0.0057969266
15	0x3ade403a	0.0016956397
16	0xbb7d8522	-0.003868409
17	0xbbff068f	-0.0077827643
18	0xbb572bfb	-0.003283261
19	0xbabcf037	-0.0014414851
20	0xbb70d963	-0.0036750666
21	0xbc1c9605	-0.009557252
22	0x3b511df0	0.0031908713
23	0xbccabdc8	-0.024748698
24	0xbba10f83	-0.004915179
25	0x3c5756b7	0.013143233
26	0x3a91fc55	0.0011137823
27	0xbbdf2713	-0.006810078
28	0xbcdaa003	-0.026687628
29	0xbc2d4b9c	-0.010577109
30	0x3ad2230c	0.0016032173
31	0x3b720631	0.003692996
32	0xbc1a8d5a	-0.009433115
33	0xbb17355a	-0.0023072571
34	0xbce394e7	-0.027780963
35	0x3bdcbd12	0.006736406
36	0xbbd9c7e1	-0.006646142
37	0x3bd62775	0.0065354654
38	0x3c39394e	0.011305166
39	0xbcc3522e	-0.023842897
40	0x3aee9f64	0.0018205461
41	0x3c134fac	0.008991163
42	0x3acf848f	0.0015832352
43	0xbc74c085	-0.014938478
44	0x3c5bff30	0.013427541
45	0xbbb4cc67	-0.0055175307
46	0xbc8fa728	-0.017535761
47	0xbd1d916b	-0.03846876
48	0x3ba57772	0.0050496394
49	0xb94edf98	-0.00019728986
50	0x3d0c1f31	0.034209434
51	0x3c775b63	0.015097472
52	0xbc35ef8a	-0.011104474
53	0x3bd33cbb	0.0064464486
54	0xbbfb1f1c	-0.0076636206
55	0xbc50bc99	-0.012740278
56	0xbc53cad8	-0.01292678
57	0x3c0ac8de	0.008470742
58	0xbb4d450e	-0.0031321677
59	0x3a97698d	0.0011551842
60	0xbb117d21	-0.0022199827
61	0xbbeedd69	-0.0072895777
62	0xbb58ba40	-0.0033069998
63	0x3b3a9ea4	0.0028475905
64	0xbc326e6d	-0.010890585
65	0xbc9046a2	-0.017611805
66	0x3acb7e69	0.0015525344
67	0x398942f8	0.00026180572
68	0xbc96ce4d	-0.018408919
69	0xbc24d217	-0.010059855
70	0xbc617a59	-0.01376208
71	0xbb171b94	-0.002305721
72	0xbc03eaec	-0.008051615
73	0xbc6aeda1	-0.014338882
74	0xb8fc200c	-0.000120222656
75	0xbc2b8c86	-0.010470515
76	0x3b95841b	0.0045628673
77	0x3bfd0ad0	0.007722236
78	0xbc4f24de	-0.012643067
79	0xbc6b0071	-0.014343367
80	0xbc4a9e3e	-0.012366829
81	0xbae7e72e	-0.0017692798
82	0x3bce97cb	0.006304716
83	0xbcc309c4	-0.023808368
84	0xbb8b1ebc	-0.004245607
85	0x3bfe363d	0.0077579306
86	0xbcb2562c	-0.021769606
87	0xbc2f2588	-0.0106901005
88	0xbca20ec7	-0.019782437
89	0xbc2aca0c	-0.010424148
90	0xbc59e57d	-0.013299343
91	0x3c879b13	0.016553437
92	0xbbe931b8	-0.0071165226
93	0x3b42ee73	0.0029744178
94	0xbc1ef537	-0.009702018
95	0xba356951	-0.00069202954
96	0xbc7d9c2c	-0.015479129
97	0xbc2fb5a2	-0.010724457
98	0xbc93acc5	-0.018026719
99	0xba5bbe4b	-0.0008382543
100	0xbc1d5cd8	-0.009604655
101	0xba7c94ca	-0.00096352084
102	0xbbc9add9	-0.0061547575
103	0xbc522ccd	-0.012828064
104	0xbac81776	-0.0015265781
105	0x3b5ddaca	0.0033852332
106	0x3c80b02d	0.015709007
107	0xbc2c8a57	-0.01053103
108	0x3c8c91fe	0.017159458
109	0xbc052eb0	-0.008128807
110	0xbbd99442	-0.006639988
111	0xbbd33727	-0.0064457837
112	0x3bf20294	0.0073855612
113	0xba92b231	-0.0011192021
114	0xbc81e508	-0.01585628
115	0x3bcaa4b7	0.0061841863
116	0xbb2a2221	-0.0025960284
117	0xbb2479da	-0.0025097043
118	0xbc3f4fbf	-0.011676728
119	0xba98bcf7	-0.0011652996
120	0xbca1b85a	-0.019741226
121	0x3c966335	0.018357852
122	0xbc9d2f60	-0.01918763
123	0x3ba62320	0.005070105
124	0xbcbfcaa5	-0.023412058
125	0xbc52fdcf	-0.0128778955
126	0x3c33bad1	0.0109698335
127	0xbc5262cf	-0.012840941
128	0xbc1fa1fb	-0.009743209
129	0xbc8bc2db	-0.017060688
130	0xbc0192c1	-0.007908524
131	0xbc531c37	-0.012885145
132	0xbc1f3f50	-0.009719685
133	0xbc6c200b	-0.0144119365
134	0xbcbee631	-0.023303123
135	0xba906efe	-0.0011019406
136	0xb8f752a3	-0.0001179327
137	0x3c900b34	0.017583467
138	0xbc0aed30	-0.0084794015
139	0xbbf8f080	-0.007597029
140	0x3bad07b7	0.0052804607
141	0x3c3c3e60	0.011489481
142	0x3c89613a	0.016769994
143	0xbc7e514f	-0.015522315
144	0xbba9e807	-0.0051851305
145	0xbc6ad09d	-0.014331964
146	0xbcbd84ba	-0.023134578
147	0x3ba60177	0.0050660926
148	0xbc1ac745	-0.009446924
149	0xbc89901a	-0.016792346
150	0xb987fded	-0.00025938396
151	0xbbbacdb8	-0.005700793
152	0xbbdaf3d3	-0.006681898
153	0xbc85575c	-0.016277008
154	0xbc2483d4	-0.010041196
155	0xbc38b97f	-0.011274694
156	0xbc42d1bf	-0.011890828
157	0xbb23e9c2	-0.0025011157
158	0xbcc53869	-0.02407475
159	0xbb4b6a46	-0.0031038686
160	0xbbb9d030	-0.00567057
161	0xbb40915e	-0.002938352
162	0xbbfc7363	-0.007704185
163	0xbb84394f	-0.004035152
164	0xbb99d061	-0.00469403
165	0xbb94d302	-0.0045417557
166	0xbc5318a3	-0.012884292
167	0xbcc62f68	-0.024192527
168	0xbc64bcc3	-0.01396102
169	0x3b4e92ba	0.0031520561
170	0x3b9171b2	0.0044386024
171	0xbc3b6e9b	-0.011439945
172	0xbc294bab	-0.010332982
173	0xbb8c960e	-0.004290349
174	0xbc0cc4ee	-0.008591874
175	0xbc91f81a	-0.0178185
176	0xbc734294	-0.014847416
177	0x3ba516e1	0.005038128
178	0x3b4c52ca	0.0031177276
179	0x3b5efe03	0.0034025915
180	0xbba8867b	-0.0051429844
181	0xbca9f761	-0.020747842
182	0xbc701615	-0.014653702
183	0x38af5a95	8.3615225e-05
184	0xbc0cfcd8	-0.0086052045
185	0xbbe36d48	-0.0069405176
186	0x3c43a644	0.011941496
187	0xbb43a6e4	-0.0029854113
188	0x3be22653	0.0069015413
189	0xbbb18acb	-0.0054181567
190	0xbc81f591	-0.015864165
191	0x3adffe09	0.0017089258
192	0x3c8c065e	0.01709288
193	0xbc562709	-0.01307083
194	0xbc58e911	-0.013239161
195	0xbc3bc885	-0.011461382
196	0x39c17194	0.0003689645
197	0xbc834e22	-0.016028468
198	0xbb0d3578	-0.0021546762
199	0x3ac4b6ac	0.0015008054
200	0x3a4c1283	0.0007784741
201	0x3d089e1e	0.033353917
202	0xbb5747c3	-0.003284917
203	0xbc387b2b	-0.011259834
204	0xbc5c5411	-0.013447777
205	0x3c52b2b6	0.012859991
206	0x3a3e467d	0.00072584284
207	0x3adacdb7	0.0016693388
208	0xbc22a3a5	-0.009926711
209	0xbb5fa848	-0.0034127403
210	0x3d016e6d	0.03159945
211	0x3b4d26da	0.0031303675
212	0xba0bb4f8	-0.00053293956
213	0xbbde1c1b	-0.006778253
214	0xbb876578	-0.004131969
215	0xbc594ec0	-0.013263404
216	0xbc156f3d	-0.00912076
217	0xbc87a02b	-0.016555866
218	0xbc8d3b4d	-0.01724019
219	0xbbb51038	-0.005525615
220	0x3ad5bf44	0.0016307612
221	0xbc3c9e3f	-0.011512338
222	0xbc1a9fdb	-0.009437527
223	0x3c8eae33	0.017417049
224	0xbc0c0bca	-0.008547733
225	0x39e807d2	0.00044256315
226	0x3bae0845	0.0053110444
227	0xba190232	-0.0005836814
228	0xbc264f80	-0.01015079
229	0x3b14c813	0.0022702261
230	0xbbd6a603	-0.006550552
231	0xbb86d4c9	-0.0041147214
232	0xbc63a421	-0.013894112
233	0x3bd03066	0.006353426
234	0xbba784ca	-0.0051122652
235	0x3d063a95	0.032770712
236	0x3c9762b9	0.018479692
237	0xbc03998f	-0.008032217
238	0x3c0ac7fb	0.008470531
239	0xbc741ade	-0.014898984
240	0xbbfed875	-0.0077772685
241	0xbc9a32bc	-0.01882302
242	0xbb85e42a	-0.004086037
243	0xbc147dbd	-0.0090631815
244	0xbc039bbd	-0.008032736
245	0x3c319873	0.010839569
246	0x3be9d932	0.0071364874
247	0xbc448a43	-0.011995855
248	0x3cb0e8f5	0.021595458
249	0xbb48053b	-0.0030520696
250	0x3ba5bd41	0.005057961
251	0x3ccd1a68	0.025037006
252	0xbc3b131d	-0.011418131
253	0xbc1d84cc	-0.009614181
254	0x3c970a7c	0.018437617
255	0x3c8590db	0.016304424

network_body._body_endoder.seq_layers.2.weight f4 [256, 256]
0	0xbc98d829	-0.01865776
1	0x3d5429c1	0.051797632
2	0xbd277b15	-0.040888865
3	0xbd94ad7b	-0.07259651
4	0x3daee692	0.085400715
5	0xbdf34078	-0.11877531
6	0xbd8e937e	-0.06961726
7	0xbc1e9042	-0.009677948
8	0x3d50e598	0.051000208
9	0xbcac138e	-0.021005418
10	0xbd33f2dc	-0.04393278
11	0x3dcbf515	0.09958855
12	0xbcefa764	-0.029254623
13	0x3d7a12be	0.06105303
14	0xbd6faced	-0.058514524
15	0xbd98252c	-0.07428965
16	0x3d228478	0.039677113
17	0x3da86e86	0.08224206
18	0x3da73827	0.08165007
19	0xbbb25643	-0.005442412
20	0xbd5fb352	-0.054614373
21	0x3daeb76e	0.0853108
22	0xbcbe69f3	-0.02324388
23	0xbe15a85c	-0.14615005
24	0x3dba0ee7	0.09084874
25	0xbcc6976a	-0.024242122
26	0xbda1c3d3	-0.07898679
27	0x3df7d76b	0.121016346
28	0x3c97e65e	0.018542465
29	0x3d3167ff	0.04331207
30	0xbaebfa93	-0.0018003754
31	0x3d968d01	0.07351113
32	0xbd0d0414	-0.034427717
33	0x3d0da529	0.034581337
34	0xbce18f6f	-0.027534215
35	0xbe1ba701	-0.15200426
36	0xbd8f887b	-0.070084535
37	0x3dc2e5fc	0.09516522
38	0xbd278fce	-0.040908627
39	0xbb48059e	-0.0030520926
40	0xbe0fda95	-0.14048226
41	0x3d7e6acb	0.062113564
42	0xbd140d0e	-0.036145262
43	0x3dad86b4	0.08472958
44	0xbdb52872	-0.08845605
45	0x3c110640	0.008851588
46	0xbd1837d8	-0.03716263
47	0x3db338cd	0.08751068
48	0xbccb365d	-0.024806196
49	0xbdce7825	-0.100815095
50	0xbbb30b78	-0.0054640137
51	0x3ca1666e	0.019702163
52	0x3ddd3e6f	0.10802924
53	0xbdacfe13	-0.08446898
54	0xbcfde409	-0.030992525
55	0x3b8b2d97	0.004247378
56	0xbdda14ad	-0.10648475
57	0x3c9bdaad	0.019025171
58	0xbd56b7cb	-0.052421372
59	0xbdf456e6	-0.11930637
60	0xbcf0506e	-0.029335227
61	0xbd160933	-0.036629867
62	0xbce1a484	-0.027544267
63	0x3d0a0e8d	0.033705283
64	0x3e4800af	0.19531511
65	0xbd9e2dfb	-0.07723614
66	0xbd064f52	-0.03279049
67	0x3dc12348	0.094305575
68	0xbd5d0afe	-0.05396556
69	0xbc1de2d3	-0.009636599
70	0x3c77c7ed	0.01512335
71	0x3dce11b6	0.10061972
72	0xbd8db8fe	-0.0692005
73	0xbd130ad8	-0.035899013
74	0xbd953ca1	-0.07286955
75	0xbdbeadb0	-0.09310472
76	0xbdd09948	-0.10185486
77	0x3d6ee460	0.058323264
78	0xbd942340	-0.07233286
79	0xbd7c9faf	-0.061675724
80	0x3d45f4c6	0.048329137
81	0xbd7b000f	-0.061279353
82	0xbd9b6494	-0.07587543
83	0xbd4feb0e	-0.050761275
84	0x3c5f08c9	0.013612934
85	0xbd0b4092	-0.033997126
86	0x3d492725	0.049109597
87	0xbe1b571a	-0.15169945
88	0xbcba9b6b	-0.022779187
89	0x3e19b315	0.1500972
90	0x3d610baa	0.054942764
91	0x3db9a696	0.09064977
92	0x3cbf244b	0.023332736
93	0xbe1b3d44	-0.1516009
94	0xbd826f93	-0.06368937
95	0xbde0cc4b	-0.10976466
96	0xbccf0e6c	-0.025275432
97	0xbcc62fd0	-0.02419272
98	0x3d15265e	0.036413543
99	0x3d4483c5	0.047977228
100	0xbdb681bd	-0.08911464
101	0xba375cbd	-0.0006994715
102	0x3d300702	0.042975433
103	0x3dc7c6b7	0.09754699
104	0xbc3eb15b	-0.0116389645
105	0xbd920aea	-0.07130988
106	0xbc932c0b	-0.017965337
107	0xbd3cdf7a	-0.04611156
108	0xbcedbebe	-0.029021617
109	0x3c171d26	0.009223258
110	0xbc3a0f18	-0.011356138
111	0xbbc81c7f	-0.0061069126
112	0x3c6a0ca0	0.014285237
113	0x3b49b33b	0.0030776996
114	0xbcee35dc	-0.029078417
115	0x3dd13b5e	0.102164015
116	0xbd41dabd	-0.047327746
117	0xbda29834	-0.07939187
118	0x3c1bd192	0.009510415
119	0x3d89f662	0.06736447
120	0xbd1d8d6a	-0.03846494
121	0x3dbc09ee	0.091815814
122	0x3cec3c4d	0.028837347
123	0x3d5d3385	0.05400421
124	0x3dc62c1c	0.09676382
125	0xbd508904	-0.05091192
126	0x3db45176	0.088046
127	0xbdc379b4	-0.095446974
128	0xbd1053a5	-0.03523602
129	0xbd6e4fd9	-0.058181617
130	0xbdc75aff	-0.09734153
131	0xbbab0485	-0.0052190446
132	0xbc100009	-0.008789071
133	0xbd07ba85	-0.033136863
134	0xbd63a007	-0.055572536
135	0xbe3beeae	-0.18352768
136	0xbc90d6c0	-0.017680526
137	0x3d23745d	0.039905895
138	0x3d021ca5	0.0317656
139	0xbd790695	-0.060797293
140	0xbd808216	-0.06274812
141	0xbd581802	-0.05275727
142	0x3d3e99b8	0.046533316
143	0xbd524446	-0.051334642
144	0xbd1b1cd2	-0.037869282
145	0x3caf6bdb	0.021413734
146	0x3dc97e5e	0.09838556
147	0xbd60e8c8	-0.054909497
148	0x3be883f4	0.007095808
149	0x3af1e6a2	0.0018455575
150	0xbd0f1ad8	-0.03493771
151	0xbc7a91f2	-0.015293585
152	0xbd483220	-0.048875928
153	0x3b11f3f5	0.0022270654
154	0xbcf407ae	-0.029788818
155	0xbd11c183	-0.035584938
156	0x39930964	0.00028045021
157	0x3d8bf720	0.06834245
158	0xbd14b101	-0.036301617
159	0x3c7889d0	0.015169576
160	0xbce1964a	-0.027537484
161	0xbd6cbbe4	-0.057796374
162	0x3cf79dbd	0.030226583
163	0xbd07b78d	-0.033134032
164	0x3dbfd4a0	0.09366727
165	0xbbea05cb	-0.007141804
166	0x3cd94b62	0.026525203
167	0x3d8e0d53	0.06936135
168	0xbdd3dd62	-0.1034496
169	0x3d6d3a95	0.057917196
170	0x3cd64e25	0.02616031
171	0x3d903093	0.07040515
172	0x3da38705	0.07984737
173	0x3d5e1df8	0.0542278
174	0xbc906bb0	-0.017629474
175	0xbdb3f4f8	-0.087869585
176	0x3d609ef9	0.05483911
177	0xbc38afbe	-0.011272369
178	0x3ce82751	0.02833906
179	0x3d0e1521	0.03468812
180	0xbdde1964	-0.108446866
181	0x3d43c3ff	0.04779434
182	0xbd18c159	-0.037293766
183	0xbe30ace5	-0.17253454
184	0x3d2e566d	0.04256289
185	0x3cb17c41	0.021665694
186	0x3d13088b	0.03589682
187	0xbd34a965	-0.04410686
188	0x3d45b712	0.048270293
189	0xbce47eb4	-0.027892448
190	0x3cdea9f7	0.027180655
191	0x3d9379fd	0.07201002
192	0x3e1d9aaa	0.15391031
193	0x3ca3dcc8	0.020002738
194	0xbdcb4f1c	-0.09927198
195	0x3cd54055	0.026031652
196	0x3bbbb20c	0.005728012
197	0x3d830a08	0.06398398
198	0xbca06dd3	-0.019583618
199	0xbd48c5d0	-0.049016774
200	0xbd583727	-0.052786972
201	0x3d41f692	0.04735429
202	0x3d8c8d75	0.06862918
203	0xbcf8cf80	-0.030372381
204	0xbd43b0a6	-0.047775887
205	0xbe10fdc4	-0.14159304
206	0xbd519315	-0.05116566
207	0xbd1c9f1c	-0.038237676
208	0xbd3bfbc7	-0.04589441
209	0xbd4f7866	-0.05065193
210	0xbc13f72f	-0.009031101
211	0xbd71ced0	-0.059035122
212	0x3cdd9d17	0.027052445
213	0x3d9b1146	0.07571654
214	0x3d8b06e3	0.06788423
215	0xbd090d9a	-0.033460237
216	0x3e395425	0.18098505
217	0x3db0d28a	0.08633907
218	0x3d29b76f	0.0414347
219	0xbdd09d6a	-0.10186274
220	0x3d2d6546	0.04233291
221	0xbd2bea1f	-0.041971322
222	0xbdc3326d	-0.09531102
223	0xbdd98676	-0.106213495
224	0x3d8302b9	0.06397004
225	0xbddb88f9	-0.10719485
226	0x3cad7455	0.021173635
227	0x3c99cb16	0.018773597
228	0x3c1e0d49	0.009646722
229	0x3d14a127	0.0362865
230	0x3de2fba2	0.110831514
231	0x3d6fc182	0.058534153
232	0xbd89936b	-0.06717571
233	0x3d3ad802	0.045616157
234	0xba7ce981	-0.0009647832
235	0xbd2f7c43	-0.042843115
236	0x3ce02d6b	0.027365407
237	0x3dd09672	0.10184945
238	0xbd4e8808	-0.0504227
239	0xbc17d32c	-0.009266656
240	0x3de70bc0	0.11281538
241	0x3d84b59c	0.06479952
242	0xbd0517f4	-0.032493547
243	0xbd5c42f0	-0.053774774
244	0xbd6fd429	-0.05855194
245	0xbb6a0749	-0.0035709909
246	0x3da8e0e3	0.08246019
247	0xbdbdde65	-0.09270934
248	0xbd5ce062	-0.053924926
249	0xbb7648c7	-0.003758
250	0xbd3dd562	-0.046346076
251	0x3bf7cd13	0.0075622885
252	0x3d560e67	0.05225983
253	0xbd497c4f	-0.049190816
254	0x3d28cd00	0.04121113
255	0xbc7691b9	-0.015049391

network_body._body_endoder.seq_layers.2.bias f4 [256]
0	0x39dd8ab6	0.00042255752
1	0x3a38726a	0.0007036092
2	0x3b4f1882	0.00316003
3	0xbba5a378	-0.0050548874
4	0xbbd44d05	-0.006478908
5	0x3a89fcf7	0.001052766
6	0xbbb18962	-0.0054179886
7	0x3b7e9574	0.0038846405
8	0xbc2b52ac	-0.010456722
9	0xbb8ce620	-0.004299894
10	0xbabf5c9d	-0.0014599744
11	0xbbed75ab	-0.007246693
12	0x3b552ff8	0.0032529812
13	0xbb407898	-0.0029368754
14	0x3bcc4cff	0.0062347646
15	0x3bc8b0e3	0.006124602
16	0xba58df2f	-0.0008273003
17	0xbc655488	-0.013997205
18	0xbb8f98c3	-0.0043822243
19	0x3c6c9459	0.014439666
20	0x3b7a79f0	0.0038219653
21	0xbc898511	-0.016787084
22	0x3b8cbe63	0.004295157
23	0xbcd09cdf	-0.025465427
24	0xbc4ba823	-0.012430224
25	0xbc70e7d2	-0.014703708
26	0x39b3a567	0.00034264775
27	0xba157013	-0.0005700599
28	0x3b63c62a	0.0034755566
29	0xbb6347fe	-0.0034680362
30	0xbade14db	-0.0016943471
31	0xbb381971	-0.0028091336
32	0x3b5f9af9	0.003411947
33	0x3c283066	0.010265445
34	0x3ba55b43	0.0050462796
35	0x3d0f6457	0.0350078
36	0x3c9d7ef0	0.019225568
37	0x3c695701	0.014241935
38	0x3afc2973	0.0019238427
39	0x3aad3f87	0.0013217785
40	0xbbe3db6f	-0.0069536488
41	0xbb945ac7	-0.004527423
42	0x3aefb242	0.0018287378
43	0xbab6b63d	-0.0013939809
44	0xbb178e03	-0.0023125417
45	0xbbf9640f	-0.007610805
46	0xbbbf41d1	-0.0058367033
47	0xbbbce089	-0.0057640714
48	0xbc0883d3	-0.008332211
49	0x3cb1d102	0.021706108
50	0xbc0b38c8	-0.008497424
51	0xbb56c666	-0.0032772063
52	0xbc08875d	-0.008333054
53	0xbba16091	-0.0049248417
54	0x3c9c0b5b	0.019048383
55	0x3ae5bf87	0.0017528393
56	0xbb2f27b6	-0.002672655
57	0xbba43b40	-0.005011946
58	0x39c67437	0.0003785209
59	0xbc556a22	-0.013025792
60	0x3bd03a49	0.0063546044
61	0xbba63e70	-0.005073361
62	0xbc974045	-0.018463263
63	0xbc4c2fa8	-0.012462534
64	0x3c02e0be	0.007988153
65	0x3b8a7bf3	0.0042262017
66	0x3c3505e2	0.011048766
67	0xbc0c636b	-0.008568625
68	0xbbd7f766	-0.0065907715
69	0xbc0e9737	-0.008703045
70	0xbbfbeddb	-0.0076882667
71	0xba77ddd5	-0.0009455358
72	0xbc68784b	-0.014188836
73	0xbaf2bb9f	-0.001851905
74	0xbc4d5aec	-0.0125338845
75	0x3c632562	0.013863893
76	0x3b6b9237	0.0035945305
77	0xb93d21f0	-0.00018037087
78	0xbc4f4869	-0.012651541
79	0xbc815e67	-0.015792085
80	0x3c3bd504	0.011464361
81	0xbb8fc600	-0.004387617
82	0xbc910f74	-0.017707564
83	0x3c328330	0.010895535
84	0xbbd7990b	-0.0065795234
85	0xbc2c59a2	-0.010519417
86	0x3c0db06c	0.008648019
87	0xbc11c200	-0.008896351
88	0xba80d4ed	-0.0009829082
89	0x3a43ae1b	0.00074646034
90	0xbbe189b2	-0.0068828696
91	0x3c10e094	0.008842606
92	0xbc138353	-0.009003478
93	0xbc25e31a	-0.010124946
94	0x3b1fbba2	0.0024373312
95	0xbb08f3d2	-0.0020897281
96	0x3c999643	0.018748408
97	0xbc418dc1	-0.011813582
98	0x3cc690ee	0.02423903
99	0xbb2d85fc	-0.0026477566
100	0xbc09b2ae	-0.008404417
101	0xbb806306	-0.0039180545
102	0x3a83b68d	0.0010048911
103	0x3be8ced0	0.007104732
104	0x3bd045c5	0.0063559734
105	0xbc35498a	-0.011064896
106	0xbb05568d	-0.0020345778
107	0x3bd24509	0.006416921
108	0xbc4b6cf1	-0.01241611
109	0xbc1d1198	-0.009586714
110	0xbc431aa6	-0.011908209
111	0x3a6199af	0.00086059695
112	0x3b93d5cb	0.00451157
113	0x3bcb21e0	0.0061991066
114	0x3b715777	0.0036825815
115	0xbc414867	-0.011797047
116	0x3c1b502b	0.009479563
117	0x3c27853f	0.010224639
118	0xbc7555ef	-0.014974101
119	0xbb89f021	-0.004209534
120	0xbb463245	-0.0030242365
121	0xbbdb7adc	-0.0066979956
122	0xbc5fceff	-0.013660192
123	0xbbd9ef15	-0.0066508153
124	0xbbcc3bd3	-0.0062327175
125	0xbc1c7130	-0.00954847
126	0xbc4cbfd9	-0.012496912
127	0xbb015d62	-0.0019739498
128	0xbbc80e51	-0.0061052223
129	0xbc18c567	-0.009324408
130	0x3b154338	0.0022775661
131	0xbb8ec2d4	-0.0043567214
132	0x3a5cc556	0.00084217393
133	0xbaaf83a5	-0.0013390674
134	0xbc10d9f3	-0.008841026
135	0xbbc5dd8f	-0.0060383747
136	0xb9d5211e	-0.000406512
137	0xbc77f29b	-0.015133525
138	0xbba7acd6	-0.005117039
139	0xbc106749	-0.008813688
140	0xbafe883d	-0.0019419264
141	0xbc042138	-0.008064561
142	0xbc5c2ace	-0.01343794
143	0xbbf95f9d	-0.007610275
144	0xbc936f1c	-0.017997317
145	0xbc5c5306	-0.013447529
146	0x3baffc0a	0.0053706216
147	0x3b7092dc	0.0036708629
148	0x3a2daea4	0.000662545
149	0xbbbbec24	-0.0057349373
150	0xbc1dfd79	-0.009642952
151	0xbc5b4f6a	-0.013385633
152	0xbc855d09	-0.016279714
153	0x3bc2f5f1	0.0059497287
154	0xbc0a2b12	-0.00843312
155	0x3c8610c4	0.016365416
156	0xbbf47715	-0.0074604847
157	0xbc5724ad	-0.013131303
158	0xb9632042	-0.00021660424
159	0xbb24d6ef	-0.0025152524
160	0xbc118e5d	-0.00888404
161	0xbc469216	-0.012119791
162	0xbb5b8098	-0.0033493396
163	0xbbefa80c	-0.007313734
164	0xbc56f039	-0.013118797
165	0xbbded03c	-0.006799726
166	0xbb83a0f2	-0.004016989
167	0x3c7e7f3a	0.015533263
168	0xbc420044	-0.011840884
169	0xbc8967ac	-0.016773067
170	0xbb5bc398	-0.003353333
171	0xbc8376ac	-0.016047798
172	0x3bb29089	0.005449359
173	0xbb42910b	-0.0029688503
174	0x3c1eb29b	0.009686138
175	0x3bf27553	0.00739924
176	0xbbf8102e	-0.007570288
177	0xbb900f68	-0.004396368
178	0x3cec7802	0.028865818
179	0xbbdf1a95	-0.0068085887
180	0xbacd1315	-0.0015645946
181	0xbcc602a0	-0.024171174
182	0xbc3d8d13	-0.011569279
183	0x3c03289f	0.00800529
184	0xba74e942	-0.00093426195
185	0xbc994a96	-0.018712323
186	0xbba23d1f	-0.004951134
187	0xbc7cb309	-0.015423545
188	0xbb6747ae	-0.0035290527
189	0x3a9ee7cf	0.0012123528
190	0xbaab75d4	-0.001308138
191	0x3ba169ac	0.004925927
192	0xbbc9be6f	-0.0061567347
193	0x3c288bce	0.010287238
194	0xbb303bce	-0.0026891115
195	0xbbc60e96	-0.0060442192
196	0xb98d67f8	-0.00026971078
197	0xbc714742	-0.014726462
198	0xbb0c2013	-0.0021381422
199	0x3d0cbf32	0.034362026
200	0xbc44d7dc	-0.0120143555
201	0xbbcf7620	-0.0063312203
202	0xbbbcd3c7	-0.0057625505
203	0xbc56a5f8	-0.0131010935
204	0xbb9098ba	-0.0044127377
205	0x3b886838	0.0041628145
206	0x3c556bed	0.01302622
207	0x3a80ec9c	0.000983614
208	0xbc5d940b	-0.013524066
209	0x3b604a05	0.0034223807
210	0xbc0c5bcc	-0.008566808
211	0xbc328ffb	-0.010898585
212	0xbc73ae29	-0.014873066
213	0x3b1258db	0.0022330794
214	0xbc4c6e9e	-0.012477545
215	0xbc2dfda9	-0.010619559
216	0xbc94755a	-0.018122364
217	0xbbd7a265	-0.0065806382
218	0xbbb94aa9	-0.005654652
219	0x3bd077c6	0.0063619344
220	0xbba86208	-0.0051386394
221	0x39a9880e	0.0003233556
222	0xbb0e5f09	-0.0021724126
223	0x3baf347b	0.0053468323
224	0xbc5c77db	-0.01345631
225	0xbc1013d4	-0.00879379
226	0xbc543ca9	-0.012953916
227	0x3b3950b5	0.0028276865
228	0x3c8f152d	0.017466152
229	0x3a968912	0.0011484942
230	0x3b2d849d	0.0026476749
231	0x3bcfc05c	0.0063400697
232	0xbc1f624c	-0.009728026
233	0xbaf3a895	-0.001858967
234	0xbbfdbfc7	-0.007743809
235	0x3c9b24bd	0.018938417
236	0xbbf96bd0	-0.007611729
237	0xbc099e5d	-0.008399573
238	0x3c8eed3c	0.017447107
239	0xbb88ed20	-0.004178658
240	0x3c2d4f95	0.010578056
241	0x3bdb0338	0.0066837333
242	0x3b415bcd	0.002950418
243	0xbc181800	-0.009283066
244	0x3c10c3e6	0.008835768
245	0xbcc383f5	-0.023866633
246	0xbc99dda8	-0.018782452
247	0xbc1346ad	-0.008989018
248	0xbc7ae80d	-0.015314114
249	0xbced45b6	-0.028963905
250	0xbba23dcc	-0.0049512144
251	0xbc18155d	-0.009282437
252	0xbc15276c	-0.009103637
253	0x3c2a2124	0.010383878
254	0xbc36fe62	-0.011169048
255	0xbc3676c7	-0.011136717

network_body._body_endoder.seq_layers.4.weight f4 [256, 256]
0	0xbd85dfe6	-0.06536846
1	0xbd15adc8	-0.036542684
2	0x3e5846f8	0.21120822
3	0x3c21e3e6	0.009880995
4	0x3d318c83	0.043346893
5	0xbd0ef44d	-0.034900952
6	0x3de0d5f4	0.10978308
7	0x3c9685ca	0.018374342
8	0xbd1ad608	-0.037801772
9	0xbd4dd76d	-0.050254274
10	0xbd3583d6	-0.04431518
11	0xbc713e82	-0.014724376
12	0xbdda316c	-0.10653958
13	0xbbdb0635	-0.0066840895
14	0x3d704a68	0.05866471
15	0xbcdab0bc	-0.026695602
16	0x3d5c96c3	0.053854715
17	0xbc4bd1e5	-0.0124401795
18	0x3cba8521	0.022768559
19	0x3a5b6d15	0.00083704415
20	0xbe019b83	-0.1265698
21	0x3c856196	0.016281884
22	0xbc8f5090	-0.01749447
23	0xbd4b3e60	-0.049620032
24	0xbd46c67e	-0.04852914
25	0xbcf88bdd	-0.03034013
26	0xbdfc291b	-0.12312528
27	0x3cc5d9bf	0.024151681
28	0x3cf80a09	0.030278223
29	0xbcc2bdd4	-0.023772158
30	0x3d7299ea	0.059228815
31	0x3c8fbadc	0.017545156
32	0x3bd928a9	0.0066271615
33	0xbe185225	-0.14875086
34	0xba47cc7d	-0.00076217187
35	0xbdc5590e	-0.096361265
36	0xbdeb624a	-0.114933565
37	0x3c06ca44	0.008226935
38	0xbd3d0c85	-0.046154518
39	0x3c4f548f	0.012654438
40	0xbd6fe08b	-0.05856375
41	0x3d57296d	0.05252974
42	0x3a0809ed	0.00051894673
43	0xbd119269	-0.03554002
44	0xbcf958fe	-0.030437943
45	0x3d674564	0.05646266
46	0x3c1c69d2	0.009546714
47	0x3d0a63e8	0.033786684
48	0xbdf8a39a	-0.121405795
49	0xbc9c0024	-0.019043036
50	0x3c64d6b1	0.013967202
51	0xbdc83881	-0.09776402
52	0x3cbec962	0.023289386
53	0x3a887bf8	0.0010412922
54	0x3c9fba88	0.019498125
55	0xbdca16c2	-0.09867622
56	0xbd642286	-0.055696987
57	0xbcae0118	-0.021240756
58	0x3d78e4a0	0.06076491
59	0xbdc16e65	-0.09444884
60	0xbda12196	-0.07867734
61	0xba87a769	-0.0010349575
62	0x3cc47087	0.023979438
63	0x3b702224	0.0036641443
64	0x3de24e1d	0.11050055
65	0xbdc9367d	-0.09824846
66	0xbc6acf3d	-0.014331636
67	0x3ce407f0	0.027835816
68	0xbdb4001d	-0.08789084
69	0xbd710de7	-0.05885115
70	0x3d6bc179	0.057557557
71	0xbe2562a9	-0.16150917
72	0xbd2c53de	-0.04207217
73	0x3becf0e1	0.0072308634
74	0x3e05390d	0.13010044
75	0x3ccc7b45	0.024961123
76	0xbcfa6c52	-0.03056923
77	0xbdaecf6a	-0.08535655
78	0x3d364cd3	0.04450686
79	0xbc281e0c	-0.01026107
80	0x3da8e588	0.082469046
81	0x3d869c04	0.06572726
82	0xbd559cb1	-0.052151386
83	0xbd314bf2	-0.043285318
84	0xbc62b7a9	-0.013837733
85	0xbd22cc68	-0.03974572
86	0xbd02effd	-0.031967152
87	0x3d20b470	0.03923458
88	0x3b88a71b	0.004170311
89	0xbd7e4527	-0.062077668
90	0xbcb7f252	-0.022454415
91	0x3d9a6e01	0.07540513
92	0xbcf595ed	-0.029978717
93	0xbd000167	-0.031251337
94	0x3da2feb4	0.07958737
95	0xbd33ca33	-0.043894004
96	0xbd1ae926	-0.037820004
97	0x3d0d7f93	0.034545492
98	0xbcca0f36	-0.024665456
99	0x3d455c8b	0.04818396
100	0xbbb655cf	-0.0055644284
101	0x3d5001d1	0.050782982
102	0x3cc98d96	0.024603646
103	0xbc0622ec	-0.008187037
104	0xbd07e2fa	-0.033175446
105	0xbe33d1f3	-0.17560558
106	0xbcd57922	-0.026058737
107	0xbcd70720	-0.026248515
108	0xbdbcaa52	-0.092121735
109	0x3c505821	0.012716324
110	0x3c1d3119	0.009594225
111	0x3dd954da	0.10611887
112	0x3da42a56	0.080158874
113	0xbdc6b294	-0.0970203
114	0xbbf81d2f	-0.0075718383
115	0xbd41e6bf	-0.047339197
116	0x3c8b8fac	0.017036282
117	0x3c63b865	0.013898944
118	0xbd45401c	-0.048156843
119	0x3b8818b6	0.0041533364
120	0x3d86b9f4	0.065784365
121	0xbdde8e92	-0.10867037
122	0x3c9d62f3	0.019212222
123	0x3d817bce	0.06322442
124	0x3b58be9f	0.0033072603
125	0xbdfa5085	-0.12222389
126	0xbd60c290	-0.05487305
127	0xbcdc67af	-0.026904909
128	0x3d99ea2b	0.07515367
129	0x3c460b29	0.012087622
130	0x3d059662	0.03261412
131	0x3d6e2730	0.05814284
132	0xbd6c53ee	-0.05769723
133	0x3dc873bc	0.097876996
134	0xbdbc0a3e	-0.09181641
135	0x3c59613c	0.013267811
136	0xbdeda744	-0.11604169
137	0xbd2f3490	-0.042774737
138	0xbd97238a	-0.073798254
139	0x3ccac378	0.02475141
140	0x3dee47c7	0.11634784
141	0xbe0674e5	-0.13130529
142	0xbd8943bb	-0.06702372
143	0xbd013a0a	-0.03154949
144	0xbe18dac7	-0.14927207
145	0xbd5464e7	-0.05185404
146	0xbd048fc6	-0.032363676
147	0x3cf5881b	0.029972127
148	0x3bee3684	0.0072696824
149	0x3ddfe099	0.109315105
150	0xbe0209eb	-0.12699096
151	0xbd2f031c	-0.042727575
152	0xbd8b7c25	-0.06810788
153	0xbcd4ebac	-0.025991283
154	0xbdbcf4c2	-0.09226371
155	0xbd0dd690	-0.03462845
156	0xbdf69a16	-0.12041108
157	0xbdc12053	-0.094299935
158	0xbd98daa2	-0.07463576
159	0x3dbf9c3e	0.09355973
160	0x3b0faa48	0.0021921564
161	0xbca3a92b	-0.019978127
162	0xbcac8ed0	-0.021064192
163	0xbd886bb0	-0.06661165
164	0xbd2a1786	-0.04152634
165	0xbb5657d4	-0.0032706158
166	0x3cef0363	0.02917642
167	0x3cb610cc	0.022224806
168	0xbd817f8c	-0.06323156
169	0xbbe10a00	-0.006867647
170	0x3dc8244f	0.0977255
171	0x3d88d55e	0.066813216
172	0x3c8fc8f2	0.017551873
173	0x3d7ef1fe	0.0622425
174	0x3d619778	0.055076092
175	0x3e12db07	0.14341365
176	0xbd990c3e	-0.07473038
177	0xbd2612fd	-0.040545452
178	0xbd4769f8	-0.048685044
179	0xbd3e1626	-0.04640784
180	0xbb40c061	-0.0029411542
181	0xbe0b5874	-0.13607961
182	0xbdc8a8e8	-0.09797841
183	0x3dcc8311	0.099859364
184	0xbb398c3a	-0.0028312341
185	0x3d84ae80	0.06478596
186	0x3e04879e	0.12942359
187	0x3d0a19f8	0.033716172
188	0xbc0846e8	-0.008317687
189	0x3e116754	0.14199573
190	0xbc8003e3	-0.015626853
191	0xbd8adeaa	-0.06780751
192	0xbe075747	-0.13216887
193	0x3cc0b5c6	0.023524176
194	0xbcfba964	-0.03072042
195	0xbd0455c5	-0.03230836
196	0x3d98e33a	0.07465215
197	0xbc74e5c5	-0.014947359
198	0x3c55b5a0	0.013043791
199	0xbcc7e230	-0.024399847
200	0xbc825793	-0.0159109
201	0xbc83758f	-0.016047267
202	0xbbd1a439	-0.0063977507
203	0xbd28b9fb	-0.04119299
204	0xbdfa581f	-0.12223839
205	0xbce7da88	-0.028302446
206	0xbd69eff7	-0.057113614
207	0xbda092c3	-0.078404926
208	0x3d208306	0.039187454
209	0xbd330c06	-0.04371264
210	0x3daed274	0.085362345
211	0xbd8603f4	-0.06543723
212	0xbdf8c973	-0.121477984
213	0xbd0afb4f	-0.033931073
214	0x3d31cf46	0.043410562
215	0x3d447bc4	0.047969595
216	0x3dc7a8a0	0.097489595
217	0xbd84acf2	-0.06478299
218	0x3c968f9a	0.018379021
219	0xbb16cb60	-0.0023009405
220	0x3d146eba	0.03623841
221	0x3d68b385	0.05681183
222	0xbc537ed0	-0.012908652
223	0xbcf9d53c	-0.030497186
224	0xbd203af8	-0.039118737
225	0x3cd3b487	0.025842918
226	0x3d5942c2	0.05304218
227	0x3d65dae5	0.056116957
228	0x3d095fc6	0.033538602
229	0xbd462625	-0.04837622
230	0xbcbce3b1	-0.02305779
231	0xbd7edc0b	-0.062221568
232	0x3d48bd7d	0.049008835
233	0x3c0bae2a	0.008525411
234	0xbe02adab	-0.12761562
235	0x3def67f5	0.1168975
236	0xbd681675	-0.05666204
237	0xbd84dcf8	-0.06487459
238	0xbdb53362	-0.08847691
239	0xbc6a2029	-0.014289894
240	0x3cb1aadc	0.021687917
241	0x3cbe8e58	0.023261234
242	0xbce5081c	-0.027957968
243	0x3d303726	0.043021344
244	0x3ca80a4e	0.020512726
245	0x3c8af8e3	0.016964382
246	0xbcb2226d	-0.021744931
247	0xbacfda10	-0.0015857834
248	0xbca93f62	-0.020660106
249	0xbdc8a70b	-0.09797486
250	0xbd74bb1f	-0.059748765
251	0x3c9454ca	0.018106837
252	0x3d837973	0.06419649
253	0xbd8d42a1	-0.06897474
254	0x3d1fbe60	0.038999915
255	0xbc4013d0	-0.011723474

network_body._body_endoder.seq_layers.4.bias f4 [256]
0	0x3bc4355b	0.005987806
1	0xbc2c7ac2	-0.010527315
2	0x3abbeed4	0.0014338144
3	0x3ba2618d	0.0049554766
4	0x3b51d37e	0.0032016928
5	0x3aa22523	0.0012370687
6	0x3c3b7fb0	0.011444017
7	0x3b921445	0.0044579827
8	0x3c61fe96	0.013793608
9	0xbc793318	-0.015209936
10	0x3b6f9d68	0.0036562327
11	0xbcf8c2b0	-0.030366272
12	0x3bf0b32d	0.007345578
13	0xbd184037	-0.037170615
14	0xbc99ec7d	-0.018789524
15	0xbc4bd991	-0.012442009
16	0xbae283a0	-0.0017281659
17	0x3c7aeaba	0.015314752
18	0xbca77db5	-0.020445684
19	0xbca6ea17	-0.020375295
20	0x3bf3b38a	0.007437174
21	0xbc88afa6	-0.016685318
22	0xbc411fc7	-0.011787361
23	0x3c71bd0f	0.014754548
24	0x3aa60ae4	0.001266804
25	0xbc9ab28f	-0.018883971
26	0xbc72425c	-0.014786329
27	0x3caa15b9	0.020762311
28	0xba7b349a	-0.00095827284
29	0x3cf7bacb	0.030240437
30	0xbc55506e	-0.013019664
31	0x3b30288a	0.0026879632
32	0xbc54ecc1	-0.0129959
33	0x3b7238d7	0.0036960149
34	0xbb4ebd18	-0.0031545814
35	0x3b1c66b6	0.0023864931
36	0xbc41a73d	-0.011819658
37	0x3a343e2f	0.0006875721
38	0xbc418cbb	-0.011813338
39	0x3c648705	0.013948207
40	0xba5f6a6d	-0.00085226336
41	0xbba208c1	-0.004944891
42	0xbb197182	-0.0023413603
43	0xbbfa9177	-0.0076467353
44	0xbc5a6369	-0.013329365
45	0xbc01da6a	-0.007925609
46	0xbc182fc7	-0.009288735
47	0x3bdc0c42	0.0067153284
48	0xbc276a06	-0.010218149
49	0x3ab8fcdf	0.0014113447
50	0x3d1e0bf4	0.03858562
51	0xbb4b084d	-0.003098029
52	0xbc26be23	-0.010177168
53	0xb9eaded4	-0.00044797978
54	0xbc64fe91	-0.013976709
55	0xbc72e74d	-0.014825654
56	0xbbe92095	-0.00711448
57	0x3c70f384	0.014706496
58	0xbc0670a2	-0.008205565
59	0xbbeeb0e7	-0.007284272
60	0xbc56561c	-0.0130820535
61	0xbc61f560	-0.013791412
62	0xbc055093	-0.008136886
63	0xbc934577	-0.01797746
64	0xb9195432	-0.00014622582
65	0xbca677af	-0.020320741
66	0x3c1ac8ea	0.009447316
67	0x3bfb409b	0.0076676137
68	0x38870177	6.4375745e-05
69	0xbb4dfaf5	-0.00314301
70	0x3cb95738	0.022624597
71	0x3894b9d0	7.0918e-05
72	0x3c4cac17	0.012492201
73	0xbc8b644f	-0.017015604
74	0xbba6d0ae	-0.0050907945
75	0x3b61982f	0.0034422984
76	0x3c083fa9	0.008315959
77	0xbbccc529	-0.0062490893
78	0x3b9678de	0.004592045
79	0x3cc5efae	0.02416214
80	0x3b93d7f8	0.0045118295
81	0xba8ccae8	-0.0010741623
82	0xbb411e5e	-0.0029467563
83	0xbbe1d9b0	-0.0068924055
84	0xbbcc3dca	-0.006232952
85	0xbc7511be	-0.014957843
86	0xbbfac242	-0.007652552
87	0xbc00eb6b	-0.007868628
88	0xbc08a0c1	-0.008339108
89	0xbb897cac	-0.0041957702
90	0xbcb92868	-0.022602275
91	0x3b424682	0.0029644077
92	0x3bb98c9a	0.005662513
93	0x3b0a3109	0.0021086356
94	0xbadd4361	-0.0016881042
95	0xbc1fd0c0	-0.00975436
96	0xbb835972	-0.0040084654
97	0xbc203d2c	-0.0097802095
98	0x3bf77571	0.007551842
99	0x3c62db12	0.013846176
100	0x3c3ca78e	0.0115145575
101	0xbbb82163	-0.0056192144
102	0x3b52e7ab	0.0032181542
103	0xbbab43c7	-0.0052265855
104	0x3a312cff	0.0006758719
105	0x3aa56436	0.0012618366
106	0xbc145cbd	-0.009055314
107	0xbaa16bc7	-0.0012315445
108	0x3bf20278	0.007385548
109	0xbc08438b	-0.008316885
110	0xbcaf7769	-0.021419244
111	0x3b34274d	0.0027489245
112	0xbc046af8	-0.008082144
113	0x3ac96ed5	0.0015368114
114	0xbc25612a	-0.0100939665
115	0xbb84d45e	-0.0040536365
116	0xbc2a8b08	-0.010409124
117	0xbaa48c33	-0.001255399
118	0xbc32481e	-0.010881452
119	0xbbeb6cf8	-0.007184621
120	0xbb5453d8	-0.0032398608
121	0x3bbe2fca	0.0058040367
122	0xb94d05df	-0.0001955251
123	0x3c180fb3	0.009281087
124	0xbcbc2a5b	-0.022969415
125	0xbc32f46d	-0.010922533
126	0xbb9ea0c9	-0.0048409444
127	0xbbce7103	-0.006300093
128	0xbc83cd2b	-0.016089043
129	0x3b5b4ee1	0.0033463764
130	0xbbb1539f	-0.0054115797
131	0xbc2257bd	-0.009908614
132	0xbb731c3f	-0.0037095693
133	0xbcca7b89	-0.02471711
134	0xbd0a43a4	-0.033755913
135	0xbc3b5896	-0.011434695
136	0x396ce74a	0.00022592876
137	0x3b37b9c5	0.0028034311
138	0xba4a7e70	-0.0007724529
139	0x3b7f775d	0.0038981058
140	0xbb2973fb	-0.0025856483
141	0xbc2e5c91	-0.010642187
142	0xbc24c4fd	-0.010056731
143	0xbc4ffe27	-0.012694872
144	0x3b448aea	0.0029990026
145	0xbc218063	-0.00985727
146	0xbb57c565	-0.0032924053
147	0x3b9d0f44	0.0047930796
148	0xbd03e9a5	-0.032205243
149	0x3b83758a	0.0040118145
150	0x3c0a462c	0.008439582
151	0xbc35b613	-0.011090773
152	0x3bb27791	0.0054463823
153	0xbb025447	-0.001988666
154	0xbb8ea0c2	-0.00435266
155	0xbc1c3d69	-0.009536126
156	0x3bd284f6	0.0064245416
157	0xbce90823	-0.028446263
158	0xbce7dc69	-0.028303342
159	0xba3983a1	-0.0007076804
160	0xbcd2c2b6	-0.025727611
161	0x3b433969	0.0029788858
162	0xbcb32a38	-0.021870717
163	0x3bed194f	0.007235683
164	0xbccc19f7	-0.024914725
165	0x3b569959	0.003274521
166	0x3bc42b66	0.005986619
167	0xbb1eb7a6	-0.002421835
168	0x3b4b355d	0.0031007149
169	0xbb90d944	-0.0044204313
170	0x3cecf7e1	0.028926792
171	0x3bef692c	0.0073062386
172	0x398bde31	0.00026677691
173	0x3b3127b1	0.0027031715
174	0x3c4dfde2	0.012572737
175	0xbc1132ab	-0.008862178
176	0xbc8406ef	-0.016116587
177	0x39e2fcec	0.0004329452
178	0xbb4324cf	-0.0029776578
179	0xbc94a2d5	-0.01814405
180	0xbbb2f35d	-0.00546114
181	0xbc721d63	-0.014777514
182	0x3a0a680b	0.0005279786
183	0x3a203f31	0.0006112932
184	0x3c35aba7	0.011088288
185	0xbb079a09	-0.0020691177
186	0x3ad39c80	0.0016144663
187	0x3b9c3b94	0.0047678445
188	0x3c24ee78	0.010066621
189	0xbb858de2	-0.0040757516
190	0x3c954984	0.018223532
191	0x3c87e0f5	0.01658676
192	0x3ab9b8da	0.001416947
193	0xbabda4ca	-0.0014468667
194	0xbc89ff11	-0.016845258
195	0xbcaae012	-0.020858798
196	0xbc339819	-0.010961556
197	0x3ba5b7dc	0.005057318
198	0x3c15e81e	0.009149579
199	0x3b75933a	0.0037471787
200	0xbc22f79a	-0.009946728
201	0xbcc58747	-0.024112357
202	0x3b5fdf4e	0.00341602
203	0xbc80c937	-0.015720947
204	0x3c72dc90	0.014823094
205	0xbc83a22a	-0.016068537
206	0x3b8cbff4	0.0042953435
207	0x3c48e951	0.012262658
208	0xbc5fd619	-0.013661885
209	0x3b299a6d	0.0025879398
210	0xbbfe91bf	-0.007768839
211	0xbcd46c3c	-0.025930516
212	0xbaee36ec	-0.0018174327
213	0xbc91f1fd	-0.017815584
214	0xbc4c1048	-0.012455054
215	0xbbd31131	-0.0064412584
216	0xbc80c5c1	-0.015719296
217	0xbbcfb1a7	-0.0063383165
218	0x3c21688f	0.009851589
219	0xbc8e5acc	-0.01737728
220	0xbb5bc838	-0.0033536088
221	0xbcd0c485	-0.025484333
222	0xba89cbf6	-0.0010513056
223	0xbc864340	-0.01638949
224	0xbd23cb75	-0.039988954
225	0xbb1f3d76	-0.0024298108
226	0x3c637d9f	0.013884931
227	0x3b0c3d43	0.002139882
228	0xbc8f7589	-0.0175121
229	0x3b0704ef	0.0020602306
230	0xbd002bd5	-0.0312918
231	0xbc90730a	-0.01763298
232	0xbbfb5bd2	-0.007670858
233	0x3bbd9592	0.0057856524
234	0xbbad11b2	-0.0052816505
235	0xbc2379aa	-0.009977737
236	0x3c37935a	0.011204565
237	0xbc790a05	-0.015200143
238	0xba546157	-0.0008101663
239	0xbb5887dd	-0.0033039965
240	0x3ca41475	0.020029286
241	0x3b5c3047	0.0033598111
242	0xbc8f739f	-0.017511187
243	0xbcaa3c32	-0.020780656
244	0xbcc1af94	-0.023643292
245	0xbc058966	-0.008150434
246	0xbb4dbecc	-0.0031394241
247	0xbc125deb	-0.008933525
248	0xbb464126	-0.0030251234
249	0x3c3014b8	0.010747127
250	0xbc055ecf	-0.00814028
251	0x3a941b9a	0.001129973
252	0xbb4475b5	-0.0029977385
253	0x3b74cbda	0.003735295
254	0x3bea647e	0.007153093
255	0x3c1e312b	0.009655277

network_body._body_endoder.seq_layers.6.weight f4 [256, 256]
0	0xbd423f1a	-0.04742346
1	0x3d944d3b	0.07241293
2	0xbc2aca59	-0.01042422
3	0x3ca8f1b2	0.020623062
4	0x3cad3bca	0.021146674
5	0x3a9120fb	0.0011072451
6	0x3b9fe554	0.004879633
7	0x3d2ffb9c	0.042964563
8	0xbd995193	-0.07486262
9	0xbb9d9cae	-0.0048099374
10	0xbdf00f71	-0.11721695
11	0x3dc43d76	0.09582035
12	0x3c48a3e8	0.01224611
13	0x3c993871	0.018703671
14	0x3d5d2af5	0.053996045
15	0xbd8cd596	-0.06876676
16	0xbdc77c65	-0.09740523
17	0xbd04a934	-0.032387927
18	0xbd377094	-0.044785097
19	0x3d62525c	0.055254325
20	0xbc89ce30	-0.01682195
21	0x3c8a0da6	0.016852211
22	0x3ac5e54c	0.0015098243
23	0x3c4e4fc4	0.01259226
24	0xbd90c513	-0.07068839
25	0xbdeeba2e	-0.11656605
26	0x3cfbae64	0.030722804
27	0x3dc6148a	0.09671886
28	0x3d34c1f3	0.044130277
29	0xbd18ab85	-0.03727295
30	0x3da2f870	0.07957542
31	0x3d07f96d	0.033196855
32	0x3cbb43e2	0.022859517
33	0x3d544bad	0.051829983
34	0xbd712646	-0.05887439
35	0x3b86d63c	0.004114894
36	0x3da96a96	0.08272283
37	0x3d180fd3	0.037124466
38	0xbdcfa59a	-0.10139008
39	0xbde41590	-0.11136925
40	0xbdf24364	-0.1182926
41	0xbca857e0	-0.020549715
42	0xbdb813f2	-0.08988179
43	0xbde046af	-0.10950982
44	0x3c9d57ee	0.019206967
45	0xbcabd4a1	-0.020975413
46	0xba488174	-0.00076486846
47	0xbc774e44	-0.015094344
48	0x3dfba6f1	0.12287701
49	0x3c4d818d	0.012543094
50	0xbdd17220	-0.10226846
51	0x3d918ef4	0.07107344
52	0x3cb0eff0	0.021598786
53	0x3c48126f	0.012211426
54	0xbc816ca6	-0.015798878
55	0x3c96f08b	0.018425247
56	0x3dc716a4	0.09721115
57	0xbdb517d7	-0.08842438
58	0x3d209ecd	0.039213944
59	0xbc00f608	-0.007871158
60	0x3b90af44	0.0044154245
61	0xbc4f3ea6	-0.012649214
62	0xbb459c80	-0.0030153096
63	0x3d0ebc1b	0.03484736
64	0x3d0a31af	0.03373879
65	0xbc98976f	-0.018626897
66	0x3e03bc3f	0.12864779
67	0xbce82854	-0.028339542
68	0xbc9db6d6	-0.019252222
69	0xbd36522e	-0.044511966
70	0x3df25547	0.118326716
71	0x3a314f02	0.0006763787
72	0xbb6f728f	-0.0036536788
73	0x3bdd8564	0.006760286
74	0x3ddb02ba	0.106938794
75	0xbdc7dc29	-0.09758789
76	0xbc943490	-0.01809147
77	0xbd16db0c	-0.036829993
78	0xbd060921	-0.03272355
79	0x3d2bcd60	0.041943908
80	0xbd18ad85	-0.037274856
81	0xbc94fb32	-0.018186186
82	0x3c3d29a7	0.011545575
83	0xbd6333aa	-0.055469193
84	0xbcd3bf19	-0.025847958
85	0x3e096cb8	0.13420379
86	0x3d2fb3ab	0.042895954
87	0xbd50daa7	-0.050989773
88	0xbd98b861	-0.074570425
89	0x3dcb61de	0.09930776
90	0x3ca569a3	0.020191973
91	0x3d0d45e7	0.034490492
92	0xbdc14617	-0.09437197
93	0xbce30846	-0.027713906
94	0x3d8bf22e	0.068333015
95	0x3e2fccc9	0.17167963
96	0xbd11db00	-0.035609245
97	0xbc355932	-0.011068629
98	0xbd4a5645	-0.04939868
99	0x3dc04767	0.09388619
100	0xbc0b4634	-0.008500624
101	0xb9308a83	-0.00016836268
102	0x3d63b252	0.05558998
103	0xbcb9719f	-0.022637187
104	0x3d787419	0.060657594
105	0x3c573ce5	0.013137077
106	0x3d72991f	0.05922806
107	0x3c48b7d7	0.012250862
108	0x3da76a12	0.08174528
109	0x3d13377c	0.035941586
110	0xbd71fdd0	-0.059079945
111	0xbc83e6ee	-0.016101327
112	0xbdd9452b	-0.10608896
113	0xbdd82919	-0.10554714
114	0x3db15610	0.08658993
115	0x3da96660	0.082714796
116	0xbdd9d3a6	-0.10636072
117	0xbd3f075a	-0.04663787
118	0xbcfd00e5	-0.030884216
119	0xbcb844e1	-0.022493782
120	0x3d55e800	0.052223206
121	0x3c27a035	0.010231067
122	0xbd094255	-0.033510525
123	0x3cae7f55	0.021300951
124	0xbd954cfa	-0.07290073
125	0x3c19b0b3	0.009380507
126	0xbd055d3a	-0.03255961
127	0xbe0e44c3	-0.13893418
128	0xbe3317fd	-0.1748962
129	0x3da78080	0.08178806
130	0xbd82ebc8	-0.06392628
131	0x3d6a5594	0.05721052
132	0xbd3f8f72	-0.04676766
133	0xbda99d58	-0.08281964
134	0xbd2688d4	-0.040657833
135	0xbdc2bc20	-0.09508538
136	0x3e2853b2	0.16438177
137	0xbcf9f350	-0.030511528
138	0xbb4ae975	-0.0030961905
139	0xbbe089a1	-0.006852344
140	0xbdbada36	-0.09123652
141	0xbc1596c4	-0.009130184
142	0x3d76953c	0.060200915
143	0x3d0945b9	0.03351376
144	0x3cf91daa	0.030409653
145	0xbd343586	-0.043996356
146	0xbd1d9f3b	-0.038481932
147	0xbcd5f563	-0.026117986
148	0xbd200fd5	-0.0390776
149	0x3ce6c0d3	0.028168118
150	0xbc451d2e	-0.012030883
151	0x3d07594b	0.03304414
152	0xbd823641	-0.06358004
153	0xbc7f42a0	-0.0155798495
154	0xbd47519d	-0.048661817
155	0x3e227dd2	0.15868309
156	0x3d1f70f2	0.038926072
157	0xbbef1385	-0.007296028
158	0x3d55e5a2	0.052220948
159	0xbc1d0ee7	-0.0095860725
160	0xbd6b000c	-0.05737309
161	0xbd1bb3e2	-0.038013346
162	0xba705676	-0.0009168157
163	0x3d36cc15	0.04462822
164	0xbc6411d7	-0.013920269
165	0xbcd607cf	-0.02612677
166	0xbd1ca484	-0.03824283
167	0xbdec4a11	-0.115375645
168	0xbce55ee8	-0.027999356
169	0xbd67413f	-0.056458708
170	0xbe32165c	-0.17391342
171	0xbe0ddb69	-0.1385323
172	0xbd043a5d	-0.032282222
173	0x3cd6aee8	0.026206449
174	0x3c985256	0.018593948
175	0xbdaec574	-0.08533755
176	0xbc074e34	-0.008258391
177	0x3d58bdc8	0.052915365
178	0x3c88abc7	0.016683472
179	0x3d8e4c0a	0.06948097
180	0x3d8a4b06	0.06752591
181	0xbcfebbd3	-0.031095421
182	0xbd109608	-0.03529933
183	0x3b63fde2	0.0034788777
184	0xbdb6e108	-0.0892964
185	0x3d525e4c	0.05135946
186	0x3d781a03	0.06057168
187	0x3c8b14b2	0.016977642
188	0xbd78726b	-0.060655992
189	0x3ca6ebdd	0.02037614
190	0xbd8a69a2	-0.06758429
191	0xbd22c467	-0.039738085
192	0xbd8fc56c	-0.07020077
193	0xbd89f678	-0.06736463
194	0xbd8ada26	-0.0677989
195	0x3d5fa51a	0.054600812
196	0xbd9ba722	-0.076002374
197	0x3e073682	0.13204387
198	0x3c167c6a	0.009184936
199	0x3d0eb891	0.034843985
200	0xbcbe041c	-0.023195319
201	0x3abc3643	0.0014359433
202	0xbb75e34f	-0.003751952
203	0xbd0881d2	-0.03332693
204	0x3dcd78bc	0.10032794
205	0x3cc9e911	0.024647268
206	0x3c8af437	0.016962154
207	0xbd4b4ccf	-0.049633797
208	0xbe03127e	-0.12800023
209	0x3c8a1f77	0.016860707
210	0x3da1861e	0.07886909
211	0x3e3219ec	0.17392701
212	0xbcec01e4	-0.028809495
213	0xbd1c6c33	-0.038189124
214	0xbc8716ce	-0.016490366
215	0x3d8cea95	0.068806805
216	0x3df7898b	0.12086781
217	0xbcd49327	-0.025949074
218	0x3c5ebb11	0.013594405
219	0x3ced1b84	0.028943785
220	0xbd1985aa	-0.037480988
221	0xbd035905	-0.032067318
222	0xbdd1f7c8	-0.10252339
223	0x3d2fdc9d	0.042935003
224	0x3c76c734	0.015062142
225	0xbc74b384	-0.014935378
226	0xbd584fb7	-0.052810397
227	0x3cdf68cb	0.027271649
228	0xbc02be91	-0.007980005
229	0x3c6b6378	0.014366977
230	0xbdd093ad	-0.10184417
231	0xbc8d1d8f	-0.017226009
232	0xbd827224	-0.06369427
233	0xbdc39db3	-0.09551563
234	0x3c3941af	0.011307164
235	0xbd89c598	-0.06727141
236	0xbd2d4709	-0.042304073
237	0xbdb45c28	-0.0880664
238	0x3daa8fc8	0.08328205
239	0x3d9cfb16	0.07665078
240	0xbd98fefd	-0.0747051
241	0xbd28bd79	-0.04119632
242	0x3b75c426	0.0037500947
243	0xbc9d4e78	-0.019202456
244	0xbd9a604f	-0.07537901
245	0x3d156db6	0.03648158
246	0x3e289ba7	0.16465627
247	0x3c356f84	0.011073951
248	0xbd5c5027	-0.053787377
249	0xbb97354b	-0.0046145073
250	0xbc8c23cf	-0.017106919
251	0xbc8db6ea	-0.017299134
252	0x3bc607a7	0.0060433927
253	0x3d723bd8	0.059139103
254	0x3c860faf	0.0163649
255	0xbc46dcbd	-0.012137589
