Assets/ML_PPO/results/1stgo_nav_6/BoatAgent/BoatAgent-0.onnx (onnx, 819610 bytes, 25 tensors)

discrete_action_output_shape f4 [1, 8]
2.0 2.0 2.0 2.0 2.0 2.0 2.0 2.0
00000000: 0000 0040 0000 0040 0000 0040 0000 0040
00000010: 0000 0040 0000 0040 0000 0040 0000 0040

network_body._body_endoder.seq_layers.0.weight f4 [256, 4]
-0.8901579 -1.4004117 -0.16589716 -0.2901667 -0.2065487 -0.8564914 0.5007668 -0.53897583
-0.3638168 -0.26921588 -0.06709786 0.40205237 0.9050122 -0.091254555 -0.28102577 0.049604837
-0.33628774 -0.5710447 -0.065857895 -0.5693551 0.0014123383 0.11755211 0.5550525 0.4285303
0.40571758 -1.1089739 -0.6938174 -0.4383934 0.7381062 0.5452248 -0.5303192 -0.45070466
-0.63027126 0.1225944 -0.9251179 -0.40124696 -0.42024124 0.6141627 -0.28373882 0.010308147
0.9152119 -0.34010395 0.12608582 0.66100967 0.0858472 -0.62299794 0.19131313 -0.29513848
-0.39593914 0.31318972 0.032963336 0.34921107 0.2610156 -0.061777003 -0.04064507 -0.115376666
-0.8291907 -0.68975985 -0.25279456 0.68881994 0.54007167 0.5969415 -0.7314213 0.3820087
0.004252565 -0.98336834 -0.40848607 -0.39090225 0.015555103 0.54709727 0.48175046 -0.42197958
-0.64891225 -0.28740624 -0.19132194 0.6234253 -0.22766097 -0.5589173 -0.27669743 0.5342438
0.12559688 -0.42731267 0.22294122 -0.3968582 0.56730884 0.2903263 0.13156791 0.009214912
0.64253944 0.29023722 -0.14024878 -0.16760892 -0.25495628 0.02763145 -0.59345436 0.2427324
1.3451262 0.13690382 0.80539864 -0.31148174 0.43180618 -0.30658624 0.31279284 0.2117979
-0.03632525 -0.7753096 -1.0320778 1.1464026 0.46118763 -0.3314026 0.20377691 0.3682781
-0.7595546 -0.935293 -1.0645069 0.4258699 -0.5009828 -0.14920919 -0.33993694 0.29240897
0.0728685 -0.6943118 0.333109 -0.3547664 -0.5976174 -0.046358664 0.01742655 0.7175197
-0.38970268 0.050791346 -0.5325888 -0.42363077 -0.18306501 1.1780975 -0.30523944 0.14374349
0.48587233 0.18753757 0.002899776 0.13464135 -0.17023085 -0.065189525 0.43461794 0.04685662
0.3641395 0.61999536 -0.6507235 -0.18631047 -0.3477903 1.1379733 -0.576068 -0.26372927
-0.15301225 0.7927401 -0.882417 -0.05779269 -0.50163305 0.5996543 0.46787238 1.0193256
0.40410325 0.80951256 0.3359828 0.33372042 -0.1501085 -0.10466746 -1.0321094 -0.2482967
-0.6786104 0.38209063 0.65084726 -0.5196873 -0.83117557 0.10092052 -0.4659179 0.22467472
0.8254308 0.40295786 1.1642737 0.1730079 0.5666244 0.1063208 -1.5228431 -0.3610977
-1.0531102 0.71262044 -0.0066537336 -0.51707166 0.25118205 -0.46657747 0.20315315 0.934106
0.63785994 -0.6908378 0.27623978 0.15520653 0.07769019 -0.028727911 0.80256814 -0.1544936
-0.4004503 0.47622296 0.26822233 0.49450403 0.6733347 -0.41585487 0.07805801 0.17928071
1.019277 -0.309486 -0.11604645 -0.07491096 -0.90644354 0.39872357 0.60712063 0.20035787
-0.37466615 0.17165466 -0.009334764 -0.1687219 0.41019234 -0.65271294 0.25592506 -0.76969314
0.6344921 -0.9424139 -0.22777444 0.27057838 -0.53402996 -0.29451212 -0.288321 -0.06158857
0.26174504 0.98264515 0.062226772 -0.3345199 -0.9440611 0.49152163 0.24840313 0.64919794
-0.20132223 0.0052128886 0.6036812 -0.113173924 -0.3313401 0.6793449 -0.24993011 -0.5667463
0.21181302 -0.20695609 -0.76649755 0.2966428 0.34332773 -0.24017313 0.3897438 -1.0851731
00000000: 63e1 63bf b140 b3bf f2e0 29be bb90 94be
00000010: 8181 53be 0543 5bbf 4132 003f 52fa 09bf
00000020: 3246 babe aad6 89be 9a6a 89bd cfd9 cd3e
00000030: e1ae 673f abe3 babd 9ce2 8fbe 712e 4b3d
00000040: e82d acbe fc2f 12bf 81e0 86bd 41c1 11bf
00000050: 361e b93a 29bf f03d ec17 0e3f 5368 db3e
00000060: 37ba cf3e dbf2 8dbf 049e 31bf 1a75 e0be
00000070: 87f4 3c3f da93 0b3f 00c3 07bf c3c2 e6be
00000080: 7559 21bf c612 fb3d 87d4 6cbf 3e70 cdbe
00000090: dc29 d7be c439 1d3f 3746 91be 81e3 283c
000000a0: 544b 6a3f 1b22 aebe a41c 013e ee37 293f
000000b0: a8d0 af3d cb7c 1fbf 97e7 433e 641c 97be
000000c0: 89b8 cabe 675a a03e 9004 073d cbcb b23e
000000d0: d6a3 853e e209 7dbd 727b 26bd 9a4a ecbd
000000e0: d745 54bf 1a94 30bf 4a6e 81be 8156 303f
000000f0: 2342 0a3f 28d1 183f 6d3e 3bbf a596 c33e
00000100: 1a59 8b3b 07be 7bbf 1625 d1be 5724 c8be
00000110: d5da 7e3c 910e 0c3f ffa7 f63e b50d d8be
00000120: 1d1f 26bf e926 93be e6e9 43be cd98 1f3f
00000130: f51f 69be 3415 0fbf 49ab 8dbe 34c4 083f
00000140: 789c 003e bac8 dabe b44a 643e ff30 cbbe
00000150: 273b 113f a6a5 943e bdb9 063e 24fa 163c
00000160: 777d 243f f999 943e 609d 0fbe aca1 2bbe
00000170: a189 82be 5a5b e23c a0ec 17bf d88e 783e
00000180: 182d ac3f 8430 0c3e 9b2e 4e3f 897a 9fbe
00000190: b315 dd3e dff8 9cbe 6226 a03e 8ce1 583e
000001a0: c9c9 14bd b17a 46bf 201b 84bf 52bd 923f
000001b0: c920 ec3e 9aad a9be e5aa 503e f28e bc3e
000001c0: 2c72 42bf 5d6f 6fbf c341 88bf 9f0b da3e
000001d0: 6940 00bf 4bca 18be 370c aebe a1b6 953e
000001e0: 153c 953d 6bbe 31bf 438d aa3e f1a3 b5be
000001f0: 74fd 18bf 95e2 3dbd 20c2 8e3c 5faf 373f
00000200: 1c87 c7be 960a 503d bd57 08bf 22e6 d8be
00000210: 6575 3bbe e6cb 963f 5848 9cbe 7e31 133e
00000220: 42c4 f83e d909 403e 2b0a 3e3b 6cdf 093e
00000230: ff50 2ebe 1682 85bd 3e86 de3e baec 3f3d
00000240: 7e70 ba3e 04b8 1e3f d195 26bf 2cc8 3ebe
00000250: 9211 b2be 1ca9 913f 3179 13bf 8607 87be
00000260: 3eaf 1cbe 04f1 4a3f 15e6 61bf 07b8 6cbd
00000270: 066b 00bf f282 193f f88c ef3e 4379 823f
00000280: 9fe6 ce3e 373c 4f3f f005 ac3e 67dd aa3e
00000290: 0bb6 19be e55b d6bd 291c 84bf 7d41 7ebe
000002a0: 69b9 2dbf 62a1 c33e ed9d 263f 3a0a 05bf
000002b0: ecc7 54bf 6baf ce3d ca8c eebe 2111 663e
000002c0: 6f4f 533f 7e50 ce3e ec06 953f fc28 313e
000002d0: 4c0e 113f b8be d93d 86ec c2bf cce1 b8be
000002e0: 51cc 86bf 4b6e 363f 9007 dabb cf5e 04bf
000002f0: ef9a 803e 3ee3 eebe 6107 503e 9221 6f3f
00000300: ca4a 233f bfda 30bf 4d6f 8d3e 76ee 1e3e
00000310: 091c 9f3d cc56 ebbc 1b75 4d3f 9233 1ebe
00000320: d207 cdbe 7fd3 f33e 7054 893e a22f fd3e
00000330: aa5f 2c3f eeea d4be e1dc 9f3d 5d95 373e
00000340: ab77 823f f374 9ebe c3a9 edbd eb6a 99bd
00000350: af0c 68bf 7f25 cc3e 426c 1b3f 9d2a 4d3e
00000360: 3ed4 bfbe 3dc6 2f3e d7f0 18bc 6fc5 2cbe
00000370: bb04 d23e 3218 27bf 9c08 833e 9c0a 45bf
00000380: 136e 223f 0a42 71bf b43d 69be 4089 8a3e
00000390: 30b6 08bf 4bca 96be cf9e 93be 4c44 7cbd
000003a0: 7203 863e a28e 7b3f 80e1 7e3d 3146 abbe
000003b0: fdad 71bf b9a8 fb3e 645d 7e3e d631 263f
000003c0: 6a27 4ebe e1d0 aa3b da8a 1a3f bbc7 e7bd
000003d0: 69a5 a9be 8ce9 2d3f aeed 7fbe 4916 11bf
000003e0: 83e5 583e 4cec 53be 2f39 44bf 91e1 973e
000003f0: a7c8 af3e f2ef 75be 808c c73e f4e6 8abf

network_body._body_endoder.seq_layers.0.bias f4 [256]
0.0 0.0 0.0 0.0 0.0 0.0 0.0 0.0
0.0 0.0 0.0 0.0 0.0 0.0 0.0 0.0
0.0 0.0 0.0 0.0 0.0 0.0 0.0 0.0
0.0 0.0 0.0 0.0 0.0 0.0 0.0 0.0
0.0 0.0 0.0 0.0 0.0 0.0 0.0 0.0
0.0 0.0 0.0 0.0 0.0 0.0 0.0 0.0
0.0 0.0 0.0 0.0 0.0 0.0 0.0 0.0
0.0 0.0 0.0 0.0 0.0 0.0 0.0 0.0
0.0 0.0 0.0 0.0 0.0 0.0 0.0 0.0
0.0 0.0 0.0 0.0 0.0 0.0 0.0 0.0
0.0 0.0 0.0 0.0 0.0 0.0 0.0 0.0
0.0 0.0 0.0 0.0 0.0 0.0 0.0 0.0
0.0 0.0 0.0 0.0 0.0 0.0 0.0 0.0
0.0 0.0 0.0 0.0 0.0 0.0 0.0 0.0
0.0 0.0 0.0 0.0 0.0 0.0 0.0 0.0
0.0 0.0 0.0 0.0 0.0 0.0 0.0 0.0
0.0 0.0 0.0 0.0 0.0 0.0 0.0 0.0
0.0 0.0 0.0 0.0 0.0 0.0 0.0 0.0
0.0 0.0 0.0 0.0 0.0 0.0 0.0 0.0
0.0 0.0 0.0 0.0 0.0 0.0 0.0 0.0
0.0 0.0 0.0 0.0 0.0 0.0 0.0 0.0
0.0 0.0 0.0 0.0 0.0 0.0 0.0 0.0
0.0 0.0 0.0 0.0 0.0 0.0 0.0 0.0
0.0 0.0 0.0 0.0 0.0 0.0 0.0 0.0
0.0 0.0 0.0 0.0 0.0 0.0 0.0 0.0
0.0 0.0 0.0 0.0 0.0 0.0 0.0 0.0
0.0 0.0 0.0 0.0 0.0 0.0 0.0 0.0
0.0 0.0 0.0 0.0 0.0 0.0 0.0 0.0
0.0 0.0 0.0 0.0 0.0 0.0 0.0 0.0
0.0 0.0 0.0 0.0 0.0 0.0 0.0 0.0
0.0 0.0 0.0 0.0 0.0 0.0 0.0 0.0
0.0 0.0 0.0 0.0 0.0 0.0 0.0 0.0
00000000: 0000 0000 0000 0000 0000 0000 0000 0000
00000010: 0000 0000 0000 0000 0000 0000 0000 0000
00000020: 0000 0000 0000 0000 0000 0000 0000 0000
00000030: 0000 0000 0000 0000 0000 0000 0000 0000
00000040: 0000 0000 0000 0000 0000 0000 0000 0000
00000050: 0000 0000 0000 0000 0000 0000 0000 0000
00000060: 0000 0000 0000 0000 0000 0000 0000 0000
00000070: 0000 0000 0000 0000 0000 0000 0000 0000
00000080: 0000 0000 0000 0000 0000 0000 0000 0000
00000090: 0000 0000 0000 0000 0000 0000 0000 0000
000000a0: 0000 0000 0000 0000 0000 0000 0000 0000
000000b0: 0000 0000 0000 0000 0000 0000 0000 0000
000000c0: 0000 0000 0000 0000 0000 0000 0000 0000
000000d0: 0000 0000 0000 0000 0000 0000 0000 0000
000000e0: 0000 0000 0000 0000 0000 0000 0000 0000
000000f0: 0000 0000 0000 0000 0000 0000 0000 0000
00000100: 0000 0000 0000 0000 0000 0000 0000 0000
00000110: 0000 0000 0000 0000 0000 0000 0000 0000
00000120: 0000 0000 0000 0000 0000 0000 0000 0000
00000130: 0000 0000 0000 0000 0000 0000 0000 0000
00000140: 0000 0000 0000 0000 0000 0000 0000 0000
00000150: 0000 0000 0000 0000 0000 0000 0000 0000
00000160: 0000 0000 0000 0000 0000 0000 0000 0000
00000170: 0000 0000 0000 0000 0000 0000 0000 0000
00000180: 0000 0000 0000 0000 0000 0000 0000 0000
00000190: 0000 0000 0000 0000 0000 0000 0000 0000
000001a0: 0000 0000 0000 0000 0000 0000 0000 0000
000001b0: 0000 0000 0000 0000 0000 0000 0000 0000
000001c0: 0000 0000 0000 0000 0000 0000 0000 0000
000001d0: 0000 0000 0000 0000 0000 0000 0000 0000
000001e0: 0000 0000 0000 0000 0000 0000 0000 0000
000001f0: 0000 0000 0000 0000 0000 0000 0000 0000
00000200: 0000 0000 0000 0000 0000 0000 0000 0000
00000210: 0000 0000 0000 0000 0000 0000 0000 0000
00000220: 0000 0000 0000 0000 0000 0000 0000 0000
00000230: 0000 0000 0000 0000 0000 0000 0000 0000
00000240: 0000 0000 0000 0000 0000 0000 0000 0000
00000250: 0000 0000 0000 0000 0000 0000 0000 0000
00000260: 0000 0000 0000 0000 0000 0000 0000 0000
00000270: 0000 0000 0000 0000 0000 0000 0000 0000
00000280: 0000 0000 0000 0000 0000 0000 0000 0000
00000290: 0000 0000 0000 0000 0000 0000 0000 0000
000002a0: 0000 0000 0000 0000 0000 0000 0000 0000
000002b0: 0000 0000 0000 0000 0000 0000 0000 0000
000002c0: 0000 0000 0000 0000 0000 0000 0000 0000
000002d0: 0000 0000 0000 0000 0000 0000 0000 0000
000002e0: 0000 0000 0000 0000 0000 0000 0000 0000
000002f0: 0000 0000 0000 0000 0000 0000 0000 0000
00000300: 0000 0000 0000 0000 0000 0000 0000 0000
00000310: 0000 0000 0000 0000 0000 0000 0000 0000
00000320: 0000 0000 0000 0000 0000 0000 0000 0000
00000330: 0000 0000 0000 0000 0000 0000 0000 0000
00000340: 0000 0000 0000 0000 0000 0000 0000 0000
00000350: 0000 0000 0000 0000 0000 0000 0000 0000
00000360: 0000 0000 0000 0000 0000 0000 0000 0000
00000370: 0000 0000 0000 0000 0000 0000 0000 0000
00000380: 0000 0000 0000 0000 0000 0000 0000 0000
00000390: 0000 0000 0000 0000 0000 0000 0000 0000
000003a0: 0000 0000 0000 0000 0000 0000 0000 0000
000003b0: 0000 0000 0000 0000 0000 0000 0000 0000
000003c0: 0000 0000 0000 0000 0000 0000 0000 0000
000003d0: 0000 0000 0000 0000 0000 0000 0000 0000
000003e0: 0000 0000 0000 0000 0000 0000 0000 0000
000003f0: 0000 0000 0000 0000 0000 0000 0000 0000

network_body._body_endoder.seq_layers.2.weight f4 [256, 256]
0.025613664 -0.06615927 0.013152521 0.043747075 0.020143002 -0.06044897 -0.030209774 0.06527819
0.11714321 -0.12626348 0.05309474 0.0652392 -0.002043815 -0.07102391 0.020703668 0.11215674
0.0150897205 0.04242812 -0.063803844 0.028285665 -0.05677099 0.016942266 0.006326282 -0.027633822
0.05331653 0.066559024 -0.106460646 0.17566402 0.028987857 -0.07712028 -0.15352586 0.079888545
-0.10195547 -0.057004016 0.076908745 -0.050874334 -0.034031708 -0.008946552 -0.027132446 0.06165237
-0.014172021 0.010981742 0.034727097 0.048893265 -0.01741071 -0.023677522 -0.24688429 0.030207494
0.026814686 -0.0927877 0.0077445763 0.014908039 0.023903826 -0.0042751697 0.02856037 0.023911394
0.03980012 0.0072298176 0.050098058 -0.04690092 -0.029621258 -0.08878615 -0.0052571553 -0.10347899
-0.04158515 -0.039637882 -0.0046102414 -0.039185487 0.013168965 0.042586897 -0.05959756 -0.030634543
0.021568965 0.05685993 0.011292778 0.058204874 0.054546714 -0.07819143 -0.011909647 -0.04160557
-0.0049479124 -0.060421668 0.0035966176 -0.018799605 0.061227623 -0.014396976 -0.008539152 -0.06625332
-0.013422852 -0.096692905 0.049507197 -0.08558183 -0.034471784 0.052121624 0.005202857 0.025484294
0.012671719 0.08713624 -0.050631 0.049186703 -0.06244945 -0.021711035 0.02892022 -0.17169267
0.006199101 0.032954372 -0.054186773 0.023828529 0.012758088 0.0046757176 -0.05989167 -0.05046052
0.0030908908 -0.059456736 -0.002650542 -0.0654555 -0.104300946 0.017270586 -0.016929634 -0.06577534
0.112522185 0.03356135 0.017961953 0.0017458056 -0.06634659 -0.04053377 -0.084770575 -0.07263229
0.021858733 0.0049954415 -0.019949239 0.1232306 0.043917123 -0.10752699 0.03399874 0.060994513
0.02076676 0.14647995 0.0141563285 -0.045967624 -0.04694094 -0.019962225 0.12053282 -0.06123397
-0.012972301 0.090308286 0.04475009 0.006031575 0.03961695 0.0049736677 -0.019503158 0.039496753
-0.0008554489 -0.033550095 -0.06365177 -0.035160437 -0.08034898 0.049388804 0.020764384 -0.0005033373
0.0309416 0.10115497 -0.045084972 -0.08893026 0.038330764 -0.0346148 0.07229433 -0.09798065
0.04159582 -0.030450922 -0.06136762 0.085451454 0.12028652 -0.09362081 0.027532931 0.07143721
-0.03840091 0.0676566 -0.009164418 0.029826054 0.11882921 0.05111907 -0.018910732 -0.034200087
-0.059794843 0.13161615 -0.0012553616 -0.0605302 0.024825051 -0.011457743 -0.010782447 0.06213732
-0.010417146 0.028488621 0.11868161 0.0758593 -0.038132172 0.050722945 0.056759167 0.09583455
-0.0057516843 -0.10875272 -0.009926997 0.0030406646 -0.1866837 0.0625005 -0.056241978 0.03530567
0.052904144 -0.05579719 -0.039165564 -0.0067849807 0.09654723 -0.116853096 0.029562036 0.016927993
-0.042256165 0.020959018 0.033995554 0.048776045 -0.022741111 0.07285822 0.055442303 0.046158653
-0.06535384 0.041428257 0.03573722 -0.07303935 -0.0150842685 -0.051630136 -0.0626354 -0.0013434405
0.07823214 -0.008914178 0.0039163954 0.06210783 0.016733188 -0.054061316 -0.013462356 -0.012335939
0.10127017 -0.025170233 -0.075163975 -0.032975804 0.07407166 0.050569944 -0.113835424 -0.053037755
-0.026993893 0.024622004 0.025732575 0.056833286 -0.022461576 -0.19586842 0.04975832 0.035357993
00000000: bfd3 d13c 837e 87bd ac7d 573c 2230 333d
00000010: f002 a53c 5799 77bd 7d7a f7bc 92b0 853d
00000020: c7e8 ef3d 374b 01be df79 593d 219c 853d
00000030: 87f1 05bb fc74 91bd bd9a a93c 6fb2 e53d
00000040: e03a 773c 1cc9 2d3d 97ab 82bd 57b7 e73c
00000050: b388 68bd 82ca 8a3c b34c cf3b 5360 e2bc
00000060: 6f62 5a3d 1950 883d 0a08 dabd 45e1 333e
00000070: f177 ed3c 3df1 9dbd e235 1dbe 9b9c a33d
00000080: 08ce d0bd 0b7d 69bd 5582 9d3d 9b61 50bd
00000090: d564 0bbd 8f94 12bc dd44 debc 3287 7c3d
000000a0: c431 68bc c4ec 333c 003e 0e3d 4e44 483d
000000b0: e8a0 8ebc 5df7 c1bc 3ccf 7cbe b575 f73c
000000c0: 79aa db3c 7a07 bebd 37c6 fd3b d940 743c
000000d0: f5d1 c33c b916 8cbb 70f7 e93c d4e1 c33c
000000e0: 7305 233d 1be8 ec3b 9f33 4d3d 2e1b 40bd
000000f0: 48a8 f2bc 83d5 b5bd 3744 acbb cbec d3bd
00000100: 3155 2abd 555b 22bd 8211 97bb f680 20bd
00000110: a4c2 573c 996f 2e3d 921c 74bd 4bf5 fabc
00000120: 66b1 b03c f5e5 683d 5805 393c 3c68 6e3d
00000130: 606c 5f3d d422 a0bd ae20 43bc 9a6a 2abd
00000140: 1922 a2bb b67c 77bd 3bb5 6b3b a101 9abc
00000150: d1c9 7a3d 4be1 6bbc cde7 0bbc d2af 87bd
00000160: 86eb 5bbc ee06 c6bd 0fc8 4a3d 8745 afbd
00000170: 4932 0dbd 7c7d 553d ba7c aa3b 70c4 d03c
00000180: 0b9d 4f3c 7c74 b23d 7462 4fbd ff77 493d
00000190: ffca 7fbd 57db b1bc 19ea ec3c 34d0 2fbe
000001a0: d421 cb3b 2afb 063d f3f2 5dbd 0c34 c33c
000001b0: 4d07 513c c336 993b f850 75bd b1af 4ebd
000001c0: 8b90 4a3b e888 73bd b7b4 2dbb 880d 86bd
000001d0: bc9b d5bd 0b7b 8d3c 04b0 8abc 39b5 86bd
000001e0: 0872 e63d a077 093d f224 933c 84d3 e43a
000001f0: b9e0 87bd bd06 26bd 329c adbd 3dc0 94bd
00000200: 1611 b33c cdb0 a33b 966c a3bc 5360 fc3d
00000210: 71e2 333d 1c37 dcbd 4342 0b3d 62d5 793d
00000220: 0d1f aa3c d7fe 153e f2ef 673c 8c48 3cbd
00000230: 2545 40bd d287 a3bc e9d9 f63d 79d0 7abd
00000240: c689 54bc 8df3 b83d df4b 373d 85a4 c53b
00000250: 6245 223d 26fa a23b 16c5 9fbc 59c7 213d
00000260: 3440 60ba d36b 09bd dc5b 82bd 6404 10bd
00000270: 028e a4bd ea4b 4a3d 121a aa3c 65f2 03ba
00000280: 3d79 fd3c 562a cf3d 05ab 38bd 1121 b6bd
00000290: b800 1d3d 40c8 0dbd 0d0f 943d 14aa c8bd
000002a0: 6160 2a3d 3674 f9bc 9d5c 7bbd 2c01 af3d
000002b0: c758 f63d 44bc bfbd be8c e13c ac4d 923d
000002c0: 464a 1dbd 8b8f 8a3d 5b26 16bc c555 f43c
000002d0: bb5c f33d 3b62 513d aeea 9abc 6415 0cbd
000002e0: 70eb 74bd 62c6 063e f28a a4ba 84ee 77bd
000002f0: e85d cb3c 42b9 3bbc dca8 30bc b483 7e3d
00000300: adac 2abc f860 e93c 580f f33d 1f5c 9b3d
00000310: 7b30 1cbd ddc2 4f3d 4d7c 683d e844 c43d
00000320: a078 bcbb bfb9 debd d8a4 22bc e345 473b
00000330: 032a 3fbe 4300 803d fd5d 66bd ae9c 103d
00000340: 04b2 583d 988b 64bd 126c 20bd 8b54 debb
00000350: 8eba c53d ad50 efbd 152c f23c 93ac 8a3c
00000360: cd14 2dbd 3fb2 ab3c ec3e 0b3d 64c9 473d
00000370: 914b babc b136 953d 7817 633d db10 3d3d
00000380: 3cd8 85bd adb0 293d 3161 123d a895 95bd
00000390: 0224 77bc 1f7a 53bd fd46 80bd 6216 b0ba
000003a0: 2c38 a03d c60c 12bc 1b55 803b c864 7e3d
000003b0: 0a14 893c 666f 5dbd 3791 5cbc ae1c 4abc
000003c0: bc66 cf3d ce31 cebc 92ef 99bd a311 07bd
000003d0: e2b2 973d 6e22 4f3d 8c22 e9bd 1e3e 59bd
000003e0: 4c22 ddbc 16b4 c93c 1fcd d23c 05ca 683d
000003f0: 5701 b8bc bb91 48be 61cf 4b3d 8bd3 103d

network_body._body_endoder.seq_layers.2.bias f4 [256]
0.0 0.0 0.0 0.0 0.0 0.0 0.0 0.0
0.0 0.0 0.0 0.0 0.0 0.0 0.0 0.0
0.0 0.0 0.0 0.0 0.0 0.0 0.0 0.0
0.0 0.0 0.0 0.0 0.0 0.0 0.0 0.0
0.0 0.0 0.0 0.0 0.0 0.0 0.0 0.0
0.0 0.0 0.0 0.0 0.0 0.0 0.0 0.0
0.0 0.0 0.0 0.0 0.0 0.0 0.0 0.0
0.0 0.0 0.0 0.0 0.0 0.0 0.0 0.0
0.0 0.0 0.0 0.0 0.0 0.0 0.0 0.0
0.0 0.0 0.0 0.0 0.0 0.0 0.0 0.0
0.0 0.0 0.0 0.0 0.0 0.0 0.0 0.0
0.0 0.0 0.0 0.0 0.0 0.0 0.0 0.0
0.0 0.0 0.0 0.0 0.0 0.0 0.0 0.0
0.0 0.0 0.0 0.0 0.0 0.0 0.0 0.0
0.0 0.0 0.0 0.0 0.0 0.0 0.0 0.0
0.0 0.0 0.0 0.0 0.0 0.0 0.0 0.0
0.0 0.0 0.0 0.0 0.0 0.0 0.0 0.0
0.0 0.0 0.0 0.0 0.0 0.0 0.0 0.0
0.0 0.0 0.0 0.0 0.0 0.0 0.0 0.0
0.0 0.0 0.0 0.0 0.0 0.0 0.0 0.0
0.0 0.0 0.0 0.0 0.0 0.0 0.0 0.0
0.0 0.0 0.0 0.0 0.0 0.0 0.0 0.0
0.0 0.0 0.0 0.0 0.0 0.0 0.0 0.0
0.0 0.0 0.0 0.0 0.0 0.0 0.0 0.0
0.0 0.0 0.0 0.0 0.0 0.0 0.0 0.0
0.0 0.0 0.0 0.0 0.0 0.0 0.0 0.0
0.0 0.0 0.0 0.0 0.0 0.0 0.0 0.0
0.0 0.0 0.0 0.0 0.0 0.0 0.0 0.0
0.0 0.0 0.0 0.0 0.0 0.0 0.0 0.0
0.0 0.0 0.0 0.0 0.0 0.0 0.0 0.0
0.0 0.0 0.0 0.0 0.0 0.0 0.0 0.0
0.0 0.0 0.0 0.0 0.0 0.0 0.0 0.0
00000000: 0000 0000 0000 0000 0000 0000 0000 0000
00000010: 0000 0000 0000 0000 0000 0000 0000 0000
00000020: 0000 0000 0000 0000 0000 0000 0000 0000
00000030: 0000 0000 0000 0000 0000 0000 0000 0000
00000040: 0000 0000 0000 0000 0000 0000 0000 0000
00000050: 0000 0000 0000 0000 0000 0000 0000 0000
00000060: 0000 0000 0000 0000 0000 0000 0000 0000
00000070: 0000 0000 0000 0000 0000 0000 0000 0000
00000080: 0000 0000 0000 0000 0000 0000 0000 0000
00000090: 0000 0000 0000 0000 0000 0000 0000 0000
000000a0: 0000 0000 0000 0000 0000 0000 0000 0000
000000b0: 0000 0000 0000 0000 0000 0000 0000 0000
000000c0: 0000 0000 0000 0000 0000 0000 0000 0000
000000d0: 0000 0000 0000 0000 0000 0000 0000 0000
000000e0: 0000 0000 0000 0000 0000 0000 0000 0000
000000f0: 0000 0000 0000 0000 0000 0000 0000 0000
00000100: 0000 0000 0000 0000 0000 0000 0000 0000
00000110: 0000 0000 0000 0000 0000 0000 0000 0000
00000120: 0000 0000 0000 0000 0000 0000 0000 0000
00000130: 0000 0000 0000 0000 0000 0000 0000 0000
00000140: 0000 0000 0000 0000 0000 0000 0000 0000
00000150: 0000 0000 0000 0000 0000 0000 0000 0000
00000160: 0000 0000 0000 0000 0000 0000 0000 0000
00000170: 0000 0000 0000 0000 0000 0000 0000 0000
00000180: 0000 0000 0000 0000 0000 0000 0000 0000
00000190: 0000 0000 0000 0000 0000 0000 0000 0000
000001a0: 0000 0000 0000 0000 0000 0000 0000 0000
000001b0: 0000 0000 0000 0000 0000 0000 0000 0000
000001c0: 0000 0000 0000 0000 0000 0000 0000 0000
000001d0: 0000 0000 0000 0000 0000 0000 0000 0000
000001e0: 0000 0000 0000 0000 0000 0000 0000 0000
000001f0: 0000 0000 0000 0000 0000 0000 0000 0000
00000200: 0000 0000 0000 0000 0000 0000 0000 0000
00000210: 0000 0000 0000 0000 0000 0000 0000 0000
00000220: 0000 0000 0000 0000 0000 0000 0000 0000
00000230: 0000 0000 0000 0000 0000 0000 0000 0000
00000240: 0000 0000 0000 0000 0000 0000 0000 0000
00000250: 0000 0000 0000 0000 0000 0000 0000 0000
00000260: 0000 0000 0000 0000 0000 0000 0000 0000
00000270: 0000 0000 0000 0000 0000 0000 0000 0000
00000280: 0000 0000 0000 0000 0000 0000 0000 0000
00000290: 0000 0000 0000 0000 0000 0000 0000 0000
000002a0: 0000 0000 0000 0000 0000 0000 0000 0000
000002b0: 0000 0000 0000 0000 0000 0000 0000 0000
000002c0: 0000 0000 0000 0000 0000 0000 0000 0000
000002d0: 0000 0000 0000 0000 0000 0000 0000 0000
000002e0: 0000 0000 0000 0000 0000 0000 0000 0000
000002f0: 0000 0000 0000 0000 0000 0000 0000 0000
00000300: 0000 0000 0000 0000 0000 0000 0000 0000
00000310: 0000 0000 0000 0000 0000 0000 0000 0000
00000320: 0000 0000 0000 0000 0000 0000 0000 0000
00000330: 0000 0000 0000 0000 0000 0000 0000 0000
00000340: 0000 0000 0000 0000 0000 0000 0000 0000
00000350: 0000 0000 0000 0000 0000 0000 0000 0000
00000360: 0000 0000 0000 0000 0000 0000 0000 0000
00000370: 0000 0000 0000 0000 0000 0000 0000 0000
00000380: 0000 0000 0000 0000 0000 0000 0000 0000
00000390: 0000 0000 0000 0000 0000 0000 0000 0000
000003a0: 0000 0000 0000 0000 0000 0000 0000 0000
000003b0: 0000 0000 0000 0000 0000 0000 0000 0000
000003c0: 0000 0000 0000 0000 0000 0000 0000 0000
000003d0: 0000 0000 0000 0000 0000 0000 0000 0000
000003e0: 0000 0000 0000 0000 0000 0000 0000 0000
000003f0: 0000 0000 0000 0000 0000 0000 0000 0000

network_body._body_endoder.seq_layers.4.weight f4 [256, 256]
-0.029960496 -0.02420701 0.04421448 -0.10101633 0.037779402 -0.028179035 0.06927139 -0.05776082
0.040380176 -0.013407175 -0.01910144 0.1466973 -0.12995349 0.14794993 -0.054747835 -0.03232745
-0.071245216 0.032789443 -0.026880927 -0.036176316 0.06679641 0.049319446 -0.032836556 -0.026472181
-0.036738306 0.043212686 -0.03249768 0.057907134 0.05983937 -0.004127445 0.013473186 -0.07968485
-0.024325578 0.049522992 -0.0721424 -0.08595074 -0.061076008 -0.0056520808 -0.02360382 -0.031889487
0.023839146 0.020442031 -0.07512754 -0.09812901 0.0038164249 -0.10495488 0.11210702 0.054100413
0.040509902 -0.016573137 -0.013463199 -0.01691357 0.0399026 0.017067652 -0.034248356 0.07520681
0.021659289 -0.062131885 0.03051362 -0.046599332 -0.12204993 0.008562302 0.04882236 -0.10205295
-0.006835053 0.08341994 0.09379019 0.1525883 0.016145833 -0.016394496 -0.09660239 0.0831602
0.10391955 0.017457685 0.00015363426 -0.013768889 -0.076175235 -0.06355788 0.051008284 -0.13172607
-0.007583508 -0.032507937 0.018604217 0.016089052 -0.049995083 -0.124856986 0.01868571 -0.16076627
0.06388519 0.034250185 -0.023510681 0.016600762 -0.0003128484 0.033678167 0.009660134 -0.0658161
-0.14341515 -0.11230253 -0.011362077 -0.0073751146 0.090907015 -0.023910454 0.03788103 0.06671349
-0.036180213 -0.04814251 -0.017282212 -0.039371736 -0.034726597 0.1048702 -0.01365655 0.09054309
-0.11837394 0.14135508 -0.056288283 0.049678445 0.06426644 0.087055594 0.034888662 -0.13077067
0.12535042 -0.019658748 0.006746819 0.029795727 -0.10212869 -0.010246682 0.004375374 -0.10131501
-0.01861409 0.034293044 -0.13184571 -0.10163356 0.00016543485 0.0034297763 0.09893695 0.01866048
0.048008803 -0.0021022393 0.029107476 -0.046369895 0.007202422 0.01590145 0.13163821 0.059878234
0.09188096 -0.03901522 0.01277911 -0.004486978 -0.012180209 -0.035047956 -0.042551186 -0.07066805
-0.02745098 -0.146232 -0.055635456 0.056708276 -0.014027604 -0.015283075 -0.0496702 0.003887072
0.07565993 -0.04634489 -0.06977854 -0.099185914 -0.025443627 -0.08533321 -0.007780919 -0.02874915
-0.17308311 0.03777127 -0.033900216 -0.12106882 0.0038449687 0.039644517 -0.008230477 0.12100387
-0.10208723 0.001339004 0.0074600563 0.054613993 0.030770985 0.1239368 -0.04811838 0.07450589
-0.052974053 0.023217829 0.014706608 0.017624632 -0.038003657 0.12806289 0.021762293 -0.19581549
0.08246348 0.0031765762 -0.040185433 -0.008379105 -0.057336632 0.016498992 -0.018693224 0.15205228
-0.065993406 -0.05031047 -0.027563782 -0.053535894 -0.017723797 -0.032294616 0.008994882 -0.123042434
0.039562203 -0.006568042 0.038654294 -0.046997428 0.05703293 0.027798032 0.14193937 0.036596857
-0.040042255 -0.03032259 0.0073807635 -0.017570166 0.053819884 -0.1479149 0.00113812 0.03952797
0.0014408138 0.054698225 0.10180582 -0.030511575 0.028247634 -0.005315829 0.008022505 -0.13019015
-0.04323248 -0.010069247 -0.15030752 0.1341076 0.07947853 0.007404198 -0.023811135 -0.042631708
0.063114785 -0.07642946 0.08475018 0.0005196704 -0.05558321 0.012593066 0.039055325 0.080303974
0.06581788 -0.16420546 -0.03213672 -0.09295297 0.047305014 0.039873477 0.063645385 0.009378323
00000000: b76f f5bc c84d c6bc 3e1a 353d a6e1 cebd
00000010: 93be 1a3d b8d7 e6bc 29de 8d3d 9c96 6cbd
00000020: af65 253d c5a9 5bbc a07a 9cbc d137 163e
00000030: 8712 05be 3080 173e 443f 60bd ca69 04bd
00000040: 03e9 91bd 394e 063d 6435 dcbc 9e2d 14bd
00000050: 8ecc 883d 3003 4a3d a07f 06bd 30dc d8bc
00000060: e87a 16bd c9ff 303d 4a1c 05bd 0830 6d3d
00000070: 211a 753d 853f 87bb a3be 5c3c d031 a3bd
00000080: 6f46 c7bc 9fd8 4a3d 65bf 93bd f106 b0bd
00000090: d62a 7abd 1735 b9bb cc5c c1bc 8d9e 02bd
000000a0: 504a c33c 0c76 a73c 78dc 99bd ddf7 c8bd
000000b0: fc1c 7a3b 96f2 d6bd 5e98 e53d 6598 5d3d
000000c0: b6ed 253d 63c4 87bc c094 5cbc 548e 8abc
000000d0: e970 233d 76d1 8b3c 0148 0cbd 0706 9a3d
000000e0: d26e b13c 017e 7ebd b3f7 f93c f1de 3ebd
000000f0: 50f5 f9bd e648 0c3c f4f9 473d 2301 d1bd
00000100: 95f8 dfbb 13d8 aa3d 1215 c03d 1b40 1c3e
00000110: 4444 843c c04d 86bc 79d7 c5bd e54f aa3d
00000120: c6d3 d43d 6b03 8f3c e218 2139 e896 61bc
00000130: c301 9cbd a22a 82bd 10ee 503d 33e3 06be
00000140: 137f f8bb 0b27 05bd df67 983c 30cd 833c
00000150: a5c7 4cbd 05b5 ffbd c612 993c ea9f 24be
00000160: 3dd6 823d ec49 0c3d 7999 c0bc 52fe 873c
00000170: cd05 a4b9 1ef2 093d 8a45 1e3c 97ca 86bd
00000180: 6cdb 12be defe e5bd 0128 3abc f2aa f1bb
00000190: 752d ba3d dbdf c3bc 2429 1b3d 15a1 883d
000001a0: b431 14bd 1531 45bd 6d93 8dbc 4244 21bd
000001b0: 7a3d 0ebd 30c6 d63d b9bf 5fbc a86e b93d
000001c0: 096e f2bd 63bf 103e 8b8e 66bd a07b 4b3d
000001d0: 209e 833d 344a b23d 6ae7 0e3d bfe8 05be
000001e0: dc5b 003e 620b a1bc 6b14 dd3b 2b16 f43c
000001f0: d928 d1bd b3e1 27bc 4c5f 8f3b 3e7e cfbd
00000200: 937c 98bc dd76 0c3d 9002 07be 4225 d0bd
00000210: 9478 2d39 19c6 603b 759f ca3d dddd 983c
00000220: e1a4 443d b9c5 09bb cd72 ee3c 5cee 3dbd
00000230: 4b02 ec3b c243 823c 2bcc 063e e142 753d
00000240: 162c bc3d 6cce 1fbd 795f 513c 8007 93bb
00000250: 808f 47bc 728e 0fbd 274a 2ebd 69ba 90bd
00000260: e1e0 e0bc d7bd 15be 01e2 63bd f046 683d
00000270: 09d4 65bc dd65 7abc fb72 4bbd 3fbe 7e3b
00000280: 98f3 9a3d 24d4 3dbd 0de8 8ebd fc21 cbbd
00000290: 276f d0bc 2ec3 aebd 14f7 febb 5683 ebbc
000002a0: b33c 31be 0cb6 1a3d f4da 0abd eef2 f7bd
000002b0: dffb 7b3b 4a62 223d 1fd9 06bc e1d0 f73d
000002c0: 1c13 d1bd 8581 af3a 7d73 f43b ecb2 5f3d
000002d0: 6f13 fc3c 94d2 fd3d c717 45bd 8b96 983d
000002e0: 52fb 58bd 5133 be3c fcf3 703c 8861 903c
000002f0: b9a9 1bbd eb22 033e d646 b23c db83 48be
00000300: 9de2 a83d 1b2e 503b 7b99 24bd 8348 09bc
00000310: d1d9 6abd e528 873c 8822 99bc 98b3 1b3e
00000320: 8d27 87bd 5a12 4ebd 71cd e1bc 7448 5bbd
00000330: 7f31 91bc 5c47 04bd 455f 133c acfd fbbd
00000340: fa0b 223d bb38 d7bb f753 1e3d 6080 40bd
00000350: 5d9b 693d b3b8 e33c 8e58 113e 96e6 153d
00000360: 5903 24bd 1567 f8bc 55da f13b 4fef 8fbc
00000370: 3d72 5c3d 0177 17be f82c 953a 15e8 213d
00000380: b0d9 bc3a 3f0b 603d 927f d03d 69f3 f9bc
00000390: 9567 e73c 6830 aebb d370 033c 9150 05be
000003a0: 8a14 31bd 7cf9 24bc 37ea 19be 8153 093e
000003b0: a4c5 a23d ea9e f23b 920f c3bc 969e 2ebd
000003c0: 5342 813d 0c87 9cbd 8191 ad3d 7d3a 083a
000003d0: 38ab 63bd 2653 4e3c 7af8 1f3d 6976 a43d
000003e0: 86cb 863d 7a25 28be cba1 03bd 205e bebd
000003f0: e7c2 413d 5f52 233d 8358 823d 8aa7 193c

network_body._body_endoder.seq_layers.4.bias f4 [256]
0.0 0.0 0.0 0.0 0.0 0.0 0.0 0.0
0.0 0.0 0.0 0.0 0.0 0.0 0.0 0.0
0.0 0.0 0.0 0.0 0.0 0.0 0.0 0.0
0.0 0.0 0.0 0.0 0.0 0.0 0.0 0.0
0.0 0.0 0.0 0.0 0.0 0.0 0.0 0.0
0.0 0.0 0.0 0.0 0.0 0.0 0.0 0.0
0.0 0.0 0.0 0.0 0.0 0.0 0.0 0.0
0.0 0.0 0.0 0.0 0.0 0.0 0.0 0.0
0.0 0.0 0.0 0.0 0.0 0.0 0.0 0.0
0.0 0.0 0.0 0.0 0.0 0.0 0.0 0.0
0.0 0.0 0.0 0.0 0.0 0.0 0.0 0.0
0.0 0.0 0.0 0.0 0.0 0.0 0.0 0.0
0.0 0.0 0.0 0.0 0.0 0.0 0.0 0.0
0.0 0.0 0.0 0.0 0.0 0.0 0.0 0.0
0.0 0.0 0.0 0.0 0.0 0.0 0.0 0.0
0.0 0.0 0.0 0.0 0.0 0.0 0.0 0.0
0.0 0.0 0.0 0.0 0.0 0.0 0.0 0.0
0.0 0.0 0.0 0.0 0.0 0.0 0.0 0.0
0.0 0.0 0.0 0.0 0.0 0.0 0.0 0.0
0.0 0.0 0.0 0.0 0.0 0.0 0.0 0.0
0.0 0.0 0.0 0.0 0.0 0.0 0.0 0.0
0.0 0.0 0.0 0.0 0.0 0.0 0.0 0.0
0.0 0.0 0.0 0.0 0.0 0.0 0.0 0.0
0.0 0.0 0.0 0.0 0.0 0.0 0.0 0.0
0.0 0.0 0.0 0.0 0.0 0.0 0.0 0.0
0.0 0.0 0.0 0.0 0.0 0.0 0.0 0.0
0.0 0.0 0.0 0.0 0.0 0.0 0.0 0.0
0.0 0.0 0.0 0.0 0.0 0.0 0.0 0.0
0.0 0.0 0.0 0.0 0.0 0.0 0.0 0.0
0.0 0.0 0.0 0.0 0.0 0.0 0.0 0.0
0.0 0.0 0.0 0.0 0.0 0.0 0.0 0.0
0.0 0.0 0.0 0.0 0.0 0.0 0.0 0.0
00000000: 0000 0000 0000 0000 0000 0000 0000 0000
00000010: 0000 0000 0000 0000 0000 0000 0000 0000
00000020: 0000 0000 0000 0000 0000 0000 0000 0000
00000030: 0000 0000 0000 0000 0000 0000 0000 0000
00000040: 0000 0000 0000 0000 0000 0000 0000 0000
00000050: 0000 0000 0000 0000 0000 0000 0000 0000
00000060: 0000 0000 0000 0000 0000 0000 0000 0000
00000070: 0000 0000 0000 0000 0000 0000 0000 0000
00000080: 0000 0000 0000 0000 0000 0000 0000 0000
00000090: 0000 0000 0000 0000 0000 0000 0000 0000
000000a0: 0000 0000 0000 0000 0000 0000 0000 0000
000000b0: 0000 0000 0000 0000 0000 0000 0000 0000
000000c0: 0000 0000 0000 0000 0000 0000 0000 0000
000000d0: 0000 0000 0000 0000 0000 0000 0000 0000
000000e0: 0000 0000 0000 0000 0000 0000 0000 0000
000000f0: 0000 0000 0000 0000 0000 0000 0000 0000
00000100: 0000 0000 0000 0000 0000 0000 0000 0000
00000110: 0000 0000 0000 0000 0000 0000 0000 0000
00000120: 0000 0000 0000 0000 0000 0000 0000 0000
00000130: 0000 0000 0000 0000 0000 0000 0000 0000
00000140: 0000 0000 0000 0000 0000 0000 0000 0000
00000150: 0000 0000 0000 0000 0000 0000 0000 0000
00000160: 0000 0000 0000 0000 0000 0000 0000 0000
00000170: 0000 0000 0000 0000 0000 0000 0000 0000
00000180: 0000 0000 0000 0000 0000 0000 0000 0000
00000190: 0000 0000 0000 0000 0000 0000 0000 0000
000001a0: 0000 0000 0000 0000 0000 0000 0000 0000
000001b0: 0000 0000 0000 0000 0000 0000 0000 0000
000001c0: 0000 0000 0000 0000 0000 0000 0000 0000
000001d0: 0000 0000 0000 0000 0000 0000 0000 0000
000001e0: 0000 0000 0000 0000 0000 0000 0000 0000
000001f0: 0000 0000 0000 0000 0000 0000 0000 0000
00000200: 0000 0000 0000 0000 0000 0000 0000 0000
00000210: 0000 0000 0000 0000 0000 0000 0000 0000
00000220: 0000 0000 0000 0000 0000 0000 0000 0000
00000230: 0000 0000 0000 0000 0000 0000 0000 0000
00000240: 0000 0000 0000 0000 0000 0000 0000 0000
00000250: 0000 0000 0000 0000 0000 0000 0000 0000
00000260: 0000 0000 0000 0000 0000 0000 0000 0000
00000270: 0000 0000 0000 0000 0000 0000 0000 0000
00000280: 0000 0000 0000 0000 0000 0000 0000 0000
00000290: 0000 0000 0000 0000 0000 0000 0000 0000
000002a0: 0000 0000 0000 0000 0000 0000 0000 0000
000002b0: 0000 0000 0000 0000 0000 0000 0000 0000
000002c0: 0000 0000 0000 0000 0000 0000 0000 0000
000002d0: 0000 0000 0000 0000 0000 0000 0000 0000
000002e0: 0000 0000 0000 0000 0000 0000 0000 0000
000002f0: 0000 0000 0000 0000 0000 0000 0000 0000
00000300: 0000 0000 0000 0000 0000 0000 0000 0000
00000310: 0000 0000 0000 0000 0000 0000 0000 0000
00000320: 0000 0000 0000 0000 0000 0000 0000 0000
00000330: 0000 0000 0000 0000 0000 0000 0000 0000
00000340: 0000 0000 0000 0000 0000 0000 0000 0000
00000350: 0000 0000 0000 0000 0000 0000 0000 0000
00000360: 0000 0000 0000 0000 0000 0000 0000 0000
00000370: 0000 0000 0000 0000 0000 0000 0000 0000
00000380: 0000 0000 0000 0000 0000 0000 0000 0000
00000390: 0000 0000 0000 0000 0000 0000 0000 0000
000003a0: 0000 0000 0000 0000 0000 0000 0000 0000
000003b0: 0000 0000 0000 0000 0000 0000 0000 0000
000003c0: 0000 0000 0000 0000 0000 0000 0000 0000
000003d0: 0000 0000 0000 0000 0000 0000 0000 0000
000003e0: 0000 0000 0000 0000 0000 0000 0000 0000
000003f0: 0000 0000 0000 0000 0000 0000 0000 0000

network_body._body_endoder.seq_layers.6.weight f4 [256, 256]
-0.037009962 0.09964307 0.014004571 0.12285529 -0.018398141 0.0124533065 -0.10199969 -0.008858104
0.046677012 0.05148679 0.030176664 -0.017224362 -0.07680034 0.040752225 0.10434396 0.03687334
0.013884473 0.0061474997 0.045010816 -0.11532646 -0.025194198 0.025704693 -0.090009645 -0.020469896
0.060962413 -0.019574424 -0.002013801 0.06300699 3.09352e-06 -0.062384285 0.034867223 -0.117038205
-0.046177395 0.107712634 -0.032709807 0.048129294 -0.056040812 -0.03718923 0.10630988 0.04164503
-0.009733717 -0.0984621 0.057448857 0.052009355 0.07073475 -0.031852435 0.00509915 -0.101577826
-0.008607146 0.03299346 0.12614988 -0.010760657 0.03820423 -0.04072363 0.016834835 -0.020102054
-0.08106125 0.042108882 0.031484906 -0.031177498 0.043204784 -0.06702934 -0.11740771 -0.03939752
0.07439964 0.050561644 0.024922123 -0.028944967 0.064975545 -0.060722865 0.09318 -0.07475257
-0.001116047 -0.12760857 0.024208102 -0.09444815 0.08152947 0.005754696 -0.0016364502 0.0004661692
0.055256624 -0.040875357 0.05471596 -0.054415483 0.05787158 -0.12522554 -0.013579702 0.07938314
-0.048707422 -0.00264088 0.10340142 -0.01854191 0.03201348 0.034177035 0.09630163 -0.026535284
-0.023422355 0.02939214 -0.0045316415 0.06752581 -0.04131392 -0.047038298 -0.0006948828 0.047684357
0.017732486 0.005698499 -0.019469192 -0.07642948 -0.01516524 0.003820799 0.03020392 -0.10414902
0.04639892 0.08470159 0.049164 -0.03309548 -0.05972199 -0.03854696 0.016961517 0.14438514
-0.024229275 -0.01203312 -0.04905875 0.056943938 -0.13101552 0.0018828001 -0.03896541 0.05174865
0.0030311593 0.012063261 0.06956992 -0.04367305 0.083685115 0.041282825 0.1442134 -0.031330634
0.026906589 -0.0025734995 -0.11066712 0.0031650017 -0.03660939 0.03022213 0.06168049 0.15838438
-0.06530657 0.0040115276 0.0063199345 0.005005114 0.016136594 -0.06966452 -0.0013046341 -0.08230157
0.041343227 0.06027892 0.07875732 -0.12763225 -0.025993336 -0.04472167 0.063524276 -0.022762885
0.034139685 -0.10349347 0.0011191475 -0.029779274 0.15769823 0.18682086 0.08719083 0.11792214
0.089987144 0.06671463 0.098787405 -0.026826473 0.018887531 0.06627946 -0.10677791 -0.049828935
-0.014959721 -0.040879026 -0.026499556 -0.072711706 -0.049223945 -0.024997417 -0.054030877 0.05218778
-0.057984397 -0.17450759 0.13918787 -0.02817342 0.058951043 0.034119338 -0.007981165 0.004358679
0.05246743 0.04817156 0.02218503 0.043966476 0.15181604 0.0012013272 0.022806128 0.018639063
-0.033387072 0.12346854 -0.03552048 0.011911619 0.011625962 0.08640072 -0.058427583 -0.022720862
0.051420216 -0.03166896 -0.019492613 0.00017067988 0.019236207 -0.2160271 0.072548725 0.084445186
-0.11916298 -0.009535342 -0.023281269 0.009395185 0.046838086 0.026342208 0.019549334 0.0072996025
-0.13759969 -0.011725671 0.06935486 0.09835234 0.039534435 -0.1520441 -0.012367385 -0.035894405
0.027379656 0.008728482 0.07021957 0.05175958 -0.013918002 0.029047458 0.037848067 -0.044075586
-0.077212974 0.03329179 0.015187714 0.181481 -0.061206535 0.04956662 0.040372312 0.053592406
0.035867162 0.029523494 -0.010476458 -0.010152654 -0.021501 -0.082229115 0.046386484 0.016387532
00000000: c297 17bd aa11 cc3d 6e73 653c 8e9b fb3d
00000010: b3b7 96bc f408 4c3c 37e5 d0bd 9521 11bc
00000020: 6530 3f3d d0e3 523d 0d35 f73c 1b1a 8dbc
00000030: 7f49 9dbd ceeb 263d 49b2 d53d 8008 173d
00000040: b37b 633c f770 c93b 435d 383d 4730 ecbd
00000050: 1064 cebc a692 d23c fa56 b8bd 7cb0 a7bc
00000060: b9b3 793d 8b5a a0bc f9f9 03bb cf09 813d
00000070: 459a 4f36 aa86 7fbd efd0 0e3d bab1 efbd
00000080: 8224 3dbd 7198 dc3d b8fa 05bd 3923 453d
00000090: 0d8b 65bd bc53 18bd ffb8 d93d fb93 2a3d
000000a0: 2b7a 1fbc 7fa6 c9bd 7e4f 6b3d c307 553d
000000b0: 61dd 903d b377 02bd c516 a73b 0908 d0bd
000000c0: fd04 0dbc 2624 073d 6f2d 013e 774d 30bc
000000d0: 0a7c 1c3d d2cd 26bd 35e9 893c 10ad a4bc
000000e0: 7103 a6bd 5d7a 2c3d 51f6 003d f467 ffbc
000000f0: 80f7 303d ae46 89bd 7473 f0bd 4b5f 21bd
00000100: d75e 983d ba19 4f3d 7b29 cc3c ff1d edbc
00000110: e611 853d 8ab8 78bd 28d5 be3d e017 99bd
00000120: 5348 92ba d2ab 02be 1250 c63c 086e c1bd
00000130: ecf8 a63d e491 bc3b 287e d6ba 2c68 f439
00000140: c554 623d eb6c 27bd d81d 603d c5e2 5ebd
00000150: c00a 6d3d 203b 00be 667d 5ebc a193 a23d
00000160: 6f81 47bd 9d12 2dbb 20c4 d33d 34e5 97bc
00000170: 9120 033d 38fd 0b3d ca39 c53d 8660 d9bc
00000180: 3de0 bfbc c9c7 f03c 2a7e 94bb f94a 8a3d
00000190: c938 29bd 3bab 40bd cc28 36ba ac50 433d
000001a0: b843 913c 79ba ba3b db7d 9fbc 0f87 9cbd
000001b0: a077 78bc 5f66 7a3b 366e f73c 154c d5bd
000001c0: cb0c 3e3d 0778 ad3d 3160 493d 208f 07bd
000001d0: 0c9f 74bd 6be3 1dbd e1f2 8a3c b3d9 133e
000001e0: 797c c6bc 9026 45bc d4f1 48bd 0c3e 693d
000001f0: ef28 06be 4ac8 f63a 329a 1fbd 64f6 533d
00000200: 6aa6 463b fca4 453c ad7a 8e3d 83e2 32bd
00000210: 1a63 ab3d 2e18 293d adac 133e 8d54 00bd
00000220: 356b dc3c 28a8 28bb 71a5 e2bd eb6b 4f3b
00000230: baf3 15bd 6694 f73c aea4 7c3d 842f 223e
00000240: 73bf 85bd 2273 833b 7417 cf3b f001 a43b
00000250: e430 843c 46ac 8ebd 4200 abba ba8d a8bd
00000260: 8457 293d 07e7 763d 854b a13d 07b2 02be
00000270: faef d4bc 122e 37bd 0419 823d 3b79 babc
00000280: 0ed6 0b3d 62f4 d3bd 5cb0 923a aaf3 f3bc
00000290: a57b 213e f84d 3f3e 1b91 b23d 2a81 f13d
000002a0: 2e4b b83d aea1 883d 0d51 ca3d 31c3 dbbc
000002b0: 06ba 9a3c 87bd 873d 60ae dabd 6d19 4cbd
000002c0: 9e19 75bc c470 27bd 9915 d9bc e0e9 94bd
000002d0: 0c9f 49bd 62c7 ccbc 7b4f 5dbd dbc2 553d
000002e0: 0c81 6dbd 1eb2 32be 4487 0e3e f2cb e6bc
000002f0: a676 713d b8c0 0b3d 6fc3 02bc 40d3 8e3b
00000300: 16e8 563d 8b4f 453d 61bd b53c 3116 343d
00000310: aa75 1b3e da75 9d3a ebd3 ba3c f3b0 983c
00000320: e2c0 08bd 13dd fc3d ec7d 11bd f428 433c
00000330: d27a 3e3c dcf2 b03d c351 6fbd 1a21 babc
00000340: 019e 523d 50b7 01bd f9ae 9fbc 88f8 3239
00000350: 4095 9d3c 3536 5dbe 6d94 943d 99f1 ac3d
00000360: b80b f4bd 203a 1cbc 5cb8 bebc 43ee 193c
00000370: 4bd9 3f3d 9dcb d73c ed25 a03c 8131 ef3b
00000380: efe6 0cbe 071d 40bc ec09 8e3d f46c c93d
00000390: dcee 213d 73b1 1bbe 93a0 4abc 0306 13bd
000003a0: 4d4b e03c e801 0f3c 47cf 8f3d da01 543d
000003b0: 5508 64bc eff4 ed3c 9306 1b3d 9a88 34bd
000003c0: d621 9ebd f95c 083d e4d5 783c 28d6 393e
000003d0: b4b3 7abd 5e06 4b3d 705d 253d b683 5b3d
000003e0: 72e9 123d 41db f13c 73a5 2bbc 5157 26bc
000003f0: dd22 b0bc bd67 a8bd c1ff 3d3d 253f 863c

network_body._body_endoder.seq_layers.6.bias f4 [256]
0.0 0.0 0.0 0.0 0.0 0.0 0.0 0.0
0.0 0.0 0.0 0.0 0.0 0.0 0.0 0.0
0.0 0.0 0.0 0.0 0.0 0.0 0.0 0.0
0.0 0.0 0.0 0.0 0.0 0.0 0.0 0.0
0.0 0.0 0.0 0.0 0.0 0.0 0.0 0.0
0.0 0.0 0.0 0.0 0.0 0.0 0.0 0.0
0.0 0.0 0.0 0.0 0.0 0.0 0.0 0.0
0.0 0.0 0.0 0.0 0.0 0.0 0.0 0.0
0.0 0.0 0.0 0.0 0.0 0.0 0.0 0.0
0.0 0.0 0.0 0.0 0.0 0.0 0.0 0.0
0.0 0.0 0.0 0.0 0.0 0.0 0.0 0.0
0.0 0.0 0.0 0.0 0.0 0.0 0.0 0.0
0.0 0.0 0.0 0.0 0.0 0.0 0.0 0.0
0.0 0.0 0.0 0.0 0.0 0.0 0.0 0.0
0.0 0.0 0.0 0.0 0.0 0.0 0.0 0.0
0.0 0.0 0.0 0.0 0.0 0.0 0.0 0.0
0.0 0.0 0.0 0.0 0.0 0.0 0.0 0.0
0.0 0.0 0.0 0.0 0.0 0.0 0.0 0.0
0.0 0.0 0.0 0.0 0.0 0.0 0.0 0.0
0.0 0.0 0.0 0.0 0.0 0.0 0.0 0.0
0.0 0.0 0.0 0.0 0.0 0.0 0.0 0.0
0.0 0.0 0.0 0.0 0.0 0.0 0.0 0.0
0.0 0.0 0.0 0.0 0.0 0.0 0.0 0.0
0.0 0.0 0.0 0.0 0.0 0.0 0.0 0.0
0.0 0.0 0.0 0.0 0.0 0.0 0.0 0.0
0.0 0.0 0.0 0.0 0.0 0.0 0.0 0.0
0.0 0.0 0.0 0.0 0.0 0.0 0.0 0.0
0.0 0.0 0.0 0.0 0.0 0.0 0.0 0.0
0.0 0.0 0.0 0.0 0.0 0.0 0.0 0.0
0.0 0.0 0.0 0.0 0.0 0.0 0.0 0.0
0.0 0.0 0.0 0.0 0.0 0.0 0.0 0.0
0.0 0.0 0.0 0.0 0.0 0.0 0.0 0.0
00000000: 0000 0000 0000 0000 0000 0000 0000 0000
00000010: 0000 0000 0000 0000 0000 0000 0000 0000
00000020: 0000 0000 0000 0000 0000 0000 0000 0000
00000030: 0000 0000 0000 0000 0000 0000 0000 0000
00000040: 0000 0000 0000 0000 0000 0000 0000 0000
00000050: 0000 0000 0000 0000 0000 0000 0000 0000
00000060: 0000 0000 0000 0000 0000 0000 0000 0000
00000070: 0000 0000 0000 0000 0000 0000 0000 0000
00000080: 0000 0000 0000 0000 0000 0000 0000 0000
00000090: 0000 0000 0000 0000 0000 0000 0000 0000
000000a0: 0000 0000 0000 0000 0000 0000 0000 0000
000000b0: 0000 0000 0000 0000 0000 0000 0000 0000
000000c0: 0000 0000 0000 0000 0000 0000 0000 0000
000000d0: 0000 0000 0000 0000 0000 0000 0000 0000
000000e0: 0000 0000 0000 0000 0000 0000 0000 0000
000000f0: 0000 0000 0000 0000 0000 0000 0000 0000
00000100: 0000 0000 0000 0000 0000 0000 0000 0000
00000110: 0000 0000 0000 0000 0000 0000 0000 0000
00000120: 0000 0000 0000 0000 0000 0000 0000 0000
00000130: 0000 0000 0000 0000 0000 0000 0000 0000
00000140: 0000 0000 0000 0000 0000 0000 0000 0000
00000150: 0000 0000 0000 0000 0000 0000 0000 0000
00000160: 0000 0000 0000 0000 0000 0000 0000 0000
00000170: 0000 0000 0000 0000 0000 0000 0000 0000
00000180: 0000 0000 0000 0000 0000 0000 0000 0000
00000190: 0000 0000 0000 0000 0000 0000 0000 0000
000001a0: 0000 0000 0000 0000 0000 0000 0000 0000
000001b0: 0000 0000 0000 0000 0000 0000 0000 0000
000001c0: 0000 0000 0000 0000 0000 0000 0000 0000
000001d0: 0000 0000 0000 0000 0000 0000 0000 0000
000001e0: 0000 0000 0000 0000 0000 0000 0000 0000
000001f0: 0000 0000 0000 0000 0000 0000 0000 0000
00000200: 0000 0000 0000 0000 0000 0000 0000 0000
00000210: 0000 0000 0000 0000 0000 0000 0000 0000
00000220: 0000 0000 0000 0000 0000 0000 0000 0000
00000230: 0000 0000 0000 0000 0000 0000 0000 0000
00000240: 0000 0000 0000 0000 0000 0000 0000 0000
00000250: 0000 0000 0000 0000 0000 0000 0000 0000
00000260: 0000 0000 0000 0000 0000 0000 0000 0000
00000270: 0000 0000 0000 0000 0000 0000 0000 0000
00000280: 0000 0000 0000 0000 0000 0000 0000 0000
00000290: 0000 0000 0000 0000 0000 0000 0000 0000
000002a0: 0000 0000 0000 0000 0000 0000 0000 0000
000002b0: 0000 0000 0000 0000 0000 0000 0000 0000
000002c0: 0000 0000 0000 0000 0000 0000 0000 0000
000002d0: 0000 0000 0000 0000 0000 0000 0000 0000
000002e0: 0000 0000 0000 0000 0000 0000 0000 0000
000002f0: 0000 0000 0000 0000 0000 0000 0000 0000
00000300: 0000 0000 0000 0000 0000 0000 0000 0000
00000310: 0000 0000 0000 0000 0000 0000 0000 0000
00000320: 0000 0000 0000 0000 0000 0000 0000 0000
00000330: 0000 0000 0000 0000 0000 0000 0000 0000
00000340: 0000 0000 0000 0000 0000 0000 0000 0000
00000350: 0000 0000 0000 0000 0000 0000 0000 0000
00000360: 0000 0000 0000 0000 0000 0000 0000 0000
00000370: 0000 0000 0000 0000 0000 0000 0000 0000
00000380: 0000 0000 0000 0000 0000 0000 0000 0000
00000390: 0000 0000 0000 0000 0000 0000 0000 0000
000003a0: 0000 0000 0000 0000 0000 0000 0000 0000
000003b0: 0000 0000 0000 0000 0000 0000 0000 0000
000003c0: 0000 0000 0000 0000 0000 0000 0000 0000
000003d0: 0000 0000 0000 0000 0000 0000 0000 0000
000003e0: 0000 0000 0000 0000 0000 0000 0000 0000
000003f0: 0000 0000 0000 0000 0000 0000 0000 0000

action_model._discrete_distribution.branches.0.weight f4 [2, 256]
0.0026076834 0.009888852 -0.0015970549 0.0019280746 -0.001568844 -0.009125694 0.0018538659 0.007948295
-0.01511637 -0.0011403839 0.0030386706 -0.0038702001 -0.0028622097 -0.00592124 0.006825617 -0.00061030214
0.013111916 -0.0046128267 -0.009270361 0.0035850944 -0.0030292457 -0.006945815 0.0015873257 0.0010755656
-0.002468763 -0.00023814557 -0.0011480836 2.0667474e-05 0.0011458936 0.003982309 -0.00014934447 0.0010760146
-0.0017323847 -0.013327949 0.0028766335 3.064646e-05 -0.008354184 0.0010192886 -0.002620397 0.0028065415
0.0073493347 -0.0031432384 -0.0005695769 -0.0016752171 0.0022021479 0.003685388 -0.006058503 0.0015524741
-0.0052573537 0.0045843497 0.012965481 0.000702222 -0.00809046 0.0024128223 -0.010607022 0.011502816
-0.0068790526 -0.00029177844 -0.0010345028 -0.0055835824 0.0033244533 0.015040832 0.0043501807 -0.015153013
0.0060511907 -0.0037930382 0.0023373284 0.005328381 0.00085185375 -0.011052306 0.0038214407 -0.00940935
0.0006745943 0.003408945 -0.0036722103 0.012078804 0.0035715054 0.0018353135 0.006577264 0.0025863883
-0.009481373 0.005304732 -0.0019356378 -0.0028280518 -0.00070759316 -0.0021975045 -0.0011639575 0.008571735
-0.02064255 -0.0027406171 -0.010527121 -0.008565686 0.002388301 -0.004613846 -0.0040143724 0.007419067
0.005743544 -0.0032288567 -0.006118355 -0.0035925654 -0.003263369 0.0028344502 0.0028252378 0.0021875966
0.0010797286 -0.00030352199 0.00920206 0.0026548782 -0.001993519 -0.00019024282 0.0008070593 0.0072999555
-0.0008505632 -0.005198428 0.011366221 -0.008550423 -0.001301966 0.014595832 0.0014385598 0.005044764
0.0057721357 -0.004301825 0.004526284 0.0015509068 -0.004562181 0.0022932717 -0.0047178473 0.009333794
0.0075243623 -0.004396073 -0.0030417398 -0.0029951776 -0.007561315 -0.0061001796 -0.0085911965 0.007211037
-0.0035911468 -0.0046349927 -0.0032829454 -0.0036605746 0.0008133965 0.0025502907 -0.0048535075 -0.010341409
-0.0034675025 -0.0067300755 -0.0031411739 -0.0045577805 0.008260315 -0.015015411 -0.0007857775 -0.0026525129
-0.0041698418 -0.010021091 0.0044336505 -0.009403173 -0.003586548 -0.0034147918 0.012043676 0.00888328
-0.005606122 0.0019081783 -0.0017970987 0.004801263 -0.00025164717 0.005671477 -0.0043382156 -0.008563421
0.000873548 0.00647686 -0.003641858 -0.0011085239 0.0007031852 0.0001256716 -0.0089697605 -0.0010807816
-0.000872899 -0.009298916 0.0034151983 -0.008364406 0.0071762935 -0.0010948776 0.0075466447 -0.0031080262
0.0010085999 -0.0039687916 -0.0014706383 0.004419114 0.0071877404 0.009376715 -0.0024751786 -0.00042366024
0.008476813 -0.009033102 -0.003091554 0.0021473907 0.0061256434 0.0048937937 0.0002769819 -0.0064537637
-0.008760639 -0.015708635 -0.0064001516 -0.009956746 0.007986249 0.0015747786 0.005890719 0.0052314075
0.012785437 -0.008749268 0.0009880294 0.006473139 -5.4015767e-05 0.001768072 -0.0029316202 -0.0075973608
-0.0016456511 -0.0025272071 0.012088023 0.002246232 0.008621364 -0.00028373738 -0.0014402157 -0.0030154719
-0.004048745 0.01885673 -0.008082901 -0.014827735 -0.0044365185 -0.0146524655 -0.004050971 -0.009343408
-0.004690467 -0.004982715 -0.014334433 -0.0010195269 -0.0027834326 0.013479099 0.0076812194 5.0963816e-05
0.0002459484 -0.0047770613 -0.0038457492 0.0019536277 0.00883709 -0.005337954 0.0012606848 -0.014703889
0.007177847 -0.0054601934 6.2542927e-06 -0.008100229 -0.005401748 -0.0054627354 -0.004494895 -0.0012040165
00000000: abe5 2a3b da04 223c 4554 d1ba 73b7 fc3a
00000010: aba1 cdba ef83 15bc 6bfd f23a 9139 023c
00000020: a7aa 77bc ef78 95ba 6f24 473b 2fa3 7dbb
00000030: e993 3bbb f606 c2bb 6da9 df3b affc 1fba
00000040: 5dd3 563c 3227 97bb b6e2 17bc e7f3 6a3b
00000050: 4f86 46bb b899 e3bb d00d d03a fef9 8c3a
00000060: f8ca 21bb b7b6 79b9 4b7b 96ba 105f ad37
00000070: cf31 963a 077e 823b 5a99 1cb9 0f09 8d3a
00000080: 2f11 e3ba 785d 5abc e785 3c3b 638a 0038
00000090: fddf 08bc a699 853a f7ba 2bbb f4ed 373b
000000a0: b0d2 f03b cafe 4dbb a94f 15ba f592 dbba
000000b0: e951 103b 8d86 713b 6886 c6bb 637c cb3a
000000c0: e145 acbb 5038 963b 2b6d 543c 5215 383a
000000d0: d98d 04bc 7120 1e3b 13c9 2dbc 4f76 3c3c
000000e0: ad69 e1bb d7f9 98b9 2798 87ba 7cf6 b6bb
000000f0: 12df 593b d26d 763c f68b 8e3b 5844 78bc
00000100: 1149 c63b 9f94 78bb dd2d 193b b399 ae3b
00000110: f04e 5f3a bb14 35bc 2371 7a3b ad29 1abc
00000120: 42d7 303a 9b68 5f3b 77a9 70bb 2de6 453c
00000130: eb0f 6a3b e78e f03a 1786 d73b 6580 293b
00000140: c357 1bbc 51d3 ad3b 3ab5 fdba d656 39bb
00000150: c67d 39ba 0204 10bb ef8f 98ba 7670 0c3c
00000160: 911a a9bc ed9b 33bb f279 2cbc 1757 0cbc
00000170: 0b85 1c3b bf2f 97bb ff8a 83bb a51b f33b
00000180: 5734 bc3b 3a9b 53bb 7b7c c8bb 3f71 6bbb
00000190: 3fde 55bb 2fc2 393b a027 393b c85d 0f3b
000001a0: ae85 8d3a 0822 9fb9 3dc4 163c 77fd 2d3b
000001b0: b3a5 02bb eb7b 47b9 d590 533a 7734 ef3b
000001c0: 55f8 5eba 9357 aabb 6339 3a3c 1317 0cbc
000001d0: bba6 aaba 5b23 6f3c 0f8e bc3a 8c4e a53b
000001e0: 2f24 bd3b 53f6 8cbb 3951 943b cc47 cb3a
000001f0: 597e 95bb b74a 163b 2c98 9abb c5ec 183c
00000200: ed8e f63b ef0c 90bb ed57 47bb be4a 44bb
00000210: e8c4 f7bb 04e4 c7bb 17c2 0cbc 904a ec3b
00000220: 7259 6bbb 23e1 97bb af26 57bb 40e6 6fbb
00000230: 1d3a 553a c722 273b 2c0a 9fbb 036f 29bc
00000240: 0a3f 63bb f787 dcbb 27dc 4dbb 6f59 95bb
00000250: 4656 073c 3303 76bc a3fc 4dba c8d5 2dbb
00000260: 2ba3 88bb 812f 24bc 2848 913b c40f 1abc
00000270: 4a0c 6bbb b3ca 5fbb d752 453c 2d8b 113c
00000280: 8fb3 b7bb d71b fa3a a08c ebba ea53 9d3b
00000290: 83ef 83b9 ccd7 b93b 9727 8ebb 974d 0cbc
000002a0: d0fe 643a d73b d43b 3dac 6ebb e44b 91ba
000002b0: f655 383a b7c6 0339 e7f5 12bc 03a9 8dba
000002c0: 43d3 64ba 7b5a 18bc 85d1 5f3b dd0a 09bc
000002d0: 1d27 eb3b ff81 8fba d849 f73b 07b0 4bbb
000002e0: ff32 843a a30c 82bb 6fc2 c0ba 37ce 903b
000002f0: 2387 eb3b cba0 193c 9b36 22bb b71e deb9
00000300: 55e2 0a3c 93ff 13bc ab9b 4abb 3dbb 0c3b
00000310: 9fb9 c83b 1e5c a03b e237 9139 187a d3bb
00000320: c888 0fbc 65af 80bc 5db8 d1bb 9f21 23bc
00000330: c2d8 023c cd68 ce3a ef06 c13b 3a6c ab3b
00000340: 027a 513c 1759 0fbc c480 813a a01c d43b
00000350: fd8e 62b8 a7be e73a 6d20 40bb 48f3 f8bb
00000360: e3b2 d7ba 809f 25bb d80c 463c 8535 133b
00000370: 9f40 0d3c 96c2 94b9 9fc5 bcba 399f 45bb
00000380: 56ab 84bb 6e79 9a3c 256e 04bc 07f0 72bc
00000390: 3760 91bb e510 70bc 02be 84bb 1815 19bc
000003a0: 7db2 99bb 0b46 a3bb f8da 6abc a5a1 85ba
000003b0: 406a 36bb 70d7 5c3c bdb2 fb3b fbc1 5538
000003c0: a3f2 8039 e588 9cbb f708 7cbb 6f08 003b
000003d0: 71c9 103c 01ea aebb 903d a53a 95e8 70bc
000003e0: 2534 eb3b 6ceb b2bb f7db d136 d3b6 04bc
000003f0: 2601 b1bb bf00 b3bb ea49 93bb 17d0 9dba

action_model._discrete_distribution.branches.0.bias f4 [2]
0.0 0.0
00000000: 0000 0000 0000 0000
